finalhybrid/experiments/experiment_20251104_232429/best_model.pth (torch, 662370 bytes, 50 tensors)

gcn_layers.0.bias f4 [64]
00000000: 789d 29bb 6876 79bc 0000 0000 695a d5bb
00000010: 0000 0000 d176 5b3c 0000 0000 59f6 93bb
00000020: 204b 84bc 79fb 2a3a 0000 0000 0000 0000
00000030: bd3e e83b 4c07 1ebc 0000 0000 53bc 9fbc
00000040: 0000 0000 5fcf 173c 5eb5 863b 5061 e73b
00000050: d035 6abc 7a34 113c c4af 9b3c 7018 72bc
00000060: 25fe a83b 4616 adbc 0000 0000 4466 07bc
00000070: 0000 0000 54c6 e93b 2670 c7ba 0b0d b1bb
00000080: 0000 0000 0000 0000 f344 ab3c 6a6f dc3b
00000090: 0b06 5dbc 331c 24bb 65db 62bc 0000 0000
000000a0: 0000 0000 da60 d4bb dd0c 83ba 0000 0000
000000b0: 7a5e 72bc 68b4 b33c 0000 0000 b390 b33b
000000c0: ed25 293c ed35 12bb ef31 9abb 0000 0000
000000d0: 0000 0000 3272 42bc 0000 0000 0000 0000
000000e0: 3def 6e3c 0000 0000 0000 0000 0000 0000
000000f0: 6f33 453b 0000 0000 fc1b f3bb 0f05 8c3b
-0.0025881212 -0.015225984 0.0 -0.006511022 0.0 0.013395027 0.0 -0.004515451
-0.016149104 0.00065224577 0.0 0.0 0.007087557 -0.009645294 0.0 -0.01949898
0.0 0.00926575 0.004110976 0.007061161 -0.014295056 0.008862609 0.01900471 -0.014776334
0.0051572495 -0.021128785 0.0 -0.008264128 0.0 0.0071342383 -0.0015215918 -0.005403166
0.0 0.0 0.020906901 0.006727149 -0.01349021 -0.0025041222 -0.013846253 0.0
0.0 -0.006481272 -0.000999834 0.0 -0.014793033 0.02193661 0.0 0.005479896
0.010323984 -0.0022309974 -0.0047056596 0.0 0.0 -0.011868047 0.0 0.0
0.014583406 0.0 0.0 0.0 0.0030090471 0.0 -0.0074191075 0.004273064

gcn_layers.0.lin.weight f4 [64, 36]
00000000: b58e 2bbe 990d 2d3c dd17 98bc 02cb 76be
00000010: 87a9 803d 29c5 35be a0f9 91bd 22f6 4abe
00000020: 2426 d9bb cfa1 55be 0af2 2ebe e9a7 79be
00000030: 1269 e13d 4d24 383e 3341 76be 71a7 1f3e
00000040: 1d30 61be 4d42 453e 004d a1bb 7c50 563d
00000050: 3a5b e23d 5145 4bbe 5de2 653e 9415 173e
00000060: b25d 183e cd29 003e 0feb d4bd 0a17 543e
00000070: c08e adbb 5ae1 7bbe a733 593e 8161 5a3e
00000080: 889a 53be f9ea 4bbe 57a8 623d 6a3b c6bd
00000090: 98e6 1cbd 4669 92be bdd4 8ebd 99a4 13be
000000a0: 2621 3ebe c1fd 593d 874a 3b3c 3250 0fbe
000000b0: 1f50 7ebe 9671 88bd 0a63 ae3d a00a 06be
000000c0: 3939 43be 6d08 283e 3c08 f5bd 7d4a 313e
000000d0: e009 e8bb 2402 5cbe bf4b 183e 23f5 2f3e
000000e0: 18d1 67be 7096 a0bd 2025 9ebb 5fd4 b6bd
000000f0: 39e0 4a3e 98a8 75bd eaee 43bc 584c 91be
00000100: 793f 6a3e 9520 483e d784 da3c 74d9 143d
00000110: b0ab 233c 4c61 6b3e 3ad0 253e a352 203e
00000120: 5b4e 323e 4006 66bd 588b e23c 01bc 30be
00000130: f6dc 59be f054 e9bd e411 e1bd e694 843d
00000140: 3a57 973d 97ab 093e 0030 97b8 4802 a8bc
00000150: 2181 023e 4c24 4f3d 1850 c43c 8c96 2c3d
00000160: 30c5 37be 3c22 6b3d fea0 73be aaf7 de3d
00000170: 80cd 38bb d54d 52be 8222 f1bd 567c 13be
00000180: 6696 bf3d 6711 07be 8c7d 28be f816 fdbc
00000190: 4759 593e 0e3f 75be d44e 43be e322 043e
000001a0: a82b 1dbe b415 a4bd c6f0 f3bd 49bd 023e
000001b0: 6c00 08bd dd1f 12be 8db4 6e3e 8e6e 92bd
000001c0: 0546 2e3e 5955 dabb cd9f 3bbd 1469 21bd
000001d0: aadd 22be 469a ffbd 7a89 47be 5fd9 4a3e
000001e0: 3dc4 283e 6873 dbbc 09f6 683e 1e2a b0bd
000001f0: 6cbd a1bd a492 543d 032e 71be 6a90 2fbe
00000200: 672c 613e 50a5 5bbe 7869 10be 7558 6ebe
00000210: 535d 8cbd d866 b4bd 8527 383d 5507 093e
00000220: 9fc8 333e 0379 063e 4923 a63d a520 08be
00000230: 2404 6d3d 2733 30be 7748 6ebe 3518 5a3e
00000240: af66 223e bfa4 00be a3fa 343e d43e 013d
00000250: 21c1 67be 18aa 8fbc c018 d8bc 8f90 163e
00000260: 8020 f43a a44f 58bd e212 f2bd 780e 01bd
00000270: 3c88 8cbd 18d1 38be 9897 05bd a1db 42be
00000280: 8ca5 273d e9cd 3a3e 5e9d 3cbe 9b7d 393e
00000290: 2d9e 5e3e 2f95 46be 7839 903c b8c5 5dbd
000002a0: c2f3 fe3d fb02 1c3e a607 42be 46bc babd
000002b0: 6620 32be e02e 48be 6854 79bd b57c 79be
000002c0: 26bc 4abe 2483 0f3d aa27 76be f5a2 223e
000002d0: fc4d 6bbc be71 00be 6c40 513e 56da 00be
000002e0: 9802 533e 54a8 e63d ece6 2c3e 0033 fbba
000002f0: af1a 44bd 5b45 273e 3844 10be c22b 1cbe
00000300: 0e83 a9bd 9aa1 65be b045 0e3c b2a3 dabd
00000310: 9445 40be 9e2e e3bd 7ecc e63d da8a 1bbe
00000320: 3e61 a7bd b08a dc3d b616 e73d b728 283e
00000330: 0c47 3b3e 0fe9 213e 6338 b93d d565 193d
00000340: 41c5 5c3e d7f9 85bd 35ef 493e 1131 123e
00000350: 544b 48bd 8915 7f3e 5494 813d 9adf bcbd
00000360: f518 0abe 4670 b53d 267a e1bd bde5 273e
00000370: b8f0 6ebd b68c a43d ed05 6b3e 6c52 2bbd
00000380: ed59 66be fd58 2fbe 8848 923c 4889 6cbe
00000390: 9d4a 453e 5a8c 1abe d716 093e 45b2 623e
000003a0: d300 2e3e 4f87 3f3e 5fb7 54be d8fb f13c
000003b0: 738f 053e c67d d33d 4650 02be 7211 963d
000003c0: a296 12be eb99 1a3e 383b b7bd 2b35 2b3e
000003d0: 62f3 e0bd 1e38 61be bd8d 1cbe 667e ab3d
000003e0: 656c 30be 5a00 3abe c8fb 17be c0f1 f2bb
000003f0: 2a9d 45be cae3 65be 551a 3a3d 3789 a73d
-0.16753657 0.010562324 -0.018566066 -0.24100879 0.06282335 -0.17750992 -0.0712769 -0.19820455
-0.006626861 -0.20862506 -0.17084518 -0.24380459 0.11006369 0.17982598 -0.24048309 0.15591218
-0.2199101 0.19263573 -0.004922509 0.05232285 0.11052556 -0.19850661 0.22449632 0.14754325
0.14879492 0.12515946 -0.10396396 0.20711914 -0.005296558 -0.24597684 0.2121111 0.21326257
-0.20664418 -0.19913854 0.055336323 -0.09679301 -0.03830585 -0.28595942 -0.0697417 -0.14418258
-0.18567333 0.053220514 0.011431343 -0.13995436 -0.24835251 -0.0666229 0.08514984 -0.1308999
-0.19064797 0.16409464 -0.11964461 0.17313571 -0.0070812553 -0.21485192 0.14872645 0.17183356
-0.22638357 -0.07841194 -0.004826203 -0.08927225 0.19812097 -0.059975237 -0.011958817 -0.28378558
0.22875775 0.19543679 0.026674671 0.036340192 0.009989664 0.22986335 0.16192713 0.15656523
0.17412703 -0.056158304 0.027654335 -0.17259218 -0.21275696 -0.11393154 -0.109897405 0.064737126
0.07389684 0.13444363 -7.209182e-05 -0.0205089 0.12744571 0.050571725 0.023963973 0.04213576
-0.17946315 0.057405695 -0.23791882 0.10887082 -0.002819866 -0.20537503 -0.1177416 -0.14402899
0.09354858 -0.13190232 -0.16454142 -0.030894741 0.21225463 -0.23949835 -0.1907304 0.12903933
-0.15348685 -0.08011952 -0.11911158 0.12767519 -0.033203527 -0.14269967 0.23311062 -0.07149993
0.17018898 -0.0066630063 -0.045806695 -0.03940685 -0.1590487 -0.12480597 -0.19486037 0.19809483
0.16481109 -0.026788428 0.22750105 -0.08601783 -0.078974575 0.05189766 -0.23552708 -0.17144933
0.21989594 -0.2144978 -0.14102733 -0.23275931 -0.06853738 -0.088086784 0.044959564 0.13381703
0.17557 0.131321 0.08112199 -0.13293703 0.057865277 -0.17207013 -0.2326983 0.21298297
0.15859483 -0.12562846 0.17673735 0.03155406 -0.22632267 -0.017537162 -0.02637899 0.14703582
0.0018625408 -0.052810326 -0.11820008 -0.03150794 -0.06861922 -0.18048513 -0.032615274 -0.19029094
0.040929362 0.18242611 -0.18419406 0.18114321 0.21740027 -0.19392847 0.017605528 -0.054143637
0.12448837 0.15235512 -0.1894823 -0.091179416 -0.17395172 -0.19549131 -0.06087151 -0.24363978
-0.19798335 0.035037175 -0.24038568 0.15882476 -0.014361855 -0.12543389 0.20434731 -0.12583289
0.20606458 0.11262575 0.16884965 -0.001916498 -0.04787701 0.16335051 -0.14088523 -0.15251067
-0.0827695 -0.22424927 0.008683607 -0.10675754 -0.18776542 -0.11092876 0.112694725 -0.15189686
-0.08172844 0.1076864 0.11283629 0.16421781 0.18288821 0.15811561 0.09043958 0.03745063
0.21559621 -0.06541794 0.19720156 0.1427653 -0.048899963 0.24910559 0.063271195 -0.09222336
-0.13486083 0.08859305 -0.11009626 0.16396232 -0.058335036 0.08034651 0.2295148 -0.04182665
-0.22495241 -0.1712379 0.017856851 -0.23099244 0.19266744 -0.15092602 0.13387619 0.22138317
0.16992502 0.1870396 -0.20773076 0.029539034 0.13043003 0.10326724 -0.12725934 0.07327546
-0.14315274 0.15097778 -0.08946842 0.167195 -0.109839216 -0.21994063 -0.15288444 0.08373718
-0.17228849 -0.18164197 -0.1484214 -0.0074140728 -0.19298235 -0.22450176 0.04543527 0.081804685

gcn_layers.1.bias f4 [128]
00000000: a559 2d3c 9cbd 3b3c b63b 3dbc e188 34bc
00000010: ab5b 03bc f780 adbb f805 25bc 0000 0000
00000020: 95d6 42bc e5c3 863c 4644 3e3c cd8e 163c
00000030: 28e6 1cbc a3ba 253b 6779 2b3c c550 193c
00000040: 96cf a9bc cae3 f93b f115 04bc e7e5 03bc
00000050: dae5 ea3b 2382 253b cacd cfbb d73b 08bb
00000060: d0e6 66bb 6492 07bc 545c c43a b7a0 9e3b
00000070: aaf5 17bc f686 dfbb 6eeb 7dbb 9f3c 7abc
00000080: 38a4 a7bb b497 e5ba 0762 393b add1 93bb
00000090: 10d0 03bc f3bc b8bc 35a9 7b3c 6cd1 6d3c
000000a0: c99a 8b3b 388b 2cbc 9078 40bc 1cf2 c43b
000000b0: 761c 56bb 97ef 1aba 4cdf 79bb 1b93 e1bb
000000c0: 0000 0000 db2b 01bc b72b b13b 09ac 74bb
000000d0: ce53 10bc c622 31bc 0000 0000 8685 b9bb
000000e0: 0000 0000 243a d2bb 953e 3bbc 9be1 89bb
000000f0: e64c f5ba b80f ebbb bd69 453c 4ca4 1ebc
00000100: 4b68 953c 2d25 613b 8816 6f3c 410b fa3c
00000110: 244d 7f3b ea9e 003b 64bf 40bc 0a67 ec3b
00000120: dd83 1ebb 8f0a 29bc d3cb aebb 34f5 613c
00000130: 7c16 74bc c7e6 f0bb d6a6 acbb dbe7 15bc
00000140: 2a51 98bb 64ea 86bb 7c1e 0b3c 533a 10bc
00000150: eb0b 02bc 6a78 593c 6774 213b 02ed 9c3c
00000160: f2a9 8dbb ece5 97bc 8a90 9ebb a303 b8bb
00000170: b753 213b 9998 efba a441 a4bb 4f76 96bb
00000180: 04a2 df3b 3be6 503a 19ab c93b 5066 503c
00000190: 8bc4 983c 341c 4a3c 5da8 0b3d 16cb 4ebb
000001a0: 5680 a7bc c3c5 993a 18f3 20bc 61d0 68bc
000001b0: 1237 4cbc a7a0 31bc 2488 513b 80b5 9b3a
000001c0: fa0f b0bb f8b9 86bc 0942 6cbc b1f2 9ebc
000001d0: 0b6d ff39 98a4 fe3a 1048 213b e740 3bbc
000001e0: 6d6c eb3b cced bc3b 5286 083c ae8f 08bc
000001f0: 9899 bb3b 64f3 ffbb 06c1 2aba 9beb 20bb
0.010580455 0.011458781 -0.011549881 -0.011018963 -0.008017461 -0.005294915 -0.010072224 0.0
-0.011891981 0.016450832 0.011612957 0.00918932 -0.009576358 0.0025288246 0.010465956 0.009357636
-0.020728868 0.0076260315 -0.008061872 -0.008050418 0.0071685137 0.002525457 -0.0063416706 -0.002078762
-0.003523279 -0.008274648 0.0014981129 0.004840936 -0.0092748795 -0.0068215085 -0.0038745063 -0.015273242
-0.005116012 -0.0017516525 0.0028287189 -0.0045110793 -0.008045211 -0.022551036 0.015360166 0.014515262
0.004260395 -0.010531239 -0.011747494 0.006010307 -0.0032670773 -0.00059103355 -0.003812748 -0.0068839914
0.0 -0.007883991 0.0054068225 -0.0037333986 -0.008809043 -0.010811513 0.0 -0.005661669
0.0 -0.0064156223 -0.011428495 -0.0042078025 -0.0018714934 -0.0071735047 0.012049136 -0.009682726
0.018238207 0.0034354434 0.014592774 0.030522944 0.0038955892 0.001962597 -0.011764381 0.0072144317
-0.0024187483 -0.010317459 -0.0053343563 0.013791371 -0.014897939 -0.0073517296 -0.005268912 -0.009149517
-0.0046483474 -0.004117297 0.008491155 -0.008802968 -0.007937412 0.013273338 0.0024636032 0.019155983
-0.0043232376 -0.018542252 -0.0048390077 -0.005615668 0.0024616548 -0.001827973 -0.005012708 -0.00459174
0.0068247337 0.00079688773 0.0061544296 0.012719706 0.018648406 0.012335826 0.03409611 -0.0031554154
-0.020446938 0.0011731911 -0.009823583 -0.014209838 -0.012464302 -0.010841525 0.0031972015 0.0011879653
-0.0053729983 -0.016446099 -0.014420041 -0.019402834 0.00048718633 0.0019427715 0.0024609603 -0.011429048
0.007184556 0.0057656523 0.008332806 -0.008335037 0.005725097 -0.007810997 -0.0006513748 -0.0024554494

gcn_layers.1.lin.weight f4 [128, 64]
00000000: 45d4 03be ecb4 49bd 1bc2 343e 8bf3 eb3c
00000010: 938b ccbd 0612 b63b 73b5 5fbd 0d94 20bc
00000020: 61f5 27be e206 d13c 5468 86bd 7d4a 2b3e
00000030: daa5 643e 0915 3fbe 42fa 13be 991c d3bd
00000040: 234f 91bd aa19 3a3e 6a1c 463e f647 15be
00000050: aeef 1c3d 206b 043e 120e cfbc eccb 313e
00000060: 81a2 ddbd 540f f23d 2568 2e3e 4ab4 00bd
00000070: b448 913d 614a c03d 36ad a93d ef67 ecbd
00000080: 540e e8bd c16d 123e a6cd 4b3d 7f0e dd3d
00000090: 9299 303e 3523 093e af48 fcbd 6a63 22be
000000a0: 132e 95bd 765e 373d 1a54 5a3d 83e5 563c
000000b0: e0be 7bbd 7344 23be 9f1e 273e cb14 fbbd
000000c0: 9956 2c3e 57db 823d 6d6e d8bd 1767 7c3c
000000d0: ba12 8a3d f55e 153d d056 62bc 9b5c 6ebd
000000e0: bd70 c6bd 00c0 d23a 8735 ef3d a8f4 943d
000000f0: 3c86 59bd 1ee7 ef3d 7cc0 09be a06f 18bd
00000100: 0e70 9fbd 5162 94bd 1981 a1bd 9265 2cbe
00000110: c30c bbbd f1e0 b8bd e193 ddbd 84b5 243e
00000120: 3b48 f13d 56ab 1b3e 18d8 af3c 9ff8 dd3d
00000130: ddd1 c2bd 28ed dabd bb3e 843d 4162 a3bd
00000140: d96e 03bd 4523 e1bd 6f96 d2bd d250 b7bd
00000150: f6cd e53c 0e74 11bd d37e acbc 085d bfbd
00000160: 1539 06bc 84ff 10bc b8e6 f03c 3ec1 8c3d
00000170: bc5f d83d e122 1c3e 818f 0f3e 5972 3f3e
00000180: 548e abbc a119 213e bf36 4dbe 29c0 213e
00000190: 7552 8cbd beda 8e3d 3c7a 6a3d 984a f1bc
000001a0: 3160 02be f0e4 2bbe e0d9 333e 1b2e 253e
000001b0: 6285 1fbe 4022 de3d 70d9 07be 95d0 263e
000001c0: 8ae1 bbbc 29bf cbbd e852 073e ec89 ed3c
000001d0: 8b7e 523d d068 043e aa30 ccbd 723b e0bd
000001e0: e0a1 22be fab1 21be ab76 d03b 18fd 83bd
000001f0: 232f 54bc 5462 c8bd 2ef9 06be 43e6 b8b9
00000200: d6d4 db3d 6f1a 1c3e b634 e1bd de72 f7bd
00000210: 833a 20be cde9 a93d d4f9 f3bd 7628 2abe
00000220: 0404 e1bd 3a6e 6b3d fd62 833d 7f41 373d
00000230: 26e1 53be f311 d53d 6581 b23d acd2 1f3e
00000240: f015 8e3d e239 69bd d3bd 2bbe bf3d 3bbe
00000250: 0639 ba3d a03a 923d 8b48 dcbd 4280 c33d
00000260: 32f6 d73d 291e cd3d 276b 80bd d532 57bd
00000270: c7e1 c83c 5183 dc3c c945 fd3d 1e6f 6a3d
00000280: 67ad 9fbd 0b1a 1e3e fd5a d43d fa4f 1bbe
00000290: 9042 ad3c 7a68 3abe 0145 dd3c 8c90 483d
000002a0: a28d d73d 3c35 f03d d6c1 77bd dd1f b23d
000002b0: 71a0 be3b ed62 403d c0e5 e4bd 7107 8c3a
000002c0: ab96 a03d 48c8 adbc d32c 2a3d 1e80 c83d
000002d0: c952 f43d 4c29 a53d 42bf 1abe 4a9a 0e3e
000002e0: a423 71bd 0d48 013e c1f2 1c3e fa1a 58bc
000002f0: b0a6 1dbd 6f51 fabd c8c1 973d 7c22 76bb
00000300: 7b78 d3bd 85c0 99bd 9121 9fbd 1748 fd3d
00000310: 51f5 c0bd 4e0b 383d 8694 1c3e cbf3 13be
00000320: 53a4 39be 44ff 5f3d 8822 973d 37f6 9bbb
00000330: f8e1 f2bc 8328 673d b133 25be 469a c2bd
00000340: cce2 24be 350a 843d 8d45 41be 2f8d 273e
00000350: bf6f 9b3d b93d 90bd 11c4 7e3d c2ec 193e
00000360: 5254 abbd fbe7 943d 7821 bdbd fcd2 223e
00000370: f0cc 6e3d 42c9 a73b 0bf6 403d c30e 02bc
00000380: 2f0a 2c3c b0d0 813c fe57 7dbd 43cc f3bd
00000390: 7728 a7bd ee64 59bd 5e78 fa3d fe48 6abd
000003a0: 3bbc 90bd 6f70 d0bd 475a 50bd 1faf 02be
000003b0: f5e8 223d c87d 043d d6ad 123b 00b6 dcbc
000003c0: 977a fa3c 7092 16be 3716 fdbc cbad 3a3e
000003d0: 5c67 91bd fc53 35be 1f41 093d c37f 003e
000003e0: fdf3 afbd 17df bcbd 354c 123e f129 24bd
000003f0: 05e6 a5bc 6cd2 4e3d 8581 31bd b04f a53c
-0.12873943 -0.049244806 0.1765217 0.028802654 -0.09987559 0.005556348 -0.054616403 -0.009800923
-0.16402198 0.025515977 -0.06562868 0.16727634 0.22328892 -0.18660368 -0.14450935 -0.10308189
-0.07095172 0.18173853 0.19346777 -0.14578232 0.038314514 0.1293149 -0.025275264 0.17362946
-0.10822011 0.1181933 0.17031915 -0.031421937 0.07093945 0.09389187 0.082849905 -0.11543261
-0.11330858 0.1429968 0.04975667 0.107937805 0.17246082 0.13392337 -0.12318551 -0.15858236
-0.072841786 0.04476782 0.05330286 0.013116243 -0.06146133 -0.1594408 0.16320275 -0.12259825
0.1682991 0.06389492 -0.10567937 0.015405438 0.06741853 0.03646751 -0.013814643 -0.058193784
-0.09689472 0.0016078949 0.116801314 0.07273227 -0.05310653 0.11714004 -0.13452333 -0.03721583
-0.077850446 -0.07245315 -0.078859515 -0.16835621 -0.091332935 -0.09027279 -0.10819221 0.16084868
0.11781355 0.15202078 0.021465346 0.10838436 -0.095126845 -0.10689765 0.064572774 -0.07977725
-0.032088134 -0.10993055 -0.10282599 -0.08950962 0.028052311 -0.03551107 -0.021056568 -0.09343916
-0.00819232 -0.008849982 0.02940689 0.068727955 0.10565135 0.1524768 0.14019586 0.18695964
-0.02094189 0.15732433 -0.20040415 0.1579596 -0.06851665 0.069753155 0.057245478 -0.029454514
-0.12732007 -0.16786551 0.17563581 0.16130869 -0.15578225 0.108463764 -0.1326654 0.16290505
-0.022934694 -0.0994857 0.1321522 0.02899643 0.051390212 0.12930608 -0.099702194 -0.10948838
-0.15882063 -0.15790549 0.0063618026 -0.06444758 -0.012950691 -0.097843796 -0.13180992 -0.00035266773
0.107339546 0.15244459 -0.10996382 -0.12082456 -0.1564732 0.08296547 -0.11912885 -0.16616997
-0.10987094 0.057478167 0.06415365 0.044740196 -0.20691356 0.10403814 0.08716086 0.15607709
0.06937778 -0.056939967 -0.16771631 -0.18285273 0.090929076 0.07140088 -0.10756024 0.095459476
0.10545005 0.10015518 -0.06270438 -0.05253871 0.024521722 0.026918085 0.12366826 0.057234876
-0.07796746 0.15439622 0.10368917 -0.15167227 0.021149904 -0.18203917 0.027010443 0.048965976
0.10525061 0.11728904 -0.06048759 0.08697484 0.005817466 0.046969343 -0.11176634 0.001068337
0.07841238 -0.021213666 0.041546654 0.097900614 0.119298525 0.080645174 -0.15112022 0.13926044
-0.05887188 0.12625141 0.15326978 -0.013190025 -0.038489044 -0.122225635 0.07410008 -0.0037557175
-0.10325714 -0.07507423 -0.07770074 0.12367266 -0.094217904 0.044932656 0.15291032 -0.14448468
-0.18129091 0.0546868 0.07379633 -0.0047595757 -0.029648766 0.05643512 -0.16133 -0.095020816
-0.16102141 0.06447259 -0.18874188 0.16362451 0.07589673 -0.07043023 0.062198702 0.15031722
-0.08365692 0.07270809 -0.09234899 0.15900797 0.058300912 0.0051204273 0.047109645 -0.00793809
0.010500475 0.01584658 -0.061851494 -0.11904194 -0.08162015 -0.05307477 0.122299895 -0.057198517
-0.07067152 -0.10177695 -0.050867345 -0.12762116 0.039772946 0.032346517 0.0022381446 -0.026942253
0.030576034 -0.14704299 -0.030894382 0.1823036 -0.07099792 -0.17707819 0.03350937 0.12548737
-0.08591459 -0.092222385 0.14286883 -0.04007906 -0.020251283 0.050493643 -0.04333641 0.0201796

gat_layers.0.att_src f4 [1, 4, 64]
00000000: 20d0 503d d4af 81bd cf98 963e a067 18be
00000010: 31a3 9cbe 961c 7e3e e1e2 83bd 0e86 fa3c
00000020: 6818 0a3e 7439 baba f9b2 86be ca15 f6bd
00000030: 53a3 353e bbd0 153d 338c 993e 8b2a 173e
00000040: 29c5 4f3e 412a cf3d 4e8f 573e 255d 813e
00000050: d576 873d 1e24 4fbc 11e3 1dbe 9618 b9bd
00000060: 5e6a 923e 9f18 f0bd 8151 32be b469 0bbe
00000070: 5e1d 2e3e c20a 30be 2863 0ebe 2cb1 52be
00000080: 22bf 4f3d 9603 3f3e 8760 3d3e 5843 1f3e
00000090: 69a5 89be 23a1 14be 3549 873e 9200 ff3d
000000a0: 61f9 413e 11cf 92be 22f8 3ebe 349a ff3d
000000b0: 8ac4 a1be bd1f 533e 10a9 873d 21d6 5dbe
000000c0: eb47 77be 06f2 da3d b078 543e 3613 2bbe
000000d0: bbc3 01be 1f59 46be a3cc 4b3e d26f 7e3e
000000e0: ea83 643e 889f 1ebd 67f0 b73d bdad 03be
000000f0: 3b5d 68be 2320 2b3e f386 3ebe cbc1 433d
00000100: 507b 533e af3f 8c3e 0095 723e 0913 1d3e
00000110: 226f e83a 6598 84be a890 44be 7ca1 783d
00000120: f5f8 7d3e 7ec5 4fbe 6102 873d 0909 c03d
00000130: c747 d0bc 0327 0abe 54ea 863e e6b5 56bd
00000140: 4478 833e dc02 953e 4026 46bc fa6b 1ebe
00000150: b0e3 6a3e 24fc bbbd 6a78 9abc 4340 54bc
00000160: 8e34 24be 21b6 28be a22f 6a3e 08c6 c0bd
00000170: da3b d9bd 8450 d0bd 4bde 963e 9f46 823e
00000180: 4f74 18bd ed7c 90be f91a 6d3e baec b4bc
00000190: 395e 73bd f008 3d3e 728f 943d 93c7 d23d
000001a0: 65f1 b83c 9acb 483d 3403 993e 2974 f83d
000001b0: 2302 47bd 557a 443d 0a31 71be aeea 7fbd
000001c0: 4f1b c83d 9ba1 003e 1fe9 403e 13c5 61be
000001d0: 4b7c f93d 97a6 933e 1ef1 233e 57e0 dd3b
000001e0: fd1b 68be fa01 ce3d 303e 53bd baea f1bd
000001f0: c192 5b3e be57 133e 0178 9abd f5a9 713e
00000200: 3396 a3be ad1e 66be 6513 20bd 6a2c 113e
00000210: d811 7fbe 84be 10be 9a38 33be 6e6a 9c3d
00000220: 8451 523e 496d 103e 1a2f 25be 045d 8b3e
00000230: a957 85bd 58d2 553e d359 603e d0ec a13d
00000240: bea6 863d 1199 c93d 38b2 81be 62a1 22be
00000250: 9a9e 92be 6051 84bd 3165 e03d 09b3 86be
00000260: af31 e9bb 8f02 153e 16fa 193e 2191 3bbe
00000270: 23fc d6bd 5ddb 6f3c e831 62be 528c 5a3d
00000280: ded6 68be b0b3 403d 9691 8e3e bf88 82be
00000290: 8861 2dbe 1059 1dbe c8da bebd 908d 1f3e
000002a0: 6e0d 56be f7cb 7d3e 2280 6a3e 93c5 57bc
000002b0: 2bf6 723e ffdc c3bd 7ec3 53be dfc1 053e
000002c0: 7adf 71bd 7d83 a4bd 2074 edbd 2d9b 91be
000002d0: 718d 6dbe 1a5e 6a3d fa3c 9a3d 79bb 2ebe
000002e0: 67a0 96bd ca94 763e a66f fd3d 59cd 2f3e
000002f0: 265c 8f3e 16bc 6cbe a51a 7ebe 4017 4c3e
00000300: d5ea 37be 2c28 913e e215 37be 1a2e 33be
00000310: dbff 4d3e 2dc0 8b3e c87b 84be 4cfd 113e
00000320: 0ee9 173e 18f3 d1bd db52 023e c8bb 983d
00000330: d67a 1dbd 3d5b eabd 02de 5abe 1ad7 773e
00000340: ac52 7c3e b293 07be bffb 0b3c b9e6 863d
00000350: 5869 483c 1c89 ffbc 087a 463e 0590 3bbe
00000360: 1fa0 8e3e 0db6 793e de8e 68bc ed94 3c3e
00000370: a296 5dbd 9b1e 843e d4dc 8b3e 2522 9ebd
00000380: 5bd4 14bd fb0c 973d 3100 98be 9245 bb3c
00000390: bc0d 15be 7479 a5bc b6d0 68be 475f 8d3e
000003a0: 4b02 11be c9c6 553e 07fd a2bd 0d22 4d3e
000003b0: f1c3 f93d 5a79 62be b71e 41be de3c d0bd
000003c0: 3719 22be 669f 7bbe 0203 27bd 9234 65be
000003d0: 0119 7d3e f6a1 303e 2fa0 23be 5a08 8cbd
000003e0: c9df 0abe 5dce 8abc a0d2 ebbd 6100 f4bd
000003f0: 8a80 aa3d 18ae 78be c8f1 4bbe 8d98 5b3e
0.050979733 -0.06332365 0.2941346 -0.1488328 -0.30593255 0.24815592 -0.06439758 0.0305815
0.13485873 -0.0014207796 -0.2630842 -0.12015875 0.17738084 0.036576014 0.29989776 0.14762323
0.20290054 0.10115481 0.2105076 0.25266376 0.06614462 -0.012642888 -0.1541865 -0.090378925
0.28596777 -0.11723446 -0.17413904 -0.13614541 0.1700339 -0.17191604 -0.13905013 -0.20575398
0.050719388 0.18653712 0.18493854 0.15553033 -0.2688401 -0.14514594 0.2642304 0.12451281
0.18942787 -0.28673604 -0.18649343 0.12480584 -0.3159526 0.20617576 0.06624043 -0.21663715
-0.24148528 0.106906936 0.20749164 -0.16706547 -0.12672321 -0.19369934 0.19902281 0.24847344
0.22315946 -0.03872636 0.089814 -0.12859245 -0.22691815 0.16711478 -0.18606167 0.047792237
0.20652509 0.27392337 0.23689651 0.15339293 0.0017733315 -0.25897518 -0.19195807 0.06070088
0.24802001 -0.20290181 0.065922506 0.09376723 -0.025424851 -0.13491444 0.26350653 -0.052419566
0.25677693 0.29103744 -0.01209408 -0.15470877 0.22938418 -0.091789514 -0.018856246 -0.012954774
-0.16035673 -0.16475727 0.22869733 -0.094127715 -0.10607119 -0.10171607 0.2946647 0.25444505
-0.037220296 -0.2822031 0.2315482 -0.022085536 -0.05941603 0.1846044 0.072539225 0.10291972
0.022576043 0.049022295 0.29885256 0.12131531 -0.048586022 0.047968227 -0.23553863 -0.062479667
0.09770834 0.12561648 0.18838929 -0.22047834 0.1218191 0.28838035 0.16009948 0.006771128
-0.22666927 0.10058971 -0.05157298 -0.11812349 0.21442701 0.1438894 -0.0754242 0.2359999
-0.3195053 -0.2247264 -0.039080996 0.14177099 -0.2490915 -0.14135176 -0.1750206 0.07637487
0.20538908 0.14104189 -0.16131249 0.27219403 -0.065108605 0.20881021 0.21909265 0.079064965
0.06574772 0.09843648 -0.25331283 -0.15881875 -0.28636628 -0.064608335 0.10956801 -0.26308468
-0.0071165184 0.14551757 0.15036806 -0.18317081 -0.1049731 0.014639703 -0.2208935 0.053356476
-0.22738215 0.047046363 0.27845448 -0.25494954 -0.16931736 -0.15366006 -0.09319073 0.15581346
-0.2090356 0.24784838 0.22900441 -0.013169664 0.23726718 -0.09563636 -0.20680043 0.13062237
-0.059051014 -0.08032892 -0.11594415 -0.28438702 -0.23198487 0.05721865 0.075311616 -0.17063703
-0.07354813 0.24080196 0.12374811 0.17168178 0.2799999 -0.23118624 -0.24814852 0.19930744
-0.17960675 0.2835096 -0.17879441 -0.17498055 0.20117132 0.27295056 -0.25875688 0.14256781
0.14834997 -0.102514446 0.1272692 0.074576914 -0.038447224 -0.114431836 -0.21373752 0.24203148
0.24640912 -0.13239935 0.008543908 0.065869756 0.012232147 -0.031193309 0.19382489 -0.18316658
0.27856538 0.24385853 -0.014194218 0.18416186 -0.054098733 0.258046 0.27316916 -0.07721356
-0.03633533 0.07375523 -0.29687646 0.022860322 -0.1455602 -0.020199515 -0.22735867 0.27611753
-0.14161031 0.20876612 -0.079584174 0.2003252 0.12195576 -0.22116604 -0.18859373 -0.101678595
-0.15829931 -0.24572524 -0.040774353 -0.22383335 0.2471657 0.17249283 -0.15979074 -0.068375304
-0.1356193 -0.016944105 -0.11514783 -0.11914135 0.08325298 -0.24285161 -0.19916451 0.21444912

gat_layers.0.att_dst f4 [1, 4, 64]
00000000: a666 80be 8703 a23d 102c e13d ac98 28bd
00000010: 545c 92be 9a25 1d3e 2021 b3bd c270 e9bd
00000020: ca9d 07be 7794 db3d b1d6 cdbd d3e2 3bbe
00000030: 3d00 29be 0337 0ebe 1339 b33c a1cd 30be
00000040: bccb 993d 7d6f 2f3e 712c 8ebe ac68 90be
00000050: 3637 f4bd 2873 bebd a7c5 e9bd 06b5 0abd
00000060: 8ca4 2abe 7d7f 673e 1928 033e cc46 01be
00000070: 5862 773e 9d4d ccbd c22e 34bc f8d9 573e
00000080: 4bd2 4a3e 428b 1f3d 7e16 053e f7d8 893d
00000090: 403c 6f3e 07e1 ecbb e34e 483e ba54 86be
000000a0: 4471 b83d 221e 2c3d c3ce 48be 81ee 533e
000000b0: 7fd3 0cbe 2f15 43be e180 773e 44d1 5cbd
000000c0: b507 543e 96a9 073e 69aa de3d bbed ce3d
000000d0: 8195 1c3d 178c 57bc e83e 643e a514 97bd
000000e0: ca3b 96bd 7e2b 38be 7283 a93d d022 903e
000000f0: 31ce 6abd c6ba 3ebe 7a2d 83bc b7a0 4f3e
00000100: 3feb 87be 5b1e 833d 723f 51bd a55c 923e
00000110: fbc7 a13d 404a f5bd 872e d0bc 3b83 b13d
00000120: bc97 91be 93ca 2e3e b4c9 00bd a743 dcbd
00000130: c93e 053e 1586 51be 8e71 fcbc f48c 3b3e
00000140: f797 dcbd b850 a2bd 2282 86be 495a 833e
00000150: 904d 783e 04d2 8d3e 90c1 7a3e cdf2 2c3e
00000160: a5a3 353e 9ecd 373e b426 f8bd 86b7 18be
00000170: f21b c1bc 4738 43be 4143 cabd f910 203e
00000180: bf9c 843e a237 86bc 8cc5 433e 4bb1 d83b
00000190: c860 a73b 5dbf 16bd 80fa 75be ab65 8f3e
000001a0: 470e 353e 57e9 203e dd48 933e ff7a 30be
000001b0: edaa b53d a1a4 893d 114e 53be 9071 933e
000001c0: e6a5 213e 0626 d6bc 8e2e 65be 0e1e b63d
000001d0: a456 843e 2fcb 703e 4053 3b3e e767 323d
000001e0: d887 5cbe 1505 ac3d 6890 3abe cd1e a03d
000001f0: 16cd 5ebe b9fe 093d 52c6 18be cdd8 013e
00000200: 1475 0fbd 65d5 a93c b5a5 793d 8e66 9d3d
00000210: c0ee 633c f878 7a3d 93a4 85be 359c e0bd
00000220: 19db 5f3c ae97 f7bd 6939 163e 4432 b5ba
00000230: 2226 65be 7066 ae3d 3b84 0bbe 46d2 fa3d
00000240: ffa8 10be 56c4 b2bd c603 1f3d 7df7 543e
00000250: 69e7 843b 645f 8a3e 9063 1abd 59ad 26be
00000260: 78d3 953e b1f9 e43d 3a17 403e c0a5 783e
00000270: e31c 113e 93d1 af3d b3b6 353e 6186 3d3d
00000280: 165b 68be b55a 64be 6f18 333e 2bfc 65bc
00000290: 6749 31be f985 91bd df03 15be 903b 8e3e
000002a0: ccbf 093e 1987 d13d c90a 04be 5555 933e
000002b0: 70f3 673d e197 693e 940b 3dbd 87b8 91be
000002c0: 2f0a f73d ffd8 06be 881f 18be f43f 043d
000002d0: 6360 2e3e 1580 fdbd 6d1a 953d 827b 33be
000002e0: 53a4 50be 40bf 663e f2a3 543d 3b23 013e
000002f0: 907e 51bc 8077 07be 5447 ce3d bc72 993e
00000300: cf92 32bc c7df a93d fadb 5fbe d97b 2d3e
00000310: 0cd0 323e e913 813c c727 01be 1e53 55be
00000320: 73dc 7dbe ab85 043e f236 09be d0da 99be
00000330: 9aac 113d 7342 863e 1ce5 5abe 6b7e 453d
00000340: 936e 67be 6a0c 47be d32a 69bd bfff e93d
00000350: d33d c33d 8ba0 9abe da28 91be 8062 5fbd
00000360: e4ae 843e 6ff7 1a3d 55b2 e5bc 5ede 8f3e
00000370: c0b4 563e 7161 143d 7cb6 86be a885 6fbe
00000380: 1f75 3b3e 4f5b 9a3e e306 08be 32a8 42bd
00000390: 2a98 9c3e 9126 40bd 9cc9 82be ca92 10be
000003a0: b18e 64be 134a 003e 430b 993c a082 febc
000003b0: 77c0 243e 6364 153e 750a 343e eb83 15be
000003c0: 8582 413d a50b 853e 1568 b03c 9e9c 453e
000003d0: 1693 4d3e ef8d 0f3c 6192 cf3a 0edf 4dbe
000003e0: 3ea7 bdbd 8668 96bc c699 fa3d a825 12bc
000003f0: fe99 463e c388 813d a164 a0bd a145 23be
-0.25078315 0.07910829 0.109947324 -0.041161224 -0.28586066 0.15346375 -0.087465525 -0.1139846
-0.13243786 0.10721677 -0.10050715 -0.18348245 -0.16503997 -0.13888173 0.021877801 -0.17265941
0.075095624 0.17132373 -0.2776828 -0.28204858 -0.11924593 -0.09299308 -0.11414652 -0.033864044
-0.16664332 0.22607227 0.12808265 -0.12624663 0.24158609 -0.09975741 -0.010997476 0.21079242
0.19806783 0.038951166 0.12996861 0.06730836 0.23362827 -0.007228974 0.19561343 -0.26236516
0.09005979 0.042020924 -0.19610123 0.20696451 -0.13752554 -0.1905105 0.24170257 -0.05391051
0.20706065 0.13248286 0.10872347 0.10103937 0.038228516 -0.013155959 0.22289622 -0.073769845
-0.073356226 -0.17985341 0.08277024 0.2815156 -0.057325546 -0.18625936 -0.016012896 0.20276152
-0.26546666 0.06402274 -0.051085897 0.28586307 0.07899471 -0.11977053 -0.025412811 0.08667608
-0.28436077 0.17069463 -0.03144236 -0.10755091 0.13012232 -0.20461304 -0.030815866 0.18315488
-0.107711725 -0.07925552 -0.26271158 0.2565482 0.24248338 0.27699292 0.244879 0.16889496
0.17738207 0.1794953 -0.12116757 -0.14913759 -0.023572896 -0.19064437 -0.09876109 0.15631475
0.25900838 -0.01638395 0.19118327 0.006612932 0.005107973 -0.036803592 -0.2402134 0.28007254
0.17681228 0.15714012 0.28766528 -0.1723442 0.08870492 0.067208536 -0.20635249 0.2879758
0.15785941 -0.026141178 -0.2238104 0.08892451 0.25847352 0.23515008 0.18293476 0.04355612
-0.21536195 0.08399407 -0.18219149 0.07818375 -0.21757922 0.033690188 -0.14919403 0.12680359
-0.035023764 0.020731637 0.060949046 0.076855764 0.013911903 0.06115052 -0.26102123 -0.10967294
0.013663077 -0.120894775 0.14670338 -0.0013824184 -0.22377828 0.08515632 -0.1362466 0.12247138
-0.14126967 -0.08728854 0.038821958 0.20797534 0.0040559066 0.27025902 -0.037692606 -0.16277064
0.292629 0.11180437 0.1875886 0.24281979 0.14171176 0.08584895 0.17745475 0.04627073
-0.22690997 -0.22300227 0.1748979 -0.014037172 -0.17313157 -0.071056314 -0.14552258 0.27779818
0.13452071 0.10230846 -0.12894739 0.2877604 0.056628644 0.22811843 -0.04615362 -0.28461096
0.12062489 -0.13168715 -0.14855778 0.032287553 0.17028956 -0.12377945 0.07280431 -0.17527583
-0.20375185 0.22533894 0.051914163 0.12611096 -0.0127865225 -0.1322918 0.100721985 0.29970348
-0.01089926 0.08294635 -0.21861258 0.16941775 0.17462176 0.015756564 -0.1261283 -0.20832488
-0.24791126 0.12941615 -0.13399866 -0.30049753 0.035564996 0.26222572 -0.21376461 0.048216265
-0.22600774 -0.1943833 -0.056925606 0.11425733 0.095332764 -0.3020061 -0.2835148 -0.054537296
0.2591468 0.037833627 -0.028039137 0.2809934 0.20967388 0.03622574 -0.263111 -0.2339083
0.18306397 0.30147788 -0.13283877 -0.047523685 0.30584842 -0.04691178 -0.2554444 -0.14118496
-0.22320057 0.12528257 0.018682128 -0.031068146 0.16089045 0.14589076 0.17582114 -0.14601104
0.047243614 0.25985447 0.021534005 0.19298026 0.2007564 0.008761867 0.0015836471 -0.2010462
-0.092604145 -0.018360388 0.12236361 -0.008920111 0.19394681 0.06324913 -0.078316934 -0.1594453

gat_layers.0.bias f4 [64]
00000000: 0000 0000 90c8 85bc a8af a5bc f427 48bc
00000010: 32aa b7ba 1848 5b3c 9324 27ba 0000 0000
00000020: 34e5 88bb b225 02bb fd5c 3dbc f2ca 84bb
00000030: 0000 0000 86ac 20bc 210f 723b 8524 bebc
00000040: 8433 79bb 8dcb 67bc 66b5 863b b167 0c3c
00000050: 181d 63bc 84b8 c8bb 9ed1 573c 27d2 b1bc
00000060: f1fd cdbb 4b54 05bb 0000 0000 a87b d63a
00000070: 444a 81ba 3ee9 acba ed6f c7ba f788 28bc
00000080: 0988 0cbc 0000 0000 493a fcba 04c9 98bb
00000090: 3174 4cbc 08b1 7d3b 7916 2f3a 0000 0000
000000a0: 0000 0000 0000 0000 e89a a33c ac61 cdb9
000000b0: 0000 0000 0000 0000 f000 b03c 1121 05bc
000000c0: 9bcd 93bb 831c 12bc c273 3bbc 340f ff3c
000000d0: d6e0 61bb 0000 0000 5bad 2c3b b4e8 293c
000000e0: 8ac7 f6bb 0000 0000 9ba1 24bc 7757 47bc
000000f0: 0000 0000 5f64 1fbc 6fc4 2dbc d594 2abc
0.0 -0.016330987 -0.020225361 -0.012216557 -0.0014012514 0.013383888 -0.00063759944 0.0
-0.0041777138 -0.0019858894 -0.011557815 -0.0040525133 0.0 -0.009806758 0.0036935287 -0.023210773
-0.003802509 -0.014147651 0.00411098 0.008569644 -0.013861917 -0.0061255116 0.013172535 -0.021706654
-0.0062863757 -0.0020344432 0.0 0.0016363757 -0.0009864052 -0.001319207 -0.0015215852 -0.010286561
-0.008577355 0.0 -0.0019243445 -0.004662635 -0.012478874 0.0038710255 0.0006679069 0.0
0.0 0.0 0.019971326 -0.00039173418 0.0 0.0 0.021484822 -0.008125559
-0.004510594 -0.008917931 -0.011441173 0.03113518 -0.0034466288 0.0 0.0026348445 0.010370422
-0.007531111 0.0 -0.010048295 -0.012166849 0.0 -0.00972852 -0.010605915 -0.010411461

gat_layers.0.lin.weight f4 [256, 36]
00000000: 3e79 36bc 7db7 21bd b37a f33d f1f8 db3d
00000010: 84dd 7dbc 04dd 1ebe bab5 1fbd 34d0 cc3d
00000020: 541f fdbd 2acd cc3d 0084 3cbd 96b5 c4bd
00000030: 9c36 9abd 1464 a6bd 8411 873d 0d9f 02be
00000040: 1eec 5abd 42c2 dd3d 78d1 c13d 8699 57bd
00000050: 7e1d 62bd 51db ef3c 663a 5cbd 0eb9 963d
00000060: 5343 afbd 8aaf efbd 7429 c1bd 80b3 13bd
00000070: b260 14be dd75 03be 3c75 eebc 22f9 3dbd
00000080: 2a1a ed3d e2f6 e73d 0dc9 133d 4a3e 933b
00000090: 4a93 a6bd 74ab 1abe c34c 64bd d466 02be
000000a0: b10a dbbb a2be 7b3d b575 17be 1d65 91bd
000000b0: 3360 533d 00b4 06b9 08c8 87bc 9795 0f3e
000000c0: e4cb 55bd 7753 f5bd 3aed d0bd 90b1 97bd
000000d0: 9a8e ab3d dadf 8f3d 9446 4a3d 4041 053d
000000e0: 9783 0e3e e481 f9bd 907a d6bd 9319 a43b
000000f0: 1bbb de3d 47b3 0bbe d31b 40bd d584 973d
00000100: 9303 eb3d 2d6d 0cbe dcbe cfbd e6a9 e23d
00000110: 7825 8c3c 6952 2b3d f51e 1abe ffcb dfbc
00000120: 2c42 203d 8d83 5fbc 7784 fc3d 3953 d43d
00000130: 029f edbd a03b c6bd fb14 e6bd 4036 853b
00000140: d395 203e 0ab6 bfbd c89b 973d e4ae b9bc
00000150: dc4d d53d 008c 3f3c 24a4 66bd 8cc9 abbd
00000160: 1300 d8bd 61dc ffbd 9c1a 963d d7bc f6bd
00000170: 567f 06be 4860 133e 94c9 23bd a1eb 64bb
00000180: 98b4 163d 142f 2dbd bb79 a3bd 1cdb c3bd
00000190: 3acc 8b3d 4ba4 d5bd 6be4 9d3c 82c0 b53d
000001a0: c04f 61bb c7f9 fd3b 59bb 663d 4f8d a6bd
000001b0: 03c3 febd 3e2b 023d ac11 a43d 3dd5 58bd
000001c0: 5ef1 a83d e408 bbbd f0c1 813d 100d ae3c
000001d0: 498d 1dbc 3640 a2bd a08f a13b 6e26 df3d
000001e0: a4ea 393d 85e0 033e 1082 aebd 0ec1 84bd
000001f0: e8e2 7a3d 0060 b0ba 9829 a9bd 62cb c2bd
00000200: 1e09 d03d 1c40 de3d d9fb 033e 6411 cd3d
00000210: 7b25 943d 024f e03d b01c 0a3d 72bd 0abe
00000220: 0745 0d3e 7253 74bd 2b1d 613c 0b98 0e3e
00000230: cada ed3d 20de ee3d 3efa 383d d916 9a3d
00000240: 7f87 cfbd d770 c03d 8468 e23c 954f 923d
00000250: 7984 66bc 568d ccbc 7889 eabc 42fe c53d
00000260: cbf1 023c 37b3 adbd 5592 0b3e e60d c83d
00000270: e07b 923c 408c c0bb 304e 523d 2c36 593d
00000280: f74d 123e f81f 603d c09e 68bc 7596 86bd
00000290: f705 a6bd 0c4d cfbd 0689 1bbd 9e95 18be
000002a0: 33b8 983d 90a7 273c 2383 b0bc b470 febc
000002b0: b4ad c7ba 3727 c63d 15ce 89bc 0f7c a1bd
000002c0: e613 5ebd c6cc 53bd 94ac 09be 1aab 053e
000002d0: bcbe 82bc 7c71 8c3d 715e 0a3e 4a6a 13be
000002e0: 11d3 e8bc 6c99 fabd 18a2 e6bd 73c9 f1bd
000002f0: 8c35 d3bd 66f6 ec3d 43ff 113e 6094 04be
00000300: 846b cebc 8014 f73a 5805 5bbd 8094 59bd
00000310: 7224 6abd f744 043e 14b7 a83d 7c9e eebd
00000320: e694 29bd ee38 103e 5c14 7c3d 09a6 913d
00000330: ad27 4ebc d8e9 063d 0c75 10bc 6914 7fbd
00000340: 187a 9e3d 6288 5cbd 8502 49bd 8f71 ecbd
00000350: baf3 fa3d 8546 85bd 2d71 c3bc 2e59 a2bd
00000360: 46ad 4abd 8030 083e 909a 1cbe 12af 383d
00000370: ac01 f5ba 2876 873d e257 9dbd ca30 82bd
00000380: 6fbd 9dbd c02c 0e3d 9ba2 d3bd 5620 a43d
00000390: ccef 1e3d dcd1 efbd c0c4 92bd b557 02be
000003a0: d6be fa3d 9e6f eabd 80ca e23a 60c5 203c
000003b0: 0cd3 b2bc c73b bebd 44c2 edbd a95f 823d
000003c0: 85a7 493d 6e17 7abd d812 95bc f621 573a
000003d0: 8332 02bd aaac a33c 512f d83b 141f 0c3d
000003e0: faf8 adbd 4fdd 4cbd 1f9e bb3d c59d 0f3e
000003f0: c403 873c 461a e9bd bdcc bbbd 1311 d2bd
-0.011137305 -0.03948163 0.118886374 0.10740841 -0.015494708 -0.15513998 -0.038991667 0.10000649
-0.12359491 0.100000694 -0.046024323 -0.09604947 -0.07529947 -0.08124557 0.06595138 -0.12755986
-0.053447835 0.10828067 0.09463781 -0.052636646 -0.055203907 0.029279383 -0.05376663 0.07359515
-0.08557763 -0.11703403 -0.09431735 -0.036059856 -0.14490011 -0.1283793 -0.029108636 -0.04638017
0.11577256 0.11326386 0.03608041 0.0044935094 -0.08133562 -0.15104467 -0.05573727 -0.12734538
-0.006684624 0.0614611 -0.14790995 -0.07099364 0.051605415 -0.00012846291 -0.016574875 0.14021908
-0.0521964 -0.1197881 -0.102014974 -0.07406914 0.083768085 0.07025118 0.049383715 0.03253293
0.13917385 -0.12182978 -0.10472596 0.0050079315 0.10875531 -0.13642608 -0.046901535 0.073983826
0.11475291 -0.13713522 -0.101438254 0.11067562 0.01710771 0.04182664 -0.15050872 -0.027318953
0.039125606 -0.013642204 0.12329953 0.10367436 -0.11602594 -0.09679341 -0.112344705 0.004065305
0.15682153 -0.09360893 0.0740276 -0.022666402 0.10415241 0.011691093 -0.05630888 -0.083880514
-0.10546889 -0.12493206 0.07329294 -0.12047737 -0.13134512 0.14392197 -0.03998716 -0.0034930485
0.03679332 -0.042281225 -0.079822026 -0.09563276 0.068260625 -0.10431727 0.019273957 0.088746086
-0.003437981 0.007750723 0.056331012 -0.08132421 -0.12439539 0.03177952 0.08011183 -0.052937735
0.08249162 -0.09132555 0.06335819 0.021246463 -0.009616205 -0.079224035 0.0049304515 0.10896002
0.045389786 0.12878616 -0.08520901 -0.06482135 0.06125155 -0.0013456345 -0.082598865 -0.095114484
0.10157989 0.10852072 0.12889041 0.100130826 0.07233711 0.109525695 0.033718765 -0.1354883
0.13795863 -0.059649892 0.013739864 0.13925187 0.11613996 0.11663461 0.045160525 0.07523889
-0.10133266 0.093965225 0.027637728 0.07144085 -0.01406967 -0.024969738 -0.028630003 0.096676365
0.007992218 -0.08481448 0.1363004 0.09768276 0.017881334 -0.005876094 0.051344097 0.053030178
0.14287554 0.054717988 -0.014198005 -0.06571666 -0.081066065 -0.101221174 -0.037972473 -0.14900824
0.07457008 0.010232821 -0.021546906 -0.0310596 -0.0015234263 0.096754484 -0.0168219 -0.078849904
-0.054218195 -0.05170896 -0.1344474 0.13053551 -0.01596009 0.06857583 0.13512589 -0.14396015
-0.028420957 -0.12236294 -0.11261386 -0.118060015 -0.10312948 0.11570434 0.14257531 -0.12947226
-0.025197752 0.0018850714 -0.053471893 -0.053120136 -0.057163663 0.12916933 0.082380444 -0.11651322
-0.041401766 0.14084217 0.061542854 0.07111747 -0.012582702 0.032937855 -0.008816969 -0.062275324
0.07738131 -0.053841002 -0.04907467 -0.11545097 0.122535184 -0.06507591 -0.023857677 -0.07927166
-0.049481653 0.13299751 -0.15293336 0.045088835 -0.0018692515 0.066143334 -0.07682778 -0.06356962
-0.07702147 0.034710646 -0.10333749 0.0801398 0.038802907 -0.117099494 -0.07166433 -0.1272877
0.1224343 -0.114470705 0.0017302781 0.009812683 -0.02182915 -0.092887454 -0.11609319 0.06365902
0.049232025 -0.0610575 -0.018197462 0.00082066597 -0.031786453 0.019979794 0.0065974374 0.034209326
-0.08494754 -0.050015744 0.091610186 0.14025028 0.016481288 -0.113819644 -0.0916991 -0.10257163

gat_layers.1.att_src f4 [1, 4, 128]
00000000: b36f dd3d 1089 c03d ad2c 87bd 6da1 b93d
00000010: 1fdd 703d 41cb b2bd c057 273e f40a cd3c
00000020: 0f1a 59bd 81e0 543e c3d6 173e 7e05 49be
00000030: 7392 32be d8c2 17be 70b1 873d d0d0 0dbe
00000040: cc81 e13b 324b 8cbc 44a4 9c3d 30f4 95bd
00000050: df19 163e 5729 343e 72ec d0bc 1a93 6ebe
00000060: 6c5d 483e 9bcb 09be 07b8 db3d d422 71bd
00000070: 846e 4a3e 1e15 7ebd b51c 083e 3f35 003c
00000080: 80bb 173e f1df a6bd 8c65 32be 271d debc
00000090: 1c30 523e f829 14bd 6ceb 1c3d 58a5 e33d
000000a0: 364a bfbc 0490 9fbd 817b 03bd f230 933d
000000b0: b8c7 323e 4995 9a3d 3e8d a7bc e463 053d
000000c0: bb20 94bd c0d8 fb3d 8417 a73c 81ee 0b3e
000000d0: 974a 58be a707 dc3d 722d 2bbd 2fc2 5b3e
000000e0: b972 7fbd b85e f0bd 79b5 fcbd a7c1 1b3e
000000f0: 1e95 57be e10e f3bd 0d04 ffbd aff8 113e
00000100: 5985 b4bc ff6f 64be 9960 07be 94d6 a6bd
00000110: 50d5 cb3c 8cbf d8bd c8cf 2fbe 61cb 48be
00000120: 58a7 59bd 94c4 19be 76ee 63be 4ca8 383d
00000130: 722a 0c3e afb1 e03d 9aa8 2ebe 8a13 2a3e
00000140: 55f0 23be 7a12 02be d098 0fbe b55e 7b3d
00000150: dc18 923d efe6 393d 93f7 babd 5668 7abc
00000160: 1be7 193e 551a 2ebd e253 87bc bbd9 8ebd
00000170: 1635 473e 02ea 48be 53db 9ebc 3249 c43d
00000180: d4a7 053d 807e 1c3e ceb5 adbd 88f7 36bd
00000190: 057e 3d3e 3622 0e3e 1c29 bf3b 8cd8 7d3d
000001a0: 180e 043e 3bc2 293c 816d 4db9 9166 6e39
000001b0: 5d74 363e b81f 163e d372 9abd d65b ca3d
000001c0: 8411 133e 4ad8 123d ccff 0abe 5051 613d
000001d0: 77ab 14be 808c 2f3b c6fc 1e3e 1681 ce3d
000001e0: b78b fc3b 51c0 53bc 3470 1a3d eff5 ebbd
000001f0: 3651 30be 442e 183e 68eb 06bd 904e 94bd
00000200: 78d7 36be d21b b53d 3210 59be 81be 113e
00000210: c1f2 8bbd bd65 08bd 2110 b03d 4269 523e
00000220: e0cb 32be e567 febd e544 d3bd 6c8e 18be
00000230: 6eb2 a9bd 99b4 10be 505a 1ebe 8b3f 2a3e
00000240: 9593 293e 71a1 47be 5299 dc3d a4a5 063e
00000250: 3b81 b2bc dca0 52be 5e09 093c 43f6 0f3d
00000260: 91d8 1a3e ec8e 7f3d 682c 703c d3b8 c63d
00000270: d3b3 cabd 754f 123d 2d51 1c3e 5e9d 4fbc
00000280: dd33 2c3d 757b 3d3e 2dcb 45be 1321 383e
00000290: 3422 5d3b 632d 1ebd 2a6b debd cd3c a2bd
000002a0: 9eaf b3bd 049b 393e d1e0 59be 5e3c 233c
000002b0: a09b 04be 8dfc 89bd 4bcd 92bd 3229 173e
000002c0: e795 163e ae03 10bc 50d9 12bd 0854 fc3d
000002d0: f2e8 273e 5f40 40be 9f49 d7bc 17f1 833d
000002e0: d271 a23d 6d69 debb 2ed8 303e c3da ffbd
000002f0: 31b3 86bb 185c 48bc 378c 4f3e 4fd6 90bc
00000300: 8c72 cc3c fa23 a23d 7db3 05bd 3342 b63c
00000310: 202a 9ebc e96b f3bc 8b8e 48bd f1c2 32be
00000320: 6e34 123e e0f4 f5bd 2e7b 033c f2e1 0b3d
00000330: 137e 5b3d 5d37 74bb a4cb 733c 4fbb 44be
00000340: 7097 11be 1e90 a2bc a1be afbb 28b3 573e
00000350: 63bc 2d3e 78e3 3b3e e74a 4cbe c4c0 a93c
00000360: cc9e 563e 68f5 41be 9e16 473e bead f2bd
00000370: 52df b53b 295d 80bc 74cf 613e 6789 333d
00000380: aaff 573e 155d 443d 52bb ccbd ef18 23be
00000390: 4115 3cbe d1c8 583e 4892 f9bd 7c3e 3e3e
000003a0: 0ada caba b31f 1ebd 1c25 2d3e d7c5 78bd
000003b0: d449 acbd fc62 2bbe 0417 37be 24bc 1bbd
000003c0: d0da 803d b7f3 633d 047d 333e bc49 8bbb
000003d0: 4d63 583d 1ed9 84bd e3c6 19be 42ee 3a3e
000003e0: 0a3f 26bc c829 0bbd 92f8 d43c d0ed 993d
000003f0: 8a77 23be f854 aebd 7fe5 d13d c745 063e
0.108123206 0.094011426 -0.06600318 0.09063993 0.058804628 -0.08730174 0.16342068 0.025029637
-0.053003367 0.20788766 0.14828019 -0.19631001 -0.17438678 -0.1482042 0.066256404 -0.13849187
0.006881928 -0.0171257 0.07648519 -0.07321966 0.14658307 0.17593895 -0.02550337 -0.23298302
0.19566888 -0.13456576 0.1072846 -0.058871105 0.19768721 -0.062031858 0.13292201 0.007825195
0.1481762 -0.08148182 -0.1742155 -0.02711351 0.20526165 -0.036172837 0.038310453 0.11115521
-0.023350816 -0.07791141 -0.032100204 0.0718707 0.17458999 0.07548005 -0.020453092 0.032565966
-0.07232805 0.12297201 0.020396955 0.13665201 -0.21122204 0.10743647 -0.041791387 0.21460794
-0.062365267 -0.11736816 -0.12339301 0.15210591 -0.21052977 -0.11868072 -0.124519445 0.14255022
-0.022036241 -0.22308348 -0.13220443 -0.08146396 0.024881989 -0.1058341 -0.17169106 -0.19608833
-0.053138107 -0.15016395 -0.22258934 0.045082375 0.13688067 0.109713905 -0.17056504 0.16609016
-0.16009648 -0.12702361 -0.14023137 0.061369617 0.07133648 0.04538625 -0.09129252 -0.015283665
0.15029566 -0.04250558 -0.01651949 -0.069751225 0.19453844 -0.19620517 -0.019391691 0.095842734
0.032630756 0.15282631 -0.08481942 -0.044669658 0.18505104 0.13880238 0.005833758 0.061974093
0.12896001 0.01036125 -0.00019591117 0.00022735658 0.17817827 0.14660537 -0.07541432 0.098807976
0.1436215 0.0358508 -0.13574141 0.055009186 -0.14518534 0.0026786625 0.15526113 0.10083215
0.007707085 -0.01292427 0.03770466 -0.115215175 -0.1721848 0.14861399 -0.032939345 -0.07241547
-0.17855632 0.08843197 -0.21197584 0.14232828 -0.06833411 -0.03330015 0.08596826 0.20547965
-0.17460585 -0.1242216 -0.10315875 -0.1489808 -0.08285986 -0.14131393 -0.15464139 0.16625802
0.16560204 -0.19495179 0.10771431 0.13149124 -0.021790138 -0.20569175 0.00836405 0.035146963
0.15121676 0.06239216 0.014659025 0.09703221 -0.0989758 0.035720307 0.15265341 -0.012671797
0.04204165 0.18504126 -0.19315787 0.17981367 0.003374231 -0.038617503 -0.10860284 -0.07921753
-0.08773731 0.1812554 -0.21277167 0.009963123 -0.12949991 -0.06737623 -0.07168063 0.14761809
0.1470562 -0.00878994 -0.035851777 0.12320715 0.16397455 -0.18774556 -0.026280222 0.064424686
0.07931866 -0.00678747 0.17269966 -0.12492897 -0.0041107167 -0.012228988 0.20268331 -0.017680315
0.024956964 0.07917018 -0.032641876 0.022248363 -0.019307196 -0.029714542 -0.048964065 -0.17457177
0.14277813 -0.12009597 0.008024974 0.034151025 0.05358703 -0.0037264444 0.014880095 -0.19212078
-0.14217925 -0.019844111 -0.005363301 0.21064436 0.16966395 0.18348491 -0.19950448 0.0207218
0.20959014 -0.18941271 0.19442222 -0.11849545 0.0055503035 -0.015669422 0.22051793 0.04383221
0.21093622 0.047940332 -0.09996666 -0.1592748 -0.18367483 0.21170355 -0.12186104 0.18578523
-0.0015476358 -0.03860445 0.16908687 -0.06073555 -0.08412519 -0.16736978 -0.17879874 -0.03802122
0.06291735 0.055652346 0.17528158 -0.004250733 0.052829076 -0.06486724 -0.15017276 0.1825495
-0.010146866 -0.033975393 0.025997434 0.07516062 -0.1596357 -0.085123 0.10248851 0.13112555

gat_layers.1.att_dst f4 [1, 4, 128]
00000000: 9134 2dbe 46b6 303e 1e5e 4fbe c33e bbbc
00000010: e630 023e 0715 493e de97 0b3e ba01 a2bc
00000020: 3c6e 2a3e 1f7e 55be 9d2e 37be 3e22 c5bc
00000030: b499 48be 7ab0 3dbd a7d8 df3c 198d 01be
00000040: 2211 d1bc a346 b0b9 e912 e4bc a8de 53be
00000050: afa0 42be b777 12bd 5320 99bd 4d9f 09bd
00000060: 25a5 403e ffe4 2ebe e111 c13c a012 14be
00000070: 4dc9 083e 325e 07be 6025 073d 170c 7e3d
00000080: d0f9 173e 0b81 553c bbc0 ff3d 0a07 43bd
00000090: 615e edbd c5fa cc3d 395b 5a3e b43f 50be
000000a0: 39c8 1dbe 01c4 e93d ee69 163d 780e a33d
000000b0: fc69 1e3e 3ed5 e73d 172e 4f3e 6e2b 3c3e
000000c0: 3366 2b3e 8828 3cbe 1bd1 553d d103 463e
000000d0: 54e0 3abd 0773 a63d c3c8 5b3e 9526 cf3d
000000e0: 30cb bc3d 524a 4abd eba9 ec3d dfb5 95bd
000000f0: 29ac ebbd 29db 7ebd ce19 5a3e 55a1 c2bd
00000100: 7415 c4bd 7fc9 243e 9079 3c3e afb9 e1bc
00000110: 2a5e 333e b0df 6abe a8f9 c73b dc91 1dbe
00000120: b5c2 4e3e cd94 05be 4a64 15be 1572 fbbd
00000130: df5d 733c 1e53 c1bd 522f 0abe 1265 543e
00000140: db2f 33be 7775 493e 14aa 4b3d a7ac 18be
00000150: 255e b3bd 7334 5e3e bc37 b23d e396 1cbe
00000160: f24d c43c a98d fabd 1742 2dbd 0c9b fc3d
00000170: da1b abbc c977 febd a575 1f3e 8da2 2abe
00000180: 660e e4bd c614 39be 0486 46be 9f04 75bd
00000190: 811c c9bd c188 ed3d 6f9a 56be b9b8 4c3d
000001a0: 0a5e 32be ec41 d7bc 6397 e4bd e971 143e
000001b0: 5328 16be 5a34 90bd 9d4a 293e 5693 0abe
000001c0: 6b97 1b3e ad1e d5bd 0fa9 d0bd 451b dcbd
000001d0: d90c 99bc 22f9 d9bd 4b57 12be 9149 283e
000001e0: 0cc2 c4bd b200 c4bb 897f 8abd 48c9 ed3b
000001f0: d875 44bd 4f8a 473d e8bb 93bd 29c0 ab3d
00000200: b9d2 b53d 7936 22bd 0222 7abd 2985 d83c
00000210: 8083 47be 9d50 8bbd d36c 5dbe 2c07 8b3d
00000220: 0cbc 12be bdc2 a9bd f913 203e b393 e33d
00000230: e1c4 033e 51b5 e23d b3fb fbbd e3f0 713d
00000240: 4322 1dbe 9d02 24be f4af f93c 2951 07be
00000250: 566b 48bd a990 1ebd dabb 1d3c 225c 063e
00000260: c37b df3d f238 fcbd f469 103e d8d1 d53d
00000270: 4114 063e d76e 18be 0775 6cbd 5d2c 53be
00000280: b4fb 42bd f004 8ebd 4b82 4d3e fffc 513e
00000290: 73eb 423e 7167 b8bd 14fb 39bb ce90 61be
000002a0: 01a4 12bd 4620 f93b 7dc2 3b3e fd0b 3b3e
000002b0: 4b30 8abd ff6e 4b3e 4e30 9a3d f4fd a2bd
000002c0: aa98 3abe daee f13d 2b0d 36be 8ac2 a73d
000002d0: 83ce d9bd 8c68 bbbb 5bb4 0abe fc08 883d
000002e0: 146b 44be 0faa 72bd da4b e13b 6873 cbbd
000002f0: 1948 4bbe 543e 3bbe e638 51be 12f4 693e
00000300: 5484 3ebe fca9 9cbc d36d e73d e9a4 23be
00000310: ef04 583e de05 053e 3d82 383d d7dd b33c
00000320: 05d7 3f3e eb3f 4bbd d668 523e 8c54 01be
00000330: ac04 4b3c 3c3e b5bd 4be5 1dbe 4b5f 36be
00000340: 5e88 873d 88a5 303e 1955 84bc 68c6 bebd
00000350: 115b 153d 4510 a43d 5d71 01bd 4243 4bbe
00000360: 58e3 6e3a 12c7 a43d 331a 0e3e 5899 223c
00000370: 5aa5 f7bd 64d5 22be c82f 1fbe c164 bebd
00000380: c860 4e3e c5f1 dfbc 3f90 4bbd 70e8 a43d
00000390: d257 f53d 0275 90bd 0f95 27be 9879 243b
000003a0: 71e0 d43d fd8b 133e 8e18 3cbe cbbc 8b3d
000003b0: 8802 803d 5f00 313d 2760 c3bd 608d 293e
000003c0: c131 3bbe 72e4 49be 7427 bc3c 996f 1e3e
000003d0: d0f0 3d3d 51f3 a0bd 03d0 333e d7d4 f83d
000003e0: e735 b03c f9f3 12bc a74d 1dbe 5aa1 9b3c
000003f0: 4685 eebd a7ae 21bd 0f15 1bbe 0bf4 bd3d
-0.16914584 0.17257032 -0.20250747 -0.022857076 0.12713966 0.19636928 0.13632151 -0.019776214
0.16643614 -0.20848893 -0.17888875 -0.02406418 -0.19589883 -0.04631088 0.027324988 -0.1265148
-0.025520865 -0.00033621964 -0.027841048 -0.20690405 -0.19006608 -0.0357587 -0.074768685 -0.033599187
0.18812998 -0.17079543 0.023568096 -0.1446023 0.1335804 -0.13219526 0.032994628 0.06202325
0.1484139 0.0130312545 0.12487932 -0.047614135 -0.11590267 0.10008768 0.21323861 -0.20336801
-0.1540841 0.11414338 0.036722116 0.07961744 0.15470117 0.113199696 0.20232426 0.18375942
0.16738205 -0.18374836 0.05220137 0.19337393 -0.045624092 0.081274085 0.21463303 0.10114781
0.092184424 -0.049387284 0.11555847 -0.0731008 -0.11507446 -0.062220726 0.21298906 -0.09503428
-0.09574404 0.1609249 0.18405747 -0.027554361 0.1751639 -0.22936893 0.0061027594 -0.15387672
0.20191462 -0.13045044 -0.14589038 -0.12277619 0.014853924 -0.094396815 -0.13494614 0.2074168
-0.17498724 0.19673716 0.049722746 -0.14909612 -0.08758191 0.21699695 0.08702037 -0.15291934
0.023962948 -0.12234051 -0.042299356 0.1233426 -0.020887304 -0.12425191 0.15572222 -0.1666357
-0.11135559 -0.1807433 -0.1938706 -0.05981886 -0.0981989 0.11598349 -0.20957349 0.049980853
-0.17418686 -0.026276551 -0.11161687 0.14496578 -0.1466382 -0.07041235 0.16532369 -0.13532767
0.1519448 -0.104062416 -0.10188495 -0.10747389 -0.018682884 -0.106432214 -0.14291112 0.16434313
-0.09607324 -0.005981528 -0.06762607 0.0072566606 -0.047963947 0.048715886 -0.07213575 0.08386261
0.08878083 -0.03960273 -0.06106759 0.026430683 -0.19483757 -0.06802485 -0.21623544 0.06788477
-0.14329547 -0.082890965 0.15632619 0.11112156 0.12868072 0.110697396 -0.12303867 0.059067618
-0.15345101 -0.16016622 0.030479409 -0.13214554 -0.04893049 -0.038712177 0.009627307 0.13121083
0.109122775 -0.12315549 0.14102918 0.10440415 0.13093664 -0.14886032 -0.057728793 -0.20622392
-0.047603324 -0.069345355 0.20069234 0.20506667 0.19035129 -0.09004105 -0.0028378414 -0.22027895
-0.035800938 0.0076027242 0.1833591 0.18266292 -0.067474924 0.1986656 0.07528745 -0.07958594
-0.18222299 0.118131354 -0.1777846 0.08191402 -0.10635092 -0.00571925 -0.13545363 0.06642339
-0.19181472 -0.05924421 0.0068754973 -0.09934121 -0.19851722 -0.18285495 -0.20431861 0.22847012
-0.18605167 -0.019124024 0.11300244 -0.15980877 0.21095632 0.1299052 0.04504608 0.021956367
0.18734367 -0.049621504 0.20547804 -0.12629908 0.012391251 -0.08849761 -0.154195 -0.17809789
0.06617807 0.17250645 -0.016153859 -0.09315187 0.0364638 0.08010916 -0.031602252 -0.19849876
0.00091128564 0.08045782 0.13877182 0.009924255 -0.12092085 -0.15901715 -0.15545571 -0.09296561
0.20154107 -0.027336964 -0.04969811 0.080521464 0.11979641 -0.070535675 -0.16365455 0.002509689
0.10394371 0.1440887 -0.18368742 0.06823119 0.06250483 0.043213245 -0.09539824 0.16557837
-0.18280698 -0.19716051 0.022968031 0.15472259 0.046372235 -0.07858909 0.17559819 0.12149971
0.021510078 -0.0089693 -0.15361653 0.018997837 -0.11646514 -0.039473202 -0.15144752 0.09275063
