finalhybrid/experiments/experiment_20251104_232429/checkpoint_epoch_45.pth (torch, 662928 bytes, 50 tensors)

gcn_layers.0.bias f4 [64]
00000000: 634f 9f3c 7a6e abbc 0000 0000 ae47 383c
00000010: 0000 0000 6112 773c 0000 0000 8268 95bb
00000020: 93c9 9ebc c578 a23b 0000 0000 0000 0000
00000030: 490b df3b d3f1 35bc 0000 0000 2501 b1bc
00000040: 0000 0000 a16f ca3b 2ed9 003a 4852 353b
00000050: e3c9 81bc 2318 703b adce a83c 41d3 a3bc
00000060: 43c2 c03c 4616 adbc 0000 0000 4466 07bc
00000070: 0000 0000 ccb0 f93b 0b5c debb ffc9 30bb
00000080: 0000 0000 0000 0000 db67 503d 0ce3 a53b
00000090: 83fc 71bc a108 0b3c 1949 4cbc 0000 0000
000000a0: 0000 0000 2e03 0ebc 5ea0 693a 0000 0000
000000b0: 68bf 3ebc 6af5 ba3c 0000 0000 0c16 c13b
000000c0: 1e6d 793c 1238 11bb fda0 05bc 0000 0000
000000d0: 0000 0000 3d4e b4bc 0000 0000 0000 0000
000000e0: a0f2 6f3c 0000 0000 0000 0000 0000 0000
000000f0: d287 483c 0000 0000 6447 2dbc 4590 2c3c
0.019447034 -0.020926703 0.0 0.0112475585 0.0 0.0150800655 0.0 -0.0045595774
-0.019383227 0.0049582445 0.0 0.0 0.006806765 -0.011105019 0.0 -0.021606991
0.0 0.006177858 0.0004915175 0.0027667452 -0.015843337 0.003663548 0.020606363 -0.019998195
0.023530131 -0.021128785 0.0 -0.008264128 0.0 0.007619953 -0.0067858747 -0.0026975868
0.0 0.0 0.050880294 0.0050624665 -0.014769676 0.008485944 -0.0124686 0.0
0.0 -0.00866775 0.0008912141 0.0 -0.0116423145 0.0228221 0.0 0.005892521
0.0152237695 -0.0022158665 -0.008156058 0.0 0.0 -0.022009963 0.0 0.0
0.014645249 0.0 0.0 0.0 0.012239413 0.0 -0.010576103 0.010532443

gcn_layers.0.lin.weight f4 [64, 36]
00000000: 4b8c 22be 1570 c3bb 9f02 8b3c 08c2 78be
00000010: f84d d53d 334f 41be 952d dbbd 22f6 4abe
00000020: 5e23 1abc cfa1 55be 0af2 2ebe e9a7 79be
00000030: 1269 e13d 4d24 383e 3341 76be 71a7 1f3e
00000040: 1d30 61be 4d42 453e 004d a1bb 7c50 563d
00000050: 3a5b e23d 1cf9 3dbe 5de2 653e 1189 fb3d
00000060: 556a 273e cd29 003e 735c c0bd 2345 423e
00000070: c08e adbb 8dfc 86be a14f 823e 8161 5a3e
00000080: 889a 53be c49e 3ebe 19d2 393d f6f3 92bd
00000090: a5cb 2abd 0942 9abe 2029 90bd d7b9 12be
000000a0: c0e3 38be 0002 4b3d 8923 39bb 3250 0fbe
000000b0: ca0e 7ebe 9671 88bd 0a63 ae3d a00a 06be
000000c0: 3939 43be 6d08 283e 3c08 f5bd 7d4a 313e
000000d0: e009 e8bb 2402 5cbe bf4b 183e 23f5 2f3e
000000e0: 18d1 67be 9556 aabd 2025 9ebb 5f42 d2bd
000000f0: 01cc 433e 98a8 75bd 009a 95bc 0f70 93be
00000100: 972b 603e 23ea 433e 92f3 c33c 74d9 143d
00000110: b0ab 233c 3981 663e 3fab 1d3e 0011 193e
00000120: 5b4e 323e 4006 66bd 588b e23c 01bc 30be
00000130: f6dc 59be f054 e9bd e411 e1bd e694 843d
00000140: 3a57 973d 97ab 093e 0030 97b8 4802 a8bc
00000150: 2181 023e 4c24 4f3d 1850 c43c 8c96 2c3d
00000160: 30c5 37be 3c22 6b3d fea0 73be aaf7 de3d
00000170: 80cd 38bb d54d 52be 8222 f1bd 567c 13be
00000180: 6696 bf3d 6711 07be 8c7d 28be f816 fdbc
00000190: 4759 593e 0e3f 75be d44e 43be e322 043e
000001a0: a82b 1dbe b415 a4bd c6f0 f3bd 49bd 023e
000001b0: 4c0e 96bc 5a35 1ebe 57b7 823e 89fa 95bd
000001c0: d383 3d3e 8ebc acbc 2aa0 87bd 1469 21bd
000001d0: ca27 22be 469a ffbd 7a89 47be 5fd9 4a3e
000001e0: 3dc4 283e 6873 dbbc 09f6 683e 1e2a b0bd
000001f0: 6cbd a1bd a492 543d 032e 71be 6a90 2fbe
00000200: 672c 613e 080b 42be 7869 10be 1189 6bbe
00000210: 907b 4fbd d866 b4bd 3566 783d ab13 0f3e
00000220: 6274 2d3e a105 0b3e 6fd8 d63d a520 08be
00000230: 2404 6d3d df98 16be 44c8 71be e465 663e
00000240: af66 223e bfa4 00be a3fa 343e d43e 013d
00000250: 21c1 67be 18aa 8fbc c018 d8bc 8f90 163e
00000260: 8020 f43a a44f 58bd e212 f2bd 780e 01bd
00000270: 3c88 8cbd 18d1 38be 9897 05bd a1db 42be
00000280: 8ca5 273d e9cd 3a3e 5e9d 3cbe 9b7d 393e
00000290: 2d9e 5e3e 2f95 46be 7839 903c b8c5 5dbd
000002a0: c2f3 fe3d fb02 1c3e a607 42be 46bc babd
000002b0: 6620 32be e02e 48be 6854 79bd b57c 79be
000002c0: 26bc 4abe 2483 0f3d aa27 76be f5a2 223e
000002d0: 36b1 1dbc 465c 0fbe 9e3a 553e acb5 03be
000002e0: 0aeb 493e 41b2 013e 446d 123e 0033 fbba
000002f0: a204 3fbd 5b45 273e 3844 10be c22b 1cbe
00000300: 0e83 a9bd 9aa1 65be b045 0e3c b2a3 dabd
00000310: 9445 40be 9e2e e3bd 7ecc e63d da8a 1bbe
00000320: 3e61 a7bd df89 e43d b616 e73d 0210 163e
00000330: 9199 3c3e 0fe9 213e b31a bb3d 39bb 0c3d
00000340: 7ca1 5d3e 59a9 88bd 9f1d 4b3e 1131 123e
00000350: 544b 48bd 908a 813e fdce 853d 8745 c1bd
00000360: f518 0abe 4670 b53d 267a e1bd bde5 273e
00000370: b8f0 6ebd b68c a43d ed05 6b3e 6c52 2bbd
00000380: ed59 66be fd58 2fbe 8848 923c 4889 6cbe
00000390: 9d4a 453e 5a8c 1abe d716 093e 45b2 623e
000003a0: d300 2e3e 4f87 3f3e 5fb7 54be d8fb f13c
000003b0: 738f 053e c67d d33d 4650 02be 7211 963d
000003c0: a296 12be eb99 1a3e 383b b7bd 2b35 2b3e
000003d0: 62f3 e0bd 1e38 61be bd8d 1cbe 667e ab3d
000003e0: 656c 30be 5a00 3abe c8fb 17be c0f1 f2bb
000003f0: 2a9d 45be cae3 65be 551a 3a3d 1200 a43d
-0.1587383 -0.005964289 0.016969023 -0.24292767 0.10415262 -0.18877868 -0.107020535 -0.19820455
-0.009407846 -0.20862506 -0.17084518 -0.24380459 0.11006369 0.17982598 -0.24048309 0.15591218
-0.2199101 0.19263573 -0.004922509 0.05232285 0.11052556 -0.18552059 0.22449632 0.12282003
0.16349156 0.12515946 -0.09392633 0.18971686 -0.005296558 -0.26364556 0.25451377 0.21326257
-0.20664418 -0.18615252 0.04536638 -0.07175438 -0.041698117 -0.30128506 -0.07039094 -0.14328705
-0.1805563 0.049562454 -0.002824994 -0.13995436 -0.24810329 -0.0666229 0.08514984 -0.1308999
-0.19064797 0.16409464 -0.11964461 0.17313571 -0.0070812553 -0.21485192 0.14872645 0.17183356
-0.22638357 -0.083172955 -0.004826203 -0.102665655 0.1912079 -0.059975237 -0.01826191 -0.2879643
0.21891628 0.19132285 0.023919854 0.036340192 0.009989664 0.22510232 0.15397356 0.14947891
0.17412703 -0.056158304 0.027654335 -0.17259218 -0.21275696 -0.11393154 -0.109897405 0.064737126
0.07389684 0.13444363 -7.209182e-05 -0.0205089 0.12744571 0.050571725 0.023963973 0.04213576
-0.17946315 0.057405695 -0.23791882 0.10887082 -0.002819866 -0.20537503 -0.1177416 -0.14402899
0.09354858 -0.13190232 -0.16454142 -0.030894741 0.21225463 -0.23949835 -0.1907304 0.12903933
-0.15348685 -0.08011952 -0.11911158 0.12767519 -0.018317364 -0.1545004 0.25530502 -0.073231764
0.18507318 -0.021086004 -0.06622346 -0.03940685 -0.15835491 -0.12480597 -0.19486037 0.19809483
0.16481109 -0.026788428 0.22750105 -0.08601783 -0.078974575 0.05189766 -0.23552708 -0.17144933
0.21989594 -0.1894952 -0.14102733 -0.23001505 -0.050654948 -0.088086784 0.060644347 0.13972346
0.16938928 0.13576366 0.104905 -0.13293703 0.057865277 -0.14706753 -0.23611552 0.22499806
0.15859483 -0.12562846 0.17673735 0.03155406 -0.22632267 -0.017537162 -0.02637899 0.14703582
0.0018625408 -0.052810326 -0.11820008 -0.03150794 -0.06861922 -0.18048513 -0.032615274 -0.19029094
0.040929362 0.18242611 -0.18419406 0.18114321 0.21740027 -0.19392847 0.017605528 -0.054143637
0.12448837 0.15235512 -0.1894823 -0.091179416 -0.17395172 -0.19549131 -0.06087151 -0.24363978
-0.19798335 0.035037175 -0.24038568 0.15882476 -0.00962477 -0.14000043 0.20823142 -0.12862271
0.19718567 0.12665655 0.14299494 -0.001916498 -0.046635278 0.16335051 -0.14088523 -0.15251067
-0.0827695 -0.22424927 0.008683607 -0.10675754 -0.18776542 -0.11092876 0.112694725 -0.15189686
-0.08172844 0.11159109 0.11283629 0.14654544 0.18417956 0.15811561 0.09135952 0.034358237
0.21643633 -0.066729255 0.19835518 0.1427653 -0.048899963 0.25301027 0.065336205 -0.094370894
-0.13486083 0.08859305 -0.11009626 0.16396232 -0.058335036 0.08034651 0.2295148 -0.04182665
-0.22495241 -0.1712379 0.017856851 -0.23099244 0.19266744 -0.15092602 0.13387619 0.22138317
0.16992502 0.1870396 -0.20773076 0.029539034 0.13043003 0.10326724 -0.12725934 0.07327546
-0.14315274 0.15097778 -0.08946842 0.167195 -0.109839216 -0.21994063 -0.15288444 0.08373718
-0.17228849 -0.18164197 -0.1484214 -0.0074140728 -0.19298235 -0.22450176 0.04543527 0.08007826

gcn_layers.1.bias f4 [128]
00000000: 70aa ff3b a2f3 773c 826c 26bc 5ef8 0abc
00000010: 5dae 8f3b 3862 b7bb 01ec 22bc 0000 0000
00000020: 7202 6a3b 1777 e03c 818b 003c 1102 e53b
00000030: 50ab 43bc 70b8 6d3b 7bdc 203c adab e33b
00000040: 96cf a9bc 4b14 203c 5a73 3cbc 462f 03bc
00000050: 34fa 0a3b cc07 843b b532 02bc 6716 07bb
00000060: ef56 12bc 001a f2ba ac48 e3ba b598 8a3b
00000070: 7767 34bc 4587 dfbb 964d 9cbb 9f3c 7abc
00000080: 2365 bebb aa70 5ebb 9258 36bb 5ecd edbb
00000090: 6537 10bb 3e21 b9bc b8d2 963c f932 c83c
000000a0: f632 d53b 7552 4abc c0e3 4fbc d2cd 15bc
000000b0: 3ce9 68bb 38e1 0c3a 3ca3 48ba 71fb b6bb
000000c0: 3287 6cbc 41bd c6bb bf25 b13b e565 adbb
000000d0: 1357 0dbc 5a2c e23a 0000 0000 ae59 c7bb
000000e0: 0000 0000 e63e 22bc d527 30bc b10b 66bb
000000f0: f837 8ebb 3d7e 5fbc 013d b23b 72b5 19bc
00000100: ed7a 873c 1d8e 553b 5660 673c ee28 ef3c
00000110: f0b4 e03b fa4b b83b 172a 11bc d2e9 9c3b
00000120: c2c2 1cbb a95f 15bb 2973 10bc 8b37 083c
00000130: 076f 77bc 5f6c 37bc 969e 29bc 6ef7 7dbc
00000140: 0e7c 8dbb fb56 31bc 225c 163c 533a 10bc
00000150: 4b7c cbbb 81f5 823c 856a 9a3b 8a74 7b3c
00000160: 1978 bfbb a8da a7bc 67a0 13bc 35cd 22bc
00000170: ac01 593a 758b 5bbb c2ee babb 6af4 cd3a
00000180: 4579 753b 3bfd 7b3b ba23 8a3b 9c41 163c
00000190: 575f a83c ed62 7f3c eef5 fb3c 2c34 44bc
000001a0: 4e36 98bc 180e 08b9 0ec3 14bc 1a56 6dbc
000001b0: fe8b 8bbc f229 3dbc e3bf f53b 01cc 8b3b
000001c0: 8b0c 14bc 418a 7dbc 20fb cabc c4f3 9ebc
000001d0: 43b1 abba 28a2 6dbb 3e1c c83b 4fe7 23bc
000001e0: becd 1d3c d18b 383b dcf5 3e3c 2c71 25bc
000001f0: 406e 86bb ace5 bebb 5853 ac3b 7f4f 1bbb
0.0078023 0.01513377 -0.010157706 -0.008482067 0.0043847994 -0.0055964254 -0.009943963 0.0
0.0035707024 0.027400536 0.00784576 0.0069887717 -0.0119427 0.0036273263 0.009818192 0.0069479556
-0.020728868 0.009770463 -0.011502111 -0.008006876 0.0021206262 0.00402925 -0.00794666 -0.0020612718
-0.008931859 -0.0018470883 -0.0017340383 0.00422963 -0.011010996 -0.0068215453 -0.004769991 -0.015273242
-0.0058103963 -0.0033941665 -0.0027823788 -0.0072571477 -0.0022005674 -0.022598859 0.018411025 0.024438368
0.006506319 -0.012348761 -0.012688577 -0.00914331 -0.003553941 0.00053741364 -0.00076537183 -0.0055841734
-0.01443653 -0.0060650413 0.005406111 -0.005291688 -0.008626717 0.001725565 0.0 -0.0060836887
0.0 -0.0099026915 -0.010751684 -0.0035102183 -0.004340168 -0.013640937 0.005439401 -0.009381639
0.016538108 0.0032585927 0.014122089 0.029194321 0.006857507 0.0056242915 -0.008860133 0.0047886157
-0.0023919796 -0.0022792614 -0.008816519 0.008314024 -0.015102155 -0.011195271 -0.010352751 -0.015500886
-0.004317767 -0.01082396 0.00917724 -0.008802968 -0.0062098852 0.015986206 0.004712405 0.015347609
-0.005843174 -0.020490006 -0.009010411 -0.0099366205 0.0008278142 -0.003349987 -0.0057047317 0.00157131
0.0037456315 0.0038450498 0.0042156847 0.009170916 0.020553274 0.015587551 0.030756917 -0.011975329
-0.018580582 -0.00012975221 -0.009079708 -0.01448586 -0.017034527 -0.011545645 0.0074996813 0.0042662625
-0.009036194 -0.015474857 -0.024777949 -0.019403346 -0.0013099093 -0.0036259983 0.0061068824 -0.010003879
0.009631572 0.002815951 0.011655297 -0.010097783 -0.0041024983 -0.005825719 0.005258959 -0.0023698506

gcn_layers.1.lin.weight f4 [128, 64]
00000000: 8b5b 0ebe d605 38bd 8bd6 343e c758 a93c
00000010: ca50 cdbd d0ee 843b 03f0 77bc be83 1fbc
00000020: 80d4 2bbe c8fe a13c df30 85bd d654 2a3e
00000030: cf2f 6e3e f854 44be 1bf5 14be 708b d2bd
00000040: 7c4a 94bd 8640 4c3e e1ed 443e c5e9 14be
00000050: 6447 073d 080a 053e 48cf ffbc 58bd 323e
00000060: c6d2 ffbd dfc4 df3d c6d1 3d3e 7575 3cbd
00000070: 474b 943d db91 d53d fb97 a83d 3998 f2bd
00000080: 4906 e8bd c16d 123e 1bbf 073d 654f e53d
00000090: fd53 313e 1666 143e f8f2 ffbd 6a63 22be
000000a0: 132e 95bd 855c 3b3d 31df 5d3d 1143 673c
000000b0: af9d 73bd 49b7 2ebe e536 2c3e ffa8 f7bd
000000c0: 9649 2f3e 9da5 723d 739d d0bd c60c 5b3c
000000d0: dda9 983d 61e0 133d 4d6a babb 70ab 79bd
000000e0: 9fd5 d8bd 00c0 d23a 3016 fc3d dff3 943d
000000f0: 4752 81bd 1ee7 ef3d b178 06be 8324 24bd
00000100: 9098 bcbd 0e78 84bd c8df a0bd fd16 37be
00000110: ec13 b5bd 10de a7bd ac9f 05be adb6 243e
00000120: 717d ef3d 7286 1e3e 5c90 b13c 53a6 e73d
00000130: 7b58 cdbd bf0f cabd 8281 8c3d 2f62 a2bd
00000140: 7f79 e6bc f692 edbd 024b d1bd 1aa3 b3bd
00000150: 34b5 093d 5e87 29bd 2a61 aabc 6c64 bdbd
00000160: 39f1 f9bc 1f8a 52bc 6da5 2a3d a2ab 993d
00000170: 8e02 e43d cec9 123e 7757 133e 4b8a 423e
00000180: 4487 abbc a119 213e 4ddf 66be 3326 2b3e
00000190: 125a 86bd 31e5 923d f6d7 813d 984a f1bc
000001a0: 3160 02be a027 2abe ae7b 363e e378 273e
000001b0: 0575 23be e10a ec3d 1b72 05be 2b50 273e
000001c0: ab0b d4bc 249b bdbd 17af 073e aa52 093d
000001d0: 6f48 543d 9a0e 053e ea2e c0bd 412c cebd
000001e0: 1094 22be fab1 21be f739 d93b 34fd 83bd
000001f0: 4086 83bc c76e c8bd cf38 00be db0a 62bb
00000200: 5e2b 0c3e 0065 173e f00a e1bd bdf0 d8bd
00000210: 7e9b 25be 1d8b a83d 9590 1cbe a52e 2abe
00000220: b68b d6bd 950b 6e3d 875c 833d 9ff7 373d
00000230: e34f 5cbe bd56 d13d 87c7 ad3d e779 1f3e
00000240: 07c9 8d3d 7217 8abd 0972 29be 9314 3bbe
00000250: 5250 bf3d a2fa 903d 7914 ddbd 2dcb c73d
00000260: 3553 0c3e 67fb d93d 3c40 afbd 4a46 41bd
00000270: 48f0 bb3c 4448 a33c 716c f73d 8aac 6d3d
00000280: 9aae 9fbd 0b1a 1e3e cc95 0d3e 4e5c 21be
00000290: 3500 9a3c 9255 45be 2f9b ab3c 8c90 483d
000002a0: a28d d73d 7c25 f33d fb11 7bbd ecfc aa3d
000002b0: a53c 3a3a 4233 6c3d c69f e9bd 99de 48bc
000002c0: a78a 993d 568d b5bc d6d2 143d 3a2b d23d
000002d0: a335 f23d 3d68 a43d aa6e 1abe 69ef 113e
000002e0: df8f 34bd 0d48 013e 0f25 1a3e 2314 58bc
000002f0: f552 f8bc f453 fabd 635a 9e3d da8c 8aba
00000300: 455c c6bd 872c 92bd 5a32 9fbd afa3 093e
00000310: dfb8 b8bd 12f9 453d ca42 273e 02f1 13be
00000320: df77 39be 361e 6c3d 01bf 963d 1d0e a1bb
00000330: 41a1 36bc bfa6 6a3d 75b8 21be 338e c2bd
00000340: 7d94 25be 402d 8d3d 5d4f 3dbe 4746 2a3e
00000350: 9afe 9a3d f998 74bd 6a53 8b3d 98b1 1d3e
00000360: 88c2 a7bd d833 a33d 5a96 aebd 354a 233e
00000370: e878 7a3d c354 aa3b 3c5b 4f3d e0d9 e7bb
00000380: 2f0a 2c3c b0d0 813c b9be fdbc 1cd2 e8bd
00000390: 9fde a3bd 0d2b 49bd d9ab f93d fe48 6abd
000003a0: 3bbc 90bd 4f3d cbbd b573 3dbd 607b 02be
000003b0: 11c3 453d 74e4 0d3d 5100 f43b 3007 c4bc
000003c0: 87f5 153d 41a2 11be 74e9 f9bc 0184 3f3e
000003d0: 5365 91bd 0d71 34be 9b77 123d f13c 003e
000003e0: b707 a5bd 17df bcbd f812 133e f129 24bd
000003f0: f9fd 9bbc 6cd2 4e3d bb4f 22bd aaea dc3c
-0.13902108 -0.04492744 0.17659967 0.020672215 -0.10025175 0.004056789 -0.015132907 -0.009736
-0.16780281 0.01977481 -0.06503462 0.16633925 0.23260425 -0.19173038 -0.14546625 -0.10280502
-0.07240769 0.19946489 0.19231369 -0.14542301 0.033027068 0.12992108 -0.03122677 0.17455041
-0.12491374 0.10926222 0.18537053 -0.046010453 0.072409205 0.1042821 0.08232113 -0.118454404
-0.11329324 0.1429968 0.033141237 0.11196784 0.17317195 0.14492068 -0.124975145 -0.15858236
-0.072841786 0.04574253 0.05416793 0.014115111 -0.05947655 -0.17062105 0.16817816 -0.1209278
0.17117915 0.059239972 -0.10186281 0.013369745 0.07454274 0.036102656 -0.0056889416 -0.06095451
-0.1058762 0.0016078949 0.123089194 0.07273077 -0.06314521 0.11714004 -0.13131978 -0.040073883
-0.092087865 -0.06468211 -0.07855183 -0.17879863 -0.088416904 -0.08196652 -0.13049191 0.1608531
0.11693848 0.15480974 0.021675281 0.11311021 -0.10026642 -0.098662846 0.06860639 -0.07928883
-0.028134106 -0.11600296 -0.10219385 -0.087713435 0.033620074 -0.04138886 -0.020798285 -0.092476696
-0.030510532 -0.012850313 0.04166167 0.075034395 0.111333 0.14334795 0.14388834 0.18998067
-0.020938523 0.15732433 -0.2254612 0.1671379 -0.06560148 0.07172621 0.063400194 -0.029454514
-0.12732007 -0.16616678 0.17820618 0.16354708 -0.15962608 0.115255125 -0.13031809 0.16339175
-0.02588447 -0.09258106 0.13250385 0.0335261 0.05182689 0.12993851 -0.09383948 -0.100670345
-0.15876794 -0.15790549 0.0066292244 -0.06444779 -0.016055226 -0.09786754 -0.12521671 -0.0034491334
0.13688418 0.14784622 -0.10988414 -0.10592792 -0.16172597 0.08229659 -0.15289529 -0.16619356
-0.104758665 0.058116514 0.064141326 0.044913884 -0.2151485 0.10221622 0.084853224 0.15573846
0.069231085 -0.06742753 -0.16547407 -0.18269567 0.09341492 0.070790544 -0.107949205 0.097555496
0.13703616 0.10643654 -0.085571736 -0.047186173 0.022941723 0.01993192 0.120812304 0.058025874
-0.077969745 0.15439622 0.13826674 -0.15757868 0.018798927 -0.19270924 0.02094802 0.048965976
0.10525061 0.11872384 -0.061296444 0.08349022 0.00071043737 0.05766607 -0.114074275 -0.012260103
0.07497149 -0.02216212 0.03633388 0.10262151 0.11826637 0.080276944 -0.15081277 0.14251484
-0.04408252 0.12625141 0.15053199 -0.013188395 -0.030312994 -0.12223044 0.07732084 -0.0010570541
-0.09685568 -0.07137399 -0.07773276 0.13441347 -0.09019636 0.048333235 0.16334072 -0.14447406
-0.18112133 0.057646 0.0736065 -0.0049150125 -0.011146844 0.057287928 -0.15793021 -0.094997786
-0.16169925 0.068933964 -0.18487306 0.16628371 0.07568093 -0.0597162 0.06803019 0.15399778
-0.08191401 0.07968873 -0.08524771 0.15946276 0.06115046 0.0051980927 0.050624117 -0.0070755333
0.010500475 0.01584658 -0.030974733 -0.113682 -0.08001446 -0.049113322 0.121909805 -0.057198517
-0.07067152 -0.09923803 -0.046252925 -0.12742376 0.048281733 0.034641698 0.007446327 -0.023929209
0.036611106 -0.14222051 -0.030506827 0.18702699 -0.07099404 -0.1762125 0.035758596 0.12523247
-0.08058112 -0.092222385 0.14362705 -0.04007906 -0.019042002 0.050493643 -0.03962682 0.026967365

gat_layers.0.att_src f4 [1, 4, 64]
00000000: 808a 943d b12b 71bd 99d2 aa3e 6419 f0bd
00000010: 83b8 9abe a88d 8e3e 6ad9 adbd 6eac 1a3d
00000020: dd6c 023e e874 3abc 77f6 93be 402c bcbd
00000030: c30d 463e 197e 833d 5921 9c3e 0ce0 033e
00000040: 17cb 703e 091a fe3d ad5c 3c3e 234a 893e
00000050: 74d1 ab3d 62b0 d53a d2f1 35be b0b3 c9bd
00000060: 8b75 903e 6bad 0fbe fd5a 2dbe b1ac fdbd
00000070: 4d7d 3b3e 5b8c 3fbe 3f27 0dbe 23e2 54be
00000080: 82d2 683d fab0 493e 95d0 4e3e 8b1c 303e
00000090: 8622 7dbe 02c4 1abe edb6 893e ffd0 f73d
000000a0: 15b7 3a3e e688 95be f701 69be 8a1d 0b3e
000000b0: 0817 b5be 98b2 673e 58cd 2e3d 3e7a 51be
000000c0: 9ae4 79be 5aa6 c93d cf93 683e fe27 20be
000000d0: e7fa 12be 09d7 3dbe e279 2a3e 9e05 903e
000000e0: aced 573e 599c 0ebd 2b7d d53d 3a12 1ebe
000000f0: fefc 74be 64ee 3f3e 4551 6ebe 1671 ac3d
00000100: 745d 533e b01c 933e 10b6 813e b46a 223e
00000110: f1ac 01bc 1eba 8bbe a645 3abe ba83 993d
00000120: 3013 753e 80cf 61be bcec 543d b1f8 c23d
00000130: bcc0 37bc ca7d 10be 0492 863e 0a66 14bd
00000140: a17d 793e 4a9c 973e ccac 8e3b dff6 29be
00000150: ef36 5b3e 85e1 a9bd 604c b5bb 4e4e 5fbc
00000160: 193c 2dbe 0fa1 16be 2a27 703e a36c d3bd
00000170: 8ec0 eebd 1fe6 a6bd fc2a 913e 2db7 883e
00000180: 11fb 72bd 73b7 8cbe 86ff 603e 48fb 1cbc
00000190: 8525 85bd 5b62 4a3e 5538 6b3d 12ad bc3d
000001a0: 3107 0c3d 0846 7b3d 20aa 963e fef5 043e
000001b0: ff95 19bd 63ba 243d 0535 66be fb7c 6fbd
000001c0: b1f4 af3d f8be 083e 9359 513e c79b 61be
000001d0: 6184 0a3e 573f 913e 5147 1c3e 2be4 cebb
000001e0: 394d 6ebe 3d3d c33d d45b 80bd bcbf d3bd
000001f0: 9857 653e 7ddc 1e3e 1b0a 7abd 22b7 7d3e
00000200: 4c84 adbe 0f67 70be d500 46bd 82c7 193e
00000210: 5925 87be 3faf 19be d52a 46be 7668 b23d
00000220: 8e3b 513e 3360 203e 14fe 17be 98f7 873e
00000230: 4a4f acbd 068d 623e 2b1d 723e b237 903d
00000240: df20 9f3d 3e31 e03d c8e7 86be 0af4 13be
00000250: e3e2 95be 1bc7 9cbd f996 c33d 463c 90be
00000260: e65c 813b cde0 153e 6245 263e fd13 32be
00000270: 73da c0bd d8bc 893b dfe1 66be c37c 8b3d
00000280: c4cb 73be c0c5 6e3d 4f94 973e b72c 7fbe
00000290: e20f 38be e9c4 20be 869a b3bd 01ee 2d3e
000002a0: aff8 6dbe 010d 853e 7d2f 623e 389b 0ebc
000002b0: 5f56 823e bb4c bfbd 94fa 5fbe a3c6 f43d
000002c0: 3144 49bd 75fd aebd cc25 d9bd 5e70 95be
000002d0: aa74 64be b10f 8c3d 8046 b93d 9cb1 3cbe
000002e0: 8ea7 96bd 0893 863e f2d8 e83d ac9f 463e
000002f0: a4dd 953e 5e1f 66be 0dca 7abe fc21 3f3e
00000300: 8276 3dbe aa61 8f3e 6ffa 3cbe f3d7 26be
00000310: f3f9 523e 4272 8e3e 4829 8abe fcff 213e
00000320: f988 1b3e 7416 e3bd 0194 f33d fe87 853d
00000330: fa3a 12bd 799a 01be 891f 53be f06a 713e
00000340: 4458 833e 8b96 f7bd 05fa ffba ba14 5e3d
00000350: 22d3 c93c 3fee 0ebd 503b 503e f8b5 29be
00000360: a22b 993e cb55 6d3e 0d0a f1bc c4ed 4a3e
00000370: 8255 85bd d18d 793e 92a1 943e 7497 a3bd
00000380: 744d d7bc c2df b33d 92e4 9dbe 368f b73c
00000390: a14b 0bbe 6332 f3bc b0c0 5cbe 82a5 913e
000003a0: ef7a 20be 7544 4b3e 107a 8fbd 5f9c 413e
000003b0: 476c e73d 3bb7 77be 6ac0 4ebe ac35 e1bd
000003c0: 7b56 29be 4b39 75be 9728 44bd 8ef3 72be
000003d0: 049b 843e 943d 473e 5a21 2dbe b1c1 72bd
000003e0: d5d3 14be 2214 47bc 328f cdbd c3d4 0dbe
000003f0: f7f2 c63d 7f53 7ebe 3365 59be 6d01 503e
0.07252979 -0.058879558 0.33363798 -0.11723593 -0.30218896 0.2784245 -0.08488734 0.037762098
0.1273684 -0.011380412 -0.28898975 -0.091881275 0.19341187 0.064205356 0.30494192 0.12878436
0.23514973 0.124073096 0.18394728 0.26814374 0.083895594 0.0016303177 -0.17768028 -0.09848726
0.28214678 -0.14030997 -0.1692924 -0.12386454 0.18309517 -0.18705885 -0.13784502 -0.2078939
0.05684138 0.19696417 0.20196755 0.17198388 -0.24720201 -0.15113834 0.26897374 0.1210041
0.18233903 -0.29206008 -0.22754656 0.13585487 -0.35369134 0.22626722 0.0426763 -0.20456788
-0.24403611 0.09846182 0.22712635 -0.15640256 -0.14353524 -0.1853906 0.16648057 0.28129286
0.21086758 -0.034817073 0.104242645 -0.1543664 -0.23924634 0.18743283 -0.2327319 0.08420007
0.20641118 0.28732824 0.25334215 0.15861017 -0.007914768 -0.27290434 -0.18190631 0.07495828
0.239331 -0.22051811 0.05198358 0.0952009 -0.011215385 -0.14110485 0.26283276 -0.036230125
0.2436433 0.29611427 0.004354095 -0.1659808 0.21407674 -0.082949676 -0.0055327863 -0.013629509
-0.16917457 -0.14709876 0.2345244 -0.10323455 -0.11657821 -0.08149361 0.28353107 0.26702252
-0.059321467 -0.2748371 0.21972474 -0.0095813945 -0.06501297 0.19764082 0.05742677 0.09212698
0.034186546 0.061346084 0.2942667 0.12984464 -0.037496563 0.040216815 -0.22481163 -0.0584688
0.08591593 0.13354099 0.20444326 -0.2203208 0.13527061 0.28368637 0.1526158 -0.006313821
-0.23271646 0.09533165 -0.06267515 -0.10339305 0.22396696 0.15513797 -0.061044794 0.24776891
-0.33889997 -0.23476814 -0.048340637 0.15017512 -0.26395682 -0.15008257 -0.19352277 0.087113306
0.20432875 0.15661697 -0.14843017 0.26556087 -0.08413561 0.22124109 0.23643939 0.07041873
0.077699415 0.10946892 -0.2634871 -0.14448562 -0.29274663 -0.07655164 0.0955028 -0.28170985
0.003947842 0.14636536 0.16237405 -0.17390437 -0.09416666 0.00420342 -0.225471 0.06810906
-0.23808199 0.058294058 0.29605338 -0.24919401 -0.17974809 -0.15700115 -0.087697074 0.16985323
-0.23239397 0.25986484 0.22088428 -0.008703999 0.2545652 -0.09340807 -0.21872932 0.119519494
-0.049137298 -0.08544437 -0.10602912 -0.29187292 -0.22310129 0.068389304 0.0904665 -0.18427128
-0.07356177 0.2628405 0.11369504 0.19396847 0.2927066 -0.22472903 -0.24491139 0.18665308
-0.18502238 0.280042 -0.18454908 -0.16293316 0.2060316 0.27821547 -0.2698462 0.15820307
0.1518897 -0.11088267 0.11893464 0.06520079 -0.035700776 -0.12656583 -0.20617498 0.2357595
0.2565328 -0.12089261 -0.0019529468 0.054218985 0.024636809 -0.034895178 0.20335126 -0.16573322
0.29916102 0.23177259 -0.029423738 0.19817263 -0.0651045 0.24370505 0.29029518 -0.07987872
-0.02628205 0.08782913 -0.30838448 0.022407155 -0.13603069 -0.029687112 -0.2155788 0.28446585
-0.15671895 0.19850333 -0.070057034 0.18907307 0.11299949 -0.2419099 -0.20190588 -0.10996565
-0.16536896 -0.23947637 -0.047890272 -0.23725721 0.25899518 0.19457084 -0.16907254 -0.05926675
-0.14533933 -0.012150796 -0.10037078 -0.13850693 0.097143106 -0.24836539 -0.2123001 0.20313044

gat_layers.0.att_dst f4 [1, 4, 64]
00000000: 3d1b 88be 45ad 893d 9b0b d33d 8e2c d7bc
00000010: 0510 9fbe 001b 103e d39e bcbd 0ac3 00be
00000020: a55a 1bbe e2b6 c43d 1e70 c5bd 393e 3dbe
00000030: 664e 37be 29fa f7bd 6a90 203d bc8e 45be
00000040: 19cc 993d b99d 203e 4b07 90be 707c 8ebe
00000050: ecc8 d5bd fa0f debd 0fe2 c7bd c177 c8bc
00000060: d493 3ebe f2f1 6f3e 1246 f23d 4400 0bbe
00000070: b528 823e 7875 bebd e970 6ebc 9acc 5f3e
00000080: 9871 463e d233 273d 75c0 f23d 8910 6c3d
00000090: 70cb 813e bb5b 3dbb a115 563e 3e62 90be
000000a0: 6888 a43d acf5 713d 4cce 46be d2ef 663e
000000b0: edde 20be c57b 52be 9477 823e ab7b 8fbd
000000c0: 6b57 623e 22a7 fd3d e63b e03d 61d7 b93d
000000d0: 6020 5a3d bd99 083b 8467 743e f21e acbd
000000e0: 0c7c 82bd 5924 4bbe 2df7 853d f7b1 9d3e
000000f0: bb93 87bd 6c70 51be e0ae 25bc 501c 413e
00000100: adee 87be 65b4 823d 5fb0 51bd 0351 923e
00000110: a85f a23d 72f5 f4bd 0dfe cfbc 081d b13d
00000120: a27d 91be 37d6 2e3e 07d6 00bd 6353 dcbd
00000130: 8807 053e bab0 51be 581a fdbc c778 3b3e
00000140: 1f36 dcbd b117 a2bd 856e 86be 7a78 833e
00000150: 9748 783e 9bc1 8d3e 2ecd 7a3e 16fb 2c3e
00000160: e0c5 353e 6df6 373e f25b f8bd 4d65 18be
00000170: 4753 c1bc f13f 43be a1e7 c9bd 46d7 1f3e
00000180: 2fa5 843e f332 86bc 4bb9 433e 7460 d93b
00000190: d8a9 aa3b 5e7f 17bd d8e8 75be bb76 8f3e
000001a0: 7fd9 343e 85a1 203e cb47 933e 799c 30be
000001b0: 4247 b53d 39d4 893d 4f6e 53be 4c6e 933e
000001c0: 69a8 213e 972e d8bc 1f5b 65be 5c1b b63d
000001d0: a74f 843e afe0 703e 0278 3b3e 4bff 323d
000001e0: dc4d 5cbe 4ef9 ab3d d184 3abe 79d4 9f3d
000001f0: e103 5fbe 7c2a 0a3d 11f4 18be dc9a 013e
00000200: 1075 0fbd 84d5 a93c b5a5 793d 8e66 9d3d
00000210: c0ee 633c f878 7a3d 93a4 85be 359c e0bd
00000220: 19db 5f3c ae97 f7bd 6939 163e 2a32 b5ba
00000230: 2226 65be 7066 ae3d 3b84 0bbe 46d2 fa3d
00000240: ffa8 10be 56c4 b2bd c603 1f3d 7df7 543e
00000250: 7ae7 843b 645f 8a3e 9063 1abd 59ad 26be
00000260: 78d3 953e b1f9 e43d 3a17 403e c0a5 783e
00000270: e31c 113e 93d1 af3d b3b6 353e 6186 3d3d
00000280: 165b 68be b55a 64be 6f18 333e 48fc 65bc
00000290: 6749 31be f985 91bd df03 15be 903b 8e3e
000002a0: ccbf 093e 0a87 d13d c90a 04be 5555 933e
000002b0: 67f3 673d e197 693e 940b 3dbd 87b8 91be
000002c0: 2f0a f73d ffd8 06be 881f 18be f43f 043d
000002d0: 6360 2e3e 1580 fdbd 6d1a 953d 7b7b 33be
000002e0: 53a4 50be 40bf 663e f2a3 543d 3b23 013e
000002f0: 9e7e 51bc 8077 07be 5447 ce3d bc72 993e
00000300: 3c92 32bc bddf a93d f1db 5fbe d97b 2d3e
00000310: 07d0 323e d813 813c bf27 01be 1a53 55be
00000320: 73dc 7dbe a485 043e f436 09be d0da 99be
00000330: bcac 113d 7342 863e 24e5 5abe 5c7e 453d
00000340: 936e 67be 730c 47be f02a 69bd d1ff e93d
00000350: c83d c33d 8ba0 9abe da28 91be 9462 5fbd
00000360: e2ae 843e 4df7 1a3d 80b2 e5bc 5ede 8f3e
00000370: c0b4 563e 5c61 143d 7cb6 86be ac85 6fbe
00000380: 2175 3b3e 4f5b 9a3e e906 08be 5ca8 42bd
00000390: 2a98 9c3e a726 40bd 9cc9 82be c292 10be
000003a0: b88e 64be 134a 003e 5d0b 993c cf82 febc
000003b0: 77c0 243e 6364 153e 6e0a 343e eb83 15be
000003c0: 9d82 413d a50b 853e e167 b03c 9a9c 453e
000003d0: 1c93 4d3e 658e 0f3c 7691 cf3a 08df 4dbe
000003e0: 47a7 bdbd 3968 96bc d699 fa3d 8725 12bc
000003f0: fe99 463e b488 813d a764 a0bd a545 23be
-0.2658328 0.06722502 0.10304948 -0.026266363 -0.3106691 0.140728 -0.09209981 -0.12574401
-0.15171297 0.09605195 -0.09640525 -0.18480767 -0.17901 -0.12108261 0.039200224 -0.1929273
0.07509632 0.15685166 -0.28130564 -0.27829313 -0.104387134 -0.10842891 -0.09759914 -0.024471166
-0.1861108 0.23432139 0.11829771 -0.1357432 0.25421682 -0.09299749 -0.014553287 0.21855393
0.1937927 0.040820904 0.118531145 0.057632957 0.25350523 -0.0028893787 0.20906688 -0.28199953
0.0803383 0.05907218 -0.19414634 0.22552422 -0.1571004 -0.20555027 0.25481856 -0.0700601
0.2210366 0.12385394 0.10948925 0.090742834 0.05325353 0.0020843588 0.23867613 -0.0840434
-0.06371316 -0.19838084 0.06541286 0.3079984 -0.06619974 -0.20453042 -0.010112494 0.18858457
-0.26549283 0.06382064 -0.05119359 0.28577432 0.07928401 -0.119608775 -0.025389696 0.086481154
-0.28416163 0.17073904 -0.031454112 -0.10758092 0.12991154 -0.20477572 -0.03089635 0.18307792
-0.1075251 -0.07914675 -0.26256195 0.25677854 0.24246441 0.27686772 0.24492332 0.16892657
0.17751265 0.17965098 -0.12126912 -0.14882393 -0.02359928 -0.1906736 -0.09858633 0.15609464
0.25907275 -0.016381716 0.19113652 0.0066338126 0.0052082352 -0.0369867 -0.24014604 0.28020272
0.17661093 0.15686615 0.2876571 -0.1724719 0.08851482 0.067299314 -0.20647548 0.28795087
0.157869 -0.026389403 -0.22398041 0.08891937 0.2584202 0.2352321 0.18307498 0.043700498
-0.21514076 0.083971605 -0.18214728 0.07804198 -0.21778823 0.033731923 -0.14936854 0.1265673
-0.03502375 0.020731695 0.060949046 0.076855764 0.013911903 0.06115052 -0.26102123 -0.10967294
0.013663077 -0.120894775 0.14670338 -0.0013824154 -0.22377828 0.08515632 -0.1362466 0.12247138
-0.14126967 -0.08728854 0.038821958 0.20797534 0.0040559145 0.27025902 -0.037692606 -0.16277064
0.292629 0.11180437 0.1875886 0.24281979 0.14171176 0.08584895 0.17745475 0.04627073
-0.22690997 -0.22300227 0.1748979 -0.014037199 -0.17313157 -0.071056314 -0.14552258 0.27779818
0.13452071 0.10230835 -0.12894739 0.2877604 0.05662861 0.22811843 -0.04615362 -0.28461096
0.12062489 -0.13168715 -0.14855778 0.032287553 0.17028956 -0.12377945 0.07280431 -0.17527573
-0.20375185 0.22533894 0.051914163 0.12611096 -0.012786536 -0.1322918 0.100721985 0.29970348
-0.010899123 0.08294628 -0.21861245 0.16941775 0.17462169 0.015756533 -0.12612818 -0.20832482
-0.24791126 0.12941605 -0.13399869 -0.30049753 0.035565123 0.26222572 -0.21376473 0.04821621
-0.22600774 -0.19438343 -0.056925714 0.11425746 0.09533268 -0.3020061 -0.2835148 -0.05453737
0.25914675 0.0378335 -0.028039217 0.2809934 0.20967388 0.03622566 -0.263111 -0.23390836
0.183064 0.30147788 -0.13283886 -0.04752384 0.30584842 -0.04691186 -0.2554444 -0.14118484
-0.22320068 0.12528257 0.018682176 -0.031068234 0.16089045 0.14589076 0.17582104 -0.14601104
0.047243703 0.25985447 0.021533908 0.1929802 0.20075649 0.008761977 0.0015836197 -0.20104611
-0.09260421 -0.018360244 0.12236373 -0.00892008 0.19394681 0.06324902 -0.07831698 -0.15944536

gat_layers.0.bias f4 [64]
00000000: 7ff1 6abc cdc8 91bc 8f8a a8bc f827 48bc
00000010: 27d2 56bb b9e3 763c fb5c 2a3c 0000 0000
00000020: 84e2 1ebc 8dc7 d3bb 9769 43bc 9a26 89bb
00000030: 0000 0000 86ac 20bc 758b 2939 ebdc bfbc
00000040: 4985 60bb 528d 8dbc 61d9 003a 0138 aa3b
00000050: 9173 59bc 84b8 c8bb 0043 5a3c bae9 97bc
00000060: f1fd cdbb eb32 913a ffb5 d939 10dc e93a
00000070: d960 8cba f7a4 93bb 14ff dcbb 925c 2cbc
00000080: 4822 0bbc 0000 0000 f66f f339 3a23 2abb
00000090: 5aa9 59bc 81a2 6b3a 5724 01ba 0000 0000
000000a0: 0000 0000 0000 0000 4bab cf3c 1f56 36bb
000000b0: 0000 0000 841d 2abc 858a a83c 1421 05bc
000000c0: a05f 15bb 831c 12bc 6518 41bc b591 093d
000000d0: fa2e 49bb 0000 0000 73a1 b43a f24b c83b
000000e0: ce86 fcbb 0000 0000 1b4a 11bc 9a69 47bc
000000f0: 0000 0000 09a2 31bc 6fc4 2dbc 2b6e ffbb
-0.014339804 -0.017795945 -0.020573882 -0.012216561 -0.003277907 0.015068942 0.010398145 0.0
-0.00969756 -0.0064629973 -0.01192703 -0.00418551 0.0 -0.009806758 0.00016169048 -0.023420772
-0.0034259132 -0.0172793 0.00049152045 0.0051946645 -0.013272182 -0.0061255116 0.013321638 -0.018544067
-0.0062863757 0.0011077797 0.00041525063 0.0017842073 -0.0010710015 -0.0045057493 -0.006744275 -0.010520117
-0.00849206 0.0 0.0004643199 -0.0025960938 -0.013285005 0.00089887535 -0.00049263745 0.0
0.0 0.0 0.025350234 -0.0027822328 0.0 -0.010383014 0.020573864 -0.008125562
-0.0022792593 -0.008917931 -0.011785601 0.033586223 -0.0030698166 0.0 0.0013781026 0.006112569
-0.0077064997 0.0 -0.008867766 -0.0121711735 0.0 -0.010841855 -0.010605915 -0.0077951155

gat_layers.0.lin.weight f4 [256, 36]
00000000: cb2d 12bd 70b0 0ab9 935d eb3d d7e1 103e
00000010: 2df6 bebc b308 3abe 37c9 74bd 34d0 cc3d
00000020: 74f4 ffbd 2acd cc3d 0084 3cbd 96b5 c4bd
00000030: 9c36 9abd 1464 a6bd 8411 873d 0d9f 02be
00000040: 1eec 5abd 42c2 dd3d 78d1 c13d 8699 57bd
00000050: 7e1d 62bd 9b4b 903c 663a 5cbd e89f ca3d
00000060: 308a cdbd 8aaf efbd 533c e5bd f5e5 6cbd
00000070: 9259 13be b6f4 10be 7d68 0dbd 22f9 3dbd
00000080: 2a1a ed3d f212 d03d 8233 9b3c 3a1d 4ebc
00000090: 6758 a6bd 0afd 1ebe e2c3 66bd 5ba1 04be
000000a0: b0e9 d2bb 3068 7f3d 4886 14be 1d65 91bd
000000b0: e56f 533d 00b4 06b9 08c8 87bc 9795 0f3e
000000c0: e4cb 55bd 7753 f5bd 3aed d0bd 90b1 97bd
000000d0: 9a8e ab3d dadf 8f3d 9446 4a3d 4041 053d
000000e0: 9783 0e3e d893 fcbd 907a d6bd 6274 5ebc
000000f0: 45cf dc3d 47b3 0bbe 6613 45bd b731 9a3d
00000100: decc d43d fcc3 0bbe 1c45 d1bd e6a9 e23d
00000110: 7825 8c3c 872e 253d ccfc 19be cfe2 e8bc
00000120: a0cb 173c 8e35 883c 5c60 183e dc88 163e
00000130: 0fa4 f0bd 96bb f0bd af09 05be 4036 853b
00000140: 0e93 1f3e 0ab6 bfbd c89b 973d e4ae b9bc
00000150: dc4d d53d 008c 3f3c 24a4 66bd 8cc9 abbd
00000160: 1300 d8bd 61dc ffbd 9c1a 963d d7bc f6bd
00000170: 567f 06be 796c 293e 94c9 23bd 4e42 3a3d
00000180: 9f84 413d 142f 2dbd 0dca 9ebd 454b f0bd
00000190: 1cf8 a33d 3ebc 00be c187 183d 82c0 b53d
000001a0: c04f 61bb ebdf ef3c d26d 3b3d ac98 a4bd
000001b0: 5171 c6bd 007d a73b 8b48 903d 1611 bfbd
000001c0: 7922 ac3d 92dc 96bd 6704 a23d 100d ae3c
000001d0: 2dc2 10bc 3640 a2bd a08f a13b 6e26 df3d
000001e0: a4ea 393d 85e0 033e 1082 aebd 0ec1 84bd
000001f0: e8e2 7a3d 0060 b0ba 9829 a9bd 62cb c2bd
00000200: 1e09 d03d 5688 c43d d9fb 033e d340 673d
00000210: 3452 8c3d 024f e03d 084f 093d dede eabd
00000220: daa2 043e a667 34bd 4d62 b83b 0b98 0e3e
00000230: cada ed3d 5b26 d53d 358f 683d 8e8d 9a3d
00000240: dff9 d0bd 26bb c33d 3c9f 9c3c 7892 423d
00000250: 6c75 10bd 55b5 55bc 79c3 a2bc 42fe c53d
00000260: 9d7c fd3b 37b3 adbd 5592 0b3e e60d c83d
00000270: e07b 923c 408c c0bb 304e 523d 2c36 593d
00000280: f74d 123e f81f 603d c09e 68bc 7596 86bd
00000290: f705 a6bd 280a d0bd 0689 1bbd 11c3 39be
000002a0: c61e 913d 90a7 273c f403 cebc 7223 10bd
000002b0: 8778 8c3c e661 c83d ffb8 debc 0f7c a1bd
000002c0: e613 5ebd ff46 55bd 671a 0fbe 7f55 fc3d
000002d0: 8c69 8bbc 2f6a 653d 0240 143e 5b8d 12be
000002e0: c3ad 19bd d1e2 e1bd e2aa 0fbe 73c9 f1bd
000002f0: b656 d2bd 66f6 ec3d 43ff 113e 6094 04be
00000300: 846b cebc 8014 f73a 5805 5bbd 8094 59bd
00000310: 7224 6abd f744 043e 14b7 a83d 7c9e eebd
00000320: e694 29bd 5bb6 1c3e 5c14 7c3d 4d41 863d
00000330: 2de9 54bc d8e9 063d 8552 1fbc c040 89bd
00000340: 15c0 a03d a15f 65bd 6068 4dbd 8f71 ecbd
00000350: baf3 fa3d 5597 58bd ba95 cebc 3ae3 a8bd
00000360: 23f6 21bd 6208 393e 7ee3 1dbe 6ecb 4e3d
00000370: 1130 54bc 9c1b be3d f4d8 2ebd ca30 82bd
00000380: fb55 94bd c02c 0e3d 9ba2 d3bd 5620 a43d
00000390: ccef 1e3d dcd1 efbd c0c4 92bd b557 02be
000003a0: d6be fa3d 9e6f eabd 80ca e23a 60c5 203c
000003b0: 0cd3 b2bc 2069 00be 44c2 edbd fd7d c63d
000003c0: c6db 853d 6e17 7abd e8a8 ddba 4088 bb3c
000003d0: 42e5 92bd 8ed9 583d f8cd 04bc 141f 0c3d
000003e0: faf8 adbd 2105 a9bd 4ba3 fb3d 8823 2d3e
000003f0: fc4c fbbb f46d 96bd e10a bebd 9028 8bbd
-0.035688203 -0.00013226434 0.11492457 0.14148651 -0.023310745 -0.18167381 -0.059762206 0.10000649
-0.124977976 0.100000694 -0.046024323 -0.09604947 -0.07529947 -0.08124557 0.06595138 -0.12755986
-0.053447835 0.10828067 0.09463781 -0.052636646 -0.055203907 0.017614176 -0.05376663 0.09893781
-0.10036123 -0.11703403 -0.111931466 -0.05783649 -0.14389637 -0.1415585 -0.034523476 -0.04638017
0.11577256 0.101598635 0.01894546 -0.01258021 -0.0812233 -0.15526214 -0.056339152 -0.12952177
-0.006436549 0.06235522 -0.14504349 -0.07099364 0.051620383 -0.00012846291 -0.016574875 0.14021908
-0.0521964 -0.1197881 -0.102014974 -0.07406914 0.083768085 0.07025118 0.049383715 0.03253293
0.13917385 -0.123328865 -0.10472596 -0.0135775525 0.10781721 -0.13642608 -0.048114203 0.075290136
0.10390638 -0.13648981 -0.1021826 0.11067562 0.01710771 0.040327575 -0.1503784 -0.028428463
0.009264857 0.0166271 0.14880508 0.14700645 -0.11750042 -0.11754529 -0.12991975 0.004065305
0.1558344 -0.09360893 0.0740276 -0.022666402 0.10415241 0.011691093 -0.05630888 -0.083880514
-0.10546889 -0.12493206 0.07329294 -0.12047737 -0.13134512 0.16545285 -0.03998716 0.04547339
0.047245618 -0.042281225 -0.07753382 -0.117331065 0.080063075 -0.12571809 0.03723884 0.088746086
-0.003437981 0.029281577 0.04575903 -0.08036932 -0.09689582 0.0051113367 0.070450865 -0.09329431
0.08405013 -0.07366289 0.07910996 0.021246463 -0.008835358 -0.079224035 0.0049304515 0.10896002
0.045389786 0.12878616 -0.08520901 -0.06482135 0.06125155 -0.0013456345 -0.082598865 -0.095114484
0.10157989 0.095963165 0.12889041 0.056458306 0.068516165 0.109525695 0.033522636 -0.1146829
0.12952748 -0.04404416 0.0056269527 0.13925187 0.11613996 0.10407706 0.056777198 0.07546531
-0.10203909 0.0955718 0.019118898 0.047502965 -0.035268232 -0.013043721 -0.0198686 0.096676365
0.0077358023 -0.08481448 0.1363004 0.09768276 0.017881334 -0.005876094 0.051344097 0.053030178
0.14287554 0.054717988 -0.014198005 -0.06571666 -0.081066065 -0.10158187 -0.037972473 -0.18140818
0.07085948 0.010232821 -0.02514837 -0.035190053 0.017147316 0.09784298 -0.027187822 -0.078849904
-0.054218195 -0.05206966 -0.13974915 0.123209946 -0.017018102 0.056009468 0.14477542 -0.14311735
-0.037519228 -0.1102959 -0.1403003 -0.118060015 -0.10270445 0.11570434 0.14257531 -0.12947226
-0.025197752 0.0018850714 -0.053471893 -0.053120136 -0.057163663 0.12916933 0.082380444 -0.11651322
-0.041401766 0.15303938 0.061542854 0.06555424 -0.012995047 0.032937855 -0.009724264 -0.06701803
0.07849137 -0.055999402 -0.050148368 -0.11545097 0.122535184 -0.052878696 -0.02521788 -0.08246465
-0.039541375 0.18069604 -0.15418813 0.050486974 -0.012950913 0.0928261 -0.04268737 -0.06356962
-0.07242962 0.034710646 -0.10333749 0.0801398 0.038802907 -0.117099494 -0.07166433 -0.1272877
0.1224343 -0.114470705 0.0017302781 0.009812683 -0.02182915 -0.12540102 -0.11609319 0.09691999
0.06536059 -0.0610575 -0.00169113 0.022892118 -0.07172634 0.05294185 -0.008105747 0.034209326
-0.08494754 -0.082529314 0.12287005 0.16908085 -0.0076690894 -0.07345191 -0.09279419 -0.06794846

gat_layers.1.att_src f4 [1, 4, 128]
00000000: 5887 c63d 9e92 cf3d 2500 88bd de42 cb3d
00000010: 8ece 213d 22a2 b2bd b4b4 103e afc1 de3c
00000020: 39de 3bbd d329 663e 185d 243e f914 49be
00000030: 2459 43be bfde 26be 4394 9c3d 6ae6 13be
00000040: 224c c23b 725c cbbc 76af 8c3d e881 9fbd
00000050: b039 203e 19f8 3a3e c76c e0bc 892d 69be
00000060: 3536 533e 4638 15be ece2 e23d 5ad0 45bd
00000070: 06f4 5b3e 0d29 69bd f0da 213e cc0f 153b
00000080: 593d 363e 2ba9 94bd 11d1 1cbe 26dc 00bd
00000090: 5a74 443e cb55 23bd f00c 2b3d 4862 fa3d
000000a0: e6f7 18bd 1df0 9abd 4581 42bd 5455 783d
000000b0: 8424 203e 8cd0 463d 3bea 61bc 121a da3c
000000c0: 5f3a a3bd e7f4 0f3e 4712 243d f348 fe3d
000000d0: f22b 5bbe 6a75 ea3d 0934 26bd 2abc 473e
000000e0: 798e 84bd 1b6f f2bd aeee 17be 963b 193e
000000f0: 1fd3 56be 2a0d ffbd 07a6 d5bd c176 123e
00000100: b8f7 21bd b540 7ebe 18fd fbbd 8615 c5bd
00000110: 5a16 143b 9a85 d9bd 8b8e 40be b385 3bbe
00000120: af32 7cbd 075f 07be 5d09 50be d5b2 563d
00000130: 4f07 033e cb93 b03d 6cdc 2dbe e944 253e
00000140: 0b80 22be 3331 13be 96fe fbbd 0473 af3d
00000150: be38 ca3d 3879 453d b021 aabd 055e bc3b
00000160: 24f3 143e b645 63bd a063 dcbc ec9a b6bd
00000170: d4c1 583e 4f41 45be 58ed 513b f2fc d93d
00000180: 951b 0f3d 47e8 2d3e d1fd 62bd df78 54bd
00000190: 4698 363e 1348 123e 4e8c 8d3b 638c 813d
000001a0: 3ffe f63d 1414 2bbc a56e 1abc 8e1e 19bb
000001b0: afa2 333e e4c0 293e b39b b4bd 4041 c23d
000001c0: b3fb 113e 5e46 013d a732 0bbe 9276 6c3d
000001d0: c126 22be 5fec 723c 2ab7 1a3e 4236 e63d
000001e0: 9c56 7e3c a69b 043b 5b72 153d 0a03 acbd
000001f0: 6c9c 28be 2ca5 343e 1c61 48bd ea7a a1bd
00000200: d078 35be 3364 ab3d 732a 57be 207a 0c3e
00000210: 6085 84bd 8a77 09bd d6f2 b93d 8642 543e
00000220: 7adc 37be 32ce fcbd 5aa9 d1bd 62af 14be
00000230: f816 a5bd 87a6 0abe febf 20be f240 263e
00000240: 3b1e 273e d343 45be d311 db3d 36fb 053e
00000250: d5c6 cfbc f116 4fbe 202f 963b 0188 273d
00000260: a58d 1d3e 04da 6e3d a38d 3b3c 0c1b cf3d
00000270: 022a d2bd 0b20 0f3d 33b5 173e 5855 14bc
00000280: 20a0 133d b3bd 403e e4b6 49be c2eb 323e
00000290: f09e 4b3b 3477 34bd 684b debd 64d0 afbd
000002a0: 8d63 a9bd 51d8 3c3e a741 5abe 81f3 e33b
000002b0: 0ef2 06be a8a4 9fbd e060 91bd 7b88 143e
000002c0: 434f 133e 82ca 15bc 7aac 09bd 0406 fa3d
000002d0: 0ecc 2b3e 9ae2 38be 976c c4bc a8d0 823d
000002e0: bcbf 9a3d 8d0c a3bb c773 2f3e 03d3 07be
000002f0: 4919 a939 be82 18bc 285c 4f3e 08ca c6bc
00000300: 7a03 c43c 5154 b73d 6e98 1bbd 41be c73c
00000310: 0169 6abc 13ad c5bc d119 37bd c6ab 34be
00000320: 5bd1 0f3e 8918 03be 3ad0 153b 3fe1 c83c
00000330: 062a 5b3d fe5b b4bb cfc3 873c 84ac 43be
00000340: eff9 17be 05bb d4bc 69d4 2cbb 3ee7 583e
00000350: 2134 323e ac91 363e 13be 4ebe e1e3 563c
00000360: 433e 513e 10d8 42be 4478 403e f12f f4bd
00000370: e6cd 7dba 63b9 97bc 687f 5e3e 1457 1f3d
00000380: 9214 583e 1028 3c3d bdea d2bd 9d3b 25be
00000390: 95a0 37be 8c51 5e3e 27bd f3bd 67a5 3e3e
000003a0: e29f f8ba 7144 36bd 0dd0 313e 239f 6abd
000003b0: f63e b1bd 78e2 2abe 2dcf 3abe c95e 2cbd
000003c0: cfaf 8a3d d811 603d 20dc 353e d03c 5f3b
000003d0: 024a 7c3d 5e71 76bd cece 14be fb7d 3d3e
000003e0: f330 38bc 5d29 0fbd 909a d53c 5694 a53d
000003f0: aa83 23be fbc5 b2bd 235e cc3d bd9f 033e
0.096937835 0.10135387 -0.066406526 0.09924863 0.039503627 -0.08722331 0.14131433 0.027191965
-0.045866225 0.22476892 0.16051137 -0.19636907 -0.19076973 -0.16295908 0.07645466 -0.14443365
0.005929486 -0.024824355 0.06869404 -0.077884495 0.15647006 0.18258704 -0.02739562 -0.22771277
0.20626147 -0.14572248 0.11078438 -0.048294403 0.21479806 -0.056923915 0.15806174 0.0022745011
0.1779684 -0.07258829 -0.15314128 -0.03145995 0.1918501 -0.03987674 0.041760385 0.12225777
-0.03734579 -0.07565329 -0.047486562 0.06062825 0.1563893 0.04853873 -0.013788755 0.02662376
-0.07970118 0.14058267 0.040056493 0.12416258 -0.21403483 0.11448176 -0.04057697 0.19505373
-0.06472487 -0.11837598 -0.14837143 0.14964136 -0.20978974 -0.12453683 -0.10432058 0.14303114
-0.039542884 -0.24829371 -0.12304133 -0.09623246 0.002259633 -0.106211856 -0.18804376 -0.18312721
-0.061571773 -0.13219844 -0.20316072 0.05241664 0.12795757 0.08621939 -0.16978616 0.16139568
-0.15869157 -0.14374237 -0.12304418 0.08566859 0.09874104 0.048211306 -0.08307207 0.0057485127
0.14545876 -0.055486403 -0.026902974 -0.08916268 0.2116769 -0.19263195 0.0032032337 0.106439486
0.034938414 0.16983138 -0.05541784 -0.051873084 0.17831525 0.14285307 0.004319704 0.06325605
0.12060212 -0.010441799 -0.009425794 -0.002336416 0.17542528 0.16577488 -0.0881876 0.09485102
0.14256172 0.031561248 -0.13593541 0.057730265 -0.15835096 0.014826863 0.15108934 0.112408176
0.015523579 0.0020234375 0.03648601 -0.08399017 -0.1646592 0.17641133 -0.048920736 -0.07884772
-0.17721868 0.08368721 -0.21012287 0.13718462 -0.06470752 -0.033561267 0.090795204 0.20728502
-0.17955199 -0.12344016 -0.10237379 -0.14520028 -0.080610216 -0.13540088 -0.15698239 0.16235712
0.16320126 -0.19264154 0.10696759 0.1308411 -0.025363365 -0.20223595 0.0045832545 0.040901188
0.15386064 0.058313385 0.011447343 0.10112581 -0.102619186 0.034942668 0.14815216 -0.009053551
0.03604138 0.18822365 -0.19698673 0.17472747 0.0031070076 -0.044058993 -0.10854226 -0.08584669
-0.08270941 0.18441893 -0.21314107 0.006956518 -0.13178274 -0.077950776 -0.070985556 0.14505188
0.14385705 -0.00914252 -0.033611752 0.12208179 0.1677706 -0.18055192 -0.02397756 0.06387454
0.07556102 -0.0049758614 0.1713401 -0.13264088 0.0003225303 -0.009308515 0.20249999 -0.024266258
0.023927439 0.08951629 -0.037987165 0.024382712 -0.014307261 -0.02413038 -0.044702355 -0.17643651
0.14044707 -0.12802328 0.0022859708 0.024521468 0.053506874 -0.0055041304 0.016572861 -0.19108778
-0.14841436 -0.025968084 -0.0026371724 0.21181962 0.17402698 0.17829007 -0.20189695 0.013115854
0.20433907 -0.19027734 0.18795878 -0.119232066 -0.00096818653 -0.018521016 0.21728289 0.038901404
0.21101597 0.045936644 -0.10298679 -0.16136022 -0.17932351 0.21710795 -0.11901312 0.18617783
-0.0018968547 -0.044498865 0.17364521 -0.05728067 -0.08654587 -0.16687953 -0.18243094 -0.04208258
0.06771814 0.054704517 0.17759752 0.0034063347 0.061594017 -0.06016671 -0.14532015 0.18505089
-0.011242139 -0.034951556 0.026074678 0.080849335 -0.15968195 -0.08729168 0.09978893 0.12853904

gat_layers.1.att_dst f4 [1, 4, 128]
00000000: e271 31be 249f 2c3e a780 59be 57b0 bebc
00000010: a39c fa3d 970f 503e aeff 053e f701 65bc
00000020: e4d6 343e 455c 52be a393 33be b1b3 b4bc
00000030: e7a7 4bbe 7b62 4fbd 5135 f53c 0336 05be
00000040: cbc1 dbbc 7df4 f6b9 5b19 08bd c348 56be
00000050: e935 3ebe b7fe 15bd c05f 91bd d3fc 0dbd
00000060: 65f0 473e 26ee 31be 298d bf3c 23f3 11be
00000070: f5e6 0b3e cc95 04be a352 283d e832 783d
00000080: 62c2 1c3e e8e4 cd3c c6f2 033e 6128 37bd
00000090: 16c6 eebd 5f30 b93d 5baa 5c3e 7765 59be
000000a0: 9e7a 22be 5d4d ee3d 6ac8 023d 0bc4 9c3d
000000b0: f21e 1e3e 22dd da3d 426f 533e 48b9 3b3e
000000c0: 1067 303e b322 37be 315f 663d f11b 403e
000000d0: d4a4 58bd 25d4 a03d 0822 583e 8510 c63d
000000e0: fcb8 ba3d c4da 3ebd 0030 de3d e402 96bd
000000f0: 9639 e7bd e225 85bd 6bec 5d3e 9103 ccbd
00000100: cad2 cdbd c426 273e 2b8b 3b3e 8135 05bd
00000110: 2b5d 2f3e 0381 6dbe d38d 603b eedb 1bbe
00000120: fc25 503e 9091 01be 341d 10be d344 01be
00000130: 0e50 053c 1bf1 d2bd fc6d 0bbe 97ce 563e
00000140: cbe6 37be 4993 433e 7d34 553d a8ff 04be
00000150: 5fd9 acbd be36 623e 0206 b43d 6e4d 18be
00000160: d9bc b03c 6c7d f7bd 6cb8 30bd 1de5 e93d
00000170: 1fd9 b0bc c250 fcbd c2c3 243e aec5 26be
00000180: 6319 e9bd e570 37be a245 41be c289 89bd
00000190: 3374 d2bd e0ad f33d c3c1 5abe 10de 463d
000001a0: acee 36be dbd1 eabc f157 ebbd 7284 113e
000001b0: 2f3f 12be 921c 86bd e806 253e b579 0ebe
000001c0: 5adc 163e 1b5d d0bd 3625 c7bd 1037 ecbd
000001d0: 2695 b0bc 90f0 d3bd 14ad 16be d6a2 283e
000001e0: 663f c4bd 2ecb 89bb 2057 88bd 8276 523c
000001f0: 2a99 31bd 1c2b 533d 410f 9bbd d976 ad3d
00000200: 6751 b63d cb7a 19bd a0d9 73bd cbcf e93c
00000210: b4d2 45be cf90 8abd 5f67 5ebe 647d 8e3d
00000220: 1e23 11be 4e03 a6bd bac5 1f3e f051 e73d
00000230: 05e5 033e 45d9 e83d 58fa fdbd 815e 7c3d
00000240: c03d 1dbe 83a6 25be 77d0 ed3c ab5f 05be
00000250: bb60 4ebd 060c 26bd 0709 093c bae3 043e
00000260: af64 d83d 5883 fbbd 4e64 123e 4e5a d23d
00000270: ae50 013e be85 15be 4609 65bd 8d0b 55be
00000280: e417 41bd a505 8fbd 3425 4e3e 8ac3 553e
00000290: 1584 443e 1e17 b8bd 3728 14b9 af3f 61be
000002a0: ea2c 15bd 3bc8 b93b ad81 3a3e 07b3 3d3e
000002b0: 1b83 83bd 6983 4c3e 50ac 9d3d 7916 9fbd
000002c0: 1db3 37be 5d59 f53d 5f34 38be 6e82 a73d
000002d0: 29b7 dabd 8719 dfbb 7b5f 0bbe 03bc 853d
000002e0: f2c2 44be 9a57 7bbd 95b5 123c 5479 c7bd
000002f0: 7d7c 4bbe 169e 3bbe 73c1 53be 1bc8 6c3e
00000300: 6fd7 3fbe fd4f 9fbc 9db2 e93d c967 24be
00000310: ea1d 5a3e fc24 013e 6ed6 343d ce51 b83c
00000320: bfbf 3e3e 14b0 45bd 8151 503e b64f ffbd
00000330: 5510 7b3c d75c b8bd a027 1cbe c757 38be
00000340: 5054 8c3d 4930 343e 3415 94bc b81d bfbd
00000350: 73ce 1c3d 6542 a03d 77d0 02bd f6bc 49be
00000360: 7f31 133b 26d1 9e3d 6a33 0f3e 4e6c 243c
00000370: d39c f2bd 51e4 20be befa 1cbe 5c28 b9bd
00000380: 8064 4f3e d72f edbc a7ea 57bd 4c0f a73d
00000390: 3e3a f03d 792c 92bd cd1d 28be 8552 9d3b
000003a0: 3bfd d73d e2d9 123e e07a 3bbe 66e8 873d
000003b0: f681 853d fc7c 3d3d 80d2 c4bd f7df 283e
000003c0: 4048 3dbe d317 48be a1c3 b83c d2c1 1f3e
000003d0: 3013 323d b945 9ebd 84bb 313e f809 fc3d
000003e0: 07b5 b43c 74ee 04bc f6ce 1bbe c731 763c
000003f0: 7914 ebbd aefb 17bd cb94 18be fe18 c13d
-0.17328599 0.16857582 -0.21240483 -0.023277445 0.12236907 0.20318447 0.13085815 -0.013977519
0.176601 -0.2054301 -0.17536788 -0.02205834 -0.19888268 -0.050631028 0.02993265 -0.13008885
-0.026825806 -0.00047102934 -0.033227306 -0.20926194 -0.18575253 -0.036619868 -0.07098341 -0.03466494
0.19525297 -0.17376003 0.02338274 -0.14252906 0.13662322 -0.12947768 0.041094434 0.060595423
0.15308526 0.025133565 0.1288558 -0.044716243 -0.11658876 0.09042429 0.2154936 -0.21230112
-0.15867087 0.116358496 0.03192941 0.0765458 0.15441492 0.10686709 0.2064791 0.18332398
0.17226815 -0.1788433 0.056243125 0.18760659 -0.052891567 0.07852963 0.21106732 0.096711196
0.09117314 -0.04659535 0.10848999 -0.0732477 -0.112902805 -0.06501366 0.21672218 -0.09961618
-0.100499704 0.16323382 0.18314807 -0.03252173 0.17125385 -0.23193745 0.0034264221 -0.15220615
0.2032699 -0.12653184 -0.1407364 -0.1262391 0.008136762 -0.102998935 -0.13616174 0.20977245
-0.17959134 0.19099154 0.05205201 -0.1298815 -0.08439898 0.22091195 0.087902084 -0.14873287
0.021574425 -0.12084469 -0.04314463 0.11420653 -0.021587906 -0.12320091 0.160903 -0.16286346
-0.11381795 -0.1791416 -0.18874219 -0.06715728 -0.102760695 0.118983984 -0.21362977 0.04855162
-0.17864484 -0.02866452 -0.11491383 0.1421068 -0.14281915 -0.06548418 0.16115916 -0.13913615
0.14732495 -0.101740085 -0.09723894 -0.1153394 -0.021555495 -0.10348618 -0.14714462 0.16468367
-0.09582405 -0.004205129 -0.06657243 0.012845637 -0.04335896 0.051554784 -0.07571269 0.08469934
0.08902245 -0.03747062 -0.059533715 0.028541466 -0.19318658 -0.06765901 -0.2171912 0.0695751
-0.14173552 -0.08106099 0.1560277 0.11294925 0.12880333 0.11369566 -0.12401265 0.061613563
-0.15355587 -0.161768 0.029030068 -0.13024776 -0.050385218 -0.04053881 0.008363969 0.12977496
0.10566079 -0.12280911 0.14296076 0.102711305 0.12628433 -0.146018 -0.055917047 -0.20805188
-0.047141925 -0.069834985 0.2013138 0.20875373 0.1919101 -0.08988784 -0.00014129361 -0.2199695
-0.036419787 0.0056696213 0.1821353 0.18525325 -0.06421491 0.19972004 0.076988816 -0.07767958
-0.1793942 0.11979935 -0.17988728 0.08179174 -0.10679466 -0.006808463 -0.13610642 0.06530001
-0.1921499 -0.06136284 0.008954425 -0.097399384 -0.19871707 -0.18322024 -0.20679264 0.23123209
-0.18734525 -0.019447321 0.11411021 -0.16055216 0.21300474 0.12611765 0.04414981 0.022499945
0.18627833 -0.048263624 0.20343591 -0.124663755 0.015323718 -0.09002083 -0.1524949 -0.18002234
0.06852019 0.17596544 -0.018076517 -0.0933184 0.038282823 0.07825164 -0.03193709 -0.19700989
0.0022459922 0.07754736 0.13984457 0.0100355875 -0.11846318 -0.15712096 -0.15330026 -0.09040901
0.20253181 -0.028953476 -0.052714016 0.081572145 0.11729859 -0.07137389 -0.16417618 0.004801097
0.10546347 0.14340928 -0.18308592 0.06636123 0.06518929 0.046261773 -0.09610462 0.16491686
-0.18484592 -0.19540338 0.02255422 0.1560128 0.04347533 -0.07728142 0.17356688 0.12306589
0.022058977 -0.008113492 -0.15215668 0.015026516 -0.11478514 -0.037105255 -0.1490051 0.09428595
