finalhybrid/experiments/experiment_20251104_232429/checkpoint_epoch_15.pth (torch, 662928 bytes, 50 tensors)

gcn_layers.0.bias f4 [64]
0	0xbc736f86	-0.014858132
1	0xbc2852c7	-0.010273642
2	0x00000000	0.0
3	0xbbe48db2	-0.006974899
4	0x00000000	0.0
5	0x3c87e441	0.016588332
6	0x00000000	0.0
7	0xbb801fe2	-0.0039100507
8	0xbc5cae97	-0.01346936
9	0x3a50d2f4	0.0007966005
10	0x00000000	0.0
11	0x00000000	0.0
12	0x3b728bf2	0.0037009683
13	0xbbdea5d5	-0.006794671
14	0x00000000	0.0
15	0xbc6ff082	-0.014644744
16	0x00000000	0.0
17	0x3ad7c69a	0.0016462386
18	0x3c46293c	0.012094792
19	0x3b62bd8b	0.003459784
20	0xbb091828	-0.002091894
21	0x3c2c88ee	0.010530693
22	0x3cb3fe64	0.021971889
23	0xbc66346b	-0.014050583
24	0xbbcc371b	-0.006232155
25	0xbcad00cf	-0.02111855
26	0x00000000	0.0
27	0xbc0744a1	-0.0082561085
28	0x00000000	0.0
29	0x3ba17b0b	0.004927998
30	0x3b04fee9	0.002029354
31	0xba62faa4	-0.0008658564
32	0x00000000	0.0
33	0x00000000	0.0
34	0x3b0c926a	0.0021449574
35	0x3c165653	0.009175855
36	0xbb201468	-0.0024426226
37	0xbc1a2f2d	-0.009410662
38	0xbc92823d	-0.017884368
39	0x00000000	0.0
40	0x00000000	0.0
41	0x3b1e6e72	0.0024174717
42	0xbb84ec4f	-0.0040564905
43	0x00000000	0.0
44	0xbc279dc4	-0.010230485
45	0x3bca7923	0.0061789914
46	0x00000000	0.0
47	0x3c173a16	0.009230157
48	0x3c9538dd	0.018215591
49	0xbb567eba	-0.0032729344
50	0x39e56d06	0.00043759512
51	0x00000000	0.0
52	0x00000000	0.0
53	0xbc1953bc	-0.009358343
54	0x00000000	0.0
55	0x00000000	0.0
56	0x3bf76920	0.0075503737
57	0x00000000	0.0
58	0x00000000	0.0
59	0x00000000	0.0
60	0x3c02bbba	0.007979328
61	0x00000000	0.0
62	0xbc0d04ae	-0.008607073
63	0x3c23dbad	0.010001105

gcn_layers.0.lin.weight f4 [64, 36]
0	0xbe2f3452	-0.17109802
1	0x3cd2b503	0.025721079
2	0xbcc6e026	-0.024276804
3	0xbe71efc6	-0.23626623
4	0x3ce7ac15	0.028280297
5	0xbe35c490	-0.17750764
6	0xbd91fc4b	-0.07128199
7	0xbe4af622	-0.19820455
8	0xbc2b0afb	-0.01043963
9	0xbe55a1cf	-0.20862506
10	0xbe2ef20a	-0.17084518
11	0xbe79a7e9	-0.24380459
12	0x3de16912	0.11006369
13	0x3e38244d	0.17982598
14	0xbe764133	-0.24048309
15	0x3e1fa771	0.15591218
16	0xbe61301d	-0.2199101
17	0x3e45424d	0.19263573
18	0xbba14d00	-0.004922509
19	0x3d56507c	0.05232285
20	0x3de25b3a	0.11052556
21	0xbe60acdc	-0.2194094
22	0x3e65e25d	0.22449632
23	0x3e3b4bb1	0.18290593
24	0x3e11196d	0.14169855
25	0x3e0029cd	0.12515946
26	0xbdda98f9	-0.106737085
27	0x3e69db1d	0.22837491
28	0xbbad8ec0	-0.005296558
29	0xbe68518e	-0.2268736
30	0x3e33d7ff	0.17562865
31	0x3e5a6181	0.21326257
32	0xbe539a88	-0.20664418
33	0xbe615284	-0.22004133
34	0x3d8a8c72	0.06765069
35	0xbde5f445	-0.11228231
36	0xbce97366	-0.02849741
37	0xbe887205	-0.2664949
38	0xbd9feb94	-0.07808605
39	0xbe138c3b	-0.14408962
40	0xbe4acc09	-0.19804396
41	0x3d8196eb	0.063276134
42	0x3d097667	0.033560183
43	0xbe0f5032	-0.13995436
44	0xbe7f21c7	-0.24915229
45	0xbd887196	-0.0666229
46	0x3dae630a	0.08514984
47	0xbe060aa0	-0.1308999
48	0xbe433939	-0.19064797
49	0x3e28086d	0.16409464
50	0xbdf5083c	-0.11964461
51	0x3e314a7d	0.17313571
52	0xbbe809e0	-0.0070812553
53	0xbe5c0224	-0.21485192
54	0x3e184bbf	0.14872645
55	0x3e2ff523	0.17183356
56	0xbe67d118	-0.22638357
57	0xbda4e8bc	-0.08052203
58	0xbb9e2520	-0.004826203
59	0xbda5441e	-0.08069633
60	0x3e513b48	0.2043277
61	0xbd75a898	-0.059975237
62	0xbb3bb5c4	-0.0028642276
63	0xbe85557a	-0.26041776
64	0x3e708175	0.23486884
65	0x3e5c929b	0.215403
66	0x3bfb3c4b	0.0076670996
67	0x3d14d974	0.036340192
68	0x3c23abb0	0.009989664
69	0x3e693826	0.22775325
70	0x3e374f17	0.17901264
71	0x3e28fc6d	0.16502543
72	0x3e324e5b	0.17412703
73	0xbd660640	-0.056158304
74	0x3ce28b58	0.027654335
75	0xbe30bc01	-0.17259218
76	0xbe59dcf6	-0.21275696
77	0xbde954f0	-0.11393154
78	0xbde111e4	-0.109897405
79	0x3d8494e6	0.064737126
80	0x3d97573a	0.07389684
81	0x3e09ab97	0.13444363
82	0xb8973000	-7.209182e-05
83	0xbca80248	-0.0205089
84	0x3e028121	0.12744571
85	0x3d4f244c	0.050571725
86	0x3cc45018	0.023963973
87	0x3d2c968c	0.04213576
88	0xbe37c530	-0.17946315
89	0x3d6b223c	0.057405695
90	0xbe73a0fe	-0.23791882
91	0x3ddef7aa	0.10887082
92	0xbb38cd80	-0.002819866
93	0xbe524dd5	-0.20537503
94	0xbdf12282	-0.1177416
95	0xbe137c56	-0.14402899
96	0x3dbf9666	0.09354858
97	0xbe071167	-0.13190232
98	0xbe287d8c	-0.16454142
99	0xbcfd16f8	-0.030894741
100	0x3e595947	0.21225463
101	0xbe753f0e	-0.23949835
102	0xbe434ed4	-0.1907304
103	0x3e0422e3	0.12903933
104	0xbe1d2ba8	-0.15348685
105	0xbda415b4	-0.08011952
106	0xbdf3f0c6	-0.11911158
107	0x3e02bd49	0.12767519
108	0xbcf8e5e1	-0.030383052
109	0xbe049894	-0.12948829
110	0x3e69ecb4	0.22844201
111	0xbd953d26	-0.07287054
112	0x3e231ca0	0.15928888
113	0xbca7346d	-0.02041074
114	0xbd02a6c4	-0.03189732
115	0xbd216914	-0.03940685
116	0xbe21d959	-0.15805568
117	0xbdff9a46	-0.12480597
118	0xbe47897a	-0.19486037
119	0x3e4ad95f	0.19809483
120	0x3e28c43d	0.16481109
121	0xbcdb7368	-0.026788428
122	0x3e68f609	0.22750105
123	0xbdb02a1e	-0.08601783
124	0xbda1bd6c	-0.078974575
125	0x3d5492a4	0.05189766
126	0xbe712e03	-0.23552708
127	0xbe2f906a	-0.17144933
128	0x3e612c67	0.21989594
129	0xbe5b0331	-0.21387936
130	0xbe106978	-0.14102733
131	0xbe6f4d29	-0.23369278
132	0xbd8a0ede	-0.06741117
133	0xbdb466d8	-0.088086784
134	0x3d420e7f	0.047377106
135	0x3e1163d7	0.14198242
136	0x3e38ec05	0.18058784
137	0x3e0ec196	0.13941035
138	0x3d903d88	0.07042986
139	0xbe0820a5	-0.13293703
140	0x3d6d0424	0.057865277
141	0xbe2f9108	-0.17145169
142	0xbe63daa1	-0.22251369
143	0x3e57d9cf	0.21079181
144	0x3e2266af	0.15859483
145	0xbe00a4bf	-0.12562846
146	0x3e34faa3	0.17673735
147	0x3d013ed4	0.03155406
148	0xbe67c121	-0.22632267
149	0xbc8faa18	-0.017537162
150	0xbcd818c0	-0.02637899
151	0x3e16908f	0.14703582
152	0x3af42080	0.0018625408
153	0xbd584fa4	-0.052810326
154	0xbdf212e2	-0.11820008
155	0xbd010e78	-0.03150794
156	0xbd8c883c	-0.06861922
157	0xbe38d118	-0.18048513
158	0xbd059798	-0.032615274
159	0xbe42dba1	-0.19029094
160	0x3d27a58c	0.040929362
161	0x3e3acde9	0.18242611
162	0xbe3c9d5e	-0.18419406
163	0x3e397d9b	0.18114321
164	0x3e5e9e2d	0.21740027
165	0xbe46952f	-0.19392847
166	0x3c903978	0.017605528
167	0xbd5dc5b8	-0.054143637
168	0x3dfef3c2	0.12448837
169	0x3e1c02fb	0.15235512
170	0xbe4207a6	-0.1894823
171	0xbdbabc46	-0.091179416
172	0xbe322066	-0.17395172
173	0xbe482ee0	-0.19549131
174	0xbd795468	-0.06087151
175	0xbe797cb5	-0.24363978
176	0xbe4abc26	-0.19798335
177	0x3d0f8324	0.035037175
178	0xbe7627aa	-0.24038568
179	0x3e22a2f5	0.15882476
180	0xbc64356f	-0.013928755
181	0xbdde3fec	-0.10852036
182	0x3e4b14b2	0.19832113
183	0xbe019b12	-0.12656811
184	0x3e5a9ff0	0.21350074
185	0x3dd2c9cf	0.10292398
186	0x3e544981	0.20731165
187	0xbafb3300	-0.001916498
188	0xbd2e19c0	-0.042505026
189	0x3e27455b	0.16335051
190	0xbe104438	-0.14088523
191	0xbe1c2bc2	-0.15251067
192	0xbda9830e	-0.0827695
193	0xbe65a19a	-0.22424927
194	0x3c0e45b0	0.008683607
195	0xbddaa3b2	-0.10675754
196	0xbe404594	-0.18776542
197	0xbde32e9e	-0.11092876
198	0x3de6cc7e	0.112694725
199	0xbe1b8ada	-0.15189686
200	0xbda7613e	-0.08172844
201	0x3ddfbbe8	0.10924512
202	0x3de716b6	0.11283629
203	0x3e1ce1b9	0.15320481
204	0x3e3d7fa4	0.18505722
205	0x3e21e90f	0.15811561
206	0x3dc060b3	0.09393444
207	0x3d3fd13c	0.0468304
208	0x3e65cead	0.22442122
209	0xbd6a29f9	-0.057168934
210	0x3e40c4d3	0.18825082
211	0x3e123111	0.1427653
212	0xbd484b54	-0.048899963
213	0x3e805710	0.25066423
214	0x3d7c9a51	0.061670605
215	0xbdb21eb6	-0.08697264
216	0xbe0a18f5	-0.13486083
217	0x3db57046	0.08859305
218	0xbde17a26	-0.11009626
219	0x3e27e5bd	0.16396232
220	0xbd6ef0b8	-0.058335036
221	0x3da48cb6	0.08034651
222	0x3e6b05ed	0.2295148
223	0xbd2b526c	-0.04182665
224	0xbe6659ed	-0.22495241
225	0xbe2f58fd	-0.1712379
226	0x3c924888	0.017856851
227	0xbe6c8948	-0.23099244
228	0x3e454a9d	0.19266744
229	0xbe1a8c5a	-0.15092602
230	0x3e0916d7	0.13387619
231	0x3e62b245	0.22138317
232	0x3e2e00d3	0.16992502
233	0x3e3f874f	0.1870396
234	0xbe54b75f	-0.20773076
235	0x3cf1fbd8	0.029539034
236	0x3e058f73	0.13043003
237	0x3dd37dc6	0.10326724
238	0xbe025046	-0.12725934
239	0x3d961172	0.07327546
240	0xbe1296a2	-0.14315274
241	0x3e1a99eb	0.15097778
242	0xbdb73b38	-0.08946842
243	0x3e2b352b	0.167195
244	0xbde0f362	-0.109839216
245	0xbe61381e	-0.21994063
246	0xbe1c8dbd	-0.15288444
247	0x3dab7e66	0.08373718
248	0xbe306c65	-0.17228849
249	0xbe3a005a	-0.18164197
250	0xbe17fbc8	-0.1484214
251	0xbbf2f1c0	-0.0074140728
252	0xbe459357	-0.19294487
253	0xbe65e3ca	-0.22450176
254	0x3d3b79d0	0.045770466
255	0x3dbf8b32	0.09352721

gcn_layers.1.bias f4 [128]
0	0x3c9c2392	0.01905993
1	0x3c3ee114	0.0116503425
2	0xbc33d87e	-0.010976909
3	0xbc3be18d	-0.01146735
4	0xbc047662	-0.008084865
5	0xbbe69621	-0.0070369397
6	0xbb9df017	-0.0048198807
7	0x00000000	0.0
8	0xbbf602fd	-0.0075076804
9	0x3aec1315	0.0018011058
10	0x3c2720d9	0.010200703
11	0x3abc96bc	0.0014388184
12	0xba55c499	-0.00081546005
13	0xbb43fdf5	-0.002990601
14	0x3c443281	0.011974932
15	0x3c806c9f	0.015676795
16	0xbca9635d	-0.020677263
17	0xbbd0d6b5	-0.0063732513
18	0x38875cca	6.454585e-05
19	0xbc0d87bd	-0.00863832
20	0x3b48b2a1	0.003062405
21	0xbc3bff91	-0.011474506
22	0xbadca79a	-0.0016834617
23	0xbbcea0a4	-0.006305771
24	0x3b09a6d2	0.0021003974
25	0xbaf5eac4	-0.0018761982
26	0x3c8d1e22	0.017226283
27	0x3b47b59e	0.0030473243
28	0xbbb447ce	-0.005501724
29	0xbbb7b836	-0.0056066765
30	0xbb431a3a	-0.002977027
31	0xbc7c82e7	-0.015412069
32	0x3ac25e62	0.0014829154
33	0xbae029c4	-0.0017102291
34	0x3ad80a0f	0.001648249
35	0x3c810df8	0.015753731
36	0xbc200432	-0.009766625
37	0xbc9c8639	-0.019106971
38	0x3c5b8d20	0.013400346
39	0x3a58d0f8	0.0008270885
40	0x3c088831	0.008333252
41	0x3b0250b8	0.0019884538
42	0xbbbb4a37	-0.005715634
43	0x3a971f34	0.0011529685
44	0xbbce9da3	-0.006305413
45	0xbb482167	-0.0030537487
46	0x3b890ab2	0.004182183
47	0xbb8c1872	-0.004275375
48	0x00000000	0.0
49	0xbc50b274	-0.012737859
50	0x3be0f976	0.0068656756
51	0x3c547b38	0.012968831
52	0xbb837190	-0.0040113404
53	0xbc37d7fa	-0.011220926
54	0x00000000	0.0
55	0xbc24d4fd	-0.010060546
56	0x00000000	0.0
57	0xbc1ab9ef	-0.009443744
58	0xbc5fdf85	-0.013664131
59	0xbb8e89ba	-0.0043499144
60	0x3bacd332	0.0052742
61	0xbbea1b6a	-0.0071443813
62	0x3baa206d	0.0051918537
63	0xbc2743f9	-0.010209077
64	0x3ca99f37	0.020705802
65	0xbba4fa12	-0.0050346935
66	0x3cb9cd82	0.022681002
67	0x3c88b0c5	0.016685853
68	0xb9f24bf7	-0.00046214435
69	0x3b2741f1	0.0025521482
70	0xbbba3007	-0.005681995
71	0x3ac5ed65	0.0015100656
72	0xbb37fc9a	-0.0028074146
73	0xbc427131	-0.011867807
74	0xbae726af	-0.001763543
75	0x3cc64fc8	0.024207965
76	0xbc4b207b	-0.012397881
77	0x3b02c15b	0.0019951675
78	0xbb97d80f	-0.0046339105
79	0xbb916fbf	-0.00443837
80	0xbaa0471d	-0.0012228225
81	0xbb3efeb9	-0.0029143526
82	0x3c051b8a	0.008124242
83	0xbc100894	-0.008791108
84	0xbbe3d916	-0.006953369
85	0x3c3f84f1	0.011689411
86	0x3be46f4d	0.006971276
87	0x3c7828dc	0.01514646
88	0xbb8bbc3b	-0.004264382
89	0xbc859e91	-0.016310962
90	0xbc166393	-0.009179014
91	0xba8d7290	-0.0010791589
92	0x3beb284c	0.0071764346
93	0x3c02d724	0.007985864
94	0xbb1a53fc	-0.0023548594
95	0xbadfbc95	-0.0017069752
96	0x3b352cb6	0.0027645058
97	0x3aeca33e	0.0018054021
98	0x3ba503ab	0.0050358376
99	0x3c136873	0.008997071
100	0x3bef4a4d	0.0073025585
101	0x3c55ff5c	0.013061371
102	0x3c7ee4a9	0.0155574465
103	0xbad06836	-0.0015900198
104	0xbc660e47	-0.01404149
105	0x3b852883	0.0040636673
106	0xbbccc159	-0.006248635
107	0xbb65d81c	-0.0035071438
108	0xbb8cbacc	-0.004294729
109	0xbc1efc2f	-0.00970368
110	0x3b24a38d	0.0025121898
111	0x3b85cd0f	0.004083283
112	0xba3d805f	-0.00072289066
113	0xbc03cee2	-0.00804493
114	0xbc441609	-0.011968144
115	0xbc818963	-0.015812581
116	0xbb683ff6	-0.0035438514
117	0x3b56acd2	0.0032756818
118	0x3bbf6028	0.00584032
119	0x3b412a1a	0.0029474557
120	0x3b8df814	0.0043325517
121	0x3b501209	0.003174903
122	0x3bb69c19	0.0055728075
123	0xbbe2eb9c	-0.0069250595
124	0x3b58af10	0.003306333
125	0xbbf5ebb5	-0.007504905
126	0x3c05418c	0.008133303
127	0x3b931604	0.0044887085

gcn_layers.1.lin.weight f4 [128, 64]
0	0xbddf298d	-0.10896597
1	0xbd3bde0f	-0.04586607
2	0x3e34ac5f	0.1764388
3	0x3d2a532f	0.041583236
4	0xbdc111f3	-0.09427252
5	0x3c8b922b	0.017037472
6	0xbdc9b0c7	-0.09848171
7	0xbc210f3b	-0.009830291
8	0xbe1863ef	-0.14881872
9	0x3d0387fb	0.032112103
10	0xbd83974b	-0.06425341
11	0x3e3da221	0.18518879
12	0x3e4bf3b2	0.19917181
13	0xbe2a60fd	-0.1663856
14	0xbe0f0b3d	-0.13969131
15	0xbdd2e816	-0.10298173
16	0xbd675493	-0.05647714
17	0x3e21d6eb	0.15804641
18	0x3e46cc11	0.19413783
19	0xbe0fe500	-0.140522
20	0x3d3c574e	0.045981698
21	0x3de94a24	0.11391094
22	0xbd12661c	-0.03574191
23	0x3e3410d1	0.1758454
24	0xbdc2b6ab	-0.095074974
25	0x3deccf27	0.11562949
26	0x3e2e6825	0.17031915
27	0xbc8db581	-0.017298462
28	0x3da1df40	0.0790391
29	0x3da91d55	0.08257548
30	0x3dae3e3a	0.085079625
31	0xbddd401b	-0.10803243
32	0xbde81e6c	-0.113339275
33	0x3e126dc1	0.1429968
34	0x3d8c3cc3	0.06847527
35	0x3de12ca5	0.109948434
36	0x3e3613b1	0.17780949
37	0x3e0cf970	0.13767028
38	0xbded1a68	-0.11577302
39	0xbe22636a	-0.15858236
40	0xbd952e13	-0.072841786
41	0x3d4eccd3	0.050488304
42	0x3d644480	0.05572939
43	0x3c6e5444	0.014546458
44	0xbd87b87b	-0.06626984
45	0xbde97031	-0.11398352
46	0x3e1a9311	0.15095164
47	0xbdf83241	-0.1211896
48	0x3e259145	0.16168697
49	0x3d8e566e	0.06950079
50	0xbdd049df	-0.1017034
51	0x3d4a6837	0.049415793
52	0x3d7394ee	0.059468202
53	0x3d38fbc2	0.04516197
54	0xbb66d827	-0.0035224052
55	0xbd1ab9f7	-0.037775006
56	0xbd96377a	-0.073348
57	0x3ad2c000	0.0016078949
58	0x3de97e80	0.11401081
59	0x3d9517ed	0.07279954
60	0xbd26ce0e	-0.040723853
61	0x3defe758	0.11714047
62	0xbdf48975	-0.1194028
63	0xbd11fc30	-0.035640895
64	0xbd6dc073	-0.058044862
65	0xbd9ab538	-0.07554096
66	0xbdc0e2e1	-0.09418274
67	0xbe24a272	-0.16077593
68	0xbdbcabce	-0.09212457
69	0xbdb72153	-0.08941903
70	0xbdcd1d19	-0.100153156
71	0x3e245b80	0.1605053
72	0x3df2ee1a	0.118618205
73	0x3e1b9c25	0.15196283
74	0x3cae438e	0.021272447
75	0x3de56238	0.11200374
76	0xbdc6eec9	-0.097135134
77	0xbdd8672b	-0.10566553
78	0x3d7c3936	0.061577998
79	0xbda4d0f7	-0.080476694
80	0xbd0855d2	-0.03328497
81	0xbdee49cc	-0.116351694
82	0xbdcaa65a	-0.0989501
83	0xbdba5882	-0.09098913
84	0x3ce24f46	0.027625691
85	0xbd20d476	-0.03926512
86	0xbcce34ca	-0.025171656
87	0xbdc6997e	-0.09697245
88	0x3c1e22b8	0.009651832
89	0xbc38c76d	-0.011278016
90	0x3cf0e6b8	0.02940689
91	0x3d8d9ad7	0.06914299
92	0x3dd2bc9d	0.102898814
93	0x3e2122e1	0.15735961
94	0x3e0f04f5	0.13966735
95	0x3e3e3b7f	0.18577383
96	0xbcab6242	-0.020920876
97	0x3e2119a1	0.15732433
98	0xbe2a908d	-0.16656704
99	0x3e1ef3b2	0.1552265
100	0xbd8ed5d1	-0.06974376
101	0x3d93b2cc	0.07211837
102	0x3d505538	0.05086252
103	0xbcf14a98	-0.029454514
104	0xbe026031	-0.12732007
105	0xbe262281	-0.162241
106	0x3e35048e	0.17677519
107	0x3e21db66	0.1580635
108	0xbe1bb7ed	-0.15206881
109	0x3de3372f	0.1109451
110	0xbe0986b5	-0.13430293
111	0x3e2110fd	0.15729137
112	0xbcb72336	-0.022355657
113	0xbdce4916	-0.10072534
114	0x3e08dc2c	0.13365239
115	0x3d19266e	0.037390165
116	0x3d4dc136	0.05023309
117	0x3e04192d	0.12900229
118	0xbdc50814	-0.096206814
119	0xbde48fb0	-0.11160219
120	0xbe1f6347	-0.15565215
121	0xbe21b1fa	-0.15790549
122	0x3bdc24c4	0.00671825
123	0xbd842488	-0.0645228
124	0xbc554555	-0.013017018
125	0xbdc85dd4	-0.09783521
126	0xbe014979	-0.12625684
127	0x3c5dab49	0.013529607
128	0x3db61769	0.08891184
129	0x3e1efb89	0.1552564
130	0xbde8342c	-0.11338076
131	0xbdff0e6b	-0.12453922
132	0xbe1a8fe8	-0.15093958
133	0x3da86577	0.08222478
134	0xbda9bb8c	-0.08287725
135	0xbe2a7c44	-0.16648966
136	0xbde6ba3f	-0.112659924
137	0x3d6b346b	0.057423037
138	0x3d82f610	0.06394589
139	0x3d21f3d2	0.039539166
140	0xbe3c8994	-0.18411857
141	0x3dcbc59d	0.09949801
142	0x3db41fc7	0.087951235
143	0x3e2053a6	0.1565691
144	0x3d85e62b	0.06538042
145	0xbd38aed4	-0.045088604
146	0xbe268693	-0.16262273
147	0xbe38c3c5	-0.1804343
148	0x3dbedd77	0.09319585
149	0x3dbcd2b9	0.0921988
150	0xbdbdfcc9	-0.092767306
151	0x3dc4de74	0.09612742
152	0x3dc9fe47	0.09862953
153	0x3dde2ad0	0.108480096
154	0xbd806b27	-0.06270438
155	0xbd5bbdf4	-0.05364795
156	0x3cc59c6c	0.02412244
157	0x3d1f5120	0.038895726
158	0x3e027572	0.12740114
159	0x3d5a3563	0.05327357
160	0xbd9fb264	-0.07797697
161	0x3e1e1a0b	0.15439622
162	0x3dbf50be	0.09341572
163	0xbe1c7746	-0.15279874
164	0x3cad4f63	0.021156019
165	0xbe386972	-0.18008974
166	0x3d0d9af2	0.034571595
167	0x3d48908c	0.048965976
168	0x3dd78da2	0.10525061
169	0x3df5cdf5	0.12002174
170	0xbd6cb48c	-0.05778937
171	0x3db38837	0.08766215
172	0x3c39ddc0	0.011344373
173	0x3d0a2e3d	0.033735503
174	0xbdbc9e58	-0.09209889
175	0x3b852cad	0.0040641637
176	0x3db725a7	0.089427285
177	0xbc90f9a6	-0.017697167
178	0x3d2bb1b4	0.041917518
179	0x3dab538e	0.08365546
180	0x3df6d36a	0.12052043
181	0x3d9c8918	0.07643336
182	0xbe1ae61b	-0.15126841
183	0x3e06a177	0.13147531
184	0xbd818179	-0.06323523
185	0x3e01480d	0.12625141
186	0x3e1bdb15	0.15220292
187	0xbc587e39	-0.013213688
188	0xbd34f7a0	-0.044181466
189	0xbdfa5440	-0.12223101
190	0x3d8e8621	0.06959177
191	0x3bdc9ed2	0.0067328
192	0xbdd6a4b9	-0.10480637
193	0xbd9bb8b0	-0.07603586
194	0xbd99bc4e	-0.075066194
195	0x3e00e962	0.12589028
196	0xbdc065ee	-0.093944415
197	0x3d3a3f83	0.045470726
198	0x3e1a365e	0.15059802
199	0xbe13aeda	-0.1442217
200	0xbe3a7e85	-0.18212326
201	0x3d663d21	0.05621064
202	0x3d97c865	0.07411269
203	0xbbc292e6	-0.005937922
204	0xbd011455	-0.03151353
205	0x3d6387b1	0.055549327
206	0xbe2415a8	-0.16023886
207	0xbdc2ba74	-0.09508219
208	0xbe257810	-0.16159081
209	0x3d83f446	0.06443076
210	0xbe405ffa	-0.18786612
211	0x3e26dc7d	0.16295047
212	0x3d99aad8	0.07503289
213	0xbd97ad4c	-0.07406101
214	0x3d82567a	0.0636415
215	0x3e1a2ed4	0.15056926
216	0xbdace00c	-0.08441171
217	0x3d8adf77	0.06780904
218	0xbdbd2178	-0.09234899
219	0x3e23d396	0.15998682
220	0x3d67d91b	0.056603532
221	0x3a1673be	0.0005739293
222	0x3d3c8276	0.046022855
223	0xbbfffc51	-0.007812061
224	0x3c2bf624	0.010495696
225	0x3c81d0b0	0.01584658
226	0xbda103ce	-0.07862054
227	0xbdf56cbb	-0.11983629
228	0xbda38208	-0.07983786
229	0xbd5c1488	-0.053730518
230	0x3e086c2e	0.13322517
231	0xbd6a48fe	-0.057198517
232	0xbd90bc3b	-0.07067152
233	0xbdcd3854	-0.10020509
234	0xbd52cff2	-0.051467843
235	0xbe023e33	-0.1271904
236	0x3d171760	0.036887527
237	0x3d11185a	0.035423614
238	0xbbcf9165	-0.006334471
239	0xbcf93aa8	-0.030423477
240	0x3ce5c38b	0.028047344
241	0xbe15c616	-0.14626345
242	0xbcf19f04	-0.02949477
243	0x3e332f2b	0.17498462
244	0xbd9165d2	-0.07099499
245	0xbe357f38	-0.17724311
246	0x3cf2b5ea	0.029627759
247	0x3e026af0	0.12736106
248	0xbdacad24	-0.084314615
249	0xbdbcdf17	-0.092222385
250	0x3e12008c	0.14258021
251	0xbd242ce3	-0.04008187
252	0xbcba5c68	-0.02274914
253	0x3d4ed5bd	0.050496805
254	0xbd3fec04	-0.04685594
255	0x3caf3182	0.021385912

gat_layers.0.att_src f4 [1, 4, 64]
0	0x3d0acbf9	0.03388593
1	0xbd3f3968	-0.046685606
2	0x3e8e6caf	0.27817294
3	0xbe23b276	-0.15986046
4	0xbe9800cd	-0.2968811
5	0x3e6dd2f9	0.23225011
6	0xbd3f408b	-0.046692412
7	0x3cfeab12	0.031087432
8	0x3e09745c	0.13423294
9	0x3c13e18c	0.0090259425
10	0xbe8118bf	-0.25214192
11	0xbe00a711	-0.12563731
12	0x3e27e470	0.16395736
13	0x3d010ed9	0.0315083
14	0x3e91331d	0.2835931
15	0x3e264899	0.16238631
16	0x3e3f6dcb	0.18694226
17	0x3db1e937	0.0868706
18	0x3e4fd6ff	0.20296858
19	0x3e881944	0.26581776
20	0x3d797a26	0.060907505
21	0xbc7e36be	-0.015515981
22	0xbe23c0a6	-0.15991458
23	0xbdab1c9c	-0.08355066
24	0x3e945592	0.28971535
25	0xbddef1be	-0.108859524
26	0xbe3a35cd	-0.18184586
27	0xbe185707	-0.14876948
28	0x3e3a01a1	0.18164684
29	0xbe1bdcc1	-0.1522093
30	0xbe1f48e3	-0.15555148
31	0xbe449e0d	-0.19200917
32	0x3d667f0f	0.056273516
33	0x3e48a53b	0.1959428
34	0x3e414e67	0.18877564
35	0x3e324635	0.17409594
36	0xbe8f2f87	-0.27965948
37	0xbe148dff	-0.14507292
38	0x3e8796f0	0.26482344
39	0x3deebaff	0.116567604
40	0x3e406cce	0.18791506
41	0xbe90b612	-0.2826391
42	0xbe388e7d	-0.18023105
43	0x3e0509f8	0.12992084
44	0xbe99e8eb	-0.30060515
45	0x3e46eaaf	0.19425462
46	0x3da031f2	0.07822026
47	0xbe60de36	-0.21959767
48	0xbe6ba448	-0.23011887
49	0x3df1feaa	0.118161514
50	0x3e6510ca	0.22369686
51	0xbe372ea8	-0.17888892
52	0xbdeaaf49	-0.11459214
53	0xbe3fe1d3	-0.18738489
54	0x3e5f3e76	0.2180117
55	0x3e74e91d	0.2391705
56	0x3e7169ca	0.23575512
57	0xbd3e1c9f	-0.046414014
58	0x3d919c90	0.0710994
59	0xbdf2cc7e	-0.1185541
60	0xbe53e50c	-0.20692843
61	0x3e2d8c8b	0.16948144
62	0xbe390783	-0.18069272
63	0x3d09a2d6	0.033602558
64	0x3e46074f	0.19338726
65	0x3e8c6a1a	0.274247
66	0x3e76ef85	0.24114807
67	0x3e23636a	0.15955892
68	0xbb0c7bf4	-0.0021436187
69	0xbe86143e	-0.2618732
70	0xbe38121c	-0.17975658
71	0x3d880584	0.06641677
72	0x3e776556	0.2415975
73	0xbe54f6df	-0.20797299
74	0x3d66ff59	0.056395862
75	0x3d9c7a0f	0.07640468
76	0xbcb58e69	-0.022162633
77	0xbe0258e2	-0.12729219
78	0x3e8770c3	0.26453218
79	0xbd58e7c6	-0.05295541
80	0x3e823d4d	0.25437394
81	0x3e92dd14	0.28684294
82	0xbccccd81	-0.025000336
83	0xbe247645	-0.16060741
84	0x3e6938d2	0.22775581
85	0xbdb04f85	-0.08608917
86	0xbca38cf8	-0.01996468
87	0xbc806520	-0.01567322
88	0xbe2a1de4	-0.16612965
89	0xbe2a288f	-0.16617034
90	0x3e6ed70a	0.23324218
91	0xbdc7e1df	-0.09759878
92	0xbdd849fe	-0.10560988
93	0xbdd689cd	-0.10475502
94	0x3e9485cd	0.29008332
95	0x3e842046	0.25805873
96	0xbd196d23	-0.037457597
97	0xbe8c27a1	-0.27373984
98	0x3e674031	0.22583081
99	0xbd1fa6da	-0.03897748
100	0xbd89d7ad	-0.0673059
101	0x3e3b80a7	0.18310796
102	0x3d943a66	0.07237701
103	0x3dd5f129	0.10446388
104	0x3cf3d268	0.029763415
105	0x3d579e88	0.05264142
106	0x3e91b3cd	0.2845749
107	0x3dff3a8b	0.12462338
108	0xbd438a9c	-0.04773961
109	0x3d2ee031	0.042694274
110	0xbe6b46ba	-0.22976199
111	0xbd586887	-0.05283406
112	0x3dcf0948	0.10109192
113	0x3e0759b8	0.13217819
114	0x3e4671fa	0.19379416
115	0xbe6c2bf9	-0.23063649
116	0x3e06dbbd	0.13169761
117	0x3e91e6fe	0.28496546
118	0x3e1d3f84	0.1535626
119	0xbab456b4	-0.001375875
120	0xbe6e6f46	-0.23284635
121	0x3dc9f2d9	0.09860773
122	0xbd36d9c4	-0.04464127
123	0xbdead831	-0.114670165
124	0x3e601465	0.2188278
125	0x3e0e8127	0.13916455
126	0xbd98fce8	-0.07470113
127	0x3e74aabf	0.2389326
128	0xbe98d0a0	-0.29846668
129	0xbe563324	-0.20917946
130	0xbcdf104e	-0.027229454
131	0x3e093fe3	0.13403277
132	0xbe6c7a49	-0.23093523
133	0xbe000421	-0.12501575
134	0xbe238cf1	-0.15971734
135	0x3d99082a	0.0747226
136	0x3e5c4c0c	0.21513385
137	0x3df7037a	0.1206121
138	0xbe359a5e	-0.17734668
139	0x3e8fefcb	0.28112635
140	0xbd3f765f	-0.046743747
141	0x3e45bc1c	0.1931004
142	0x3e63b2da	0.22236195
143	0x3db34676	0.08753674
144	0x3d6721a7	0.056428578
145	0x3dae36a4	0.085065156
146	0xbe702abc	-0.23453802
147	0xbe3759c9	-0.17905344
148	0xbe8bede6	-0.2732994
149	0xbd451412	-0.048114844
150	0x3e017f34	0.1264618
151	0xbe7f9772	-0.24960116
152	0xbcbd0773	-0.023074841
153	0x3e0c18a9	0.13681282
154	0x3e07738e	0.13227674
155	0xbe4dc7d7	-0.20095764
156	0xbdf3d927	-0.11906653
157	0x3bd74fa3	0.0065707727
158	0xbe588a74	-0.21146566
159	0x3d24dd81	0.040250305
160	0xbe6fda41	-0.23423101
161	0x3d2f89e4	0.042856112
162	0x3e859040	0.26086617
163	0xbe8b36c6	-0.27190226
164	0xbe1d31d6	-0.15351042
165	0xbe0dc414	-0.13844329
166	0xbdc307b2	-0.09522952
167	0x3e0da300	0.13831711
168	0xbe5056b4	-0.20345575
169	0x3e6c7af4	0.23093778
170	0x3e7cd995	0.24692376
171	0xbcec75b0	-0.028864712
172	0x3e5e546f	0.21711896
173	0xbde3ee6f	-0.11129462
174	0xbe487e2b	-0.1957938
175	0x3e0d30d9	0.13788165
176	0xbd8df87c	-0.0693216
177	0xbd899e05	-0.06719593
178	0xbe062d8a	-0.1310331
179	0xbe8ec261	-0.27882674
180	0xbe7eca3a	-0.24881831
181	0x3d205e68	0.039152533
182	0x3d7909c0	0.060800314
183	0xbe1c33c2	-0.15254119
184	0xbda5617f	-0.080752365
185	0x3e740535	0.23830111
186	0x3e11bab1	0.14231373
187	0x3e1f43a8	0.15553153
188	0x3e912b97	0.2835357
189	0xbe79b2b6	-0.24384579
190	0xbe852a11	-0.26008657
191	0x3e585fea	0.21130338
192	0xbe2e437b	-0.1701793
193	0x3e8bc9a3	0.27302274
194	0xbe3c4fd8	-0.18389833
195	0xbe3756b8	-0.17904174
196	0x3e5d3885	0.21603592
197	0x3e8b7ed5	0.27245203
198	0xbe8b943b	-0.27261528
199	0x3e0dff9d	0.1386704
200	0x3e210bf2	0.15727213
201	0xbdcc419f	-0.09973454
202	0x3e09a29a	0.13440934
203	0x3da0028c	0.07812986
204	0xbd3ee57a	-0.046605565
205	0xbde45352	-0.111487046
206	0xbe56a133	-0.2095993
207	0x3e7c4c3b	0.24638455
208	0x3e826c0e	0.25473064
209	0xbe0b8750	-0.13625836
210	0x3c95a7a2	0.01826841
211	0x3d9bc073	0.07605066
212	0x3c66af82	0.01407993
213	0xbd313cde	-0.043270938
214	0x3e413ab9	0.18870057
215	0xbe502b46	-0.20329008
216	0x3e90e272	0.28297764
217	0x3e790905	0.24319847
218	0xba44c9a6	-0.00075068546
219	0x3e36364a	0.17794147
220	0xbd6d5783	-0.057944786
221	0x3e8d7651	0.2762933
222	0x3e875d05	0.26438156
223	0xbdb13e2f	-0.08654439
224	0xbd2f48f5	-0.042794187
225	0x3d813b7a	0.063101724
226	0xbe975c20	-0.29562473
227	0x3d1a58ca	0.037682332
228	0xbe1b2c35	-0.15153582
229	0xbcb2ea1f	-0.021840153
230	0xbe6ee1e7	-0.23328362
231	0x3e9460c6	0.28980082
232	0xbe1142a8	-0.14185584
233	0x3e6396b1	0.22225453
234	0xbd9d8f1a	-0.0769331
235	0x3e5583a6	0.20851001
236	0x3dff34ff	0.1246128
237	0xbe5c044a	-0.21486011
238	0xbe3bd8d7	-0.18344437
239	0xbde79a2b	-0.11308702
240	0xbe28ff1a	-0.16503564
241	0xbe7bf2b4	-0.24604303
242	0xbd2e881d	-0.042610276
243	0xbe5f8e18	-0.21831548
244	0x3e752525	0.23939951
245	0x3e1e2e53	0.15447359
246	0xbe1e0198	-0.15430295
247	0xbd88f8d4	-0.06688085
248	0xbe051a5c	-0.12998337
249	0xbcea3670	-0.028590411
250	0xbdee0ec2	-0.116239086
251	0xbdeb77f4	-0.114974886
252	0x3da132e5	0.078710355
253	0xbe7a529b	-0.24445574
254	0xbe417905	-0.18893822
255	0x3e5d721e	0.21625564

gat_layers.0.att_dst f4 [1, 4, 64]
0	0xbe75d1f0	-0.24005866
1	0x3daa9a13	0.083301686
2	0x3ddbe42e	0.10736881
3	0xbd640ebd	-0.055678118
4	0xbe898851	-0.26861814
5	0x3e2b14ee	0.16707203
6	0xbddb52ff	-0.107091896
7	0xbddbfba7	-0.10741358
8	0xbdefd013	-0.11709609
9	0x3df03633	0.11729088
10	0xbdda0e05	-0.10647205
11	0xbe445f5e	-0.19177005
12	0xbe1b2ecb	-0.15154569
13	0xbe260a31	-0.16214825
14	0x3c0f40fd	0.008743522
15	0xbe19297a	-0.14957228
16	0x3db5362e	0.088482246
17	0x3e3d409d	0.1848168
18	0xbe889b7c	-0.26681125
19	0xbe9595be	-0.29215807
20	0xbe06dcaa	-0.13170114
21	0xbdaad4c9	-0.08341367
22	0xbde03142	-0.10946895
23	0xbd1f0310	-0.03882128
24	0xbe1c7d63	-0.15282206
25	0x3e7a86b0	0.24465442
26	0x3e0e9fef	0.13928197
27	0xbdebe4e7	-0.11518269
28	0x3e6cbbc2	0.23118499
29	0xbddffc3d	-0.109367825
30	0xbb998208	-0.0046846904
31	0x3e53f73a	0.20699778
32	0x3e52e2e0	0.20594358
33	0x3d19e70b	0.037573855
34	0x3e16478c	0.1467573
35	0x3d6703b4	0.056400016
36	0x3e5d5527	0.21614514
37	0x3a7769e6	0.00094380823
38	0x3e406347	0.18787871
39	0xbe7ba0bf	-0.24573039
40	0x3dd15478	0.10221189
41	0x3cd65e1c	0.026167922
42	0xbe38b7e2	-0.18038896
43	0x3e4ed9a8	0.20200217
44	0xbdf76ee1	-0.12081695
45	0xbe33ff3f	-0.17577837
46	0x3e6b5702	0.2298241
47	0xbd269e69	-0.040678415
48	0x3e4724cc	0.1944763
49	0x3e0649f0	0.13114142
50	0x3dd24dcd	0.102687456
51	0x3de3d013	0.111236714
52	0x3caafb41	0.02087176
53	0xbcf0733a	-0.02935182
54	0x3e54ced5	0.20782025
55	0xbd941119	-0.072298236
56	0xbdb44230	-0.08801687
57	0xbe2853f3	-0.16438274
58	0x3dc684f6	0.09693329
59	0x3e852d56	0.2601115
60	0xbd824c6d	-0.06362233
61	0xbe3448d5	-0.17605908
62	0xbc5af417	-0.01336386
63	0x3e5c8756	0.21536002
64	0xbe87d826	-0.26532096
65	0x3d83f65c	0.06443474
66	0xbd50a2aa	-0.05093638
67	0x3e9267cc	0.28594816
68	0x3da0e17f	0.0785551
69	0xbdf5fe5f	-0.12011408
70	0xbcd04a6a	-0.025426108
71	0x3db231eb	0.08700927
72	0xbe91babd	-0.28462783
73	0x3e2eb4e2	0.17061189
74	0xbd0095f6	-0.031393014
75	0xbddc3cbc	-0.10753772
76	0x3e059de8	0.13048518
77	0xbe514c30	-0.2043922
78	0xbcfbf109	-0.030754583
79	0x3e3bb276	0.18329796
80	0xbddd4222	-0.108036295
81	0xbda2cfde	-0.07949804
82	0xbe86a2ad	-0.26295987
83	0x3e832b8b	0.25619158
84	0x3e785163	0.24249797
85	0x3e8de894	0.27716506
86	0x3e7aa39b	0.24476473
87	0x3e2ce0ee	0.16882679
88	0x3e355a37	0.17710195
89	0x3e379056	0.17926154
90	0xbdf7ed4f	-0.1210581
91	0xbe1939f3	-0.14963512
92	0xbcc0889d	-0.023502642
93	0xbe4323b5	-0.1905659
94	0xbdcae57d	-0.09907053
95	0x3e20612d	0.1566207
96	0x3e84866f	0.25883815
97	0xbc86457a	-0.01639055
98	0x3e43e7eb	0.19131438
99	0x3bd8dde8	0.00661825
100	0x3ba04ea1	0.004892186
101	0xbd15674c	-0.036475465
102	0xbe761f25	-0.24035318
103	0x3e8f4708	0.2798388
104	0x3e356d8d	0.17717572
105	0x3e21560e	0.15755484
106	0x3e9351f5	0.28773466
107	0xbe304b46	-0.17216215
108	0x3db65b21	0.089041
109	0x3d893f10	0.06701481
110	0xbe5327cc	-0.2062065
111	0x3e9376f9	0.28801706
112	0x3e2176a0	0.15767908
113	0xbcd2e6e8	-0.02574487
114	0xbe64e348	-0.22352326
115	0x3db64840	0.08900499
116	0x3e845e97	0.25853416
117	0x3e70aff0	0.23504615
118	0x3e3b2aff	0.1827812
119	0x3d316a44	0.043314233
120	0xbe5cee71	-0.21575333
121	0x3dac1e93	0.08404269
122	0xbe3aaf6a	-0.18230978
123	0x3da0bce2	0.078485265
124	0xbe5e6da1	-0.21721508
125	0x3d09ca7d	0.033640373
126	0xbe1873f9	-0.1488799
127	0x3e02467d	0.12722202
128	0xbd0ef589	-0.03490213
129	0x3caa16d3	0.020762837
130	0x3d792b16	0.060832106
131	0x3d9d2878	0.076737344
132	0x3c65d674	0.01402818
133	0x3d7af371	0.06126732
134	0xbe8594a4	-0.26089966
135	0xbde0609b	-0.10955926
136	0x3c61a103	0.013771298
137	0xbdf7d392	-0.12100901
138	0x3e161a9f	0.14658593
139	0xbac3dfc5	-0.0014944008
140	0xbe6503f7	-0.22364794
141	0x3dae976b	0.085249744
142	0xbe0b65a7	-0.13612996
143	0x3dfa8fe4	0.12234476
144	0xbe108bd1	-0.14115836
145	0xbdb290d8	-0.08719033
146	0x3d1f886b	0.038948458
147	0x3e54dab8	0.2078656
148	0x3b88eb2a	0.0041784244
149	0x3e8a6d6d	0.2703661
150	0xbd19e940	-0.03757596
151	0xbe269034	-0.16265947
152	0x3e95c3cb	0.2925094
153	0x3de53c5b	0.111931525
154	0x3e3ff782	0.1874676
155	0x3e788708	0.2427026
156	0x3e113560	0.14180517
157	0x3daf99b0	0.085742354
158	0x3e359b34	0.17734987
159	0x3d3df33a	0.046374537
160	0xbe6857fb	-0.22689812
161	0xbe647773	-0.22311191
162	0x3e32f898	0.17477643
163	0xbc666d6d	-0.014064175
164	0xbe312c4d	-0.17302056
165	0xbd9149f3	-0.07094183
166	0xbe152071	-0.14563157
167	0x3e8e2aa7	0.27766916
168	0x3e09a33b	0.13441174
169	0x3dd13a26	0.10216169
170	0xbe03eb25	-0.1288267
171	0x3e934643	0.28764543
172	0x3d676e06	0.05650141
173	0x3e6979a2	0.22800305
174	0xbd3d7a91	-0.046259467
175	0xbe91c72e	-0.28472275
176	0x3df7447e	0.12073611
177	0xbe06bb24	-0.13157326
178	0xbe18036e	-0.14845058
179	0x3d03cc3a	0.032177188
180	0x3e2e4206	0.17017373
181	0xbdfdb9c8	-0.123889506
182	0x3d9554a6	0.07291536
183	0xbe339eb5	-0.1754101
184	0xbe50c514	-0.2038768
185	0x3e66daf6	0.22544464
186	0x3d551a45	0.052027006
187	0x3e013e74	0.1262148
188	0xbc538c88	-0.012911923
189	0xbe075e43	-0.13219552
190	0x3dce0a00	0.10060501
191	0x3e99646f	0.29959437
192	0xbc7ac500	-0.0153057575
193	0x3db04ec9	0.08608777
194	0xbe65bc69	-0.22435154
195	0x3e2b19c8	0.16709054
196	0x3e36bd05	0.17845543
197	0x3c8b1c43	0.01698125
198	0xbe0685eb	-0.13137023
199	0xbe58e8ba	-0.21182528
200	0xbe7b8c53	-0.24565248
201	0x3e0977fc	0.13424677
202	0xbe067070	-0.13128829
203	0xbe97d1cd	-0.29652253
204	0x3cfffd55	0.031248728
205	0x3e86a2fc	0.26296222
206	0xbe55782f	-0.20846628
207	0x3d4e6dbc	0.05039762
208	0xbe6853d4	-0.22688228
209	0xbe4147d8	-0.18875062
210	0xbd5991f6	-0.053117715
211	0x3ddf90b5	0.109162726
212	0x3dca2f64	0.0987232
213	0xbe98d2e9	-0.29848412
214	0xbe92e7e7	-0.28692552
215	0xbd53cf2a	-0.05171124
216	0x3e879ca0	0.26486683
217	0x3d2ccede	0.04218947
218	0xbcd0009c	-0.025390916
219	0x3e8dd349	0.2770026
220	0x3e57be02	0.21068576
221	0x3d1fe564	0.039037123
222	0xbe89104d	-0.2677025
223	0xbe6c285f	-0.23062275
224	0x3e386c44	0.1801005
225	0x3e98fdef	0.29881236
226	0xbe039af2	-0.12852076
227	0xbd2c54e4	-0.042073146
228	0x3e9ab784	0.30218136
229	0xbd33af3d	-0.043868292
230	0xbe84a98f	-0.25910613
231	0xbe15b837	-0.14621054
232	0xbe5fcddd	-0.21855874
233	0x3e0043e5	0.125259
234	0x3c8aa264	0.016923137
235	0xbce65a7f	-0.028119324
236	0x3e26bc76	0.1628283
237	0x3e17982a	0.1480414
238	0x3e38d590	0.18050218
239	0xbe13ce58	-0.14434183
240	0x3d3432f7	0.043993916
241	0x3e83944c	0.2569908
242	0x3ccb47e7	0.02481456
243	0x3e4918ae	0.19638321
244	0x3e4929bd	0.19644828
245	0x3baf3fe3	0.005348192
246	0x3b1d5ad6	0.0024010441
247	0xbe523cfe	-0.20531079
248	0xbdb7e61f	-0.08979439
249	0xbcbdca30	-0.0231677
250	0x3df10641	0.11768771
251	0xbc248446	-0.010041302
252	0x3e447deb	0.19188659
253	0x3d8a5071	0.06753624
254	0xbd9be12d	-0.07611308
255	0xbe1fc6a9	-0.15603127

gat_layers.0.bias f4 [64]
0	0x00000000	0.0
1	0xbc6f28ad	-0.0145971
2	0xbbc4c2a6	-0.006004649
3	0xbc449170	-0.011997566
4	0xbb984ccd	-0.0046478272
5	0x3c87cd15	0.016577283
6	0xb9ca2374	-0.00038554857
7	0x00000000	0.0
8	0xbbf790c0	-0.0075550973
9	0xbb00c764	-0.0019650096
10	0xbc1df72f	-0.009641453
11	0x3bf19789	0.0073728007
12	0x00000000	0.0
13	0xbc20a321	-0.009804518
14	0x3c17c4fe	0.009263275
15	0xbcb93eda	-0.022612978
16	0xbbd19fb1	-0.0063972105
17	0xbb8bf40f	-0.0042710374
18	0x3c462935	0.012094785
19	0x3ba05b20	0.0048936754
20	0xbb09182c	-0.0020918949
21	0xbbc82ffe	-0.0061092367
22	0x3ca402c5	0.020020852
23	0xbc510bef	-0.012759193
24	0xbbcdf525	-0.006285327
25	0x3accd93b	0.0015628705
26	0x00000000	0.0
27	0xbbbc0f92	-0.005739161
28	0xbbd98c89	-0.0066390675
29	0x3beaf6b3	0.007170522
30	0x3b04ff00	0.0020293593
31	0xbc219607	-0.009862429
32	0xbc0bc594	-0.008530993
33	0x00000000	0.0
34	0xbad48cc9	-0.0016216274
35	0x3b399629	0.0028318262
36	0xbb28ba9b	-0.002574599
37	0x3ba4b9b3	0.00502702
38	0x00000000	0.0
39	0x00000000	0.0
40	0x00000000	0.0
41	0x00000000	0.0
42	0x3c2cac78	0.010539167
43	0x3b018c0a	0.0019767308
44	0x00000000	0.0
45	0x00000000	0.0
46	0x3cb9824d	0.02264514
47	0xbc01ec5e	-0.0079298895
48	0x3c386f69	0.011257031
49	0xbc0fad41	-0.008769334
50	0xbc39c5c9	-0.01133866
51	0x3c2bc24b	0.010483335
52	0xbb2c02aa	-0.0026246705
53	0x00000000	0.0
54	0xb9ed10c4	-0.00045216654
55	0x3c054777	0.008134714
56	0xbc1ee6da	-0.009698594
57	0x00000000	0.0
58	0xbbbc20fd	-0.005741237
59	0xbc4604cb	-0.012086104
60	0x00000000	0.0
61	0xbc1f341c	-0.009717014
62	0xbc2c8de3	-0.010531875
63	0xbc1b0a7a	-0.009462947

gat_layers.0.lin.weight f4 [256, 36]
0	0x3bf2a1a8	0.007404525
1	0xbd472187	-0.04861596
2	0x3ddac96d	0.1068295
3	0x3db95133	0.09048691
4	0xbd44a33e	-0.048007242
5	0xbe109096	-0.14117655
6	0xbc21aa68	-0.009867288
7	0x3dccd034	0.10000649
8	0xbdfe6bc0	-0.124228954
9	0x3dcccd2a	0.100000694
10	0xbd3c8400	-0.046024323
11	0xbdc4b596	-0.09604947
12	0xbd9a369c	-0.07529947
13	0xbda66414	-0.08124557
14	0x3d871184	0.06595138
15	0xbe029f0d	-0.12755986
16	0xbd5aec1e	-0.053447835
17	0x3dddc242	0.10828067
18	0x3dc1d178	0.09463781
19	0xbd579986	-0.052636646
20	0xbd621d7e	-0.055203907
21	0x3cc65d53	0.024214422
22	0xbd5c3a66	-0.05376663
23	0x3da5ec0b	0.08101662
24	0xbd8d7fb2	-0.069091216
25	0xbdefaf8a	-0.11703403
26	0xbda3fb21	-0.080068834
27	0xbd0e18b5	-0.03469153
28	0xbe105ee1	-0.14098693
29	0xbe0cc652	-0.13747528
30	0xbc31a4d1	-0.010842518
31	0xbd3df922	-0.04638017
32	0x3ded1a2a	0.11577256
33	0x3ddd9767	0.10819893
34	0x3d546411	0.051853243
35	0x3c616235	0.013756325
36	0xbda2ede5	-0.07955531
37	0xbe1808d0	-0.14847112
38	0xbd698b8d	-0.05701785
39	0xbe0177c6	-0.12643346
40	0xbbd55b5b	-0.0065111346
41	0x3d83d72b	0.064375244
42	0xbe1a6c7c	-0.15080446
43	0xbd91651d	-0.07099364
44	0x3d5376c6	0.051626943
45	0xb906b400	-0.00012846291
46	0xbc87c808	-0.016574875
47	0x3e0f9597	0.14021908
48	0xbd55cbe4	-0.0521964
49	0xbdf55377	-0.1197881
50	0xbdd0ed3a	-0.102014974
51	0xbd97b190	-0.07406914
52	0x3dab8e9a	0.083768085
53	0x3d8fdfda	0.07025118
54	0x3d4a4694	0.049383715
55	0x3d054140	0.03253293
56	0x3e0e8397	0.13917385
57	0xbdf7e33d	-0.12103889
58	0xbdd67a90	-0.10472596
59	0x3b19099b	0.0023351673
60	0x3de142b0	0.10999048
61	0xbe0bb347	-0.13642608
62	0xbd38a689	-0.045080695
63	0x3d9c098b	0.07619008
64	0x3df78a73	0.12086954
65	0xbe09d869	-0.1346146
66	0xbdd24d56	-0.10268657
67	0x3de2a9e6	0.11067562
68	0x3c8c2578	0.01710771
69	0x3d2e8fae	0.042617492
70	0xbe184490	-0.14869905
71	0xbcd09f05	-0.025466451
72	0x3d7caf64	0.061690703
73	0xbc56241f	-0.013070135
74	0x3dd92930	0.10603559
75	0x3d834848	0.06410271
76	0xbdde82e1	-0.10864807
77	0xbd9ad557	-0.075602226
78	0xbdadd981	-0.08488751
79	0x3b853640	0.004065305
80	0x3e1ff4d1	0.15620734
81	0xbdbfb60a	-0.09360893
82	0x3d979bc8	0.0740276
83	0xbcb9aee4	-0.022666402
84	0x3dd54ddc	0.10415241
85	0x3c3f8c00	0.011691093
86	0xbd66a424	-0.05630888
87	0xbdabc98c	-0.083880514
88	0xbdd80013	-0.10546889
89	0xbdffdc61	-0.12493206
90	0x3d961a9c	0.07329294
91	0xbdf6bcd7	-0.12047737
92	0xbe067f56	-0.13134512
93	0x3e0613bf	0.1309347
94	0xbd23c994	-0.03998716
95	0x3a18cef8	0.00058291806
96	0x3d33d4ac	0.04390399
97	0xbd2d2f14	-0.042281225
98	0xbd95a55d	-0.07306931
99	0xbdec5846	-0.11540274
100	0x3d8a1936	0.0674309
101	0xbdad7988	-0.08470446
102	0x3c9c5b56	0.019086521
103	0x3db5c082	0.088746086
104	0xbb614fc0	-0.003437981
105	0xbbab9726	-0.005236524
106	0x3d5488a5	0.051888127
107	0xbd87f15d	-0.06637833
108	0xbe0b9327	-0.13630353
109	0x3d065f05	0.03280546
110	0x3db2159b	0.08695527
111	0xbca1383b	-0.019680133
112	0x3d9b837a	0.075934365
113	0xbdd7925e	-0.10525964
114	0x3d154f28	0.036452442
115	0x3cae0d10	0.021246463
116	0xbc13e52f	-0.00902681
117	0xbda24036	-0.079224035
118	0x3ba18fa0	0.0049304515
119	0x3ddf266e	0.10896002
120	0x3d39eaa4	0.045389786
121	0x3e03e085	0.12878616
122	0xbdae8210	-0.08520901
123	0xbd84c10e	-0.06482135
124	0x3d7ae2e8	0.06125155
125	0xbab06000	-0.0013456345
126	0xbda92998	-0.082598865
127	0xbdc2cb62	-0.095114484
128	0x3dd0091e	0.10157989
129	0x3ded2c6b	0.11580738
130	0x3e03fbd9	0.12889041
131	0x3dc41f7b	0.09576317
132	0x3d95baed	0.07311044
133	0x3de04f02	0.109525695
134	0x3d0f6bc0	0.035014868
135	0xbdd9be6c	-0.10632023
136	0x3e0e39dc	0.13889259
137	0xbd7fdf91	-0.06246907
138	0x3c636012	0.013877885
139	0x3e0e980b	0.13925187
140	0x3deddaca	0.11613996
141	0x3dfdca6e	0.12392126
142	0x3d6be5c5	0.057592172
143	0x3d939092	0.07205309
144	0xbdd5f9cd	-0.10448036
145	0x3dc1c079	0.09460539
146	0x3d0b296a	0.033975042
147	0x3da132c0	0.07871008
148	0xbbffd980	-0.0078079104
149	0xbd079961	-0.033105258
150	0xbd2b8962	-0.041879065
151	0x3dc5fe42	0.096676365
152	0x3c096f59	0.008388364
153	0xbdadb337	-0.08481448
154	0x3e0b9255	0.1363004
155	0x3dc80de6	0.09768276
156	0x3c927be0	0.017881334
157	0xbbc08c40	-0.005876094
158	0x3d524e30	0.051344097
159	0x3d59362c	0.053030178
160	0x3e124df7	0.14287554
161	0x3d601ff8	0.054717988
162	0xbc689ec0	-0.014198005
163	0xbd869675	-0.06571666
164	0xbda605f7	-0.081066065
165	0xbddd6cfb	-0.10811802
166	0xbd1b8906	-0.037972473
167	0xbe1a976b	-0.15096824
168	0x3d935468	0.071938336
169	0x3c27a790	0.010232821
170	0xbcbd9a84	-0.023144968
171	0xbcce9af0	-0.025220364
172	0xbc5eb954	-0.01359399
173	0x3dcec8b1	0.100968726
174	0xbca16110	-0.019699603
175	0xbda17c0f	-0.078849904
176	0xbd5e13e6	-0.054218195
177	0xbd700c9d	-0.05860578
178	0xbe08fd5b	-0.13377897
179	0x3e060818	0.13089025
180	0xbc741a65	-0.014898871
181	0x3dae07dd	0.084975936
182	0x3e01d48c	0.12678736
183	0xbe169622	-0.14705709
184	0xbcb3dbd0	-0.0219554
185	0xbe04a10c	-0.1295206
186	0xbd96c024	-0.07360867
187	0xbdf1c973	-0.118060015
188	0xbdca815f	-0.09887957
189	0x3decf666	0.11570434
190	0x3e11ff43	0.14257531
191	0xbe049460	-0.12947226
192	0xbcce6b84	-0.025197752
193	0x3af71480	0.0018850714
194	0xbd5b0558	-0.053471893
195	0xbd599480	-0.053120136
196	0xbd6a2472	-0.057163663
197	0x3e0444f7	0.12916933
198	0x3da8b714	0.082380444
199	0xbdee9e7c	-0.11651322
200	0xbd2994e6	-0.041401766
201	0x3e109574	0.14119512
202	0x3d7c145c	0.061542854
203	0x3d7924e6	0.060826205
204	0xbc2bd038	-0.010486655
205	0x3d06e9d8	0.032937855
206	0xbbb698a0	-0.0055723935
207	0xbd5d1e11	-0.05398375
208	0x3db0e53e	0.086374745
209	0xbd3ce405	-0.046115894
210	0xbd6a5197	-0.057206716
211	0xbdec718f	-0.11545097
212	0x3dfaf3ba	0.122535184
213	0xbd848d7e	-0.064723
214	0xbcda4226	-0.02664287
215	0xbd985e62	-0.07439877
216	0xbd5158da	-0.051110126
217	0x3de10652	0.10987534
218	0xbe03d210	-0.12873101
219	0x3cb3ef0e	0.021964576
220	0x3c50a51e	0.0127346795
221	0x3d669b7e	0.056300633
222	0xbde8a63d	-0.113598324
223	0xbd8230ca	-0.06356962
224	0xbd9c75b5	-0.07639638
225	0x3d0e2cc0	0.034710646
226	0xbdd3a29b	-0.10333749
227	0x3da42056	0.0801398
228	0x3d1eefcc	0.038802907
229	0xbdefd1dc	-0.117099494
230	0xbd92c4c0	-0.07166433
231	0xbe0257b5	-0.1272877
232	0x3dfabed6	0.1224343
233	0xbdea6f9e	-0.114470705
234	0x3ae2ca80	0.0017302781
235	0x3c20c560	0.009812683
236	0xbcb2d30c	-0.02182915
237	0xbd777d9a	-0.060422517
238	0xbdedc244	-0.11609319
239	0x3ce05c4b	0.027387759
240	0x3d3cfec8	0.046141416
241	0xbd7a176e	-0.0610575
242	0xbcb4df0b	-0.022079011
243	0xbc05b9c3	-0.008161965
244	0xbd047047	-0.03233364
245	0x3bd74e83	0.0065706386
246	0x3cdf476c	0.027255736
247	0x3d0c1f14	0.034209326
248	0xbdadf8fa	-0.08494754
249	0xbc8fc6c9	-0.017550843
250	0x3da686a3	0.08131149
251	0x3e064cd6	0.13115248
252	0x3d11685f	0.035499927
253	0xbdfb383f	-0.122665875
254	0xbdd96d5b	-0.10616561
255	0xbdff5f08	-0.12469298

gat_layers.1.att_src f4 [1, 4, 128]
0	0x3dcc8afd	0.099874474
1	0x3dbd4794	0.09242168
2	0xbd7d01cd	-0.061769295
3	0x3db13ae4	0.086538106
4	0x3d75cdd2	0.06001074
5	0xbdc96880	-0.09834385
6	0x3e35cc93	0.1775382
7	0x3d13c873	0.036079835
8	0xbd5fc238	-0.05462858
9	0x3e529458	0.20564401
10	0x3e1e2d5a	0.15446988
11	0xbe492aa8	-0.19645178
12	0xbe25bcf0	-0.16185355
13	0xbe18dd78	-0.14928234
14	0x3d6addef	0.05734056
15	0xbe16c445	-0.14723308
16	0x3c290ee4	0.010318492
17	0xbc0e1674	-0.008672345
18	0x3daa8eff	0.083280556
19	0xbda4745f	-0.080300085
20	0x3e1b19f9	0.15146627
21	0x3e1ec7d1	0.15505911
22	0xbc81fbec	-0.015867196
23	0xbe6c99de	-0.2310557
24	0x3e481c6d	0.19542094
25	0xbdef27a7	-0.11677485
26	0x3de5c9e6	0.1122015
27	0xbd900a31	-0.07033194
28	0x3e37336f	0.17890714
29	0xbd4a51b3	-0.04939432
30	0x3def9a06	0.116992995
31	0x3c998150	0.018738419
32	0x3e19fae0	0.15037107
33	0xbd69a7f2	-0.05704493
34	0xbe2b70ab	-0.16742198
35	0xbc951687	-0.018199218
36	0x3e58bfa4	0.21166855
37	0xbd50f29c	-0.05101262
38	0x3d345119	0.044022653
39	0x3dd8504e	0.10562192
40	0xbc665357	-0.014057956
41	0xbd8b9a26	-0.06816511
42	0xbd04fad7	-0.032465782
43	0x3d9cf34f	0.07663595
44	0x3e3db22b	0.18524997
45	0x3db8b6dd	0.090192534
46	0xbcab397a	-0.02090143
47	0x3d1c4f15	0.038161356
48	0xbd5f42a3	-0.05450691
49	0x3e0ef8af	0.13962053
50	0x3aa4a678	0.0012561819
51	0x3e13f264	0.14447933
52	0xbe4833d4	-0.19551021
53	0x3ddebab5	0.10875455
54	0xbd6f6e83	-0.058455
55	0x3e5c49cb	0.21512525
56	0xbd7e71ee	-0.06212037
57	0xbdd3e5fe	-0.10346602
58	0xbdeb1ed7	-0.114804916
59	0x3e0d75b9	0.13814439
60	0xbe52a101	-0.2056923
61	0xbdfe10b0	-0.12405527
62	0xbe060322	-0.13087133
63	0x3e125ce4	0.14293247
64	0xbcaf1052	-0.021370087
65	0xbe563ee1	-0.20922424
66	0xbe0acf95	-0.13555749
67	0xbda2f203	-0.07956316
68	0x3d0a77f6	0.03380581
69	0xbdd5a6fc	-0.1043224
70	0xbe28800a	-0.16455093
71	0xbe4b48f3	-0.19852047
72	0xbd4f93b6	-0.050677978
73	0xbe23fb21	-0.16013767
74	0xbe6b08de	-0.22952601
75	0x3d5763f0	0.052585542
76	0x3df8b363	0.1214359
77	0x3dd11e5a	0.10210867
78	0xbe2c87dd	-0.16848703
79	0x3e28ad25	0.164723
80	0xbe125d76	-0.14293465
81	0xbdeada44	-0.11467412
82	0xbe12bada	-0.1432909
83	0x3d9f082c	0.077652305
84	0x3d809a48	0.06279427
85	0x3d6872d3	0.05675013
86	0xbdace9a3	-0.08443
87	0xbc7d9917	-0.015478394
88	0x3e21f214	0.15815002
89	0xbd292cff	-0.041302677
90	0xbb9f3178	-0.004858192
91	0xbd923dd5	-0.071407
92	0x3e41c9f6	0.18924698
93	0xbe49f515	-0.19722398
94	0xbc3a765d	-0.011380759
95	0x3dcfe8a7	0.10151797
96	0x3cf0ee0c	0.029410385
97	0x3e15d732	0.14632872
98	0xbda37bca	-0.07982595
99	0xbd817407	-0.063209586
100	0x3e405053	0.18780641
101	0x3e0ed33b	0.13947766
102	0xbb0d78bc	-0.0021586856
103	0x3d705cb7	0.05868217
104	0x3e07e9af	0.13272737
105	0xba0a3b93	-0.00052731595
106	0xbb4a32d9	-0.0030853061
107	0xbc4405b3	-0.011964249
108	0x3e32525b	0.17414229
109	0x3e0e0615	0.13869508
110	0xbd92a2bf	-0.071599476
111	0x3dbd59eb	0.09245666
112	0x3e158588	0.1460172
113	0x3d4427ee	0.047889642
114	0xbe10e418	-0.14149511
115	0x3d4db084	0.050217167
116	0xbe0fe698	-0.14052808
117	0x3af23104	0.0018477743
118	0x3e1a9f4c	0.1509983
119	0x3dd7466d	0.105114795
120	0x3c4d710a	0.012539158
121	0xbc79e086	-0.015251284
122	0x3d4801a9	0.04882971
123	0xbe06ec01	-0.13175966
124	0xbe35c8a6	-0.17752323
125	0x3e22235b	0.158338
126	0xbce6c779	-0.028171288
127	0xbd8c1e89	-0.068417616
128	0xbe2f27cf	-0.1710503
129	0x3db18c5a	0.08669348
130	0xbe58e22f	-0.21180032
131	0x3e11b16f	0.14227842
132	0xbd85a3be	-0.06525372
133	0xbcba1d89	-0.022719162
134	0x3dcd6a50	0.10030043
135	0x3e54510d	0.20734043
136	0xbe35aa69	-0.17740788
137	0xbe01788a	-0.12643638
138	0xbdd8b527	-0.10581427
139	0xbe13f029	-0.14447083
140	0xbda202e3	-0.07910707
141	0xbe11604c	-0.1419689
142	0xbe2535d4	-0.16133815
143	0x3e2909d5	0.16507657
144	0x3e2b61d2	0.16736534
145	0xbe45a9f6	-0.19303116
146	0x3ddbcd2c	0.10732493
147	0x3dfb528b	0.12271603
148	0xbc8d99c2	-0.017285232
149	0xbe57825e	-0.21045825
150	0x3cdff0f3	0.027336573
151	0x3d27a1ba	0.04092572
152	0x3e185715	0.14876969
153	0x3d8414f3	0.06449308
154	0x3c4f901d	0.012668637
155	0x3dcb9633	0.099407576
156	0xbdda4f7f	-0.10659694
157	0x3ccf7111	0.025322469
158	0x3e1a7cf7	0.15086733
159	0xbc6b50fa	-0.014362568
160	0x3d61bda8	0.05511251
161	0x3e42f686	0.19039354
162	0xbe4bb5fa	-0.19893637
163	0x3e3c26a1	0.18374111
164	0x39dfed94	0.00042710884
165	0xbd0ed918	-0.034875005
166	0xbde20f24	-0.11038044
167	0xbdae6441	-0.08515216
168	0xbdb75b21	-0.08952928
169	0x3e3e0a2a	0.18558565
170	0xbe3fcb4a	-0.18729892
171	0x3c248d7b	0.010043497
172	0xbe038ce9	-0.12846722
173	0xbd9af68f	-0.075665586
174	0xbd8e43de	-0.069465384
175	0x3e096d02	0.1342049
176	0x3e0feef6	0.14056
177	0xbcb673b7	-0.022271974
178	0xbd0fadf7	-0.035078015
179	0x3e014147	0.12622558
180	0x3e24c9ad	0.16092558
181	0xbe3d14c9	-0.1846496
182	0xbcde3cca	-0.027128596
183	0x3d8b33e7	0.06797009
184	0x3d9b5dc0	0.07586241
185	0xbbece134	-0.0072289947
186	0x3e30d427	0.1726843
187	0xbdf77397	-0.12082594
188	0x39e534a5	0.00043717507
189	0x3aebc7eb	0.0017988657
190	0x3e501cda	0.20323506
191	0xbcacc0d0	-0.021088034
192	0x3cfd6e6d	0.030936444
193	0x3daa7bfd	0.0832443
194	0xbcfb6ee4	-0.030692525
195	0x3cab8d9f	0.020941554
196	0xbc566516	-0.013085624
197	0xbce9c79a	-0.02853756
198	0xbd243444	-0.040088907
199	0xbe30e7e0	-0.17275953
200	0x3e1fcdd0	0.15605855
201	0xbdf6c3ab	-0.120490395
202	0x3c8c3911	0.017117055
203	0x3d12b4f6	0.03581711
204	0x3d66681b	0.056251626
205	0x3a1fef59	0.0006101034
206	0x3ca48afa	0.0200858
207	0xbe39b664	-0.18135983
208	0xbe183416	-0.14863619
209	0xbc2dad58	-0.01060041
210	0xbb84bf03	-0.0040510907
211	0x3e5e6cae	0.21721146
212	0x3e20a654	0.15688449
213	0x3e3ebc45	0.18626507
214	0xbe4666e7	-0.19375192
215	0x3ce4e2eb	0.027940234
216	0x3e50c439	0.20387353
217	0xbe4255c2	-0.18978027
218	0x3e4568ad	0.19278212
219	0xbde7beff	-0.113157265
220	0x3c88ebd5	0.016714016
221	0xbcc201bd	-0.02368247
222	0x3e611467	0.21980439
223	0x3d3e08f1	0.046395246
224	0x3e558b28	0.20853865
225	0x3d929806	0.071579024
226	0xbdb7374e	-0.089460954
227	0xbe2a07aa	-0.16604486
228	0xbe3881f7	-0.18018328
229	0x3e55971f	0.2085843
230	0xbdff09e8	-0.12453061
231	0x3e3654e1	0.17805816
232	0xba74596b	-0.00093211856
233	0xbcf466cc	-0.029834174
234	0x3e2991eb	0.1655957
235	0xbd7270d7	-0.059189644
236	0xbda2c393	-0.07947459
237	0xbe2b8d5e	-0.16753146
238	0xbe4112ff	-0.18854903
239	0xbd3cef85	-0.04612686
240	0x3d9915c6	0.07474856
241	0x3d4e961e	0.05043613
242	0x3e2ed91b	0.17075007
243	0xba92c424	-0.001119737
244	0x3d4dcd3b	0.05024455
245	0xbd9bc008	-0.076049864
246	0xbe0d21be	-0.13782403
247	0x3e343c10	0.17601037
248	0xbc5c73d5	-0.013455351
249	0xbd02b6b4	-0.03191252
250	0x3cc4abdb	0.024007728
251	0x3da1d038	0.07901043
252	0xbe24e5b7	-0.16103254
253	0xbdb4f675	-0.088360704
254	0x3dcb8a9c	0.09938547
255	0x3e0a8f27	0.13531171
