finalhybrid/experiments/experiment_20251104_232429/checkpoint_epoch_5.pth (torch, 662866 bytes, 50 tensors)

gcn_layers.0.bias f4 [64]
00000000: a911 47bc 96ee 00bc 0000 0000 1ad0 143b
00000010: 0000 0000 8809 713b 0000 0000 7929 7a3b
00000020: d6c9 c6bb 4c00 c33b 0000 0000 0000 0000
00000030: 9807 a43b 5f05 08bc 0000 0000 7e99 42bc
00000040: 0000 0000 17c2 19bb 6829 fd3a 2ee4 133b
00000050: 3126 87bb 2b63 e53b 6775 a03b 8829 3cbb
00000060: b64c 5e3b 79cd 93bc 0000 0000 fb5c b2bb
00000070: 0000 0000 17c4 ee3b f36e 163c b275 163c
00000080: 0000 0000 0000 0000 8667 913b 82d6 ff3b
00000090: a22a 0ebc 602a 9cbb f671 14bc 0000 0000
000000a0: 0000 0000 5eeb f1bb cb93 263b 0000 0000
000000b0: a5a5 50bc d100 023c 0000 0000 c42c e93b
000000c0: b95b b63b 0ac1 adbb aea4 9d3a 0000 0000
000000d0: 0000 0000 21d0 e7ba 0000 0000 0000 0000
000000e0: 4ab7 8bbb 0000 0000 0000 0000 0000 0000
000000f0: a208 ed39 0000 0000 3411 d13a 2fd3 743b
-0.012150207 -0.007869383 0.0 0.0022707046 0.0 0.0036779363 0.0 0.0038171692
-0.006066541 0.005950963 0.0 0.0 0.005005788 -0.008302062 0.0 -0.011877416
0.0 -0.0023461634 0.0019314708 0.0022566426 -0.004124426 0.007000347 0.004896808 -0.0028711278
0.0033920235 -0.018042313 0.0 -0.005443213 0.0 0.0072865593 0.009181726 0.009183334
0.0 0.0 0.00443739 0.0078075537 -0.008677157 -0.0047657937 -0.0090603735 0.0
0.0 -0.0073827943 0.0025417681 0.0 -0.012734805 0.007934765 0.0 0.007115932
0.0055651334 -0.005302553 0.0012027228 0.0 0.0 -0.0017685929 0.0 0.0
-0.004263793 0.0 0.0 0.0 0.00045210595 0.0 0.0015950562 0.003735732

gcn_layers.0.lin.weight f4 [64, 36]
00000000: 194b 29be 8d69 053d 7762 efbb e755 73be
00000010: 7267 4d3c cfed 34be 912b 95bd 22f6 4abe
00000020: 4bc2 163c cfa1 55be 0af2 2ebe e9a7 79be
00000030: 1269 e13d 4d24 383e 3341 76be 71a7 1f3e
00000040: 1d30 61be 4d42 453e 004d a1bb 7c50 563d
00000050: 3a5b e23d d3f5 59be 5de2 653e 68f5 453e
00000060: 8478 173e cd29 003e e291 cdbd d6f4 6e3e
00000070: c08e adbb b279 62be 753c 313e 8161 5a3e
00000080: 889a 53be 7b9b 5abe 20a4 9f3d 61a8 e3bd
00000090: bb3a dcbc 646f 7fbe f957 a6bd d907 fcbd
000000a0: 186f 53be 8876 613d 69e3 803d 3250 0fbe
000000b0: 00ce 79be 9671 88bd 0a63 ae3d a00a 06be
000000c0: 3939 43be 6d08 283e 3c08 f5bd 7d4a 313e
000000d0: e009 e8bb 2402 5cbe bf4b 183e 23f5 2f3e
000000e0: 18d1 67be 262c a7bd 2025 9ebb 1be8 28bd
000000f0: 0c32 553e 98a8 75bd 8cb9 643b 8ea8 7cbe
00000100: e79b 6a3e 022e 6c3e a5c3 b9ba 74d9 143d
00000110: b0ab 233c 6e16 683e bf1d 3f3e 8388 303e
00000120: 5b4e 323e 4006 66bd 588b e23c 01bc 30be
00000130: f6dc 59be f054 e9bd e411 e1bd e694 843d
00000140: 3a57 973d 97ab 093e 0030 97b8 4802 a8bc
00000150: 2181 023e 4c24 4f3d 1850 c43c 8c96 2c3d
00000160: 30c5 37be 3c22 6b3d fea0 73be aaf7 de3d
00000170: 80cd 38bb d54d 52be 8222 f1bd 567c 13be
00000180: 6696 bf3d 6711 07be 8c7d 28be f816 fdbc
00000190: 4759 593e 0e3f 75be d44e 43be e322 043e
000001a0: a82b 1dbe b415 a4bd c6f0 f3bd 49bd 023e
000001b0: 0be4 b1bc 6c8f 02be 02aa 703e caba 95bd
000001c0: 80d9 203e e14e 62bc 314d 0abd 1469 21bd
000001d0: a39e 15be 469a ffbd 7a89 47be 5fd9 4a3e
000001e0: 3dc4 283e 6873 dbbc 09f6 683e 1e2a b0bd
000001f0: 6cbd a1bd a492 543d 032e 71be 6a90 2fbe
00000200: 672c 613e 2a9e 4dbe 7869 10be 6697 6fbe
00000210: 336e 6dbd d866 b4bd 84d4 663d 3177 153e
00000220: 3e30 3b3e 1f45 143e a332 a33d a520 08be
00000230: 2404 6d3d 012c 22be 1e3a 61be f84b 603e
00000240: af66 223e bfa4 00be a3fa 343e d43e 013d
00000250: 21c1 67be 18aa 8fbc c018 d8bc 8f90 163e
00000260: 8020 f43a a44f 58bd e212 f2bd 780e 01bd
00000270: 3c88 8cbd 18d1 38be 9897 05bd a1db 42be
00000280: 8ca5 273d e9cd 3a3e 5e9d 3cbe 9b7d 393e
00000290: 2d9e 5e3e 2f95 46be 7839 903c b8c5 5dbd
000002a0: c2f3 fe3d fb02 1c3e a607 42be 46bc babd
000002b0: 6620 32be e02e 48be 6854 79bd b57c 79be
000002c0: 26bc 4abe 2483 0f3d aa27 76be f5a2 223e
000002d0: 0398 c8bc 64ab cebd b189 2f3e 0076 d8bd
000002e0: 4cdf 553e 6a99 d43d 2d03 6f3e 0033 fbba
000002f0: cb72 89bd 5b45 273e 3844 10be c22b 1cbe
00000300: 0e83 a9bd 9aa1 65be b045 0e3c b2a3 dabd
00000310: 9445 40be 9e2e e3bd 7ecc e63d da8a 1bbe
00000320: 3e61 a7bd e273 c13d b616 e73d 9ec9 3d3e
00000330: 5e84 313e 0fe9 213e fb36 ac3d f461 473d
00000340: e55d 653e 8290 6dbd 5bed 293e 1131 123e
00000350: 544b 48bd 1c8a 713e 0256 6e3d 9efa c4bd
00000360: f518 0abe 4670 b53d 267a e1bd bde5 273e
00000370: b8f0 6ebd b68c a43d ed05 6b3e 6c52 2bbd
00000380: ed59 66be fd58 2fbe 8848 923c 4889 6cbe
00000390: 9d4a 453e 5a8c 1abe d716 093e 45b2 623e
000003a0: d300 2e3e 4f87 3f3e 5fb7 54be d8fb f13c
000003b0: 738f 053e c67d d33d 4650 02be 7211 963d
000003c0: a296 12be eb99 1a3e 383b b7bd 2b35 2b3e
000003d0: 62f3 e0bd 1e38 61be bd8d 1cbe 667e ab3d
000003e0: 656c 30be 5a00 3abe c8fb 17be c0f1 f2bb
000003f0: 173f 3dbe cae3 65be 9192 563d 92ac b53d
-0.16532554 0.032571364 -0.007305439 -0.23763238 0.01253687 -0.17668842 -0.072837 -0.19820455
0.0092015965 -0.20862506 -0.17084518 -0.24380459 0.11006369 0.17982598 -0.24048309 0.15591218
-0.2199101 0.19263573 -0.004922509 0.05232285 0.11052556 -0.21285181 0.22449632 0.19331896
0.14792067 0.12515946 -0.100375906 0.23335585 -0.005296558 -0.22116736 0.17308219 0.21326257
-0.20664418 -0.21348374 0.07794976 -0.111161 -0.026883474 -0.24944836 -0.08122248 -0.12306184
-0.20647848 0.05504468 0.06293375 -0.13995436 -0.24394989 -0.0666229 0.08514984 -0.1308999
-0.19064797 0.16409464 -0.11964461 0.17313571 -0.0070812553 -0.21485192 0.14872645 0.17183356
-0.22638357 -0.081627175 -0.004826203 -0.041236978 0.20819873 -0.059975237 0.0034900634 -0.24673674
0.22911035 0.23064426 -0.0014172686 0.036340192 0.009989664 0.22664806 0.18663691 0.17239575
0.17412703 -0.056158304 0.027654335 -0.17259218 -0.21275696 -0.11393154 -0.109897405 0.064737126
0.07389684 0.13444363 -7.209182e-05 -0.0205089 0.12744571 0.050571725 0.023963973 0.04213576
-0.17946315 0.057405695 -0.23791882 0.10887082 -0.002819866 -0.20537503 -0.1177416 -0.14402899
0.09354858 -0.13190232 -0.16454142 -0.030894741 0.21225463 -0.23949835 -0.1907304 0.12903933
-0.15348685 -0.08011952 -0.11911158 0.12767519 -0.021715185 -0.12750024 0.23502353 -0.07311018
0.1570797 -0.0138127515 -0.03376502 -0.03940685 -0.14611296 -0.12480597 -0.19486037 0.19809483
0.16481109 -0.026788428 0.22750105 -0.08601783 -0.078974575 0.05189766 -0.23552708 -0.17144933
0.21989594 -0.20079866 -0.14102733 -0.23397598 -0.057966422 -0.088086784 0.056355014 0.14596249
0.18280122 0.14479493 0.079686426 -0.13293703 0.057865277 -0.15837099 -0.21994826 0.2190398
0.15859483 -0.12562846 0.17673735 0.03155406 -0.22632267 -0.017537162 -0.02637899 0.14703582
0.0018625408 -0.052810326 -0.11820008 -0.03150794 -0.06861922 -0.18048513 -0.032615274 -0.19029094
0.040929362 0.18242611 -0.18419406 0.18114321 0.21740027 -0.19392847 0.017605528 -0.054143637
0.12448837 0.15235512 -0.1894823 -0.091179416 -0.17395172 -0.19549131 -0.06087151 -0.24363978
-0.19798335 0.035037175 -0.24038568 0.15882476 -0.024486547 -0.10091284 0.17142369 -0.10569382
0.20885962 0.10380824 0.23341055 -0.001916498 -0.06711348 0.16335051 -0.14088523 -0.15251067
-0.0827695 -0.22424927 0.008683607 -0.10675754 -0.18776542 -0.11092876 0.112694725 -0.15189686
-0.08172844 0.09445931 0.11283629 0.18533942 0.1733565 0.15811561 0.08408924 0.0486774
0.22399099 -0.05799914 0.1659445 0.1427653 -0.048899963 0.23587841 0.058187492 -0.09618114
-0.13486083 0.08859305 -0.11009626 0.16396232 -0.058335036 0.08034651 0.2295148 -0.04182665
-0.22495241 -0.1712379 0.017856851 -0.23099244 0.19266744 -0.15092602 0.13387619 0.22138317
0.16992502 0.1870396 -0.20773076 0.029539034 0.13043003 0.10326724 -0.12725934 0.07327546
-0.14315274 0.15097778 -0.08946842 0.167195 -0.109839216 -0.21994063 -0.15288444 0.08373718
-0.17228849 -0.18164197 -0.1484214 -0.0074140728 -0.18481098 -0.22450176 0.05238587 0.08870806

gcn_layers.1.bias f4 [128]
00000000: a6e5 1b3b 07a1 6f3c a052 8cbb 700e 03bc
00000010: 1a40 bbbb f673 393a 0345 7a3b 0000 0000
00000020: 0fe1 84bb 9c1b c8bb 0e71 d33b 996c 973b
00000030: 1fb9 803b 0519 8b38 5259 ee3b ab4a 103c
00000040: c6a6 11bc c5c2 11bc 52be 4abb 83d7 e2bb
00000050: 9079 c73a 91c5 a03a 7ccd e03b dafc 973a
00000060: 8b87 15ba 559f 44bb 0b58 ee3b 71a2 a6bb
00000070: d18a bf3b 7811 763b b862 133b 047a f4bb
00000080: 80df 593b 9cf8 793b fe83 6ebb d5e7 b13b
00000090: 9da9 b1ba bb31 1ebc 684b 003c 79ff cdba
000000a0: 2f3c 1a3c 1140 24ba 0911 3a3a b934 033c
000000b0: 2e4d 41bb ba76 94bb 1488 1539 7843 3a3b
000000c0: 0000 0000 3e60 b5bb 0000 0000 e58f a03a
000000d0: b669 a03b a0e3 17bc 0000 0000 78d1 15ba
000000e0: 0000 0000 ed94 ddbb 0809 25bc a106 aab9
000000f0: 8e85 cd39 499b b63b 7672 be3b 4120 55bb
00000100: 4c83 453b ac0a 3abb d8fd 6c3c 86e8 703b
00000110: 126f eb3a ec05 8c3a 10bd 30bb a88c af3b
00000120: 16f9 7b3b a60c 19bc 1a34 76ba daf6 2c3c
00000130: 0571 bebb 2efe b03b 3bd9 1ab9 15c2 d9bb
00000140: b499 e1ba e15a 9e3a 010f 9f3b bebf 97bb
00000150: 041d a23a c578 753b 5710 2bbb 69b3 053c
00000160: e32f e1bb bb49 25bc 8ff1 74bb c5b8 9ebb
00000170: 6831 023b 0000 0000 e776 2e3b c039 c83a
00000180: b3f7 333c 4959 f13b f0b5 43ba 4512 24bb
00000190: dee7 8d3b e18e 013c 4ad1 9c3b cb17 033c
000001a0: b668 24bc b168 82b9 8789 8dbb ad61 8fba
000001b0: 56ca c6bb 5dfc efbb 74f4 513b 02f7 133b
000001c0: d1db 9c3a f8c3 22bc ab40 24bc c13f 91bb
000001d0: 5437 153a 6fe8 19ba e0b2 cc3b 5f07 c5bb
000001e0: e473 403a e173 9b3b 9d39 0b3c d480 e2bb
000001f0: 5d8d e7bb d1fe 00bb 6f60 6a3c ea1e 663b
0.0023788004 0.014625794 -0.0042823106 -0.007999048 -0.0057144286 0.00070744695 0.0038188107 0.0
-0.0040551494 -0.006106807 0.006452686 0.0046211 0.003928318 6.632697e-05 0.0072738314 0.008806865
-0.00888986 -0.008896534 -0.0030936194 -0.0069226637 0.0015218724 0.0012265911 0.006860433 0.0011595741
-0.00057040964 -0.0030002196 0.007273679 -0.0050852825 0.0058454056 0.0037547033 0.002248926 -0.0074608345
0.0033244789 0.0038142568 -0.0036394591 0.005429248 -0.0013554577 -0.009655411 0.007830478 -0.0015716396
0.009413763 -0.000626565 0.00070978754 0.0080081755 -0.0029495466 -0.004530755 0.0001426044 0.0028421562
0.0 -0.0055351546 0.0 0.0012249915 0.004895414 -0.009270579 0.0 -0.0005715112
0.0 -0.006762138 -0.010072954 -0.00032429866 0.00039200153 0.0055727107 0.0058119847 -0.0032520446
0.0030138073 -0.0028387709 0.014464818 0.0036759689 0.0017962179 0.0010682917 -0.0026968159 0.0053573437
0.0038448027 -0.0093413945 -0.0009391919 0.010556901 -0.005811813 0.0054013943 -0.00014767509 -0.006645451
-0.0017211945 0.0012081527 0.0048540835 -0.0046310117 0.0012368266 0.0037456017 -0.0026102269 0.0081604505
-0.0068721636 -0.0100883795 -0.0037375425 -0.0048438036 0.0019865874 0.0 0.0026621164 0.0015276
0.010984349 0.00736538 -0.00074657705 -0.0025035304 0.0043306192 0.0079076 0.0047856914 0.008001278
-0.010034731 -0.00024873533 -0.004319373 -0.0010939144 -0.006066601 -0.007323785 0.0032036575 0.0022577648
0.0011967366 -0.009934418 -0.010025184 -0.004432649 0.00056921435 -0.0005871122 0.0062469095 -0.0060128416
0.0007341488 0.0047440385 0.008497623 -0.00691233 -0.0070664124 -0.0019683132 0.014305218 0.003511364

gcn_layers.1.lin.weight f4 [128, 64]
00000000: b8bf bcbd 20a9 84bd 5fac 343e 01e6 f93c
00000010: e043 e5bd a2ee b63b 5358 eabd 1460 c1bc
00000020: 5eaf 22be 2ae1 633c 4d1e a5bd 50c2 2f3e
00000030: f458 313e 27f3 30be 20d0 22be e013 eebd
00000040: 92dc 9cbd 2915 073e 1600 303e b212 22be
00000050: 8fce e33c 60c5 ad3d 0ed7 81bd 9c55 203e
00000060: f9e4 a9bd 7df9 cf3d 2568 2e3e 8572 0fbd
00000070: 44da 793d b34e 7d3d 733d 853d 0ff1 02be
00000080: 2aa4 f7bd c16d 123e 17a1 a93d 2b97 b73d
00000090: 6be1 283e a1b1 f43d 3f04 ffbd 6a63 22be
000000a0: 132e 95bd f3b7 063d 1062 1f3d b93e 56bb
000000b0: 8c36 a9bd 44b3 debd d20f 013e b235 e7bd
000000c0: ef08 103e 6192 503d 5401 efbd 88dd 433d
000000d0: 7afe 4f3d a097 ef3c 3953 55bc 466f 14bd
000000e0: da6d a6bd 00c0 d23a 09ee c53d 2814 a93d
000000f0: c416 ebbc a704 f03d 4281 0cbe 0c4a f3bc
00000100: ff03 7abd 5658 8fbd 1366 c1bd c874 22be
00000110: 4745 b8bd 39d3 adbd 728b cebd 166e 183e
00000120: fa7c f63d acaa 1e3e 9d22 be3c 6515 e83d
00000130: e19e b1bd 0cd6 d7bd 728e 833d 0483 a2bd
00000140: a066 0cbd 13a4 ebbd a483 bfbd b33c b8bd
00000150: c839 003d 302a b4bc e881 80bc 6d87 bdbd
00000160: 5372 593c 60b9 e63a b8e6 f03c 8cab 883d
00000170: 8e30 db3d bc45 2a3e bb14 133e f0d6 3f3e
00000180: b5ba 87bc a119 213e 3655 22be 4299 263e
00000190: bb8d 86bd c3b6 963d 2812 2e3d 984a f1bc
000001a0: 3160 02be 05d4 1fbe 68c9 363e a8b8 273e
000001b0: 3dd7 1abe 9efe dd3d d81d e9bd a3b2 113e
000001c0: 288e 67bc 037b bfbd 7146 0b3e 6c89 473d
000001d0: e813 563d 3360 073e ce2b cebd 6c34 e5bd
000001e0: ced0 1fbe fab1 21be 2104 9d3b 7e55 a5bd
000001f0: 5673 c7bc 0116 c2bd 47ad 00be 801c 053c
00000200: 27f9 9c3d 48ec 273e 81bd e7bd 2320 f9bd
00000210: d7ea 13be 264b b73d 552b 9fbd 26f8 30be
00000220: c61a dcbd 2e4c 833d 44ed 8d3d 3c4a 233d
00000230: ed6c 27be acf8 d13d 9cd9 bc3d 6e49 253e
00000240: 753d 933d e3d6 03bd d419 1dbe 441e 32be
00000250: 6d5f cf3d fcfc f03d 81b3 9abd 7517 db3d
00000260: 4794 c03d 0e5a f73d 276b 80bd 3442 4abd
00000270: 00b5 fe3c c92c 6e3d 87e4 0b3e da43 6d3d
00000280: 21e8 9dbd 0b1a 1e3e b372 b03d 229a 16be
00000290: 0e98 e33c 8639 33be ff7e 323d 8c90 483d
000002a0: a28d d73d 0bb8 033e 26c1 61bd 5976 c23d
000002b0: df4b 993c ceef d23c 2b04 8cbd ecac 2fbb
000002c0: 3aec dd3d 6df2 38bc d9a0 453d aec3 b63d
000002d0: 33a3 f93d 57bc a53d 330b 1fbe be65 043e
000002e0: 4b12 7dbd 0d48 013e f67f 213e 65ee 9bbc
000002f0: 3ee9 62bd 3b1e febd 99c8 953d 6405 183c
00000300: 77fd d4bd f7f7 96bd 4ebc 99bd 4bfb 043e
00000310: 2b3a b6bd abb7 493d 3390 1b3e 3fd4 09be
00000320: 582a 38be 63c0 703d 8b61 9c3d efa9 7ebb
00000330: d79e b9bc 2be3 723d 2d96 20be f3a6 bdbd
00000340: 0e4a 22be bb91 8c3d 3770 3cbe e60a 2a3e
00000350: 08d2 9e3d 55e3 88bd e6dd 8f3d d198 1d3e
00000360: 85fd a7bd d757 963d 7821 bdbd df3b 263e
00000370: 612e 773d e876 963b 0dc2 4a3d 3694 98bb
00000380: 328f 3e3c b0d0 813c b37c adbd d58e ecbd
00000390: 9969 9dbd b98e 48bd d400 083e fe48 6abd
000003a0: 3bbc 90bd 28bc c4bd e426 41bd a48f 04be
000003b0: 863a 233d 5fc7 213d 4090 b736 ba65 fcbc
000003c0: 7e43 083d 9c16 14be a48b d8bc 9bb1 303e
000003d0: 7a45 8fbd 6d2f 32be 6a38 023d 501a 053e
000003e0: 27cd a8bd 17df bcbd 253f 153e cb38 28bd
000003f0: fecc 9ebc 7368 533d e567 37bd 690a f53c
-0.09216255 -0.064775705 0.1764388 0.030505182 -0.11194587 0.0055826465 -0.11442628 -0.023605384
-0.1588721 0.013908664 -0.0806242 0.17163968 0.17319089 -0.17280255 -0.15899706 -0.116248846
-0.07659258 0.13191666 0.17187533 -0.15827444 0.027808456 0.08484912 -0.063398466 0.15657657
-0.08295626 0.10155008 0.17031915 -0.035021324 0.06099917 0.06184263 0.06505861 -0.12787269
-0.12091859 0.1429968 0.082826786 0.0896438 0.1649224 0.119479425 -0.12451982 -0.15858236
-0.072841786 0.03289027 0.03891188 -0.0032691194 -0.08262357 -0.10874036 0.12603691 -0.112895384
0.14065908 0.050920848 -0.11670175 0.04781869 0.050779797 0.029247105 -0.01302033 -0.03623893
-0.08126421 0.0016078949 0.09664542 0.082557976 -0.028697379 0.11719637 -0.13721183 -0.029698394
-0.061038967 -0.069992706 -0.09443297 -0.15864861 -0.089975886 -0.08487553 -0.10085191 0.14885744
0.12035556 0.15494794 0.023209864 0.11332206 -0.08672882 -0.10538873 0.06423654 -0.079351455
-0.03427756 -0.11505904 -0.0935128 -0.089959525 0.031305104 -0.021992773 -0.015686944 -0.09254346
0.013271886 0.0017602853 0.02940689 0.06673345 0.107026204 0.16628164 0.14363377 0.18734336
-0.016568521 0.15732433 -0.15852818 0.162694 -0.06570002 0.07359078 0.042497784 -0.029454514
-0.12732007 -0.15608223 0.17850268 0.16379035 -0.1512117 0.1083958 -0.11382645 0.14228301
-0.014133014 -0.093496345 0.1360109 0.04871504 0.052265078 0.13220291 -0.10066949 -0.11191639
-0.15606996 -0.15790549 0.004791752 -0.08072947 -0.024346989 -0.09476853 -0.125661 0.008124471
0.076647095 0.16398728 -0.11315442 -0.12164333 -0.14445053 0.0894988 -0.07771937 -0.17282161
-0.10747294 0.064110145 0.069300205 0.039865717 -0.16350146 0.102525085 0.09221193 0.16141292
0.071894564 -0.032187354 -0.15341884 -0.17394358 0.10125623 0.11767003 -0.07553769 0.106978334
0.09403282 0.120777234 -0.06270438 -0.049379542 0.031092167 0.05814818 0.13661395 0.057926036
-0.07710291 0.15439622 0.08615627 -0.14707235 0.027782466 -0.17502412 0.043578144 0.048965976
0.10525061 0.12863176 -0.05511584 0.09495229 0.018712936 0.025749113 -0.068367325 -0.002680595
0.10836072 -0.011288268 0.0482491 0.08924042 0.12189331 0.080925636 -0.15531616 0.12929437
-0.061785024 0.12625141 0.1577147 -0.019034574 -0.05539822 -0.1240811 0.073136516 0.009278629
-0.10399907 -0.07371514 -0.075066194 0.12986486 -0.088978134 0.049247425 0.15191726 -0.13459872
-0.17984903 0.058777224 0.07635792 -0.0038858613 -0.022658749 0.059298676 -0.15682288 -0.09260359
-0.15848562 0.068637334 -0.18402182 0.1660572 0.07754904 -0.06683985 0.07024746 0.15390326
-0.08202652 0.07340973 -0.09234899 0.16233777 0.060346965 0.0045918114 0.049501467 -0.00465634
0.01163082 0.01584658 -0.0847105 -0.115506805 -0.07686157 -0.048964236 0.13281566 -0.057198517
-0.07067152 -0.096062005 -0.04715623 -0.1294542 0.039850734 0.039496776 5.470618e-06 -0.030810226
0.03326749 -0.1446175 -0.026433773 0.17255251 -0.069956735 -0.17400904 0.031792082 0.12998319
-0.08242255 -0.092222385 0.14574869 -0.041069787 -0.019384857 0.051613282 -0.044776816 0.02991219

gat_layers.0.att_src f4 [1, 4, 64]
00000000: c7cc 0d3d 1fbf 65bd f8a9 8c3e 0772 29be
00000010: 4775 94be b285 703e 199e 40bd a1a2 eb3c
00000020: cbba 123e e2e0 813c 6e39 80be 89cf 05be
00000030: d640 293e 5257 a43c 5d77 873e 4146 3d3e
00000040: c840 3f3e 98f2 b33d 72d7 603e c2e7 883e
00000050: e868 493d 3403 63bc 0cc7 1fbe a2f9 aebd
00000060: ec90 993e e948 c9bd 54d0 37be 86f9 15be
00000070: f607 3a3e ff80 19be af79 15be 6f27 41be
00000080: b5da 503d 4526 503e 68d4 523e f6bb 2d3e
00000090: c94b 96be 7559 0cbe 9b50 8a3e 3570 023e
000000a0: 957b 473e ce97 94be 65af 2abe 311e 073e
000000b0: f122 97be 9c3b 4a3e e8f0 9f3d 3c0c 5cbe
000000c0: 6250 6fbe c973 f33d 3533 643e 61d3 34be
000000d0: f15c f4bd a0db 4fbe b27a 5b3e e54a 723e
000000e0: ff58 6f3e 11d0 28bd 7183 993d 7a74 06be
000000f0: 0d06 52be 3918 343e 1ca2 28be a101 0a3d
00000100: d89a 3f3e b086 883e 1b1a 793e 7acb 1c3e
00000110: 9288 b73a f4c2 84be f90d 31be 0a00 8c3d
00000120: 59b2 7c3e 5de8 57be a9e0 493d ac32 663d
00000130: 4ef4 bdbc de0b 0fbe a72c 833e 6465 71bd
00000140: 8b29 843e 66a8 973e ab2a 93bc 68cc 1ebe
00000150: 029a 6e3e 6c20 bbbd 3ff3 a9bc f1ab 63bc
00000160: 6ee4 1cbe b885 1abe e450 673e 853a babd
00000170: 4e3e ebbd 42e6 d3bd 34a4 963e 6f7b 823e
00000180: 8174 22bd 718b 8dbe 879d 613e 801f 6ebd
00000190: fd94 8fbd 6c28 333e e4ef 9b3d 9b60 e93d
000001a0: 5ddf d33c b614 463d 0b62 8d3e c43f d93d
000001b0: 22fa 55bd 2792 2e3d e903 6ebe 86bc 5bbd
000001c0: 41c3 af3d 17c7 013e f3e4 473e 5fa0 77be
000001d0: 3916 0d3e 2420 933e a015 223e 6233 02bb
000001e0: a78d 68be 52a2 c83d 1839 0dbd b593 ecbd
000001f0: c7ba 5b3e d659 1b3e e967 acbd 5aaa 713e
00000200: d189 96be d5cd 57be 7496 00bd fac0 f93d
00000210: 733a 5abe a730 eebd 4833 27be 5459 af3d
00000220: 7416 593e 422d e33d ec98 48be 963f 8d3e
00000230: f4fd 35bd d843 463e cd34 683e c4ad a73d
00000240: 03c4 873d c9b2 ae3d 78ea 5fbe e831 44be
00000250: 68c7 8cbe a6ba 0dbd 0b9d 0f3e b917 6bbe
00000260: c4ba e2bc 4116 0f3e 436a 083e fef2 56be
00000270: 6a57 eebd 7560 373c 545c 5fbe eb62 2b3d
00000280: 229f 7cbe b7e2 093d 2d12 843e 1d54 88be
00000290: 6026 1ebe 5108 0cbe 87fd dfbd 5f40 123e
000002a0: fa1b 60be fbf8 6d3e 757f 7e3e 6fc2 02bd
000002b0: 05fb 563e 2286 e9bd 9ebd 4fbe f975 0c3e
000002c0: ccf3 86bd 0052 84bd 9dea 03be 6de0 94be
000002d0: 75cf 80be 1929 053d 8487 793d a0ac 19be
000002e0: a69d bfbd 237e 7c3e f4c2 193e b79e 213e
000002f0: 16e3 903e 260b 82be 02f6 8abe 8916 593e
00000300: 141f 35be 0fd3 8e3e 0fda 37be a6e5 39be
00000310: 6b7e 5a3e e30c 863e 3044 8fbe 7270 0a3e
00000320: 39a4 1b3e f6ca cfbd 6b1e 0d3e fa38 a23d
00000330: 6bdb 3abd 232d e6bd 95e2 51be 4f02 7b3e
00000340: 235f 803e 5713 08be 6aaf 9f3c f82e 9c3d
00000350: f418 853c 142e 20bd a6dd 403e 6c50 58be
00000360: 32a2 913e 64c5 743e f0ee 6f3a 3c86 313e
00000370: b4e4 56bd 546e 903e a2b4 853e dbfa a1bd
00000380: e5ab 39bd f221 7a3d feed 96be eeec 183d
00000390: f864 1cbe a107 b0bc 73cf 70be 716f 943e
000003a0: 357d 11be d23a 673e 53a7 a2bd a728 583e
000003b0: 8c55 003e 9dbd 58be 6ce0 39be 3dd6 e4bd
000003c0: ea88 24be 0961 80be 443f 2dbd c9ff 5dbe
000003d0: 9bea 743e 447d 183e 1a9f 1fbe 7fba 89bd
000003e0: b827 04be 8a2e fbbc 0341 fdbd 3235 e7bd
000003f0: 28ea 9c3d 07ba 7ebe 89e0 3fbe d8c9 5f3e
0.03461912 -0.05609047 0.27473426 -0.16547404 -0.28995726 0.234885 -0.047025774 0.028764071
0.14329068 0.015854303 -0.25043815 -0.1306745 0.16528639 0.020061169 0.26458254 0.18483831
0.18677056 0.087865055 0.21957186 0.26739317 0.049172312 -0.013855744 -0.15603274 -0.085437074
0.2999338 -0.0982836 -0.17950565 -0.14645967 0.181671 -0.14990614 -0.145972 -0.18862699
0.050989825 0.20327099 0.20588839 0.16966233 -0.29354694 -0.13706 0.27014622 0.12738116
0.19480737 -0.29022068 -0.1666847 0.13195111 -0.29518846 0.19749302 0.07809621 -0.21489042
-0.23370507 0.11887319 0.22285159 -0.1765876 -0.1193179 -0.20298624 0.21433523 0.23661382
0.23373793 -0.041214053 0.074957736 -0.1313037 -0.2051012 0.17587365 -0.1646809 0.03369296
0.18711412 0.26665258 0.24326365 0.15311995 0.0014002493 -0.25929987 -0.17290486 0.06835945
0.24677409 -0.21084733 0.04928652 0.05620067 -0.023187783 -0.1396937 0.25620005 -0.058934584
0.25812945 0.29620665 -0.017964682 -0.15507662 0.23300937 -0.09137043 -0.020745872 -0.0138959745
-0.15321514 -0.15090072 0.22589451 -0.09093193 -0.11486493 -0.103466526 0.29422152 0.25484797
-0.039661888 -0.27645448 0.22032748 -0.05813551 -0.07010839 0.17495888 0.07614115 0.11395379
0.025863344 0.048359595 0.27613863 0.106078655 -0.0522405 0.04261985 -0.23243679 -0.053646587
0.085821636 0.12673603 0.19520931 -0.2418227 0.13778009 0.2873546 0.15828562 -0.0019867052
-0.22710286 0.09796585 -0.034478277 -0.115516104 0.21457969 0.15170988 -0.08418257 0.2360014
-0.2940202 -0.21074612 -0.031393483 0.121950105 -0.21311359 -0.116303734 -0.16328156 0.0856196
0.21199971 0.110926166 -0.19589585 0.27587575 -0.04443164 0.19361818 0.22676392 0.0818744
0.06629183 0.08530194 -0.21866786 -0.19159663 -0.27495885 -0.03460183 0.14024751 -0.22958268
-0.027676947 0.13973333 0.13321786 -0.20991132 -0.11637767 0.011192431 -0.21812564 0.041842382
-0.2467008 0.033663478 0.25795117 -0.26626673 -0.15444326 -0.13675047 -0.109370284 0.14282368
-0.21885672 0.2323951 0.24853308 -0.031923708 0.20994194 -0.11402537 -0.20287177 0.13716878
-0.06589469 -0.06460953 -0.12882467 -0.29077473 -0.25158277 0.032509897 0.060920253 -0.15007257
-0.09356241 0.24657492 0.15015775 0.15783201 0.28298253 -0.2539913 -0.27140814 0.21200003
-0.17687637 0.278954 -0.17954277 -0.1815401 0.21337287 0.26181707 -0.2798171 0.13519457
0.15199365 -0.101461336 0.13781135 0.07921024 -0.04561941 -0.11239078 -0.2049659 0.245126
0.25072584 -0.13288628 0.019492824 0.07626146 0.01624725 -0.039106444 0.18834552 -0.21124429
0.28444058 0.23903424 0.0009152731 0.17336363 -0.052464202 0.28209174 0.26114374 -0.07909175
-0.045329947 0.06106753 -0.2947845 0.03733533 -0.15272892 -0.021488013 -0.23516636 0.28991273
-0.14207919 0.22581032 -0.07942071 0.21109258 0.12532634 -0.21166082 -0.18152016 -0.11173675
-0.16067854 -0.25074032 -0.042296663 -0.21679606 0.2391762 0.14891535 -0.15588036 -0.067250244
-0.12905777 -0.03066184 -0.123659156 -0.11289443 0.07661849 -0.24875651 -0.18737997 0.21854341

gat_layers.0.att_dst f4 [1, 4, 64]
00000000: 909a 74be 7570 ab3d 13d6 e03d 6954 66bd
00000010: 22e0 87be 997e 2d3e 6ad6 f0bd 52eb f2bd
00000020: 3cd3 ebbd 64d5 f43d f6ae ddbd 0cc6 45be
00000030: 80e5 18be 16ad 28be 9917 de3b cfd4 18be
00000040: 023d b93d a3ea 3e3e 418c 88be ee69 96be
00000050: fc05 08be 2a93 a8bd 2b66 dfbd c4ed 1bbd
00000060: e7c3 1bbe 9e8b 7a3e c2bf 103e f91b eabd
00000070: db57 6b3e 03b2 e4bd e496 03bc 7f17 533e
00000080: 9829 563e 37dd 153d 684b 193e 79b9 5c3d
00000090: 969c 5d3e 874e 9eba bafb 3e3e c961 7bbe
000000a0: d052 d23d 3238 c93c 40c9 36be 2cf9 4f3e
000000b0: 1877 fabd cc9e 32be dbaf 673e dfbe 18bd
000000c0: 9ac7 443e aa3a 0b3e 7cf4 cc3d a3b0 e63d
000000d0: dc5d a03c 9f95 f5bc 03e1 513e 52b0 90bd
000000e0: 0560 b7bd 5855 27be 1971 cb3d 0dcf 843e
000000f0: ae25 84bd a1d9 33be e281 a8bc fa68 613e
00000100: 8adc 87be a573 843d b245 50bd 356e 923e
00000110: 3726 a03d 1a69 f6bd 2455 cfbc 58e1 b23d
00000120: 5cde 91be 7799 2e3e 5f02 01bd 4e4c dcbd
00000130: bc05 063e 2927 51be ae96 fbbc d3cd 3b3e
00000140: 9afb ddbd 3d0e a3bd ffb1 86be cbfe 823e
00000150: c13b 783e b1fa 8d3e 6db0 7a3e 4cd1 2c3e
00000160: e12b 353e 1c78 373e f0c7 f7bd a48f 19be
00000170: 891e c1bc bf1b 43be 5571 cbbd f8ad 203e
00000180: d473 843e c8fd 85bc 43dd 433e 270f d63b
00000190: 125f 9c3b 3dcf 14bd 244b 76be 6e32 8f3e
000001a0: 15b6 353e a39f 213e 6d4c 933e c328 30be
000001b0: a2e2 b63d 01e8 883d 28d4 52be 7a7b 933e
000001c0: af57 213e ea01 d1bc 9892 64be 6582 b63d
000001d0: 0974 843e bc99 703e 5303 3b3e 99a3 303d
000001e0: c228 5dbe 6b21 ac3d 15c6 3abe 0444 a13d
000001f0: 7541 5ebe aabb 093d 9e3f 18be 6d92 023e
00000200: 11fa c8bc ce99 c73c a9c0 4f3d a051 883d
00000210: 4370 c63c 437d 923d 56af 80be 3cf8 cbbd
00000220: bcf0 b83c cd17 06be a388 0b3e d126 3abc
00000230: d07e 5abe c046 bf3d 7fff 00be a7cd e33d
00000240: be49 06be 767d a0bd 216b 4d3d 7cdb 4a3e
00000250: 518e 693c 2d44 8f3e 176c e0bc 8f96 1cbe
00000260: 356a 903e fd1b fc3d e38c 353e 3f51 6e3e
00000270: a369 1a3e 4f4a 9c3d fe6e 2c3e 63b9 633d
00000280: 9d1c 64be 9685 6ebe aabd 283e b13d 85bc
00000290: 7499 28be a6e8 78bd 2523 1fbe 9ede 883e
000002a0: 1761 ff3d f688 b93d 1a3b f2bd ac2c 8e3e
000002b0: aecf 3b3d 2d40 5f3e 9b53 64bd d9f6 96be
000002c0: d4d3 053e 5621 f9bd 3372 0ebe 7f93 b73c
000002d0: 24a6 233e e1ec 08be ffe2 a83d 76d6 3fbe
000002e0: 590c 5cbe 34b9 703e 7a81 7e3d 3ae5 0a3e
000002f0: 0264 c0bc a580 ffbd a94e b93d 953e 953e
00000300: 8883 91bc 41cb af3d 74b1 6abe 06e9 263e
00000310: 391f 343e 6c4c 903c 50b3 07be 637a 5abe
00000320: 4025 77be 3f6d 0b3e 5465 04be b91f 96be
00000330: b85a 003d 6c88 863e ef05 4dbe 54d3 593d
00000340: 2973 60be 2936 3ebe d99c 3dbd c736 e13d
00000350: f42c cb3d d260 98be d551 92be e31d 53bd
00000360: d644 8a3e 6b3c f33c d396 aabc 0b35 8a3e
00000370: eb76 5c3e 60b6 363d 2f52 8fbe a873 6dbe
00000380: 55a2 313e 005f 963e be55 03be 90ad 0abd
00000390: ad37 983e 2c2c 30bd 1819 86be b0d8 0ebe
000003a0: 3014 61be 5d0c 053e fb24 8a3c 51b9 d3bc
000003b0: 3c2f 293e d257 213e 3bd7 3d3e 4888 13be
000003c0: d8ed 393d 7df3 813e 7d35 d73c e8ef 4d3e
000003d0: f2ee 463e ed55 993a 4079 e63b 6020 55be
000003e0: 5c1f aebd d7b4 e2bc 1468 f03d 035d c3bc
000003f0: ec13 413e cc4f 773d 910e 95bd bf58 1dbe
-0.23887086 0.08371059 0.109783314 -0.056232844 -0.26538187 0.16942824 -0.11759646 -0.1186129
-0.11514899 0.119547635 -0.10824387 -0.1931383 -0.14931297 -0.16472277 0.0067777154 -0.1492493
0.090448394 0.18644194 -0.26669505 -0.29377693 -0.13283533 -0.08231194 -0.10908159 -0.038068548
-0.1521145 0.24467322 0.1413565 -0.114311166 0.22982733 -0.111667655 -0.008031581 0.20614432
0.20914304 0.03658792 0.14970171 0.053887818 0.21641764 -0.0012077846 0.18650714 -0.24549021
0.102697015 0.024562929 -0.17850208 0.20309895 -0.122297466 -0.17443389 0.22625677 -0.037291404
0.19216767 0.13596597 0.10007569 0.112641595 0.019576006 -0.029978571 0.20495991 -0.070648804
-0.08953861 -0.1634115 0.09933681 0.25939217 -0.06452499 -0.17563488 -0.020569745 0.22012702
-0.26535445 0.0646737 -0.050847717 0.28599706 0.07819789 -0.12031765 -0.025309153 0.08734387
-0.2848996 0.1705073 -0.031496402 -0.107567415 0.13088125 -0.20425095 -0.030711498 0.18340234
-0.10839005 -0.079617 -0.26307675 0.25585017 0.24241544 0.27730325 0.24481364 0.16876715
0.1769252 0.17916912 -0.12098682 -0.14996201 -0.02357413 -0.19053553 -0.09933726 0.15691364
0.2586962 -0.016356364 0.19127373 0.006532568 0.0047720755 -0.03633045 -0.24052101 0.27968162
0.1774524 0.15783553 0.28769246 -0.1720305 0.089299455 0.06684876 -0.20588744 0.28805143
0.15756105 -0.025513608 -0.22321546 0.089115895 0.25869778 0.23496145 0.18262987 0.04312477
-0.21597579 0.084048115 -0.18239625 0.07874301 -0.21704657 0.033626236 -0.14868018 0.1275117
-0.024533303 0.024365332 0.050720844 0.06656194 0.024223452 0.07152798 -0.2513377 -0.09959456
0.022575729 -0.13095017 0.13626342 -0.011361794 -0.21337438 0.09339666 -0.12597464 0.111232094
-0.13114068 -0.0783643 0.050150994 0.19810289 0.014255122 0.27981701 -0.027395291 -0.15291809
0.2820603 0.12310026 0.17729525 0.2327318 0.1507936 0.07631361 0.16839215 0.05559672
-0.2227654 -0.23293146 0.16478601 -0.016264768 -0.16464788 -0.060768746 -0.1554075 0.26732343
0.1246969 0.09059326 -0.11827679 0.27768457 0.045852356 0.21801825 -0.055743795 -0.29485205
0.13069087 -0.121645615 -0.13910751 0.022409199 0.15981346 -0.13371612 0.08246421 -0.18734154
-0.21489085 0.2350815 0.062135197 0.13564005 -0.023485187 -0.12475709 0.09048206 0.2914931
-0.017762914 0.085836895 -0.22919255 0.16299829 0.17590035 0.017614566 -0.13251996 -0.2133575
-0.24135303 0.13615893 -0.12929279 -0.29321077 0.031336516 0.26275957 -0.20021795 0.053180054
-0.2191893 -0.18575348 -0.04629216 0.10996776 0.099206835 -0.29761368 -0.28578058 -0.051542174
0.27005643 0.029691895 -0.020823872 0.26993594 0.21529739 0.04460752 -0.2799239 -0.2318865
0.17347081 0.29369354 -0.12825677 -0.03385693 0.29729977 -0.043010876 -0.2619102 -0.13949847
-0.21980357 0.12992997 0.016863337 -0.025845202 0.16521925 0.15756157 0.18539135 -0.14407456
0.04539284 0.2538108 0.026270622 0.20111048 0.19427088 0.0011698582 0.007033497 -0.20813131
-0.08502075 -0.027674122 0.11738601 -0.023848062 0.18855256 0.060378835 -0.07278169 -0.15365885

gat_layers.0.bias f4 [64]
00000000: 0000 0000 4ee4 ffbb 54cb bbbb de06 3fba
00000010: f93e f0ba 34ec 703b f673 38bb 0000 0000
00000020: 4740 cebb 0573 1a3b 2066 c8bb 39d6 a33b
00000030: 0000 0000 cbbe 13bc 4bd7 43b9 4829 46bc
00000040: cf67 c83b b868 49bb 6729 fd3a 4b7e 2e3b
00000050: 3326 87bb 4299 0abb fd16 883b 3427 20bb
00000060: 6ee4 c1bb a29b 9bbb 0000 0000 1ffd 673b
00000070: cdb5 3f3a 8d69 5b3b f36e 163c e90f 2fbb
00000080: bf86 9cb9 0000 0000 0153 3b3b 0496 493b
00000090: fc9d 0fbc 386c 073c 0000 0000 0000 0000
000000a0: 0000 0000 0000 0000 71ef a33b b4e3 0b3c
000000b0: 0000 0000 0000 0000 f614 1f3b 885c 8fbb
000000c0: a02b d03b 0000 0000 537d 65bb 0000 0000
000000d0: b5c0 10bb 0000 0000 a3e6 b3bb c54d 013b
000000e0: bfd1 e7bb 0000 0000 9c2d bf3b 1c92 103b
000000f0: 0000 0000 0260 cbbb be04 f13a b065 11bc
0.0 -0.0078091985 -0.0057310257 -0.0007287095 -0.0018329314 0.0036761882 -0.002814529 0.0
-0.0062942836 0.0023567092 -0.00611569 0.0049999026 0.0 -0.009017657 -0.00018676852 -0.012094803
0.0061158906 -0.0030732583 0.0019314707 0.002662557 -0.0041244267 -0.0021148478 0.004153131 -0.002443743
-0.0059171235 -0.0047487775 0.0 0.0035398675 0.0007313162 0.0033479661 0.009181726 -0.0026712364
-0.00029855032 0.0 0.002858341 0.0030759582 -0.008765694 0.008265547 0.0 0.0
0.0 0.0 0.005002909 0.008538175 0.0 0.0 0.0024273968 -0.0043750443
0.0063528568 0.0 -0.0035017326 0.0 -0.0022087519 0.0 -0.0054901405 0.0019730192
-0.007074564 0.0 0.0058342945 0.0022059744 0.0 -0.0062065134 0.0018388254 -0.008874342

gat_layers.0.lin.weight f4 [256, 36]
00000000: fa29 243c 4ecd 2bbd 7d13 c43d c6ae a33d
00000010: 9ce7 21bd 183d 14be d716 bf3b 34d0 cc3d
00000020: 2a5a 08be 2acd cc3d 0084 3cbd 96b5 c4bd
00000030: 9c36 9abd 1464 a6bd 8411 873d 0d9f 02be
00000040: 1eec 5abd 42c2 dd3d 78d1 c13d 8699 57bd
00000050: 7e1d 62bd f95a bf3c 663a 5cbd fc61 563d
00000060: 3225 8bbd 8aaf efbd 7f79 a2bd 6e72 0fbd
00000070: 7b0e 07be b627 0abe 14d1 41bc 22f9 3dbd
00000080: 2a1a ed3d d1d6 db3d 6878 673d 6060 593c
00000090: 3f88 94bd 0e3c 0dbe 97e2 68bd c1a5 ddbd
000000a0: 712d 1fbc 334a 663d 2576 0bbe 1d65 91bd
000000b0: f110 5e3d 00b4 06b9 08c8 87bc 9795 0f3e
000000c0: e4cb 55bd 7753 f5bd 3aed d0bd 90b1 97bd
000000d0: 9a8e ab3d dadf 8f3d 9446 4a3d 4041 053d
000000e0: 9783 0e3e 7619 f2bd 907a d6bd d50b 813c
000000f0: 11fb ee3d 47b3 0bbe 1e22 13bd e2ea ba3d
00000100: 9cf2 e93d 7959 eebd b4f6 e2bd e6a9 e23d
00000110: 7825 8c3c 3b23 3a3d f4af 0dbe 480f 92bc
00000120: 6f02 713d ac36 eabb 1ab4 dc3d c622 533d
00000130: 8e81 bfbd 5089 a1bd 85f3 8cbd 4036 853b
00000140: 5cf4 163e 0ab6 bfbd c89b 973d e4ae b9bc
00000150: dc4d d53d 008c 3f3c 24a4 66bd 8cc9 abbd
00000160: 1300 d8bd 61dc ffbd 9c1a 963d d7bc f6bd
00000170: 567f 06be 1dcb 043e 94c9 23bd e5d3 9fbc
00000180: b8a5 163d 142f 2dbd 1cd3 a6bd 7b8d ffbd
00000190: e793 7e3d f25e 89bd aaba f43b 82c0 b53d
000001a0: c04f 61bb 4eab d4bb 8417 3d3d 7dff 80bd
000001b0: b197 01be 511c fa3c 0e22 c03d d08e eebb
000001c0: b0a4 793d 9615 d1bd 1285 a63c 100d ae3c
000001d0: 191a b53a 3640 a2bd a08f a13b 6e26 df3d
000001e0: a4ea 393d 85e0 033e 1082 aebd 0ec1 84bd
000001f0: e8e2 7a3d 0060 b0ba 9829 a9bd 62cb c2bd
00000200: 1e09 d03d baf9 013e d9fb 033e 9680 ee3d
00000210: 9abd ad3d 024f e03d 2a26 403d 5423 d2bd
00000220: f90a 133e a4e5 8bbd 63b3 df3c 0b98 0e3e
00000230: cada ed3d ba48 0a3e d1d2 653d 8e4d a43d
00000240: 7c17 d2bd f564 d33d 23cf 0d3d f497 a23d
00000250: dd49 61bb 0f26 1bbd 5f42 2abd 42fe c53d
00000260: de1d 2f3c 37b3 adbd 5592 0b3e e60d c83d
00000270: e07b 923c 408c c0bb 304e 523d 2c36 593d
00000280: f74d 123e f81f 603d c09e 68bc 7596 86bd
00000290: f705 a6bd c47e dabd 0689 1bbd 1c8e 0ebe
000002a0: db04 993d 90a7 273c c85c a1bc 331e babc
000002b0: 45be abbc 6f6c d73d 9a0c b1bc 0f7c a1bd
000002c0: e613 5ebd 2e30 6abd 2497 07be db18 0a3e
000002d0: 5ecb d4bc 6ea9 be3d 9318 cb3d bd21 01be
000002e0: 91bd d4bc ae18 04be 161f 3cbd 73c9 f1bd
000002f0: be8e f9bd 66f6 ec3d 43ff 113e 6094 04be
00000300: 846b cebc 8014 f73a 5805 5bbd 8094 59bd
00000310: 7224 6abd f744 043e 14b7 a83d 7c9e eebd
00000320: e694 29bd d390 003e 5c14 7c3d f40d bb3d
00000330: 7ddc b8bc d8e9 063d 4e85 81bc 984f 56bd
00000340: 8cce af3d 0bf6 3fbd 6b66 a2bd 8f71 ecbd
00000350: baf3 fa3d bf96 a4bd 4892 fabc 4270 abbd
00000360: bcf5 59bd e5a9 e83d a332 0dbe 0b2c 1f3d
00000370: 6d52 e83b 85ab 443d 505a e2bd ca30 82bd
00000380: 942b 8abd c02c 0e3d 9ba2 d3bd 5620 a43d
00000390: ccef 1e3d dcd1 efbd c0c4 92bd b557 02be
000003a0: d6be fa3d 9e6f eabd 80ca e23a 60c5 203c
000003b0: 0cd3 b2bc 898a 88bd 44c2 edbd 8766 a53c
000003c0: 8cd7 363d 6e17 7abd ba37 bebc 93e8 0abc
000003d0: 170e f0bc e582 c03b 8233 cd3c 141f 0c3d
000003e0: faf8 adbd b6f5 c2bc 36cb a43d 9192 033e
000003f0: 5746 1a3d 0320 ecbd 2270 f0bd ba6c 0cbe
0.010019774 -0.04194384 0.095740296 0.0799232 -0.03952752 -0.1447643 0.00583158 0.10000649
-0.13315645 0.100000694 -0.046024323 -0.09604947 -0.07529947 -0.08124557 0.06595138 -0.12755986
-0.053447835 0.10828067 0.09463781 -0.052636646 -0.055203907 0.023358809 -0.05376663 0.05233954
-0.06794204 -0.11703403 -0.0793333 -0.035021238 -0.13189118 -0.13491711 -0.011829633 -0.04638017
0.11577256 0.10734332 0.056511313 0.0132676065 -0.072525494 -0.1379244 -0.056856718 -0.10822631
-0.009715424 0.056223106 -0.13619287 -0.07099364 0.054215375 -0.00012846291 -0.016574875 0.14021908
-0.0521964 -0.1197881 -0.102014974 -0.07406914 0.083768085 0.07025118 0.049383715 0.03253293
0.13917385 -0.118212625 -0.10472596 0.015752712 0.11668981 -0.13642608 -0.03592121 0.091268316
0.11423227 -0.11638159 -0.11082211 0.11067562 0.01710771 0.045443755 -0.13836652 -0.017829552
0.05884021 -0.0071476307 0.10776539 0.051546834 -0.093508825 -0.078875184 -0.06882385 0.004065305
0.14741653 -0.09360893 0.0740276 -0.022666402 0.10415241 0.011691093 -0.05630888 -0.083880514
-0.10546889 -0.12493206 0.07329294 -0.12047737 -0.13134512 0.12968107 -0.03998716 -0.019510219
0.036779135 -0.042281225 -0.08145735 -0.12478157 0.06215277 -0.067075625 0.007468541 0.088746086
-0.003437981 -0.0064901477 0.046165004 -0.062987305 -0.12655522 0.03053108 0.093814954 -0.007280208
0.060948074 -0.10209195 0.020327125 0.021246463 0.0013816982 -0.079224035 0.0049304515 0.10896002
0.045389786 0.12878616 -0.08520901 -0.06482135 0.06125155 -0.0013456345 -0.082598865 -0.095114484
0.10157989 0.1269292 0.12889041 0.116456196 0.08483429 0.109525695 0.046911396 -0.102606446
0.14359654 -0.0683091 0.027307218 0.13925187 0.11613996 0.13504305 0.056109253 0.08022605
-0.102583855 0.103219904 0.03462137 0.07939139 -0.0034376301 -0.037878092 -0.041567203 0.096676365
0.010688273 -0.08481448 0.1363004 0.09768276 0.017881334 -0.005876094 0.051344097 0.053030178
0.14287554 0.054717988 -0.014198005 -0.06571666 -0.081066065 -0.1066871 -0.037972473 -0.13921398
0.07471629 0.010232821 -0.019697562 -0.022719478 -0.020964751 0.10518729 -0.021612454 -0.078849904
-0.054218195 -0.057174854 -0.1324125 0.13486044 -0.02597588 0.0930966 0.099167965 -0.12610526
-0.025969299 -0.1290004 -0.045928083 -0.118060015 -0.12185429 0.11570434 0.14257531 -0.12947226
-0.025197752 0.0018850714 -0.053471893 -0.053120136 -0.057163663 0.12916933 0.082380444 -0.11651322
-0.041401766 0.12555246 0.061542854 0.09133521 -0.022566075 0.032937855 -0.015810635 -0.052322
0.085843176 -0.046865504 -0.07929691 -0.11545097 0.122535184 -0.08036565 -0.03058733 -0.08371021
-0.053212866 0.1136053 -0.13788848 0.038860362 0.007089904 0.048015136 -0.11052382 -0.06356962
-0.06746593 0.034710646 -0.10333749 0.0801398 0.038802907 -0.117099494 -0.07166433 -0.1272877
0.1224343 -0.114470705 0.0017302781 0.009812683 -0.02182915 -0.066670485 -0.11609319 0.02019049
0.044639155 -0.0610575 -0.023219932 -0.008478302 -0.029303594 0.005874979 0.025048975 0.034209326
-0.08494754 -0.023798805 0.08046572 0.1284888 0.037664738 -0.11529543 -0.11740138 -0.13713351

gat_layers.1.att_src f4 [1, 4, 128]
00000000: 7b9a db3d db61 d23d e575 5fbd 26e6 c03d
00000010: 4ef9 803d af92 b5bd 8985 373e 345c 0f3d
00000020: 8ad5 4fbd 4f5e 4a3e bf9c 163e 7fa8 50be
00000030: b2bb 29be 2d20 17be c215 5a3d b0cb 15be
00000040: 36b7 993c 20ed 3abc 6745 b03d 7d26 9bbd
00000050: 8420 113e 7ca6 1f3e 82a4 cabc 660d 60be
00000060: f977 3c3e 7125 02be 2692 e63d f0d6 8cbd
00000070: 7853 323e 0930 76bd 69f4 043e e6c9 793c
00000080: 4eef 1a3e 702b 75bd 405b 2bbe 6c26 11bd
00000090: c453 573e 9b9a 1cbd 401c 073d e3a4 df3d
000000a0: 4e48 41bc 5ec8 84bd 6792 babc 90e4 a63d
000000b0: 9a2c 473e a6e8 ab3d 654e f9bc 44f7 183d
000000c0: e7d2 62bd 1c55 0d3e c727 0c3c 49e9 213e
000000d0: 11d9 54be 51da ef3d 388a 4bbd 3197 563e
000000e0: 6207 83bd da76 e3bd 67de 03be e24c 0b3e
000000f0: 96b9 57be 023d fabd f021 0dbe 4dbd 133e
00000100: eaa3 87bc 992d 4abe 559a 0fbe dc96 8dbd
00000110: 7bb5 b33c 3e08 c3bd 74a9 32be 666a 4abe
00000120: f5e5 69bd e2af 18be 5613 62be 638b 323d
00000130: fca6 063e fdaa d43d 6751 2fbe b5ed 243e
00000140: 400f 19be c9ac eebd b483 15be c5da 9b3d
00000150: b996 823d ee8a 3a3d f7a9 ccbd c951 d6bc
00000160: 3e47 2e3e d6cc 13bd c578 9c3b 32d7 95bd
00000170: 384b 4a3e dda1 44be 7b3e 7ebc dcf1 d53d
00000180: 11d8 003d 970a 133e c5a3 c5bd 8453 6cbd
00000190: cd1e 383e 2e72 083e 1477 76ba 2c6f 883d
000001a0: 4be7 073e 9513 9b3c 79f7 8d3b 022d 3fbc
000001b0: fff0 353e fc04 1b3e bc57 a8bd 5a8d c23d
000001c0: 62f6 1e3e ffdb 4f3d 1d1c 0dbe a45f 403d
000001d0: ea06 11be 1d4e b9bb 69c9 0d3e 74b8 d23d
000001e0: 3d75 8c3c 8205 36bc 27ff 113d 49c0 0fbe
000001f0: 0d4a 3bbe 0b65 103e 7892 8bbc 1fa9 8cbd
00000200: 6ce1 32be 68eb a43d 4285 54be 17f4 0d3e
00000210: f361 93bd 845a 7dbc f2f2 d93d 8dbc 5c3e
00000220: 189e 3dbe 1ca8 08be 3b86 e0bd 2051 12be
00000230: 8f92 a7bd e9c7 0cbe c728 27be 706c 203e
00000240: 6ac1 2e3e 5e5d 4abe d946 e23d 9147 ee3d
00000250: f993 40bc 5860 53be bcdb f33c a6df 443d
00000260: 3bde 1f3e 734a 7b3d ed25 e03b cb8d d73d
00000270: b8e3 eabd 2709 a13c 7847 153e 10b1 3ebc
00000280: d0a8 7c3d 9817 4a3e 823c 52be 6883 373e
00000290: aa18 9dbb e085 06bd ab58 e2bd c449 b1bd
000002a0: e1c3 b0bd 82c1 443e fe23 39be 2098 753a
000002b0: 20ef 09be f902 96bd c270 89bd c532 0a3e
000002c0: 0e40 063e 8be0 b6bc 223c f2bc bc1c fc3d
000002d0: a028 2b3e e8d8 36be 8bf5 c2bc 6198 963d
000002e0: 67d1 8c3d 8c83 8eba 37e1 2b3e 9b22 03be
000002f0: 84d1 db3b ebe1 063c 7dc6 553e 4a28 eebc
00000300: 619e ed3c 4106 af3d fc50 f7bc 8b67 e03c
00000310: beca 8dbc 3229 84bc 4c97 29bd 9abf 37be
00000320: 6a35 203e a30c 01be 1167 cf3c 5022 f73c
00000330: 357a 4b3d 1db2 c03b 4644 e43c 182a 2fbe
00000340: 0487 14be cf65 99bc 88d7 5c3a 9693 583e
00000350: b504 1d3e dd82 3d3e e0d6 4abe c7d8 b23c
00000360: d5b2 4c3e bc63 40be 380f 443e f8b2 e5bd
00000370: 58f9 383c 0caf f7bc b1b2 5b3e 4a46 2b3d
00000380: 8dff 563e 9871 9a3d a086 b8bd b419 2fbe
00000390: 751c 31be 70ed 5a3e 599c fabd 28f2 2e3e
000003a0: e51a fdbb c258 fbbc 05f5 2b3e cee4 55bd
000003b0: fcae adbd 8571 33be 8d54 41be 18d6 33bd
000003c0: aa39 a43d 0ecc 3a3d 8876 363e cb93 c83a
000003d0: 8821 533d 104d a2bd 1803 03be a86f 2f3e
000003e0: b2b7 9dbc 0cf5 10bd 7ea6 9f3c 25dc ac3d
000003f0: 4e6f 21be 71f0 bcbd 2977 bd3d 5f15 123e
0.10722824 0.10272571 -0.054555792 0.09418897 0.06297551 -0.08865868 0.17922033 0.03500004
-0.050740756 0.19762538 0.14708231 -0.20376776 -0.16575506 -0.14758368 0.053243406 -0.14628482
0.01876412 -0.011409074 0.086069874 -0.075757004 0.1417256 0.15590852 -0.024736647 -0.21880111
0.18405141 -0.12709595 0.11258344 -0.068769336 0.17414653 -0.060104404 0.1298386 0.01524589
0.1513035 -0.05985588 -0.16734028 -0.035437033 0.21028048 -0.03823338 0.032985926 0.109201215
-0.011797024 -0.064835295 -0.022774888 0.081490636 0.19450608 0.083939835 -0.03043289 0.037345186
-0.055376913 0.13801998 0.0085544055 0.15811647 -0.2078593 0.117115624 -0.049692363 0.20956112
-0.063978925 -0.111066535 -0.12877809 0.13603547 -0.21066889 -0.122186676 -0.13782477 0.14427681
-0.016557653 -0.19743957 -0.14023717 -0.0691354 0.021937123 -0.095230564 -0.17447454 -0.1976715
-0.05710407 -0.14910844 -0.22077689 0.04358996 0.13149637 0.10384176 -0.17120896 0.16106303
-0.14947224 -0.1165405 -0.14601022 0.07610086 0.06376404 0.04554265 -0.09993356 -0.026162045
0.17019364 -0.03608402 0.004775139 -0.07316436 0.19755256 -0.19202371 -0.015517826 0.10446522
0.031456057 0.14359508 -0.09650377 -0.057696834 0.179805 0.13324806 -0.00094018993 0.06661829
0.13271825 0.018930236 0.0043324796 -0.011668446 0.17767714 0.1513862 -0.08219859 0.09499617
0.15523675 0.050746914 -0.13780256 0.04696621 -0.14162794 -0.005655064 0.13846363 0.10289088
0.017145747 -0.011109712 0.035643723 -0.14038195 -0.18289967 0.14101045 -0.017037615 -0.06868195
-0.17468804 0.08052713 -0.20753959 0.13862644 -0.07196417 -0.015463475 0.10642041 0.21556301
-0.18517339 -0.13345379 -0.109631024 -0.14288759 -0.08182251 -0.13748135 -0.16324149 0.15666366
0.17065969 -0.1976218 0.11048669 0.11634744 -0.011754029 -0.20642221 0.029767863 0.04806485
0.15612118 0.061350297 0.0068404586 0.10525092 -0.11469215 0.019657684 0.14578044 -0.011638895
0.06168443 0.19735563 -0.20530894 0.17921221 -0.0047942 -0.032842517 -0.11052068 -0.08656648
-0.08631111 0.19214442 -0.18080136 0.00093686767 -0.13470125 -0.07324786 -0.0671096 0.1349593
0.13110372 -0.022323867 -0.02956969 0.12310168 0.16714716 -0.1785618 -0.023798725 0.07353283
0.06875878 -0.0010872944 0.16785131 -0.1280617 0.006708326 0.008232574 0.20876499 -0.029071946
0.029006185 0.08546115 -0.030189984 0.027393123 -0.01730859 -0.016132925 -0.041404054 -0.17944184
0.15645376 -0.12602477 0.0253177 0.030167729 0.049677093 0.0058806078 0.027864587 -0.17105901
-0.1450463 -0.018725304 0.00084244506 0.2115005 0.15333827 0.18506952 -0.19808531 0.021831883
0.19990094 -0.18788046 0.1914643 -0.11215776 0.011289917 -0.030234836 0.21454884 0.04181508
0.20995922 0.075411975 -0.09010053 -0.17099649 -0.17296012 0.21379638 -0.12236852 0.17084563
-0.0077241533 -0.030681971 0.16792686 -0.05222016 -0.08480641 -0.17523773 -0.1887991 -0.043905348
0.08018811 0.045604758 0.17818654 0.0015302835 0.05154565 -0.07924855 -0.12794149 0.17132437
-0.019252632 -0.035389945 0.01948857 0.08440427 -0.15765116 -0.09225548 0.092512436 0.14265965

gat_layers.1.att_dst f4 [1, 4, 128]
00000000: be39 28be ca5d 393e 2dd7 4dbe 194a 7cbc
00000010: 9e9d 043e 19a3 493e 194f 0b3e b347 e3bc
00000020: 420e 2c3e a844 59be 6580 35be 8a62 f4bc
00000030: 2df6 4abe 604f 34bd 76fd a53c 01ea fcbd
00000040: c9c3 40bc 837f 5bbb 405b 09bd d7f3 51be
00000050: 192f 43be 1c58 20bd 72ee 9bbd a878 b3bc
00000060: a60e 3c3e c448 32be f72e 883c 26ba 0ebe
00000070: 8155 ef3d c286 06be 6481 013d 0282 6f3d
00000080: a8d8 203e 4db3 333c cf82 153e e5e3 44bd
00000090: 8b63 00be 8c67 e03d 8b3d 583e 1ac3 4abe
000000a0: d3ef 1dbe 2bb1 e63d 5214 1d3d 47eb b23d
000000b0: 8e3e 183e c317 e13d d467 4c3e 359d 533e
000000c0: 370d 2a3e 580c 44be fd9b 6b3d e54c 473e
000000d0: 83cd 17bd 86fd b93d e79d 473e b479 be3d
000000e0: 535a c03d 8b55 3abd f428 d03d 1cf3 aebd
000000f0: b80a ebbd ddbd 7fbd aea8 563e 9992 babd
00000100: 7e70 b9bd 5a2d 223e cfcd 403e a0b9 b6bc
00000110: beec 323e 4523 5dbe 51d5 ac3b 322c 21be
00000120: d119 453e 8f27 03be 7c94 1cbe 29d1 fabd
00000130: 583d 1b3c a8cb dfbd a453 03be 0e0f 4d3e
00000140: cb29 1abe 28b9 403e 7b00 5c3d 2e58 10be
00000150: 05b4 bdbd 75f9 593e b2d9 b13d 71db 1dbe
00000160: c56f de3c b020 08be a602 25bd 87f3 f83d
00000170: 3a24 babb 1bc4 debd 9455 213e 2a77 21be
00000180: efc9 04be ef1f 3cbe c194 40be 4b5a 7bbd
00000190: 4c26 f0bd 0d7e e83d a2aa 59be a852 533d
000001a0: ad83 2ebe 8681 c8bc 1e78 dcbd feb9 133e
000001b0: 1522 12be 339f 6abd e713 203e 5de4 09be
000001c0: f0b4 243e a09e cbbd 4018 e3bd f9ed c2bd
000001d0: 6db4 9ebc caac e4bd 996f 1dbe 70d6 303e
000001e0: e1b1 c1bd d140 f3bb 3dbe 96bd a0f7 d83b
000001f0: 1762 c1bc e82c 5e3d 3b76 8cbd 9d8b a53d
00000200: fffe bc3d 8ad7 39bd 6cde 81bd e9ad c83c
00000210: 3669 4dbe b517 6cbd f7f7 58be 2b29 703d
00000220: 4af3 18be 01b9 b0bd 5974 1d3e 746e e13d
00000230: a293 053e 745e f33d cd10 05be c55e 533d
00000240: e655 19be acc3 24be f21d 0c3d e5f7 0dbe
00000250: 73b8 37bd eff4 14bd 9ef0 573c 5d3a 0c3e
00000260: 8966 ea3d bf2c fbbd 35a3 0b3e ddd6 e23d
00000270: 4a80 023e b6e9 15be 1890 83bd fbcd 4cbe
00000280: b7d6 35bd 0c6f 86bd f8ae 403e 2e4b 503e
00000290: 50e0 403e 2d37 babd 699c a0bb b5e2 5dbe
000002a0: b48d edbc 1289 773c a119 453e e76a 353e
000002b0: be6b 8bbd d774 453e 75f1 723d 9a9f abbd
000002c0: 2931 3fbe 431b e53d ad71 31be d230 ad3d
000002d0: a2a0 ccbd 481e 38bb aa67 03be 0937 903d
000002e0: 288b 44be aa61 62bd 2c6e fd3a 972a d1bd
000002f0: 3d3b 40be e2ee 35be 0767 4fbe 4f2e 5f3e
00000300: 5c7a 40be e996 75bc a198 e23d e627 1ebe
00000310: 0a33 523e 037b 053e 26db 1f3d 38bc a43c
00000320: ea5e 403e 8f29 5ebd fad3 523e a507 07be
00000330: 3c73 e53a 3d4b aebd 1f98 19be ed6f 2ebe
00000340: a786 793d d31a 2f3e 7275 25bc 2c07 d1bd
00000350: eef4 023d c4cc a93d fff3 b8bc b3bb 50be
00000360: 2159 b1bb 63e2 a33d 4846 063e 0d3f 413c
00000370: cb23 f1bd 8853 2fbe 7a5d 26be 16a3 cabd
00000380: 360e 513e 669d a8bc 7de9 20bd 6b99 a23d
00000390: 95c0 023e 12b8 94bd 8669 24be b947 4bbb
000003a0: b5c9 d03d 170b 193e f691 42be 2d15 963d
000003b0: 3869 813d 8785 353d 8e2f c7bd 2236 343e
000003c0: 9df8 35be dd05 52be 0a7c 453c ee1a 203e
000003d0: ff28 4d3d 87b7 a3bd 7d46 3f3e c773 e93d
000003e0: 146e a73c 1048 44bc 51dc 22be e427 fb3c
000003f0: 3452 ecbd a6d9 41bd 9dfd 1fbe bdcd a73d
-0.16428277 0.18102184 -0.20101614 -0.015398526 0.12950751 0.19691123 0.13604392 -0.02774415
0.16802314 -0.21217597 -0.1772476 -0.029832143 -0.19820471 -0.04402101 0.020262461 -0.1234932
-0.011765429 -0.003349275 -0.03353429 -0.20503174 -0.19060935 -0.039146528 -0.07613839 -0.02190812
0.18364963 -0.1741057 0.016623957 -0.13938197 0.116862305 -0.13137344 0.031617537 0.058473594
0.15707648 0.010968042 0.14600681 -0.0480689 -0.12537973 0.1095725 0.21117227 -0.19800988
-0.15423517 0.11264261 0.038349457 0.08736282 0.14867613 0.1099086 0.19961482 0.20665438
0.16606604 -0.19145334 0.05752181 0.19462927 -0.037061226 0.09081559 0.19493829 0.09300557
0.09392228 -0.045491736 0.10164061 -0.08542463 -0.11476654 -0.062436927 0.20962784 -0.091099925
-0.09054659 0.15837613 0.1882851 -0.02230531 0.17473122 -0.21595486 0.0052744527 -0.15739515
0.1924813 -0.12808059 -0.15291017 -0.122469254 0.009475075 -0.10927516 -0.12824875 0.20025274
-0.15055005 0.18820632 0.053711396 -0.14096138 -0.092628516 0.21286567 0.086841 -0.15415742
0.027152905 -0.1329372 -0.04028573 0.12155824 -0.005680588 -0.10877248 0.15755302 -0.15768114
-0.12967657 -0.18371557 -0.18806745 -0.061365407 -0.117260545 0.11352167 -0.21256498 0.0515925
-0.17042418 -0.024475824 -0.10765098 0.14426419 -0.14270814 -0.05728073 0.15632592 -0.1346602
0.16084647 -0.09942365 -0.1108861 -0.09518046 -0.019373143 -0.111657694 -0.15374602 0.17269301
-0.09457756 -0.007423498 -0.07360504 0.006621316 -0.023606343 0.054242045 -0.06858488 0.0808327
0.09228324 -0.04537157 -0.06341252 0.02449699 -0.20059666 -0.057639796 -0.21188341 0.05863301
-0.14936557 -0.08629037 0.15376414 0.110073954 0.13044599 0.1188325 -0.1299469 0.05160405
-0.14974174 -0.16090268 0.034208246 -0.13864096 -0.04485364 -0.0363664 0.013179926 0.13694139
0.11445338 -0.12264394 0.13636477 0.11076138 0.12744251 -0.14639935 -0.06423968 -0.2000045
-0.04439422 -0.06564149 0.18816745 0.20341179 0.18835568 -0.09092555 -0.004901458 -0.21668513
-0.028998233 0.015108364 0.19248058 0.17716561 -0.068076596 0.19282852 0.059312303 -0.08380051
-0.18671097 0.111868404 -0.1732852 0.08456577 -0.09991576 -0.002809422 -0.12832513 0.07041747
-0.19193709 -0.05526892 0.0019335202 -0.102132015 -0.18772598 -0.17766908 -0.20254146 0.21795009
-0.18796676 -0.014989593 0.11064268 -0.15444908 0.20527282 0.13035206 0.039027356 0.020109281
0.18786207 -0.054238852 0.20588675 -0.1318651 0.0017505656 -0.08510444 -0.14999436 -0.17034884
0.06091943 0.17100076 -0.010098802 -0.10206446 0.031971864 0.08291009 -0.022577284 -0.20384102
-0.0054122363 0.08002164 0.13112748 0.011794818 -0.11774405 -0.17121708 -0.16246596 -0.098943874
0.20415577 -0.020582866 -0.03928517 0.079394184 0.12768777 -0.07261671 -0.16055879 -0.0031018092
0.101947226 0.14945637 -0.19000992 0.07328258 0.06318897 0.044316795 -0.09725867 0.17598775
-0.1777062 -0.20510049 0.012053499 0.15635273 0.050087925 -0.079939894 0.18679233 0.11399036
0.020438232 -0.011980072 -0.15904357 0.03065867 -0.115391165 -0.047326706 -0.1562409 0.08193538
