finalhybrid/experiments/experiment_20251104_232429/checkpoint_epoch_50.pth (torch, 662928 bytes, 50 tensors)

gcn_layers.0.bias f4 [64]
000000 10 70 a2 3c bc b3 bf bc 00 00 00 00 8f 3a a2 3c
       0.019828826 -0.023401134 0.0 0.019803314
000010 00 00 00 00 5e 14 79 3c 00 00 00 00 63 59 93 bb
       0.0 0.01520261 0.0 -0.0044967397
000020 2a a8 a1 bc c7 d8 9d 3b 00 00 00 00 00 00 00 00
       -0.019733507 0.0048171016 0.0 0.0
000030 d6 28 4b 3b 59 bc 26 bc 00 00 00 00 70 31 b5 bc
       0.0030999682 -0.0101767415 0.0 -0.0221183
000040 00 00 00 00 e0 25 84 3c c2 ed 30 b9 fb f2 ac 3a
       0.0 0.016131341 -0.0001687324 0.0013194972
000050 27 f3 83 bc e6 03 74 3b 8a 29 a2 3c 93 96 87 bc
       -0.016107155 0.003723377 0.019795198 -0.016551292
000060 55 4e a7 3c 46 16 ad bc 00 00 00 00 44 66 07 bc
       0.020423094 -0.021128785 0.0 -0.008264128
000070 00 00 00 00 48 42 16 3c c4 be 13 bc 96 4c 13 bb
       0.0 0.009171076 -0.00901765 -0.0022476069
000080 00 00 00 00 00 00 00 00 2f 38 4c 3d 22 0b 12 bb
       0.0 0.0 0.04985827 -0.0022284468
000090 a1 36 84 bc 0b 03 69 3b 24 15 05 bc 00 00 00 00
       -0.01613933 0.0035554792 -0.008122716 0.0
0000a0 00 00 00 00 65 f6 33 bc 86 98 92 3b 00 00 00 00
       0.0 -0.010984038 0.0044737486 0.0
0000b0 23 06 7e bc 2e f2 da 3c 00 00 00 00 56 68 c5 3b
       -0.015504393 0.026726808 0.0 0.0060244007
0000c0 62 97 70 3c df ef 64 bb 66 2a 11 bc 00 00 00 00
       0.01468453 -0.0034933013 -0.008860206 0.0
0000d0 00 00 00 00 91 0b c1 bc 00 00 00 00 00 00 00 00
       0.0 -0.023565086 0.0 0.0
0000e0 cf 81 27 3c 00 00 00 00 00 00 00 00 00 00 00 00
       0.01022382 0.0 0.0 0.0
0000f0 7a ae 4d 3c 00 00 00 00 8c 45 33 bc 0d 74 1d 3c
       0.0125538055 0.0 -0.010941874 0.009610188

gcn_layers.0.lin.weight f4 [64, 36]
000000 0a 07 25 be c6 ea 41 bc 05 97 08 3d 47 59 78 be
       -0.16115966 -0.0118357595 0.03334715 -0.24252807
000010 ae 53 f5 3d 8e 7c 61 be 52 28 03 be 22 f6 4a be
       0.11978851 -0.2202017 -0.1280835 -0.19820455
000020 6a ee d9 bc cf a1 55 be 0a f2 2e be e9 a7 79 be
       -0.026602942 -0.20862506 -0.17084518 -0.24380459
000030 12 69 e1 3d 4d 24 38 3e 33 41 76 be 71 a7 1f 3e
       0.11006369 0.17982598 -0.24048309 0.15591218
000040 1d 30 61 be 4d 42 45 3e 00 4d a1 bb 7c 50 56 3d
       -0.2199101 0.19263573 -0.004922509 0.05232285
000050 3a 5b e2 3d cf 12 45 be 5d e2 65 3e 1e 8f f4 3d
       0.11052556 -0.19245456 0.22449632 0.1194136
000060 13 45 26 3e cd 29 00 3e 4e 72 c4 bd 0d 0f 40 3e
       0.16237287 0.12515946 -0.095921144 0.18755741
000070 bf 55 a1 bc 23 4d 89 be b5 4d 86 3e 81 61 5a 3e
       -0.019694207 -0.26816663 0.2623116 0.21326257
000080 88 9a 53 be 77 b8 45 be 9a b8 2c 3d 07 58 8d bd
       -0.20664418 -0.19308649 0.042168237 -0.069015555
000090 16 df 36 bd 91 b9 98 be 63 cf 98 bd ab 77 12 be
       -0.044646345 -0.29829076 -0.07461431 -0.14303462
0000a0 45 48 40 be 9c 3c 48 3d ff 75 26 bb 32 50 0f be
       -0.18777569 0.048885927 -0.002539992 -0.13995436
0000b0 76 d0 7e be 96 71 88 bd 0a 63 ae 3d a0 0a 06 be
       -0.24884209 -0.0666229 0.08514984 -0.1308999
0000c0 39 39 43 be 6d 08 28 3e 3c 08 f5 bd 7d 4a 31 3e
       -0.19064797 0.16409464 -0.11964461 0.17313571
0000d0 e0 09 e8 bb 24 02 5c be bf 4b 18 3e 23 f5 2f 3e
       -0.0070812553 -0.21485192 0.14872645 0.17183356
0000e0 18 d1 67 be b5 a2 aa bd 20 25 9e bb 5a cf d1 bd
       -0.22638357 -0.08331815 -0.004826203 -0.10244627
0000f0 c9 0e 41 3e 98 a8 75 bd 06 40 ab bc bd 23 94 be
       0.18853296 -0.059975237 -0.020904552 -0.28933516
000100 ce b0 63 3e 32 58 42 3e ca 2d 9e 3c 74 d9 14 3d
       0.22235414 0.18978956 0.019308943 0.036340192
000110 b0 ab 23 3c 28 5b 66 3e e4 b6 1c 3e 6d ab 14 3e
       0.009989664 0.22495711 0.15304142 0.14518519
000120 5b 4e 32 3e 40 06 66 bd 58 8b e2 3c 01 bc 30 be
       0.17412703 -0.056158304 0.027654335 -0.17259218
000130 f6 dc 59 be f0 54 e9 bd e4 11 e1 bd e6 94 84 3d
       -0.21275696 -0.11393154 -0.109897405 0.064737126
000140 3a 57 97 3d 97 ab 09 3e 00 30 97 b8 48 02 a8 bc
       0.07389684 0.13444363 -7.209182e-05 -0.0205089
000150 21 81 02 3e 4c 24 4f 3d 18 50 c4 3c 8c 96 2c 3d
       0.12744571 0.050571725 0.023963973 0.04213576
000160 30 c5 37 be 3c 22 6b 3d fe a0 73 be aa f7 de 3d
       -0.17946315 0.057405695 -0.23791882 0.10887082
000170 80 cd 38 bb d5 4d 52 be 82 22 f1 bd 56 7c 13 be
       -0.002819866 -0.20537503 -0.1177416 -0.14402899
000180 66 96 bf 3d 67 11 07 be 8c 7d 28 be f8 16 fd bc
       0.09354858 -0.13190232 -0.16454142 -0.030894741
000190 47 59 59 3e 0e 3f 75 be d4 4e 43 be e3 22 04 3e
       0.21225463 -0.23949835 -0.1907304 0.12903933
0001a0 a8 2b 1d be b4 15 a4 bd c6 f0 f3 bd 49 bd 02 3e
       -0.15348685 -0.08011952 -0.11911158 0.12767519
0001b0 60 78 01 bc 3d b4 23 be 2d 55 86 3e 0d d9 93 bd
       -0.007902235 -0.15986724 0.2623686 -0.072191335
0001c0 e9 c1 39 3e ad 83 e4 bc 2e 28 99 bd 14 69 21 bd
       0.18140377 -0.02789482 -0.07478367 -0.03940685
0001d0 5a 93 25 be 46 9a ff bd 7a 89 47 be 5f d9 4a 3e
       -0.16169491 -0.12480597 -0.19486037 0.19809483
0001e0 3d c4 28 3e 68 73 db bc 09 f6 68 3e 1e 2a b0 bd
       0.16481109 -0.026788428 0.22750105 -0.08601783
0001f0 6c bd a1 bd a4 92 54 3d 03 2e 71 be 6a 90 2f be
       -0.078974575 0.05189766 -0.23552708 -0.17144933
000200 67 2c 61 3e ed 02 26 be 78 69 10 be 9f 42 6c be
       0.21989594 -0.16212054 -0.14102733 -0.23072289
000210 36 17 2a bd d8 66 b4 bd 0f 9a 8e 3d 54 da 14 3e
       -0.041526042 -0.088086784 0.06962978 0.1453641
000220 10 47 2d 3e 55 98 0f 3e d2 61 de 3d a5 20 08 be
       0.1692164 0.14022954 0.108585015 -0.13293703
000230 24 04 6d 3d 8b 21 f5 bd 15 c5 6d be 25 19 69 3e
       0.057865277 -0.119692884 -0.23219712 0.22763498
000240 af 66 22 3e bf a4 00 be a3 fa 34 3e d4 3e 01 3d
       0.15859483 -0.12562846 0.17673735 0.03155406
000250 21 c1 67 be 18 aa 8f bc c0 18 d8 bc 8f 90 16 3e
       -0.22632267 -0.017537162 -0.02637899 0.14703582
000260 80 20 f4 3a a4 4f 58 bd e2 12 f2 bd 78 0e 01 bd
       0.0018625408 -0.052810326 -0.11820008 -0.03150794
000270 3c 88 8c bd 18 d1 38 be 98 97 05 bd a1 db 42 be
       -0.06861922 -0.18048513 -0.032615274 -0.19029094
000280 8c a5 27 3d e9 cd 3a 3e 5e 9d 3c be 9b 7d 39 3e
       0.040929362 0.18242611 -0.18419406 0.18114321
000290 2d 9e 5e 3e 2f 95 46 be 78 39 90 3c b8 c5 5d bd
       0.21740027 -0.19392847 0.017605528 -0.054143637
0002a0 c2 f3 fe 3d fb 02 1c 3e a6 07 42 be 46 bc ba bd
       0.12448837 0.15235512 -0.1894823 -0.091179416
0002b0 66 20 32 be e0 2e 48 be 68 54 79 bd b5 7c 79 be
       -0.17395172 -0.19549131 -0.06087151 -0.24363978
0002c0 26 bc 4a be 24 83 0f 3d aa 27 76 be f5 a2 22 3e
       -0.19798335 0.035037175 -0.24038568 0.15882476
0002d0 bf 07 04 bc 2e ef 0f be b6 4f 53 3e 35 91 00 be
       -0.008058487 -0.14056084 0.20635876 -0.12555392
0002e0 e4 45 3b 3e 46 73 06 3e af b2 14 3e 00 33 fb ba
       0.1828838 0.13129911 0.14521287 -0.001916498
0002f0 45 b3 36 bd 5b 45 27 3e 38 44 10 be c2 2b 1c be
       -0.04460456 0.16335051 -0.14088523 -0.15251067
000300 0e 83 a9 bd 9a a1 65 be b0 45 0e 3c b2 a3 da bd
       -0.0827695 -0.22424927 0.008683607 -0.10675754
000310 94 45 40 be 9e 2e e3 bd 7e cc e6 3d da 8a 1b be
       -0.18776542 -0.11092876 0.112694725 -0.15189686
000320 3e 61 a7 bd a6 d3 ea 3d b6 16 e7 3d 6c de 0f 3e
       -0.08172844 0.1146615 0.11283629 0.14049691
000330 e0 12 3d 3e 0f e9 21 3e b2 c4 bc 3d 3c 26 12 3d
       0.18464231 0.15811561 0.09217204 0.035680994
000340 50 01 5e 3e a9 87 86 bd 02 24 46 3e 11 31 12 3e
       0.21680188 -0.06568844 0.19349673 0.1427653
000350 54 4b 48 bd 02 1d 83 3e 8c f0 8b 3d 3f ef c4 bd
       -0.048899963 0.2560807 0.0683299 -0.09615945
000360 f5 18 0a be 46 70 b5 3d 26 7a e1 bd bd e5 27 3e
       -0.13486083 0.08859305 -0.11009626 0.16396232
000370 b8 f0 6e bd b6 8c a4 3d ed 05 6b 3e 6c 52 2b bd
       -0.058335036 0.08034651 0.2295148 -0.04182665
000380 ed 59 66 be fd 58 2f be 88 48 92 3c 48 89 6c be
       -0.22495241 -0.1712379 0.017856851 -0.23099244
000390 9d 4a 45 3e 5a 8c 1a be d7 16 09 3e 45 b2 62 3e
       0.19266744 -0.15092602 0.13387619 0.22138317
0003a0 d3 00 2e 3e 4f 87 3f 3e 5f b7 54 be d8 fb f1 3c
       0.16992502 0.1870396 -0.20773076 0.029539034
0003b0 73 8f 05 3e c6 7d d3 3d 46 50 02 be 72 11 96 3d
       0.13043003 0.10326724 -0.12725934 0.07327546
0003c0 a2 96 12 be eb 99 1a 3e 38 3b b7 bd 2b 35 2b 3e
       -0.14315274 0.15097778 -0.08946842 0.167195
0003d0 62 f3 e0 bd 1e 38 61 be bd 8d 1c be 66 7e ab 3d
       -0.109839216 -0.21994063 -0.15288444 0.08373718
0003e0 65 6c 30 be 5a 00 3a be c8 fb 17 be c0 f1 f2 bb
       -0.17228849 -0.18164197 -0.1484214 -0.0074140728
0003f0 2a 9d 45 be ca e3 65 be 55 1a 3a 3d 9f 25 a8 3d
       -0.19298235 -0.22450176 0.04543527 0.08210301

gcn_layers.1.bias f4 [128]
000000 68 35 b2 3b 99 e6 4e 3c c9 22 19 bc 75 ba ce bb
       0.0054384954 0.012628221 -0.009346672 -0.0063088485
000010 20 9a 39 3c 8d 4d 16 bc c3 14 2a bc 00 00 00 00
       0.01132825 -0.009173763 -0.010380927 0.0
000020 1a 3e 1e bb a7 a7 f3 3c a4 00 27 3c 0a 8e 1e 3c
       -0.0024145902 0.029743029 0.010193024 0.009677419
000030 70 63 29 bc 4b 63 02 3c c3 c4 08 3c 88 3e 05 3c
       -0.010338649 0.007958244 0.008347693 0.008132584
000040 96 cf a9 bc 4c 1c fa 3b 22 a8 5c bc 25 3c 06 bc
       -0.020728868 0.007632768 -0.01346782 -0.0081930505
000050 55 3d 5b 3b 3c 5b 8a 3b 5c aa 10 bc a3 44 a1 bb
       0.0033453305 0.0042223018 -0.008829679 -0.004921512
000060 16 c0 0d bc 67 42 ab bb a9 72 9f bb 35 de 30 3b
       -0.008651754 -0.0052264216 -0.0048659635 0.0026987914
000070 c4 f1 38 bc f9 cc 2c bc ee 2d b0 bb 9f 3c 7a bc
       -0.01128811 -0.010546916 -0.005376569 -0.015273242
000080 3d 89 d0 bb 02 ff 3c bb 9e d0 be bb 83 5a da bb
       -0.0063640163 -0.002883852 -0.005823209 -0.006663622
000090 50 a7 06 bb 8b 79 b8 bc b8 fc 9c 3c 49 ac b6 3c
       -0.0020546503 -0.022518894 0.019163474 0.022298949
0000a0 1b d1 96 3b 25 a8 54 bc c1 ff 5e bc 62 96 19 bc
       0.004602564 -0.012979542 -0.013610781 -0.009374233
0000b0 44 6d 9f bb 92 84 f9 ba 4b 8e e1 ba 99 41 12 bc
       -0.0048653204 -0.0019036701 -0.0017208544 -0.0089267725
0000c0 79 3b 70 bc f9 6c 85 ba bf 25 b1 3b a0 cc e8 bb
       -0.014662617 -0.0010179571 0.005406111 -0.0071044713
0000d0 4e ad 1d bc b2 61 06 3b 00 00 00 00 a1 a9 18 bc
       -0.009623839 0.0020505008 0.0 -0.009317786
0000e0 00 00 00 00 30 3d 34 bc be 1c 56 bc 18 2f 28 b9
       0.0 -0.011000916 -0.013068376 -0.00016039272
0000f0 dc 61 3c bb 35 3b 52 bc 8c f4 14 3c f4 67 28 bc
       -0.0028744852 -0.012831499 0.009091508 -0.010278691
000100 3f 2f 70 3c bb 8e e7 3b 7b 67 5c 3c 7f 19 fe 3c
       0.014659702 0.0070665753 0.013452406 0.031018017
000110 6f 09 9e 3b 1e 69 0c 3c 65 0d 40 bc 41 7a ba 3b
       0.004822902 0.008569984 -0.0117219435 0.0056908433
000120 a0 c2 1c bb 40 e3 d7 ba 71 da 13 bc 65 32 03 3c
       -0.0023919716 -0.0016470924 -0.009024248 0.00800762
000130 45 25 70 bc d7 fe 18 bc 9e f7 08 bc e1 bb 84 bc
       -0.014657323 -0.009338102 -0.008359818 -0.016202869
000140 1e e2 98 bb d8 ee 32 bc 6a c3 01 3c 53 3a 10 bc
       -0.004665627 -0.010921203 0.0079201255 -0.008802968
000150 72 9a f2 bb 8a 59 80 3c e1 ec cd 3b 41 58 8b 3c
       -0.007403665 0.015667696 0.0062843417 0.017009856
000160 7c 08 b2 bb be 1f c3 bc 6f 04 1e bc 35 69 2b bc
       -0.0054331403 -0.023818847 -0.009644612 -0.010462095
000170 e6 b2 81 39 b8 2f 57 bb ce 3e ac bb f7 c6 58 3a
       0.00024738087 -0.003283484 -0.0052565103 0.0008269394
000180 b0 85 1a 3a 7b 19 47 3b d9 2e 6c 3b 2f d1 9f 3b
       0.0005894555 0.0030380178 0.0036038666 0.0048772315
000190 42 d1 9c 3c f8 cd 8e 3c 6d e6 e9 3c 33 18 65 bc
       0.01914275 0.017432198 0.028552258 -0.01398282
0001a0 f9 88 9e bc 4e cf 37 ba 51 2c 28 bc 05 35 78 bc
       -0.019352423 -0.0007011787 -0.010264472 -0.01514936
0001b0 5b 9f 8f bc db 42 f1 bb 39 77 3d 3c ef d0 3f 3b
       -0.017532041 -0.007362706 0.011564069 0.0029268821
0001c0 f6 e1 02 bc d0 79 80 bc 21 0f cc bc c4 54 aa bc
       -0.007988444 -0.015683085 -0.024909558 -0.020792373
0001d0 95 1d 2a bb d3 dc 42 bb 3e a4 9b 3b d4 46 21 bc
       -0.0025957574 -0.0029733672 0.004749804 -0.009843547
0001e0 3a 1b 29 3c 58 34 86 3b c8 c5 42 3c 6c 56 22 bc
       0.010321433 0.0040955953 0.011887975 -0.0099083
0001f0 f5 2b 97 bb 7a d8 c4 bb 54 a3 7a 3c 7f 4c ea ba
       -0.0046133944 -0.0060072513 0.0152977295 -0.0017875581

gcn_layers.1.lin.weight f4 [128, 64]
000000 dc 3c 10 be 95 1c 37 bd 8b d6 34 3e 7b 0c b5 3c
       -0.14085716 -0.044704992 0.17659967 0.022100678
000010 7d e8 cf bd 65 43 b3 3a a2 cc 0f bc 38 4e 1f bc
       -0.101517655 0.0013676701 -0.008776816 -0.009723239
000020 c8 dd 2d be 69 0a 88 3c f8 24 85 bd 32 b9 29 3e
       -0.16979134 0.016606526 -0.06501192 0.16574553
000030 4d f2 6f 3e 46 5b 46 be e9 c8 16 be b1 f8 d2 bd
       0.23432274 -0.19370756 -0.14725079 -0.1030134
000040 ab d9 97 bd 5b a0 53 3e fe 22 45 3e bb 97 15 be
       -0.07414564 0.2066664 0.1925163 -0.14608662
000050 4c 4e 04 3d 7b af 04 3e dc 8b 01 bd 9e cf 35 3e
       0.032301232 0.12957565 -0.03162752 0.17754981
000060 1b 3f 03 be 30 66 d8 3d 4c f9 3d 3e 53 0b 54 bd
       -0.12817042 0.10566366 0.1855213 -0.051768612
000070 98 93 92 3d 15 fb d8 3d db 1d a9 3d be 7e f7 bd
       0.071570575 0.10594765 0.082576476 -0.12084721
000080 c1 64 e7 bd c1 6d 12 3e ef b1 c5 3c 03 88 dd 3d
       -0.11298514 0.1429968 0.024132697 0.10816958
000090 41 41 30 3e e6 a8 17 3e da 45 01 be 6a 63 22 be
       0.17212392 0.14810523 -0.12624303 -0.15858236
0000a0 13 2e 95 bd 9b 19 36 3d da 63 56 3d 62 66 5a 3c
       -0.072841786 0.044458013 0.05234132 0.013330074
0000b0 5d 49 78 bd 0b 81 30 be 62 5f 2d 3e c3 30 f8 bd
       -0.06061684 -0.17236726 0.16930917 -0.121186756
0000c0 31 75 2e 3e 9d 40 62 3d c0 dd d6 bd 3a de af 3b
       0.17036892 0.0552374 -0.10491514 0.0053670676
0000d0 91 1d 9b 3d 86 92 0f 3d a9 bd 81 bb 16 24 84 bd
       0.07573999 0.035051845 -0.003959377 -0.06452195
0000e0 c4 7d d7 bd 00 c0 d2 3a ba 80 01 3e 74 a1 94 3d
       -0.10522035 0.0016078949 0.12646762 0.07257357
0000f0 75 d1 89 bd 17 c7 ef 3d cd 28 08 be 0e 84 15 bd
       -0.06729404 0.11707895 -0.13296814 -0.03650289
000100 b6 e3 b3 bd 58 7c 86 bd be df a0 bd 3d 9d 3a be
       -0.08783667 -0.065666854 -0.078551754 -0.18224044
000110 fa 75 bc bd 2c 9a ac bd 54 8d 18 be a6 b7 24 3e
       -0.0920219 -0.084278435 -0.14897662 0.16085681
000120 14 a6 ee 3d c7 4d 1c 3e 1a 88 b1 3c 7f d0 e5 3d
       0.11652771 0.15264045 0.021671344 0.11221408
000130 f0 64 dc bd 45 69 cd bd 26 f2 8d 3d 46 c1 a2 bd
       -0.1076144 -0.10029844 0.06930952 -0.0794702
000140 b2 b6 e5 bc 10 e1 fb bd a6 a6 d7 bd 5e cc b7 bd
       -0.028041217 -0.12298787 -0.105298325 -0.08974527
000150 42 41 04 3d 9e 4e 44 bd 56 cc e5 bc 96 36 c3 bd
       0.032288797 -0.047926538 -0.028051537 -0.09531896
000160 89 d1 ea bc 4a 36 98 bc c5 1e 2c 3d 3f a1 96 3d
       -0.028664367 -0.018580575 0.04202153 0.07354974
000170 59 05 e2 3d 6d 9c 0e 3e ba b4 0e 3e f2 2f 3f 3e
       0.11036176 0.13926859 0.13936129 0.18670633
000180 cb ec ab bc a1 19 21 3e a9 8f 65 be a2 34 2a 3e
       -0.020986935 0.15732433 -0.22418083 0.1662164
000190 50 78 8d bd fe ac 8b 3d aa ef 78 3d 98 4a f1 bc
       -0.069077134 0.06820105 0.060775436 -0.029454514
0001a0 31 60 02 be 01 b1 2d be af fb 31 3e 4d 26 27 3e
       -0.12732007 -0.16962053 0.17381166 0.16323204
0001b0 23 0e 29 be 0c d9 ef 3d 32 d4 0c be ac c4 22 3e
       -0.16509299 0.1171132 -0.13752821 0.15895337
0001c0 bb b8 09 bd 0e 92 c4 bd d1 88 05 3e a3 e3 0a 3d
       -0.03362344 -0.0959817 0.13040473 0.033908498
0001d0 b9 c2 55 3d 97 e9 02 3e 5e 35 bc bd e3 ce cb bd
       0.052187655 0.1278442 -0.091898665 -0.0995157
0001e0 c0 61 26 be fa b1 21 be 6b 6e cc 3b 50 22 84 bd
       -0.16248226 -0.15790549 0.006238749 -0.06451857
0001f0 14 06 98 bc b8 7c cb bd e0 b0 fa bd 86 eb 01 bc
       -0.018557586 -0.099358976 -0.122407675 -0.007929688
000200 9c b2 11 3e ab 44 17 3e f0 0a e1 bd 0e b7 e2 bd
       0.1422829 0.14772289 -0.10988414 -0.11070071
000210 68 5e 25 be 05 c0 aa 3d 29 0a 22 be 75 2b 2a be
       -0.16149294 0.08337406 -0.15824188 -0.1661814
000220 b2 ef d6 bd 51 a3 73 3d 5f 59 83 3d 55 75 3c 3d
       -0.10494937 0.059481923 0.064135306 0.046010334
000230 09 da 5d be 36 f4 cf 3d 3e 85 b0 3d 6b 99 1f 3e
       -0.21665205 0.101540014 0.08619164 0.15585868
000240 28 e3 8f 3d f2 20 8e bd 86 e9 29 be ca a1 39 be
       0.070257485 -0.069398776 -0.16592988 -0.18128124
000250 a0 71 c1 3d 7c f5 8d 3d 2e 18 e0 bd 10 d1 c4 3d
       0.094455004 0.06931588 -0.10942112 0.09610188
000260 39 e5 0b 3e 24 4d d8 3d 30 dd af bd e9 63 42 bd
       0.1366166 0.105615884 -0.0858711 -0.047458563
000270 ba 4f cc 3c d4 79 98 3c 2a 1d f7 3d c9 eb 70 3d
       0.02494036 0.01861278 0.120661095 0.058818612
000280 08 b1 9f bd 0b 1a 1e 3e ea c5 0e 3e c8 f4 1f be
       -0.07797438 0.15439622 0.13942686 -0.1562072
000290 42 8e 96 3c 65 9c 45 be 1a 8a c1 3c 8c 90 48 3d
       0.01837838 -0.19297941 0.023625422 0.048965976
0002a0 a2 8d d7 3d 73 fd f4 3d bd c8 73 bd ea 7e ac 3d
       0.10525061 0.11962404 -0.05951761 0.084226444
0002b0 c2 b3 08 bb 2a 6a 7d 3d 7a 47 ef bd 5d 99 63 bc
       -0.0020859097 0.061868824 -0.11683555 -0.013891545
0002c0 ee 09 95 3d 9b c8 aa bc 32 25 1a 3d 9d 04 d5 3d
       0.072772846 -0.02084761 0.03763313 0.104012705
0002d0 d9 59 f1 3d ce 21 a6 3d e2 36 16 be 38 53 16 3e
       0.11784715 0.081119165 -0.14669374 0.14680183
0002e0 81 f8 3b bd 0d 48 01 3e a6 c8 1a 3e e3 95 54 bc
       -0.04589129 0.12625141 0.15115604 -0.012975189
0002f0 47 41 ce bc e1 37 fc bd d8 a1 a4 3d 8b cc 04 bc
       -0.025177611 -0.123153456 0.08038682 -0.0081054075
000300 ec 4a 9b bd 55 a5 8d bd 5a 32 9f bd 00 e7 03 3e
       -0.075826496 -0.069163 -0.07773276 0.12881088
000310 af 9e b6 bd ae 30 54 3d e1 5d 35 3e f6 f1 13 be
       -0.08916985 0.051804237 0.17711593 -0.1444777
000320 8c 2d 3b be 03 fd 71 3d ab c0 96 3d 26 c5 69 bb
       -0.18279094 0.05907918 0.07360967 -0.0035670488
000330 7a 74 e6 ba a3 6f 75 3d 22 23 1f be c9 9f c1 bd
       -0.001758232 0.05992092 -0.15540746 -0.09454305
000340 f8 84 24 be fa fd 8f 3d 26 78 38 be 93 e2 2e 3e
       -0.16066349 0.07030864 -0.18014583 0.17078619
000350 da 72 9b 3d 52 27 61 bd 08 60 8e 3d 85 a4 1d 3e
       0.075902656 -0.05496914 0.0695191 0.1539479
000360 13 fb a3 bd dd 51 b6 3d ce 4d ae bd c7 40 26 3e
       -0.08006873 0.08902333 -0.08510934 0.16235648
000370 4f e7 81 3d 82 c8 c4 3b 72 00 5b 3d 06 0f be bb
       0.06342947 0.0060053477 0.05346722 -0.005800131
000380 8a cb 2b 3c b0 d0 81 3c 22 7e 29 bd 1e 9e d0 bd
       0.010485539 0.01584658 -0.041380055 -0.101864085
000390 e5 c3 a6 bd c6 40 50 bd 52 dc 02 3e fe 48 6a bd
       -0.08142833 -0.050843023 0.12779358 -0.057198517
0003a0 3b bc 90 bd 99 cd c3 bd 5b f9 29 bd f0 3f 00 be
       -0.07067152 -0.09560699 -0.04149757 -0.1252439
0003b0 6f 1a 64 3d 7e 9b 23 3d d7 70 3e 3c f7 56 df bc
       0.05568927 0.03994321 0.011623583 -0.027263148
0003c0 d0 71 37 3d 55 e8 0d be 70 57 d8 bc c9 63 4d 3e
       0.044786274 -0.13858159 -0.026408881 0.20057596
0003d0 a9 a4 91 bd 10 ce 32 be cf a3 30 3d 7b f0 03 3e
       -0.071114846 -0.17461419 0.04312497 0.12884705
0003e0 eb 5e a9 bd 17 df bc bd 70 ec 13 3e f1 29 24 bd
       -0.08270057 -0.092222385 0.14445662 -0.04007906
0003f0 79 0a 90 bc 32 0f 4f 3d 11 de f5 bc 95 b5 9b 3c
       -0.017583119 0.0505516 -0.030013116 0.019007483

gat_layers.0.att_src f4 [1, 4, 64]
000000 fe f5 a1 3d 59 19 5f bd 88 6f af 3e 88 75 e5 bd
       0.079082474 -0.054467533 0.3426478 -0.11204058
000010 32 7b 99 be 4f ec 92 3e e9 80 b9 bd 51 2e 2b 3d
       -0.29976803 0.28695914 -0.09057791 0.041792218
000020 13 11 03 3e 26 6d 6e bc 78 9d 97 be e9 34 b1 bd
       0.12799482 -0.01455239 -0.29612327 -0.0865267
000030 79 76 4b 3e 15 50 8e 3d 01 4c 9b 3e 5e 98 05 3e
       0.19869412 0.06948868 0.30331424 0.13046405
000040 68 67 77 3e 69 55 06 3e 03 fb 3b 3e 54 23 8b 3e
       0.2416054 0.13118519 0.18357472 0.2717539
000050 7a 31 b0 3d 36 91 de 3b 93 74 38 be bf 92 d1 bd
       0.08603187 0.006792213 -0.1801322 -0.10233068
000060 52 c6 91 3e 35 9a 0f be 8a dd 2d be ab 46 f4 bd
       0.2847162 -0.14023669 -0.16979042 -0.11927541
000070 1f 63 3b 3e a0 f0 43 be 99 99 0a be 3a 6f 57 be
       0.1829953 -0.1913476 -0.13535155 -0.21038523
000080 28 98 64 3d b5 aa 4a 3e 23 20 57 3e b6 18 32 3e
       0.05580917 0.19791682 0.21008353 0.17392239
000090 88 b6 7f be a3 d2 1d be b6 03 8a 3e 7e 7b 00 3e
       -0.24971974 -0.15412383 0.26955956 0.12547109
0000a0 0a 1b 3c 3e f3 dc 97 be ac 82 71 be 28 62 0e 3e
       0.1836969 -0.29660758 -0.23585004 0.13904631
0000b0 53 c1 b9 be 9b 8d 6e 3e e0 48 15 3d cb 81 4c be
       -0.36280307 0.23296206 0.036446452 -0.19971387
0000c0 e9 a5 7a be 2c 29 c5 3d 75 2b 6a 3e f7 1b 1b be
       -0.24477352 0.096269935 0.2286814 -0.15147386
0000d0 78 ca 19 be 30 3a 42 be 65 e8 20 3e 72 44 93 3e
       -0.15018642 -0.1896751 0.15713651 0.28763157
0000e0 b2 86 53 3e a9 f4 fc bc bc ae e2 3d 14 c0 27 be
       0.20656851 -0.030878382 0.11068484 -0.16381866
0000f0 01 43 79 be c7 f5 46 3e 8d 13 76 be 3c 76 b9 3d
       -0.24341966 0.19429694 -0.24030896 0.090557545
000100 8b 61 57 3e 87 7e 94 3e 05 2f 83 3e e8 4b 20 3e
       0.21033303 0.29002783 0.2562181 0.15653956
000110 1c fd 15 bc 97 61 8e be 46 d7 33 be ef d5 a0 3d
       -0.009154584 -0.2780883 -0.17562589 0.078533046
000120 41 76 74 3e a1 e0 66 be 17 74 3e 3d 73 00 b6 3d
       0.23873235 -0.22546627 0.04649743 0.088868044
000130 dd cf fe bb 44 a8 16 be 49 2e 83 3e f2 41 09 bd
       -0.007776244 -0.14712626 0.2562125 -0.033510156
000140 f0 64 77 3e ae 38 9a 3e fb ee 26 3c 95 51 2b be
       0.24159598 0.30121368 0.010188813 -0.1673034
000150 d7 19 57 3e fd 65 a4 bd 94 23 5f bb 6e 80 38 bc
       0.21005951 -0.08027265 -0.0034048306 -0.011261089
000160 04 d1 31 be cc 95 0f be d3 b1 6d 3e 14 57 d2 bd
       -0.1736489 -0.14021987 0.23212366 -0.10270515
000170 8b 52 fe bd 63 22 9f bd 08 9f 8f 3e 8d cc 89 3e
       -0.124180876 -0.077702306 0.2805102 0.26913872
000180 9f 85 8b bd bb 5c 8c be 3e c4 5e 3e 18 d6 42 bc
       -0.068125956 -0.27414498 0.21754548 -0.011891864
000190 0f ec 8c bd 1f 32 4c 3e cf 8b 59 3d 47 ab ba 3d
       -0.06880962 0.19940995 0.053111847 0.091147
0001a0 29 f6 19 3d b4 39 83 3d 4a 04 97 3e 88 65 05 3e
       0.037588272 0.064074904 0.2949546 0.13027012
0001b0 0a ed 16 bd a0 8a 21 3d 0e d3 65 be e5 ee 80 bd
       -0.03684715 0.039438844 -0.22443792 -0.062955655
0001c0 47 84 96 3d 4a c3 08 3e ee 19 58 3e 03 c3 5b be
       0.07349449 0.13355747 0.21103641 -0.2146111
0001d0 e8 43 0e 3e f3 c0 92 3e 16 20 1d 3e 79 ce 15 bc
       0.13893092 0.28662834 0.15344271 -0.009143465
0001e0 ca 2a 6d be 72 e3 c5 3d 8f 25 87 bd 12 45 c8 bd
       -0.23160854 0.096625224 -0.065989606 -0.09778799
0001f0 19 b9 65 3e c2 4d 2b 3e 83 02 6b bd be b4 7e 3e
       0.2243389 0.16728881 -0.057375442 0.24873635
000200 aa e3 ae be 12 9f 71 be 6c 0d 4e bd f6 7e 1b 3e
       -0.3415807 -0.23595837 -0.05030577 0.1518515
000210 13 ea 87 be 6d 10 1b be 65 86 4a be 5f b5 b9 3d
       -0.26545772 -0.15142985 -0.1977783 0.09067797
000220 5e f0 4e 3e 73 19 22 3e ed f5 16 be d8 5c 87 3e
       0.2020888 0.1583002 -0.1474225 0.26438022
000230 9c de b3 bd 91 6e 64 3e d9 3e 79 3e 04 91 8c 3d
       -0.08782694 0.22307803 0.2434038 0.06863597
000240 78 04 a6 3d 72 fd e3 3d 88 93 86 be 13 2a 13 be
       0.08106321 0.11132325 -0.26284432 -0.14371519
000250 71 5c 96 be 97 a7 9f bd 23 d8 c1 3d fd 6b 92 be
       -0.29367402 -0.07795637 0.09465053 -0.28598014
000260 0e f2 b1 3b 31 e6 15 3e c6 58 27 3e a6 0b 33 be
       0.0054304665 0.14638592 0.16342458 -0.17484912
000270 72 13 be bd 97 9b 1e ba 10 a8 67 be e5 33 93 3d
       -0.09281053 -0.00060504064 -0.22622705 0.071876325
000280 f4 99 78 be 0e 62 7d 3d c1 62 99 3e 99 ae 7f be
       -0.24277478 0.06186109 0.29958156 -0.24968947
000290 52 02 39 be 02 a2 1e be f5 b2 b0 bd 78 64 30 3e
       -0.18067291 -0.15491489 -0.08627883 0.17225826
0002a0 68 6e 72 be ba be 85 3e 1a 77 61 3e 83 7b 1f bc
       -0.23674929 0.26122075 0.2201809 -0.009734037
0002b0 ee 0e 83 3e 00 c8 c2 bd 3b a1 61 be f7 fa f1 3d
       0.25597328 -0.09510803 -0.22034161 0.11815446
0002c0 86 5d 45 bd 20 eb af bd cb 7b d5 bd 6f d1 96 be
       -0.048184894 -0.085897684 -0.10424002 -0.2945666
0002d0 a3 93 63 be f4 8d 8d 3d bf 8c be 3d b3 e2 3e be
       -0.22224288 0.06911841 0.09304189 -0.18641166
0002e0 be 27 99 bd 0b ab 89 3e b1 f3 e7 3d 9b 17 4b 3e
       -0.07478283 0.26888308 0.11325777 0.19833224
0002f0 9c 28 98 3e 26 db 65 be ae b7 7b be 69 82 3d 3e
       0.29718482 -0.2244688 -0.24581787 0.18506779
000300 48 63 41 be 67 b5 8e 3e f8 11 42 be 25 93 22 be
       -0.18885529 0.27872774 -0.18952167 -0.15876444
000310 b0 b6 54 3e d6 9d 8e 3e 7e 7b 8c be fc 22 28 3e
       0.20772815 0.27854794 -0.27437967 0.16419595
000320 9e 32 1d 3e e7 14 ec bd 8b f0 e9 3d 8c a1 7d 3d
       0.1535134 -0.11527424 0.11422833 0.06192164
000330 76 5f 10 bd 78 a5 06 be b4 e8 50 be 8f 2a 6f 3e
       -0.03524729 -0.13149059 -0.20401269 0.23356079
000340 6a 63 85 3e 9d da f0 bd ef 67 b8 bb 99 e5 4d 3d
       0.2605241 -0.11760447 -0.005627624 0.05026779
000350 d0 a8 f1 3c d0 b5 12 bd 0d 6b 54 3e e6 db 23 be
       0.029499441 -0.03581792 0.20743962 -0.16001853
000360 91 92 9e 3e 75 4b 67 3e 76 47 12 bd c1 7f 50 3e
       0.30971196 0.22587378 -0.03571268 0.20361234
000370 a9 62 8c bd c3 ef 74 3e 06 08 97 3e fa f9 a5 bd
       -0.068547554 0.23919587 0.2949831 -0.0810432
000380 15 d9 b9 bc 2c fb bf 3d 4e 69 a0 be 5a 57 b8 3c
       -0.02268652 0.09374079 -0.3133034 0.02250259
000390 36 30 08 be 21 f7 08 bd bd 4d 58 be 2f 44 94 3e
       -0.13299641 -0.033438805 -0.21123405 0.2895827
0003a0 11 43 27 be 8f 7c 48 3e 9c 62 89 bd 5d ff 3d 3e
       -0.16334178 0.19578765 -0.06708261 0.18554445
0003b0 ca ad e1 3d d3 6f 7d be 80 00 54 be 2e 8a e7 bd
       0.11019476 -0.24749689 -0.20703316 -0.113056526
0003c0 a9 70 2c be 38 b3 74 be a0 b7 50 bd 97 88 77 be
       -0.16839851 -0.23896492 -0.05095637 -0.24173199
0003d0 58 f6 86 3e 85 8e 51 3e e6 e1 2f be 7f 85 63 bd
       0.2635982 0.20464523 -0.17176017 -0.055547234
0003e0 fa ee 18 be ae 85 38 bc df 92 be bd d5 a7 17 be
       -0.14934912 -0.0112623405 -0.09305357 -0.14810117
0003f0 40 34 d2 3d 3a 6a 81 be d2 58 5e be 4f 02 4c 3e
       0.10263872 -0.25276357 -0.2171357 0.19922756

gat_layers.0.att_dst f4 [1, 4, 64]
000000 35 56 88 be 47 46 8b 3d d7 09 da 3d 31 79 b7 bc
       -0.2662827 0.06800514 0.10646408 -0.022396656
000010 15 cc a1 be b1 56 11 3e a3 24 cb bd f3 b3 f9 bd
       -0.31601015 0.14193226 -0.09919097 -0.12192526
000020 3b 11 1e be 98 de c2 3d 2d 29 cc bd a5 02 38 be
       -0.1543626 0.09515113 -0.09968791 -0.17969759
000030 eb 9d 37 be d2 01 ec bd d3 4f 28 3d 1b 3c 47 be
       -0.17931335 -0.11523785 0.04109175 -0.19456522
000040 16 87 a0 3d 17 66 20 3e cd 45 93 be c0 8b 8d be
       0.078382656 0.15663944 -0.2876419 -0.27645683
000050 19 b5 d0 bd 29 f9 de bd 18 2c c6 bd 0e 12 cd bc
       -0.10190792 -0.10887367 -0.09676379 -0.025033023
000060 2e 18 41 be fe fb 70 3e f9 97 f0 3d 51 a9 0a be
       -0.1885688 0.23533627 0.117477365 -0.13541152
000070 03 e5 82 3e b9 26 c0 bd 6e 1d a6 bc 8e c8 5f 3e
       0.25565347 -0.09382386 -0.020277705 0.2185385
000080 bf ee 49 3e d5 93 24 3d 96 16 f4 3d e3 3c 6d 3d
       0.1971998 0.040180046 0.119183704 0.057919394
000090 02 97 83 3e dd f4 39 bb 9e 3b 57 3e 09 bf 91 be
       0.25701147 -0.002837471 0.21018836 -0.2846606
0000a0 2b 28 a5 3d 89 b5 76 3d 8c 30 48 be b6 09 6a 3e
       0.08064302 0.06023172 -0.19549769 0.22855267
0000b0 dc a5 27 be 41 37 52 be e8 53 82 3e 8b fd 91 bd
       -0.16371864 -0.2052889 0.2545464 -0.071284376
0000c0 b9 da 63 3e 0a b3 f7 3d 56 05 ea 3d 5b 7d b8 3d
       0.22251405 0.12094696 0.11426799 0.09008285
0000d0 8d 4b 5b 3d 8f b1 8b 3b c8 66 75 3e d9 55 a7 bd
       0.053538848 0.00426311 0.23964989 -0.08170671
0000e0 f6 8a 83 bd 23 de 4c be a1 4f 81 3d e7 08 9f 3e
       -0.06422989 -0.20006613 0.06314016 0.3106148
0000f0 82 45 8f bd db 20 52 be f1 93 52 bc 5f 27 41 3e
       -0.069956794 -0.20520346 -0.012852655 0.18862675
000100 42 dd 87 be e8 2b 83 3d 1e 4f 51 bd 0a 54 92 3e
       -0.26535994 0.06404859 -0.051100843 0.28579742
000110 70 fb a1 3d a2 4a f5 bd c5 51 d1 bc ec 38 b1 3d
       0.07909286 -0.11977126 -0.025551686 0.08653435
000120 94 8a 91 be 8f dd 2e 3e b7 57 00 bd 6e 32 dc bd
       -0.2842604 0.17076705 -0.03133365 -0.10751806
000130 4a 1a 05 3e 9e 79 51 be c3 5f fc bc fe 88 3b 3e
       0.1299831 -0.2045655 -0.030807381 0.18313977
000140 16 5a dc bd f9 64 a2 bd 00 85 86 be d7 5e 83 3e
       -0.1075937 -0.07929415 -0.26273346 0.25658295
000150 c4 57 78 3e 56 cc 8d 3e 14 a3 7a 3e 4a e4 2c 3e
       0.2425223 0.27694958 0.24476272 0.1688396
000160 a6 90 35 3e 0d bd 37 3e eb 36 f8 bd ef bd 18 be
       0.1773096 0.17943211 -0.1211985 -0.14916204
000170 ab f0 bf bc 95 2a 43 be f0 36 ca bd 86 ee 1f 3e
       -0.02343019 -0.19059213 -0.0987376 0.15618333
000180 2d a5 84 3e 10 24 86 bc ac de 43 3e 2a 49 db 3b
       0.2590727 -0.016374618 0.19127911 0.0066920714
000190 9a be a7 3b 25 ae 16 bd ed e6 75 be cc 66 8f 3e
       0.005119157 -0.03678717 -0.24013872 0.28008115
0001a0 1f 10 35 3e a1 cf 20 3e e3 49 93 3e 3b 71 30 be
       0.17681931 0.15704204 0.2876731 -0.17230694
0001b0 b5 8b b5 3d 82 b9 89 3d 10 68 53 be 67 72 93 3e
       0.088645376 0.06724836 -0.20645165 0.2879822
0001c0 6b a7 21 3e c9 fc d5 bc eb 51 65 be 09 2c b6 3d
       0.15786521 -0.026121514 -0.2239453 0.08895118
0001d0 cc 47 84 3e eb d4 70 3e 10 63 3b 3e 21 da 32 3d
       0.25836027 0.23518722 0.18299508 0.043665055
0001e0 b2 95 5c be 46 02 ac 3d 8b 98 3a be 83 11 a0 3d
       -0.21541479 0.08398871 -0.18222253 0.0781584
0001f0 3e c9 5e be 15 d0 09 3d 23 c6 18 be 39 cb 01 3e
       -0.21756455 0.033645708 -0.14919333 0.1267518
000200 10 75 0f bd 8c d5 a9 3c b5 a5 79 3d 8e 66 9d 3d
       -0.03502375 0.02073171 0.060949046 0.076855764
000210 c0 ee 63 3c f8 78 7a 3d 93 a4 85 be 35 9c e0 bd
       0.013911903 0.06115052 -0.26102123 -0.10967294
000220 19 db 5f 3c ae 97 f7 bd 69 39 16 3e 2a 32 b5 ba
       0.013663077 -0.120894775 0.14670338 -0.0013824154
000230 22 26 65 be 70 66 ae 3d 3b 84 0b be 46 d2 fa 3d
       -0.22377828 0.08515632 -0.1362466 0.12247138
000240 ff a8 10 be 56 c4 b2 bd c6 03 1f 3d 7d f7 54 3e
       -0.14126967 -0.08728854 0.038821958 0.20797534
000250 7e e7 84 3b 64 5f 8a 3e 90 63 1a bd 59 ad 26 be
       0.0040559163 0.27025902 -0.037692606 -0.16277064
000260 78 d3 95 3e b1 f9 e4 3d 3a 17 40 3e c0 a5 78 3e
       0.292629 0.11180437 0.1875886 0.24281979
000270 e3 1c 11 3e 93 d1 af 3d b3 b6 35 3e 61 86 3d 3d
       0.14171176 0.08584895 0.17745475 0.04627073
000280 16 5b 68 be b5 5a 64 be 6f 18 33 3e 4a fc 65 bc
       -0.22690997 -0.22300227 0.1748979 -0.014037201
000290 67 49 31 be f9 85 91 bd df 03 15 be 90 3b 8e 3e
       -0.17313157 -0.071056314 -0.14552258 0.27779818
0002a0 cc bf 09 3e 07 87 d1 3d c9 0a 04 be 55 55 93 3e
       0.13452071 0.102308325 -0.12894739 0.2877604
0002b0 67 f3 67 3d e1 97 69 3e 94 0b 3d bd 87 b8 91 be
       0.05662861 0.22811843 -0.04615362 -0.28461096
0002c0 2f 0a f7 3d ff d8 06 be 88 1f 18 be f4 3f 04 3d
       0.12062489 -0.13168715 -0.14855778 0.032287553
0002d0 63 60 2e 3e 15 80 fd bd 6d 1a 95 3d 7b 7b 33 be
       0.17028956 -0.12377945 0.07280431 -0.17527573
0002e0 53 a4 50 be 40 bf 66 3e f2 a3 54 3d 3b 23 01 3e
       -0.20375185 0.22533894 0.051914163 0.12611096
0002f0 a2 7e 51 bc 80 77 07 be 54 47 ce 3d bc 72 99 3e
       -0.012786539 -0.1322918 0.100721985 0.29970348
000300 3c 92 32 bc bd df a9 3d f1 db 5f be d9 7b 2d 3e
       -0.010899123 0.08294628 -0.21861245 0.16941775
000310 07 d0 32 3e d8 13 81 3c bf 27 01 be 1a 53 55 be
       0.17462169 0.015756533 -0.12612818 -0.20832482
000320 73 dc 7d be a4 85 04 3e f4 36 09 be d0 da 99 be
       -0.24791126 0.12941605 -0.13399869 -0.30049753
000330 bc ac 11 3d 73 42 86 3e 24 e5 5a be 5c 7e 45 3d
       0.035565123 0.26222572 -0.21376473 0.04821621
000340 93 6e 67 be 73 0c 47 be f0 2a 69 bd d1 ff e9 3d
       -0.22600774 -0.19438343 -0.056925714 0.11425746
000350 c8 3d c3 3d 8b a0 9a be da 28 91 be 94 62 5f bd
       0.09533268 -0.3020061 -0.2835148 -0.05453737
000360 e2 ae 84 3e 4d f7 1a 3d 80 b2 e5 bc 5e de 8f 3e
       0.25914675 0.0378335 -0.028039217 0.2809934
000370 c0 b4 56 3e 5c 61 14 3d 7c b6 86 be ac 85 6f be
       0.20967388 0.03622566 -0.263111 -0.23390836
000380 21 75 3b 3e 4f 5b 9a 3e e9 06 08 be 5c a8 42 bd
       0.183064 0.30147788 -0.13283886 -0.04752384
000390 2a 98 9c 3e a7 26 40 bd 9c c9 82 be c2 92 10 be
       0.30584842 -0.04691186 -0.2554444 -0.14118484
0003a0 b8 8e 64 be 13 4a 00 3e 5d 0b 99 3c cf 82 fe bc
       -0.22320068 0.12528257 0.018682176 -0.031068234
0003b0 77 c0 24 3e 63 64 15 3e 6e 0a 34 3e eb 83 15 be
       0.16089045 0.14589076 0.17582104 -0.14601104
0003c0 9d 82 41 3d a5 0b 85 3e e1 67 b0 3c 9a 9c 45 3e
       0.047243703 0.25985447 0.021533908 0.1929802
0003d0 1c 93 4d 3e 63 8e 0f 3c 87 91 cf 3a 08 df 4d be
       0.20075649 0.008761975 0.0015836217 -0.20104611
0003e0 47 a7 bd bd 39 68 96 bc d6 99 fa 3d 87 25 12 bc
       -0.09260421 -0.018360244 0.12236373 -0.00892008
0003f0 fe 99 46 3e b4 88 81 3d a7 64 a0 bd a5 45 23 be
       0.19394681 0.06324902 -0.07831698 -0.15944536

gat_layers.0.bias f4 [64]
000000 9d 83 73 bc ed 21 8f bc c8 8a a8 bc f8 27 48 bc
       -0.014862922 -0.017472232 -0.020573989 -0.012216561
000010 12 69 b2 39 b7 e5 78 3c e3 1a 77 3b 00 00 00 00
       0.0003402909 0.015191487 0.0037705235 0.0
000020 04 d6 20 bc 1d 15 d4 bb 7e 81 47 bc 64 da 82 bb
       -0.00981665 -0.0064722435 -0.012176869 -0.0039933193
000030 00 00 00 00 86 ac 20 bc 94 be 2d b9 da 19 bf bc
       0.0 -0.009806758 -0.00016569562 -0.023327757
000040 08 9c 73 bb 04 23 8f bc 76 ed 30 b9 6d a8 02 3b
       -0.003717186 -0.017472751 -0.00016873129 0.0019936815
000050 78 98 5c bc 84 b8 c8 bb 2e 1e 46 3c 4a 21 a5 bc
       -0.013464086 -0.0061255116 0.012092156 -0.020157475
000060 f1 fd cd bb 49 ed ef b9 6f a3 91 39 72 fd a2 ba
       -0.0062863757 -0.00045762424 0.00027778323 -0.0012435152
000070 d6 e1 c8 39 58 02 a9 bb 93 0f ec bb 54 0e 28 bc
       0.00038315234 -0.00515775 -0.007204005 -0.010257322
000080 cb e0 0c bc 00 00 00 00 95 34 64 3b e8 6e bb bb
       -0.008598517 0.0 0.003482138 -0.005720008
000090 84 49 77 bc 19 ff e7 b9 c5 b4 f3 ba 00 00 00 00
       -0.015093211 -0.00044249816 -0.0018593302 0.0
0000a0 00 00 00 00 00 00 00 00 fa 1e ee 3c 12 13 6b bb
       0.0 0.0 0.029067505 -0.003586952
0000b0 00 00 00 00 55 82 3f bc c8 85 9e 3c 14 21 05 bc
       0.0 -0.011688788 0.019350901 -0.008125562
0000c0 24 b2 58 bb 83 1c 12 bc 7b 43 42 bc 66 1f f5 3c
       -0.0033065164 -0.008917931 -0.011856909 0.029922199
0000d0 ea 43 2e bb 00 00 00 00 ff fe 5b 3b bf af 16 3c
       -0.0026590773 0.0 0.0033568738 0.009197175
0000e0 58 f7 05 bc 00 00 00 00 8c 05 ad bb d5 1e 89 bc
       -0.008176647 0.0 -0.0052802023 -0.016738335
0000f0 00 00 00 00 cc a6 5f bc 6f c4 2d bc af 58 e2 bb
       0.0 -0.013650607 -0.010605915 -0.0069075446

gat_layers.0.lin.weight f4 [256, 36]
000000 e6 bd 22 bd 94 80 0a 3c 98 ad f0 3d da 7c 10 3e
       -0.039731883 0.008453507 0.117518604 0.14110127
000010 d6 12 a3 bc b7 d9 46 be c2 82 8a bd 34 d0 cc 3d
       -0.019906443 -0.19418989 -0.06763221 0.10000649
000020 c4 42 00 be 2a cd cc 3d 00 84 3c bd 96 b5 c4 bd
       -0.12525469 0.100000694 -0.046024323 -0.09604947
000030 9c 36 9a bd 14 64 a6 bd 84 11 87 3d 0d 9f 02 be
       -0.07529947 -0.08124557 0.06595138 -0.12755986
000040 1e ec 5a bd 42 c2 dd 3d 78 d1 c1 3d 86 99 57 bd
       -0.053447835 0.10828067 0.09463781 -0.052636646
000050 7e 1d 62 bd 41 5e 4e 3c 66 3a 5c bd da e1 d8 3d
       -0.055203907 0.012595714 -0.05376663 0.10589953
000060 9b 26 d1 bd 8a af ef bd 8b 89 ea bd bc d3 6d bd
       -0.102124415 -0.11703403 -0.114520155 -0.058063254
000070 51 17 13 be 0c e8 0f be 82 58 1d bd 22 f9 3d bd
       -0.14364363 -0.14053363 -0.038414486 -0.04638017
000080 2a 1a ed 3d d2 cb c5 3d fb 3c 99 3c 47 24 76 bc
       0.11577256 0.09658016 0.018705836 -0.015023298
000090 b9 df a4 bd ec b4 1e be f9 78 67 bd 24 ec 04 be
       -0.08050484 -0.15498704 -0.056511853 -0.12980705
0000a0 2d 0c d4 bb d5 a2 80 3d ec c1 13 be 1d 65 91 bd
       -0.006471178 0.06281058 -0.14429444 -0.07099364
0000b0 7d 72 53 3d 00 b4 06 b9 08 c8 87 bc 97 95 0f 3e
       0.051622856 -0.00012846291 -0.016574875 0.14021908
0000c0 e4 cb 55 bd 77 53 f5 bd 3a ed d0 bd 90 b1 97 bd
       -0.0521964 -0.1197881 -0.102014974 -0.07406914
0000d0 9a 8e ab 3d da df 8f 3d 94 46 4a 3d 40 41 05 3d
       0.083768085 0.07025118 0.049383715 0.03253293
0000e0 97 83 0e 3e 0f 35 fd bd 90 7a d6 bd f3 ac 8f bc
       0.13917385 -0.12363636 -0.10472596 -0.017538523
0000f0 23 67 dd 3d 47 b3 0b be 19 e3 42 bd 07 63 9a 3d
       0.108106874 -0.13642608 -0.04757986 0.07538419
000100 5e c0 da 3d b4 b2 0b be 01 ec d0 bd e6 a9 e2 3d
       0.106812224 -0.13642389 -0.10201264 0.11067562
000110 78 25 8c 3c 21 ec 23 3d 70 cc 19 be e1 fa e4 bc
       0.01710771 0.040020112 -0.15019393 -0.02795166
000120 06 75 87 3a 08 18 dc 3c 97 13 1d 3e 65 a5 1c 3e
       0.0010334558 0.026866928 0.15339504 0.15297468
000130 c4 2c f3 bd e9 3d 02 be 22 c3 0a be 40 36 85 3b
       -0.11873773 -0.1271893 -0.13551 0.004065305
000140 ee 63 1f 3e 0a b6 bf bd c8 9b 97 3d e4 ae b9 bc
       0.15565464 -0.09360893 0.0740276 -0.022666402
000150 dc 4d d5 3d 00 8c 3f 3c 24 a4 66 bd 8c c9 ab bd
       0.10415241 0.011691093 -0.05630888 -0.083880514
000160 13 00 d8 bd 61 dc ff bd 9c 1a 96 3d d7 bc f6 bd
       -0.10546889 -0.12493206 0.07329294 -0.12047737
000170 56 7f 06 be 68 52 2f 3e 94 c9 23 bd 29 f1 5f 3d
       -0.13134512 0.17121279 -0.03998716 0.054673348
000180 35 6a 3f 3d 14 2f 2d bd f3 64 a6 bd 64 ec f9 bd
       0.046732146 -0.042281225 -0.08124723 -0.12203291
000190 d8 3e ac 3d 2a 97 04 be ce 7d 0e 3d 82 c0 b5 3d
       0.08410424 -0.1294829 0.034787945 0.088746086
0001a0 c0 4f 61 bb b4 87 0f 3d 2d 67 25 3d 25 e4 ae bd
       -0.003437981 0.035041526 0.0403816 -0.08539609
0001b0 b7 70 b8 bd 7a 6c 2f bb 50 88 8c 3d 5e 2e c9 bd
       -0.09005874 -0.0026767538 0.06861937 -0.09823297
0001c0 44 c2 ad 3d 46 f5 88 bd 31 36 a9 3d 10 0d ae 3c
       0.08484319 -0.06687407 0.08262289 0.021246463
0001d0 10 e7 0e bc 36 40 a2 bd a0 8f a1 3b 6e 26 df 3d
       -0.008722082 -0.079224035 0.0049304515 0.10896002
0001e0 a4 ea 39 3d 85 e0 03 3e 10 82 ae bd 0e c1 84 bd
       0.045389786 0.12878616 -0.08520901 -0.06482135
0001f0 e8 e2 7a 3d 00 60 b0 ba 98 29 a9 bd 62 cb c2 bd
       0.06125155 -0.0013456345 -0.082598865 -0.095114484
000200 1e 09 d0 3d e2 1f be 3d d9 fb 03 3e 03 29 4a 3d
       0.10157989 0.09283425 0.12889041 0.049355518
000210 75 d9 8c 3d 02 4f e0 3d 48 86 10 3d 8c 7c e1 bd
       0.06877414 0.109525695 0.03528431 -0.110100836
000220 09 1c 02 3e 0f 0f 2a bd a3 f3 db 3b 0b 98 0e 3e
       0.12706007 -0.041518267 0.0067123934 0.13925187
000230 ca da ed 3d e7 bd ce 3d 5f 05 7c 3d 03 6f 9f 3d
       0.11613996 0.10094815 0.06152856 0.07784846
000240 bc dc c9 bd b8 4b c9 3d d7 e3 b6 3c 4f ce 45 3d
       -0.09856555 0.09828895 0.02232544 0.048292454
000250 c0 ce 25 bd 08 d5 86 bc 37 02 69 bc 42 fe c5 3d
       -0.040480375 -0.016459003 -0.0142217195 0.096676365
000260 46 6e ec 3b 37 b3 ad bd 55 92 0b 3e e6 0d c8 3d
       0.007215294 -0.08481448 0.1363004 0.09768276
000270 e0 7b 92 3c 40 8c c0 bb 30 4e 52 3d 2c 36 59 3d
       0.017881334 -0.005876094 0.051344097 0.053030178
000280 f7 4d 12 3e f8 1f 60 3d c0 9e 68 bc 75 96 86 bd
       0.14287554 0.054717988 -0.014198005 -0.06571666
000290 f7 05 a6 bd ac 0e c9 bd 06 89 1b bd c1 d0 42 be
       -0.081066065 -0.098172516 -0.037972473 -0.19024946
0002a0 e3 03 97 3d 90 a7 27 3c 0b 33 b1 bc 6a b9 00 bd
       0.07373788 0.010232821 -0.021630784 -0.031426825
0002b0 3a ab b2 3c 08 02 d4 3d be fa ec bc 0f 7c a1 bd
       0.021810163 0.1035195 -0.028928157 -0.078849904
0002c0 e6 13 5e bd 08 50 47 bd 57 92 0c be 6a ae 00 3e
       -0.054218195 -0.048660308 -0.13727699 0.12566534
0002d0 53 88 97 bc 77 1b 65 3d 2d f6 12 3e ff 57 0d be
       -0.018497622 0.055934396 0.14351721 -0.13803099
0002e0 fb 0f 56 bd 9f fe d9 bd e0 2a 0e be 73 c9 f1 bd
       -0.052261334 -0.10644268 -0.13883543 -0.118060015
0002f0 b9 a3 cf bd 66 f6 ec 3d 43 ff 11 3e 60 94 04 be
       -0.101386495 0.11570434 0.14257531 -0.12947226
000300 84 6b ce bc 80 14 f7 3a 58 05 5b bd 80 94 59 bd
       -0.025197752 0.0018850714 -0.053471893 -0.053120136
000310 72 24 6a bd f7 44 04 3e 14 b7 a8 3d 7c 9e ee bd
       -0.057163663 0.12916933 0.082380444 -0.11651322
000320 e6 94 29 bd 40 59 23 3e 5c 14 7c 3d fa 8b 80 3d
       -0.041401766 0.15952015 0.061542854 0.062766984
000330 6b 97 62 bc d8 e9 06 3d d5 09 2a bc ab a3 88 bd
       -0.013830046 0.032937855 -0.010378321 -0.06671842
000340 fe bc 9f 3d 3a 93 65 bd 68 15 66 bd 8f 71 ec bd
       0.07799719 -0.05604861 -0.05617276 -0.11545097
000350 ba f3 fa 3d be 0b 3e bd 88 c9 c8 bc 40 00 af bd
       0.122535184 -0.046397917 -0.02451016 -0.085449696
000360 f0 a6 29 bd 76 22 3d 3e 6b 0f 29 be 75 72 45 3d
       -0.04141897 0.18470177 -0.16509788 0.048204858
000370 9d ce af bc 04 21 e7 3d 43 1d e2 bc ca 30 82 bd
       -0.021460826 0.11285594 -0.027601844 -0.06356962
000380 a6 a8 61 bd c0 2c 0e 3d 9b a2 d3 bd 56 20 a4 3d
       -0.055092476 0.034710646 -0.10333749 0.0801398
000390 cc ef 1e 3d dc d1 ef bd c0 c4 92 bd b5 57 02 be
       0.038802907 -0.117099494 -0.07166433 -0.1272877
0003a0 d6 be fa 3d 9e 6f ea bd 80 ca e2 3a 60 c5 20 3c
       0.1224343 -0.114470705 0.0017302781 0.009812683
0003b0 0c d3 b2 bc a3 dc 0b be 44 c2 ed bd 78 97 d3 3d
       -0.02182915 -0.13658385 -0.11609319 0.10331625
0003c0 5e ed 78 3d 6e 17 7a bd c7 89 b4 bb 40 95 da 3c
       0.060773246 -0.0610575 -0.0055095884 0.026682496
0003d0 57 95 b8 bd 7a 91 6a 3d 58 49 93 bc 14 1f 0c 3d
       -0.09012859 0.057267644 -0.017979309 0.034209326
0003e0 fa f8 ad bd 23 ec bf bd d8 72 01 3e a2 2a 2f 3e
       -0.08494754 -0.093712114 0.12641466 0.17106107
0003f0 79 9b 3f bc 67 42 84 bd de 97 b8 bd be f3 8a bd
       -0.011694782 -0.06457978 -0.09013341 -0.067847714

gat_layers.1.att_src f4 [1, 4, 128]
000000 97 9f bc 3d 05 01 c0 3d bd c7 7f bd 9e 0c e7 3d
       0.09210127 0.093751945 -0.062446345 0.112817034
000010 45 b3 0a 3d 09 3f 99 bd 78 b7 0a 3e e2 1a 20 3d
       0.03386237 -0.07482726 0.1354655 0.039088137
000020 48 cd 0d bd 87 3d 6e 3e 41 74 24 3e ab 74 51 be
       -0.0346196 0.23265658 0.16059972 -0.20454662
000030 53 a7 4d be cc 4a 31 be 5a 94 9d 3d e9 06 1b be
       -0.2008336 -0.17313689 0.076943114 -0.15139355
000040 fd ab 23 3c 74 d7 25 bd 98 72 75 3d 1e 79 9f bd
       0.009989736 -0.040488675 0.05992374 -0.07786773
000050 10 42 25 3e 88 db 36 3e 4d 55 ec bc 6d 8d 62 be
       0.16138482 0.17857182 -0.028849268 -0.22124262
000060 c5 7b 4d 3e d7 d0 1e be d8 17 df 3d ca 89 59 bd
       0.20066746 -0.15509354 0.1089322 -0.05310992
000070 cd d1 5d 3e a9 cc 70 bd 38 40 25 3e 8c 22 cb 3b
       0.21662064 -0.05878893 0.16137779 0.0061991867
000080 1c e1 3b 3e 3a d9 86 bd 95 81 11 be 76 55 2d bd
       0.18347591 -0.065844014 -0.14209588 -0.04231783
000090 32 12 49 3e 2d d2 13 bd c9 15 14 3d 83 fa f2 3d
       0.19635847 -0.03608911 0.03615359 0.118641876
0000a0 57 a0 19 bd 56 33 9a bd 75 d4 47 bd 1a 2d 82 3d
       -0.037506428 -0.07529323 -0.0487866 0.06356259
0000b0 d7 fc 19 3e fc 51 16 3d b0 77 1f bc d7 b5 88 3c
       0.15037857 0.03669928 -0.009733126 0.01668827
0000c0 0e a0 98 bd 08 68 11 3e da 8f 21 3d 05 4f ec 3d
       -0.07452403 0.14199841 0.03944383 0.11538509
0000d0 17 66 57 be 4c 57 f7 3d 88 8f 29 bd 1e be 39 3e
       -0.21035038 0.120771974 -0.041396648 0.1813893
0000e0 45 04 97 bd 87 1a e6 bd e7 cd 1e be 57 8e 1b 3e
       -0.07373861 -0.112355284 -0.15508233 0.15191017
0000f0 21 cc 5f be 16 fa ff bd fb 3c cd bd 58 0c 1c 3e
       -0.21855213 -0.12498872 -0.10021397 0.15239084
000100 95 38 24 bd 14 9e 82 be c0 a6 f7 bd 42 6b d3 bd
       -0.040093023 -0.2551123 -0.12092352 -0.10323192
000110 2f 43 f1 bb 16 77 d4 bd 60 6b 4b be 18 d2 30 be
       -0.0073627452 -0.10374276 -0.19865179 -0.17267644
000120 42 a1 89 bd 41 21 f7 bd 26 b3 41 be 2d 24 56 3d
       -0.067202106 -0.120668896 -0.18915996 0.052280594
000130 9a 3f 02 3e f9 c9 9c 3d 93 36 2d be b4 86 1f 3e
       0.12719575 0.07655711 -0.1691535 0.15578729
000140 43 a9 1b be 47 2e 12 be 09 d4 e8 bd 25 09 c0 3d
       -0.15201287 -0.14275466 -0.113685675 0.09376744
000150 0c 83 df 3d d1 0f 3b 3d 0f fc a7 bd b8 06 83 3c
       0.10913667 0.04566938 -0.08202373 0.015994415
000160 18 27 15 3e e8 c8 51 bd ad ed 94 bc 31 7d db bd
       0.14565694 -0.05121699 -0.018179739 -0.10717238
000170 d9 e8 55 3e ab fe 42 be 2b c9 4b 3c e6 ec ee 3d
       0.20889606 -0.1904246 0.012438099 0.116662785
000180 99 bc 1c 3d 2e 16 3a 3e b4 0d 3d bd 9a ca 83 bd
       0.0382658 0.18172523 -0.046155646 -0.064351276
000190 bf 98 28 3e cb cd 0e 3e f4 21 63 3a b2 c0 76 3d
       0.16464518 0.13945691 0.0008664422 0.060242362
0001a0 26 a8 e1 3d c2 db 73 bc b7 2f 70 bc 3f a4 5b bc
       0.110184 -0.014883937 -0.014659814 -0.013405859
0001b0 91 8c 29 3e 2e 8b 3c 3e f0 dc c0 bd c3 c9 b7 3d
       0.16557528 0.18412468 -0.094171405 0.0897403
0001c0 73 fc 15 3e 28 2f 30 3d 9f 05 03 be b8 20 83 3d
       0.14647083 0.04301372 -0.12795113 0.06402725
0001d0 02 3b 23 be 57 7e c0 3c 8b 16 17 3e e5 1f e1 3d
       -0.15940478 0.023497744 0.14754693 0.109924115
0001e0 fc 1a a2 3c 88 9f 0e 3c 9d 62 08 3d 81 66 a0 bd
       0.019788258 0.008705027 0.03329717 -0.07832051
0001f0 e9 9b 24 be 49 2d 3f 3e f0 33 40 bd 1c 82 9c bd
       -0.160751 0.18669619 -0.04692453 -0.07642004
000200 cb 9c 34 be 79 53 a8 3d 0a 32 55 be fc e1 09 3e
       -0.17637937 0.08219046 -0.2081987 0.13465112
000210 64 b1 81 bd 3d 3d 1b bd d9 dc bb 3d 93 48 55 3e
       -0.06332663 -0.0379002 0.09172983 0.20828466
000220 2c 1b 3a be 52 b1 fd bd 96 9b cc bd 0e a3 15 be
       -0.18174428 -0.12387337 -0.09990613 -0.14612982
000230 32 b7 9e bd bc f7 0d be c3 b5 20 be 14 7e 25 3e
       -0.077497855 -0.13864034 -0.15694337 0.16161376
000240 0f b7 29 3e 68 e6 42 be 1c b1 dd 3d d6 55 02 3e
       0.16573738 -0.19033206 0.108247966 0.12728056
000250 66 db d6 bc 37 ba 49 be 74 e5 be 3b d3 de 38 3d
       -0.026227664 -0.19699942 0.005825693 0.045134377
000260 7b ec 21 3e ee a7 5e 3d 1b fb 08 3c 7d 2c cd 3d
       0.15812866 0.05435937 0.008360649 0.10018251
000270 d4 f5 d3 bd a9 52 f0 3c 76 09 16 3e 94 c8 04 bc
       -0.10349622 0.02933629 0.14652047 -0.008104462
000280 3d ac 01 3d e8 65 44 3e 5c 20 4b be 4f 69 30 3e
       0.0316584 0.19179499 -0.19836563 0.17227672
000290 e2 61 ad 3b a8 d6 2b bd 7a 19 e0 bd 0f 2a b5 bd
       0.0052912096 -0.04195276 -0.10942359 -0.08845913
0002a0 fe b0 ac bd 27 9b 3b 3e 71 ad 5b be 27 06 3f 3b
       -0.08432196 0.18320905 -0.21452881 0.0029147954
0002b0 f7 23 0b be cf 0f a5 bd af 9e 8e bd f6 c9 0e 3e
       -0.13587938 -0.08059656 -0.0696386 0.1394423
0002c0 79 5b 11 3e 18 78 48 bc 24 e0 02 bd 52 80 ff 3d
       0.1419505 -0.012235664 -0.03195204 0.12475647
0002d0 4c 67 2c 3e b4 f2 34 be a9 dd ea bc 22 c4 80 3d
       0.1683628 -0.17670709 -0.028670149 0.06287409
0002e0 71 a8 96 3d c3 8c 4e bb 2d 91 32 3e 8c 5a 0d be
       0.073563464 -0.0031517006 0.17438193 -0.13804072
0002f0 e6 01 89 3a 83 2e 1b bc c6 0a 4f 3e 7a 99 db bc
       0.0010452836 -0.0094715385 0.20218953 -0.026806582
000300 42 ed c9 3c 4d 34 bd 3d 54 3c 2b bd 8f 47 d1 3c
       0.024649266 0.09238491 -0.04180558 0.025546817
000310 0d 20 70 bc 83 cf a3 bc 7c 14 23 bd fb 5d 31 be
       -0.014656079 -0.01999641 -0.039814457 -0.17321007
000320 13 8e 11 3e 4c 3e 08 be ce 7e 11 3b 21 c2 ac 3c
       0.14214353 -0.13305014 0.0022200826 0.021088662
000330 5a 50 5e 3d 52 64 b6 bb 9e 08 8e 3c 4f 0d 43 be
       0.054275848 -0.0055661583 0.017338093 -0.19048046
000340 32 1e 1e be e1 c2 f8 bc 56 59 42 39 d2 05 5f 3e
       -0.15441206 -0.030366363 0.00018534562 0.21779564
000350 41 b1 2e 3e 3b 4f 39 3e 31 e6 4f be 53 16 27 3c
       0.17059804 0.1809663 -0.20302655 0.010198194
000360 20 df 4c 3e db d2 3b be 7e 07 3b 3e 86 c8 f9 bd
       0.2000699 -0.18342154 0.18264577 -0.1219645
000370 08 b3 b3 b9 57 5a 9f bc f9 e7 5e 3e 8d e6 23 3d
       -0.0003427493 -0.019452257 0.21768178 0.040014792
000380 34 81 57 3e 93 de 4e 3d 0d 18 ca bd 73 0e 29 be
       0.21045381 0.050505232 -0.098678686 -0.16509418
000390 cd 8e 37 be ac 30 60 3e 28 80 f2 bd fd 2b 3d 3e
       -0.17925568 0.21893567 -0.1184085 0.18473811
0003a0 d1 c8 15 bb ea fb 2e bd 9b 8b 30 3e 65 8e 5c bd
       -0.0022855292 -0.042720713 0.17240755 -0.053846736
0003b0 64 a4 b3 bd 99 31 2c be 0a 97 3a be f2 f8 2d bd
       -0.087715894 -0.16815795 -0.1822168 -0.04247374
0003c0 10 d4 90 3d 83 4e 6f 3d fc 3d 34 3e 2a 7b c2 3b
       0.07071698 0.058424484 0.1760177 0.0059350925
0003d0 30 88 8e 3d d1 68 79 bd 05 8d 10 be 88 be 3e 3e
       0.069595695 -0.060890976 -0.14116295 0.1862737
0003e0 90 e1 2b bc 59 58 14 bd 21 0e cb 3c e4 fe ab 3d
       -0.01049079 -0.036217067 0.02478701 0.08398226
0003f0 f3 ac 29 be 73 85 be bd 50 a2 c5 3d 70 07 01 3e
       -0.16569881 -0.09302797 0.09650099 0.12600493
