finalhybrid/experiments/experiment_20251104_232429/checkpoint_epoch_20.pth (torch, 662928 bytes, 50 tensors)

gcn_layers.0.bias f4 [64]
0	0xbbfe7cd8	-0.0077663474
1	0xbc48c116	-0.0122530665
2	0x00000000	0.0
3	0xbc031baf	-0.008002206
4	0x00000000	0.0
5	0x3c64a864	0.013956163
6	0x00000000	0.0
7	0xbb8c4660	-0.0042808503
8	0xbc911964	-0.017712303
9	0xbad951ad	-0.0016580127
10	0x00000000	0.0
11	0x00000000	0.0
12	0x3c350a03	0.01104975
13	0xbc172053	-0.009224015
14	0x00000000	0.0
15	0xbc7fcf98	-0.015613459
16	0x00000000	0.0
17	0x3baec8d9	0.0053340015
18	0x3c3756b9	0.01119011
19	0x3b3045bc	0.0026897034
20	0xbbeebbd2	-0.0072855735
21	0x3c856ae7	0.016286327
22	0x3cb6e8fc	0.022327892
23	0xbc7ed5cf	-0.015553906
24	0xbc1c9d93	-0.009559053
25	0xbcad153e	-0.021128293
26	0x00000000	0.0
27	0xbc0764a3	-0.00826374
28	0x00000000	0.0
29	0x3c0098d4	0.007848937
30	0x3a87a884	0.0010349904
31	0xbb0c117e	-0.002137273
32	0x00000000	0.0
33	0x00000000	0.0
34	0x3b2aec3e	0.0026080753
35	0x3c26344a	0.010144303
36	0xbbae462a	-0.005318423
37	0xbc07330f	-0.008251919
38	0xbc8abc12	-0.016935382
39	0x00000000	0.0
40	0x00000000	0.0
41	0x3b21bed4	0.0024680393
42	0xbb30bf24	-0.0026969397
43	0x00000000	0.0
44	0xbc060dfe	-0.008182047
45	0x3c604eea	0.01369069
46	0x00000000	0.0
47	0x3c1f6199	0.009727859
48	0x3c7968aa	0.015222708
49	0xbbfe1948	-0.0077544786
50	0xb9cf57b8	-0.00039547472
51	0x00000000	0.0
52	0x00000000	0.0
53	0xbbc8abd0	-0.0061239973
54	0x00000000	0.0
55	0x00000000	0.0
56	0x3c84f03d	0.016227836
57	0x00000000	0.0
58	0x00000000	0.0
59	0x00000000	0.0
60	0x3c2046ef	0.009782537
61	0x00000000	0.0
62	0xbba2b495	-0.0049653747
63	0x3c4a3860	0.012342542

gcn_layers.0.lin.weight f4 [64, 36]
0	0xbe2a883f	-0.16653536
1	0x3ccef343	0.02526248
2	0xbcce0746	-0.025149953
3	0xbe724fd1	-0.2366326
4	0x3d239a70	0.039942205
5	0xbe35c525	-0.17750986
6	0xbd91f9be	-0.07127713
7	0xbe4af622	-0.19820455
8	0xbc2afafa	-0.010435814
9	0xbe55a1cf	-0.20862506
10	0xbe2ef20a	-0.17084518
11	0xbe79a7e9	-0.24380459
12	0x3de16912	0.11006369
13	0x3e38244d	0.17982598
14	0xbe764133	-0.24048309
15	0x3e1fa771	0.15591218
16	0xbe61301d	-0.2199101
17	0x3e45424d	0.19263573
18	0xbba14d00	-0.004922509
19	0x3d56507c	0.05232285
20	0x3de25b3a	0.11052556
21	0xbe5ae2cd	-0.2137558
22	0x3e65e25d	0.22449632
23	0x3e2e3f02	0.17016223
24	0x3e16b29a	0.14716569
25	0x3e0029cd	0.12515946
26	0xbdd174b4	-0.102273375
27	0x3e67bf5e	0.22631595
28	0xbbad8ec0	-0.005296558
29	0xbe69f74d	-0.22848244
30	0x3e405d62	0.18785623
31	0x3e5a6181	0.21326257
32	0xbe539a88	-0.20664418
33	0xbe5b8875	-0.21438773
34	0x3d8bbb70	0.0682286
35	0xbdd6b75a	-0.1048419
36	0xbd0b98b5	-0.03408118
37	0xbe8c04e8	-0.27347493
38	0xbd9b02a6	-0.075688645
39	0xbe138f7d	-0.14410205
40	0xbe474390	-0.19459367
41	0x3d6c4b19	0.057688806
42	0x3cf83997	0.030300898
43	0xbe0f5032	-0.13995436
44	0xbe7efbf9	-0.24900807
45	0xbd887196	-0.0666229
46	0x3dae630a	0.08514984
47	0xbe060aa0	-0.1308999
48	0xbe433939	-0.19064797
49	0x3e28086d	0.16409464
50	0xbdf5083c	-0.11964461
51	0x3e314a7d	0.17313571
52	0xbbe809e0	-0.0070812553
53	0xbe5c0224	-0.21485192
54	0x3e184bbf	0.14872645
55	0x3e2ff523	0.17183356
56	0xbe67d118	-0.22638357
57	0xbd9ee875	-0.077591814
58	0xbb9e2520	-0.004826203
59	0xbdb3fa6b	-0.08787998
60	0x3e4e4faf	0.20147584
61	0xbd75a898	-0.059975237
62	0xbbf015d8	-0.0073268227
63	0xbe8ae571	-0.27128175
64	0x3e700972	0.23441103
65	0x3e52b8ba	0.2057828
66	0x3c7f4463	0.0155802695
67	0x3d14d974	0.036340192
68	0x3c23abb0	0.009989664
69	0x3e6c384a	0.23068348
70	0x3e2d12c0	0.16901684
71	0x3e2510ae	0.16119644
72	0x3e324e5b	0.17412703
73	0xbd660640	-0.056158304
74	0x3ce28b58	0.027654335
75	0xbe30bc01	-0.17259218
76	0xbe59dcf6	-0.21275696
77	0xbde954f0	-0.11393154
78	0xbde111e4	-0.109897405
79	0x3d8494e6	0.064737126
80	0x3d97573a	0.07389684
81	0x3e09ab97	0.13444363
82	0xb8973000	-7.209182e-05
83	0xbca80248	-0.0205089
84	0x3e028121	0.12744571
85	0x3d4f244c	0.050571725
86	0x3cc45018	0.023963973
87	0x3d2c968c	0.04213576
88	0xbe37c530	-0.17946315
89	0x3d6b223c	0.057405695
90	0xbe73a0fe	-0.23791882
91	0x3ddef7aa	0.10887082
92	0xbb38cd80	-0.002819866
93	0xbe524dd5	-0.20537503
94	0xbdf12282	-0.1177416
95	0xbe137c56	-0.14402899
96	0x3dbf9666	0.09354858
97	0xbe071167	-0.13190232
98	0xbe287d8c	-0.16454142
99	0xbcfd16f8	-0.030894741
100	0x3e595947	0.21225463
101	0xbe753f0e	-0.23949835
102	0xbe434ed4	-0.1907304
103	0x3e0422e3	0.12903933
104	0xbe1d2ba8	-0.15348685
105	0xbda415b4	-0.08011952
106	0xbdf3f0c6	-0.11911158
107	0x3e02bd49	0.12767519
108	0xbd04c16c	-0.032411024
109	0xbe0778c8	-0.13229668
110	0x3e6ab2e3	0.22919802
111	0xbd9c235e	-0.07623933
112	0x3e24be9c	0.16088337
113	0xbc7db279	-0.015484446
114	0xbd0783cb	-0.033084672
115	0xbd216914	-0.03940685
116	0xbe21da8b	-0.15806024
117	0xbdff9a46	-0.12480597
118	0xbe47897a	-0.19486037
119	0x3e4ad95f	0.19809483
120	0x3e28c43d	0.16481109
121	0xbcdb7368	-0.026788428
122	0x3e68f609	0.22750105
123	0xbdb02a1e	-0.08601783
124	0xbda1bd6c	-0.078974575
125	0x3d5492a4	0.05189766
126	0xbe712e03	-0.23552708
127	0xbe2f906a	-0.17144933
128	0x3e612c67	0.21989594
129	0xbe5b33ae	-0.21406433
130	0xbe106978	-0.14102733
131	0xbe6d11ec	-0.23151368
132	0xbd8d0bdb	-0.06887027
133	0xbdb466d8	-0.088086784
134	0x3d3a04a5	0.045414586
135	0x3e0e246f	0.13881086
136	0x3e389b57	0.18028007
137	0x3e0ab42e	0.13545296
138	0x3d94f9dc	0.072742194
139	0xbe0820a5	-0.13293703
140	0x3d6d0424	0.057865277
141	0xbe2fc185	-0.17163666
142	0xbe679dec	-0.22618836
143	0x3e573151	0.21014906
144	0x3e2266af	0.15859483
145	0xbe00a4bf	-0.12562846
146	0x3e34faa3	0.17673735
147	0x3d013ed4	0.03155406
148	0xbe67c121	-0.22632267
149	0xbc8faa18	-0.017537162
150	0xbcd818c0	-0.02637899
151	0x3e16908f	0.14703582
152	0x3af42080	0.0018625408
153	0xbd584fa4	-0.052810326
154	0xbdf212e2	-0.11820008
155	0xbd010e78	-0.03150794
156	0xbd8c883c	-0.06861922
157	0xbe38d118	-0.18048513
158	0xbd059798	-0.032615274
159	0xbe42dba1	-0.19029094
160	0x3d27a58c	0.040929362
161	0x3e3acde9	0.18242611
162	0xbe3c9d5e	-0.18419406
163	0x3e397d9b	0.18114321
164	0x3e5e9e2d	0.21740027
165	0xbe46952f	-0.19392847
166	0x3c903978	0.017605528
167	0xbd5dc5b8	-0.054143637
168	0x3dfef3c2	0.12448837
169	0x3e1c02fb	0.15235512
170	0xbe4207a6	-0.1894823
171	0xbdbabc46	-0.091179416
172	0xbe322066	-0.17395172
173	0xbe482ee0	-0.19549131
174	0xbd795468	-0.06087151
175	0xbe797cb5	-0.24363978
176	0xbe4abc26	-0.19798335
177	0x3d0f8324	0.035037175
178	0xbe7627aa	-0.24038568
179	0x3e22a2f5	0.15882476
180	0xbc87033a	-0.01648103
181	0xbdf6f22a	-0.12057908
182	0x3e4fe861	0.2030349
183	0xbe01d3e8	-0.12678492
184	0x3e57518c	0.21027201
185	0x3dd6a504	0.10480693
186	0x3e4c0ed6	0.19927534
187	0xbafb3300	-0.001916498
188	0xbd2b8aa9	-0.041880284
189	0x3e27455b	0.16335051
190	0xbe104438	-0.14088523
191	0xbe1c2bc2	-0.15251067
192	0xbda9830e	-0.0827695
193	0xbe65a19a	-0.22424927
194	0x3c0e45b0	0.008683607
195	0xbddaa3b2	-0.10675754
196	0xbe404594	-0.18776542
197	0xbde32e9e	-0.11092876
198	0x3de6cc7e	0.112694725
199	0xbe1b8ada	-0.15189686
200	0xbda7613e	-0.08172844
201	0x3ddfd503	0.10929301
202	0x3de716b6	0.11283629
203	0x3e191899	0.1495079
204	0x3e3a75a7	0.18208943
205	0x3e21e90f	0.15811561
206	0x3db8e214	0.09027496
207	0x3d2603dd	0.040531028
208	0x3e601280	0.21882057
209	0xbd810824	-0.06300381
210	0x3e449be5	0.19200094
211	0x3e123111	0.1427653
212	0xbd484b54	-0.048899963
213	0x3e805d57	0.25071213
214	0x3d66e8e1	0.056374434
215	0xbdba000e	-0.09082042
216	0xbe0a18f5	-0.13486083
217	0x3db57046	0.08859305
218	0xbde17a26	-0.11009626
219	0x3e27e5bd	0.16396232
220	0xbd6ef0b8	-0.058335036
221	0x3da48cb6	0.08034651
222	0x3e6b05ed	0.2295148
223	0xbd2b526c	-0.04182665
224	0xbe6659ed	-0.22495241
225	0xbe2f58fd	-0.1712379
226	0x3c924888	0.017856851
227	0xbe6c8948	-0.23099244
228	0x3e454a9d	0.19266744
229	0xbe1a8c5a	-0.15092602
230	0x3e0916d7	0.13387619
231	0x3e62b245	0.22138317
232	0x3e2e00d3	0.16992502
233	0x3e3f874f	0.1870396
234	0xbe54b75f	-0.20773076
235	0x3cf1fbd8	0.029539034
236	0x3e058f73	0.13043003
237	0x3dd37dc6	0.10326724
238	0xbe025046	-0.12725934
239	0x3d961172	0.07327546
240	0xbe1296a2	-0.14315274
241	0x3e1a99eb	0.15097778
242	0xbdb73b38	-0.08946842
243	0x3e2b352b	0.167195
244	0xbde0f362	-0.109839216
245	0xbe61381e	-0.21994063
246	0xbe1c8dbd	-0.15288444
247	0x3dab7e66	0.08373718
248	0xbe306c65	-0.17228849
249	0xbe3a005a	-0.18164197
250	0xbe17fbc8	-0.1484214
251	0xbbf2f1c0	-0.0074140728
252	0xbe459cb1	-0.19298054
253	0xbe65e3ca	-0.22450176
254	0x3d3a2b72	0.04545159
255	0x3dbabea8	0.09118396

gcn_layers.1.bias f4 [128]
0	0x3cb803f6	0.022462826
1	0x3c1ecf9d	0.009693054
2	0xbc450b8e	-0.012026681
3	0xbc1783b6	-0.009247711
4	0xbbc39582	-0.0059687505
5	0xbb5aa4c0	-0.0033362359
6	0xbbb5ac09	-0.00554419
7	0x00000000	0.0
8	0xbc4beb9b	-0.012446309
9	0x3b5605b0	0.0032657199
10	0x3c1f2630	0.009713694
11	0x3b7f2822	0.0038933833
12	0xbaa543e1	-0.001260873
13	0x3a7517f4	0.00093495776
14	0x3c4c6fdd	0.012477842
15	0x3c47f3ca	0.01220412
16	0xbca9ca55	-0.020726362
17	0x3b467a68	0.0030285362
18	0xbaf2e847	-0.0018532359
19	0xbc16a240	-0.009193957
20	0x3b5c3246	0.0033599301
21	0xbbfcd652	-0.0077159787
22	0xbbe4b800	-0.0069799423
23	0xbbee4f4d	-0.007272637
24	0x39f6a0df	0.00047040635
25	0xbbadf35a	-0.005308551
26	0x3c42577d	0.011861679
27	0x3b114113	0.0022164031
28	0xbbfbfd3c	-0.0076901
29	0xbbdd96be	-0.0067623546
30	0xbacc29e9	-0.0015576455
31	0xbc7a58fa	-0.015280003
32	0xbacb4576	-0.0015508372
33	0x3b0cca49	0.0021482876
34	0x3b2a85ed	0.0026019767
35	0x3c186585	0.009301548
36	0xbc4561fe	-0.012047289
37	0xbc9efbd8	-0.019407198
38	0x3c5e9d9b	0.013587381
39	0x3b461a14	0.0030227946
40	0x3bd2182c	0.006411573
41	0x3b17fc8d	0.0023191303
42	0xbbf3c63e	-0.007439404
43	0x3b8a80d4	0.0042267833
44	0xbc1b2d27	-0.009471214
45	0xbb93b1ca	-0.004507278
46	0x3b0ace4d	0.0021180094
47	0xbbb5bb41	-0.005546004
48	0x00000000	0.0
49	0xbc0e3859	-0.0086804265
50	0x3bd56607	0.0065124067
51	0x3ba528b2	0.0050402516
52	0xbb47be44	-0.0030478397
53	0xbc44bca6	-0.012007868
54	0x00000000	0.0
55	0xbbc4c726	-0.0060051857
56	0x00000000	0.0
57	0xbc14896f	-0.00906597
58	0xbc69e243	-0.014275136
59	0xbb707219	-0.0036689101
60	0x3bafc89f	0.005364492
61	0xbbb9fb12	-0.005675682
62	0x3c06ef62	0.008235784
63	0xbc51247f	-0.012765049
64	0x3cb8185e	0.022472557
65	0xbb8aceb4	-0.0042360667
66	0x3cb04466	0.02151699
67	0x3c9c1150	0.019051224
68	0x376bb5e0	1.4049438e-05
69	0x39c0963e	0.00036733033
70	0xbc08fe00	-0.00836134
71	0x3b76094a	0.0037542158
72	0xbb392baf	-0.0028254797
73	0xbc0c2e34	-0.008555938
74	0x3ba86482	0.0051389346
75	0x3cb5c644	0.022189267
76	0xbc5379eb	-0.0129074855
77	0xb96c205c	-0.00022518769
78	0xbbba47ee	-0.005684844
79	0xbc0a4b8a	-0.0084408615
80	0xbb12ff09	-0.0022429845
81	0xbbd1b27a	-0.00639945
82	0x3bfe2cca	0.007756804
83	0xbc1037e8	-0.008802392
84	0xbc087070	-0.008327588
85	0x3c4fea35	0.012690117
86	0x3bb76029	0.00559618
87	0x3c9d58b0	0.019207329
88	0xbb437f1c	-0.0029830402
89	0xbc83c66d	-0.016085828
90	0xbc089b94	-0.008337874
91	0xbb290e50	-0.0025795884
92	0x3be8d5cb	0.0071055642
93	0x3b4ce558	0.003126463
94	0xbb9bb95a	-0.0047523202
95	0xbb6c9255	-0.0036097963
96	0x3b64da32	0.0034920094
97	0x3bea05aa	0.0071417885
98	0x3bdcb171	0.00673502
99	0x3c5a923f	0.013340532
100	0x3be3d9c4	0.00695345
101	0x3c0e7ece	0.008697225
102	0x3cb36c27	0.021902157
103	0xbb23da84	-0.0025002072
104	0xbc6faed5	-0.014629086
105	0x3af41734	0.0018622638
106	0xbbedb6f1	-0.0072544743
107	0xbbe0917a	-0.0068532797
108	0xbc25cfef	-0.010120376
109	0xbc542194	-0.012947459
110	0x3b9ae107	0.0047265324
111	0x3bf51c19	0.007480156
112	0xbb49687f	-0.003073245
113	0xbc3b392a	-0.011427203
114	0xbc69bab5	-0.014265706
115	0xbc9859f5	-0.018597582
116	0xbab63c5c	-0.0013903487
117	0x3b360e81	0.002777964
118	0x3b929a79	0.004473981
119	0xbba1c34b	-0.004936611
120	0x3b86248c	0.004093712
121	0x3bf1489e	0.007363393
122	0x3bf43c1e	0.0074534556
123	0xbbd18c4e	-0.0063948995
124	0x3bcaab9a	0.0061850073
125	0xbc2c53c6	-0.01051802
126	0x3b16c598	0.0023005959
127	0x39a04962	0.00030572253

gcn_layers.1.lin.weight f4 [128, 64]
0	0xbde91093	-0.113801144
1	0xbd28abb1	-0.041179363
2	0x3e34ac5f	0.1764388
3	0x3d268825	0.04065718
4	0xbdbaadf8	-0.09115213
5	0x3c969c24	0.018385
6	0xbda23166	-0.07919578
7	0xbc1f97d8	-0.009740792
8	0xbe1b092c	-0.15140218
9	0x3d1a17cf	0.037620362
10	0xbd85a0d8	-0.06524819
11	0x3e391e4b	0.18077962
12	0x3e5a310b	0.21307771
13	0xbe2cf27f	-0.1688938
14	0xbe0a6a69	-0.13517155
15	0xbdd1f0da	-0.10251017
16	0xbd6f39e2	-0.05840481
17	0x3e29aa10	0.1656878
18	0x3e4c881c	0.19973797
19	0xbe0e1b38	-0.1387757
20	0x3d4352b4	0.047686294
21	0x3e0597c9	0.13046183
22	0xbcbea500	-0.023272038
23	0x3e379a3f	0.17929934
24	0xbdc74744	-0.0973039
25	0x3dfeb3aa	0.12436612
26	0x3e2e6825	0.17031915
27	0xbc922fa8	-0.01784499
28	0x3da26669	0.079296894
29	0x3db46c41	0.0880971
30	0x3db8c9e6	0.09022884
31	0xbdd77b6a	-0.10521586
32	0xbde80f1b	-0.11331006
33	0x3e126dc1	0.1429968
34	0x3d87947f	0.0662012
35	0x3de76c97	0.11300009
36	0x3e385a88	0.18003285
37	0x3e0f1535	0.13972934
38	0xbdeca0b5	-0.1155409
39	0xbe22636a	-0.15858236
40	0xbd952e13	-0.072841786
41	0x3d5761d6	0.052583538
42	0x3d756663	0.059912097
43	0x3c6da571	0.014504776
44	0xbd6d7962	-0.057977088
45	0xbe066599	-0.13124694
46	0x3e2b1190	0.16705918
47	0xbdf7082f	-0.12062108
48	0x3e2fd685	0.17171676
49	0x3d9644b2	0.07337321
50	0xbdc7e038	-0.09759563
51	0x3d005d48	0.03133896
52	0x3d7c223f	0.061556097
53	0x3d451b66	0.048121832
54	0xbb8773b9	-0.0041336683
55	0xbd30dd50	-0.04317981
56	0xbd97fb69	-0.074209996
57	0x3ad2c000	0.0016078949
58	0x3dec5215	0.115390934
59	0x3d94f65b	0.07273551
60	0xbd4842b7	-0.04889175
61	0x3defe71e	0.11714004
62	0xbdfa9051	-0.122345574
63	0xbd00b080	-0.031418324
64	0xbd7db11e	-0.06193649
65	0xbd9b6d61	-0.07589222
66	0xbdc0e289	-0.09418208
67	0xbe25834a	-0.16163364
68	0xbdbca9d8	-0.092120826
69	0xbdbbe020	-0.09173608
70	0xbdd308c9	-0.1030441
71	0x3e24aaed	0.16080828
72	0x3defb6da	0.11704798
73	0x3e18d59d	0.14925237
74	0x3cb1cdf0	0.021704644
75	0x3ddc3307	0.1075192
76	0xbdc0914e	-0.09402715
77	0xbddd4c6e	-0.108055934
78	0x3d72ce59	0.05927882
79	0xbda48fde	-0.08035253
80	0xbd0bb8a3	-0.03411163
81	0xbdeaf980	-0.114733696
82	0xbdd01b74	-0.10161486
83	0xbdbde10d	-0.09271441
84	0x3ccc35c4	0.024927981
85	0xbd0e4928	-0.034737736
86	0xbcb9da14	-0.022686996
87	0xbdc42067	-0.09576493
88	0x3ba8ac73	0.0051475107
89	0xbc0612b8	-0.008183174
90	0x3cf0e6b8	0.02940689
91	0x3d8da20e	0.06915675
92	0x3dcec886	0.100968406
93	0x3e1def8f	0.15423416
94	0x3e0efe09	0.13964094
95	0x3e3d71f5	0.18500502
96	0xbcab8c32	-0.020940874
97	0x3e2119a1	0.15732433
98	0xbe317677	-0.17330347
99	0x3e1ba2e1	0.15198852
100	0xbd94f395	-0.07273022
101	0x3d8ece4a	0.0697294
102	0x3d510eb4	0.051039413
103	0xbcf14a98	-0.029454514
104	0xbe026031	-0.12732007
105	0xbe29a09c	-0.16565174
106	0x3e32ab20	0.17448092
107	0x3e22463a	0.15847102
108	0xbe1c4dba	-0.15264025
109	0x3ddf007f	0.108887665
110	0xbe0797d9	-0.13241519
111	0x3e243602	0.16036227
112	0xbcb05c18	-0.021528289
113	0xbdd1f4bf	-0.1025176
114	0x3e05a322	0.13050511
115	0x3cd7bad5	0.026334206
116	0x3d4eaca6	0.05045762
117	0x3e02720e	0.12738821
118	0xbdcfd66f	-0.10148322
119	0xbde8620c	-0.11346826
120	0xbe20d18d	-0.15704937
121	0xbe21b1fa	-0.15790549
122	0x3bc72659	0.0060775694
123	0xbd83ff01	-0.064451225
124	0xbc623899	-0.013807439
125	0xbdc86220	-0.09784341
126	0xbe04b1c5	-0.12958439
127	0x3c2a3c82	0.010390403
128	0x3dbdfb95	0.09276501
129	0x3e1db4f1	0.15401055
130	0xbde83477	-0.11338132
131	0xbdfe25b9	-0.12409539
132	0xbe1b86b9	-0.15188111
133	0x3da432ae	0.08017479
134	0xbdcee7d8	-0.101028144
135	0xbe2a385c	-0.16623062
136	0xbde51219	-0.111850925
137	0x3d68a10a	0.056794204
138	0x3d83172f	0.06400906
139	0x3d235982	0.039880283
140	0xbe4893f2	-0.19587687
141	0x3dd05508	0.101724684
142	0x3db381a7	0.087649636
143	0x3e1fd3d6	0.15608153
144	0x3d892026	0.06695585
145	0xbd479b14	-0.04873188
146	0xbe29175a	-0.16512814
147	0xbe38a486	-0.1803151
148	0x3dbda7b1	0.092605
149	0x3da06382	0.078314796
150	0xbdcb6051	-0.0993048
151	0x3dc35934	0.095384985
152	0x3dc9ce8a	0.09853847
153	0x3dd7a0d6	0.10528724
154	0xbd806b27	-0.06270438
155	0xbd5b07a2	-0.053474076
156	0x3cca6d7d	0.024710411
157	0x3d05a3e4	0.032627
158	0x3dff8f82	0.12478544
159	0x3d658515	0.05603512
160	0xbd9fada1	-0.07796789
161	0x3e1e1a0b	0.15439622
162	0x3dc0ac1f	0.094078295
163	0xbe1c4445	-0.15260418
164	0x3cb3c532	0.021944616
165	0xbe39109a	-0.18072739
166	0x3cec8a44	0.028874524
167	0x3d48908c	0.048965976
168	0x3dd78da2	0.10525061
169	0x3df64a12	0.120258465
170	0xbd70d60a	-0.058797874
171	0x3db18013	0.08667006
172	0x3c03d4ef	0.008046373
173	0x3d24bfd2	0.040221997
174	0xbdd54cba	-0.10415025
175	0x3aee41c1	0.0018177555
176	0x3daa85b3	0.08326282
177	0xbc99f72c	-0.018794619
178	0x3d249f2c	0.04019086
179	0x3db9ca67	0.09071808
180	0x3df5f8ec	0.12010369
181	0x3d9c02b5	0.07617704
182	0xbe1cc273	-0.15308551
183	0x3e0d6e9d	0.13811727
184	0xbd800b13	-0.06252112
185	0x3e01480d	0.12625141
186	0x3e1c35ce	0.152549
187	0xbc581fcc	-0.013191175
188	0xbd2aac86	-0.041668437
189	0xbdfa518f	-0.12222587
190	0x3d8ca2a8	0.06866962
191	0x3b4b441e	0.0031015943
192	0xbdd670e4	-0.10470751
193	0xbd978e39	-0.07400174
194	0xbd99bc4e	-0.075066194
195	0x3dff5475	0.12467281
196	0xbdbdb2bc	-0.092626065
197	0x3d418314	0.047244146
198	0x3e1bf80c	0.15231341
199	0xbe13ed10	-0.14445901
200	0xbe39664f	-0.18105434
201	0x3d70273c	0.058631167
202	0x3d97a09a	0.07403679
203	0xbb8c9ac5	-0.004290911
204	0xbd031f87	-0.03201249
205	0x3d6a8110	0.05725199
206	0xbe221697	-0.1582893
207	0xbdc2c04b	-0.09509333
208	0xbe23e67d	-0.16005893
209	0x3d82ba7c	0.06383225
210	0xbe3ebf35	-0.18627627
211	0x3e28b42f	0.16474985
212	0x3d9f3fc9	0.07775838
213	0xbd9a51d4	-0.07535139
214	0x3d8bc85b	0.06825324
215	0x3e1a42ea	0.15064588
216	0xbdacb3b3	-0.084327124
217	0x3d99d9bf	0.07512235
218	0xbdbd2178	-0.09234899
219	0x3e23d090	0.15997529
220	0x3d6fb7c4	0.058524862
221	0x3ac6487c	0.0015127803
222	0x3d43b765	0.04778232
223	0xbbd86ad5	-0.0066045322
224	0x3c2c0936	0.010500243
225	0x3c81d0b0	0.01584658
226	0xbd9b2548	-0.0757547
227	0xbdeca4ca	-0.115548685
228	0xbda18d50	-0.07888281
229	0xbd542e78	-0.05180213
230	0x3e086c79	0.13322629
231	0xbd6a48fe	-0.057198517
232	0xbd90bc3b	-0.07067152
233	0xbdc63c67	-0.096794896
234	0xbd509164	-0.050919905
235	0xbe0308aa	-0.12796274
236	0x3d176dd3	0.03696997
237	0x3d150971	0.036385957
238	0x3ae1993f	0.0017211809
239	0xbcf9438d	-0.030427719
240	0x3cf77441	0.030206801
241	0xbe13d289	-0.14435782
242	0xbcea32db	-0.028588703
243	0x3e3d1444	0.18464762
244	0xbd91674b	-0.0709978
245	0xbe33da40	-0.17563725
246	0x3d06d911	0.032921854
247	0x3e057416	0.13032565
248	0xbda9fc8e	-0.08300124
249	0xbdbcdf17	-0.092222385
250	0x3e1221a5	0.14270647
251	0xbd242a13	-0.040079188
252	0xbcb290c7	-0.02179755
253	0x3d4ed292	0.050493784
254	0xbd386404	-0.045017257
255	0x3cb28656	0.021792572

gat_layers.0.att_src f4 [1, 4, 64]
0	0x3d1a4551	0.03766376
1	0xbd4b0077	-0.04956099
2	0x3e8dbebc	0.2768458
3	0xbe25173a	-0.16122141
4	0xbe98611b	-0.29761586
5	0x3e6f9bdc	0.233993
6	0xbd513a14	-0.05108078
7	0x3cea56db	0.028605869
8	0x3e0dd3d0	0.13850331
9	0x3c41d230	0.011829898
10	0xbe826d3f	-0.25473973
11	0xbe05767c	-0.1303348
12	0x3e2cdea5	0.16881807
13	0x3cdae640	0.02672112
14	0x3e908322	0.28225046
15	0x3e269181	0.16266443
16	0x3e3ea00a	0.18615738
17	0x3db570f6	0.08859436
18	0x3e544aaa	0.20731607
19	0x3e8440c2	0.25830656
20	0x3d682484	0.05667545
21	0xbc5b36c9	-0.013379761
22	0xbe21b764	-0.15792614
23	0xbdabac03	-0.08382418
24	0x3e96b772	0.29436833
25	0xbde140f3	-0.10998716
26	0xbe3668b8	-0.17813385
27	0xbe182c62	-0.1486068
28	0x3e344928	0.17606032
29	0xbe208ba8	-0.15678275
30	0xbe1edf16	-0.15514788
31	0xbe4826e1	-0.19546081
32	0x3d713a75	0.05889364
33	0x3e45b4eb	0.19307296
34	0x3e42ae2f	0.19011758
35	0x3e2bbb12	0.1677058
36	0xbe90dd7a	-0.28293973
37	0xbe18d7ed	-0.14926119
38	0x3e86779c	0.2626313
39	0x3df6e70e	0.12055789
40	0x3e408804	0.18801886
41	0xbe9322a2	-0.2873736
42	0xbe357292	-0.17719486
43	0x3e024b06	0.12723932
44	0xbe99771e	-0.29973692
45	0x3e49792a	0.19675127
46	0x3d97c8f3	0.07411375
47	0xbe60d349	-0.21955599
48	0xbe73e96b	-0.2381951
49	0x3df2c853	0.11854615
50	0x3e5ff02a	0.21868959
51	0xbe33306a	-0.17498937
52	0xbdee5c45	-0.11638693
53	0xbe4627f7	-0.19351183
54	0x3e5c48b7	0.21512114
55	0x3e748157	0.23877464
56	0x3e6f197b	0.23349564
57	0xbd2ecfe9	-0.042678747
58	0x3da3e749	0.080030985
59	0xbdf387d0	-0.118911386
60	0xbe5929c3	-0.21207337
61	0x3e2e80d0	0.17041326
62	0xbe38c64c	-0.18044394
63	0x3d1862a2	0.03720344
64	0x3e4808c9	0.19534601
65	0x3e8cecf1	0.27524522
66	0x3e77031a	0.24122277
67	0x3e217529	0.1576735
68	0xbb0d36a0	-0.0021547452
69	0xbe86a2c2	-0.2629605
70	0xbe3b6df2	-0.1830366
71	0x3d868ec6	0.065702006
72	0x3e7744eb	0.24147384
73	0xbe53cc8c	-0.20683497
74	0x3d6f4666	0.058416747
75	0x3d9fa844	0.07795766
76	0xbcb88dd0	-0.022528559
77	0xbe001090	-0.12506318
78	0x3e871002	0.263794
79	0xbd597c27	-0.053096917
80	0x3e829469	0.25503853
81	0x3e91fcee	0.28513283
82	0xbce9d3b8	-0.028543338
83	0xbe24e0ae	-0.16101333
84	0x3e693fec	0.2277829
85	0xbdaf92dd	-0.08572934
86	0xbcc0e727	-0.023547722
87	0xbc8dc032	-0.01730356
88	0xbe2da190	-0.16956162
89	0xbe2fa0b4	-0.17151147
90	0x3e6f4241	0.23365118
91	0xbdc9864c	-0.09840068
92	0xbdd0b3b9	-0.101905294
93	0xbdd4804a	-0.10376032
94	0x3e940131	0.2890716
95	0x3e83e8a4	0.25763428
96	0xbd184011	-0.037170473
97	0xbe8bf89d	-0.27338114
98	0x3e699fba	0.22814837
99	0xbd18abff	-0.037273403
100	0xbd8e7dd4	-0.069575936
101	0x3e3c639a	0.1839737
102	0x3d969142	0.073519245
103	0x3dd51f83	0.10406401
104	0x3cfc8218	0.030823752
105	0x3d56b6b5	0.052420337
106	0x3e926e95	0.28599992
107	0x3e01f0b4	0.12689477
108	0xbd438330	-0.047732532
109	0x3d2c6772	0.04209084
110	0xbe6ba158	-0.23010767
111	0xbd58785a	-0.05284915
112	0x3dd1cd59	0.10244245
113	0x3e085a4f	0.133157
114	0x3e452851	0.1925366
115	0xbe69184d	-0.22763176
116	0x3e049fcd	0.12951584
117	0x3e91abd4	0.28451407
118	0x3e1c82b9	0.15284242
119	0xbaa68f31	-0.0012707469
120	0xbe6fd2ea	-0.23420301
121	0x3dc6e89b	0.09712335
122	0xbd3aee0c	-0.045637175
123	0xbdeaa7cd	-0.11457787
124	0x3e60d21d	0.21955152
125	0x3e0d65a3	0.13808303
126	0xbd9793b5	-0.0740122
127	0x3e74cfac	0.23907346
128	0xbe9a2a61	-0.30110458
129	0xbe59c3c9	-0.21266092
130	0xbce79753	-0.0282704
131	0x3e0c2dfd	0.13689418
132	0xbe702e0d	-0.23455067
133	0xbe054133	-0.13013153
134	0xbe273c5d	-0.1633162
135	0x3d93b860	0.07212901
136	0x3e5752af	0.21027635
137	0x3e007849	0.12545885
138	0xbe337520	-0.17525148
139	0x3e8f1b52	0.2795053
140	0xbd4c6528	-0.049901158
141	0x3e48412f	0.19556116
142	0x3e5eae99	0.21746291
143	0x3db28ecd	0.08718643
144	0x3d6b57a8	0.057456642
145	0x3daf2076	0.08551113
146	0xbe7372e0	-0.2377429
147	0xbe336717	-0.17519794
148	0xbe8dc95b	-0.27692685
149	0xbd566ba8	-0.052348763
150	0x3dfb08a8	0.122575104
151	0xbe806557	-0.25077316
152	0xbc9faee5	-0.019492576
153	0x3e0d6a3b	0.13810055
154	0x3e0beac9	0.13663782
155	0xbe4a4a69	-0.19754948
156	0xbdec060c	-0.11524591
157	0x3c53a957	0.012918792
158	0xbe5aad27	-0.21355115
159	0x3d2a07d2	0.041511364
160	0xbe703230	-0.23456645
161	0x3d32f4bd	0.043690432
162	0x3e8705a0	0.2637148
163	0xbe88f7db	-0.267516
164	0xbe20bf24	-0.15697914
165	0xbe1269d6	-0.14298186
166	0xbdc2e979	-0.095171876
167	0x3e1268f5	0.1429785
168	0xbe4cb37a	-0.1999034
169	0x3e7039a5	0.2345949
170	0x3e76dbb1	0.24107243
171	0xbcbd7dfd	-0.023131365
172	0x3e6014a7	0.21882878
173	0xbdd8b5f3	-0.10581579
174	0xbe489f76	-0.1959208
175	0x3e0e5833	0.13900833
176	0xbd90779c	-0.07054064
177	0xbd96782e	-0.07347141
178	0xbe03191c	-0.12802547
179	0xbe8e4ace	-0.27791446
180	0xbe7a941f	-0.24470566
181	0x3d353c07	0.0442467
182	0x3d7f2e38	0.062299937
183	0xbe1ef539	-0.15523233
184	0xbd9dd5a4	-0.07706764
185	0x3e6f1097	0.23346172
186	0x3e0d4055	0.13794072
187	0x3e1f0455	0.15528996
188	0x3e910822	0.28326517
189	0xbe77d5df	-0.24202679
190	0xbe830066	-0.2558624
191	0x3e5aaf13	0.21355848
192	0xbe329412	-0.17439297
193	0x3e8e73c9	0.27822712
194	0xbe3712e6	-0.17878303
195	0xbe370a5e	-0.17875049
196	0x3e5760b7	0.21032988
197	0x3e8ac558	0.27103686
198	0xbe8a2eb2	-0.2698875
199	0x3e0d8747	0.13821135
200	0x3e1c22b7	0.15247618
201	0xbdca54c3	-0.09879448
202	0x3e09de58	0.13463724
203	0x3d9f0aca	0.0776573
204	0xbd314b57	-0.04328474
205	0xbde18bbe	-0.11012982
206	0xbe5964c2	-0.21229842
207	0x3e7ab211	0.2448199
208	0x3e7ee08e	0.24890348
209	0xbe096598	-0.13417661
210	0x3c7b16cd	0.01532526
211	0x3d950ff9	0.07278437
212	0x3c401b0a	0.011725197
213	0xbd21c078	-0.039490193
214	0x3e410586	0.18849763
215	0xbe4ab0d8	-0.19794023
216	0x3e8ffaa6	0.28120917
217	0x3e7ee1cc	0.24890822
218	0xbb965a52	-0.0045884037
219	0x3e35dbb9	0.17759599
220	0xbd62d0d0	-0.05537492
221	0x3e8a93fa	0.27066022
222	0x3e88f3b0	0.2674842
223	0xbda6f29f	-0.08151745
224	0xbd23d097	-0.03999385
225	0x3d8691cf	0.065707795
226	0xbe9693a6	-0.29409522
227	0x3d080ed5	0.03321727
228	0xbe188bcb	-0.14897077
229	0xbca60560	-0.020266235
230	0xbe6d77a3	-0.23190169
231	0x3e914868	0.28375554
232	0xbe0e5070	-0.13897872
233	0x3e602caa	0.21892038
234	0xbda2d7e2	-0.07951333
235	0x3e53442e	0.20631477
236	0x3dfe9f44	0.12432721
237	0xbe5d6771	-0.21621491
238	0xbe3c1d3e	-0.1837053
239	0xbdd9a095	-0.10626332
240	0xbe22aa90	-0.15885377
241	0xbe7c7cc9	-0.24656977
242	0xbd29aec5	-0.04142644
243	0xbe60efe0	-0.21966505
244	0x3e76fe14	0.2412036
245	0x3e21f46e	0.15815899
246	0xbe210b28	-0.15726912
247	0xbd8aefc9	-0.06784017
248	0xbe070587	-0.13185702
249	0xbccaeea9	-0.024772005
250	0xbdf4d7b7	-0.11955207
251	0xbde18a69	-0.11012728
252	0x3da1d841	0.07902575
253	0xbe76cee1	-0.24102356
254	0xbe43df1b	-0.19128077
255	0x3e5e0e85	0.21685226

gat_layers.0.att_dst f4 [1, 4, 64]
0	0xbe741a88	-0.23838246
1	0x3db48d24	0.08815983
2	0x3def285a	0.11677618
3	0xbd52f6ea	-0.051505007
4	0xbe8c8ed0	-0.27452707
5	0x3e2a5e31	0.16637494
6	0xbdd25391	-0.10269845
7	0xbddd3667	-0.10801392
8	0xbdf200bd	-0.11816547
9	0x3df51123	0.11966159
10	0xbde10815	-0.1098787
11	0xbe3b8b07	-0.18314753
12	0xbe1af0fd	-0.15130992
13	0xbe1eb375	-0.15498145
14	0x3bef715d	0.007307215
15	0xbe1e0725	-0.15432413
16	0x3da7d03a	0.08194013
17	0x3e3e494e	0.18582651
18	0xbe8c86d0	-0.27446604
19	0xbe93e4b7	-0.28885433
20	0xbe066d4a	-0.13127628
21	0xbda54575	-0.080698885
22	0xbdf7f3e8	-0.12107068
23	0xbd242a78	-0.040079564
24	0xbe1c732e	-0.15278313
25	0x3e736366	0.23768386
26	0x3e0fa9aa	0.14029565
27	0xbde97630	-0.113994956
28	0x3e6caaf0	0.23112082
29	0xbde0fc23	-0.10985591
30	0xbc5c8627	-0.013459719
31	0x3e509ad4	0.20371562
32	0x3e566669	0.20937504
33	0x3d2a97ce	0.04164868
34	0x3e16f57a	0.1474208
35	0x3d86177b	0.06547447
36	0x3e61541f	0.22004746
37	0xbc192465	-0.009347056
38	0x3e3dbe65	0.18529661
39	0xbe7eb96b	-0.24875419
40	0x3dcf30ea	0.101167515
41	0x3cddc23b	0.027070155
42	0xbe44fbc2	-0.19236663
43	0x3e4bfd77	0.19920908
44	0xbe02134c	-0.12702674
45	0xbe33c7c4	-0.17556673
46	0x3e690620	0.22756243
47	0xbd1fa695	-0.038977224
48	0x3e47e4a0	0.19520807
49	0x3e0f81c3	0.14014344
50	0x3ddb0c6c	0.10695729
51	0x3de2f743	0.11082318
52	0x3cbbc078	0.022918925
53	0xbcd87558	-0.026423141
54	0x3e53b42f	0.20674203
55	0xbd8512c7	-0.06497722
56	0xbdaf98a1	-0.085740335
57	0xbe29230c	-0.16517276
58	0x3dc73d0a	0.09728439
59	0x3e8636ae	0.26213592
60	0xbd7547df	-0.059882995
61	0xbe30e908	-0.17276394
62	0xbcb391d9	-0.021920132
63	0x3e5e6673	0.21718769
64	0xbe87ea86	-0.26546115
65	0x3d8374a4	0.06418732
66	0xbd50da90	-0.050989687
67	0x3e92661f	0.28593537
68	0x3da13f8b	0.07873448
69	0xbdf597b9	-0.119918294
70	0xbcd0c586	-0.025484812
71	0x3db20351	0.08692039
72	0xbe91a99b	-0.2844971
73	0x3e2ebbd1	0.17063834
74	0xbd00bdec	-0.031431124
75	0xbddc467b	-0.107556306
76	0x3e057366	0.13032302
77	0xbe516c49	-0.20451464
78	0xbcfba7d7	-0.03071968
79	0x3e3bb445	0.18330486
80	0xbddcd9d9	-0.10783739
81	0xbda28bb6	-0.07936804
82	0xbe868c40	-0.26278877
83	0x3e834514	0.2563864
84	0x3e7847af	0.24246095
85	0x3e8dd8f3	0.27704582
86	0x3e7ab1b6	0.24481854
87	0x3e2cd9c1	0.16879942
88	0x3e35905a	0.17730847
89	0x3e37c31c	0.17945522
90	0xbdf7ffc7	-0.121093325
91	0xbe190b6b	-0.14945762
92	0xbcc00f3e	-0.023444768
93	0xbe4324a9	-0.19056953
94	0xbdca958a	-0.098918036
95	0x3e2038a0	0.156466
96	0x3e8493ba	0.25893956
97	0xbc86508b	-0.016395828
98	0x3e43c2a0	0.19117212
99	0x3bda4b34	0.006661797
100	0x3ba41225	0.005007046
101	0xbd15e1b3	-0.036592197
102	0xbe75ffff	-0.24023436
103	0x3e8f5534	0.27994692
104	0x3e35371b	0.17696802
105	0x3e212289	0.1573583
106	0x3e934a32	0.28767544
107	0xbe307464	-0.172319
108	0x3db62d15	0.088953175
109	0x3d896053	0.067078255
110	0xbe53315f	-0.20624302
111	0x3e9375ad	0.28800717
112	0x3e219a2d	0.1578147
113	0xbcd3ef09	-0.025870817
114	0xbe6518db	-0.22372763
115	0x3db62b04	0.08894923
116	0x3e845a23	0.2585002
117	0x3e70b0e7	0.23504983
118	0x3e3b433f	0.18287371
119	0x3d31ee11	0.04343993
120	0xbe5cbf27	-0.21557294
121	0x3dabe30c	0.08392915
122	0xbe3aa6a8	-0.18227637
123	0x3da05b68	0.07829934
124	0xbe5e8ffe	-0.21734616
125	0x3d09e2dc	0.033663616
126	0xbe18a341	-0.14906026
127	0x3e021731	0.1270416
128	0xbd0f6ee0	-0.035017848
129	0x3ca9d8b6	0.020733219
130	0x3d799fbe	0.060943358
131	0x3d9d638a	0.07685001
132	0x3c640687	0.013917572
133	0x3d7a7eef	0.06115621
134	0xbe85a3ce	-0.26101536
135	0xbde0994f	-0.10966741
136	0x3c5ff137	0.01366835
137	0xbdf79a97	-0.120900325
138	0x3e1637ef	0.14669774
139	0xbab5e93e	-0.0013878716
140	0xbe65247c	-0.22377199
141	0x3dae68cc	0.08516082
142	0xbe0b82c1	-0.13624097
143	0x3dfacf0d	0.12246523
144	0xbe10a795	-0.14126427
145	0xbdb2c1d8	-0.08728379
146	0x3d1f0a3a	0.038828112
147	0x3e54f61a	0.20797005
148	0x3b851987	0.004061881
149	0x3e8a600f	0.27026412
150	0xbd1a5d9c	-0.03768693
151	0xbe26abf0	-0.16276526
152	0x3e95d2b8	0.29262328
153	0x3de4fcec	0.111810535
154	0x3e4015b3	0.18758278
155	0x3e78a446	0.24281415
156	0x3e111e13	0.14171629
157	0x3dafcedc	0.08584377
158	0x3e35b55f	0.17744969
159	0x3d3d8ba9	0.04627577
160	0xbe685af2	-0.22690943
161	0xbe645c18	-0.22300756
162	0x3e3316e5	0.17489202
163	0xbc6601cd	-0.014038515
164	0xbe3147fd	-0.17312618
165	0xbd91830e	-0.07105075
166	0xbe15053f	-0.14552782
167	0x3e8e3ac2	0.27779204
168	0x3e09be6c	0.13451546
169	0x3dd18351	0.10230125
170	0xbe040942	-0.12894157
171	0x3e93549d	0.28775492
172	0x3d67eceb	0.056622427
173	0x3e699669	0.22811283
174	0xbd3d10fa	-0.04615877
175	0xbe91b93c	-0.28461635
176	0x3df70d02	0.12063028
177	0xbe06d78d	-0.13168164
178	0xbe181e2d	-0.14855261
179	0x3d043a52	0.03228218
180	0x3e2e5eeb	0.17028396
181	0xbdfd82e2	-0.123784795
182	0x3d951d3e	0.07280968
183	0xbe337d30	-0.17528224
184	0xbe50a5e9	-0.2037579
185	0x3e66c095	0.22534402
186	0x3d54a9b4	0.051919654
187	0x3e01248e	0.12611601
188	0xbc519832	-0.012792634
189	0xbe07764a	-0.13228717
190	0x3dce4459	0.1007163
191	0x3e99720e	0.2996983
192	0xbc3618c7	-0.011114306
193	0x3daa30bf	0.08310079
194	0xbe6024f4	-0.21889096
195	0x3e2d5e3d	0.1693048
196	0x3e33012b	0.17480914
197	0x3c818e48	0.015814915
198	0xbe016b0e	-0.12638494
199	0xbe557fd4	-0.20849544
200	0xbe7dbf77	-0.2478007
201	0x3e04c3c1	0.12965299
202	0xbe091430	-0.13386607
203	0xbe99c16b	-0.3003038
204	0x3d10d0a8	0.03535524
205	0x3e8646fd	0.26226035
206	0xbe5aa10f	-0.21350501
207	0x3d45ed14	0.0483218
208	0xbe677a01	-0.22605135
209	0xbe46c4bf	-0.1941099
210	0xbd68683f	-0.05674004
211	0x3de97cf8	0.11400789
212	0x3dc3945a	0.0954978
213	0xbe9a89c4	-0.30183232
214	0xbe913eb1	-0.28368142
215	0xbd5ed0dd	-0.054398406
216	0x3e84d36a	0.25942546
217	0x3d1bd80d	0.03804784
218	0xbce4a530	-0.027910799
219	0x3e8fc4fc	0.28079975
220	0x3e56c19c	0.20972294
221	0x3d14f00e	0.036361746
222	0xbe86d384	-0.2633325
223	0xbe6f5b82	-0.23374751
224	0x3e3b4f67	0.18292008
225	0x3e9a4a47	0.30134794
226	0xbe07cfbd	-0.1326284
227	0xbd419398	-0.047259897
228	0x3e9c80bb	0.30566964
229	0xbd3f8acf	-0.046763238
230	0xbe82e0fb	-0.2556227
231	0xbe10d2d2	-0.14142922
232	0xbe6453ac	-0.22297543
233	0x3e00497a	0.12528029
234	0x3c985899	0.018596934
235	0xbcfd55b9	-0.030924665
236	0x3e24d933	0.1609848
237	0x3e157f64	0.14599377
238	0x3e34463d	0.17604919
239	0xbe156f29	-0.14593185
240	0x3d40de0a	0.047086753
241	0x3e84f967	0.2597153
242	0x3cb1b7ff	0.021694181
243	0x3e45c80f	0.19314598
244	0x3e4d5c19	0.20054664
245	0x3c0cd148	0.008594818
246	0x3ad49aba	0.0016220429
247	0xbe4e1578	-0.20125377
248	0xbdbd5f71	-0.0924672
249	0xbc985242	-0.018593911
250	0x3dfa2117	0.12213343
251	0xbc130358	-0.008972965
252	0x3e467fc3	0.19384675
253	0x3d81f627	0.06345778
254	0xbda02ccf	-0.078210466
255	0xbe231a0a	-0.15927902

gat_layers.0.bias f4 [64]
0	0x00000000	0.0
1	0xbc8692c4	-0.016427405
2	0xbbc4c8e1	-0.006005392
3	0xbc47fb3a	-0.012205893
4	0xbbb66f40	-0.0055674613
5	0x3c6479b8	0.013945036
6	0xbbba8e09	-0.0056932014
7	0x00000000	0.0
8	0xbb7bb768	-0.003840888
9	0xbb0214a7	-0.0019848736
10	0xbc333e32	-0.0109401215
11	0x3b4984ed	0.0030749396
12	0x00000000	0.0
13	0xbc20ac15	-0.009806653
14	0x3bc6ac36	0.0060630096
15	0xbcb659b0	-0.022259563
16	0xbbd01efb	-0.0063513494
17	0xbc1dcd15	-0.009631415
18	0x3c3756b5	0.011190106
19	0x3bcc905f	0.0062427963
20	0xbbeebbd5	-0.007285575
21	0xbbc8b1df	-0.0061247195
22	0x3c9c66a1	0.019091906
23	0xbca20cf9	-0.019781576
24	0xbbcdfd85	-0.0062863254
25	0xba9e35f0	-0.0012070518
26	0x00000000	0.0
27	0xbb95fe8b	-0.004577463
28	0xbb228061	-0.0024795758
29	0x3b7e5a03	0.0038810975
30	0x3a87a8ac	0.0010349951
31	0xbc231225	-0.009953056
32	0xbc0c7e92	-0.008575099
33	0x00000000	0.0
34	0xbafa4bb0	-0.0019096043
35	0xbac5957a	-0.0015074455
36	0xbbb29bc0	-0.0054506958
37	0x3bd266b2	0.0064209336
38	0x00000000	0.0
39	0x00000000	0.0
40	0x00000000	0.0
41	0x00000000	0.0
42	0x3c49549b	0.012288238
43	0x3b23906a	0.0024957904
44	0x00000000	0.0
45	0x00000000	0.0
46	0x3cf36fc0	0.029716372
47	0xbc04f919	-0.00811603
48	0x3bfa0034	0.0076294187
49	0xbc11fe27	-0.008910692
50	0xbc3b5ed3	-0.011436182
51	0x3d13ccdd	0.036084045
52	0xbb425726	-0.0029653995
53	0x00000000	0.0
54	0xbaadbb61	-0.0013254696
55	0x3c5b8e84	0.013400678
56	0xbbe89bc5	-0.0070986473
57	0x00000000	0.0
58	0xbbfeeb93	-0.0077795475
59	0xbc4746f8	-0.012162916
60	0x00000000	0.0
61	0xbc1f6209	-0.009727963
62	0xbc2db550	-0.01060231
63	0xbc17f370	-0.009274349

gat_layers.0.lin.weight f4 [256, 36]
0	0x3bc0c03e	0.005882292
1	0xbd38fea6	-0.045164727
2	0x3de1f084	0.11032203
3	0x3dc10dde	0.09426473
4	0xbd18847a	-0.037235714
5	0xbe189a39	-0.14902581
6	0xbc3e180f	-0.011602416
7	0x3dccd034	0.10000649
8	0xbdfd2b70	-0.12361801
9	0x3dcccd2a	0.100000694
10	0xbd3c8400	-0.046024323
11	0xbdc4b596	-0.09604947
12	0xbd9a369c	-0.07529947
13	0xbda66414	-0.08124557
14	0x3d871184	0.06595138
15	0xbe029f0d	-0.12755986
16	0xbd5aec1e	-0.053447835
17	0x3dddc242	0.10828067
18	0x3dc1d178	0.09463781
19	0xbd579986	-0.052636646
20	0xbd621d7e	-0.055203907
21	0x3cc9c351	0.024629267
22	0xbd5c3a66	-0.05376663
23	0x3da82e95	0.0821201
24	0xbd920f1d	-0.07131789
25	0xbdefaf8a	-0.11703403
26	0xbda45676	-0.080243036
27	0xbcd21779	-0.025645958
28	0xbe0d55a5	-0.13802202
29	0xbe00df58	-0.12585199
30	0xbc9fcda4	-0.019507237
31	0xbd3df922	-0.04638017
32	0x3ded1a2a	0.11577256
33	0x3dde70e7	0.10861378
34	0x3d4f7a50	0.050653756
35	0x3c6fdd23	0.014640125
36	0xbda82a0c	-0.08211145
37	0xbe192fab	-0.1495959
38	0xbd675f2c	-0.056487247
39	0xbe01cd36	-0.12675938
40	0xbbd9afc5	-0.006643268
41	0x3d78121f	0.060564157
42	0xbe1a6fbc	-0.15081686
43	0xbd91651d	-0.07099364
44	0x3d532d8c	0.05155711
45	0xb906b400	-0.00012846291
46	0xbc87c808	-0.016574875
47	0x3e0f9597	0.14021908
48	0xbd55cbe4	-0.0521964
49	0xbdf55377	-0.1197881
50	0xbdd0ed3a	-0.102014974
51	0xbd97b190	-0.07406914
52	0x3dab8e9a	0.083768085
53	0x3d8fdfda	0.07025118
54	0x3d4a4694	0.049383715
55	0x3d054140	0.03253293
56	0x3e0e8397	0.13917385
57	0xbdf810a7	-0.12112551
58	0xbdd67a90	-0.10472596
59	0x3b0655b3	0.0020497858
60	0x3ddd2291	0.10797609
61	0xbe0bb347	-0.13642608
62	0xbd418c7c	-0.047253117
63	0x3d97d5b6	0.07413809
64	0x3df650ec	0.120271534
65	0xbe0c1db8	-0.13683212
66	0xbdd38b37	-0.103292875
67	0x3de2a9e6	0.11067562
68	0x3c8c2578	0.01710771
69	0x3d2e34e1	0.042530898
70	0xbe1acdb4	-0.15117532
71	0xbce4af48	-0.027915612
72	0x3d6a9228	0.05726829
73	0xbc992008	-0.018692032
74	0x3ddf23f9	0.10895533
75	0x3d9934c4	0.07480767
76	0xbdd065f9	-0.101757
77	0xbdab4166	-0.08362083
78	0xbdb160eb	-0.08661064
79	0x3b853640	0.004065305
80	0x3e20996e	0.15683529
81	0xbdbfb60a	-0.09360893
82	0x3d979bc8	0.0740276
83	0xbcb9aee4	-0.022666402
84	0x3dd54ddc	0.10415241
85	0x3c3f8c00	0.011691093
86	0xbd66a424	-0.05630888
87	0xbdabc98c	-0.083880514
88	0xbdd80013	-0.10546889
89	0xbdffdc61	-0.12493206
90	0x3d961a9c	0.07329294
91	0xbdf6bcd7	-0.12047737
92	0xbe067f56	-0.13134512
93	0x3e068ebd	0.13140388
94	0xbd23c994	-0.03998716
95	0x3b0d3af8	0.002155004
96	0x3d240811	0.040046755
97	0xbd2d2f14	-0.042281225
98	0xbd9cad64	-0.07650259
99	0xbdd66f67	-0.10470467
100	0x3d857404	0.06516269
101	0xbdb9a4a4	-0.09064606
102	0x3caab110	0.020836383
103	0x3db5c082	0.088746086
104	0xbb614fc0	-0.003437981
105	0xbb9c3746	-0.0047673313
106	0x3d50cbf1	0.050975744
107	0xbd8d2d46	-0.06893401
108	0xbe0889d0	-0.13333821
109	0x3d167658	0.036733955
110	0x3dafd426	0.08585386
111	0xbcf75f03	-0.030196672
112	0x3d8d68a4	0.06904724
113	0xbdc73381	-0.097266205
114	0x3d1c76a6	0.03819909
115	0x3cae0d10	0.021246463
116	0xbc1e022b	-0.009644072
117	0xbda24036	-0.079224035
118	0x3ba18fa0	0.0049304515
119	0x3ddf266e	0.10896002
120	0x3d39eaa4	0.045389786
121	0x3e03e085	0.12878616
122	0xbdae8210	-0.08520901
123	0xbd84c10e	-0.06482135
124	0x3d7ae2e8	0.06125155
125	0xbab06000	-0.0013456345
126	0xbda92998	-0.082598865
127	0xbdc2cb62	-0.095114484
128	0x3dd0091e	0.10157989
129	0x3dec46f4	0.11536971
130	0x3e03fbd9	0.12889041
131	0x3dc0c7a3	0.09413078
132	0x3d972fcc	0.073821634
133	0x3de04f02	0.109525695
134	0x3d11bae1	0.035578612
135	0xbdea04e9	-0.11426718
136	0x3e0ff1f6	0.14057145
137	0xbd78a994	-0.060708597
138	0x3c599565	0.013280247
139	0x3e0e980b	0.13925187
140	0x3deddaca	0.11613996
141	0x3dfce4f7	0.12348359
142	0x3d70bd50	0.058774292
143	0x3d951b09	0.07280547
144	0xbdd8d87a	-0.10588165
145	0x3dbe84a3	0.09302642
146	0x3d060f08	0.03272918
147	0x3d9f8e40	0.07790804
148	0xbc42ae81	-0.011882425
149	0xbd17e440	-0.03708291
150	0xbd32ce1b	-0.04365359
151	0x3dc5fe42	0.096676365
152	0x3c08583b	0.008321817
153	0xbdadb337	-0.08481448
154	0x3e0b9255	0.1363004
155	0x3dc80de6	0.09768276
156	0x3c927be0	0.017881334
157	0xbbc08c40	-0.005876094
158	0x3d524e30	0.051344097
159	0x3d59362c	0.053030178
160	0x3e124df7	0.14287554
161	0x3d601ff8	0.054717988
162	0xbc689ec0	-0.014198005
163	0xbd869675	-0.06571666
164	0xbda605f7	-0.081066065
165	0xbddba65f	-0.10725092
166	0xbd1b8906	-0.037972473
167	0xbe1b352c	-0.15157002
168	0x3d91e945	0.07124571
169	0x3c27a790	0.010232821
170	0xbcc82543	-0.02443183
171	0xbcedcd0b	-0.029028436
172	0xbc496022	-0.012290986
173	0x3dc5ed6f	0.096644275
174	0xbc97daff	-0.018537043
175	0xbda17c0f	-0.078849904
176	0xbd5e13e6	-0.054218195
177	0xbd6c7f62	-0.05773867
178	0xbe08f380	-0.13374138
179	0x3e0404c2	0.1289244
180	0xbc8db3dc	-0.017297678
181	0x3d95d03e	0.0731511
182	0x3e06b648	0.13155472
183	0xbe15da43	-0.14634041
184	0xbcc5509c	-0.02408629
185	0xbe03e8da	-0.12881795
186	0xbda6691f	-0.08125519
187	0xbdf1c973	-0.118060015
188	0xbdc948fb	-0.09828373
189	0x3decf666	0.11570434
190	0x3e11ff43	0.14257531
191	0xbe049460	-0.12947226
192	0xbcce6b84	-0.025197752
193	0x3af71480	0.0018850714
194	0xbd5b0558	-0.053471893
195	0xbd599480	-0.053120136
196	0xbd6a2472	-0.057163663
197	0x3e0444f7	0.12916933
198	0x3da8b714	0.082380444
199	0xbdee9e7c	-0.11651322
200	0xbd2994e6	-0.041401766
201	0x3e103313	0.14081983
202	0x3d7c145c	0.061542854
203	0x3d6bfd09	0.05761436
204	0xbc57101f	-0.013126402
205	0x3d06e9d8	0.032937855
206	0xbc12f811	-0.008970276
207	0xbd772f6d	-0.060347963
208	0x3da5c936	0.080950186
209	0xbd559593	-0.0521446
210	0xbd582a8e	-0.05277496
211	0xbdec718f	-0.11545097
212	0x3dfaf3ba	0.122535184
213	0xbd85523f	-0.06509828
214	0xbd0201bb	-0.03173993
215	0xbd9f77f8	-0.07786554
216	0xbd65e158	-0.056123108
217	0x3de1ef55	0.11031977
218	0xbe0a03f2	-0.13478068
219	0x3d080a3b	0.03321288
220	0x3b9120ab	0.004428943
221	0x3d6b6121	0.057465676
222	0xbdd9a596	-0.10627286
223	0xbd8230ca	-0.06356962
224	0xbd9db5d6	-0.07700698
225	0x3d0e2cc0	0.034710646
226	0xbdd3a29b	-0.10333749
227	0x3da42056	0.0801398
228	0x3d1eefcc	0.038802907
229	0xbdefd1dc	-0.117099494
230	0xbd92c4c0	-0.07166433
231	0xbe0257b5	-0.1272877
232	0x3dfabed6	0.1224343
233	0xbdea6f9e	-0.114470705
234	0x3ae2ca80	0.0017302781
235	0x3c20c560	0.009812683
236	0xbcb2d30c	-0.02182915
237	0xbd8ef8e8	-0.06981069
238	0xbdedc244	-0.11609319
239	0x3d313784	0.043265834
240	0x3d286890	0.041115344
241	0xbd7a176e	-0.0610575
242	0xbcd84b60	-0.02640313
243	0xbc1154b4	-0.008870292
244	0xbd0aa13a	-0.033845164
245	0x3be0e3f0	0.00686311
246	0x3c4c49c9	0.012468764
247	0x3d0c1f14	0.034209326
248	0xbdadf8fa	-0.08494754
249	0xbcdcaf37	-0.026939018
250	0x3da28fe3	0.079376005
251	0x3e0337fc	0.12814325
252	0x3d0a1393	0.033710074
253	0xbdf651f4	-0.1202735
254	0xbdd18d7c	-0.10232064
255	0xbdf13960	-0.117785215

gat_layers.1.att_src f4 [1, 4, 128]
0	0x3dd9cd23	0.1063483
1	0x3dc7f6ad	0.097638465
2	0xbd82869a	-0.063733295
3	0x3db4cc94	0.08828083
4	0x3d81815f	0.06323504
5	0xbdbf524d	-0.093418695
6	0x3e333237	0.17499624
7	0x3cd723b7	0.026262147
8	0xbd6ae0d6	-0.057343327
9	0x3e4f8fc1	0.20269682
10	0x3e17ece5	0.14836462
11	0xbe48a121	-0.19592716
12	0xbe2a53e9	-0.16633572
13	0xbe1445ef	-0.14479803
14	0x3d7e5771	0.06209511
15	0xbe0f7a2a	-0.14011446
16	0x3c0392a9	0.008030572
17	0xbc26385f	-0.010145276
18	0x3daa2a3c	0.08308837
19	0xbd97ec9b	-0.07418176
20	0x3e166147	0.14685546
21	0x3e2af360	0.16694403
22	0xbcb07dc0	-0.021544337
23	0xbe6de46c	-0.23231667
24	0x3e481250	0.19538236
25	0xbe04f1f7	-0.12982927
26	0x3de17e5c	0.11010429
27	0xbd81debd	-0.06341312
28	0x3e4197b0	0.1890552
29	0xbd620160	-0.055177093
30	0x3dff4c0d	0.124656774
31	0x3c61e7d5	0.013788183
32	0x3e156016	0.14587435
33	0xbd955f47	-0.07293563
34	0xbe332036	-0.17492756
35	0xbcbde656	-0.023181122
36	0x3e55e7c9	0.208892
37	0xbd25ed80	-0.0405097
38	0x3d2570fd	0.040390957
39	0x3ddc71e0	0.107639074
40	0xbca957f6	-0.020671826
41	0xbd9d91e3	-0.07693841
42	0xbcf9eb13	-0.0305076
43	0x3d9a1d7a	0.075251535
44	0x3e3b6cc2	0.18303207
45	0x3db03181	0.08603192
46	0xbcc695b6	-0.02424131
47	0x3d132c5c	0.035930976
48	0xbd85a3df	-0.065253966
49	0x3e037422	0.1283727
50	0x3c357c8d	0.0110770585
51	0x3e106477	0.14100824
52	0xbe523669	-0.20528568
53	0x3ddc2be8	0.10750562
54	0xbd41f5b9	-0.04735348
55	0x3e60a181	0.21936609
56	0xbd763968	-0.06011334
57	0xbde536a1	-0.1119206
58	0xbdf1c365	-0.11804847
59	0x3e171113	0.14752607
60	0xbe56796b	-0.20944755
61	0xbdf50fae	-0.11965881
62	0xbe068843	-0.13137917
63	0x3e1208b3	0.14261131
64	0xbca0c9d4	-0.01962749
65	0xbe5c2511	-0.21498515
66	0xbe06ff9b	-0.13183443
67	0xbd9d5149	-0.076815195
68	0x3d0446ef	0.03229421
69	0xbdd5a62b	-0.10432085
70	0xbe2a2ce4	-0.16618687
71	0xbe4d538a	-0.20051399
72	0xbd53a05f	-0.051666614
73	0xbe210567	-0.15724717
74	0xbe6b5ca8	-0.22984564
75	0x3d45eb50	0.048320115
76	0x3e09641f	0.134171
77	0x3ddc3ed0	0.10754168
78	0xbe2a631f	-0.16639374
79	0x3e281f76	0.16418251
80	0xbe1ee26b	-0.15516059
81	0xbdf59f2f	-0.119932525
82	0xbe16074b	-0.1465122
83	0x3d8945c0	0.06702757
84	0x3d84b830	0.064804435
85	0x3d4e2f7a	0.050338246
86	0xbdb61faf	-0.08892762
87	0xbcaf6323	-0.021409577
88	0x3e205429	0.15657105
89	0xbd30c34f	-0.04315501
90	0xbc2ca60e	-0.010537637
91	0xbd8a8100	-0.06762886
92	0x3e43c734	0.19118959
93	0xbe4982cf	-0.19678806
94	0xbcb013d6	-0.021493834
95	0x3dc7ddb5	0.09759084
96	0x3d0549bd	0.032541025
97	0x3e1704c0	0.14747906
98	0xbdb16ff5	-0.08663932
99	0xbd48fbf0	-0.04906839
100	0x3e4133e9	0.18867458
101	0x3e0d46b4	0.13796502
102	0x3b45d6e8	0.0030187909
103	0x3d83adc0	0.064296246
104	0x3e081ad5	0.13291486
105	0x3c16cb39	0.0092037255
106	0x3add4ff5	0.0016884791
107	0xba8b5614	-0.0010630512
108	0x3e3627bc	0.17788595
109	0x3e0e81c7	0.13916694
110	0xbd8deba3	-0.0692971
111	0x3dc71b0f	0.09721958
112	0x3e12f472	0.14351061
113	0x3d243eb0	0.040098846
114	0xbe0ffc02	-0.14060977
115	0x3d583433	0.052784156
116	0xbe0d9719	-0.1382717
117	0xba21fb45	-0.00061791047
118	0x3e1c1a1b	0.15244333
119	0x3dd2fe0b	0.10302361
120	0x3c081012	0.008304613
121	0xbc8fbf08	-0.017547145
122	0x3d291332	0.04127807
123	0xbe00c952	-0.12576798
124	0xbe35ae1e	-0.17742202
125	0x3e189c7d	0.14903446
126	0xbcf294ec	-0.029612027
127	0xbd91464f	-0.070934884
128	0xbe361e7e	-0.1778507
129	0x3db2aa68	0.08723909
130	0xbe58d168	-0.21173632
131	0x3e140b33	0.14457397
132	0xbd8f6683	-0.070019744
133	0xbcc87a7b	-0.024472466
134	0x3dbd55f1	0.09244908
135	0x3e5c7451	0.21528746
136	0xbe35a64d	-0.1773922
137	0xbe035f03	-0.12829213
138	0xbdd957bc	-0.10612437
139	0xbe16dd5d	-0.14732881
140	0xbdad1235	-0.08450738
141	0xbe0bfc4f	-0.13670467
142	0xbe20da1d	-0.15708204
143	0x3e241970	0.16025329
144	0x3e2a45dd	0.16628213
145	0xbe48ef04	-0.19622427
146	0x3dda69b2	0.10664691
147	0x3e02a273	0.12757282
148	0xbc815b54	-0.015790619
149	0xbe580f2b	-0.21099536
150	0x3c68d99c	0.014212038
151	0x3d17b2c2	0.03703571
152	0x3e19e343	0.150281
153	0x3d797e67	0.060911562
154	0x3c7d6d7f	0.015468
155	0x3dcec8cb	0.10096892
156	0xbdd625d8	-0.10456437
157	0x3cf9355a	0.030420948
158	0x3e1be708	0.1522485
159	0xbc88fc7a	-0.016721953
160	0x3d5d48c6	0.05402448
161	0x3e425de9	0.18981136
162	0xbe484391	-0.19557025
163	0x3e38352a	0.1798903
164	0xba6f069c	-0.00091181113
165	0xbd2526dc	-0.040320262
166	0xbde463f5	-0.11151878
167	0xbdad1f09	-0.08453185
168	0xbdb4ba91	-0.08824647
169	0x3e3e578a	0.18588081
170	0xbe4e3bb7	-0.20139967
171	0x3c3d9c63	0.01157293
172	0xbe03c558	-0.1286825
173	0xbd8f0717	-0.06983774
174	0xbd8cd47f	-0.06876468
175	0x3e1865a1	0.14882518
176	0x3e134963	0.14383464
177	0xbc31f1b5	-0.01086085
178	0xbd125c1a	-0.035732366
179	0x3df97489	0.121804304
180	0x3e262d1d	0.16228147
181	0xbe3ffb14	-0.18748122
182	0xbcc034e3	-0.023462718
183	0x3d8bdbfe	0.068290696
184	0x3da24c34	0.07924691
185	0xbbcfa9b4	-0.006337369
186	0x3e2ddd43	0.16978936
187	0xbdfb0205	-0.122562446
188	0xbaa3a7af	-0.0012485887
189	0xbb5cbfe6	-0.0033683716
190	0x3e5320e8	0.20618021
191	0xbc9c55c0	-0.019083858
192	0x3ce30670	0.02771303
193	0x3da157b2	0.07878055
194	0xbcdfc08c	-0.027313493
195	0x3cb84241	0.02249253
196	0xbc95126b	-0.018197259
197	0xbce18eed	-0.027533973
198	0xbd5311b9	-0.051530574
199	0xbe36f4d0	-0.17866826
200	0x3e16ec79	0.14738645
201	0xbdf5c5c6	-0.12000613
202	0x3c983c2d	0.018583382
203	0x3d168167	0.0367445
204	0x3d4d42a7	0.050112393
205	0xba5e966b	-0.0008491042
206	0x3cac9940	0.021069169
207	0xbe3d4692	-0.18483952
208	0xbe0f7a2b	-0.14011447
209	0xbc938a33	-0.018010234
210	0xbbd318d2	-0.006442168
211	0x3e56075c	0.20901245
212	0x3e2a2696	0.16616282
213	0x3e3c3df2	0.18383005
214	0xbe4b55f4	-0.19857007
215	0x3cd675fa	0.026179302
216	0x3e56c43c	0.20973295
217	0xbe453eb0	-0.19262195
218	0x3e4de765	0.20107801
219	0xbdedcaab	-0.116109215
220	0x3c42e348	0.011895008
221	0xbc9d64c4	-0.019213088
222	0x3e5fa4b6	0.21840176
223	0x3d268407	0.040653255
224	0x3e54f62d	0.20797034
225	0x3d5e22e1	0.054232482
226	0xbdcb297f	-0.09920024
227	0xbe257315	-0.16157182
228	0xbe38d769	-0.18050922
229	0x3e593611	0.21212031
230	0xbe01ef3e	-0.1268892
231	0x3e387079	0.18011655
232	0xbbb8e2d5	-0.005642275
233	0xbd13e2c0	-0.036104918
234	0x3e2e27ed	0.17007418
235	0xbd78342a	-0.060596623
236	0xbda9cbf9	-0.08290858
237	0xbe2f4cc8	-0.17119133
238	0xbe3afd37	-0.18260656
239	0xbd328c08	-0.043590575
240	0x3d8833dd	0.06650517
241	0x3d50441c	0.050846204
242	0x3e382cd4	0.1798585
243	0xbaba4545	-0.0014211318
244	0x3d42acdf	0.047528144
245	0xbd8e5f03	-0.06951716
246	0xbe15d775	-0.14632972
247	0x3e35f0e1	0.1776767
248	0xbc67e9ab	-0.014154832
249	0xbd0e46d6	-0.034735523
250	0x3cbe449a	0.023226071
251	0x3d9c06cc	0.07618484
252	0xbe1b80cb	-0.1518585
253	0xbdb16d46	-0.086634204
254	0x3dcb40c3	0.09924462
255	0x3e0bf2e5	0.13666876
