finalhybrid/experiments/experiment_20251104_232429/checkpoint_epoch_35.pth (torch, 662928 bytes, 50 tensors)

gcn_layers.0.bias f4 [64]
0	0x3b6a8f71	0.0035791064
1	0xbc89f205	-0.016839037
2	0x00000000	0.0
3	0xbb0599d7	-0.0020385885
4	0x00000000	0.0
5	0x3c4c2bbe	0.012461601
6	0x00000000	0.0
7	0xbb9420b7	-0.0045205015
8	0xbc90dd5e	-0.017683681
9	0x3b39cfd7	0.0028352642
10	0x00000000	0.0
11	0x00000000	0.0
12	0x3bb9dc9a	0.0056720497
13	0xbc274b1b	-0.010210778
14	0x00000000	0.0
15	0xbca611f6	-0.020272236
16	0x00000000	0.0
17	0x3c2901e6	0.010315394
18	0x3b4c1901	0.0031142833
19	0x3b6648b0	0.003513854
20	0xbc74eeca	-0.01494951
21	0x3c0a32a7	0.008434928
22	0x3ca2a487	0.019853843
23	0xbc3b9bca	-0.011450717
24	0x3c192c31	0.009348915
25	0xbcad1646	-0.021128785
26	0x00000000	0.0
27	0xbc076644	-0.008264128
28	0x00000000	0.0
29	0x3c2a45b7	0.010392598
30	0xbad5819f	-0.001628924
31	0xbb7cda60	-0.003858231
32	0x00000000	0.0
33	0x00000000	0.0
34	0x3cd9fc2e	0.026609506
35	0x3bd68d80	0.00654763
36	0xbc62dea4	-0.013847027
37	0x3af1ac05	0.0018438107
38	0xbc2fa941	-0.010721506
39	0x00000000	0.0
40	0x00000000	0.0
41	0xbbdc1033	-0.0067157983
42	0xbb6083b2	-0.0034258184
43	0x00000000	0.0
44	0xbc7216fb	-0.014775987
45	0x3cb57cb9	0.022154199
46	0x00000000	0.0
47	0x3b6e1fac	0.0036334796
48	0x3c4de53e	0.012566863
49	0xba8d4b40	-0.0010779873
50	0xbb98f96e	-0.004668406
51	0x00000000	0.0
52	0x00000000	0.0
53	0xbc681633	-0.014165449
54	0x00000000	0.0
55	0x00000000	0.0
56	0x3c6edb8b	0.01457871
57	0x00000000	0.0
58	0x00000000	0.0
59	0x00000000	0.0
60	0x3b971d3a	0.0046116384
61	0x00000000	0.0
62	0xbbdcda9e	-0.0067399284
63	0x3be00469	0.006836463

gcn_layers.0.lin.weight f4 [64, 36]
0	0xbe27aab7	-0.16373716
1	0x3be62ff8	0.0070247613
2	0xbc6a64b7	-0.014306239
3	0xbe7c436d	-0.24635096
4	0x3d97ba6e	0.074086055
5	0xbe35c529	-0.17750992
6	0xbdb28d34	-0.087183386
7	0xbe4af622	-0.19820455
8	0xbbb6f357	-0.0055832076
9	0xbe55a1cf	-0.20862506
10	0xbe2ef20a	-0.17084518
11	0xbe79a7e9	-0.24380459
12	0x3de16912	0.11006369
13	0x3e38244d	0.17982598
14	0xbe764133	-0.24048309
15	0x3e1fa771	0.15591218
16	0xbe61301d	-0.2199101
17	0x3e45424d	0.19263573
18	0xbba14d00	-0.004922509
19	0x3d56507c	0.05232285
20	0x3de25b3a	0.11052556
21	0xbe452672	-0.19252947
22	0x3e65e25d	0.22449632
23	0x3e0fbcf2	0.1403692
24	0x3e1cf898	0.15329206
25	0x3e0029cd	0.12515946
26	0xbdce12cd	-0.1006218
27	0x3e501a14	0.20322448
28	0xbbad8ec0	-0.005296558
29	0xbe7ef8d3	-0.24899606
30	0x3e6485c3	0.22316651
31	0x3e5a6181	0.21326257
32	0xbe539a88	-0.20664418
33	0xbe45cc1a	-0.1931614
34	0x3d5c7be8	0.053829104
35	0xbdb888ef	-0.09010493
36	0xbd1f873a	-0.03894732
37	0xbe95565d	-0.29167452
38	0xbd8f753b	-0.07004782
39	0xbe17a2fa	-0.14808264
40	0xbe3b8759	-0.1831335
41	0x3d5944bb	0.053044062
42	0x3bdd1bff	0.006747722
43	0xbe0f5032	-0.13995436
44	0xbe7e4928	-0.24832594
45	0xbd887196	-0.0666229
46	0x3dae630a	0.08514984
47	0xbe060aa0	-0.1308999
48	0xbe433939	-0.19064797
49	0x3e28086d	0.16409464
50	0xbdf5083c	-0.11964461
51	0x3e314a7d	0.17313571
52	0xbbe809e0	-0.0070812553
53	0xbe5c0224	-0.21485192
54	0x3e184bbf	0.14872645
55	0x3e2ff523	0.17183356
56	0xbe67d118	-0.22638357
57	0xbda351ee	-0.07974611
58	0xbb9e2520	-0.004826203
59	0xbdc49153	-0.09598031
60	0x3e489c9d	0.19590993
61	0xbd75a898	-0.059975237
62	0xbc67cecb	-0.014148424
63	0xbe92ba75	-0.2865788
64	0x3e6a6ecb	0.22893827
65	0x3e462db2	0.19353369
66	0x3cd93141	0.026512744
67	0x3d14d974	0.036340192
68	0x3c23abb0	0.009989664
69	0x3e6a038c	0.22852916
70	0x3e237b25	0.15964945
71	0x3e1d9955	0.15390523
72	0x3e324e5b	0.17412703
73	0xbd660640	-0.056158304
74	0x3ce28b58	0.027654335
75	0xbe30bc01	-0.17259218
76	0xbe59dcf6	-0.21275696
77	0xbde954f0	-0.11393154
78	0xbde111e4	-0.109897405
79	0x3d8494e6	0.064737126
80	0x3d97573a	0.07389684
81	0x3e09ab97	0.13444363
82	0xb8973000	-7.209182e-05
83	0xbca80248	-0.0205089
84	0x3e028121	0.12744571
85	0x3d4f244c	0.050571725
86	0x3cc45018	0.023963973
87	0x3d2c968c	0.04213576
88	0xbe37c530	-0.17946315
89	0x3d6b223c	0.057405695
90	0xbe73a0fe	-0.23791882
91	0x3ddef7aa	0.10887082
92	0xbb38cd80	-0.002819866
93	0xbe524dd5	-0.20537503
94	0xbdf12282	-0.1177416
95	0xbe137c56	-0.14402899
96	0x3dbf9666	0.09354858
97	0xbe071167	-0.13190232
98	0xbe287d8c	-0.16454142
99	0xbcfd16f8	-0.030894741
100	0x3e595947	0.21225463
101	0xbe753f0e	-0.23949835
102	0xbe434ed4	-0.1907304
103	0x3e0422e3	0.12903933
104	0xbe1d2ba8	-0.15348685
105	0xbda415b4	-0.08011952
106	0xbdf3f0c6	-0.11911158
107	0x3e02bd49	0.12767519
108	0xbceb91df	-0.02875608
109	0xbe1518fe	-0.14560315
110	0x3e738236	0.2378014
111	0xbd910cf1	-0.070825465
112	0x3e32d59c	0.17464298
113	0xbbf06a8e	-0.007336921
114	0xbd50474c	-0.050849244
115	0xbd216914	-0.03940685
116	0xbe22a963	-0.15884928
117	0xbdff9a46	-0.12480597
118	0xbe47897a	-0.19486037
119	0x3e4ad95f	0.19809483
120	0x3e28c43d	0.16481109
121	0xbcdb7368	-0.026788428
122	0x3e68f609	0.22750105
123	0xbdb02a1e	-0.08601783
124	0xbda1bd6c	-0.078974575
125	0x3d5492a4	0.05189766
126	0xbe712e03	-0.23552708
127	0xbe2f906a	-0.17144933
128	0x3e612c67	0.21989594
129	0xbe5b90d5	-0.21441968
130	0xbe106978	-0.14102733
131	0xbe6e8f16	-0.2329677
132	0xbd8408e4	-0.06447008
133	0xbdb466d8	-0.088086784
134	0x3d4922b2	0.049105354
135	0x3e0ad48b	0.13557641
136	0x3e3585e1	0.17726852
137	0x3e099f4d	0.13439675
138	0x3dae565e	0.08512567
139	0xbe0820a5	-0.13293703
140	0x3d6d0424	0.057865277
141	0xbe301eac	-0.171992
142	0xbe6cca4c	-0.23124045
143	0x3e5e2fd2	0.2169793
144	0x3e2266af	0.15859483
145	0xbe00a4bf	-0.12562846
146	0x3e34faa3	0.17673735
147	0x3d013ed4	0.03155406
148	0xbe67c121	-0.22632267
149	0xbc8faa18	-0.017537162
150	0xbcd818c0	-0.02637899
151	0x3e16908f	0.14703582
152	0x3af42080	0.0018625408
153	0xbd584fa4	-0.052810326
154	0xbdf212e2	-0.11820008
155	0xbd010e78	-0.03150794
156	0xbd8c883c	-0.06861922
157	0xbe38d118	-0.18048513
158	0xbd059798	-0.032615274
159	0xbe42dba1	-0.19029094
160	0x3d27a58c	0.040929362
161	0x3e3acde9	0.18242611
162	0xbe3c9d5e	-0.18419406
163	0x3e397d9b	0.18114321
164	0x3e5e9e2d	0.21740027
165	0xbe46952f	-0.19392847
166	0x3c903978	0.017605528
167	0xbd5dc5b8	-0.054143637
168	0x3dfef3c2	0.12448837
169	0x3e1c02fb	0.15235512
170	0xbe4207a6	-0.1894823
171	0xbdbabc46	-0.091179416
172	0xbe322066	-0.17395172
173	0xbe482ee0	-0.19549131
174	0xbd795468	-0.06087151
175	0xbe797cb5	-0.24363978
176	0xbe4abc26	-0.19798335
177	0x3d0f8324	0.035037175
178	0xbe7627aa	-0.24038568
179	0x3e22a2f5	0.15882476
180	0xbc7dbd94	-0.0154870935
181	0xbe0465c4	-0.12929446
182	0x3e52043b	0.20509426
183	0xbe03f075	-0.12884696
184	0x3e51e591	0.20497729
185	0x3dea44ab	0.114388786
186	0x3e239481	0.15974618
187	0xbafb3300	-0.001916498
188	0xbd48f8e8	-0.0490655
189	0x3e27455b	0.16335051
190	0xbe104438	-0.14088523
191	0xbe1c2bc2	-0.15251067
192	0xbda9830e	-0.0827695
193	0xbe65a19a	-0.22424927
194	0x3c0e45b0	0.008683607
195	0xbddaa3b2	-0.10675754
196	0xbe404594	-0.18776542
197	0xbde32e9e	-0.11092876
198	0x3de6cc7e	0.112694725
199	0xbe1b8ada	-0.15189686
200	0xbda7613e	-0.08172844
201	0x3ddef1c6	0.108859584
202	0x3de716b6	0.11283629
203	0x3e21a1b2	0.15784338
204	0x3e3981e2	0.18115953
205	0x3e21e90f	0.15811561
206	0x3db57831	0.08860815
207	0x3d0c4d37	0.034253325
208	0x3e5da005	0.21643074
209	0xbd886316	-0.06659524
210	0x3e4834b8	0.1955136
211	0x3e123111	0.1427653
212	0xbd484b54	-0.048899963
213	0x3e80248a	0.25027877
214	0x3d786276	0.060640775
215	0xbdc286ab	-0.09498342
216	0xbe0a18f5	-0.13486083
217	0x3db57046	0.08859305
218	0xbde17a26	-0.11009626
219	0x3e27e5bd	0.16396232
220	0xbd6ef0b8	-0.058335036
221	0x3da48cb6	0.08034651
222	0x3e6b05ed	0.2295148
223	0xbd2b526c	-0.04182665
224	0xbe6659ed	-0.22495241
225	0xbe2f58fd	-0.1712379
226	0x3c924888	0.017856851
227	0xbe6c8948	-0.23099244
228	0x3e454a9d	0.19266744
229	0xbe1a8c5a	-0.15092602
230	0x3e0916d7	0.13387619
231	0x3e62b245	0.22138317
232	0x3e2e00d3	0.16992502
233	0x3e3f874f	0.1870396
234	0xbe54b75f	-0.20773076
235	0x3cf1fbd8	0.029539034
236	0x3e058f73	0.13043003
237	0x3dd37dc6	0.10326724
238	0xbe025046	-0.12725934
239	0x3d961172	0.07327546
240	0xbe1296a2	-0.14315274
241	0x3e1a99eb	0.15097778
242	0xbdb73b38	-0.08946842
243	0x3e2b352b	0.167195
244	0xbde0f362	-0.109839216
245	0xbe61381e	-0.21994063
246	0xbe1c8dbd	-0.15288444
247	0x3dab7e66	0.08373718
248	0xbe306c65	-0.17228849
249	0xbe3a005a	-0.18164197
250	0xbe17fbc8	-0.1484214
251	0xbbf2f1c0	-0.0074140728
252	0xbe459d2a	-0.19298235
253	0xbe65e3ca	-0.22450176
254	0x3d3a1a55	0.04543527
255	0x3da720bf	0.08160543

gcn_layers.1.bias f4 [128]
0	0x3c43bfd8	0.011947595
1	0x3c4d69ac	0.012537401
2	0xbc0c89ee	-0.008577807
3	0xbc4958c4	-0.01228923
4	0xbbd2ffd9	-0.006439191
5	0xbbb6b597	-0.0055758464
6	0xbc28b037	-0.010295919
7	0x00000000	0.0
8	0xbc59cf97	-0.013294122
9	0x3c5e5af4	0.01357149
10	0x3c365b85	0.011130218
11	0x3c188724	0.009309564
12	0xbc1c84cf	-0.009553148
13	0x3b0c8e53	0.0021447137
14	0x3c223591	0.009900467
15	0x3c1891b1	0.009312079
16	0xbca9cf96	-0.020728868
17	0x3c0724b5	0.008248498
18	0xbc275a6a	-0.0102144275
19	0xbc124c38	-0.008929305
20	0x3bf05482	0.007334293
21	0x3b739532	0.0037167785
22	0xbbf670dc	-0.007520778
23	0xbb4335bc	-0.0029786667
24	0xbb43a43f	-0.0029852537
25	0xbbcbda73	-0.0062211095
26	0x3a98fa2a	0.0011671234
27	0x3b891af0	0.0041841194
28	0xbc265f3e	-0.010154543
29	0xbbdf873c	-0.006821541
30	0xbba96a91	-0.0051701744
31	0xbc7a3c9f	-0.015273242
32	0xbba9bfd3	-0.005180338
33	0x3a25df65	0.0006327539
34	0x3ad44a34	0.0016196431
35	0xbbacf574	-0.0052782837
36	0xbbbc4fab	-0.005746802
37	0xbcbc6626	-0.022997927
38	0x3c882dab	0.016623339
39	0x3c9824a7	0.018572165
40	0x3bcce878	0.0062532984
41	0xbc2d0c43	-0.010562005
42	0xbc408261	-0.011749835
43	0x3bd4bb7f	0.006492078
44	0xbb476664	-0.003042602
45	0xb92222a9	-0.00015462436
46	0xbb3cbc50	-0.0028798766
47	0xbbdfe71b	-0.00683297
48	0x00000000	0.0
49	0xbbf6e719	-0.007534873
50	0x3bb126ac	0.0054062214
51	0xbb4eaef4	-0.0031537386
52	0xbc144cee	-0.009051545
53	0xbb67af98	-0.0035352465
54	0x00000000	0.0
55	0xbbcc30c4	-0.0062313993
56	0x00000000	0.0
57	0xbbe875c3	-0.0070941164
58	0xbc1adec3	-0.009452525
59	0xbb7a17a0	-0.0038161054
60	0xbb82b46b	-0.0039887927
61	0xbc0e5a36	-0.0086885
62	0x3c442e08	0.011973865
63	0xbc09686b	-0.008386712
64	0x3c848028	0.01617439
65	0x3bbdecc5	0.0057960474
66	0x3c80e0c1	0.015732171
67	0x3ceebe7c	0.029143564
68	0x3b8cbdd1	0.004295089
69	0x3b1b384e	0.0023684683
70	0xbc299b90	-0.01035203
71	0x3be88e4f	0.0070970426
72	0xbb1d094f	-0.0023961847
73	0xbc18d5e6	-0.009328341
74	0xbbb3f88f	-0.005492277
75	0x3c4b12db	0.012394632
76	0xbc7680b9	-0.015045338
77	0xbbe61dee	-0.007022611
78	0xbb8ba44f	-0.0042615305
79	0xbc4a7163	-0.012356135
80	0xbb89d412	-0.004206189
81	0xbb960b1a	-0.00457896
82	0x3bf0351c	0.00733055
83	0xbc103a53	-0.008802968
84	0xbc1b849b	-0.009492065
85	0x3c664859	0.014055335
86	0x3b45412b	0.0030098658
87	0x3c9b7662	0.018977348
88	0xbb81eca0	-0.0039649755
89	0xbc97d7f6	-0.018535595
90	0xbbef2b59	-0.0072988686
91	0xbbdff1ba	-0.006834236
92	0x3af2553a	0.0018488534
93	0xbaf043c4	-0.0018330743
94	0xbba2a80c	-0.0049638804
95	0xbb843a8f	-0.004035301
96	0x3bf6e443	0.007534535
97	0x3a9da4eb	0.0012027299
98	0x3baf41ed	0.005348435
99	0x3c426b64	0.011866424
100	0x3ca1eaf9	0.019765364
101	0x3c4a9553	0.012364703
102	0x3d031588	0.032002956
103	0xbbeaf1b7	-0.007169928
104	0xbca1aaba	-0.01973473
105	0x39f18ac8	0.00046070502
106	0xbc242f95	-0.01002111
107	0xbc677dd1	-0.014129118
108	0xbc52c3ae	-0.0128640365
109	0xbc3f3d28	-0.011672296
110	0x3bb0bd74	0.0053936783
111	0x3a8840ed	0.0010395326
112	0xbbe29c84	-0.006915631
113	0xbc8679cb	-0.016415497
114	0xbc6c4262	-0.014420124
115	0xbc9ef39c	-0.019403271
116	0x3b11c571	0.0022242928
117	0x39b116f6	0.00033777178
118	0x3b6b75fa	0.0035928474
119	0xbc3d787b	-0.011564369
120	0x3be31aeb	0.006930699
121	0x3c12e08c	0.008964669
122	0x3c216a4d	0.009852004
123	0xbc2a1579	-0.010381096
124	0x3bc1ddb6	0.0059163226
125	0xbbd7c9de	-0.0065853437
126	0xba83aa72	-0.0010045303
127	0xbb6b3569	-0.003588999

gcn_layers.1.lin.weight f4 [128, 64]
0	0xbe04f777	-0.12985025
1	0xbd43a4aa	-0.047764458
2	0x3e34d357	0.17658745
3	0x3ccd4eed	0.025062049
4	0xbdc93496	-0.09824483
5	0x3bc7249c	0.006077362
6	0xbd217fa8	-0.039428383
7	0xbc209005	-0.009799962
8	0xbe27ff64	-0.16406018
9	0x3ccf953f	0.02533972
10	0xbd85a4fb	-0.06525608
11	0x3e2a9043	0.16656594
12	0x3e690f93	0.22759847
13	0xbe41915a	-0.18903103
14	0xbe131244	-0.14362437
15	0xbdd3639e	-0.10321735
16	0xbd918cb3	-0.07106914
17	0x3e442ce0	0.19157743
18	0x3e47596f	0.1946771
19	0xbe1244b2	-0.14284018
20	0x3d1cb673	0.038259935
21	0x3e0661f4	0.13123304
22	0xbcbf528e	-0.023354795
23	0x3e31ba65	0.1735626
24	0xbde70a84	-0.112813026
25	0x3df5b66f	0.11997687
26	0x3e2e6825	0.17031915
27	0xbd10fbb4	-0.035396293
28	0x3d916ee9	0.071012326
29	0x3dccf222	0.10007121
30	0x3dab6937	0.083696775
31	0xbdeb86a2	-0.115002885
32	0xbde80e54	-0.11330858
33	0x3e126dc1	0.1429968
34	0x3d3c5ef6	0.045989
35	0x3de34a27	0.11098128
36	0x3e32a532	0.1744583
37	0x3e0e071e	0.13869902
38	0xbe00c3cd	-0.12574692
39	0xbe22636a	-0.15858236
40	0xbd952e13	-0.072841786
41	0x3d3b8730	0.04578322
42	0x3d626401	0.055271152
43	0x3c4d1982	0.012518289
44	0xbd708a82	-0.05872584
45	0xbe27c967	-0.16385423
46	0x3e2b6969	0.1673943
47	0xbdfdf028	-0.12399322
48	0x3e2fbffc	0.1716308
49	0x3d816d57	0.06319683
50	0xbdd89241	-0.10574771
51	0x3c844e3b	0.016150584
52	0x3d912f53	0.070891045
53	0x3d1bf0db	0.038071495
54	0xbc1e2820	-0.009653121
55	0xbd71b20c	-0.05900769
56	0xbdc82d17	-0.09774225
57	0x3ad2c000	0.0016078949
58	0x3df25449	0.11832482
59	0x3d94f4a8	0.07273227
60	0xbd5dcccb	-0.054150384
61	0x3defe71e	0.11714004
62	0xbe086c04	-0.13322455
63	0xbd0c7d2c	-0.03429906
64	0xbda491e9	-0.08035643
65	0xbd909bec	-0.0706099
66	0xbda0f920	-0.07860017
67	0xbe2e7f98	-0.1704086
68	0xbdb994d2	-0.09061588
69	0xbdb55667	-0.088543706
70	0xbde75bd8	-0.11296815
71	0x3e24b789	0.16085638
72	0x3df18458	0.11792821
73	0x3e1d0873	0.15335254
74	0x3cafd916	0.02146582
75	0x3de0103f	0.10940599
76	0xbdc668ca	-0.09687956
77	0xbdd73d82	-0.105097786
78	0x3d885041	0.06655932
79	0xbda3336f	-0.079687946
80	0xbcfddba0	-0.030988514
81	0xbde7d1a8	-0.11319286
82	0xbdd1b766	-0.102400586
83	0xbdb552bb	-0.0885367
84	0x3cf7e767	0.030261708
85	0xbd147ffa	-0.03625486
86	0xbca73e72	-0.020415518
87	0xbdbf236e	-0.093329296
88	0xbc4205c2	-0.011842193
89	0xbc1c842b	-0.009552996
90	0x3cf0e6b8	0.02940689
91	0x3d8f7546	0.0700479
92	0x3ddbbe20	0.10729623
93	0x3e1a902d	0.15094061
94	0x3e105aba	0.1409711
95	0x3e40f505	0.18843468
96	0xbcab8e54	-0.02094189
97	0x3e2119a1	0.15732433
98	0xbe534f6b	-0.20635764
99	0x3e23c4fd	0.15993114
100	0xbd8b1435	-0.067909636
101	0x3d912611	0.07087339
102	0x3d6b62e8	0.05746737
103	0xbcf14a98	-0.029454514
104	0xbe026031	-0.12732007
105	0xbe2af4d8	-0.16694963
106	0x3e3507ba	0.17678729
107	0x3e25610a	0.16150299
108	0xbe2043b6	-0.1565083
109	0x3de2e661	0.110790975
110	0xbe082191	-0.13294055
111	0x3e274d51	0.16338088
112	0xbcc79d4c	-0.024366997
113	0xbdc73bc3	-0.097281955
114	0x3e08439f	0.13307045
115	0x3d016696	0.031591974
116	0x3d5181e4	0.051149264
117	0x3e04847c	0.12941164
118	0xbdcb943a	-0.09940381
119	0xbddd2ca1	-0.10799528
120	0xbe2172f8	-0.15766513
121	0xbe21b1fa	-0.15790549
122	0x3bd7ab7d	0.0065817223
123	0xbd83fd18	-0.06444758
124	0xbc567cfd	-0.013091323
125	0xbdc86254	-0.097843796
126	0xbe05ba15	-0.13059266
127	0xbad647b6	-0.0016348276
128	0x3debd5db	0.11515399
129	0x3e1d8d8d	0.15386029
130	0xbde1117f	-0.10989665
131	0xbdef6e74	-0.11690989
132	0xbe1fafa5	-0.15594347
133	0x3daf5bef	0.08562457
134	0xbdf9fa32	-0.12205924
135	0xbe2a2b6a	-0.16618124
136	0xbddf1bd4	-0.1089398
137	0x3d709be1	0.058742408
138	0x3d83359a	0.06406708
139	0x3d3af929	0.045647774
140	0xbe51ffe8	-0.20507777
141	0x3dd81b1f	0.10552048
142	0x3db5fdad	0.088862754
143	0x3e1fd296	0.15607676
144	0x3d9125f6	0.070873186
145	0xbd773662	-0.060354598
146	0xbe2981a2	-0.16553357
147	0xbe3942c4	-0.18091875
148	0x3dbd7b65	0.09252051
149	0x3d9720c0	0.073792934
150	0xbdd852b8	-0.10562652
151	0x3dc5c201	0.09656144
152	0x3deab8af	0.11461007
153	0x3dd2ee55	0.102993645
154	0xbd806b27	-0.06270438
155	0xbd4d75e8	-0.050161272
156	0x3cd71421	0.026254715
157	0x3ccfd5fc	0.02537059
158	0x3e00c03a	0.12573329
159	0x3d732afa	0.059367158
160	0xbd9fad67	-0.07796746
161	0x3e1e1a0b	0.15439622
162	0x3dea9dc6	0.11455874
163	0xbe1a77cb	-0.1508476
164	0x3cc0dc7b	0.023542633
165	0xbe3abeb9	-0.18236817
166	0x3cd1c9bd	0.025608892
167	0x3d48908c	0.048965976
168	0x3dd78da2	0.10525061
169	0x3df6c7da	0.120498374
170	0xbd713a6a	-0.0588936
171	0x3db1e09d	0.0868542
172	0x3bd6bf8b	0.0065535954
173	0x3d54b6d6	0.05193218
174	0xbddfcfc3	-0.10928299
175	0x3a7abbd6	0.0009564733
176	0x3da3a9cf	0.07991373
177	0xbc978027	-0.018493725
178	0x3d346aa3	0.04404701
179	0x3dd51bb8	0.104056776
180	0x3df46283	0.11932852
181	0x3da9a9af	0.08284318
182	0xbe18b4f2	-0.14912775
183	0x3e119510	0.14217019
184	0xbd64d61f	-0.055868264
185	0x3e01480d	0.12625141
186	0x3e1c95ac	0.1529147
187	0xbc581afa	-0.013190025
188	0xbd1a08f9	-0.037606213
189	0xbdfa516f	-0.122225635
190	0x3d9c285a	0.07624884
191	0xbb9cfe59	-0.004791063
192	0xbdd41928	-0.10356361
193	0xbd9c241c	-0.07624075
194	0xbd9f2fbb	-0.07772776
195	0x3dfc35d9	0.12314958
196	0xbdc2d229	-0.09512741
197	0x3d33da63	0.04390944
198	0x3e1cde80	0.15319252
199	0xbe13f3e2	-0.14448503
200	0xbe3a2740	-0.18179035
201	0x3d5a741e	0.053333394
202	0x3d9716c5	0.0737739
203	0xbba63258	-0.0050719194
204	0xbcf2a968	-0.029621795
205	0x3d637501	0.055531505
206	0xbe260740	-0.16213703
207	0xbdc29510	-0.09501088
208	0xbe25f8e9	-0.16208233
209	0x3d82aebc	0.06380984
210	0xbe42a37b	-0.19007675
211	0x3e2666db	0.16250174
212	0x3d994ab8	0.074849546
213	0xbd9082ae	-0.07056175
214	0x3d7480c1	0.0596931
215	0x3e199a8a	0.15000358
216	0xbdab60b3	-0.08368053
217	0x3d92b5ff	0.07163619
218	0xbdbd2178	-0.09234899
219	0x3e222c2d	0.15837164
220	0x3d6da0da	0.058014728
221	0x3b87a93c	0.0041400474
222	0x3d3b7a58	0.045770973
223	0xbc141b43	-0.009039703
224	0x3c2c0a2f	0.010500475
225	0x3c81d0b0	0.01584658
226	0xbd7d9df2	-0.061918207
227	0xbdf624ba	-0.12018724
228	0xbda8cc37	-0.08242076
229	0xbd5d12c6	-0.053972982
230	0x3df95f23	0.12176349
231	0xbd6a48fe	-0.057198517
232	0xbd90bc3b	-0.07067152
233	0xbdd266ce	-0.10273515
234	0xbd55b346	-0.05217292
235	0xbe02aaab	-0.12760417
236	0x3d23be87	0.039976623
237	0x3cfc2ea7	0.030783964
238	0x39997bb7	0.0002927461
239	0xbcdab2c2	-0.026696566
240	0x3cf29ea3	0.02961666
241	0xbe16f98f	-0.14743637
242	0xbd01ddd1	-0.03170568
243	0x3e384635	0.17995532
244	0xbd91675c	-0.07099792
245	0xbe35ffc0	-0.17773342
246	0x3d03dc05	0.03219225
247	0x3dfc6591	0.1232406
248	0xbdb1f2ca	-0.086888865
249	0xbdbcdf17	-0.092222385
250	0x3e12433f	0.14283465
251	0xbd2429f1	-0.04007906
252	0xbca2c61a	-0.019869853
253	0x3d4ed26c	0.050493643
254	0xbd3383de	-0.04382693
255	0x3ca4ea69	0.020131307

gat_layers.0.att_src f4 [1, 4, 64]
0	0x3d6737d5	0.05644973
1	0xbd855471	-0.065102465
2	0x3e9a5747	0.30144712
3	0xbe12837f	-0.14307974
4	0xbe9e3632	-0.30900723
5	0x3e824d3a	0.25449544
6	0xbd913778	-0.07090658
7	0x3d09b112	0.033616133
8	0x3e079a5e	0.1324248
9	0xbbcd5769	-0.0062665236
10	0xbe8a1623	-0.26970014
11	0xbdedc54d	-0.11609898
12	0x3e3ab1df	0.18231915
13	0x3d26f95e	0.04076516
14	0x3e9cbf26	0.30614585
15	0x3e112abf	0.14176463
16	0x3e55862e	0.20851967
17	0x3dd7c78b	0.10536107
18	0x3e54f183	0.20795254
19	0x3e80a2c5	0.25124183
20	0x3d9035bf	0.07041501
21	0xbc48ec47	-0.012263364
22	0xbe1ce550	-0.15321851
23	0xbdbd01e7	-0.092288785
24	0x3e9139ba	0.28364354
25	0xbdf86c57	-0.12130039
26	0xbe30ef22	-0.17278722
27	0xbe09cff2	-0.13458231
28	0x3e2e234f	0.17005657
29	0xbe362f4a	-0.17791477
30	0xbe0af441	-0.13569738
31	0xbe550776	-0.20803627
32	0x3d53545a	0.051594116
33	0x3e3cb93a	0.18430033
34	0x3e3bba3c	0.18332762
35	0x3e1c7d42	0.15282157
36	0xbe873519	-0.26407698
37	0xbe13e402	-0.14442447
38	0x3e886ace	0.26643986
39	0x3dff5594	0.124674946
40	0x3e40c85d	0.18826433
41	0xbe92e711	-0.28691915
42	0xbe431dc7	-0.19054328
43	0x3e01477c	0.12624925
44	0xbea60103	-0.32422647
45	0x3e587ae2	0.21140626
46	0x3d7ac98d	0.06122737
47	0xbe5fb4b3	-0.21846275
48	0xbe77184d	-0.24130364
49	0x3dd2b989	0.10289294
50	0x3e52c975	0.20584662
51	0xbe270b51	-0.1631291
52	0xbe0577c0	-0.13033962
53	0xbe45fc57	-0.19334541
54	0x3e453070	0.19256759
55	0x3e82161b	0.2540749
56	0x3e6021e2	0.21887925
57	0xbd1942b1	-0.037417118
58	0x3dbefe47	0.09325843
59	0xbe07f603	-0.1327744
60	0xbe70edd5	-0.23528226
61	0x3e2c97fe	0.16854855
62	0xbe45cb4f	-0.19315837
63	0x3d61efb5	0.055160243
64	0x3e5479d3	0.20749597
65	0x3e8ec2c9	0.27882984
66	0x3e77161b	0.24129526
67	0x3e1f6856	0.15567145
68	0xbac72c0a	-0.001519562
69	0xbe86e56d	-0.26346913
70	0xbe431c4d	-0.19053765
71	0x3d838f43	0.064238094
72	0x3e7abda7	0.24486409
73	0xbe53ef0b	-0.20696656
74	0x3d81d0eb	0.06338676
75	0x3dc74507	0.09729963
76	0xbcaf6039	-0.021408187
77	0xbe0a12cd	-0.13483734
78	0x3e877416	0.26455754
79	0xbd4376f3	-0.04772086
80	0x3e816d74	0.2527882
81	0x3e950405	0.2910463
82	0xbc15c9d7	-0.009142361
83	0xbe2205f6	-0.15822586
84	0x3e66b5fc	0.22530359
85	0xbdb3c49e	-0.08777736
86	0xbc7fd9a7	-0.015615857
87	0xbc4dd6b1	-0.012563393
88	0xbe280c1b	-0.16410868
89	0xbe2688e8	-0.16263163
90	0x3e6c7918	0.23093069
91	0xbdc6cc41	-0.09706927
92	0xbddef62d	-0.10886798
93	0xbdc54628	-0.09632522
94	0x3e950536	0.29105538
95	0x3e845572	0.2584644
96	0xbd2f7acc	-0.042841718
97	0xbe8f9b21	-0.2804804
98	0x3e6acb27	0.22929059
99	0xbc8e97b7	-0.017406328
100	0xbd7adb35	-0.06124421
101	0x3e416e10	0.18889642
102	0x3d8b4a08	0.0680123
103	0x3dca0395	0.098639645
104	0x3cd5a346	0.026078831
105	0x3d593c0d	0.053035785
106	0x3e9945a5	0.29935947
107	0x3e00baa6	0.125712
108	0xbd381365	-0.04494037
109	0x3d3b656d	0.045751024
110	0xbe6e54a3	-0.23274474
111	0xbd7f5e06	-0.062345527
112	0x3dc29fd5	0.09503142
113	0x3e0336e5	0.1281391
114	0x3e45d257	0.1931852
115	0xbe60942d	-0.21931525
116	0x3dff7c94	0.12474933
117	0x3e92dfbd	0.28686324
118	0x3e20ddcb	0.15709607
119	0x3b4b0596	0.0030978671
120	0xbe6a3f0d	-0.22875614
121	0x3dcc39e5	0.0997198
122	0xbd651cb7	-0.055935588
123	0xbde8619f	-0.11346745
124	0x3e5e784a	0.21725574
125	0x3e15b724	0.14620644
126	0xbd8fefa4	-0.0702813
127	0x3e753340	0.23945332
128	0xbea56d7f	-0.323101
129	0xbe691099	-0.22760238
130	0xbd28863a	-0.041143633
131	0x3e126916	0.142979
132	0xbe80eac2	-0.25179106
133	0xbe1421c4	-0.14466006
134	0xbe37a4f5	-0.1793402
135	0x3d9f3972	0.07774629
136	0x3e4fdd53	0.20299272
137	0x3e13d8b1	0.1443813
138	0xbe238108	-0.1596719
139	0x3e8a6325	0.27028766
140	0xbd8bb332	-0.06821288
141	0x3e57d8e6	0.21078834
142	0x3e5fd3a3	0.21858077
143	0x3d9f31f1	0.077731974
144	0x3d8c8517	0.068613224
145	0x3dccbc5c	0.09996864
146	0xbe82f2cb	-0.2557586
147	0xbe204bc3	-0.15653901
148	0xbe9404ba	-0.28909856
149	0xbd89320e	-0.06699
150	0x3ddc256a	0.10749324
151	0xbe877e50	-0.26463556
152	0xbb92252e	-0.0044599986
153	0x3e162f27	0.14666425
154	0x3e1d3f8c	0.15356272
155	0xbe3acc71	-0.1824205
156	0xbdd0300c	-0.10165414
157	0x3c8e3448	0.017358914
158	0xbe641f23	-0.22277503
159	0x3d6440ff	0.055726048
160	0xbe697feb	-0.22802703
161	0x3d451947	0.04811981
162	0x3e9097ce	0.28240818
163	0xbe80deab	-0.25169882
164	0xbe300b43	-0.17191796
165	0xbe1fac0c	-0.15592974
166	0xbdc0a203	-0.09405901
167	0x3e23bc65	0.15989836
168	0xbe5a1631	-0.21297528
169	0x3e80609b	0.25073704
170	0x3e66738f	0.2250502
171	0xbc225a91	-0.009909288
172	0x3e75be28	0.2399832
173	0xbdbef84b	-0.09324702
174	0xbe53f968	-0.2070061
175	0x3e05c26f	0.13062452
176	0xbd6a55cc	-0.05721073
177	0xbda9cb80	-0.08290768
178	0xbde89a52	-0.11357559
179	0xbe92949b	-0.28629002
180	0xbe6a32e9	-0.22870983
181	0x3d7647cd	0.06012707
182	0x3d9f834a	0.07788713
183	0xbe3154fb	-0.17317574
184	0xbd94b712	-0.072614804
185	0x3e787a14	0.24265319
186	0x3df88362	0.12134434
187	0x3e333524	0.1750074
188	0x3e8f981b	0.28045735
189	0xbe6bff1b	-0.23046534
190	0xbe7bbb3c	-0.24583143
191	0x3e4a167d	0.19735141
192	0xbe3ab8fe	-0.18234631
193	0x3e919a85	0.28438202
194	0xbe372862	-0.17886499
195	0xbe3211a5	-0.17389543
196	0x3e4ad009	0.19805922
197	0x3e8c5545	0.27408805
198	0xbe834677	-0.25639698
199	0x3e13f9e1	0.1445079
200	0x3e16fe7e	0.14745519
201	0xbdd46fb2	-0.10372867
202	0x3e012791	0.1261275
203	0x3d96b87e	0.07359408
204	0xbd1798d9	-0.037011
205	0xbdedd92a	-0.116136864
206	0xbe5a6c38	-0.21330345
207	0x3e76e20a	0.24109665
208	0x3e7c05cd	0.24611588
209	0xbe0708d2	-0.13186958
210	0x3bd40f2d	0.0064715357
211	0x3d81a34f	0.06329977
212	0x3c4e6371	0.012596951
213	0xbcee435b	-0.029084852
214	0x3e48c9dd	0.19608255
215	0xbe35de57	-0.17760597
216	0x3e8f1eab	0.27953085
217	0x3e7776ed	0.2416646
218	0xbc8f0bd9	-0.017461704
219	0x3e3e78c2	0.18600753
220	0xbd5cad7d	-0.05387639
221	0x3e81e6d7	0.2537143
222	0x3e8d6c3b	0.27621636
223	0xbd9caf73	-0.07650652
224	0xbd119400	-0.035541534
225	0x3d9c3179	0.07626624
226	0xbe9893d0	-0.29800272
227	0x3c9fe14e	0.019516613
228	0xbe13cb3c	-0.14432997
229	0xbca5668f	-0.020190505
230	0xbe671740	-0.22567463
231	0x3e8cc289	0.2749217
232	0xbe12b3dc	-0.14326423
233	0x3e52fd6e	0.20604488
234	0xbda26fd9	-0.079314895
235	0x3e4b1271	0.19831254
236	0x3df854d9	0.121255584
237	0xbe65c414	-0.22438079
238	0xbe4289ef	-0.1899793
239	0xbdcec0d2	-0.10095371
240	0xbe20e96f	-0.15714048
241	0xbe7bfa67	-0.2460724
242	0xbd2563d9	-0.040378425
243	0xbe6690ff	-0.22516249
244	0x3e7f5495	0.24934609
245	0x3e3569df	0.17716168
246	0xbe24c0d2	-0.1608918
247	0xbd8b9eeb	-0.068174206
248	0xbe0bf94e	-0.13669321
249	0xbc6d46de	-0.014482228
250	0xbde93559	-0.113871284
251	0xbdfd4385	-0.12366394
252	0x3dad6a1d	0.08467505
253	0xbe7c8f0a	-0.2466394
254	0xbe4ed1b8	-0.20197189
255	0x3e5a9fb3	0.21349983

gat_layers.0.att_dst f4 [1, 4, 64]
0	0xbe82680b	-0.25470003
1	0x3d993c75	0.074822344
2	0x3ddc2548	0.10749298
3	0xbd174d58	-0.036938995
4	0xbe946bf0	-0.289886
5	0x3e19f58f	0.1503508
6	0xbdb34f0d	-0.08755312
7	0xbded2aa6	-0.115804
8	0xbe0c6ec8	-0.13714135
9	0x3dd40bc3	0.10353806
10	0xbdc9b22c	-0.09848437
11	0xbe3ba829	-0.18325867
12	0xbe2cff20	-0.16894197
13	0xbe095f27	-0.13415204
14	0x3cd8b5df	0.02645391
15	0xbe35bcce	-0.17747805
16	0x3d9e9681	0.0774355
17	0x3e2ba872	0.16763476
18	0xbe8e4d43	-0.2779332
19	0xbe8f69b3	-0.2801033
20	0xbdec7a5c	-0.11546776
21	0xbdc6ff28	-0.09716636
22	0xbde17d26	-0.11010198
23	0xbd00689a	-0.031349756
24	0xbe2f9bb9	-0.17149247
25	0x3e67fc47	0.2265483
26	0x3dffcabb	0.1248984
27	0xbe040a8c	-0.12894648
28	0x3e7b38e9	0.24533428
29	0xbdc75792	-0.097334996
30	0xbc211e2e	-0.009833856
31	0x3e5af205	0.21381386
32	0x3e488b03	0.19584279
33	0x3d283e4c	0.041075036
34	0x3e014032	0.12622145
35	0x3d8549cd	0.06508217
36	0x3e746bf3	0.23869304
37	0xbb7e1c96	-0.0038774363
38	0x3e4be71b	0.19912378
39	0xbe88ab54	-0.26693213
40	0x3db2e315	0.08734719
41	0x3d3e0480	0.04639101
42	0xbe46fd5a	-0.19432583
43	0x3e586039	0.21130456
44	0xbe132fc3	-0.14373688
45	0xbe470302	-0.19434741
46	0x3e7b65ca	0.24550548
47	0xbd6ea9c4	-0.05826737
48	0x3e57b909	0.21066679
49	0x3e03b5fd	0.12862392
50	0x3de0aeb6	0.109708235
51	0x3dc8784f	0.09788572
52	0x3d2b203b	0.041778784
53	0xbc173e64	-0.009231184
54	0x3e684e5b	0.2268614
55	0xbd9cb382	-0.07651426
56	0xbd912068	-0.07086259
57	0xbe3ccbd5	-0.18437131
58	0x3da02997	0.07820433
59	0x3e93057e	0.28715128
60	0xbd71d007	-0.05903628
61	0xbe437365	-0.19086988
62	0xbc6462b6	-0.01393955
63	0x3e4bdc6e	0.19908306
64	0xbe87eeaa	-0.26549274
65	0x3d831d7b	0.06402107
66	0xbd512e14	-0.051069334
67	0x3e925b26	0.28585166
68	0x3da1bd83	0.078974746
69	0xbdf55034	-0.11978188
70	0xbccff509	-0.025385397
71	0x3db1a2cf	0.086736314
72	0xbe919a08	-0.2843783
73	0x3e2ec18b	0.17066018
74	0xbd00f6ac	-0.031485245
75	0xbddc4cf7	-0.107568674
76	0x3e054fc1	0.13018705
77	0xbe518ebb	-0.20464604
78	0xbcfc9abe	-0.030835506
79	0x3e3b9312	0.18317822
80	0xbddca699	-0.107739635
81	0xbda24463	-0.079232
82	0xbe867d62	-0.26267534
83	0x3e83571f	0.25652406
84	0x3e7842d2	0.2424424
85	0x3e8dd2a2	0.27699763
86	0x3e7aca7d	0.24491306
87	0x3e2cf221	0.1688924
88	0x3e35a600	0.17739105
89	0x3e37d907	0.17953883
90	0xbdf82b10	-0.121175885
91	0xbe18b76f	-0.14913724
92	0xbcc16a89	-0.02361037
93	0xbe433452	-0.19062927
94	0xbdca4d05	-0.098779716
95	0x3e2018ac	0.15634412
96	0x3e849798	0.25896907
97	0xbc8622b9	-0.016373979
98	0x3e43badd	0.19114251
99	0x3bd89eb1	0.0066107144
100	0x3ba76f9e	0.0051097414
101	0xbd16bcb6	-0.036801063
102	0xbe76021e	-0.24024245
103	0x3e8f648b	0.28006396
104	0x3e350fff	0.17681883
105	0x3e20eb2c	0.15714711
106	0x3e9345ce	0.28764194
107	0xbe307dd7	-0.17235504
108	0x3db5bad1	0.08873523
109	0x3d899fa2	0.06719901
110	0xbe53407c	-0.20630068
111	0x3e937221	0.2879801
112	0x3e21a353	0.1578496
113	0xbcd6285a	-0.026142288
114	0xbe6523df	-0.22376965
115	0x3db61aaf	0.08891808
116	0x3e845b77	0.25851032
117	0x3e70c93f	0.2351427
118	0x3e3b5262	0.18293145
119	0x3d324b15	0.043528635
120	0xbe5c82d3	-0.2153428
121	0x3dabfcb7	0.08397811
122	0xbe3a9106	-0.18219385
123	0x3da029e2	0.078204885
124	0xbe5ece97	-0.21758495
125	0x3d0a142a	0.033710636
126	0xbe18c3ea	-0.14918485
127	0x3e01dcc0	0.12681866
128	0xbd0f7514	-0.035023764
129	0x3ca9d564	0.020731635
130	0x3d79a5b5	0.060949046
131	0x3d9d668e	0.076855764
132	0x3c63eec0	0.013911903
133	0x3d7a78f8	0.06115052
134	0xbe85a493	-0.26102123
135	0xbde09c35	-0.10967294
136	0x3c5fdb19	0.013663077
137	0xbdf797ae	-0.120894775
138	0x3e163969	0.14670338
139	0xbab5322a	-0.0013824154
140	0xbe652622	-0.22377828
141	0x3dae6670	0.08515632
142	0xbe0b843b	-0.1362466
143	0x3dfad246	0.12247138
144	0xbe10a8ff	-0.14126967
145	0xbdb2c456	-0.08728854
146	0x3d1f03c6	0.038821958
147	0x3e54f77d	0.20797534
148	0x3b84e763	0.0040559038
149	0x3e8a5f64	0.27025902
150	0xbd1a6390	-0.037692606
151	0xbe26ad59	-0.16277064
152	0x3e95d378	0.292629
153	0x3de4f9b1	0.11180437
154	0x3e40173a	0.1875886
155	0x3e78a5c0	0.24281979
156	0x3e111ce3	0.14171176
157	0x3dafd193	0.08584895
158	0x3e35b6b3	0.17745475
159	0x3d3d8661	0.04627073
160	0xbe685b16	-0.22690997
161	0xbe645ab5	-0.22300227
162	0x3e33186f	0.1748979
163	0xbc65fc28	-0.0140371695
164	0xbe314967	-0.17313157
165	0xbd9185f9	-0.071056314
166	0xbe1503df	-0.14552258
167	0x3e8e3b90	0.27779818
168	0x3e09bfcc	0.13452071
169	0x3dd18719	0.10230846
170	0xbe040ac9	-0.12894739
171	0x3e935555	0.2877604
172	0x3d67f370	0.056628644
173	0x3e6997e1	0.22811843
174	0xbd3d0b94	-0.04615362
175	0xbe91b887	-0.28461096
176	0x3df70a2f	0.12062489
177	0xbe06d8ff	-0.13168715
178	0xbe181f88	-0.14855778
179	0x3d043ff4	0.032287553
180	0x3e2e6063	0.17028956
181	0xbdfd8015	-0.12377945
182	0x3d951a6d	0.07280431
183	0xbe337b82	-0.17527583
184	0xbe50a453	-0.20375185
185	0x3e66bf40	0.22533894
186	0x3d54a3f2	0.051914163
187	0x3e01233b	0.12611096
188	0xbc517e8d	-0.01278652
189	0xbe077780	-0.1322918
190	0x3dce4754	0.100721985
191	0x3e9972bc	0.29970348
192	0xbc329252	-0.010899143
193	0x3da9dfbd	0.08294628
194	0xbe5fdbf1	-0.21861245
195	0x3e2d7bd9	0.16941775
196	0x3e32d007	0.17462169
197	0x3c8113d8	0.015756533
198	0xbe0127bf	-0.12612818
199	0xbe55531a	-0.20832482
200	0xbe7ddc73	-0.24791126
201	0x3e0485a4	0.12941605
202	0xbe0936f4	-0.13399869
203	0xbe99dad0	-0.30049753
204	0x3d11acba	0.035565116
205	0x3e864273	0.26222572
206	0xbe5ae524	-0.21376473
207	0x3d457e5c	0.04821621
208	0xbe676e93	-0.22600774
209	0xbe470c73	-0.19438343
210	0xbd692af0	-0.056925714
211	0x3de9ffd1	0.11425746
212	0x3dc33dc8	0.09533268
213	0xbe9aa08b	-0.3020061
214	0xbe9128da	-0.2835148
215	0xbd5f6294	-0.05453737
216	0x3e84aee2	0.25914675
217	0x3d1af74f	0.037833508
218	0xbce5b27b	-0.028039208
219	0x3e8fde5e	0.2809934
220	0x3e56b4c0	0.20967388
221	0x3d14615c	0.03622566
222	0xbe86b67c	-0.263111
223	0xbe6f85ac	-0.23390836
224	0x3e3b7521	0.183064
225	0x3e9a5b4f	0.30147788
226	0xbe0806e9	-0.13283886
227	0xbd42a858	-0.047523826
228	0x3e9c982a	0.30584842
229	0xbd4026a7	-0.04691186
230	0xbe82c99c	-0.2554444
231	0xbe1092c2	-0.14118484
232	0xbe648eb8	-0.22320068
233	0x3e004a13	0.12528257
234	0x3c990b5d	0.018682176
235	0xbcfe82ca	-0.031068224
236	0x3e24c077	0.16089045
237	0x3e156463	0.14589076
238	0x3e340a6e	0.17582104
239	0xbe1583eb	-0.14601104
240	0x3d41829d	0.047243703
241	0x3e850ba5	0.25985447
242	0x3cb067e7	0.02153392
243	0x3e459c9a	0.1929802
244	0x3e4d931c	0.20075649
245	0x3c0f8e50	0.008761957
246	0x3acf91af	0.0015836264
247	0xbe4ddf08	-0.20104611
248	0xbdbda747	-0.09260421
249	0xbc966842	-0.01836026
250	0x3dfa99d6	0.12236373
251	0xbc122588	-0.008920081
252	0x3e4699fe	0.19394681
253	0x3d8188b4	0.06324902
254	0xbda064a7	-0.07831698
255	0xbe2345a5	-0.15944536

gat_layers.0.bias f4 [64]
0	0x00000000	0.0
1	0xbc86d0e9	-0.016457038
2	0xbca817bb	-0.020519128
3	0xbc4827f8	-0.012216561
4	0xbb40b8be	-0.002940699
5	0x3c4bfcfa	0.012450451
6	0x393e0900	0.00018123165
7	0x00000000	0.0
8	0xbba9f8b1	-0.005187117
9	0xbb21cf42	-0.0024690186
10	0xbc3aed87	-0.01140917
11	0xbb4e6353	-0.0031492307
12	0x00000000	0.0
13	0xbc20ac86	-0.009806758
14	0x3b8d8c82	0.0043197284
15	0xbcbf99e5	-0.023388812
16	0xbb59b210	-0.0033217706
17	0xbc6a4a6a	-0.014299968
18	0x3b4c191b	0.0031142894
19	0x3b9ab2bd	0.0047210143
20	0xbc6c71d7	-0.014431438
21	0xbbc8b884	-0.0061255116
22	0x3c64cf53	0.013965446
23	0xbc984616	-0.018588107
24	0xbbcdfdf1	-0.0062863757
25	0x3aa667b2	0.0012695699
26	0x00000000	0.0
27	0x3b3a1ac0	0.0028397292
28	0x3ac6033b	0.0015107164
29	0xbabdfdaf	-0.0014495159
30	0xbad58163	-0.0016289171
31	0xbc271ce4	-0.010199759
32	0xbc0c8809	-0.008577355
33	0x00000000	0.0
34	0xbab0b931	-0.0013482926
35	0xbb92117e	-0.0044576516
36	0xbc4da3da	-0.012551272
37	0x3b7de278	0.0038739722
38	0xb99fd655	-0.00030486533
39	0x00000000	0.0
40	0x00000000	0.0
41	0x00000000	0.0
42	0x3c95dd1b	0.018293908
43	0xb9d17d6e	-0.0003995704
44	0x00000000	0.0
45	0x00000000	0.0
46	0x3cbdc0a7	0.023163153
47	0xbc052114	-0.008125562
48	0xbb50f002	-0.0031881337
49	0xbc121c83	-0.008917931
50	0xbc3b73c2	-0.011441173
51	0x3cf4cbfa	0.02988242
52	0xbb521a83	-0.003205926
53	0x00000000	0.0
54	0x39fa452a	0.00047735247
55	0x3c26e75f	0.010186999
56	0xbc004112	-0.007828014
57	0x00000000	0.0
58	0xbc1d6ba0	-0.009608179
59	0xbc475777	-0.012166849
60	0x00000000	0.0
61	0xbc1f645f	-0.00972852
62	0xbc2dc46f	-0.010605915
63	0xbc277eb3	-0.010223079

gat_layers.0.lin.weight f4 [256, 36]
0	0xbc84ee1b	-0.016226819
1	0xbd0bae8a	-0.034102
2	0x3df16b89	0.11788089
3	0x3dec2cdd	0.115319945
4	0xbc6be3a8	-0.014397539
5	0xbe25ab00	-0.16178513
6	0xbd49afca	-0.04923991
7	0x3dccd034	0.10000649
8	0xbdfdc38c	-0.12390813
9	0x3dcccd2a	0.100000694
10	0xbd3c8400	-0.046024323
11	0xbdc4b596	-0.09604947
12	0xbd9a369c	-0.07529947
13	0xbda66414	-0.08124557
14	0x3d871184	0.06595138
15	0xbe029f0d	-0.12755986
16	0xbd5aec1e	-0.053447835
17	0x3dddc242	0.10828067
18	0x3dc1d178	0.09463781
19	0xbd579986	-0.052636646
20	0xbd621d7e	-0.055203907
21	0x3cd2fce7	0.025755359
22	0xbd5c3a66	-0.05376663
23	0x3da1e37d	0.07904718
24	0xbdb7cbdb	-0.08974429
25	0xbdefaf8a	-0.11703403
26	0xbdca2d6c	-0.09871945
27	0xbd20ae71	-0.03922886
28	0xbe13b7c2	-0.14425567
29	0xbe06f81b	-0.13180582
30	0xbcfa35ee	-0.030543294
31	0xbd3df922	-0.04638017
32	0x3ded1a2a	0.11577256
33	0x3de0bf48	0.10973984
34	0x3d0396ce	0.03212624
35	0xb9a3556e	-0.00031153433
36	0xbda6185e	-0.081101164
37	0xbe1b0fc5	-0.15142734
38	0xbd64f2c8	-0.055895597
39	0xbe02dd34	-0.12779695
40	0xbbdc81ff	-0.006729364
41	0x3d7c3a6a	0.061579145
42	0xbe161674	-0.14657003
43	0xbd91651d	-0.07099364
44	0x3d536405	0.051609058
45	0xb906b400	-0.00012846291
46	0xbc87c808	-0.016574875
47	0x3e0f9597	0.14021908
48	0xbd55cbe4	-0.0521964
49	0xbdf55377	-0.1197881
50	0xbdd0ed3a	-0.102014974
51	0xbd97b190	-0.07406914
52	0x3dab8e9a	0.083768085
53	0x3d8fdfda	0.07025118
54	0x3d4a4694	0.049383715
55	0x3d054140	0.03253293
56	0x3e0e8397	0.13917385
57	0xbdfa2161	-0.12213398
58	0xbdd67a90	-0.10472596
59	0x3ac85004	0.0015282636
60	0x3dde9f4c	0.10870227
61	0xbe0bb347	-0.13642608
62	0xbd401c20	-0.046901822
63	0x3d97a6be	0.074048504
64	0x3deafa03	0.11473467
65	0xbe0c3393	-0.13691549
66	0xbdd04a09	-0.10170371
67	0x3de2a9e6	0.11067562
68	0x3c8c2578	0.01710771
69	0x3d2a1371	0.041522447
70	0xbe1a2cf7	-0.15056215
71	0xbcdff0c0	-0.027336478
72	0x3d065323	0.03279413
73	0xbc0387a9	-0.008027949
74	0x3e040e32	0.1289604
75	0x3dea3fa9	0.114379235
76	0xbdecbcd9	-0.11559457
77	0xbdd11fb5	-0.10211126
78	0xbdf7d6f5	-0.12101547
79	0x3b853640	0.004065305
80	0x3e205b47	0.1565982
81	0xbdbfb60a	-0.09360893
82	0x3d979bc8	0.0740276
83	0xbcb9aee4	-0.022666402
84	0x3dd54ddc	0.10415241
85	0x3c3f8c00	0.011691093
86	0xbd66a424	-0.05630888
87	0xbdabc98c	-0.083880514
88	0xbdd80013	-0.10546889
89	0xbdffdc61	-0.12493206
90	0x3d961a9c	0.07329294
91	0xbdf6bcd7	-0.12047737
92	0xbe067f56	-0.13134512
93	0x3e1954e4	0.1497379
94	0xbd23c994	-0.03998716
95	0x3c022379	0.007943028
96	0x3d1b80f7	0.037964787
97	0xbd2d2f14	-0.042281225
98	0xbd9f97aa	-0.077925995
99	0xbdbb3f78	-0.09142965
100	0x3d9d1df2	0.07671727
101	0xbddad52d	-0.10685191
102	0x3ca6b3e0	0.020349443
103	0x3db5c082	0.088746086
104	0xbb614fc0	-0.003437981
105	0x3c5e46a5	0.013566648
106	0x3d6387c9	0.055549417
107	0xbda7b9d5	-0.081897415
108	0xbdf284a1	-0.11841703
109	0x3cdbd85a	0.026836563
110	0x3d9fc806	0.07801823
111	0xbd828c1e	-0.063743815
112	0x3da84083	0.0821543
113	0xbdb15302	-0.086584106
114	0x3d91b8b1	0.07115305
115	0x3cae0d10	0.021246463
116	0xbc1a9c0f	-0.009436621
117	0xbda24036	-0.079224035
118	0x3ba18fa0	0.0049304515
119	0x3ddf266e	0.10896002
120	0x3d39eaa4	0.045389786
121	0x3e03e085	0.12878616
122	0xbdae8210	-0.08520901
123	0xbd84c10e	-0.06482135
124	0x3d7ae2e8	0.06125155
125	0xbab06000	-0.0013456345
126	0xbda92998	-0.082598865
127	0xbdc2cb62	-0.095114484
128	0x3dd0091e	0.10157989
129	0x3dd75fcb	0.10516318
130	0x3e03fbd9	0.12889041
131	0x3db8485f	0.08998179
132	0x3d935ce2	0.0719545
133	0x3de04f02	0.109525695
134	0x3d07398a	0.033013858
135	0xbe12bf60	-0.14330816
136	0x3e06bf04	0.13158804
137	0xbd6c967d	-0.057760704
138	0x3c594ecd	0.0132634165
139	0x3e0e980b	0.13925187
140	0x3deddaca	0.11613996
141	0x3de7fdd0	0.11327708
142	0x3d3dbfa6	0.04632535
143	0x3d9afa95	0.07567326
144	0xbdd23aa7	-0.10265093
145	0x3dbf45d4	0.093394905
146	0x3cc8224c	0.024430417
147	0x3d7f798d	0.06237178
148	0xbc8fdd94	-0.017561711
149	0xbc9be759	-0.019031214
150	0xbccd888f	-0.02508953
151	0x3dc5fe42	0.096676365
152	0x3c037f69	0.008025982
153	0xbdadb337	-0.08481448
154	0x3e0b9255	0.1363004
155	0x3dc80de6	0.09768276
156	0x3c927be0	0.017881334
157	0xbbc08c40	-0.005876094
158	0x3d524e30	0.051344097
159	0x3d59362c	0.053030178
160	0x3e124df7	0.14287554
161	0x3d601ff8	0.054717988
162	0xbc689ec0	-0.014198005
163	0xbd869675	-0.06571666
164	0xbda605f7	-0.081066065
165	0xbdd1ea6a	-0.10249789
166	0xbd1b8906	-0.037972473
167	0xbe21f273	-0.15815143
168	0x3d94d727	0.072675996
169	0x3c27a790	0.010232821
170	0xbcc1c909	-0.023655431
171	0xbd0a865b	-0.033819538
172	0x3b5246f1	0.0032085741
173	0x3dc27b4e	0.09496175
174	0xbc99d798	-0.01877956
175	0xbda17c0f	-0.078849904
176	0xbd5e13e6	-0.054218195
177	0xbd590783	-0.05298568
178	0xbe0c1cfe	-0.13682935
179	0x3e030265	0.12793882
180	0xbc913b2e	-0.017728414
181	0x3d85dd6c	0.065363735
182	0x3e0bc7f9	0.13650502
183	0xbe158282	-0.14600566
184	0xbcf060e7	-0.029343082
185	0xbdf8b888	-0.121445715
186	0xbdfadb3a	-0.122488454
187	0xbdf1c973	-0.118060015
188	0xbdd557ef	-0.104171626
189	0x3decf666	0.11570434
190	0x3e11ff43	0.14257531
191	0xbe049460	-0.12947226
192	0xbcce6b84	-0.025197752
193	0x3af71480	0.0018850714
194	0xbd5b0558	-0.053471893
195	0xbd599480	-0.053120136
196	0xbd6a2472	-0.057163663
197	0x3e0444f7	0.12916933
198	0x3da8b714	0.082380444
199	0xbdee9e7c	-0.11651322
200	0xbd2994e6	-0.041401766
201	0x3e12d2ab	0.14338176
202	0x3d7c145c	0.061542854
203	0x3d889933	0.066698454
204	0xbc6ce631	-0.014459179
205	0x3d06e9d8	0.032937855
206	0xbc2ed89e	-0.010671763
207	0xbd851709	-0.06498534
208	0x3da1ab2c	0.078939766
209	0xbd60a29e	-0.054842584
210	0xbd521275	-0.051287133
211	0xbdec718f	-0.11545097
212	0x3dfaf3ba	0.122535184
213	0xbd80130b	-0.06253632
214	0xbcd76259	-0.026292013
215	0xbda830f7	-0.08212464
216	0xbd481a91	-0.04885346
217	0x3e142be6	0.14469871
218	0xbe1d754c	-0.15376776
219	0x3d4772ab	0.04869334
220	0xbbe07f2e	-0.0068510985
221	0x3d918846	0.0710607
222	0xbd81407f	-0.0631113
223	0xbd8230ca	-0.06356962
224	0xbd9d27ce	-0.07673608
225	0x3d0e2cc0	0.034710646
226	0xbdd3a29b	-0.10333749
227	0x3da42056	0.0801398
228	0x3d1eefcc	0.038802907
229	0xbdefd1dc	-0.117099494
230	0xbd92c4c0	-0.07166433
231	0xbe0257b5	-0.1272877
232	0x3dfabed6	0.1224343
233	0xbdea6f9e	-0.114470705
234	0x3ae2ca80	0.0017302781
235	0x3c20c560	0.009812683
236	0xbcb2d30c	-0.02182915
237	0xbdd96516	-0.10614984
238	0xbdedc244	-0.11609319
239	0x3d94d664	0.07267454
240	0x3d539e0b	0.051664393
241	0xbd7a176e	-0.0610575
242	0xbc7fc71a	-0.015611434
243	0x3bd022a4	0.0063517857
244	0xbd38dcfc	-0.045132622
245	0x3cd70cc4	0.026251204
246	0x3ae1fb84	0.0017241095
247	0x3d0c1f14	0.034209326
248	0xbdadf8fa	-0.08494754
249	0xbd8197f4	-0.06327811
250	0x3dc7ef28	0.09762412
251	0x3e156dac	0.14592618
252	0x3c3a50e0	0.011371821
253	0xbdddd022	-0.10830714
254	0xbdbc1ac9	-0.09184796
255	0xbdc05f6f	-0.093932025

gat_layers.1.att_src f4 [1, 4, 128]
0	0x3ddc07fd	0.10743711
1	0x3dc20cc1	0.09475089
2	0xbd7c30f4	-0.061570123
3	0x3dbb2d0c	0.091394514
4	0x3d71b3c4	0.05900933
5	0xbdb83afd	-0.08995626
6	0x3e26ca38	0.16288078
7	0x3cded5c7	0.027201546
8	0xbd58c8a5	-0.052925725
9	0x3e550476	0.20802483
10	0x3e19906e	0.14996502
11	0xbe48c6b7	-0.19607054
12	0xbe32fa29	-0.17478241
13	0xbe1b7b87	-0.1518384
14	0x3d8ba244	0.06818059
15	0xbe0db767	-0.13839494
16	0x3bd7c82f	0.006585143
17	0xbc8f56b6	-0.017497402
18	0x3da0545b	0.078285895
19	0xbd99e9e5	-0.07515315
20	0x3e164cb5	0.14677699
21	0x3e30e1b9	0.17273606
22	0xbccee10c	-0.025253795
23	0xbe6d5a3b	-0.23178951
24	0x3e46583f	0.193696
25	0xbe0bb42c	-0.13642949
26	0x3dd728f5	0.10505859
27	0xbd71aeaa	-0.059004463
28	0x3e4b094a	0.19827762
29	0xbd83f5a0	-0.064433336
30	0x3e068a52	0.13138703
31	0x3bbcf491	0.0057664593
32	0x3e1aea7d	0.15128513
33	0xbd9d8f5b	-0.076933585
34	0xbe325231	-0.17414166
35	0xbcf057be	-0.029338714
36	0x3e4ee10e	0.20203039
37	0xbd0c78d0	-0.034294903
38	0x3d1773ab	0.036975544
39	0x3de3ec39	0.1112904
40	0xbcc07ce5	-0.023497054
41	0xbd9df7db	-0.0771329
42	0xbcfb75af	-0.030695764
43	0x3d8a5ca8	0.06755954
44	0x3e3635e7	0.17794
45	0x3d99c19e	0.07507633
46	0xbcba7baf	-0.022764055
47	0x3cfc0146	0.030762326
48	0xbd960933	-0.07325973
49	0x3e00cba3	0.12577681
50	0x3cacdc2e	0.021101084
51	0x3e0c2e41	0.1368952
52	0xbe57e303	-0.21082692
53	0x3de42c44	0.111412555
54	0xbd1e104b	-0.038589757
55	0x3e5ae55a	0.21376553
56	0xbd82a77d	-0.06379602
57	0xbdf201f8	-0.11816782
58	0xbdfe5c4a	-0.124199465
59	0x3e18e439	0.1493081
60	0xbe58072d	-0.21096487
61	0xbdf6aa8f	-0.1204425
62	0xbdffe846	-0.124954745
63	0x3e12d9d8	0.14340913
64	0xbcd83867	-0.026394082
65	0xbe635609	-0.22200789
66	0xbe06331a	-0.13105431
67	0xbda7fabb	-0.0820212
68	0x3ca8fd30	0.020628542
69	0xbdd57546	-0.10422759
70	0xbe32bbb0	-0.1745441
71	0xbe46d8fc	-0.1941871
72	0xbd5c4259	-0.05377421
73	0xbe14c171	-0.14526917
74	0xbe62caf6	-0.22147736
75	0x3d25c809	0.04047397
76	0x3e09c934	0.13455659
77	0x3dd6bdaf	0.10485398
78	0xbe2f65ae	-0.17128631
79	0x3e286ea2	0.16448453
80	0xbe242745	-0.16030605
81	0xbe02999c	-0.1275391
82	0xbe0d639f	-0.13807534
83	0x3d81f58d	0.06345663
84	0x3d93815e	0.07202409
85	0x3d3c5057	0.045975056
86	0xbdbc35e1	-0.09189964
87	0xbc81c617	-0.015841527
88	0x3e17cce8	0.1482426
89	0xbd2edb80	-0.0426898
90	0xbc3defd4	-0.011592824
91	0xbd9628f2	-0.073320284
92	0x3e47a41b	0.19496195
93	0xbe47f7de	-0.19528148
94	0xbc8a49c1	-0.016880872
95	0x3dc5a543	0.09650662
96	0x3d12118f	0.035661276
97	0x3e1d4d53	0.15361528
98	0xbdacc85b	-0.08436652
99	0xbd358275	-0.044313867
100	0x3e3d153b	0.1846513
101	0x3e0ea807	0.13931285
102	0x3ba33a89	0.004981343
103	0x3d81bf9a	0.06335373
104	0x3e01e41b	0.12684672
105	0x3c38078e	0.01123227
106	0xbaf7b71e	-0.0018899178
107	0xbada20f2	-0.0016641899
108	0x3e34538d	0.17609997
109	0x3e19a510	0.15004373
110	0xbd9e573b	-0.07731482
111	0x3dc9f2ec	0.09860787
112	0x3e13c5ec	0.1443097
113	0x3d1b223a	0.037874438
114	0xbe088964	-0.1333366
115	0x3d609ab3	0.054835033
116	0xbe164800	-0.14675903
117	0x3b3588e7	0.0027700008
118	0x3e194b85	0.14970215
119	0x3dc7fcc6	0.097650096
120	0x3c0d4fbe	0.008624969
121	0xbc3b5210	-0.011433139
122	0x3d13eb2b	0.036112946
123	0xbde81b0b	-0.11333283
124	0xbe3498ec	-0.1763646
125	0x3e18c7c7	0.14919959
126	0xbd011ab0	-0.03151959
127	0xbd8f7b90	-0.070059896
128	0xbe378ed5	-0.1792558
129	0x3db272c7	0.08713298
130	0xbe589d0c	-0.21153659
131	0x3e10918a	0.14118019
132	0xbd8b1f9a	-0.06793137
133	0xbd032141	-0.032014135
134	0x3db04642	0.086071506
135	0x3e51ec68	0.20500338
136	0xbe32de9a	-0.17467728
137	0xbdfaa8d2	-0.12239231
138	0xbdd126ef	-0.10212504
139	0xbe14cddc	-0.14531654
140	0xbdadd1c0	-0.08487272
141	0xbe0d8780	-0.1382122
142	0xbe208d3f	-0.15678881
143	0x3e2b928f	0.16755126
144	0x3e29c8dc	0.16580528
145	0xbe474c0d	-0.19462605
146	0x3dd9d4fc	0.10636327
147	0x3e07477e	0.13210866
148	0xbcb85957	-0.022503538
149	0xbe51b81f	-0.20480393
150	0x3c05faa2	0.008177431
151	0x3d1320c1	0.03591991
152	0x3e1ab02b	0.15106265
153	0x3d7c4fbe	0.061599486
154	0x3c82eba3	0.015981501
155	0x3dc48f16	0.09597604
156	0xbdcd319e	-0.10019229
157	0x3d156666	0.036474608
158	0x3e1c16b6	0.15243039
159	0xbc4c1919	-0.012457156
160	0x3d21a54f	0.03946429
161	0x3e3fc750	0.18728375
162	0xbe472396	-0.19447169
163	0x3e37f28b	0.17963617
164	0x3ba34692	0.004982778
165	0xbd1f9b8d	-0.038966704
166	0xbdde20ad	-0.10846076
167	0xbd9f5010	-0.077789426
168	0xbdb756e3	-0.08952119
169	0x3e3a549f	0.18196343
170	0xbe576328	-0.21033919
171	0x3c1a4daf	0.009417935
172	0xbe04488a	-0.12918296
173	0xbd8d73a6	-0.06906824
174	0xbd944993	-0.07240596
175	0x3e18fa89	0.14939322
176	0x3e160d42	0.14653495
177	0xbc18fd8e	-0.009337796
178	0xbd10ea6e	-0.03537982
179	0x3dfcef79	0.12350363
180	0x3e289929	0.16464676
181	0xbe3ff523	-0.18745856
182	0xbcc6082d	-0.02417382
183	0x3d82e132	0.06390609
184	0x3d9eeabc	0.07759616
185	0xbbf1e987	-0.007382575
186	0x3e2fcf9d	0.17169042
187	0xbe004a89	-0.12528433
188	0xbb4749fb	-0.0030409086
189	0xbc3f0d35	-0.011660864
190	0x3e4f7957	0.20261131
191	0xbcad9876	-0.021190863
192	0x3ccf069d	0.025271708
193	0x3da59911	0.08085836
194	0xbd131d09	-0.035916362
195	0x3cc087fc	0.023502342
196	0xbc86da89	-0.016461628
197	0xbcf1d7be	-0.02952182
198	0xbd3f15a6	-0.046651505
199	0xbe33925c	-0.175363
200	0x3e117b0a	0.14207092
201	0xbdf5d15e	-0.12002824
202	0x3b9a731b	0.0047134287
203	0x3d058895	0.032600958
204	0x3d5a07a1	0.05322993
205	0xbb79aea2	-0.0038098474
206	0x3c5afe1a	0.013366247
207	0xbe45c247	-0.19312392
208	0xbe11c37a	-0.14234725
209	0xbc9cb3f0	-0.01912877
210	0xbbc21da9	-0.005923946
211	0x3e574478	0.21022213
212	0x3e2ffe6a	0.17186895
213	0x3e3b21bb	0.18274586
214	0xbe4ecf39	-0.20196237
215	0x3ca17ac1	0.019711854
216	0x3e57a9fc	0.21060938
217	0xbe4377a7	-0.19088612
218	0x3e45d0f8	0.19317997
219	0xbded1f04	-0.115781814
220	0x3b7c2323	0.0038473092
221	0xbc79d2c4	-0.015248004
222	0x3e60ce9f	0.2195382
223	0x3d34f2f5	0.044177014
224	0x3e585d4f	0.21129344
225	0x3d3cb6cc	0.046072766
226	0xbdcff0d5	-0.10153357
227	0xbe2220c7	-0.15832816
228	0xbe3ae75c	-0.18252319
229	0x3e5834c9	0.21113886
230	0xbdf6d6d8	-0.12052697
231	0x3e3f5ffe	0.18688962
232	0xb91f1f94	-0.00015175185
233	0xbd22c0ca	-0.03973464
234	0x3e2da374	0.16956884
235	0xbd798804	-0.06092073
236	0xbdae4bde	-0.08510564
237	0xbe2b3575	-0.16719611
238	0xbe3a5689	-0.18197073
239	0xbd2a5d04	-0.041592613
240	0x3d7e99aa	0.062158264
241	0x3d5ee888	0.054420978
242	0x3e33f62e	0.17574379
243	0xbb6688da	-0.0035176785
244	0x3d5f2c62	0.054485686
245	0xbd7f2da6	-0.062299393
246	0xbe1aff52	-0.1513646
247	0x3e3be85c	0.18350357
248	0xbc338f31	-0.010959432
249	0xbd0bdc03	-0.034145366
250	0x3cd19fbe	0.025588866
251	0x3d9e77e5	0.07737712
252	0xbe22b3a6	-0.15888843
253	0xbdac4837	-0.084122114
254	0x3dd1a350	0.102362275
255	0x3e06900e	0.1314089
