finalhybrid/experiments/experiment_20251104_232429/checkpoint_epoch_10.pth (torch, 662928 bytes, 50 tensors)

gcn_layers.0.bias f4 [64]
-0.015478742 -0.012187144 0.0 0.0011432446 0.0 0.009602041 0.0 0.0020956253
-0.009404147 0.004610536 0.0 0.0 0.0047180075 -0.011945331 0.0 -0.013534261
0.0 -0.0015262528 0.0076638013 0.0020015505 -0.0011974606 0.0084170615 0.014373985 -0.011598521
-0.0028024279 -0.020928292 0.0 -0.008107038 0.0 0.01395356 0.0058033303 0.0018182434
0.0 0.0 0.0022494437 0.009555176 -0.00221799 -0.007837505 -0.015651857 0.0
0.0 -0.00044207397 0.00013154496 0.0 -0.012573239 0.00792111 0.0 0.009010242
0.011163826 -0.0013437218 0.0007057998 0.0 0.0 -0.010172905 0.0 0.0
0.0015578825 0.0 0.0 0.0 0.0045691384 0.0 -0.010660333 0.005885788
00000000: 8d9a 7dbc 96ac 47bc 0000 0000 ecd8 953a
00000010: 0000 0000 e151 1d3c 0000 0000 c256 093b
00000020: da13 1abc fb13 973b 0000 0000 0000 0000
00000030: 8499 9a3b 59b6 43bc 0000 0000 cebe 5dbc
00000040: 0000 0000 8c0c c8ba a020 fb3b 722c 033b
00000050: 1cf4 9cba b7e7 093c dd80 6b3c b907 3ebc
00000060: f0a8 37bb cf71 abbc 0000 0000 62d3 04bc
00000070: 0000 0000 799d 643c dd29 be3b 2052 ee3a
00000080: 0000 0000 0000 0000 676b 133b 508d 1c3c
00000090: b35b 11bb e168 00bc 5338 80bc 0000 0000
000000a0: 0000 0000 2ac6 e7b9 55ef 0939 0000 0000
000000b0: fdff 4dbc 8bc7 013c 0000 0000 b29f 133c
000000c0: 7be8 363c d21f b0ba 6c05 393a 0000 0000
000000d0: 0000 0000 42ac 26bc 0000 0000 0000 0000
000000e0: dd31 cc3a 0000 0000 0000 0000 0000 0000
000000f0: b6b8 953b 0000 0000 ada8 2ebc 91dd c03b

gcn_layers.0.lin.weight f4 [64, 36]
-0.17107138 0.028616246 -0.017772237 -0.23393168 0.020534404 -0.17746423 -0.07137682 -0.19820455
-0.0035688065 -0.20862506 -0.17084518 -0.24380459 0.11006369 0.17982598 -0.24048309 0.15591218
-0.2199101 0.19263573 -0.004922509 0.05232285 0.11052556 -0.21935618 0.22449632 0.19513862
0.14234863 0.12515946 -0.105699345 0.23071955 -0.005296558 -0.22460367 0.1717744 0.21326257
-0.20664418 -0.21998811 0.07116426 -0.113279685 -0.033399533 -0.25879705 -0.080116525 -0.13868573
-0.2042642 0.059363358 0.0454512 -0.13995436 -0.24557243 -0.0666229 0.08514984 -0.1308999
-0.19064797 0.16409464 -0.11964461 0.17313571 -0.0070812553 -0.21485192 0.14872645 0.17183356
-0.22638357 -0.0804557 -0.004826203 -0.061551012 0.20356315 -0.059975237 -0.0041959896 -0.2616963
0.23373245 0.21347508 0.0072481213 0.036340192 0.009989664 0.22781955 0.18157016 0.1646484
0.17412703 -0.056158304 0.027654335 -0.17259218 -0.21275696 -0.11393154 -0.109897405 0.064737126
0.07389684 0.13444363 -7.209182e-05 -0.0205089 0.12744571 0.050571725 0.023963973 0.04213576
-0.17946315 0.057405695 -0.23791882 0.10887082 -0.002819866 -0.20537503 -0.1177416 -0.14402899
0.09354858 -0.13190232 -0.16454142 -0.030894741 0.21225463 -0.23949835 -0.1907304 0.12903933
-0.15348685 -0.08011952 -0.11911158 0.12767519 -0.022257838 -0.12485731 0.23438153 -0.071983695
0.15623753 -0.018823046 -0.030528741 -0.03940685 -0.15211026 -0.12480597 -0.19486037 0.19809483
0.16481109 -0.026788428 0.22750105 -0.08601783 -0.078974575 0.05189766 -0.23552708 -0.17144933
0.21989594 -0.20739506 -0.14102733 -0.23005821 -0.058737878 -0.088086784 0.056376237 0.14835995
0.18016383 0.14804778 0.074492365 -0.13293703 0.057865277 -0.16496739 -0.21667296 0.21825384
0.15859483 -0.12562846 0.17673735 0.03155406 -0.22632267 -0.017537162 -0.02637899 0.14703582
0.0018625408 -0.052810326 -0.11820008 -0.03150794 -0.06861922 -0.18048513 -0.032615274 -0.19029094
0.040929362 0.18242611 -0.18419406 0.18114321 0.21740027 -0.19392847 0.017605528 -0.054143637
0.12448837 0.15235512 -0.1894823 -0.091179416 -0.17395172 -0.19549131 -0.06087151 -0.24363978
-0.19798335 0.035037175 -0.24038568 0.15882476 -0.02067394 -0.104852155 0.18838133 -0.11662698
0.20921846 0.10684709 0.22111984 -0.001916498 -0.05172824 0.16335051 -0.14088523 -0.15251067
-0.0827695 -0.22424927 0.008683607 -0.10675754 -0.18776542 -0.11092876 0.112694725 -0.15189686
-0.08172844 0.10146223 0.11283629 0.17070803 0.17866321 0.15811561 0.088031426 0.045457795
0.22698621 -0.06004461 0.18105711 0.1427653 -0.048899963 0.24288134 0.060462862 -0.09176239
-0.13486083 0.08859305 -0.11009626 0.16396232 -0.058335036 0.08034651 0.2295148 -0.04182665
-0.22495241 -0.1712379 0.017856851 -0.23099244 0.19266744 -0.15092602 0.13387619 0.22138317
0.16992502 0.1870396 -0.20773076 0.029539034 0.13043003 0.10326724 -0.12725934 0.07327546
-0.14315274 0.15097778 -0.08946842 0.167195 -0.109839216 -0.21994063 -0.15288444 0.08373718
-0.17228849 -0.18164197 -0.1484214 -0.0074140728 -0.19224821 -0.22450176 0.051785275 0.09263049
00000000: 562d 2fbe 9e6c ea3c 1597 91bc c98b 6fbe
00000010: c437 a83c 2fb9 35be 032e 92bd 22f6 4abe
00000020: a3e2 69bb cfa1 55be 0af2 2ebe e9a7 79be
00000030: 1269 e13d 4d24 383e 3341 76be 71a7 1f3e
00000040: 1d30 61be 4d42 453e 004d a1bb 7c50 563d
00000050: 3a5b e23d e89e 60be 5de2 653e 6bd2 473e
00000060: d7c3 113e cd29 003e e678 d8bd bf41 6c3e
00000070: c08e adbb 81fe 65be a1e5 2f3e 8161 5a3e
00000080: 889a 53be 9044 61be 91be 913d 2eff e7bd
00000090: f3cd 08bd 0c81 84be 2214 a4bd a203 0ebe
000000a0: a22a 51be fe26 733d 0a2b 3a3d 3250 0fbe
000000b0: 5777 7bbe 9671 88bd 0a63 ae3d a00a 06be
000000c0: 3939 43be 6d08 283e 3c08 f5bd 7d4a 313e
000000d0: e009 e8bb 2402 5cbe bf4b 183e 23f5 2f3e
000000e0: 18d1 67be f5c5 a4bd 2025 9ebb ea1c 7cbd
000000f0: dc72 503e 98a8 75bd 837e 89bb 0ffd 85be
00000100: 8f57 6f3e 3699 5a3e a681 ed3b 74d9 143d
00000110: b0ab 233c 8749 693e 87ed 393e 9799 283e
00000120: 5b4e 323e 4006 66bd 588b e23c 01bc 30be
00000130: f6dc 59be f054 e9bd e411 e1bd e694 843d
00000140: 3a57 973d 97ab 093e 0030 97b8 4802 a8bc
00000150: 2181 023e 4c24 4f3d 1850 c43c 8c96 2c3d
00000160: 30c5 37be 3c22 6b3d fea0 73be aaf7 de3d
00000170: 80cd 38bb d54d 52be 8222 f1bd 567c 13be
00000180: 6696 bf3d 6711 07be 8c7d 28be f816 fdbc
00000190: 4759 593e 0e3f 75be d44e 43be e322 043e
000001a0: a82b 1dbe b415 a4bd c6f0 f3bd 49bd 023e
000001b0: 1256 b6bc 30b5 ffbd b601 703e 306c 93bd
000001c0: bbfc 1f3e ca32 9abc 6917 fabc 1469 21bd
000001d0: cbc2 1bbe 469a ffbd 7a89 47be 5fd9 4a3e
000001e0: 3dc4 283e 6873 dbbc 09f6 683e 1e2a b0bd
000001f0: 6cbd a1bd a492 543d 032e 71be 6a90 2fbe
00000200: 672c 613e 5f5f 54be 7869 10be 6194 6bbe
00000210: 2197 70bd d866 b4bd c5ea 663d aceb 173e
00000220: de7c 383e d699 173e 748f 983d a520 08be
00000230: 2404 6d3d 36ed 28be 84df 5dbe ef7d 5f3e
00000240: af66 223e bfa4 00be a3fa 343e d43e 013d
00000250: 21c1 67be 18aa 8fbc c018 d8bc 8f90 163e
00000260: 8020 f43a a44f 58bd e212 f2bd 780e 01bd
00000270: 3c88 8cbd 18d1 38be 9897 05bd a1db 42be
00000280: 8ca5 273d e9cd 3a3e 5e9d 3cbe 9b7d 393e
00000290: 2d9e 5e3e 2f95 46be 7839 903c b8c5 5dbd
000002a0: c2f3 fe3d fb02 1c3e a607 42be 46bc babd
000002b0: 6620 32be e02e 48be 6854 79bd b57c 79be
000002c0: 26bc 4abe 2483 0f3d aa27 76be f5a2 223e
000002d0: 655c a9bc babc d6bd 09e7 403e 20da eebd
000002e0: 5d3d 563e a6d2 da3d 3d6d 623e 0033 fbba
000002f0: fee0 53bd 5b45 273e 3844 10be c22b 1cbe
00000300: 0e83 a9bd 9aa1 65be b045 0e3c b2a3 dabd
00000310: 9445 40be 9e2e e3bd 7ecc e63d da8a 1bbe
00000320: 3e61 a7bd 6ecb cf3d b616 e73d 16ce 2e3e
00000330: 7df3 363e 0fe9 213e d249 b43d f431 3a3d
00000340: 136f 683e 56f1 75bd 0967 393e 1131 123e
00000350: 544b 48bd e3b5 783e e8a7 773d eced bbbd
00000360: f518 0abe 4670 b53d 267a e1bd bde5 273e
00000370: b8f0 6ebd b68c a43d ed05 6b3e 6c52 2bbd
00000380: ed59 66be fd58 2fbe 8848 923c 4889 6cbe
00000390: 9d4a 453e 5a8c 1abe d716 093e 45b2 623e
000003a0: d300 2e3e 4f87 3f3e 5fb7 54be d8fb f13c
000003b0: 738f 053e c67d d33d 4650 02be 7211 963d
000003c0: a296 12be eb99 1a3e 383b b7bd 2b35 2b3e
000003d0: 62f3 e0bd 1e38 61be bd8d 1cbe 667e ab3d
000003e0: 656c 30be 5a00 3abe c8fb 17be c0f1 f2bb
000003f0: b7dc 44be cae3 65be cc1c 543d 0eb5 bd3d

gcn_layers.1.bias f4 [128]
0.017008452 0.013547217 -0.010427041 -0.01104786 -0.007120271 -0.0019172857 0.0020878247 0.0
-0.0075660143 -0.002906848 0.014203409 0.0036140883 -0.0018089035 -0.00040957576 0.008521872 0.012547668
-0.019718178 -0.011248301 -0.004719933 -0.006143439 0.0038961058 -0.008512477 0.0027064588 -0.00038867595
-0.00017178924 -0.0058448925 0.014185313 0.004236013 -0.004444603 -0.004257696 -0.0012904512 -0.015088645
0.00045533432 0.0020680162 -0.0015750274 0.011146462 -0.008435308 -0.014066914 0.009659352 0.0017680635
0.006949154 0.0032857978 -0.003077769 0.0035516198 -0.0019535925 0.00012401704 0.0049889623 -0.00040731745
0.0 -0.011581359 0.0060859756 0.006773754 -0.0004911894 -0.010624761 0.0 -0.009849226
0.0 -0.005895693 -0.010884251 -0.0002382359 0.0026414322 -0.0017006685 0.0059867054 -0.005497848
0.0058433637 -0.0024448524 0.017827507 0.0129578 -0.0027381023 0.0020274385 -0.004638751 0.0026940955
-0.0020523136 -0.0119300205 -0.004822501 0.021681296 -0.008924372 0.005124432 -0.00012073772 -0.00066570845
-0.002583337 -0.003329352 0.0055842195 -0.008570641 -0.0015873434 0.0071811043 0.0036928602 0.008756478
-0.0031039517 -0.014804628 -0.0057990374 -0.0030026874 0.003251473 0.004717677 0.0022260386 0.0014047713
0.0051748324 0.004132641 0.002351569 -9.118827e-06 0.0037810707 0.010127118 0.0069304183 0.004037977
-0.012975223 0.0013544582 -0.0035188913 -0.0011354138 -0.0075803096 -0.006623152 0.004782104 0.004998926
6.1799656e-05 -0.010549501 -0.011865175 -0.014240027 0.0017663398 0.0011154623 0.010802047 -0.00231962
-0.0019036073 0.0022641206 0.008998292 -0.010151511 -0.004133118 -0.006233159 0.010469432 -9.3809125e-05
00000000: 4f55 8b3c 25f5 5d3c 2ed6 2abc 1502 35bc
00000010: 2a51 e9bb 6f4d fbba e3d3 083b 0000 0000
00000020: 54ec f7bb d180 3ebb 6ab5 683c 57da 6c3b
00000030: bb18 edba 54bc d6b9 529f 0b3c bc94 4d3c
00000040: 0488 a1bc cb4a 38bc aba9 9abb e74e c9bb
00000050: cf55 7f3b eb77 0bbc d85e 313b 34c7 cbb9
00000060: 5322 34b9 8386 bfbb 8469 683c 41ce 8a3b
00000070: 08a4 91bb 2584 8bbb 5b24 a9ba 5d36 77bc
00000080: f0b9 ee39 8e87 073b 2671 ceba a69f 363c
00000090: 3f34 0abc ea78 66bc 4242 1e3c 5ebe e73a
000000a0: bbb5 e33b 8a56 573b 65b4 49bb 4bc2 683b
000000b0: d807 00bb 920a 0239 737a a33b 398d d5b9
000000c0: 0000 0000 bebf 3dbc dd6c c73b 5ef6 dd3b
000000d0: 2ac3 00ba 7a13 2ebc 0000 0000 a65e 21bc
000000e0: 0000 0000 a830 c1bb dc53 32bc f6ce 79b9
000000f0: e11b 2d3b f7e8 deba 202c c43b 4b27 b4bb
00000100: b079 bf3b d139 20bb fe0a 923c f44c 543c
00000110: bc71 33bb c6de 043b aa00 98bb 6c8f 303b
00000120: 1c80 06bb 2276 43bc 1206 9ebb f99c b13c
00000130: 8737 12bc daea a73b 9234 fdb8 f082 2eba
00000140: 344d 29bb 4231 5abb d4fb b63b e06b 0cbc
00000150: 680e d0ba 784f eb3b ea03 723b 5577 0f3c
00000160: ab6b 4bbb 1c8f 72bc da05 bebb bcc8 44bb
00000170: aa16 553b be96 9a3b bbe2 113b 4e20 b83a
00000180: a491 a93b 1b6b 873b c81c 1a3b 10fd 18b7
00000190: d7cb 773b 36ec 253c 9018 e33b 0251 843b
000001a0: 0896 54bc 1388 b13a 339d 66bb 2ad2 94ba
000001b0: 3f64 f8bb 0707 d9bb 32b3 9c3b 08ce a33b
000001c0: 709a 8138 d0d7 2cbc 2766 42bc 014f 69bc
000001d0: 8784 e73a b434 923a 12fb 303c c404 18bb
000001e0: 7682 f9ba a461 143b 926d 133c 8652 26bc
000001f0: 1b6f 87bb 873f ccbb fb87 2b3c 64bb c4b8

gcn_layers.1.lin.weight f4 [128, 64]
-0.101525664 -0.04764112 0.1764388 0.041722193 -0.09456882 0.019463114 -0.11031666 -0.016172916
-0.14698137 0.028078787 -0.0672586 0.183608 0.18845803 -0.16459922 -0.14497162 -0.106163226
-0.06088294 0.14807723 0.1887509 -0.14185953 0.042556133 0.10723705 -0.04295113 0.1754013
-0.08807236 0.11483282 0.17031915 -0.022439254 0.07581663 0.07590047 0.07958407 -0.112175584
-0.11390993 0.1429968 0.07645667 0.10569264 0.17827368 0.13453494 -0.11852531 -0.15858236
-0.072841786 0.04862641 0.053876206 0.012158026 -0.06925093 -0.109005414 0.14584142 -0.12345579
0.15925434 0.06636814 -0.10390713 0.054605767 0.053261694 0.04278038 -0.008952371 -0.03445843
-0.07010092 0.0016078949 0.11073174 0.07405059 -0.035723396 0.11714927 -0.123649105 -0.02993952
-0.057026625 -0.07285399 -0.09419565 -0.16284627 -0.0922147 -0.08815601 -0.0949116 0.15478633
0.11811742 0.15411353 0.021094134 0.11440746 -0.09342303 -0.10330293 0.06450733 -0.080493465
-0.034093108 -0.119298555 -0.09841345 -0.090255916 0.029341487 -0.036356907 -0.021652918 -0.09860027
0.011202144 -0.00965574 0.02940689 0.06812925 0.103837304 0.16173567 0.14073972 0.18765022
-0.02053024 0.15732433 -0.16168556 0.15991667 -0.06802737 0.073299035 0.04911946 -0.029454514
-0.12732007 -0.15945572 0.17713886 0.15749581 -0.15259778 0.11092576 -0.12564997 0.15697892
-0.021140419 -0.09554982 0.1351177 0.043665525 0.050225843 0.13077304 -0.09453417 -0.108441554
-0.1563586 -0.15790549 0.00495155 -0.06592132 -0.018521648 -0.09767522 -0.12291467 0.010439193
0.083881244 0.15627475 -0.1133694 -0.12599228 -0.15213516 0.08198968 -0.077430524 -0.17073435
-0.113346174 0.058250755 0.06486056 0.038054463 -0.1785449 0.099771604 0.089313745 0.15749773
0.06612599 -0.042571902 -0.16239679 -0.18046658 0.094139814 0.09724588 -0.08915856 0.09637865
0.095290065 0.10925685 -0.06270438 -0.053190093 0.02454952 0.04413675 0.1288601 0.05364798
-0.078154564 0.15439622 0.0901505 -0.15204285 0.021164062 -0.17979915 0.035767607 0.048965976
0.10525061 0.12115853 -0.060091235 0.08866773 0.011909716 0.030552179 -0.08612169 0.0045391605
0.09205601 -0.017526811 0.04204867 0.08253365 0.12088688 0.07550062 -0.15176655 0.13102238
-0.06509316 0.12625141 0.15213138 -0.013653538 -0.050275944 -0.122331426 0.07000405 0.006594603
-0.104946114 -0.07600805 -0.075066194 0.12554722 -0.09287416 0.046126295 0.15326032 -0.13970827
-0.18202913 0.05589602 0.07431973 -0.005544815 -0.02983259 0.056505576 -0.15952575 -0.09487902
-0.16137321 0.06475368 -0.18908122 0.1632373 0.0747921 -0.07260592 0.06527895 0.15094003
-0.083661236 0.068862356 -0.09234899 0.16032042 0.057166066 0.00089371536 0.046292853 -0.007591992
0.010406894 0.01584658 -0.08614417 -0.11924608 -0.07902657 -0.052844554 0.13320349 -0.057198517
-0.07067152 -0.10023806 -0.050087992 -0.12750813 0.03737014 0.0368139 -0.006131651 -0.030340718
0.028205624 -0.1469659 -0.029618805 0.16784751 -0.07093997 -0.17653434 0.02951717 0.1272554
-0.08440928 -0.092222385 0.14308089 -0.040134214 -0.021243734 0.050555974 -0.046955813 0.024034714
00000000: b0ec cfbd 5623 43bd 5fac 343e e4e4 2a3d
00000010: 4cad c1bd 1c71 9f3c b3ed e1bd 107d 84bc
00000020: 4982 16be 7c05 e63c e0be 89bd bc03 3c3e
00000030: 24fb 403e b38c 28be 7173 14be 1b6c d9bd
00000040: 6460 79bd 8fa1 173e ea47 413e a043 11be
00000050: 574f 2e3d 199f db3d 86ed 2fbd 669c 333e
00000060: 485f b4bd 782d eb3d 2568 2e3e 87d2 b7bc
00000070: c045 9b3d b571 9b3d f9fc a23d 50bc e5bd
00000080: 9c49 e9bd c16d 123e 5195 9c3d 6275 d83d
00000090: 608d 363e 87c3 093e 66bd f2bd 6a63 22be
000000a0: 132e 95bd 7d2c 473d 4cad 5c3d 7532 473c
000000b0: 6ed3 8dbd 3b3e dfbd 7457 153e 64d6 fcbd
000000c0: 9213 233e 05ec 873d 43cd d4bd 4caa 5f3d
000000d0: ef28 5a3d 7b3a 2f3d f7ac 12bc 4824 0dbd
000000e0: 1291 8fbd 00c0 d23a 53c7 e23d d6a7 973d
000000f0: b252 12bd f5eb ef3d be3b fdbd b943 f5bc
00000100: c094 69bd 7934 95bd a6e9 c0bd 2cc1 26be
00000110: 10db bcbd 238b b4bd 0361 c2bd 4f80 1e3e
00000120: 8ce7 f13d f0cf 1d3e 9bcd ac3c 754e ea3d
00000130: 9354 bfbd 7d90 d3bd 6b1c 843d c2d9 a4bd
00000140: 37a5 0bbd cd52 f4bd fe8c c9bd 18d8 b8bd
00000150: 8f5d f03c fbea 14bd 7661 b1bc f0ee c9bd
00000160: 3389 373c 1c33 1ebc b8e6 f03c 5987 8b3d
00000170: a7a8 d43d 099e 253e 131e 103e 6127 403e
00000180: 092f a8bc a119 213e e690 25be 32c1 233e
00000190: ef51 8bbd ce1d 963d 7d31 493d 984a f1bc
000001a0: 3160 02be 5c48 23be e463 353e 9546 213e
000001b0: 9842 1cbe 0b2d e33d 63aa 00be 15bf 203e
000001c0: ac2e adbc a0af c3bd 4b5c 0a3e 9fda 323d
000001d0: 9db9 4d3d 5ee9 053e 229b c1bd 9b16 debd
000001e0: 781c 20be fab1 21be 9d40 a23b c201 87bd
000001f0: b6ba 97bc f209 c8bd b0ba fbbd 2609 2b3c
00000200: eec9 ab3d 7d06 203e 372e e8bd 1f04 01be
00000210: 52c9 1bbe 35ea a73d e593 9ebd fcd4 2ebe
00000220: 0a22 e8bd 5898 6e3d 9dd5 843d ffde 1b3d
00000230: 79d4 36be 0e55 cc3d 20ea b63d 1647 213e
00000240: 106d 873d e05f 2ebd 584b 26be 3bcc 38be
00000250: 60cc c03d d928 c73d c398 b6bd 2b62 c53d
00000260: 7027 c33d 0ec2 df3d 276b 80bd dbdd 59bd
00000270: 131c c93c bdc8 343d e7f3 033e fcbd 5b3d
00000280: 800f a0bd 0b1a 1e3e d3a0 b83d 1fb1 1bbe
00000290: 4160 ad3c 451d 38be 0e81 123d 8c90 483d
000002a0: a28d d73d f721 f83d 3a22 76bd 6d97 b53d
000002b0: f820 433c 9048 fa3c 9260 b0bd 3dbd 943b
000002c0: dd87 bc3d 6394 8fbc 3a3b 2c3d 6707 a93d
000002d0: 8a93 f73d 12a0 9a3d b168 1bbe bb2a 063e
000002e0: 904f 85bd 0d48 013e 54c8 1b3e 17b3 5fbc
000002f0: 26ee 4dbd e688 fabd 495e 8f3d 8a17 d83b
00000300: fded d6bd 1caa 9bbd 4ebc 99bd 738f 003e
00000310: cf34 bebd edee 3c3d 46f0 1c3e af0f 0fbe
00000320: d865 3abe 3af3 643d f134 983d 48b1 b5bb
00000330: 7a63 f4bc 6472 673d b85a 23be ee4f c2bd
00000340: 053f 25be 949d 843d 829e 41be ae27 273e
00000350: 9a2c 993d 6ab2 94bd f8b0 853d 0690 1a3e
00000360: 9556 abbd b507 8d3d 7821 bdbd 092b 243e
00000370: f726 6a3d 3948 6a3a 939d 3d3d 3fc6 f8bb
00000380: ad81 2a3c b0d0 813c 5b6c b0bd 4a37 f4bd
00000390: afd8 a1bd 8873 58bd 7f66 083e fe48 6abd
000003a0: 3bbc 90bd 9d49 cdbd 1129 4dbd 7e91 02be
000003b0: 6f11 193d 2cca 163d 04ec c8bb 198d f8bc
000003c0: 7b0f e73c 3b7e 16be 23a3 f2bc 38e0 2b3e
000003d0: fa48 91bd 6bc5 34be fecd f13c 3d4f 023e
000003e0: c6de acbd 17df bcbd cc83 123e c663 24bd
000003f0: 5707 aebc c813 4f3d bd54 40bd 73e4 c43c

gat_layers.0.att_src f4 [1, 4, 64]
0.03550007 -0.051405527 0.2778167 -0.16241355 -0.29632092 0.23373102 -0.049259603 0.032980017
0.13918443 0.013540854 -0.2514524 -0.12704411 0.16590951 0.026950179 0.27242142 0.17442974
0.1874105 0.08848428 0.2109871 0.26538983 0.054489233 -0.013690138 -0.1566217 -0.08581268
0.29395944 -0.10235203 -0.17964713 -0.14568874 0.17972131 -0.15269957 -0.15238756 -0.19270487
0.05521078 0.1983756 0.19763315 0.1698551 -0.28546947 -0.1398142 0.265845 0.12289239
0.19358242 -0.2877911 -0.1731913 0.1309317 -0.2982552 0.1968457 0.07687505 -0.21569881
-0.2332953 0.11734242 0.22154865 -0.17698278 -0.11773988 -0.19626258 0.21592076 0.23863062
0.23384726 -0.042830665 0.073212564 -0.12495397 -0.20743456 0.17232122 -0.17075242 0.033918086
0.20084509 0.2668516 0.23387846 0.1542476 0.004737214 -0.25559896 -0.18498403 0.059871517
0.2496149 -0.20131272 0.062211905 0.07651617 -0.029326625 -0.13553268 0.261296 -0.059645433
0.26080868 0.29365703 -0.016324272 -0.15138632 0.23545617 -0.093210995 -0.022348898 -0.008963941
-0.15627973 -0.16227631 0.22635509 -0.089426614 -0.109499946 -0.108508356 0.2987876 0.2508843
-0.030422028 -0.2853373 0.23174399 -0.040724114 -0.058336575 0.1765112 0.07808557 0.111434124
0.021186426 0.04588474 0.2921726 0.11322769 -0.054618377 0.050252717 -0.23804028 -0.06266842
0.09635869 0.12320471 0.18825811 -0.23525973 0.12492123 0.29256046 0.16142844 0.0062527177
-0.22491395 0.1054805 -0.040074546 -0.12142729 0.21113041 0.14692816 -0.082717836 0.23163939
-0.29439893 -0.20595495 -0.025388226 0.12911648 -0.22533086 -0.11996691 -0.15551424 0.07726594
0.21916837 0.11457953 -0.18432964 0.28219208 -0.04206788 0.18912654 0.22243732 0.08795248
0.058354493 0.08031349 -0.22956055 -0.18558219 -0.26944706 -0.04225428 0.13051917 -0.24150324
-0.028825015 0.13332918 0.12780176 -0.21002011 -0.12151332 0.0076025752 -0.21085298 0.03692598
-0.2463822 0.04120196 0.257448 -0.27264544 -0.14965543 -0.13297032 -0.09962011 0.13486965
-0.21521154 0.22708799 0.25096187 -0.032567017 0.21247683 -0.1164896 -0.19564785 0.13969733
-0.069091894 -0.062825836 -0.13454278 -0.2825018 -0.25266474 0.032705966 0.05828025 -0.14791724
-0.08670568 0.24242556 0.14883433 0.15518947 0.2862662 -0.25092643 -0.26334077 0.20556462
-0.17341836 0.2741195 -0.18225926 -0.18064566 0.216053 0.26980639 -0.28052112 0.13708013
0.1559387 -0.10062035 0.13789925 0.079483464 -0.04792057 -0.11222362 -0.20093635 0.2458846
0.2529394 -0.13474907 0.019663215 0.07574811 0.015965395 -0.039473243 0.18909462 -0.21208
0.28338882 0.24341615 0.00068374845 0.17592168 -0.0565142 0.28049886 0.2613618 -0.084740646
-0.045602337 0.061149247 -0.2955571 0.036702156 -0.1526542 -0.021788402 -0.23466052 0.28989622
-0.1436616 0.22400057 -0.07736988 0.20991181 0.1252971 -0.21702845 -0.18139693 -0.11704376
-0.16126163 -0.2492725 -0.042381383 -0.21727078 0.23845953 0.1501312 -0.15451743 -0.06673457
-0.12920906 -0.030282 -0.12379201 -0.11625592 0.07762379 -0.24849637 -0.18816821 0.21732856
00000000: 8568 113d 9a8e 52bd fe3d 8e3e bd4f 26be
00000010: 60b7 97be 2f57 6f3e 70c4 49bd 0e16 073d
00000020: 5d86 0e3e 75da 5d3c 5ebe 80be da17 02be
00000030: 2fe4 293e 9fc6 dc3c d27a 8b3e b69d 323e
00000040: 8ae8 3f3e 3f37 b53d 010d 583e 2de1 873e
00000050: 1a30 5f3d 9a4c 60bc 7061 20be 8fbe afbd
00000060: da81 963e f19d d1bd 6bf5 37be 6e2f 15be
00000070: dd08 383e 475d 1cbe 7c0b 1cbe 6d54 45be
00000080: b324 623d f922 4b3e 5860 4a3e 7fee 2d3e
00000090: 0e29 92be 742b 0fbe d61c 883e 01af fb3d
000000a0: 783a 463e 5b59 93be 0f59 31be f612 063e
000000b0: e8b4 98be eb91 493e ab70 9d3d 26e0 5cbe
000000c0: f7e4 6ebe 3951 f03d a6dd 623e f93a 35be
000000d0: 9b21 f1bd 0ff9 48be 551a 5d3e 965b 743e
000000e0: a875 6f3e 356f 2fbd 78f0 953d dee7 ffbd
000000f0: ba69 54be f974 303e b9d9 2ebe b1ed 0a3d
00000100: 56aa 4d3e c6a0 883e d67d 6f3e 15f3 1d3e
00000110: a23a 9b3b dedd 82be 746c 3dbe d63b 753d
00000120: 0c9b 7f3e ec24 4ebe e9d1 7e3d 82b4 9c3d
00000130: 643e f0bc 14c9 0abe 97c8 853e c54e 74bd
00000140: b788 853e 375a 963e 7bba 85bc 0405 1bbe
00000150: 6c1b 713e 68e5 bebd 0915 b7bc 7edd 12bc
00000160: cb07 20be c32b 26be a1c9 673e 4d25 b7bd
00000170: 8241 e0bd a139 debd b0fa 983e e873 803e
00000180: 9e37 f9bc bb17 92be 4c4e 6d3e 54ce 26bd
00000190: 55f2 6ebd 5abf 343e 54eb 9f3d 9337 e43d
000001a0: 288f ad3c a3f1 3b3d a697 953e ebe3 e73d
000001b0: 85b7 5fbd cbd5 4d3d d5c0 73be 4d58 80bd
000001c0: b457 c53d c052 fc3d bcc6 403e ede7 70be
000001d0: b4d6 ff3d 7cca 953e 7f4d 253e 99e3 cc3b
000001e0: d84f 66be 2906 d83d 3525 24bd dfae f8bd
000001f0: 9232 583e 5674 163e f867 a9bd e032 6d3e
00000200: 75bb 96be dbe5 52be f8fa cfbc 1c37 043e
00000210: 22bd 66be 36b1 f5bd 203f 1fbe 9b3d 9e3d
00000220: ac6d 603e aca8 ea3d e9c0 3cbe 7b7b 903e
00000230: 5f4f 2cbd 63aa 413e 9cc6 633e 6e20 b43d
00000240: 1f05 6f3d 667b a43d ec11 6bbe 4209 3ebe
00000250: f7f4 89be d312 2dbd d1a6 053e a04c 77be
00000260: 7022 ecbc 7287 083e 77de 023e 830f 57be
00000270: fadb f8bd 061f f93b d8e9 57be b23f 173d
00000280: 9e4b 7cbe 63c3 283d 39d0 833e 2f98 8bbe
00000290: 463f 19be 5f29 08be a105 ccbd 451b 0a3e
000002a0: 6a60 5cbe c189 683e 137e 803e fe64 05bd
000002b0: 8793 593e 1992 eebd e957 48be d10c 0f3e
000002c0: 0d80 8dbd d5aa 80bd 95c5 09be 13a4 90be
000002d0: 465d 81be b1f6 053d 45b7 6e3d 9e77 17be
000002e0: bf92 b1bd 683e 783e 0768 183e fde9 1e3e
000002f0: 7c91 923e 6e79 80be 9ad4 86be 887f 523e
00000300: 9594 31be 6459 8c3e 2ca2 3abe 2dfb 38be
00000310: ff3c 5d3e 1024 8a3e 77a0 8fbe bc5e 0c3e
00000320: 65ae 1f3e 0b12 cebd 7635 0d3e 3ac8 a23d
00000330: 5c48 44bd 7fd5 e5bd 42c2 4dbe 2cc9 7b3e
00000340: 4681 813e a9fb 09be c014 a13c d321 9b3d
00000350: dcc9 823c b2ae 21bd 05a2 413e 802b 59be
00000360: 5718 913e 1542 793e 953d 333a d024 343e
00000370: 6f7b 67bd 8c9d 8f3e 37d1 853e 818c adbd
00000380: 84c9 3abd a277 7a3d 4353 97be 0055 163d
00000390: 6251 1cbe 977d b2bc d94a 70be 476d 943e
000003a0: 071c 13be 6860 653e 1a74 9ebd 1ff3 563e
000003b0: e24d 003e b53c 5ebe 1ec0 39be a4b4 efbd
000003c0: c521 25be 4a41 7fbe 1a98 2dbd 3b7c 5ebe
000003d0: bc2e 743e febb 193e d139 1ebe 22ac 88bd
000003e0: 614f 04be f511 f8bc aa86 fdbd 9517 eebd
000003f0: 39f9 9e3d d575 7ebe 2baf 40be 618b 5e3e

gat_layers.0.att_dst f4 [1, 4, 64]
-0.24059618 0.08334427 0.10584245 -0.05486834 -0.2652376 0.16732253 -0.110306844 -0.116604075
-0.11659105 0.11719686 -0.10573964 -0.19281785 -0.15153265 -0.16364211 0.008812523 -0.15021464
0.092240505 0.18458383 -0.26704034 -0.29278594 -0.1312996 -0.08429307 -0.11111532 -0.03769444
-0.15326548 0.24285042 0.13960549 -0.11515026 0.23145261 -0.10991669 -0.002835296 0.20776597
0.20578516 0.036351696 0.14599343 0.055230904 0.21645273 0.0031397985 0.18806808 -0.24602593
0.101535216 0.026446844 -0.17973602 0.20340501 -0.12137758 -0.17633297 0.2288808 -0.040219475
0.19381773 0.1311147 0.10179218 0.11135913 0.020801578 -0.02895833 0.20696689 -0.07339242
-0.088479035 -0.16467978 0.09785461 0.26059458 -0.06370317 -0.17747211 -0.014243581 0.21665238
-0.2653324 0.06443862 -0.050952338 0.28599355 0.078505516 -0.12012858 -0.025421964 0.08703469
-0.28467256 0.1706238 -0.031402618 -0.107548386 0.13048215 -0.2043395 -0.030689541 0.18330862
-0.10808777 -0.07952117 -0.26298198 0.25617725 0.24248658 0.2771784 0.24479085 0.168817
0.17709273 0.17924663 -0.12102014 -0.14966322 -0.023480717 -0.19057156 -0.09907077 0.15664424
0.25889197 -0.016418355 0.19131541 0.006603703 0.0049103415 -0.036479205 -0.24034914 0.279841
0.1772011 0.15758306 0.28773355 -0.1721581 0.089048855 0.06700808 -0.20617291 0.28801098
0.15768778 -0.025726788 -0.22350122 0.089030676 0.25853604 0.23504499 0.18274437 0.043303076
-0.21578361 0.08403836 -0.18232532 0.078494586 -0.21721455 0.033629768 -0.14888957 0.1272351
-0.03264162 0.021341655 0.058658596 0.0745365 0.016188903 0.06343776 -0.25863913 -0.107445955
0.01578244 -0.12313206 0.14440112 -0.0035754368 -0.22122404 0.08698711 -0.13396129 0.11999138
-0.13908921 -0.08536447 0.04129918 0.20582522 0.006455197 0.2723592 -0.035407983 -0.16059235
0.29028428 0.11429528 0.18521704 0.24052295 0.14354075 0.083760746 0.17539988 0.048303872
-0.22667702 -0.22515048 0.17251828 -0.014565541 -0.17095704 -0.0688141 -0.14765802 0.275268
0.13238533 0.099435374 -0.1265822 0.2855069 0.054137345 0.22585866 -0.04822643 -0.286801
0.12280321 -0.1294567 -0.14645751 0.030126052 0.16802035 -0.12593494 0.07497975 -0.17790736
-0.20619982 0.22741067 0.054124244 0.12814525 -0.01524227 -0.13040489 0.0984311 0.297564
-0.01873154 0.08864186 -0.22956033 0.16354036 0.17976698 0.018199751 -0.1353893 -0.21469826
-0.24335955 0.13930432 -0.12941496 -0.29195026 0.02821752 0.26485762 -0.19932802 0.05330124
-0.22615561 -0.18547225 -0.047965784 0.10568961 0.09866114 -0.29499108 -0.28902775 -0.05058803
0.27101573 0.041804463 -0.02258796 0.2719937 0.21329285 0.042263113 -0.27819505 -0.22917342
0.17579032 0.29532054 -0.12516327 -0.036930088 0.2977459 -0.041874204 -0.26242563 -0.14664184
-0.21656272 0.12603499 0.015085203 -0.025575086 0.16505784 0.15329751 0.18590891 -0.14290096
0.045740094 0.25413114 0.02695257 0.20052412 0.19231789 0.0018371533 0.0042847306 -0.20922893
-0.086189926 -0.027770458 0.11471951 -0.014612629 0.18932046 0.06886329 -0.07361028 -0.15284795
00000000: d85e 76be 67b0 aa3d edc3 d83d a0bd 60bd
00000010: 39cd 87be 9956 2b3e 8ee8 e1bd 1ece eebd
00000020: 4ac7 eebd e804 f03d 068e d8bd 0b72 45be
00000030: 602b 1bbe cc91 27be 6762 103c ded1 19be
00000040: 97e8 bc3d 8b03 3d3e 83b9 88be 0ae8 95be
00000050: 6773 06be d8a1 acbd 6e90 e3bd 7c65 1abd
00000060: a0f1 1cbe c8ad 783e bef4 0e3e e6d3 ebbd
00000070: ea01 6d3e 001c e1bd 60d0 39bb 9ac0 543e
00000080: 58b9 523e 84e5 143d 4d7f 153e cd39 623d
00000090: c9a5 5d3e 14c5 4d3b eb94 403e 39ee 7bbe
000000a0: b2f1 cf3d 0da7 d83c b80c 38be 6749 503e
000000b0: cf94 f8bd a190 34be ba5f 6a3e 2dbd 24bd
000000c0: 2878 463e ef42 063e 6b78 d03d 4110 e43d
000000d0: 1268 aa3c 053a edbc 21ef 533e c44e 96bd
000000e0: 7f34 b5bd d1a1 28be ff67 c83d a76c 853e
000000f0: cf76 82bd 40bb 35be e95d 69bc 1fda 5d3e
00000100: a6d9 87be 65f8 833d 66b3 50bd bf6d 923e
00000110: 80c7 a03d f905 f6bd b941 d0bc 3e3f b23d
00000120: 9ac0 91be 01b8 2e3e 08a0 00bd 5442 dcbd
00000130: 1d9d 053e 603e 51be a268 fbbc 41b5 3b3e
00000140: 1f5d ddbd ffdb a2bd 93a5 86be aa29 833e
00000150: 674e 783e 54ea 8d3e 74aa 7a3e 5dde 2c3e
00000160: cc57 353e 6e8c 373e 68d9 f7bd 5141 19be
00000170: a25a c0bc 3125 43be 9ee5 cabd 5967 203e
00000180: 7d8d 843e c97f 86bc 30e8 433e e063 d83b
00000190: eee6 a03b 386b 15bd 161e 76be 5247 8f3e
000001a0: 3574 353e 745d 213e d051 933e 374a 30be
000001b0: 3f5f b63d 883b 893d fe1e 53be 2d76 933e
000001c0: e878 213e fcc0 d2bc 81dd 64be b755 b63d
000001d0: d65e 843e a2af 703e 5721 3b3e 915e 313d
000001e0: 61f6 5cbe 4e1c ac3d 7db3 3abe c5c1 a03d
000001f0: 7e6d 5ebe 5ebf 093d 8276 18be eb49 023e
00000200: 38b3 05bd b2d4 ae3c ff43 703d 98a6 983d
00000210: 979e 843c a8eb 813d 596c 84be a00c dcbd
00000220: 2d4a 813c a92c fcbd e3dd 133e e051 6abb
00000230: 8e88 62be 4c26 b23d 262d 09be 0abe f53d
00000240: 676d 0ebe 91d3 aebd 5429 293d d9c3 523e
00000250: 1e86 d33b aa72 8b3e f607 11bd 5272 24be
00000260: 24a0 943e a513 ea3d 89a9 3d3e a64b 763e
00000270: 59fc 123e c18a ab3d 079c 333e 48da 453d
00000280: 051e 68be d98d 66be a2a8 303e 4fa4 6ebc
00000290: 5d0f 2fbe 68ee 8cbd aa33 17be edef 8c3e
000002a0: 0590 073e c6a4 cb3d c49e 01be f62d 923e
000002b0: 1fbf 5d3d 7e47 673e 1489 45bd 95d7 92be
000002c0: 4080 fb3d 4c90 04be f5f8 15be e9ca f63c
000002d0: 870d 2c3e 17f5 00be fc8e 993d 592d 36be
000002e0: 0c26 53be 58de 683e 62b1 5d3d 8238 033e
000002f0: b7ba 79bc dc88 05be 3f96 c93d 4f5a 983e
00000300: e372 99bc dd89 b53d dd11 6bbe 2077 273e
00000310: d614 383e a517 953c 7ea3 0abe dcd9 5bbe
00000320: 3f33 79be cba5 0e3e 5b85 04be 817a 95be
00000330: 6e28 e73c 6b9b 873e a51c 4cbe 6752 5a3d
00000340: 5695 67be 70ec 3dbe c577 44bd cb73 d83d
00000350: da0e ca3d 1209 97be 72fb 93be 6535 4fbd
00000360: 93c2 8a3e 283b 2b3d 630a b9bc c242 8b3e
00000370: 7169 5a3e 161c 2d3d 956f 8ebe 70ac 6abe
00000380: 6102 343e 4134 973e cd2a 00be 0144 17bd
00000390: 2772 983e 4984 2bbd a75c 86be 4729 16be
000003a0: 9ec2 5dbe 510f 013e ed27 773c d882 d1bc
000003b0: ec04 293e 06fa 1c3e e85e 3e3e a154 12be
000003c0: f759 3b3d 7a1d 823e a3cb dc3c 3256 4d3e
000003d0: fbee 443e a3cc f03a ed66 8c3b 1c40 56be
000003e0: 5884 b0bd df7e e3bc 10f2 ea3d cf69 6fbc
000003f0: 39dd 413e 3208 8d3d fdc0 96bd 2c84 1cbe

gat_layers.0.bias f4 [64]
0.0 -0.013418392 -0.005990148 -0.007927871 2.6193127e-05 0.009591202 -0.0028521402 0.0
-0.0056312922 -0.001576981 -0.008265889 0.0071105305 0.0 -0.00976282 0.0052979146 -0.020979855
-0.000632842 -0.0060629 0.0076637976 0.0034515755 -0.0011974608 -0.0058067823 0.012884314 -0.0035075578
-0.0062658135 0.0011856401 0.0 -0.00062581565 -0.0055643455 0.0070506986 0.0058033345 -0.0087281475
-0.007669406 0.0 0.0012161084 0.003857045 -0.0023437482 0.006431858 0.0 0.0
0.0 0.0 0.013993266 0.002783874 0.0 0.0 0.012467003 -0.004323277
0.0076309904 -0.006007893 -0.009872277 0.003827448 -0.0026173024 0.0 -0.0029042936 0.0018269653
-0.013584916 0.0 6.734027e-05 -0.010585613 0.0 -0.009503131 -0.009155941 -0.009474271
00000000: 0000 0000 d1d8 5bbc 0149 c4bb e7e3 01bc
00000010: 50b9 db37 6b24 1d3c f9ea 3abb 0000 0000
00000020: b486 b8bb b4b2 ceba a76d 07bc 74ff e83b
00000030: 0000 0000 3cf4 1fbc 219a ad3b f2dd abbc
00000040: 4fe5 25ba 4bab c6bb 9820 fb3b d433 623b
00000050: 1ef4 9cba d246 bebb bb18 533c 0edf 65bb
00000060: 7451 cdbb 7b67 9b3a 0000 0000 c70d 24ba
00000070: 1d55 b6bb 8c09 e73b e629 be3b 8100 0fbc
00000080: a44f fbbb 0000 0000 d465 9f3a 7ac6 7c3b
00000090: 9299 19bb 56c2 d23b 0000 0000 0000 0000
000000a0: 0000 0000 0000 0000 0344 653c a871 363b
000000b0: 0000 0000 0000 0000 6742 4c3c 47aa 8dbb
000000c0: 630d fa3b dcdd c4bb 55bf 21bc ecd5 7a3b
000000d0: 0c87 2bbb 0000 0000 f655 3ebb c876 ef3a
000000e0: 4493 5ebc 0000 0000 0839 8d38 476f 2dbc
000000f0: 0000 0000 05b3 1bbc cd02 16bc f939 1bbc

gat_layers.0.lin.weight f4 [256, 36]
0.008536973 -0.050899148 0.10196825 0.085823566 -0.044886734 -0.13912985 0.0023143988 0.10000649
-0.12995587 0.100000694 -0.046024323 -0.09604947 -0.07529947 -0.08124557 0.06595138 -0.12755986
-0.053447835 0.10828067 0.09463781 -0.052636646 -0.055203907 0.025295392 -0.05376663 0.066487916
-0.069260456 -0.11703403 -0.08063338 -0.036422502 -0.14363746 -0.1383013 -0.011359621 -0.04638017
0.11577256 0.109279916 0.052630067 0.012645759 -0.07917429 -0.14507633 -0.056908317 -0.12387773
-0.006831957 0.060614776 -0.14930598 -0.07099364 0.05320968 -0.00012846291 -0.016574875 0.14021908
-0.0521964 -0.1197881 -0.102014974 -0.07406914 0.083768085 0.07025118 0.049383715 0.03253293
0.13917385 -0.120186895 -0.10472596 0.0055627245 0.11126341 -0.13642608 -0.043547608 0.07823111
0.11943545 -0.13176419 -0.104101375 0.11067562 0.01710771 0.043469492 -0.14552835 -0.024423476
0.06041407 -0.014201991 0.10828595 0.05620707 -0.10411523 -0.07347899 -0.07236751 0.004065305
0.15053183 -0.09360893 0.0740276 -0.022666402 0.10415241 0.011691093 -0.05630888 -0.083880514
-0.10546889 -0.12493206 0.07329294 -0.12047737 -0.13134512 0.13143754 -0.03998716 -0.013405338
0.039167926 -0.042281225 -0.07794072 -0.11517833 0.06884803 -0.0757486 0.011940402 0.088746086
-0.003437981 -0.0047336863 0.049014978 -0.063857734 -0.13366103 0.03365481 0.089756615 -0.011862126
0.07144485 -0.10734396 0.02384065 0.021246463 -0.0033917758 -0.079224035 0.0049304515 0.10896002
0.045389786 0.12878616 -0.08520901 -0.06482135 0.06125155 -0.0013456345 -0.082598865 -0.095114484
0.10157989 0.119417295 0.12889041 0.109845065 0.077644154 0.109525695 0.039524198 -0.10648845
0.13867931 -0.063751265 0.018776191 0.13925187 0.11613996 0.12753119 0.058557164 0.07474542
-0.100903615 0.10185034 0.037088107 0.07951841 -0.012293767 -0.033658076 -0.03665861 0.096676365
0.013825665 -0.08481448 0.1363004 0.09768276 0.017881334 -0.005876094 0.051344097 0.053030178
0.14287554 0.054717988 -0.014198005 -0.06571666 -0.081066065 -0.10338643 -0.037972473 -0.14100368
0.076710194 0.010232821 -0.018387675 -0.02339954 -0.012548985 0.10407168 -0.01623572 -0.078849904
-0.054218195 -0.05387419 -0.13144493 0.13573402 -0.021611309 0.088552706 0.116738126 -0.13701627
-0.026234841 -0.1254803 -0.059049435 -0.118060015 -0.10743558 0.11570434 0.14257531 -0.12947226
-0.025197752 0.0018850714 -0.053471893 -0.053120136 -0.057163663 0.12916933 0.082380444 -0.11651322
-0.041401766 0.132951 0.061542854 0.0772685 -0.016871197 0.032937855 -0.011478509 -0.055338558
0.08910522 -0.04884008 -0.06426344 -0.11545097 0.122535184 -0.072967105 -0.027968258 -0.078993134
-0.05331751 0.11016178 -0.12994786 0.0280581 0.018978354 0.044010054 -0.11844255 -0.06356962
-0.07066724 0.034710646 -0.10333749 0.0801398 0.038802907 -0.117099494 -0.07166433 -0.1272877
0.1224343 -0.114470705 0.0017302781 0.009812683 -0.02182915 -0.0641696 -0.11609319 0.03030349
0.04461261 -0.0610575 -0.023898145 -0.011033865 -0.03702682 0.0030908687 0.029976567 0.034209326
-0.08494754 -0.021297913 0.07966231 0.12691408 0.036355328 -0.1250607 -0.11083946 -0.13114323
00000000: a9de 0b3c a07b 50bd bbd4 d03d 44c4 af3d
00000010: 27db 37bd 0e78 0ebe 2bad 173b 34d0 cc3d
00000020: 2713 05be 2acd cc3d 0084 3cbd 96b5 c4bd
00000030: 9c36 9abd 1464 a6bd 8411 873d 0d9f 02be
00000040: 1eec 5abd 42c2 dd3d 78d1 c13d 8699 57bd
00000050: 7e1d 62bd 4838 cf3c 663a 5cbd d12a 883d
00000060: 6dd8 8dbd 8aaf efbd 1d23 a5bd c32f 15bd
00000070: b315 13be db9e 0dbe b41d 3abc 22f9 3dbd
00000080: 2a1a ed3d 26ce df3d a092 573d 2830 4f3c
00000090: 2126 a2bd e48e 14be b218 69bd 9bb3 fdbd
000000a0: 9cde dfbb 3347 783d abe3 18be 1d65 91bd
000000b0: 65f2 593d 00b4 06b9 08c8 87bc 9795 0f3e
000000c0: e4cb 55bd 7753 f5bd 3aed d0bd 90b1 97bd
000000d0: 9a8e ab3d dadf 8f3d 9446 4a3d 4041 053d
000000e0: 9783 0e3e 8c24 f6bd 907a d6bd 8447 b63b
000000f0: 12de e33d 47b3 0bbe fa5e 32bd a237 a03d
00000100: 939a f43d 31ed 06be 1a33 d5bd e6a9 e23d
00000110: 7825 8c3c 110d 323d 6205 15be be13 c8bc
00000120: be74 773d 78af 68bc 06c5 dd3d 6239 663d
00000130: 5e3a d5bd 277c 96bd 6b35 94bd 4036 853b
00000140: 0425 1a3e 0ab6 bfbd c89b 973d e4ae b9bc
00000150: dc4d d53d 008c 3f3c 24a4 66bd 8cc9 abbd
00000160: 1300 d8bd 61dc ffbd 9c1a 963d d7bc f6bd
00000170: 567f 06be 9097 063e 94c9 23bd 10a2 5bbc
00000180: 8c6e 203d 142f 2dbd 629f 9fbd 9ee2 ebbd
00000190: 3200 8d3d 1522 9bbd ada1 433c 82c0 b53d
000001a0: c04f 61bb 0a1d 9bbb eec3 483d d8c7 82bd
000001b0: 70de 08be a0d9 093d 51d2 b73d 5d59 42bc
000001c0: ad51 923d 26d7 dbbd 784d c33c 100d ae3c
000001d0: 8e48 5ebb 3640 a2bd a08f a13b 6e26 df3d
000001e0: a4ea 393d 85e0 033e 1082 aebd 0ec1 84bd
000001f0: e8e2 7a3d 0060 b0ba 9829 a9bd 62cb c2bd
00000200: 1e09 d03d 0e91 f43d d9fb 033e 73f6 e03d
00000210: e603 9f3d 024f e03d 20e4 213d 9e16 dabd
00000220: f301 0e3e 0690 82bd 87d0 993c 0b98 0e3e
00000230: cada ed3d 8997 023e a3d9 6f3d 2014 993d
00000240: 8ea6 cebd e996 d03d b3e9 173d 8cda a23d
00000250: cc6b 49bc 0ddd 09bd 5727 16bd 42fe c53d
00000260: 0b85 623c 37b3 adbd 5592 0b3e e60d c83d
00000270: e07b 923c 408c c0bb 304e 523d 2c36 593d
00000280: f74d 123e f81f 603d c09e 68bc 7596 86bd
00000290: f705 a6bd 44bc d3bd 0689 1bbd 4563 10be
000002a0: 3c1a 9d3d 90a7 273c c0a1 96bc 64b0 bfbc
000002b0: 429a 4dbc 8823 d53d c600 85bc 0f7c a1bd
000002c0: e613 5ebd 2fab 5cbd 8099 06be dcfd 0a3e
000002d0: 330a b1bc 1f5b b53d 6614 ef3d fe4d 0cbe
000002e0: 73ea d6bc e87d 00be d2dd 71bd 73c9 f1bd
000002f0: 2f07 dcbd 66f6 ec3d 43ff 113e 6094 04be
00000300: 846b cebc 8014 f73a 5805 5bbd 8094 59bd
00000310: 7224 6abd f744 043e 14b7 a83d 7c9e eebd
00000320: e694 29bd 4f24 083e 5c14 7c3d f33e 9e3d
00000330: 7735 8abc d8e9 063d 5b10 3cbc afaa 62bd
00000340: cc7c b63d 890c 48bd 8d9c 83bd 8f71 ecbd
00000350: baf3 fa3d c76f 95bd b01d e5bc 27c7 a1bd
00000360: 7663 5abd 809c e13d 0d11 05be 1ada e53c
00000370: 7e78 9b3c e343 343d 0292 f2bd ca30 82bd
00000380: fcb9 90bd c02c 0e3d 9ba2 d3bd 5620 a43d
00000390: ccef 1e3d dcd1 efbd c0c4 92bd b557 02be
000003a0: d6be fa3d 9e6f eabd 80ca e23a 60c5 203c
000003b0: 0cd3 b2bc 5a6b 83bd 44c2 edbd 063f f83c
000003c0: b6bb 363d 6e17 7abd 0bc6 c3bc 62c7 34bc
000003d0: 6fa9 17bd 2c90 4a3b 6b91 f53c 141f 0c3d
000003e0: faf8 adbd f678 aebc fe25 a33d c4f5 013e
000003f0: 53e9 143d ea0f 00be ccff e2bd 694a 06be

gat_layers.1.att_src f4 [1, 4, 128]
0.105646715 0.09989246 -0.062167466 0.089064375 0.056331433 -0.095924444 0.17770724 0.034753148
-0.05404496 0.20111386 0.14720042 -0.1978975 -0.16485506 -0.14602973 0.054366775 -0.14290033
0.014076269 -0.0058727646 0.08589548 -0.07797792 0.14574967 0.15691926 -0.020141084 -0.22597538
0.19364165 -0.12110425 0.11415708 -0.07113968 0.17787401 -0.05252469 0.11965006 0.02242078
0.1496561 -0.061507054 -0.17007644 -0.024408054 0.2121401 -0.048606765 0.038306523 0.10963745
-0.019351035 -0.06964228 -0.028760074 0.077112794 0.18878052 0.08674006 -0.027128885 0.03780157
-0.05633887 0.139171 0.007215763 0.15283047 -0.19849126 0.11001468 -0.051565032 0.21684602
-0.06002009 -0.10272565 -0.11777907 0.13858755 -0.2086547 -0.119646534 -0.13412173 0.14366679
-0.021034224 -0.20651256 -0.138179 -0.0765199 0.030418716 -0.10449071 -0.16430752 -0.20181753
-0.052214865 -0.15663114 -0.22553276 0.04936641 0.12825853 0.10606844 -0.17262098 0.16612694
-0.14708716 -0.11716721 -0.14355779 0.07592245 0.06609375 0.051974885 -0.089196295 -0.02046578
0.16185378 -0.040063687 -0.0031623146 -0.068568125 0.19058912 -0.19409433 -0.014692323 0.098680556
0.029921148 0.1485361 -0.08384876 -0.056741204 0.18645248 0.13640916 -0.0063404567 0.06443997
0.13417725 0.0064019486 -0.0048753927 -0.00738012 0.1760677 0.14254491 -0.071426645 0.09726604
0.14735967 0.046978198 -0.13894269 0.048229042 -0.1395104 -0.0047730203 0.14732645 0.104509376
0.010191375 -0.013088175 0.048346292 -0.1342797 -0.17923738 0.1509401 -0.025470953 -0.07069569
-0.17162652 0.083940424 -0.20861915 0.14189951 -0.06897387 -0.017488085 0.101951785 0.21077846
-0.18159725 -0.12938046 -0.10722244 -0.14058365 -0.07955012 -0.1376668 -0.16308068 0.1616623
0.17120723 -0.19683065 0.107689455 0.118487984 -0.016185902 -0.20901102 0.029172933 0.044960074
0.15256484 0.06282478 0.009875799 0.10127975 -0.115388535 0.0221745 0.1480902 -0.011881152
0.056057084 0.19403893 -0.20460214 0.1829599 0.0002995842 -0.034607958 -0.1095526 -0.08490184
-0.0896867 0.19024807 -0.1805904 0.004427326 -0.12962179 -0.0781869 -0.06727383 0.13525872
0.13577518 -0.02346541 -0.03280039 0.12590441 0.1639415 -0.18021181 -0.023384977 0.070006005
0.07050254 -0.006207463 0.17003271 -0.12523097 0.005702086 0.005890682 0.20500137 -0.027241988
0.02922133 0.085411966 -0.033716556 0.025241712 -0.014766043 -0.023747068 -0.04157813 -0.17610389
0.1548611 -0.124424815 0.018839108 0.032252606 0.05163811 0.002338215 0.023599213 -0.17476758
-0.14710286 -0.01457359 -0.0011166456 0.21516815 0.15542397 0.18546122 -0.19482557 0.023674458
0.19922763 -0.19011448 0.18734844 -0.11128514 0.014759109 -0.030164069 0.21836206 0.044303294
0.20931539 0.075354 -0.08844198 -0.16856684 -0.17706326 0.21380946 -0.12386237 0.17486925
-0.0032288623 -0.029042877 0.16697025 -0.05547561 -0.08242173 -0.16999386 -0.1898029 -0.04592452
0.07689835 0.04773572 0.16753303 0.003090535 0.050441127 -0.07649113 -0.13103211 0.17383705
-0.01647413 -0.032418806 0.021204213 0.0849425 -0.15901156 -0.09013981 0.09555276 0.13886155
00000000: 4e5d d83d 6b94 cc3d 50a3 7ebd 6267 b63d
00000010: cabb 663d 0974 c4bd e3f8 353e 5159 0e3d
00000020: 3f5e 5dbd cbf0 4d3e b5bb 163e a4a5 4abe
00000030: c4cf 28be d188 15be b2af 5e3d 7754 12be
00000040: 27a0 663c 5270 c0bb f8e9 af3d e3b2 9fbd
00000050: 673f 153e 71af 203e eafe a4bc 1766 67be
00000060: ff49 463e 8105 f8bd 30cb e93d aeb1 91bd
00000070: 9b24 363e 2124 57bd 170b f53d c9ab b73c
00000080: 733f 193e d2ee 7bbd 8528 2ebe 66f3 c7bc
00000090: 413b 593e e317 47bd 4de7 1c3d 9989 e03d
000000a0: 1086 9ebc 9da0 8ebd 3f9a ebbc 50ed 9d3d
000000b0: ae4f 413e c6a4 b13d 653d debc d2d5 1a3d
000000c0: 96c3 66bd d882 0e3e 3572 ec3b 977f 1c3e
000000d0: 4b41 4bbe 604f e13d db35 53bd e20c 5e3e
000000e0: a0d7 75bd d361 d2bd 2736 f1bd e5e9 0d3e
000000f0: 94a9 55be 3e09 f5bd 3557 09be 631d 133e
00000100: f74f acbc 0778 53be cc7e 0dbe 77b6 9cbd
00000110: ac30 f93c 3aff d5bd 3b40 28be 41a9 4ebe
00000120: 41df 55bd ea63 20be 0ff2 66be 6f34 4a3d
00000130: 3456 033e 693a d93d 8ec3 30be 2e1d 2a3e
00000140: 049e 16be 5df5 efbd d000 13be 3b7d 9b3d
00000150: 295c 873d 9ee3 543d 8cac b6bd daa7 a7bc
00000160: ffbc 253e d219 24bd d63e 4fbb 726d 8cbd
00000170: cb29 433e aac0 46be 12b8 70bc 0819 ca3d
00000180: 321d f53c d919 183e e6b8 abbd 7769 68bd
00000190: 66ed 3e3e d8ae 0b3e 9bc3 cfbb 1af9 833d
000001a0: c365 093e 70c7 d13b c2c1 9fbb efd4 f1bb
000001b0: 174b 343e 4bf7 113e 2248 92bd 6b33 c73d
000001c0: 74e5 163e 366c 403d fe46 0ebe d18b 453d
000001d0: d0db 0ebe ff66 9cbb bfdc 163e 0309 d63d
000001e0: baf9 263c c96f 56bc c306 463d 9e80 09be
000001f0: 018a 37be 0b90 1a3e 76a8 d0bc e7c8 90bd
00000200: ddbe 2fbe f5e8 ab3d 42a0 55be 1b4e 113e
00000210: 2c42 8dbd 2c43 8fbc 19cc d03d 4fd6 573e
00000220: a1f4 39be 507c 04be 7097 dbbd 29f5 0fbe
00000230: 2ceb a2bd 87f8 0cbe 9ffe 26be cd8a 253e
00000240: f350 2f3e f98d 49be 4a8c dc3d d4a9 f23d
00000250: 4c98 84bc fc06 56be 13fc ee3c 0e28 383d
00000260: f539 1c3e 47aa 803d 1ace 213c c26b cf3d
00000270: d350 ecbd 4ca7 b53c f5a4 173e 2aa9 42bc
00000280: 1d9c 653d 24b2 463e 3983 51be d759 3b3e
00000290: 8311 9d39 13c1 0dbd 1d5d e0bd 04e1 adbd
000002a0: a9ad b7bd 64d0 423e b1ec 38be 1a13 913b
000002b0: 93bb 04be 7420 a0bd ddc6 89bd 4381 0a3e
000002c0: a608 0b3e 883a c0bc b459 06bd 16ed 003e
000002d0: 48e0 273e 7289 38be da91 bfbc 4f5f 8f3d
000002e0: a363 903d f967 cbbb 0e1d 2e3e 8c3c 00be
000002f0: 90d8 ba3b 9f06 c13b e1eb 513e 972a dfbc
00000300: 9261 ef3c 78ec ae3d 5f1a 0abd b5c7 ce3c
00000310: 46ed 71bc 3689 c2bc d44d 2abd 9454 34be
00000320: e893 1e3e 70d2 febd 7954 9a3c 4f1b 043d
00000330: 7c82 533d bd3c 193b 2353 c13c 46f6 32be
00000340: 22a2 16be 11c6 6ebc 695c 92ba 0a55 5c3e
00000350: 7627 1f3e 8ce9 3d3e 5b80 47be f0f0 c13c
00000360: 5402 4c3e 5fad 42be 45d8 3f3e 77e9 e3bd
00000370: 31d0 713c a31a f7bc 4e9a 5f3e 5f77 353d
00000380: c656 563e 3353 9a3d 1221 b5bd c99c 2cbe
00000390: 1250 35be def0 5a3e 8eab fdbd ed10 333e
000003a0: 529b 53bb 54eb edbc 40fa 2a3e 653a 63bd
000003b0: b9cc a8bd df12 2ebe b15b 42be 591b 3cbd
000003c0: e27c 9d3d 8886 433d c78d 2b3e 938a 4a3b
000003d0: 5b9b 4e3d 62a7 9cbd 482d 06be 5702 323e
000003e0: c1f4 86bc 95c9 04bd 75b4 ad3c 55f6 ad3d
000003f0: edd3 22be 399b b8bd 2ab1 c33d b931 0e3e

gat_layers.1.att_dst f4 [1, 4, 128]
-0.16637662 0.17686686 -0.20086174 -0.021564914 0.12866111 0.1968816 0.13504359 -0.026439771
0.16521265 -0.21032615 -0.17693561 -0.024677983 -0.19858788 -0.04318799 0.025008278 -0.1259377
-0.018427208 -0.00057226745 -0.03239078 -0.20525938 -0.19079588 -0.032395467 -0.07729832 -0.032150578
0.18828396 -0.16747434 0.01837258 -0.14011769 0.12663335 -0.13054232 0.033160012 0.058081448
0.14873475 0.0044441237 0.13258842 -0.045896504 -0.11717205 0.10762008 0.21518748 -0.19558315
-0.15201944 0.11433174 0.03494646 0.08478499 0.14581536 0.11165467 0.2022346 0.19758232
0.15959038 -0.19175357 0.056997746 0.19122398 -0.036380656 0.08457659 0.20442215 0.101049505
0.09402239 -0.050734036 0.11041795 -0.07767179 -0.112213634 -0.060003825 0.21165411 -0.09713285
-0.08998929 0.1517846 0.1856029 -0.026206963 0.17666383 -0.22511666 0.008752549 -0.15681095
0.1997019 -0.1306417 -0.15218966 -0.12455203 0.018430289 -0.096152395 -0.12923379 0.20751588
-0.15678889 0.18765746 0.047880296 -0.14909236 -0.091682546 0.21236615 0.085051216 -0.1550416
0.025121668 -0.13770363 -0.04841168 0.12591952 -0.008155809 -0.11540583 0.15625256 -0.16223705
-0.12345258 -0.18169148 -0.1907983 -0.057572804 -0.10298337 0.11666313 -0.20886485 0.049832784
-0.1709988 -0.027458657 -0.10941627 0.14812626 -0.14365223 -0.069750264 0.16297393 -0.1314995
0.15452144 -0.10589214 -0.10858585 -0.101628974 -0.018830927 -0.10934795 -0.1416262 0.17147551
-0.10171239 -0.0055681625 -0.069325835 0.007336763 -0.03360011 0.053185403 -0.07537223 0.081735715
0.0908537 -0.04302056 -0.059824917 0.027440155 -0.19935577 -0.056090802 -0.21408708 0.060894594
-0.14725152 -0.08465898 0.15551834 0.11259771 0.12910259 0.1188046 -0.12754923 0.054384097
-0.15118235 -0.16171065 0.032198276 -0.13692658 -0.046248913 -0.03812412 0.011795351 0.13492213
0.11218732 -0.12480532 0.13816617 0.108117305 0.12128235 -0.14881757 -0.061747216 -0.20256686
-0.042817637 -0.06780669 0.18956502 0.20296675 0.1885436 -0.08909873 -0.0027171855 -0.21912378
-0.032673083 0.012277797 0.19125348 0.17828754 -0.06724496 0.19506179 0.06633217 -0.081807524
-0.18643346 0.11393279 -0.17501348 0.0860249 -0.10223635 -0.0031985864 -0.12777656 0.06828571
-0.19523819 -0.05654037 0.0030180842 -0.10136766 -0.1902581 -0.17916411 -0.2029989 0.22020525
-0.1844962 -0.016746106 0.10687702 -0.15627885 0.2083755 0.13067892 0.041359603 0.022238152
0.18796167 -0.05281336 0.20513077 -0.12987223 0.004199212 -0.08715463 -0.15210676 -0.17177819
0.06493431 0.17234011 -0.012382041 -0.0978551 0.03325963 0.08087875 -0.026402459 -0.20247273
-0.0044520623 0.078148544 0.13278784 0.011351978 -0.11906709 -0.16887748 -0.15895227 -0.0953354
0.20223644 -0.0213631 -0.039253797 0.07945799 0.12521231 -0.06977989 -0.16198038 -0.0013476004
0.10285723 0.14872186 -0.18789501 0.07067547 0.06306738 0.04483579 -0.0989659 0.17275298
-0.17895947 -0.2022723 0.01237472 0.15542796 0.04988068 -0.07891432 0.18451832 0.11680457
0.020850562 -0.009710885 -0.1569003 0.028978905 -0.11697267 -0.04407689 -0.15491998 0.086309634
00000000: a25e 2abe 961c 353e b3ae 4dbe e7a8 b0bc
00000010: bdbf 033e 559b 493e de48 0a3e 3898 d8bc
00000020: 812d 293e bd5f 57be 9c2e 35be 7b29 cabc
00000030: 9f5a 4bbe e4e5 30bd 29de cc3c d0f5 00be
00000040: a8f4 96bc 3804 16ba 32ac 04bd 842f 52be
00000050: ff5f 43be 1cb1 04bd 954e 9ebd 53b0 03bd
00000060: 83cd 403e 657e 2bbe 1882 963c 037b 0fbe
00000070: 2cac 013e e3ac 05be cbd2 073d d0e6 6d3d
00000080: ec4d 183e 03a0 913b 42c5 073e f9fd 3bbd
00000090: e6f7 efbd eb67 dc3d 1b5a 5c3e f346 48be
000000a0: fcaa 1bbe c226 ea3d 0524 0f3d c1a3 ad3d
000000b0: 9f50 153e 34ab e43d 9616 4f3e 0553 4a3e
000000c0: a96b 233e 0c5b 44be 7876 693d 38d0 433e
000000d0: e203 15bd 7e36 ad3d 0a54 513e 0bf3 ce3d
000000e0: d08e c03d 7ece 4fbd ce22 e23d 6312 9fbd
000000f0: 43d0 e5bd 92c6 75bd dbbb 583e 96ed c6bd
00000100: 4e4c b8bd 6c6d 1b3e b00e 3e3e fcaf d6bc
00000110: 5de7 343e fb84 66be da66 0f3c 0d93 20be
00000120: a87e 4c3e f0c6 05be 9bd7 1bbe 2215 ffbd
00000130: 1efb 963c 8ceb c4bd dd55 04be 0b7f 543e
00000140: 448d 20be 4729 403e 211e 443d abab 18be
00000150: 0fc4 bbbd 8376 593e 552f ae3d 3ac3 1ebe
00000160: f5cb cd3c 2e02 0dbe 534b 46bd 0cf1 003e
00000170: f19f 05bc e459 ecbd ac00 203e 7821 26be
00000180: b5d4 fcbd 550d 3abe a160 43be 76d1 6bbd
00000190: f2e8 d2bd 14ed ee3d abe0 55be 761d 4c3d
000001a0: 4f1a 2fbe faf0 e0bc a315 e0bd 69ae 173e
000001b0: 9219 13be 3ad9 8ebd a3e2 263e cea7 06be
000001c0: de3a 1e3e fadd d8bd 4262 debd da22 d0bd
000001d0: 5143 9abc d1f1 dfbd 7506 11be 4797 2f3e
000001e0: 964e d0bd 2275 b6bb b4fa 8dbd 3b69 f03b
000001f0: 45a0 09bd f0d8 593d c15c 9abd 0e65 a73d
00000200: 8111 ba3d 5436 30bd f90a 75bd 2dca e03c
00000210: eb23 4cbe 78bf 65bd a539 5bbe 9c6c 793d
00000220: 1ac9 16be b061 adbd 3340 1f3e a199 e63d
00000230: 7833 043e d34f f33d 449c 02be dcc1 5e3d
00000240: 8ccf 1abe 7a97 25be 57e2 033d 7b36 0cbe
00000250: 806f 3dbd 0a28 1cbd 4a41 413c 0729 0a3e
00000260: 77c2 e53d ee99 ffbd 6f7b 0d3e 9b6c dd3d
00000270: e162 f83d a263 18be a6ea 7cbd b06d 4fbe
00000280: 8c61 2fbd 3cde 8abd 551d 423e 84d6 4f3e
00000290: 9311 413e 6579 b6bd cf12 32bb fc61 60be
000002a0: 36d4 05bd d028 493c f4d7 433e 0291 363e
000002b0: bab7 89bd 47be 473e 29d9 873d b48a a7bd
000002c0: 6ae8 3ebe 9855 e93d bc36 33be d32d b03d
000002d0: 4b61 d1bd 609f 51bb dcd7 02be 61d9 8b3d
000002e0: 85ec 47be e096 67bd 0dcb 453b d999 cfbd
000002f0: 05d3 42be cc76 37be f2de 4fbe 7c7d 613e
00000300: 92ec 3cbe 212f 89bc 57e2 da3d 9007 20be
00000310: 6360 553e b2d0 053e b068 293d c92c b63c
00000320: 0679 403e d252 58bd cd0d 523e 3afd 04be
00000330: 8b99 893b 207e b2bd e0c1 1bbe 9fe6 2fbe
00000340: 48fc 843d ed79 303e 0bde 4abc 4168 c8bd
00000350: 403b 083d c2a3 a53d f849 d8bc 0355 4fbe
00000360: 9be2 91bb 580c a03d 89f9 073e a6fd 393c
00000370: 72d9 f3bd 38ee 2cbe 62c4 22be 353f c3bd
00000380: 1217 4f3e ab01 afbc 97c8 20bd dfba a23d
00000390: a837 003e c2e8 8ebd 2fde 25be f7a1 b0ba
000003a0: d0a6 d23d 8b4a 183e 8d67 40be 4dbe 903d
000003b0: 7829 813d bca5 373d a2ae cabd 28e6 303e
000003c0: 2741 37be 7820 4fbe 56bf 4a3c 8228 1f3e
000003d0: af4f 4c3d d59d a1bd 5ff2 3c3e 3c37 ef3d
000003e0: ccce aa3c 671a 1fbc 79aa 20be 2b65 ed3c
000003f0: 5e8f efbd f889 34bd 58a3 1ebe 1bc3 b03d
