finalhybrid/experiments/experiment_20251104_232429/checkpoint_epoch_40.pth (torch, 662928 bytes, 50 tensors)

gcn_layers.0.bias f4 [64]
00000000: 1525 053c 581e a0bc 0000 0000 2b63 963b
00000010: 0000 0000 aa4b 6b3c 0000 0000 9afe 93bb
00000020: 55c7 8abc b3f7 b93b 0000 0000 0000 0000
00000030: c937 c33b e911 51bc 0000 0000 fc01 b0bc
00000040: 0000 0000 b2de e93b 0a5d 3739 89a0 853a
00000050: 4cfc 72bc 2655 d33b 8817 c13c 05a8 63bc
00000060: 9648 b33c 4616 adbc 0000 0000 4466 07bc
00000070: 0000 0000 b28e 863c a0f3 95bb 18fe 42ba
00000080: 0000 0000 0000 0000 4df6 433d d288 753b
00000090: 9807 5cbc 2197 e43b fb52 77bc 0000 0000
000000a0: 0000 0000 8ee5 7cbb f10b afbb 0000 0000
000000b0: 44ce 63bc 828d b93c 0000 0000 ecd0 043c
000000c0: 22c7 713c f3fb 39bb 1eb2 c5ba 0000 0000
000000d0: 0000 0000 2037 a6bc 0000 0000 0000 0000
000000e0: 55d7 463c 0000 0000 0000 0000 0000 0000
000000f0: 1b12 c93b 0000 0000 1eaf 10bc c2e8 113c
0.008126517 -0.019545719 0.0 0.0045894585 0.0 0.014361301 0.0 -0.004516435
-0.016940752 0.00567528 0.0 0.0 0.005957578 -0.012760618 0.0 -0.021485321
0.0 0.007137143 0.000174869 0.0010194938 -0.01483066 0.0064493595 0.02357079 -0.013895039
0.021885198 -0.021128785 0.0 -0.008264128 0.0 0.016425464 -0.0045761615 -0.00074383756
0.0 0.0 0.047842313 0.0037465584 -0.013429545 0.006976024 -0.015095468 0.0
0.0 -0.0038588974 -0.0053419997 0.0 -0.013904158 0.022650484 0.0 0.0081064515
0.01475695 -0.0028378933 -0.001508299 0.0 0.0 -0.020289958 0.0 0.0
0.0121363 0.0 0.0 0.0 0.0061361915 0.0 -0.008830814 0.008905591

gcn_layers.0.lin.weight f4 [64, 36]
00000000: bebf 28be 26dd 86bb 6894 de39 2540 73be
00000010: c2a8 b93d ae3a 39be aba6 d5bd 22f6 4abe
00000020: 9175 cbbb cfa1 55be 0af2 2ebe e9a7 79be
00000030: 1269 e13d 4d24 383e 3341 76be 71a7 1f3e
00000040: 1d30 61be 4d42 453e 004d a1bb 7c50 563d
00000050: 3a5b e23d 421c 49be 5de2 653e c621 073e
00000060: 712b 1e3e cd29 003e 8e89 cfbd 5b85 453e
00000070: c08e adbb be31 84be a100 733e 8161 5a3e
00000080: 889a 53be eac1 49be bef9 323d bdb1 a9bd
00000090: 5cdf 28bd c236 97be ce56 8fbd 8880 14be
000000a0: e43b 39be 1a9d 4f3d 38b2 1d3a 3250 0fbe
000000b0: e204 7ebe 9671 88bd 0a63 ae3d a00a 06be
000000c0: 3939 43be 6d08 283e 3c08 f5bd 7d4a 313e
000000d0: e009 e8bb 2402 5cbe bf4b 183e 23f5 2f3e
000000e0: 18d1 67be bb16 a9bd 2025 9ebb 7383 cdbd
000000f0: 6880 453e 98a8 75bd d6d6 88bc 9022 93be
00000100: ce55 603e 167f 453e 318d c93c 74d9 143d
00000110: b0ab 233c 2321 673e 05a5 1f3e 8937 1b3e
00000120: 5b4e 323e 4006 66bd 588b e23c 01bc 30be
00000130: f6dc 59be f054 e9bd e411 e1bd e694 843d
00000140: 3a57 973d 97ab 093e 0030 97b8 4802 a8bc
00000150: 2181 023e 4c24 4f3d 1850 c43c 8c96 2c3d
00000160: 30c5 37be 3c22 6b3d fea0 73be aaf7 de3d
00000170: 80cd 38bb d54d 52be 8222 f1bd 567c 13be
00000180: 6696 bf3d 6711 07be 8c7d 28be f816 fdbc
00000190: 4759 593e 0e3f 75be d44e 43be e322 043e
000001a0: a82b 1dbe b415 a4bd c6f0 f3bd 49bd 023e
000001b0: 644d cebc 2829 19be 7ac6 7d3e d8d8 8abd
000001c0: 44c2 3c3e 9d30 85bc 6fde 76bd 1469 21bd
000001d0: 485c 22be 469a ffbd 7a89 47be 5fd9 4a3e
000001e0: 3dc4 283e 6873 dbbc 09f6 683e 1e2a b0bd
000001f0: 6cbd a1bd a492 543d 032e 71be 6a90 2fbe
00000200: 672c 613e 640c 58be 7869 10be 3a45 68be
00000210: ae75 6fbd d866 b4bd 457b 5e3d c020 0b3e
00000220: f566 2f3e 0c40 0c3e 85cf c03d a520 08be
00000230: 2404 6d3d 3b9a 2cbe 6138 70be 7cce 633e
00000240: af66 223e bfa4 00be a3fa 343e d43e 013d
00000250: 21c1 67be 18aa 8fbc c018 d8bc 8f90 163e
00000260: 8020 f43a a44f 58bd e212 f2bd 780e 01bd
00000270: 3c88 8cbd 18d1 38be 9897 05bd a1db 42be
00000280: 8ca5 273d e9cd 3a3e 5e9d 3cbe 9b7d 393e
00000290: 2d9e 5e3e 2f95 46be 7839 903c b8c5 5dbd
000002a0: c2f3 fe3d fb02 1c3e a607 42be 46bc babd
000002b0: 6620 32be e02e 48be 6854 79bd b57c 79be
000002c0: 26bc 4abe 2483 0f3d aa27 76be f5a2 223e
000002d0: f941 49bc d9ba 03be 9163 513e 2373 02be
000002e0: fa95 4c3e 3ea3 f13d 7e0f 1a3e 0033 fbba
000002f0: d239 45bd 5b45 273e 3844 10be c22b 1cbe
00000300: 0e83 a9bd 9aa1 65be b045 0e3c b2a3 dabd
00000310: 9445 40be 9e2e e3bd 7ecc e63d da8a 1bbe
00000320: 3e61 a7bd 5d44 e13d b616 e73d 25f4 1a3e
00000330: 9e86 3b3e 0fe9 213e 4755 ba3d 0d1e 183d
00000340: fb2e 5e3e e342 82bd a677 453e 1131 123e
00000350: 544b 48bd 2fb9 803e aa00 843d c4c9 c0bd
00000360: f518 0abe 4670 b53d 267a e1bd bde5 273e
00000370: b8f0 6ebd b68c a43d ed05 6b3e 6c52 2bbd
00000380: ed59 66be fd58 2fbe 8848 923c 4889 6cbe
00000390: 9d4a 453e 5a8c 1abe d716 093e 45b2 623e
000003a0: d300 2e3e 4f87 3f3e 5fb7 54be d8fb f13c
000003b0: 738f 053e c67d d33d 4650 02be 7211 963d
000003c0: a296 12be eb99 1a3e 383b b7bd 2b35 2b3e
000003d0: 62f3 e0bd 1e38 61be bd8d 1cbe 667e ab3d
000003e0: 656c 30be 5a00 3abe c8fb 17be c0f1 f2bb
000003f0: 2a9d 45be cae3 65be 551a 3a3d d271 a73d
-0.16479394 -0.0041157184 0.0004245371 -0.23754938 0.09065391 -0.18088791 -0.1043218 -0.19820455
-0.0062090834 -0.20862506 -0.17084518 -0.24380459 0.11006369 0.17982598 -0.24048309 0.15591218
-0.2199101 0.19263573 -0.004922509 0.05232285 0.11052556 -0.19639686 0.22449632 0.13196477
0.15446259 0.12515946 -0.10133658 0.19289152 -0.005296558 -0.258192 0.23730709 0.21326257
-0.20664418 -0.19702879 0.043695204 -0.08285854 -0.041228637 -0.29533964 -0.069989786 -0.14502156
-0.18089253 0.050686933 0.00060156314 -0.13995436 -0.2480655 -0.0666229 0.08514984 -0.1308999
-0.19064797 0.16409464 -0.11964461 0.17313571 -0.0070812553 -0.21485192 0.14872645 0.17183356
-0.22638357 -0.082562886 -0.004826203 -0.100348376 0.19287264 -0.059975237 -0.016704004 -0.28737307
0.21907732 0.1928676 0.024603458 0.036340192 0.009989664 0.22571234 0.15590294 0.15157904
0.17412703 -0.056158304 0.027654335 -0.17259218 -0.21275696 -0.11393154 -0.109897405 0.064737126
0.07389684 0.13444363 -7.209182e-05 -0.0205089 0.12744571 0.050571725 0.023963973 0.04213576
-0.17946315 0.057405695 -0.23791882 0.10887082 -0.002819866 -0.20537503 -0.1177416 -0.14402899
0.09354858 -0.13190232 -0.16454142 -0.030894741 0.21225463 -0.23949835 -0.1907304 0.12903933
-0.15348685 -0.08011952 -0.11911158 0.12767519 -0.025183387 -0.14957106 0.24782744 -0.06779641
0.18433481 -0.016258532 -0.060270723 -0.03940685 -0.15855515 -0.12480597 -0.19486037 0.19809483
0.16481109 -0.026788428 0.22750105 -0.08601783 -0.078974575 0.05189766 -0.23552708 -0.17144933
0.21989594 -0.21098477 -0.14102733 -0.22682658 -0.058461837 -0.088086784 0.054316778 0.13586712
0.17129119 0.13696307 0.09414581 -0.13293703 0.057865277 -0.16855709 -0.23459007 0.22246736
0.15859483 -0.12562846 0.17673735 0.03155406 -0.22632267 -0.017537162 -0.02637899 0.14703582
0.0018625408 -0.052810326 -0.11820008 -0.03150794 -0.06861922 -0.18048513 -0.032615274 -0.19029094
0.040929362 0.18242611 -0.18419406 0.18114321 0.21740027 -0.19392847 0.017605528 -0.054143637
0.12448837 0.15235512 -0.1894823 -0.091179416 -0.17395172 -0.19549131 -0.06087151 -0.24363978
-0.19798335 0.035037175 -0.24038568 0.15882476 -0.0122837955 -0.12864245 0.20448138 -0.12739234
0.19979087 0.11798714 0.15044972 -0.001916498 -0.048150845 0.16335051 -0.14088523 -0.15251067
-0.0827695 -0.22424927 0.008683607 -0.10675754 -0.18776542 -0.11092876 0.112694725 -0.15189686
-0.08172844 0.109993674 0.11283629 0.15132196 0.18313071 0.15811561 0.090982966 0.037138034
0.21697609 -0.06360414 0.19283924 0.1427653 -0.048899963 0.25141284 0.06445439 -0.09413484
-0.13486083 0.08859305 -0.11009626 0.16396232 -0.058335036 0.08034651 0.2295148 -0.04182665
-0.22495241 -0.1712379 0.017856851 -0.23099244 0.19266744 -0.15092602 0.13387619 0.22138317
0.16992502 0.1870396 -0.20773076 0.029539034 0.13043003 0.10326724 -0.12725934 0.07327546
-0.14315274 0.15097778 -0.08946842 0.167195 -0.109839216 -0.21994063 -0.15288444 0.08373718
-0.17228849 -0.18164197 -0.1484214 -0.0074140728 -0.19298235 -0.22450176 0.04543527 0.081760064

gcn_layers.1.bias f4 [128]
00000000: 8746 223c 352e 853c f021 b5bb cd72 4bbc
00000010: 53a9 95ba 3a4d 06bc f704 25bc 0000 0000
00000020: 75d3 21bc ee4c c63c 9b48 083c 9c0d 023c
00000030: fb11 3fbc 80a2 cfb7 3285 173c 15e1 053c
00000040: 96cf a9bc 74fd 213c 9fd7 70bc 9146 0fbc
00000050: 1f74 903b 792b eb3a f1e9 1cbc b02e 88bb
00000060: 232c 2dbb 8a1b 75bb c0d3 8d39 a7ab 983b
00000070: e941 26bc 4587 dfbb 4128 b8bb 9f3c 7abc
00000080: 7d02 9dbb 92cd 39b9 483c f6b9 11d9 dcbb
00000090: c7ee 1fbb 81fc c3bc 7f72 983c a6ac ae3c
000000a0: b053 f43b bc4b 3fbc 26be 4ebc 9c86 9d3b
000000b0: f631 56bb c075 29bb 7c77 19bb 0692 b1bb
000000c0: 2aa1 1abc a95c 00bc c725 b13b d02c a7bb
000000d0: c398 1dbc 700f 7e3c 0000 0000 1003 9dba
000000e0: 0000 0000 424c 0abc 11b6 19bc d824 98bb
000000f0: f638 91ba 0001 43bc 397d 0f3c 84a2 15bc
00000100: eebb 963c 8c73 863b ae2f 773c fa2c f03c
00000110: 889d 733b 1fee 743b 2050 f3bb 27b5 283b
00000120: d4c5 1cbb f86d 5cb8 1681 0abb 38b9 283c
00000130: fecf 78bc 3e1e 45bc 850d 04bc e18e d3bb
00000140: d82b 7bbb 4848 1bbc 238c 0a3c 533a 10bc
00000150: 9de2 b3bb d1c0 943c 432b 703b f324 7c3c
00000160: 98c8 a6bb 44e5 9dbc c84e 0dbc cb52 14bc
00000170: d0d6 203a 7d13 33bb 6a6d b9bb c94c ab3a
00000180: 67ff 443b fd8f 7b3b 9326 a23b d43b 543c
00000190: bc9b b43c 16a9 633c 2ba4 d33c 1902 44bc
000001a0: 01e3 a1bc 12d8 50ba ef23 5dbc 192c 74bc
000001b0: 417d 58bc 7b66 10bc fabc 903b 9c2a 633b
000001c0: d303 f2bb b0af 86bc c724 b3bc c4f3 9ebc
000001d0: b4c5 a6ba 9bf0 53bb 2b85 a03b aa8f 39bc
000001e0: 4cc6 013c 308f 893a 3a1d 203c efe5 4cbc
000001f0: 2c67 36bb d7c1 01bc a55a c1b9 689b 51bb
0.00990451 0.016257385 -0.0055277273 -0.012417507 -0.001141826 -0.008197123 -0.0100719845 0.0
-0.009877075 0.024206605 0.008318092 0.007937815 -0.011662002 -2.4751993e-05 0.009248065 0.0081713395
-0.020728868 0.009887088 -0.014699846 -0.008744852 0.004408374 0.0017942033 -0.00957726 -0.004155956
-0.0026424013 -0.0037400448 0.00027051382 0.0046591344 -0.01014755 -0.0068215453 -0.005620033 -0.015273242
-0.0047915564 -0.00017719556 -0.0004696569 -0.0067397435 -0.0024403797 -0.023924114 0.018609283 0.02132256
0.0074562654 -0.011675771 -0.012618577 0.0048073065 -0.0032683588 -0.0025857538 -0.0023417166 -0.0054190187
-0.009437839 -0.007834592 0.0054061147 -0.0051017776 -0.009618941 0.01550661 0.0 -0.0011979062
0.0 -0.008441033 -0.009381787 -0.004643064 -0.0011079598 -0.011902094 0.008757883 -0.009132985
0.018400159 0.0041031297 0.015087051 0.029318321 0.0037172753 0.0037373377 -0.007425323 0.002574274
-0.0023921626 -5.2554504e-05 -0.002113407 0.010298066 -0.015186308 -0.012031136 -0.008059864 -0.0064562415
-0.0038325693 -0.009477682 0.008456263 -0.008802968 -0.005489661 0.018158348 0.003664688 0.015389669
-0.0050898306 -0.019274361 -0.00862474 -0.0090529425 0.0006135525 -0.0027324848 -0.005658795 0.0013069148
0.0030059458 0.0038385384 0.004948446 0.012953717 0.022046916 0.013895294 0.025835117 -0.011963391
-0.019761564 -0.00079667673 -0.013497337 -0.014903092 -0.013213457 -0.008813496 0.004417059 0.0034662848
-0.00738571 -0.016441196 -0.021868123 -0.019403346 -0.0012723715 -0.0032339457 0.0048986874 -0.011325756
0.007920813 0.0010494944 0.009772593 -0.012505992 -0.0027832491 -0.00791975 -0.00036879364 -0.0031983498

gcn_layers.1.lin.weight f4 [128, 64]
00000000: b842 07be 9f98 40bd 69d6 343e 7487 9e3c
00000010: 9139 cabd 45fb a33b 694c dfbc 7aeb 1fbc
00000020: cd7e 29be fc33 be3c 350b 85bd 367e 2a3e
00000030: 36b2 6b3e 02d4 41be b85c 14be 65a6 d2bd
00000040: 3025 92bd d9b5 473e fe1c 463e 076e 13be
00000050: f7b2 113d d1a6 043e de78 e3bc cc8c 303e
00000060: cac3 f0bd b4f4 e93d ee67 3a3e d697 2bbd
00000070: 3735 903d d9b6 d63d 7efe ab3d 0ad7 efbd
00000080: f3af e7bd c16d 123e 69ad 2c3d f344 e33d
00000090: 62c7 313e a57e 123e e4eb fcbd 6a63 22be
000000a0: 132e 95bd 4b92 363d eb5a 643d e249 663c
000000b0: cf8a 70bd 0031 2abe ee0f 2b3e 55a2 f6bd
000000c0: 6a19 2f3e 7f2a 7a3d a35a d4bd 721c 5c3c
000000d0: 767a 963d f546 163d ab72 efbb b48c 75bd
000000e0: 0b8a d0bd 00c0 d23a 660e f53d a8f4 943d
000000f0: ee25 66bd 1ee7 ef3d d1c6 05be b634 06bd
00000100: ef03 b1bd 36c9 84bd e2e0 a0bd f7ab 34be
00000110: 91f7 b3bd aee9 aabd c5bf f5bd b7b7 243e
00000120: 672b f23d 94df 203e 66cd b13c 380f e63d
00000130: 8ec6 cabd 8979 cdbd bd4b 8f3d d4a5 a2bd
00000140: 12f8 e4bc 620a e7bd db41 cebd 9ae3 b0bd
00000150: 4a7e 0b3d a944 20bd 4597 97bc f4a9 bebd
00000160: 757d c4bc a4e6 33bc 460c 0a3d f29f 983d
00000170: fc3a e53d 4cb4 173e 2628 143e 5ecb 433e
00000180: 5981 abbc a119 213e bc52 60be aca0 2a3e
00000190: 1a79 83bd 8037 993d 974a 7c3d 984a f1bc
000001a0: 3160 02be e6ba 28be 7c8d 393e 12ca 263e
000001b0: 0f72 20be d54f ec3d bf3d 04be 6c7d 2a3e
000001c0: 5ada cbbc a7cc bcbd 1e29 0a3e 595a 1b3d
000001d0: c1de 523d 1214 073e 8fac c0bd ae3c cfbd
000001e0: de66 20be fab1 21be 8ffd e13b 18fd 83bd
000001f0: af64 5fbc dd68 c8bd 941b 00be e2ad 01bb
00000200: 2987 053e 5f6d 1e3e 3a0b e1bd ebea dbbd
00000210: 6751 1fbe 27d3 b63d 2218 05be e12a 2abe
00000220: 74a3 d6bd 41a0 7d3d 8083 833d b5f5 3f3d
00000230: 2a86 56be 95a5 d83d e049 bc3d 917a 1f3e
00000240: 54a9 943d df3e 81bd 2c77 24be 11e0 34be
00000250: 30b4 c43d 5a7f 963d 4c4b d5bd 9bfa c83d
00000260: 7546 073e 934a dd3d 75b0 a1bd 3ebd 3abd
00000270: 4fdf e73c 62e1 af3c 95d8 013e e7ec 813d
00000280: 84c0 9fbd 0b1a 1e3e 616a 0b3e cc5b 18be
00000290: 6ea5 d23c 2b2f 3ebe 2033 9c3c 8c90 483d
000002a0: a28d d73d 7413 ff3d 605b 66bd a3f7 aa3d
000002b0: b47e be3b c2e7 753d 1bd6 ddbd 14eb 1abc
000002c0: c412 a23d b088 8abc 0b02 323d c3b8 e73d
000002d0: 762f f33d 21d2 b03d 8dec 14be fa63 163e
000002e0: efcd 3fbd 0d48 013e 1846 1c3e fa1a 58bc
000002f0: 8798 10bd c352 fabd 5ea2 a53d ec24 84ba
00000300: cf88 d4bd 4a22 9bbd 3f32 9fbd ba85 ff3d
00000310: e24d c2bd b469 323d 1d77 1b3e 5ef2 13be
00000320: bcba 39be 1435 5d3d 5cd6 963d 7c43 c3bb
00000330: 67f3 e1bc 97d6 633d 5bd5 26be d090 c2bd
00000340: d70c 26be 5c4c 863d 4a19 43be 8e20 263e
00000350: d3d0 983d b16a 89bd ac46 723d a0de 1a3e
00000360: d14a abbd b7c3 943d fee1 b4bd a6d2 213e
00000370: 3a4f 6e3d 4fec 893b 4627 3a3d 1ef1 18bc
00000380: 2f0a 2c3c b0d0 813c 3ab2 69bd 2cfb f8bd
00000390: 1414 a8bd 62e9 52bd 8bb1 f93d fe48 6abd
000003a0: 3bbc 90bd ebdf d4bd 8c7a 55bd da81 02be
000003b0: 409f 293d 1403 fa3c 7cd0 4dba 6d36 c6bc
000003c0: 263c f03c 04c2 16be 44e5 03bd f6aa 343e
000003d0: 5c67 91bd 5a81 36be be26 013d 8122 fc3d
000003e0: b917 aebd 17df bcbd 7342 123e f129 24bd
000003f0: e312 9dbc 6cd2 4e3d ee76 38bd 4c22 c93c
-0.13209045 -0.04702055 0.17659916 0.019351698 -0.09874261 0.005004319 -0.027258115 -0.009760732
-0.16552277 0.023218147 -0.06496278 0.16649708 0.23017201 -0.18928531 -0.14488494 -0.102856435
-0.07135999 0.19502963 0.19346997 -0.14397441 0.035571065 0.1295426 -0.027767595 0.1724121
-0.11756094 0.114236265 0.18203709 -0.04189285 0.070414 0.10484094 0.0839815 -0.11710937
-0.113128565 0.1429968 0.042157564 0.110971354 0.17361215 0.14306124 -0.1234968 -0.15858236
-0.072841786 0.04457311 0.05575077 0.014055701 -0.05872613 -0.16620255 0.16705295 -0.12042681
0.17099538 0.061075684 -0.1036885 0.013434516 0.07347576 0.036688764 -0.0073073707 -0.059948638
-0.101825796 0.0016078949 0.11965637 0.07273227 -0.056188516 0.11714004 -0.13064124 -0.032765113
-0.086433284 -0.064836904 -0.07855393 -0.17643724 -0.08787454 -0.08345352 -0.11999468 0.16085707
0.118246846 0.15710288 0.021704387 0.112333715 -0.099011526 -0.100329466 0.06996868 -0.079417855
-0.02795032 -0.11281277 -0.10071155 -0.086371616 0.034055986 -0.03912798 -0.018504748 -0.0930976
-0.023985604 -0.010980282 0.03370311 0.07452382 0.11192891 0.14814872 0.1446844 0.19120547
-0.020935701 0.15732433 -0.2190656 0.16662854 -0.06419583 0.07481289 0.061594572 -0.029454514
-0.12732007 -0.16477546 0.18120378 0.16288021 -0.1566851 0.11538664 -0.1291418 0.16649407
-0.024884392 -0.09218722 0.13492247 0.03792796 0.051481966 0.1319125 -0.09407913 -0.101189956
-0.1566424 -0.15790549 0.0068966816 -0.06444758 -0.013634845 -0.09785626 -0.1251052 -0.001978748
0.13039841 0.1547141 -0.109884694 -0.107381664 -0.15558396 0.08926993 -0.12997487 -0.1661792
-0.10480395 0.06192041 0.06421566 0.046865184 -0.20949617 0.10578457 0.09193778 0.15574099
0.07258859 -0.0631082 -0.16061085 -0.176636 0.096046805 0.07348509 -0.10414752 0.09813424
0.13210471 0.108052395 -0.07894985 -0.04559063 0.028304724 0.021469776 0.12680276 0.06344014
-0.07800391 0.15439622 0.13614799 -0.14878768 0.025713649 -0.1857268 0.019067347 0.048965976
0.10525061 0.12454882 -0.056239486 0.08348014 0.005813444 0.060035475 -0.10831853 -0.009455461
0.079137355 -0.01691088 0.04345898 0.113145374 0.11874287 0.08633829 -0.14543362 0.14686576
-0.046827253 0.12625141 0.15261114 -0.013190025 -0.03530171 -0.12222817 0.0808761 -0.0010081804
-0.10377657 -0.075748995 -0.077732556 0.12476678 -0.09487511 0.043557838 0.15182157 -0.14447924
-0.1813764 0.054005697 0.073651046 -0.0059589725 -0.027581884 0.05562457 -0.16292326 -0.09500277
-0.16215836 0.06557533 -0.19052616 0.16223356 0.07461705 -0.06709803 0.05914943 0.15123987
-0.083638795 0.07263892 -0.08832167 0.15803012 0.058181025 0.0042090784 0.04544761 -0.009334831
0.010500475 0.01584658 -0.057054736 -0.12157282 -0.082069546 -0.051492102 0.12192067 -0.057198517
-0.07067152 -0.103942715 -0.052118823 -0.12744847 0.04141164 0.030519046 -0.0007851196 -0.024195874
0.029325556 -0.14722449 -0.032201067 0.17643341 -0.07099792 -0.17822781 0.031531088 0.123112686
-0.085006185 -0.092222385 0.14283161 -0.04007906 -0.019174045 0.050493643 -0.045035295 0.024552487

gat_layers.0.att_src f4 [1, 4, 64]
00000000: c536 893d cfb2 89bd b991 a23e 4f7f 05be
00000010: 88ab 9dbe b270 893e 5a80 a1bd bbbb 143d
00000020: 6014 063e 0967 35bc e47a 8fbe 69dc d7bd
00000030: e384 423e b1cc 503d 6052 9d3e 9766 0b3e
00000040: da41 643e eb48 ee3d a80e 4d3e e437 823e
00000050: a866 9b3d 67c4 babb 1880 25be 2f39 c6bd
00000060: 8d2a 913e 4ab5 04be 511d 2ebe 72d1 03be
00000070: 3987 323e 335f 3dbe 3de3 05be ee84 55be
00000080: db1b 5e3d ddb7 3f3e 124a 443e 52f3 203e
00000090: d422 83be 4954 11be 4cfa 883e cca4 013e
000000a0: b29d 3f3e eeee 94be cd97 50be 4f46 043e
000000b0: 20e3 adbe 8e09 623e 886f 543d e1d4 59be
000000c0: 83d9 77be 0fc2 c83d a895 593e 2269 21be
000000d0: 36cd 0ebe 46a1 43be 72ca 353e 69d7 883e
000000e0: 5080 583e f82b 0bbd 02b6 cf3d 6567 16be
000000f0: 11c3 77be adaa 363e a515 58be bcde 913d
00000100: 013c 523e eb3e 923e b13a 803e 0023 233e
00000110: 1f75 f0bb f2ac 8abe 0c08 3dbe 607f 933d
00000120: 3850 753e e1da 5dbe c730 643d e8a6 c33d
00000130: 1b58 62bc 7f2d 0cbe d9f7 873e 5e8c 23bd
00000140: ab50 7b3e 7edd 953e ff0e 06bb dd0d 28be
00000150: ef54 5e3e b6ee a7bd a7ae f3bb 3f4c 5dbc
00000160: fc01 2bbe f0dd 1dbe 95d3 703e 8ecf d0bd
00000170: 7f5b eabd 74ba afbd b518 923e f8fb 873e
00000180: 338a 5abd 6b25 8ebe 20cd 633e 2688 51bc
00000190: 9bf2 82bd 2a2b 483e 9602 743d 7162 be3d
000001a0: c222 033d a8d2 733d ac56 973e 3f54 043e
000001b0: 2f58 1ebd fb50 293d 73ed 67be f92c 72bd
000001c0: afdd b93d e792 073e ff99 4e3e 3b06 62be
000001d0: 13ae 073e eaf4 903e 0654 1b3e 7302 9bbb
000001e0: 34a4 6dbe eb05 c53d 4189 79bd f842 d9bd
000001f0: a8c1 633e 3c35 1a3e 3ad5 81bd 59e4 7b3e
00000200: ccb4 a8be 4212 6cbe 9864 33bd f2e9 133e
00000210: cf8d 83be 3334 16be 0551 3cbe dd0a a53d
00000220: b487 503e b377 183e 190f 1fbe 096c 893e
00000230: 9de9 97bd b7bd 5b3e bcac 663e 24df 983d
00000240: 581a 923d 40e1 d23d 62e6 84be 8c5c 1bbe
00000250: 61a5 94be 9469 90bd 3473 d23d 43ae 8abe
00000260: 1efd ddba 3aa7 153e 2159 203e 61f9 37be
00000270: 7593 cabd 5df5 523c 1cc9 65be 6f09 783d
00000280: 821b 6ebe b96b 523d 1977 933e 8436 80be
00000290: d455 33be b58b 1fbe e262 bbbd acfa 263e
000002a0: 8e58 63be 2820 823e ba84 643e 5be5 19bc
000002b0: d79c 7b3e 8551 bfbd 0aa8 58be f184 003e
000002c0: a5d3 5bbd 160f aabd 05a6 e2bd b6cb 93be
000002d0: e87b 67be d287 803d 070f aa3d cdda 35be
000002e0: e41f 97bd ca6d 803e 8d3e f23d e33b 3b3e
000002f0: e5c4 913e e76f 69be 9fda 7abe b26e 433e
00000300: db72 3fbe 812c 913e 70bb 37be 5719 2cbe
00000310: d43c 4d3e 147d 8b3e f901 87be b6fc 1a3e
00000320: ebdd 153e 52d7 dbbd a9f2 fe3d aad5 8d3d
00000330: 9d81 0cbd bfab fabd bd88 54be ada6 723e
00000340: 3bdb 7f3e 6a4a 00be bad9 823a f515 663d
00000350: fbcf 9a3c 9e1d 00bd f01e 4e3e 8373 2bbe
00000360: 0f37 943e 4ab4 733e 6a5f c9bc 3962 443e
00000370: c918 71bd cedb 7c3e 712c 923e c266 9bbd
00000380: 0682 fbbc d607 aa3d a24b 9bbe a19f aa3c
00000390: f441 0ebe da1b cbbc 92f5 60be 4a89 8e3e
000003a0: b631 1abe 4613 4e3e 700d 9abd 2521 453e
000003b0: 20fb ee3d 2314 71be 0a89 48be 5b36 d4bd
000003c0: 3e52 20be 5b6c 7abe a45a 30bd 7583 6dbe
000003d0: fab9 823e 1384 3d3e fa44 2bbe 745c 84bd
000003e0: 2755 11be c8da 3fbc c43c debd 3ab2 06be
000003f0: dd67 ba3d 3c19 80be 34ba 55be 4934 553e
0.066998996 -0.06723558 0.31751803 -0.13036846 -0.3079493 0.26843792 -0.07885809 0.036311846
0.1309371 -0.011071929 -0.28023446 -0.10540087 0.18996005 0.05097646 0.3072691 0.13613354
0.22290745 0.11635002 0.20025122 0.25433266 0.075879395 -0.0056996825 -0.16162145 -0.09678876
0.28352776 -0.12959781 -0.17003371 -0.12872866 0.17434396 -0.18493347 -0.13074966 -0.2085149
0.054225784 0.18722482 0.1916888 0.1571782 -0.2561251 -0.14192308 0.2675346 0.12660521
0.187125 -0.2908854 -0.20370407 0.12917446 -0.33962345 0.22073957 0.051864177 -0.21272613
-0.24204068 0.09802639 0.21248496 -0.15762761 -0.1394547 -0.1910449 0.17753008 0.26726845
0.21142697 -0.03397748 0.10142137 -0.1468788 -0.24195506 0.17838545 -0.21102007 0.07122561
0.20530702 0.28563628 0.25044778 0.1593132 -0.0073381807 -0.27085072 -0.18460101 0.07202029
0.23956382 -0.21665527 0.05571058 0.09553319 -0.013814951 -0.1368923 0.2655628 -0.039928786
0.24542491 0.29270548 -0.0020455716 -0.16411538 0.21712087 -0.081998274 -0.0074365917 -0.013506948
-0.16699976 -0.15416694 0.23518212 -0.10195838 -0.11443233 -0.08580485 0.28534475 0.26559424
-0.053354453 -0.27762923 0.22246218 -0.012788808 -0.063939296 0.19547716 0.05957278 0.0929612
0.03201557 0.05952707 0.29558313 0.12922762 -0.038658317 0.041336995 -0.22649173 -0.05912492
0.09075486 0.13239633 0.20175932 -0.22072689 0.13249998 0.28311855 0.15168771 -0.0047305166
-0.2320717 0.096202694 -0.06092191 -0.106084764 0.22241843 0.1505937 -0.06339498 0.24598826
-0.32950437 -0.2305384 -0.043797106 0.14444712 -0.2569413 -0.1466835 -0.18390281 0.08058713
0.20364267 0.14889412 -0.15533103 0.26840237 -0.07417605 0.21459089 0.2252683 0.07464436
0.07133931 0.10296869 -0.25957018 -0.15172023 -0.29032424 -0.070513874 0.102758795 -0.27086076
-0.0016936397 0.14614573 0.15659 -0.17966224 -0.098914064 0.012875882 -0.22439998 0.06055587
-0.23252681 0.051372264 0.28801802 -0.25041592 -0.1751321 -0.15580638 -0.0914972 0.16306561
-0.2220175 0.25415158 0.22316256 -0.0093930615 0.24571548 -0.093417205 -0.21157852 0.12550713
-0.053668637 -0.08303659 -0.11066822 -0.28866357 -0.2260586 0.06275906 0.083036475 -0.17759247
-0.073791295 0.25083762 0.11828337 0.18284564 0.2847053 -0.22796594 -0.2449746 0.19085196
-0.18696158 0.28354266 -0.17942595 -0.16806541 0.20042735 0.27243865 -0.26368693 0.15135464
0.14635436 -0.107344285 0.124486275 0.06925519 -0.034303296 -0.12239789 -0.20755287 0.23696394
0.24985974 -0.12528387 0.00099831 0.056173284 0.018898001 -0.031278245 0.20128989 -0.16743283
0.28948256 0.23799244 -0.02458163 0.19178094 -0.058861528 0.24693224 0.2854953 -0.07587959
-0.030701648 0.08302276 -0.3033114 0.02082807 -0.13892347 -0.024793554 -0.21968678 0.27839118
-0.15058026 0.2012454 -0.07522094 0.19250925 0.11668992 -0.23542838 -0.19583526 -0.1036193
-0.15656373 -0.24455397 -0.04305519 -0.23194678 0.25532514 0.18507414 -0.16725531 -0.064629465
-0.1419264 -0.011709876 -0.10851434 -0.13153926 0.091018416 -0.25019252 -0.20871812 0.20820726

gat_layers.0.att_dst f4 [1, 4, 64]
00000000: 653e 85be f55a 8f3d bd5c d63d 3cdd 00bd
00000010: 3eed 97be cc37 153e 8aeb b8bd d8e3 f3bd
00000020: 3c76 13be a053 cb3d 2bd2 c5bd a7ad 3bbe
00000030: 7947 32be 5da6 02be 57a8 053d 3353 3cbe
00000040: 9ecc a33d e85b 263e bc1f 8fbe 9398 8ebe
00000050: cfc2 e1bd 477a d2bd 1c83 d4bd 4e3a dfbc
00000060: 66d1 36be 2ad4 6b3e 09e9 f73d 09c7 07be
00000070: ad3f 803e 2c49 c1bd c76a 2ebc 83d2 5e3e
00000080: 2f52 473e f55b 303d 98b3 fa3d b614 7b3d
00000090: 57f9 7b3e ce14 fcb9 d0d5 503e 1346 8cbe
000000a0: a5bf ab3d be9a 563d 1cf7 44be f2bf 5f3e
000000b0: efce 1abe 9e83 4cbe 9c3b 803e c1e6 82bd
000000c0: d0ee 5c3e d2bd fe3d 45ee e43d 5acc bf3d
000000d0: 84e0 3f3d 229f 64bb 9002 6e3e 5d2d a4bd
000000e0: 970a 8abd 0693 43be baf1 923d dcc8 973e
000000f0: ad60 7bbd 2c2a 4abe 0011 43bc b9ef 463e
00000100: 51f0 87be 6dd5 823d 4184 51bd 0e53 923e
00000110: 4c25 a23d 401c f5bd 21c2 cfbc b552 b13d
00000120: fe87 91be 15cd 2e3e 4ff9 00bd 2359 dcbd
00000130: bd23 053e 50a7 51be 7e15 fdbc b67b 3b3e
00000140: 9564 dcbd 2a21 a2bd 0c74 86be 336d 833e
00000150: a545 783e 77c8 8d3e 96d1 7a3e edf8 2c3e
00000160: 84bb 353e 40ed 373e 1d4c f8bd 897a 18be
00000170: 3c9a c1bc 2b3e 43be ee08 cabd b1ef 1f3e
00000180: 389f 843e 3237 86bc 78b8 433e 60ea d73b
00000190: 7181 a93b 9254 17bd 56f4 75be 1472 8f3e
000001a0: f5eb 343e 13b9 203e c844 933e bc94 30be
000001b0: b069 b53d 90c3 893d 8a5b 53be 666f 933e
000001c0: dea2 213e 26b1 d7bc f240 65be c218 b63d
000001d0: cc55 843e 93d7 703e e268 3b3e 6eae 323d
000001e0: 5f5c 5cbe 1afc ab3d 8485 3abe adf5 9f3d
000001f0: f3f6 5ebe 9b30 0a3d cce7 18be 15b1 013e
00000200: 1475 0fbd 57d5 a93c b5a5 793d 8e66 9d3d
00000210: c0ee 633c f878 7a3d 93a4 85be 359c e0bd
00000220: 19db 5f3c ae97 f7bd 6939 163e 2a32 b5ba
00000230: 2226 65be 7066 ae3d 3b84 0bbe 46d2 fa3d
00000240: ffa8 10be 56c4 b2bd c603 1f3d 7df7 543e
00000250: 57e7 843b 645f 8a3e 9063 1abd 59ad 26be
00000260: 78d3 953e b1f9 e43d 3a17 403e c0a5 783e
00000270: e31c 113e 93d1 af3d b3b6 353e 6186 3d3d
00000280: 165b 68be b55a 64be 6f18 333e 1dfc 65bc
00000290: 6749 31be f985 91bd df03 15be 903b 8e3e
000002a0: ccbf 093e 1d87 d13d c90a 04be 5555 933e
000002b0: 70f3 673d e197 693e 940b 3dbd 87b8 91be
000002c0: 2f0a f73d ffd8 06be 881f 18be f43f 043d
000002d0: 6360 2e3e 1580 fdbd 6d1a 953d 827b 33be
000002e0: 53a4 50be 40bf 663e f2a3 543d 3b23 013e
000002f0: 8d7e 51bc 8077 07be 5447 ce3d bc72 993e
00000300: 3c92 32bc bddf a93d f1db 5fbe d97b 2d3e
00000310: 07d0 323e d813 813c bf27 01be 1a53 55be
00000320: 73dc 7dbe a485 043e f436 09be d0da 99be
00000330: bcac 113d 7342 863e 24e5 5abe 5c7e 453d
00000340: 936e 67be 730c 47be f02a 69bd d1ff e93d
00000350: c83d c33d 8ba0 9abe da28 91be 9462 5fbd
00000360: e2ae 843e 4df7 1a3d 80b2 e5bc 5ede 8f3e
00000370: c0b4 563e 5c61 143d 7cb6 86be ac85 6fbe
00000380: 2175 3b3e 4f5b 9a3e e906 08be 5ca8 42bd
00000390: 2a98 9c3e a726 40bd 9cc9 82be c292 10be
000003a0: b88e 64be 134a 003e 5d0b 993c cf82 febc
000003b0: 77c0 243e 6364 153e 6e0a 343e eb83 15be
000003c0: 9d82 413d a50b 853e e167 b03c 9a9c 453e
000003d0: 1c93 4d3e 648e 0f3c 8391 cf3a 08df 4dbe
000003e0: 47a7 bdbd 3968 96bc d699 fa3d 8725 12bc
000003f0: fe99 463e b488 813d a764 a0bd a545 23be
-0.26024166 0.069997706 0.10466907 -0.031460986 -0.2967319 0.14572066 -0.090293005 -0.11908692
-0.14400572 0.099280596 -0.09659227 -0.18327962 -0.17410077 -0.12758775 0.032631245 -0.18391113
0.07998012 0.16245997 -0.279539 -0.2785078 -0.11023485 -0.10277229 -0.1037657 -0.027249482
-0.17853317 0.23030153 0.12104995 -0.1325952 0.2504858 -0.094377846 -0.010645575 0.21759991
0.19464944 0.043056447 0.12241286 0.06129905 0.24606834 -0.00048080686 0.20394063 -0.27397212
0.08386163 0.052393667 -0.1923489 0.21850565 -0.15118001 -0.19972083 0.25045478 -0.06391669
0.21575475 0.12438549 0.11178259 0.09365149 0.046844974 -0.003488489 0.23243165 -0.08016465
-0.06740301 -0.19099054 0.07175012 0.2964543 -0.061371494 -0.1974265 -0.011905909 0.19427384
-0.26550534 0.06388364 -0.051151518 0.2857899 0.0791727 -0.11968279 -0.025361123 0.08658353
-0.28424066 0.1707042 -0.03148776 -0.10759189 0.13001914 -0.20473981 -0.030894037 0.1830891
-0.10761372 -0.07916482 -0.26260412 0.2566925 0.24245317 0.27692005 0.24494013 0.16891833
0.17747313 0.17961597 -0.121238925 -0.14890493 -0.023633115 -0.19066684 -0.098649845 0.15618779
0.25902724 -0.016383741 0.19113338 0.006589219 0.0051729013 -0.036945887 -0.24018988 0.28016722
0.17668135 0.156956 0.28763413 -0.17244238 0.08858049 0.06726754 -0.20640388 0.28795928
0.15784785 -0.026329588 -0.22388056 0.08891441 0.25846708 0.23519735 0.18301728 0.04362338
-0.21519612 0.08397694 -0.18214995 0.07810531 -0.21773891 0.03373776 -0.14932173 0.12665208
-0.035023764 0.020731611 0.060949046 0.076855764 0.013911903 0.06115052 -0.26102123 -0.10967294
0.013663077 -0.120894775 0.14670338 -0.0013824154 -0.22377828 0.08515632 -0.1362466 0.12247138
-0.14126967 -0.08728854 0.038821958 0.20797534 0.004055898 0.27025902 -0.037692606 -0.16277064
0.292629 0.11180437 0.1875886 0.24281979 0.14171176 0.08584895 0.17745475 0.04627073
-0.22690997 -0.22300227 0.1748979 -0.014037159 -0.17313157 -0.071056314 -0.14552258 0.27779818
0.13452071 0.10230849 -0.12894739 0.2877604 0.056628644 0.22811843 -0.04615362 -0.28461096
0.12062489 -0.13168715 -0.14855778 0.032287553 0.17028956 -0.12377945 0.07280431 -0.17527583
-0.20375185 0.22533894 0.051914163 0.12611096 -0.01278652 -0.1322918 0.100721985 0.29970348
-0.010899123 0.08294628 -0.21861245 0.16941775 0.17462169 0.015756533 -0.12612818 -0.20832482
-0.24791126 0.12941605 -0.13399869 -0.30049753 0.035565123 0.26222572 -0.21376473 0.04821621
-0.22600774 -0.19438343 -0.056925714 0.11425746 0.09533268 -0.3020061 -0.2835148 -0.05453737
0.25914675 0.0378335 -0.028039217 0.2809934 0.20967388 0.03622566 -0.263111 -0.23390836
0.183064 0.30147788 -0.13283886 -0.04752384 0.30584842 -0.04691186 -0.2554444 -0.14118484
-0.22320068 0.12528257 0.018682176 -0.031068234 0.16089045 0.14589076 0.17582104 -0.14601104
0.047243703 0.25985447 0.021533908 0.1929802 0.20075649 0.008761976 0.0015836213 -0.20104611
-0.09260421 -0.018360244 0.12236373 -0.00892008 0.19394681 0.06324902 -0.07831698 -0.15944536

gat_layers.0.bias f4 [64]
00000000: 2bc8 35bb 7b25 91bc 8d85 a8bc f827 48bc
00000010: 2370 18bb fe1c 6b3c 53c1 c83b 0000 0000
00000020: 6a2c 1dbc b614 cdbb 1147 38bc 7e50 76bb
00000030: 0000 0000 86ac 20bc 204b 2d3b 9a61 bfbc
00000040: d5a0 58bb f7f4 81bc e25e 3739 b589 ac3a
00000050: 30f0 5ebc 84b8 c8bb ee60 8e3c dc9f 99bc
00000060: f1fd cdbb 44cf 0e3b cc66 623b 8211 243a
00000070: 3bc0 053b de05 693a 90f3 95bb 1432 2cbc
00000080: 189d 08bc 0000 0000 ba3b 5339 f690 a7bb
00000090: b991 44bc a173 9e3a 00c1 fab9 0000 0000
000000a0: 0000 0000 0000 0000 6446 8d3c 7905 20bb
000000b0: 0000 0000 0000 0000 9674 b63c 1421 05bc
000000c0: d48e 02bb 831c 12bc 7382 39bc fd5e 1e3d
000000d0: 8c98 53bb 0000 0000 9640 a83a 3f98 163c
000000e0: ab4e 09bc 0000 0000 900a 1bbc 7757 47bc
000000f0: 0000 0000 64fa 28bc 6fc4 2dbc eb11 0cbc
-0.0027737718 -0.017718067 -0.020571494 -0.012216561 -0.0023260198 0.014350174 0.0061265617 0.0
-0.009593109 -0.0062585725 -0.011247412 -0.0037584598 0.0 -0.009806758 0.0026442483 -0.02336197
-0.0033054848 -0.015863879 0.00017487587 0.0013163598 -0.01360707 -0.0061255116 0.017380204 -0.018752985
-0.0062863757 0.002179102 0.0034546135 0.00062587124 0.0020408768 0.0008889119 -0.004576154 -0.010509986
-0.008338235 0.0 0.00020144778 -0.0051137162 -0.011997634 0.0012088903 -0.00047827512 0.0
0.0 0.0 0.017245479 -0.0024417324 0.0 0.0 0.02227239 -0.008125562
-0.0019921558 -0.008917931 -0.011322605 0.038664807 -0.003228697 0.0 0.0012836631 0.009191572
-0.008380572 0.0 -0.0094629675 -0.012166849 0.0 -0.010313604 -0.010605915 -0.008549194

gat_layers.0.lin.weight f4 [256, 36]
00000000: 147b d0bc 1425 9cbc 99cf ed3d fb19 013e
00000010: 53b2 97bc 103b 33be 427f 78bd 34d0 cc3d
00000020: 0dd9 ffbd 2acd cc3d 0084 3cbd 96b5 c4bd
00000030: 9c36 9abd 1464 a6bd 8411 873d 0d9f 02be
00000040: 1eec 5abd 42c2 dd3d 78d1 c13d 8699 57bd
00000050: 7e1d 62bd 7ea4 bb3c 663a 5cbd b2e1 bd3d
00000060: f61f c3bd 8aaf efbd 7da8 d7bd 1d03 3ebd
00000070: b9b1 14be 646d 0cbe 65b8 05bd 22f9 3dbd
00000080: 2a1a ed3d 2ce9 da3d 9f68 dc3c 802a 00bc
00000090: 2992 a7bd ac21 1ebe 8bcb 65bd 8dc2 03be
000000a0: 7ea2 d6bb dd50 7e3d f66b 14be 1d65 91bd
000000b0: 3c6f 533d 00b4 06b9 08c8 87bc 9795 0f3e
000000c0: e4cb 55bd 7753 f5bd 3aed d0bd 90b1 97bd
000000d0: 9a8e ab3d dadf 8f3d 9446 4a3d 4041 053d
000000e0: 9783 0e3e fb96 fbbd 907a d6bd ea8e 12bc
000000f0: 0fdc dc3d 47b3 0bbe e38a 45bd 459a 983d
00000100: debb d53d fc24 0cbe 17ce d0bd e6a9 e23d
00000110: 7825 8c3c 3f28 273d 3963 1abe 9db3 e8bc
00000120: a45a 903c b33c 2a3c a919 0e3e 78fe 073e
00000130: 684f f0bd fd16 e6bd 13af 05be 4036 853b
00000140: 0ba0 1f3e 0ab6 bfbd c89b 973d e4ae b9bc
00000150: dc4d d53d 008c 3f3c 24a4 66bd 8cc9 abbd
00000160: 1300 d8bd 61dc ffbd 9c1a 963d d7bc f6bd
00000170: 567f 06be eebc 223e 94c9 23bd 47b6 103d
00000180: 81ac 253d 142f 2dbd 7505 a0bd 6e56 cfbd
00000190: 6633 993d 3001 e8bd 70b5 c03c 82c0 b53d
000001a0: c04f 61bb 9863 ba3c a55e 503d b395 abbd
000001b0: 7622 d6bd d79d 323c 0902 983d 4c0f a6bd
000001c0: b260 ab3d 6331 9fbd 5dd1 a23d 100d ae3c
000001d0: 2944 11bc 3640 a2bd a08f a13b 6e26 df3d
000001e0: a4ea 393d 85e0 033e 1082 aebd 0ec1 84bd
000001f0: e8e2 7a3d 0060 b0ba 9829 a9bd 62cb c2bd
00000200: 1e09 d03d b257 cc3d d9fb 033e 22e3 853d
00000210: ddc6 913d 024f e03d 522e 093d 9ea9 06be
00000220: 0d0e 083e 6645 58bd 14e7 413c 0b98 0e3e
00000230: cada ed3d b7f5 dc3d 26ea 523d 55af 9d3d
00000240: fd48 cebd dacd c63d ff91 9b3c 3ca1 453d
00000250: aa14 d6bc cba8 69bc 4e43 a5bc 42fe c53d
00000260: aecb fa3b 37b3 adbd 5592 0b3e e60d c83d
00000270: e07b 923c 408c c0bb 304e 523d 2c36 593d
00000280: f74d 123e f81f 603d c09e 68bc 7596 86bd
00000290: f705 a6bd 9cce cebd 0689 1bbd 428c 31be
000002a0: 7171 953d 90a7 273c 8360 c0bc 53ff 09bd
000002b0: 6afa 4a3c 2f91 c43d a5ea b2bc 0f7c a1bd
000002c0: e613 5ebd e9cf 52bd 3360 0bbe 70b6 003e
000002d0: 45c3 8bbc 453c 883d 1406 0e3e 2bae 11be
000002e0: 2aa0 0ebd 4130 f4bd 6bfe 07be 73c9 f1bd
000002f0: 2d35 d4bd 66f6 ec3d 43ff 113e 6094 04be
00000300: 846b cebc 8014 f73a 5805 5bbd 8094 59bd
00000310: 7224 6abd f744 043e 14b7 a83d 7c9e eebd
00000320: e694 29bd 90ce 173e 5c14 7c3d 2775 8b3d
00000330: e4e2 59bc d8e9 063d a115 16bc 8fe0 81bd
00000340: 2de3 a13d be53 56bd 3f64 60bd 8f71 ecbd
00000350: baf3 fa3d 8036 6cbd b312 c6bc ffb3 a7bd
00000360: 677a 34bd 055e 273e a785 1fbe d8a9 413d
00000370: 6e95 13bc 8f46 a93d b74a 47bd ca30 82bd
00000380: 8fd7 96bd c02c 0e3d 9ba2 d3bd 5620 a43d
00000390: ccef 1e3d dcd1 efbd c0c4 92bd b557 02be
000003a0: d6be fa3d 9e6f eabd 80ca e23a 60c5 203c
000003b0: 0cd3 b2bc 25b0 eebd 44c2 edbd 15f9 ad3d
000003c0: 37fe 703d 6e17 7abd 6196 06bc 26de 863c
000003d0: 0ff8 5cbd 5d40 1e3d e3ae 14bb 141f 0c3d
000003e0: faf8 adbd 03e3 96bd 3e04 e33d b8da 213e
000003f0: 064f 073b 33b9 bdbd 1e0a bdbd 77fe a6bd
-0.025449313 -0.019060649 0.11611862 0.12607567 -0.018517649 -0.17503 -0.060668238 0.10000649
-0.12492571 0.100000694 -0.046024323 -0.09604947 -0.07529947 -0.08124557 0.06595138 -0.12755986
-0.053447835 0.10828067 0.09463781 -0.052636646 -0.055203907 0.022905584 -0.05376663 0.092715636
-0.095275804 -0.11703403 -0.105301835 -0.046389688 -0.14520921 -0.13713604 -0.032646555 -0.04638017
0.11577256 0.10689005 0.026905356 -0.007822633 -0.08182175 -0.15442532 -0.056102317 -0.12867184
-0.0065501323 0.062088836 -0.14494309 -0.07099364 0.051619753 -0.00012846291 -0.016574875 0.14021908
-0.0521964 -0.1197881 -0.102014974 -0.07406914 0.083768085 0.07025118 0.049383715 0.03253293
0.13917385 -0.122846566 -0.10472596 -0.008945206 0.1078416 -0.13642608 -0.048228156 0.074512996
0.104362234 -0.13685983 -0.101955585 0.11067562 0.01710771 0.040809866 -0.15076913 -0.028405959
0.017621346 0.010390448 0.13876976 0.13280666 -0.117338955 -0.112348534 -0.13055067 0.004065305
0.15588395 -0.09360893 0.0740276 -0.022666402 0.10415241 0.011691093 -0.05630888 -0.083880514
-0.10546889 -0.12493206 0.07329294 -0.12047737 -0.13134512 0.15892383 -0.03998716 0.035330083
0.040447716 -0.042281225 -0.07813541 -0.10123907 0.074805066 -0.113283515 0.023524016 0.088746086
-0.003437981 0.022752568 0.05087151 -0.08378162 -0.10455792 0.01090189 0.07422263 -0.081083864
0.083680525 -0.07773092 0.07950089 0.021246463 -0.008866348 -0.079224035 0.0049304515 0.10896002
0.045389786 0.12878616 -0.08520901 -0.06482135 0.06125155 -0.0013456345 -0.082598865 -0.095114484
0.10157989 0.09977664 0.12889041 0.06537463 0.07118008 0.109525695 0.03349144 -0.13150641
0.1328661 -0.05280056 0.0118348785 0.13925187 0.11613996 0.10789054 0.051492833 0.076994576
-0.10072515 0.09707232 0.018990515 0.04824947 -0.0261329 -0.014261435 -0.020173695 0.096676365
0.007653675 -0.08481448 0.1363004 0.09768276 0.017881334 -0.005876094 0.051344097 0.053030178
0.14287554 0.054717988 -0.014198005 -0.06571666 -0.081066065 -0.10098001 -0.037972473 -0.1733866
0.07297028 0.010232821 -0.02348352 -0.03369076 0.012388805 0.09598004 -0.021840403 -0.078849904
-0.054218195 -0.05146781 -0.13610916 0.12569594 -0.017060885 0.066521205 0.13869506 -0.14226596
-0.034820713 -0.11923266 -0.13280647 -0.118060015 -0.10361705 0.11570434 0.14257531 -0.12947226
-0.025197752 0.0018850714 -0.053471893 -0.053120136 -0.057163663 0.12916933 0.082380444 -0.11651322
-0.041401766 0.14824891 0.061542854 0.068094544 -0.013298724 0.032937855 -0.00916043 -0.06341659
0.079046585 -0.052325957 -0.054783102 -0.11545097 0.122535184 -0.057669163 -0.024178838 -0.081886284
-0.044062044 0.1634446 -0.15578328 0.047281116 -0.009007795 0.08265411 -0.048655238 -0.06356962
-0.07365333 0.034710646 -0.10333749 0.0801398 0.038802907 -0.117099494 -0.07166433 -0.1272877
0.1224343 -0.114470705 0.0017302781 0.009812683 -0.02182915 -0.11654691 -0.11609319 0.08494774
0.05883619 -0.0610575 -0.008214564 0.01646335 -0.053947505 0.0386356 -0.0022687248 0.034209326
-0.08494754 -0.07367518 0.110847935 0.15806091 0.0020646467 -0.092638396 -0.09230445 -0.08154004

gat_layers.1.att_src f4 [1, 4, 128]
00000000: 0153 d63d 626d c33d 5daa 83bd 3658 bf3d
00000010: b2f0 523d cb1b b6bd a1bb 1e3e fa18 f53c
00000020: 5063 4bbd 9a6b 5b3e eb34 1d3e c3bd 47be
00000030: 4e26 39be f2da 22be 0840 993d ce8a 11be
00000040: 952d 813b 8aeb 97bc c7ee 9b3d 31a4 9ebd
00000050: df11 193e 0566 323e 1620 d3bc 532e 6cbe
00000060: 7c32 4c3e 89f7 11be 137c de3d f288 5dbd
00000070: 9a75 533e 2054 86bd 0c5b 0f3e 83f2 a73b
00000080: f515 253e fab8 92bd 7a69 2ebe 80cb 00bd
00000090: 29f9 4b3e f7b6 15bd ff66 183d ef90 e13d
000000a0: 550f f2bc d90e 9ebd 8294 16bd fd29 773d
000000b0: 5280 343e 0563 823d 84d5 9fbc 670e da3c
000000c0: b8ca 97bd 5f3c 093e e7d1 f83c f0f5 053e
000000d0: 513a 5ebe f96b e63d adb0 06bd d142 553e
000000e0: 2ccf 86bd 3eea f8bd 5abe 07be e7bc 193e
000000f0: 4272 56be 8c62 fcbd 73a2 eebd 4796 123e
00000100: 12ec 17bd c2f0 69be 041c 04be dec4 b5bd
00000110: 736b 303c 9728 d9bd 7990 39be ed66 42be
00000120: 374c 5abd b1c3 0bbe 22af 59be 2c65 233d
00000130: 7715 073e cffc c13d c442 30be e463 283e
00000140: 5154 2abe 64bc 0abe 3ad1 09be 652d 923d
00000150: cd9f a73d 69d3 443d 3a5b b7bd e8c4 15bc
00000160: 769e 143e 8685 35bd 3fb0 47bc ecee a8bd
00000170: 28a3 483e 5960 48be 91e2 dfbb 0669 cc3d
00000180: 42d3 183d af9a 213e 767b 9cbd f57a 44bd
00000190: 1546 3a3e 5d1d 123e e478 81ba f1ee 813d
000001a0: e86c f83d ac66 f53b 2be4 f0bb e476 e8ba
000001b0: ac29 333e 1b45 203e 029d a4bd 855d c93d
000001c0: 858f 0f3e dd11 1c3d 8b71 05be b235 593d
000001d0: 3dad 1abe 59c8 e83b c7c2 153e 8a85 d03d
000001e0: 9ee6 013c 9240 cbbb 00d3 0f3d b357 ccbd
000001f0: d48e 34be 2f51 203e bd9e 1abd 4633 91bd
00000200: 7d0a 38be e657 b13d 8f91 57be 00f9 123e
00000210: e08c 8bbd 007d f0bc 84e6 b03d ce96 553e
00000220: 608d 36be 3495 fcbd 5d18 d8bd 5a92 14be
00000230: a3f3 acbd d85d 0abe 3d68 20be 1158 283e
00000240: 2275 293e 9655 47be fd2c d83d 8a45 063e
00000250: 3148 d5bc e7b7 51be 2011 073b a92e 173d
00000260: 02af 1b3e aefb 763d de3c 6e3c c650 ce3d
00000270: 6d93 cfbd 230c 183d 0b9c 193e d0be 28bc
00000280: b9e8 1f3d 86f6 403e 225c 4abe 6566 333e
00000290: afba e23b d8de 2fbd b8e0 dabd f29a a5bd
000002a0: 93c0 aebd daa8 3d3e 706c 58be cf19 153c
000002b0: 3e66 04be 7624 94bd 5c77 93bd 3877 193e
000002c0: b94a 163e c610 debb 9278 0abd 96cd f93d
000002d0: c7de 2a3e 4057 3dbe 4890 bbbc f20c 853d
000002e0: d2c4 993d 59fd fdbb c113 2f3e f1a6 03be
000002f0: 94d0 92ba d568 26bc 0801 523e 4500 afbc
00000300: 1d77 ab3c 1d0e a93d c0d4 0cbd 6081 cb3c
00000310: d334 94bc e9c0 d8bc 5b9a 50bd 6156 37be
00000320: e339 0d3e a5c3 fabd 32bc 913b f884 ff3c
00000330: ee93 503d a2ec 92bb afdc 933c bccd 43be
00000340: 83fe 0fbe f1c0 b3bc 7ea1 82bb 9aa2 533e
00000350: 5824 343e 268e 363e 296a 4dbe 06fd 863c
00000360: 542d 553e 0941 44be 88d0 443e dea9 f3bd
00000370: 14ac dc3a 83f6 93bc 9b26 603e 9cc0 213d
00000380: 4094 593e b88b 2d3d 3ac8 d0bd ad91 22be
00000390: b569 37be 38c3 5c3e 5b8e f9bd 215c 3e3e
000003a0: 0aaa 24bb dc69 36bd b181 303e dee4 6abd
000003b0: c0c9 aebd f267 2bbe e2ce 3abe 8562 20bd
000003c0: 07b9 833d 5710 5e3d 3ef0 333e 3a01 1539
000003d0: 998e 5c3d aef7 7bbd 2eb1 1bbe 846a 3b3e
000003e0: dfe5 53bc 0ff6 05bd 268c c83c 6b3e a43d
000003f0: 40d8 20be 6c9b a8bd 5ec5 cc3d 38a3 053e
0.104650505 0.095423475 -0.064289786 0.09342997 0.051499076 -0.0889202 0.15501262 0.029919136
-0.04965526 0.21427765 0.15352218 -0.19505982 -0.18081018 -0.15903834 0.07482916 -0.14213106
0.0039422014 -0.018544931 0.076139025 -0.07746161 0.14948224 0.1742173 -0.025772136 -0.23064546
0.19941133 -0.14254583 0.10863509 -0.05408568 0.2065033 -0.06559014 0.13999575 0.005125345
0.16121657 -0.07164188 -0.17032424 -0.031444073 0.19919266 -0.036551442 0.0372076 0.11013972
-0.029548327 -0.07717676 -0.03676272 0.060342778 0.17627075 0.06366543 -0.019510992 0.026618196
-0.074117124 0.13401936 0.030373527 0.13082099 -0.21701933 0.11251063 -0.032883335 0.2082627
-0.06582484 -0.12154053 -0.13256207 0.15013467 -0.20942023 -0.12323484 -0.116520785 0.14315139
-0.03709037 -0.22845748 -0.12901312 -0.0887544 0.010767805 -0.10603445 -0.18121518 -0.18984576
-0.05329534 -0.13648869 -0.21258214 0.039891407 0.13191782 0.094720475 -0.17212969 0.16444355
-0.16633727 -0.13548428 -0.1345872 0.071375646 0.081847765 0.04805318 -0.08952947 -0.009141184
0.14513573 -0.04431679 -0.012188016 -0.08248696 0.19593489 -0.19568004 -0.0068324287 0.09980969
0.037310846 0.15781663 -0.07640736 -0.047968823 0.18190797 0.14269014 -0.0009877947 0.063444026
0.12130147 0.007489046 -0.0073514185 -0.0017735627 0.17496365 0.15651362 -0.08037759 0.098322906
0.14019592 0.038102973 -0.13031594 0.053029723 -0.15105148 0.0071039614 0.14625083 0.101817206
0.007928519 -0.0062027657 0.035113335 -0.09977665 -0.1763261 0.15655969 -0.03774904 -0.07089858
-0.17972751 0.086593434 -0.2105162 0.14352798 -0.06813979 -0.02935648 0.08637717 0.20858309
-0.17827368 -0.12333146 -0.10551522 -0.14508954 -0.084449075 -0.13512361 -0.15664764 0.16439845
0.16548589 -0.19466242 0.10555456 0.13112465 -0.0260354 -0.2048031 0.0020609573 0.036909733
0.15203479 0.060298614 0.014540879 0.10074 -0.10135541 0.03712095 0.15000932 -0.0102993995
0.0390403 0.18844041 -0.19761708 0.17519529 0.006919227 -0.04293713 -0.10687393 -0.08086194
-0.08532824 0.18521443 -0.21135116 0.0091003915 -0.12929627 -0.07233517 -0.072005 0.14986885
0.14676942 -0.006776902 -0.03380639 0.121974155 0.16686545 -0.18490314 -0.022895947 0.0649661
0.075082436 -0.0077511487 0.1709738 -0.12856652 -0.0011201077 -0.01015683 0.20508206 -0.021362433
0.020930821 0.08254645 -0.03438258 0.024841964 -0.018091595 -0.026459174 -0.050928455 -0.17904045
0.13791613 -0.122443475 0.0044474835 0.031191334 0.050922327 -0.0044837752 0.018049566 -0.1912145
-0.14061932 -0.021942588 -0.0039865365 0.20667496 0.17591989 0.17827663 -0.20060028 0.016478073
0.20818073 -0.19165434 0.19220173 -0.11897634 0.0016835951 -0.018061882 0.21889727 0.039490327
0.21247959 0.042369574 -0.1019444 -0.15875883 -0.17911418 0.21558845 -0.12185355 0.18589832
-0.0025125765 -0.04453455 0.17236973 -0.05734717 -0.085345745 -0.1673887 -0.18242982 -0.039156456
0.064317755 0.0542148 0.17572114 0.00014210204 0.05384693 -0.061515503 -0.15204307 0.18302351
-0.0129332235 -0.032705363 0.02448089 0.08019718 -0.15707493 -0.08232769 0.09998582 0.13050544

gat_layers.1.att_dst f4 [1, 4, 128]
00000000: d624 2dbe bb3a 2e3e c1c2 5abe d9be aebc
00000010: 0ea9 003e 2ab3 493e 9a21 0b3e 3136 86bc
00000020: 23d1 2e3e 8df3 52be 3113 37be 864a c0bc
00000030: 8978 48be c22c 43bd 88cb f33c 73bb 01be
00000040: eaad e8bc 751c 203b d8e7 ebbc 5350 55be
00000050: d2df 40be 7776 18bd 47f9 94bd 270e 09bd
00000060: 1b24 463e 0196 32be 2b7c d53c ec0b 12be
00000070: a379 093e 6a8b 05be 8b40 083d 1a44 873d
00000080: 5b69 1a3e 4203 a53c 93d3 003e 2ace 38bd
00000090: c84b edbd 84a5 bc3d 9c9a 583e afb5 59be
000000a0: 3ad2 23be 64a7 e63d e6b4 0f3d f395 a13d
000000b0: 5512 213e a1aa e23d 6877 513e 23f5 3c3e
000000c0: e736 353e 3635 38be 357d 633d 31e0 443e
000000d0: fa4b 49bd 47cd 9f3d 9f27 5e3e 9651 cc3d
000000e0: 343b c03d 468b 36bd 1683 f43d b0a9 98bd
000000f0: 9dec eabd 1930 80bd 5403 5b3e 277f c2bd
00000100: c7c2 cdbd b514 293e dec4 3e3e 61a1 e6bc
00000110: 5a8f 333e abb3 6fbe c2f3 153c fbd2 1ebe
00000120: 2c5c 503e cb2b 05be 4368 13be 026b fcbd
00000130: 2ed3 173c e216 c8bd 5b8c 0bbe 6887 543e
00000140: 725b 3cbe c74d 493e 5cde 4e3d 6c2b 14be
00000150: 86b5 aebd 261e 623e 36d0 bc3d 7364 1abe
00000160: 5f1a b53c d7c5 eabd 2610 23bd 6efe f43d
00000170: bcdd e1bc 79e4 00be 5dc4 203e 2e2a 2dbe
00000180: 2f05 efbd 0701 39be 837e 42be 7001 81bd
00000190: a0d1 d2bd 919c ee3d 1b6c 60be 1d16 4f3d
000001a0: 5bbf 33be a2c9 cabc 4a8d e7bd dfdc 143e
000001b0: 2d33 12be 2d6b 8cbd d0ec 293e 04b6 0abe
000001c0: 25e1 163e 1e01 cdbd 8bd2 cabd ba88 eabd
000001d0: 3d4c a1bc 7211 d9bd c336 13be 46cc 293e
000001e0: b3d0 cbbd 0d80 ddbb 345c 89bd 1279 113c
000001f0: 4d1d 2bbd ae5b 453d adaa 95bd 4b04 aa3d
00000200: 4358 b53d e1b6 20bd 5f81 7bbd a675 de3c
00000210: 7ba8 47be f3f7 8bbd f8ab 5dbe 6587 8b3d
00000220: b58a 12be 1e2d a9bd 876f 1f3e f199 e33d
00000230: 0db0 033e 7cdc e33d 623b fcbd afc0 723d
00000240: 0e2a 1dbe f7f4 23be 60ec f73c 94de 06be
00000250: bcb0 4abd 9cd5 1fbd bc27 173c 0018 063e
00000260: 9142 de3d 454d fcbd ebc3 103e 0685 d53d
00000270: 4025 063e a3dc 17be 3744 6bbd fc68 53be
00000280: fd73 44bd ae09 8ebd ecc3 4d3e 3b6a 523e
00000290: cb96 433e 0af1 b8bd 3963 1bbb 5f77 61be
000002a0: 2ac2 13bd b8f9 f23b 4654 3b3e 1ba8 3b3e
000002b0: f0fb 88bd 85b5 4b3e b65e 9a3d 9303 a2bd
000002c0: 7de2 39be ef69 f23d 075e 36be fc6f a83d
000002d0: 0721 dabd 597d c9bb bbba 0abe bbab 873d
000002e0: a551 44be 229a 74bd 6e71 f33b 6584 cabd
000002f0: a386 4bbe cd81 3bbe d491 51be 1a86 6a3e
00000300: 2b14 3fbe 4083 9ebc 14b5 e83d 7eab 23be
00000310: c226 583e 6e1d 043e e18d 363d 3072 b13c
00000320: ad36 3f3e 820b 4abd 01f3 513e 0832 01be
00000330: 1cde 513c b4d2 b5bd d89d 1dbe 42b3 36be
00000340: 7386 883d 0d2c 313e 52ee 86bc aca6 bebd
00000350: 4ae9 173d 21ea a33d 1d22 00bd ccee 4abe
00000360: 460a a93a 37ee a33d 8851 0e3e c998 1b3c
00000370: 97d7 f6bd 1153 22be a4e9 1ebe 4a8f bdbd
00000380: f432 4e3e f02d e4bc 03f0 4dbd db9b a53d
00000390: 4098 f43d 658f 91bd c5e2 27be 588c 453b
000003a0: 5d1f d53d 843e 133e e428 3cbe 7198 8b3d
000003b0: cd05 813d f3f1 333d b64a c3bd ceb3 293e
000003c0: ea9f 3bbe f781 49be b8e3 be3c 79c4 1e3e
000003d0: b086 3b3d 8879 a0bd 885f 333e ec4b f93d
000003e0: 2d98 b13c 1191 0ebc d52f 1dbe c079 963c
000003f0: f3c1 edbd 01ff 1fbd 07cd 1abe dd71 bd3d
-0.16908583 0.17014591 -0.21363355 -0.021331238 0.12564489 0.19697252 0.13587037 -0.016383262
0.17071967 -0.2060072 -0.17878415 -0.023473036 -0.1957723 -0.047650106 0.029760137 -0.12669162
-0.028403241 0.0024431024 -0.028797075 -0.20831423 -0.1883538 -0.037222352 -0.072741084 -0.033460762
0.1934971 -0.17440034 0.026060184 -0.1426236 0.13425307 -0.13041463 0.033264678 0.06604786
0.15079252 0.020143155 0.12580709 -0.04511849 -0.1158672 0.09211257 0.21152729 -0.21260713
-0.15998164 0.11262396 0.035084628 0.07889929 0.1572965 0.11067701 0.20455706 0.18452887
0.17696725 -0.17989048 0.05553933 0.19226147 -0.049144723 0.078028254 0.21694802 0.09976499
0.09386292 -0.044566415 0.11939065 -0.0745424 -0.11470912 -0.06259174 0.21387988 -0.09496909
-0.100469165 0.16511805 0.18629786 -0.028153123 0.17535153 -0.23408382 0.009152355 -0.1551017
0.20347661 -0.13004987 -0.14395241 -0.123250976 0.009266658 -0.097699896 -0.1362776 0.20754778
-0.18394259 0.19658576 0.050505027 -0.14469689 -0.085307166 0.22081813 0.092194006 -0.15077381
0.022107301 -0.11463516 -0.039810322 0.11962591 -0.027571552 -0.12587155 0.15699907 -0.16910622
-0.116709106 -0.18066798 -0.18993573 -0.06299102 -0.10293889 0.116509564 -0.21916239 0.0505582
-0.17553465 -0.02475435 -0.113062456 0.1453738 -0.14277335 -0.0685638 0.16594243 -0.13545996
0.14734323 -0.10009979 -0.09903439 -0.1145186 -0.019689674 -0.105990306 -0.14376359 0.1658183
-0.099519156 -0.0067596496 -0.067070395 0.008878963 -0.04177599 0.048183136 -0.073079444 0.083016
0.08854725 -0.039236907 -0.061402675 0.027155709 -0.19497864 -0.06834402 -0.21647632 0.06812934
-0.14310725 -0.082605585 0.15569888 0.11113346 0.12860127 0.111260384 -0.12316014 0.05926579
-0.15348074 -0.16011415 0.03026408 -0.13170844 -0.049484953 -0.039022073 0.009225782 0.13095093
0.1085254 -0.123194255 0.14137237 0.10425763 0.13100147 -0.1483026 -0.0574381 -0.20645517
-0.047962178 -0.0693544 0.2009427 0.20548336 0.19100492 -0.090303496 -0.0023710264 -0.22018193
-0.03607384 0.0074150227 0.18293867 0.18325846 -0.06688678 0.19893463 0.07537596 -0.07910838
-0.18152805 0.118366115 -0.17809306 0.08224484 -0.10650831 -0.006148976 -0.13547795 0.06624552
-0.1917177 -0.059717305 0.0074292934 -0.098885335 -0.19875579 -0.18311234 -0.20465785 0.22902718
-0.18660037 -0.019349694 0.11362663 -0.15983388 0.21108535 0.12901852 0.0445689 0.021660894
0.18673201 -0.04932738 0.20502855 -0.12616742 0.012809303 -0.08878079 -0.15392244 -0.17841819
0.06666269 0.1730196 -0.016471062 -0.09309134 0.037087716 0.08003641 -0.031282533 -0.19817656
0.0012896738 0.0800442 0.13898289 0.009496876 -0.12052839 -0.15852 -0.15518814 -0.09255846
0.20136625 -0.027853936 -0.05027772 0.08086368 0.11943102 -0.071074285 -0.163951 0.0030143466
0.10406373 0.14379317 -0.18374974 0.06816185 0.062999345 0.043931913 -0.09535734 0.16572496
-0.18322721 -0.19678484 0.023301944 0.15504636 0.045782745 -0.0783568 0.17516911 0.12172684
0.021679008 -0.008701579 -0.15350278 0.018368602 -0.116092585 -0.03906155 -0.15117274 0.09250233
