finalhybrid/experiments/experiment_20251104_232429/checkpoint_epoch_30.pth (torch, 662928 bytes, 50 tensors)

gcn_layers.0.bias f4 [64]
-0.006211227 -0.012689971 0.0 -0.0071422094 0.0 0.015125812 0.0 -0.0044975965
-0.01789221 0.00085467595 0.0 0.0 0.009283475 -0.008814116 0.0 -0.019358221
0.0 0.0061276085 0.004341461 0.0073309294 -0.012622429 0.0093105715 0.017091833 -0.015010897
0.002869088 -0.021128785 0.0 -0.008264128 0.0 0.003859711 -0.000110063804 -0.0046049794
0.0 0.0 0.016655892 0.0072393455 -0.013351891 -0.004134203 -0.01496853 0.0
0.0 -0.004933862 -0.0008786778 0.0 -0.012700418 0.021222007 0.0 0.006994908
0.00803369 -0.0032302598 -0.003968315 0.0 0.0 -0.009441503 0.0 0.0
0.014116285 0.0 0.0 0.0 0.002123534 0.0 -0.007519886 0.005668256
00000000: 8c87 cbbb 99e9 4fbc 0000 0000 3209 eabb
00000010: 0000 0000 41d2 773c 0000 0000 9360 93bb
00000020: af92 92bc 550c 603a 0000 0000 0000 0000
00000030: b719 183c 1569 10bc 0000 0000 2295 9ebc
00000040: 0000 0000 1bca c83b d142 8e3b 4b38 f03b
00000050: 4ece 4ebc 5e8b 183c 2c04 8c3c 44f0 75bc
00000060: 4f07 3c3b 4616 adbc 0000 0000 4466 07bc
00000070: 0000 0000 35f3 7c3b 0ed2 e6b8 5ee5 96bb
00000080: 0000 0000 0000 0000 f071 883c 0838 ed3b
00000090: e4c1 5abc 3578 87bb 913e 75bc 0000 0000
000000a0: 0000 0000 3cac a1bb 1257 66ba 0000 0000
000000b0: 6a15 50bc c6d9 ad3c 0000 0000 8b35 e53b
000000c0: bd9f 033c c4b2 53bb a408 82bb 0000 0000
000000d0: 0000 0000 89b0 1abc 0000 0000 0000 0000
000000e0: fe47 673c 0000 0000 0000 0000 0000 0000
000000f0: fd2a 0b3b 0000 0000 6069 f6bb c7bc b93b

gcn_layers.0.lin.weight f4 [64, 36]
-0.1689689 0.013356973 -0.019644553 -0.24023199 0.05413648 -0.17750992 -0.0712769 -0.19820455
-0.007947061 -0.20862506 -0.17084518 -0.24380459 0.11006369 0.17982598 -0.24048309 0.15591218
-0.2199101 0.19263573 -0.004922509 0.05232285 0.11052556 -0.20048805 0.22449632 0.15387459
0.14664976 0.12515946 -0.105334505 0.21082316 -0.005296558 -0.24316575 0.20422949 0.21326257
-0.20664418 -0.20111997 0.05761588 -0.10145315 -0.035578724 -0.2820359 -0.06977114 -0.1432487
-0.18668976 0.05343446 0.013639408 -0.13995436 -0.24845007 -0.0666229 0.08514984 -0.1308999
-0.19064797 0.16409464 -0.11964461 0.17313571 -0.0070812553 -0.21485192 0.14872645 0.17183356
-0.22638357 -0.07705191 -0.004826203 -0.08507157 0.20105372 -0.059975237 -0.008821647 -0.28025937
0.22937855 0.19878748 0.025935534 0.036340192 0.009989664 0.23122336 0.16545624 0.15949754
0.17412703 -0.056158304 0.027654335 -0.17259218 -0.21275696 -0.11393154 -0.109897405 0.064737126
0.07389684 0.13444363 -7.209182e-05 -0.0205089 0.12744571 0.050571725 0.023963973 0.04213576
-0.17946315 0.057405695 -0.23791882 0.10887082 -0.002819866 -0.20537503 -0.1177416 -0.14402899
0.09354858 -0.13190232 -0.16454142 -0.030894741 0.21225463 -0.23949835 -0.1907304 0.12903933
-0.15348685 -0.08011952 -0.11911158 0.12767519 -0.033805892 -0.14056039 0.23200771 -0.07220728
0.16850485 -0.007453506 -0.04288526 -0.03940685 -0.15898673 -0.12480597 -0.19486037 0.19809483
0.16481109 -0.026788428 0.22750105 -0.08601783 -0.078974575 0.05189766 -0.23552708 -0.17144933
0.21989594 -0.21448353 -0.14102733 -0.23420532 -0.06908814 -0.088086784 0.04453643 0.13494791
0.1765538 0.13157012 0.07949227 -0.13293703 0.057865277 -0.17205586 -0.23135161 0.21230465
0.15859483 -0.12562846 0.17673735 0.03155406 -0.22632267 -0.017537162 -0.02637899 0.14703582
0.0018625408 -0.052810326 -0.11820008 -0.03150794 -0.06861922 -0.18048513 -0.032615274 -0.19029094
0.040929362 0.18242611 -0.18419406 0.18114321 0.21740027 -0.19392847 0.017605528 -0.054143637
0.12448837 0.15235512 -0.1894823 -0.091179416 -0.17395172 -0.19549131 -0.06087151 -0.24363978
-0.19798335 0.035037175 -0.24038568 0.15882476 -0.01259046 -0.12352455 0.20518093 -0.12452038
0.20755036 0.11136769 0.1721743 -0.001916498 -0.04608296 0.16335051 -0.14088523 -0.15251067
-0.0827695 -0.22424927 0.008683607 -0.10675754 -0.18776542 -0.11092876 0.112694725 -0.15189686
-0.08172844 0.108046316 0.11283629 0.16561235 0.18476479 0.15811561 0.09262897 0.040876344
0.2150417 -0.06277334 0.1965447 0.1427653 -0.048899963 0.24946551 0.065971926 -0.089669734
-0.13486083 0.08859305 -0.11009626 0.16396232 -0.058335036 0.08034651 0.2295148 -0.04182665
-0.22495241 -0.1712379 0.017856851 -0.23099244 0.19266744 -0.15092602 0.13387619 0.22138317
0.16992502 0.1870396 -0.20773076 0.029539034 0.13043003 0.10326724 -0.12725934 0.07327546
-0.14315274 0.15097778 -0.08946842 0.167195 -0.109839216 -0.21994063 -0.15288444 0.08373718
-0.17228849 -0.18164197 -0.1484214 -0.0074140728 -0.19298235 -0.22450176 0.045435295 0.082529925
00000000: 2f06 2dbe 35d7 5a3c 9ded a0bc 60ff 75be
00000010: 37be 5d3d 29c5 35be a0f9 91bd 22f6 4abe
00000020: 6434 02bc cfa1 55be 0af2 2ebe e9a7 79be
00000030: 1269 e13d 4d24 383e 3341 76be 71a7 1f3e
00000040: 1d30 61be 4d42 453e 004d a1bb 7c50 563d
00000050: 3a5b e23d bd4c 4dbe 5de2 653e 4d91 1d3e
00000060: 5b2b 163e cd29 003e 9eb9 d7bd 07e2 573e
00000070: c08e adbb 7100 79be 8921 513e 8161 5a3e
00000080: 889a 53be 65f2 4dbe a1fe 6b3d abc6 cfbd
00000090: ffba 11bd 0267 90be 2ce4 8ebd caaf 12be
000000a0: 9a2b 3fbe 18de 5a3d d377 5f3c 3250 0fbe
000000b0: b269 7ebe 9671 88bd 0a63 ae3d a00a 06be
000000c0: 3939 43be 6d08 283e 3c08 f5bd 7d4a 313e
000000d0: e009 e8bb 2402 5cbe bf4b 183e 23f5 2f3e
000000e0: 18d1 67be 64cd 9dbd 2025 9ebb 013a aebd
000000f0: 07e1 4d3e 98a8 75bd ab88 10bc 287e 8fbe
00000100: 36e2 6a3e f28e 4b3e c276 d43c 74d9 143d
00000110: b0ab 233c d1c5 6c3e 5c6d 293e 5353 233e
00000120: 5b4e 323e 4006 66bd 588b e23c 01bc 30be
00000130: f6dc 59be f054 e9bd e411 e1bd e694 843d
00000140: 3a57 973d 97ab 093e 0030 97b8 4802 a8bc
00000150: 2181 023e 4c24 4f3d 1850 c43c 8c96 2c3d
00000160: 30c5 37be 3c22 6b3d fea0 73be aaf7 de3d
00000170: 80cd 38bb d54d 52be 8222 f1bd 567c 13be
00000180: 6696 bf3d 6711 07be 8c7d 28be f816 fdbc
00000190: 4759 593e 0e3f 75be d44e 43be e322 043e
000001a0: a82b 1dbe b415 a4bd c6f0 f3bd 49bd 023e
000001b0: 0c78 0abd 10ef 0fbe 6e93 6d3e 69e1 93bd
000001c0: 898c 2c3e 8a3c f4bb 74a8 2fbd 1469 21bd
000001d0: 6bcd 22be 469a ffbd 7a89 47be 5fd9 4a3e
000001e0: 3dc4 283e 6873 dbbc 09f6 683e 1e2a b0bd
000001f0: 6cbd a1bd a492 543d 032e 71be 6a90 2fbe
00000200: 672c 613e 92a1 5bbe 7869 10be 85d3 6fbe
00000210: 157e 8dbd d866 b4bd d56b 363d c92f 0a3e
00000220: 85ca 343e 51ba 063e d8cc a23d a520 08be
00000230: 2404 6d3d 692f 30be 70e7 6cbe 6466 593e
00000240: af66 223e bfa4 00be a3fa 343e d43e 013d
00000250: 21c1 67be 18aa 8fbc c018 d8bc 8f90 163e
00000260: 8020 f43a a44f 58bd e212 f2bd 780e 01bd
00000270: 3c88 8cbd 18d1 38be 9897 05bd a1db 42be
00000280: 8ca5 273d e9cd 3a3e 5e9d 3cbe 9b7d 393e
00000290: 2d9e 5e3e 2f95 46be 7839 903c b8c5 5dbd
000002a0: c2f3 fe3d fb02 1c3e a607 42be 46bc babd
000002b0: 6620 32be e02e 48be 6854 79bd b57c 79be
000002c0: 26bc 4abe 2483 0f3d aa27 76be f5a2 223e
000002d0: 3748 4ebc 70fa fcbd f31a 523e 8a04 ffbd
000002e0: 1588 543e be14 e43d 764e 303e 0033 fbba
000002f0: 7cc1 3cbd 5b45 273e 3844 10be c22b 1cbe
00000300: 0e83 a9bd 9aa1 65be b045 0e3c b2a3 dabd
00000310: 9445 40be 9e2e e3bd 7ecc e63d da8a 1bbe
00000320: 3e61 a7bd 6347 dd3d b616 e73d 4996 293e
00000330: fb32 3d3e 0fe9 213e 42b4 bd3d f46d 273d
00000340: e433 5c3e 4f8f 80bd 0443 493e 1131 123e
00000350: 544b 48bd e373 7f3e 4a1c 873d c4a4 b7bd
00000360: f518 0abe 4670 b53d 267a e1bd bde5 273e
00000370: b8f0 6ebd b68c a43d ed05 6b3e 6c52 2bbd
00000380: ed59 66be fd58 2fbe 8848 923c 4889 6cbe
00000390: 9d4a 453e 5a8c 1abe d716 093e 45b2 623e
000003a0: d300 2e3e 4f87 3f3e 5fb7 54be d8fb f13c
000003b0: 738f 053e c67d d33d 4650 02be 7211 963d
000003c0: a296 12be eb99 1a3e 383b b7bd 2b35 2b3e
000003d0: 62f3 e0bd 1e38 61be bd8d 1cbe 667e ab3d
000003e0: 656c 30be 5a00 3abe c8fb 17be c0f1 f2bb
000003f0: 2a9d 45be cae3 65be 5c1a 3a3d 7305 a93d

gcn_layers.1.bias f4 [128]
0.010973985 0.011544852 -0.011489529 -0.010457822 -0.0073904344 -0.0048489547 -0.00922891 0.0
-0.012477027 0.014612825 0.010985002 0.0070360247 -0.009643114 0.0015065828 0.010870916 0.008978714
-0.020728868 0.008065494 -0.0051349304 -0.009095354 0.006196235 0.00341385 -0.005855403 -0.0009812375
-0.0041488213 -0.008673915 0.002327609 0.005436982 -0.0077630156 -0.0068214163 -0.0031333459 -0.015273254
-0.004584356 -0.0023011714 0.0025558057 -0.0028567854 -0.009431545 -0.021957144 0.015294976 0.011970835
0.004230955 -0.01030652 -0.01174076 0.004551939 -0.003864745 5.908725e-05 -0.0037293965 -0.006715597
0.0 -0.009077395 0.0054085506 -0.003382734 -0.008361295 -0.01160654 0.0 -0.0050020786
0.0 -0.005084002 -0.012650519 -0.004552184 -0.00015289128 -0.006759971 0.011510901 -0.010276472
0.019008122 0.0021480059 0.0151256975 0.030395538 0.0045504523 0.0012869644 -0.010959033 0.007894381
-0.0024836361 -0.011136614 -0.0043931403 0.015553499 -0.014622258 -0.00827287 -0.004041525 -0.008814629
-0.004160462 -0.00402997 0.008453645 -0.008802968 -0.008223674 0.012574702 0.0020124416 0.019162701
-0.0030692727 -0.01942174 -0.0041482053 -0.005004262 0.0030595849 -0.0017662796 -0.0055883015 -0.0040094447
0.00580166 0.002043042 0.0068146377 0.014520541 0.017475676 0.010179479 0.032312267 -0.0027082965
-0.020536758 0.0016244279 -0.009399916 -0.014225044 -0.0119889425 -0.011297377 0.0025762604 0.0024887493
-0.0055227815 -0.015604637 -0.0144198 -0.019401576 0.000697513 0.0031112568 0.0032697527 -0.011039899
0.0075499304 0.0041610617 0.00880353 -0.008140723 0.0039877817 -0.008763871 -0.0003899631 -0.0022249334
00000000: 3bcc 333c 9e26 3d3c 943e 3cbc 4957 2bbc
00000010: 752b f2bb fbe3 9ebb db34 17bc 0000 0000
00000020: 726c 4cbc a16a 6f3c 70fa 333c 748e e63b
00000030: 27fe 1dbc 8878 c53a ed1b 323c 751b 133c
00000040: 96cf a9bc 2225 043c eb42 a8bb ae04 15bc
00000050: c909 cb3b e6ba 5f3b aede bfbb de9c 80ba
00000060: d6f2 87bb 091d 0ebc cd8a 183b b628 b23b
00000070: e560 febb 3086 dfbb d258 4dbb ac3c 7abc
00000080: 5e38 96bb 40cf 16bb 4e7f 273b e838 3bbb
00000090: c486 1abc 78df b3bc c797 7a3c 5221 443c
000000a0: d3a3 8a3b aedc 28bc 515c 40bc 6f28 953b
000000b0: a947 7dbb 74d4 7738 e468 74bb 830e dcbb
000000c0: 0000 0000 5bb9 14bc 363a b13b dcb0 5dbb
000000d0: d0fd 08bc 5b29 3ebc 0000 0000 7ae8 a3bb
000000e0: 0000 0000 b397 a6bb 1f44 4fbc 7d2a 95bb
000000f0: 7151 20b9 bf82 ddbb 3898 3c3c a65e 28bc
00000100: ecb6 9b3c 8fc5 0c3b c6d1 773c 1000 f93c
00000110: f61b 953b 5caf a83a 848d 33bc 6f57 013c
00000120: 80c4 22bb 5876 36bc 55f4 8fbb 1ad4 7e3c
00000130: 3292 6fbc ef8a 07bc c56e 84bb 3c6b 10bc
00000140: 7c54 88bb d70d 84bb 2881 0a3c 533a 10bc
00000150: 97bc 06bc 1f06 4e3c 2be3 033b 19fb 9c3c
00000160: da25 49bb 571a 9fbc abed 87bb cbfa a3bb
00000170: 5183 483b 8282 e7ba 121e b7bb a961 83bb
00000180: da1b be3b 8fe4 053b 534d df3b 90e7 6d3c
00000190: 2629 8f3c d4c7 263c de59 043d ad7d 31bb
000001a0: b43c a8bc c1ea d43a 1b02 1abc 2910 69bc
000001b0: 456d 44bc a218 39bc 7ad6 283b 491a 233b
000001c0: 73f8 b4bb 97aa 7fbc 0641 6cbc 0ef0 9ebc
000001d0: 4ed9 363a 3ae6 4b3b 5949 563b b1e0 34bc
000001e0: 6865 f73b 8459 883b ae3c 103c ab60 05bc
000001f0: f0ab 823b 5796 0fbc f673 ccb9 30d0 11bb

gcn_layers.1.lin.weight f4 [128, 64]
-0.12687252 -0.049615506 0.17633265 0.032277342 -0.09990009 0.006153679 -0.063899234 -0.009803686
-0.16157423 0.026496293 -0.065656245 0.16815487 0.21994524 -0.18345541 -0.14436531 -0.10325981
-0.068676256 0.17417172 0.19290423 -0.14683892 0.03937283 0.1283993 -0.026517354 0.17439981
-0.10524157 0.11905952 0.17031915 -0.028039949 0.07090763 0.09050242 0.08304113 -0.11461762
-0.11330858 0.1429968 0.05417293 0.10708998 0.17218646 0.13135391 -0.123000525 -0.15858236
-0.072841786 0.044953726 0.052151095 0.012757381 -0.06281186 -0.1557271 0.1618451 -0.12399931
0.16690043 0.06532868 -0.105707906 0.01558408 0.06645493 0.035574686 -0.015575525 -0.05751216
-0.09301663 0.0016078949 0.11581931 0.07273227 -0.052734658 0.11714004 -0.13497332 -0.036588177
-0.07442706 -0.073197134 -0.07960531 -0.16777371 -0.09149297 -0.0907484 -0.10477126 0.16084825
0.11750041 0.15154798 0.021473467 0.10836151 -0.0939284 -0.107212275 0.06395319 -0.079783775
-0.032259032 -0.10891131 -0.10271219 -0.08938004 0.027031556 -0.034932457 -0.020813936 -0.09380807
-0.0043347627 -0.008964325 0.02940689 0.069006 0.10546462 0.15363306 0.14045826 0.18665066
-0.02094189 0.15732433 -0.19507527 0.1577535 -0.068873174 0.07020883 0.057456233 -0.029454514
-0.12732007 -0.16697985 0.17611794 0.1613355 -0.15477602 0.108006135 -0.13193013 0.16312543
-0.022134738 -0.10039065 0.13217165 0.030218802 0.051156152 0.12977852 -0.09859938 -0.11009466
-0.16010715 -0.15790549 0.0064864866 -0.06444758 -0.012943262 -0.097843796 -0.13023262 -8.633306e-06
0.105931796 0.15277049 -0.110156976 -0.122118644 -0.15597464 0.08329549 -0.11512958 -0.16617097
-0.11043934 0.057765163 0.06410517 0.044332597 -0.20652747 0.103854164 0.087758996 0.15613268
0.06878861 -0.054417077 -0.1679973 -0.18294072 0.09095236 0.0713187 -0.10636915 0.09510727
0.103838734 0.10008306 -0.06270438 -0.052663792 0.024774669 0.028383592 0.123711936 0.057916835
-0.07796746 0.15439622 0.10197516 -0.15102965 0.020963712 -0.18146427 0.028731992 0.048965976
0.10525061 0.11744777 -0.0596023 0.087199345 0.0063090576 0.045886267 -0.11144412 0.0026081798
0.078956194 -0.020890985 0.04108693 0.097192064 0.11939498 0.08062586 -0.15080208 0.13995346
-0.060074925 0.12625141 0.15325788 -0.013190025 -0.039522115 -0.122225635 0.07317748 -0.0038660376
-0.103334315 -0.0744053 -0.077622764 0.12438139 -0.0934212 0.045775224 0.15374473 -0.14448375
-0.18101336 0.05604946 0.07382031 -0.0045086215 -0.029905122 0.056371722 -0.16122147 -0.09502828
-0.16061138 0.06541697 -0.18848558 0.16394325 0.076572396 -0.070771895 0.06368243 0.15072772
-0.0836488 0.07455162 -0.09234899 0.159147 0.058594648 0.005268137 0.0472094 -0.0069167386
0.010500475 0.01584658 -0.062072642 -0.117592044 -0.08086865 -0.052357852 0.123842426 -0.057198517
-0.07067152 -0.10152293 -0.05024207 -0.12767008 0.039453745 0.032951463 0.0021387883 -0.027648805
0.030850047 -0.14686401 -0.031066347 0.18298621 -0.07099792 -0.17650917 0.033959746 0.12708919
-0.08594565 -0.092222385 0.14294544 -0.04007906 -0.020802392 0.050493643 -0.043701626 0.020201862
00000000: dfea 01be a139 4bbd 8c90 343e 3f35 043d
00000010: 6b98 ccbd cda4 c93b 9add 82bd a49f 20bc
00000020: b773 25be c10e d93c c876 86bd ca30 2c3e
00000030: 5339 613e bcdb 3bbe 80d4 13be e179 d3bd
00000040: 23a6 8cbd 125a 323e b088 453e f15c 16be
00000050: 6845 213d 1b7b 033e ec3a d9bc dd95 323e
00000060: e488 d7bd 7ad5 f33d 2568 2e3e 09b4 e5bc
00000070: 0538 913d 5559 b93d 7811 aa3d a5bc eabd
00000080: 540e e8bd c16d 123e 6fe4 5d3d fe51 db3d
00000090: a651 303e a481 063e b3e7 fbbd 6a63 22be
000000a0: 132e 95bd 6621 383d 639c 553d 5604 513c
000000b0: 81a3 80bd ed76 1fbe b9ba 253e 5af3 fdbd
000000c0: f2e7 2a3e 0bcb 853d 637d d8bd 5e54 7f3c
000000d0: 8619 883d c3b6 113d 7d30 7fbc df91 6bbd
000000e0: 817f bebd 00c0 d23a ad32 ed3d a8f4 943d
000000f0: 4c00 58bd 1ee7 ef3d 7236 0abe 7cdd 15bd
00000100: 376d 98bd 61e8 95bd 1c08 a3bd dfcc 2bbe
00000110: ab60 bbbd 4cda b9bd 5092 d6bd 67b5 243e
00000120: 0ea4 f03d 652f 1b3e 20e9 af3c a4ec dd3d
00000130: 885d c0bd 1c92 dbbd e4f9 823d ad65 a3bd
00000140: 0c22 04bd e50c dfbd c55a d2bd e20c b7bd
00000150: 4871 dd3c 5615 0fbd fd81 aabc 721e c0bd
00000160: a00a 8ebb 1bdf 12bc b8e6 f03c 0553 8d3d
00000170: d6fd d73d fc51 1d3e 4ad4 0f3e 5a21 3f3e
00000180: 548e abbc a119 213e d0c1 47be 228a 213e
00000190: 610d 8dbd a6c9 8f3d 3a57 6b3d 984a f1bc
000001a0: 3160 02be c4fc 2abe 4358 343e 2235 253e
000001b0: 9b7d 1ebe 5232 dd3d b118 07be 5a0a 273e
000001c0: e953 b5bc 9d99 cdbd 0158 073e 6c8d f73c
000001d0: 1d89 513d a9e4 043e 79ee c9bd 4f79 e1bd
000001e0: 21f3 23be fab1 21be 988c d43b 18fd 83bd
000001f0: fa0f 54bc 5462 c8bd b35b 05be c4d7 10b7
00000200: c5f2 d83d de6f 1c3e fb99 e1bd 5719 fabd
00000210: d1b7 1fbe d396 aa3d 0fc9 ebbd b928 2abe
00000220: 052e e2bd 2a9b 6c3d 9249 833d 1996 353d
00000230: f07b 53be 7eb1 d43d fdba b33d 3fe1 1f3e
00000240: 0be1 8c3d 71e4 5ebd 7c07 2cbe d054 3bbe
00000250: 3b45 ba3d 8a0f 923d 12d8 d9bd 9ac7 c23d
00000260: 67a9 d43d 59f8 cc3d 276b 80bd fdb5 57bd
00000270: 3ff4 ca3c b584 e83c af5c fd3d 343a 6d3d
00000280: 67ad 9fbd 0b1a 1e3e 5ad8 d03d 84a7 1abe
00000290: 17bc ab3c c5d1 39be 5b5f eb3c 8c90 483d
000002a0: a28d d73d 7588 f03d 8b21 74bd 9295 b23d
000002b0: 36bc ce3b 3df3 3b3d d13c e4bd ffed 2a3b
000002c0: c9b3 a13d 9223 abbc c54a 283d a20c c73d
000002d0: 5b85 f43d 2c1f a53d dc6b 1abe f64f 0f3e
000002e0: 2011 76bd 0d48 013e a2ef 1c3e fa1a 58bc
000002f0: f1e1 21bd 6f51 fabd 13de 953d 595d 7dbb
00000300: f1a0 d3bd ce61 98bd aff8 9ebd acbb fe3d
00000310: 9d53 bfbd cd7e 3b3d 426f 1d3e 8cf3 13be
00000320: 915b 39be 1e94 653d 1a2f 973d 0fbd 93bb
00000330: 96fb f4bc 09e6 663d 3e17 25be 309e c2bd
00000340: 4f77 24be 55f9 853d 5d02 41be bde0 273e
00000350: fdd1 9c3d dbf0 90bd ef6b 823d 5e58 1a3e
00000360: 1050 abbd 85ae 983d 7821 bdbd 6ef7 223e
00000370: f100 703d 56a0 ac3b a55e 413d cfa5 e2bb
00000380: 2f0a 2c3c b0d0 813c e23f 7ebd 19d4 f0bd
00000390: 769e a5bd 3075 56bd 19a1 fd3d fe48 6abd
000003a0: 3bbc 90bd 41eb cfbd a1ca 4dbd f2bb 02be
000003b0: 409a 213d 1df8 063d ea2a 0c3b bf7f e2bc
000003c0: 3db9 fc3c 8563 16be da7e febc bd60 3b3e
000003d0: 5c67 91bd d2be 34be 6019 0b3d ab23 023e
000003e0: 4604 b0bd 17df bcbd 4a60 123e f129 24bd
000003f0: c769 aabc 6cd2 4e3d 7a00 33bd 607e a53c

gat_layers.0.att_src f4 [1, 4, 64]
0.047423862 -0.059186354 0.28945673 -0.15251881 -0.3032978 0.24535513 -0.062061436 0.029419579
0.13670321 0.0019609688 -0.2594469 -0.12302675 0.17452978 0.03376534 0.29613018 0.1526245
0.1996767 0.09854403 0.2112082 0.2538067 0.062961034 -0.012553676 -0.15517272 -0.087872766
0.2875537 -0.11493821 -0.1758566 -0.13842832 0.1701613 -0.16797784 -0.14549112 -0.20297612
0.053313065 0.18717508 0.18572453 0.1570372 -0.27264258 -0.14577323 0.26202205 0.12410567
0.18973835 -0.28756246 -0.1832811 0.12659946 -0.31156698 0.2031913 0.068392284 -0.21610855
-0.24203257 0.10938664 0.20982935 -0.16986524 -0.12439312 -0.19396505 0.2032742 0.24466345
0.2265363 -0.03938461 0.08716578 -0.12570709 -0.2217055 0.16619733 -0.18318677 0.044461727
0.20563297 0.2733477 0.23652653 0.1536325 0.0017754837 -0.2590808 -0.19122131 0.060735825
0.24810416 -0.20278174 0.06550002 0.09114216 -0.025722582 -0.13489777 0.2637358 -0.05317256
0.25677437 0.29086906 -0.01256748 -0.1542001 0.22963496 -0.09189908 -0.0182442 -0.013301239
-0.15938723 -0.16433825 0.22863428 -0.09365104 -0.10628601 -0.10212409 0.29517636 0.2541999
-0.036406968 -0.28351554 0.23131636 -0.024329169 -0.059052438 0.18382381 0.07261432 0.103544414
0.022203758 0.048623078 0.29779294 0.11984543 -0.048839282 0.04799935 -0.2356013 -0.0625936
0.09715895 0.12522689 0.1884964 -0.22017358 0.12212911 0.28837532 0.16009423 0.0065613105
-0.22643653 0.10055177 -0.05087292 -0.118346594 0.21401279 0.14421628 -0.07639848 0.23575611
-0.31587413 -0.22246218 -0.03689495 0.14066964 -0.24629769 -0.13948761 -0.17154787 0.07466167
0.20663276 0.13800453 -0.16402178 0.27348602 -0.061851434 0.20607793 0.21691658 0.08100487
0.064147405 0.09551038 -0.25107545 -0.16198196 -0.28471717 -0.06223521 0.11209021 -0.25984153
-0.009229179 0.14381756 0.14784661 -0.18592188 -0.10650177 0.01589569 -0.21909527 0.05051071
-0.22914971 0.045758553 0.27575278 -0.25685394 -0.16707765 -0.15225162 -0.09376178 0.15335277
-0.206272 0.24523331 0.2308926 -0.01438738 0.23378499 -0.09687806 -0.20409001 0.13249595
-0.061443906 -0.079186164 -0.118471496 -0.28300273 -0.23397446 0.054801494 0.07282725 -0.16756238
-0.073696174 0.23724739 0.12655355 0.16795832 0.27919465 -0.2332478 -0.24913204 0.20140971
-0.17920293 0.28272524 -0.17806171 -0.17530127 0.203075 0.27124813 -0.2618892 0.1419509
0.14885849 -0.10204121 0.1291549 0.074754894 -0.038517747 -0.11401652 -0.2129693 0.24185358
0.24710263 -0.13178313 0.00946278 0.06666506 0.0126818 -0.033172738 0.19301851 -0.18518119
0.27902594 0.2451376 -0.012451725 0.18274273 -0.054390896 0.26033324 0.27280334 -0.0776288
-0.036533546 0.0724394 -0.29669687 0.025594851 -0.14561763 -0.020588765 -0.22776273 0.27790374
-0.14123122 0.21074626 -0.079111405 0.2010234 0.12200619 -0.22060135 -0.18798152 -0.10227731
-0.15809765 -0.2459146 -0.0410277 -0.22364096 0.24653633 0.16925332 -0.16006967 -0.06805165
-0.13526613 -0.018192574 -0.116785735 -0.11744846 0.08271931 -0.24320294 -0.19800626 0.21464026
00000000: 863f 423d 646d 72bd ac33 943e e42d 1cbe
00000010: d949 9bbe 603e 7b3e 2234 7ebd 5401 f13c
00000020: edfb 0b3e 9983 003b 39d6 84be 73f5 fbbd
00000030: efb7 323e 864d 0a3d 609e 973e 9949 1c3e
00000040: 0d78 4c3e 74d1 c93d f646 583e f4f2 813e
00000050: b7f1 803d efad 4dbc 99e5 1ebe a3f6 b3bd
00000060: 3d3a 933e b964 ebbd c113 34be 27c0 0dbe
00000070: c43e 2e3e 6202 2cbe a0fb 14be f9d8 4fbe
00000080: cd5e 5a3d d3aa 3f3e 922e 3e3e 5cce 203e
00000090: cf97 8bbe 9445 15be c127 863e 1d2b fe3d
000000a0: c54a 423e 633b 93be 0aae 3bbe 4aa3 013e
000000b0: b585 9fbe 6111 503e 4111 8c3d 8f4b 5dbe
000000c0: 63d7 77be 1a06 e03d 81dd 563e 27f1 2dbe
000000d0: d2c1 febd c69e 46be 1d27 503e 0e89 7a3e
000000e0: 22f9 673e c251 21bd f983 b23d 5cb9 00be
000000f0: c406 63be a22f 2a3e 5095 3bbe 801d 363d
00000100: 7391 523e 3bf4 8b3e 0334 723e d751 1d3e
00000110: 59b7 e83a 3da6 84be 85cf 43be 21c6 783d
00000120: 040f 7e3e 04a6 4fbe e024 863d bea8 ba3d
00000130: 2ab8 d2bc a422 0abe 6108 873e 78cb 59bd
00000140: ee77 833e caec 943e d5e7 4dbc a2e6 1dbe
00000150: 6d25 6b3e 9635 bcbd dc74 95bc 71ed 59bc
00000160: 6836 23be 4948 28be 1b1f 6a3e 1ecc bfbd
00000170: 7bac d9bd 6f26 d1bd 5b21 973e 7d26 823e
00000180: 791f 15bd f328 91be 32de 6c3e f74d c7bc
00000190: f8e0 71bd 4f3c 3c3e d1b6 943d 180f d43d
000001a0: a8e4 b53c fe28 473d 5178 983e 8571 f53d
000001b0: b30b 48bd f79a 443d 7841 71be 1331 80bd
000001c0: 46fb c63d 7a3b 003e 3305 413e 2f75 61be
000001d0: d41e fa3d eea5 933e beef 233e 4300 d73b
000001e0: fade 67be 16ee cd3d 1f60 50bd b35f f2bd
000001f0: 2b26 5b3e 6fad 133e ce76 9cbd 0d6a 713e
00000200: 41ba a1be 20cd 63be 291f 17bd b40b 103e
00000210: 7635 7cbe d7d5 0ebe 3faa 2fbe 38e8 983d
00000220: 8a97 533e 0f51 0d3e 53f5 27be 5c06 8c3e
00000230: ee57 7dbd 1806 533e 611f 5e3e e2e5 a53d
00000240: b75f 833d f29a c33d f68c 80be 99de 25be
00000250: 73c6 91be 59ea 7ebd 8d8f e53d f309 85be
00000260: fb35 17bc e944 133e 1a65 173e 4e62 3ebe
00000270: 9a1d dabd ae37 823c 835a 60be 51e4 4e3d
00000280: 39a6 6abe 526d 3b3d 782f 8d3e 5c82 83be
00000290: 6716 2bbe d9e7 1bbe 2d06 c0bd 8208 1d3e
000002a0: f838 53be 711e 7b3e 1c6f 6c3e 0cb9 6bbc
000002b0: 5565 6f3e 0168 c6bd f9fc 50be 05ad 073e
000002c0: 9bac 7bbd 5b2c a2bd 2fa1 f2bd bce5 90be
000002d0: 0097 6fbe 8877 603d 7426 953d 7995 2bbe
000002e0: 05ee 96bd fbf0 723e 4197 013e 44fd 2b3e
000002f0: 9af2 8e3e 83d8 6ebe 781c 7fbe 593e 4e3e
00000300: f980 37be 5dc1 903e cf55 36be 2d82 33be
00000310: e5f2 4f3e 09e1 8a3e 5716 86be 945b 113e
00000320: 5c6e 183e fbfa d0bd 2f41 043e 1819 993d
00000330: c9c4 1dbd 7e81 e9bd a014 5abe 77a8 773e
00000340: 7908 7d3e 28f2 06be c709 1b3c b187 883d
00000350: 53c7 4f3c 23e0 07bd a5a6 453e 23a0 3dbe
00000360: 7ddc 8e3e 5a05 7b3e 5202 4cbc e920 3b3e
00000370: fdc8 5ebd 664a 853e e1ac 8b3e d9fb 9ebd
00000380: 33a4 15bd 1c5b 943d a7e8 97be 4bac d13c
00000390: ca1c 15be c5a9 a8bc a23a 69be 6649 8e3e
000003a0: eb9e 10be decd 573e 2905 a2bd 14d9 4d3e
000003b0: 62de f93d 52e5 61be 3a7e 40be c476 d1bd
000003c0: 5ae4 21be 09d1 7bbe a90c 28bd 2302 65be
000003d0: 0574 7c3e be50 2d3e 4ee9 23be aa5e 8bbd
000003e0: 3483 0abe 9808 95bc 5c2d efbd d188 f0bd
000003f0: be68 a93d 310a 79be 27c2 4abe a8ca 5b3e

gat_layers.0.att_dst f4 [1, 4, 64]
-0.2480632 0.08158544 0.112177804 -0.043739382 -0.28323576 0.15593782 -0.08729651 -0.11513176
-0.12902921 0.11000766 -0.10188899 -0.18321182 -0.16231407 -0.14241353 0.018710494 -0.16954999
0.074280076 0.17421672 -0.2773376 -0.28362668 -0.12203125 -0.09010769 -0.11734383 -0.035575435
-0.16323437 0.22539514 0.13060118 -0.124128886 0.23895852 -0.101655886 -0.011818126 0.20869727
0.19971539 0.039195262 0.13263026 0.06886298 0.23035868 -0.009324363 0.1929131 -0.2592843
0.092132896 0.038946517 -0.19738561 0.20403582 -0.13411026 -0.1878178 0.23893999 -0.050877623
0.2044807 0.1355967 0.108231515 0.10322029 0.035545643 -0.015977789 0.21960205 -0.071660906
-0.075275056 -0.17673025 0.08613299 0.2774728 -0.056710124 -0.18308754 -0.017802512 0.20572723
-0.26548854 0.063949145 -0.051113427 0.28585806 0.07906237 -0.11970671 -0.025450649 0.08662267
-0.28430632 0.17071564 -0.03143304 -0.10755918 0.13003981 -0.20464435 -0.030806763 0.18314223
-0.10762491 -0.079234414 -0.2626802 0.25663367 0.24248718 0.27695838 0.2448635 0.1688894
0.1774384 0.17952985 -0.12118255 -0.14906734 -0.0235417 -0.19065316 -0.09870907 0.15624854
0.25904763 -0.01639215 0.1911582 0.0066237543 0.00512494 -0.03683986 -0.24016826 0.2801077
0.17674536 0.15708444 0.28767592 -0.17239368 0.088660054 0.06723608 -0.20640829 0.28796184
0.15788034 -0.026184088 -0.22388414 0.088927105 0.2584448 0.23516576 0.18297309 0.04360572
-0.21530873 0.083973534 -0.18218699 0.07812061 -0.21761319 0.033697184 -0.14924699 0.12673248
-0.035023764 0.02073165 0.060949046 0.076855764 0.013911914 0.06115052 -0.26102123 -0.10967294
0.013663088 -0.120894775 0.14670338 -0.0013824272 -0.22377828 0.08515632 -0.1362466 0.12247138
-0.14126967 -0.08728854 0.038821958 0.20797534 0.004055918 0.27025902 -0.037692606 -0.16277064
0.292629 0.11180437 0.1875886 0.24281979 0.14171176 0.08584895 0.17745475 0.04627073
-0.22690997 -0.22300227 0.1748979 -0.014037183 -0.17313157 -0.071056314 -0.14552258 0.27779818
0.13452071 0.10230845 -0.12894739 0.2877604 0.056628644 0.22811843 -0.04615362 -0.28461096
0.12062489 -0.13168715 -0.14855778 0.032287553 0.17028956 -0.12377945 0.07280431 -0.17527583
-0.20375185 0.22533894 0.051914163 0.12611096 -0.012786535 -0.1322918 0.100721985 0.29970348
-0.010899597 0.08294659 -0.21861301 0.16941756 0.17462204 0.015756654 -0.12612869 -0.20832513
-0.24791107 0.12941653 -0.13399844 -0.3004972 0.03556467 0.26222572 -0.21376422 0.048216425
-0.22600779 -0.19438286 -0.056925315 0.11425693 0.095333025 -0.30200583 -0.28351507 -0.054537077
0.25914726 0.037833955 -0.028038938 0.28099307 0.20967394 0.036225952 -0.26311138 -0.23390804
0.18306373 0.30147767 -0.13283846 -0.04752328 0.30584812 -0.046911545 -0.2554447 -0.14118534
-0.22320023 0.12528257 0.018681994 -0.031067923 0.1608906 0.14589092 0.17582148 -0.1460109
0.04724337 0.25985426 0.021534255 0.19298051 0.20075609 0.008761607 0.001583706 -0.20104651
-0.09260393 -0.018360754 0.122363254 -0.008920192 0.19394664 0.063249454 -0.07831678 -0.15944505
00000000: 4804 7ebe 4416 a73d 7abd e53d 1128 33bd
00000010: 4704 91be 2aae 1f3e 83c8 b2bd 33ca ebbd
00000020: 3c20 04be b24b e13d 2dab d0bd e19b 3bbe
00000030: a935 26be dad4 11be c046 993c 839e 2dbe
00000040: 2720 983d de65 323e 32ff 8dbe 8437 91be
00000050: 85eb f9bd 618a b8bd f651 f0bd 8cb7 11bd
00000060: e926 27be fccd 663e 51bc 053e 4937 febd
00000070: 8bb1 743e f630 d0bd d0a0 41bc bdb4 553e
00000080: 3182 4c3e 368b 203d 3ad0 073e 0908 8d3d
00000090: 25e3 6b3e 37c5 18bc 038b 453e e9c0 84be
000000a0: 2cb0 bc3d 6286 1f3d 741f 4abe c4ee 503e
000000b0: 3354 09be 4f53 40be afac 743e 0e65 50bd
000000c0: 6363 513e dcd9 0a3e 7ca8 dd3d 2965 d33d
000000d0: 4f98 113d dae3 82bc 5cdf 603e f4c2 92bd
000000e0: cf29 9abd c6f8 34be 7e66 b03d ea10 8e3e
000000f0: e048 68bd 4d7b 3bbe 93d6 91bc 29aa 523e
00000100: 1dee 87be c5f7 823d 505c 51bd fd5b 923e
00000110: 74eb a13d cb28 f5bd e17d d0bc 3a67 b13d
00000120: 9990 91be 15d0 2e3e eebf 00bd fd47 dcbd
00000130: 2829 053e 4a8e 51be 775e fcbc a389 3b3e
00000140: 736a dcbd a745 a2bd 057e 86be 7d65 833e
00000150: 8f4e 783e 7dcd 8d3e 7fbd 7a3e 58f1 2c3e
00000160: 69b2 353e acd6 373e 8f2e f8bd 1ca5 18be
00000170: 86da c0bc 953a 43be fb27 cabd 9eff 1f3e
00000180: e4a1 843e d548 86bc fabe 433e 140c d93b
00000190: 1def a73b 65e5 16bd abee 75be 476a 8f3e
000001a0: bcfc 343e beda 203e 424a 933e f887 30be
000001b0: 6793 b53d 12b3 893d b25c 53be bc6f 933e
000001c0: 62ab 213e 0380 d6bc e241 65be 6a1f b63d
000001d0: e052 843e 4bcf 703e 4c5d 3b3e e99b 323d
000001e0: e479 5cbe 51fa ab3d 3a8f 3abe b3fd 9f3d
000001f0: fed5 5ebe 0f06 0a3d 34d4 18be 29c6 013e
00000200: 1475 0fbd 6cd5 a93c b5a5 793d 8e66 9d3d
00000210: ccee 633c f878 7a3d 93a4 85be 359c e0bd
00000220: 25db 5f3c ae97 f7bd 6939 163e 8f32 b5ba
00000230: 2226 65be 7066 ae3d 3b84 0bbe 46d2 fa3d
00000240: ffa8 10be 56c4 b2bd c603 1f3d 7df7 543e
00000250: 82e7 843b 645f 8a3e 9063 1abd 59ad 26be
00000260: 78d3 953e b1f9 e43d 3a17 403e c0a5 783e
00000270: e31c 113e 93d1 af3d b3b6 353e 6186 3d3d
00000280: 165b 68be b55a 64be 6f18 333e 36fc 65bc
00000290: 6749 31be f985 91bd df03 15be 903b 8e3e
000002a0: ccbf 093e 1887 d13d c90a 04be 5555 933e
000002b0: 70f3 673d e197 693e 940b 3dbd 87b8 91be
000002c0: 2f0a f73d ffd8 06be 881f 18be f43f 043d
000002d0: 6360 2e3e 1580 fdbd 6d1a 953d 827b 33be
000002e0: 53a4 50be 40bf 663e f2a3 543d 3b23 013e
000002f0: 9d7e 51bc 8077 07be 5447 ce3d bc72 993e
00000300: 3994 32bc e7df a93d 17dc 5fbe cc7b 2d3e
00000310: 1fd0 323e 1914 813c e127 01be 2f53 55be
00000320: 66dc 7dbe c485 043e e336 09be c5da 99be
00000330: 42ac 113d 7342 863e 02e5 5abe 967e 453d
00000340: 966e 67be 4d0c 47be 852a 69bd 8aff e93d
00000350: f63d c33d 82a0 9abe e328 91be 4562 5fbd
00000360: f3ae 843e c7f7 1a3d eab1 e5bc 53de 8f3e
00000370: c4b4 563e aa61 143d 89b6 86be 9785 6fbe
00000380: 0f75 3b3e 485b 9a3e ce06 08be c5a7 42bd
00000390: 2098 9c3e 5226 40bd a6c9 82be e492 10be
000003a0: 9a8e 64be 134a 003e fb0a 993c 2882 febc
000003b0: 81c0 243e 6e64 153e 8c0a 343e e283 15be
000003c0: 4482 413d 9e0b 853e 9b68 b03c af9c 453e
000003d0: 0193 4d3e d88c 0f3c 5b94 cf3a 23df 4dbe
000003e0: 21a7 bdbd 4b69 96bc 9699 fa3d ff25 12bc
000003f0: f399 463e ee88 813d 8c64 a0bd 9045 23be

gat_layers.0.bias f4 [64]
0.0 -0.016086647 -0.019380549 -0.012216541 -0.0013903704 0.015114696 -0.0008797375 0.0
-0.0047027613 -0.0019858878 -0.0116215935 -0.003493934 0.0 -0.009806758 0.0031525628 -0.023139726
-0.0038509448 -0.014558108 0.0043414626 0.008922328 -0.012434405 -0.0061255116 0.011246992 -0.020772582
-0.0062863757 -0.003715836 0.0 0.0020824315 -0.00048634587 -0.00020183416 -0.00011005782 -0.010232702
-0.008577354 0.0 -0.0019243214 -0.0046441616 -0.012553914 0.0030460325 0.0035604006 0.0
0.0 0.0 0.019027213 -0.0005191709 0.0 0.0 0.022415893 -0.0081255445
-0.005518841 -0.0089179175 -0.011441165 0.03211058 -0.0036305387 0.0 0.0027761646 0.011010158
-0.0078059654 0.0 -0.009692799 -0.012166844 0.0 -0.00972852 -0.010605911 -0.009825066
00000000: 0000 0000 25c8 83bc f5c3 9ebc e327 48bc
00000010: 173d b6ba a1a3 773c 2f9e 66ba 0000 0000
00000020: 9f19 9abb ab25 02bb 7f68 3ebc 7cfa 64bb
00000030: 0000 0000 86ac 20bc 3a9b 4e3b 868f bdbc
00000040: 2260 7cbb 2185 6ebc d442 8e3b f52e 123c
00000050: adb9 4bbc 84b8 c8bb 4e45 383c 432b aabc
00000060: f1fd cdbb 6285 73bb 0000 0000 6779 083b
00000070: 3dfc feb9 72a3 53b9 d8ce e6b8 10a7 27bc
00000080: 0888 0cbc 0000 0000 8339 fcba 0d2e 98bb
00000090: efae 4dbc f29f 473b 9c55 693b 0000 0000
000000a0: 0000 0000 0000 0000 f5de 9b3c f818 08ba
000000b0: 0000 0000 0000 0000 89a1 b73c 0121 05bc
000000c0: 65d7 b4bb 751c 12bc b973 3bbc 6286 033d
000000d0: 55ee 6dbb 0000 0000 50f0 353b f363 343c
000000e0: 2fc9 ffbb 0000 0000 8cce 1ebc 7157 47bc
000000f0: 0000 0000 5f64 1fbc 6ac4 2dbc 50f9 20bc

gat_layers.0.lin.weight f4 [256, 36]
-0.0073479475 -0.044076543 0.11891017 0.10488958 -0.016562726 -0.15379608 -0.033028994 0.10000649
-0.1237401 0.100000694 -0.046024323 -0.09604947 -0.07529947 -0.08124557 0.06595138 -0.12755986
-0.053447835 0.10828067 0.09463781 -0.052636646 -0.055203907 0.031903934 -0.05376663 0.07102098
-0.08268824 -0.11703403 -0.09120411 -0.033539172 -0.14515512 -0.12608401 -0.028286027 -0.04638017
0.11577256 0.11588839 0.038243573 0.007300377 -0.08133155 -0.15049216 -0.055769436 -0.1270828
-0.006671363 0.06200156 -0.14860678 -0.07099364 0.05160617 -0.00012846291 -0.016574875 0.14021908
-0.0521964 -0.1197881 -0.102014974 -0.07406914 0.083768085 0.07025118 0.049383715 0.03253293
0.13917385 -0.12166126 -0.10472596 0.0060960734 0.10890501 -0.13642608 -0.04673558 0.074029855
0.11557165 -0.13712403 -0.101266615 0.11067562 0.01710771 0.04199516 -0.15027924 -0.02703943
0.043088082 -0.016752409 0.120879 0.095759176 -0.11584848 -0.095380574 -0.10724755 0.004065305
0.15670714 -0.09360893 0.0740276 -0.022666402 0.10415241 0.011691093 -0.05630888 -0.083880514
-0.10546889 -0.12493206 0.07329294 -0.12047737 -0.13134512 0.14009227 -0.03998716 -0.0056983526
0.035874475 -0.042281225 -0.08084261 -0.09767985 0.06845844 -0.10277675 0.018253874 0.088746086
-0.003437981 0.003921 0.054390486 -0.08158377 -0.12794384 0.03464926 0.08098489 -0.044895865
0.08233253 -0.092365295 0.058690432 0.021246463 -0.009513986 -0.079224035 0.0049304515 0.10896002
0.045389786 0.12878616 -0.08520901 -0.06482135 0.06125155 -0.0013456345 -0.082598865 -0.095114484
0.10157989 0.11073123 0.12889041 0.10217376 0.07276871 0.109525695 0.03422574 -0.13077801
0.13782398 -0.060525645 0.014226455 0.13925187 0.11613996 0.11884512 0.047654215 0.07548247
-0.1012834 0.09481196 0.029091872 0.077764615 -0.010061353 -0.027050633 -0.02927133 0.096676365
0.008024466 -0.08481448 0.1363004 0.09768276 0.017881334 -0.005876094 0.051344097 0.053030178
0.14287554 0.054717988 -0.014198005 -0.06571666 -0.081066065 -0.10232031 -0.037972473 -0.14882196
0.07494085 0.010232821 -0.020947015 -0.02863996 -0.00653325 0.0980111 -0.016128398 -0.078849904
-0.054218195 -0.052808102 -0.13256314 0.13205236 -0.0142173 0.0701261 0.13546872 -0.14321367
-0.02714334 -0.12346152 -0.10871243 -0.118060015 -0.101829335 0.11570434 0.14257531 -0.12947226
-0.025197752 0.0018850714 -0.053471893 -0.053120136 -0.057163663 0.12916933 0.082380444 -0.11651322
-0.041401766 0.14097641 0.061542854 0.07312934 -0.010870982 0.032937855 -0.0068631438 -0.059472855
0.07705883 -0.05161284 -0.04947408 -0.11545097 0.122535184 -0.06494166 -0.021500826 -0.077059396
-0.04973986 0.12423568 -0.1499132 0.043649483 0.0006192565 0.06544348 -0.08405387 -0.06356962
-0.07688455 0.034710646 -0.10333749 0.0801398 0.038802907 -0.117099494 -0.07166433 -0.1272877
0.1224343 -0.114470705 0.0017302781 0.009812683 -0.02182915 -0.084180765 -0.11609319 0.05643081
0.04798234 -0.0610575 -0.019615347 -0.0024897147 -0.031711027 0.01659006 0.00948421 0.034209326
-0.08494754 -0.04130907 0.088038824 0.13770151 0.020273691 -0.11849012 -0.0919656 -0.10651781
00000000: 0dc7 f0bb 9b89 34bd 2d87 f33d 59d0 d63d
00000010: 8eae 87bc b87c 1dbe 6949 07bd 34d0 cc3d
00000020: 736b fdbd 2acd cc3d 0084 3cbd 96b5 c4bd
00000030: 9c36 9abd 1464 a6bd 8411 873d 0d9f 02be
00000040: 1eec 5abd 42c2 dd3d 78d1 c13d 8699 57bd
00000050: 7e1d 62bd b3ad 023d 663a 5cbd 7373 913d
00000060: 7458 a9bd 8aaf efbd 38c9 babd 5f60 09bd
00000070: 8ba3 14be 2b1c 01be 19b8 e7bc 22f9 3dbd
00000080: 2a1a ed3d e456 ed3d 4ba5 1c3d 0038 ef3b
00000090: 2891 a6bd 9e1a 1abe 7e6e 64bd fe21 02be
000000a0: 739b dabb 59f5 7d3d 602c 18be 1d65 91bd
000000b0: fe60 533d 00b4 06b9 08c8 87bc 9795 0f3e
000000c0: e4cb 55bd 7753 f5bd 3aed d0bd 90b1 97bd
000000d0: 9a8e ab3d dadf 8f3d 9446 4a3d 4041 053d
000000e0: 9783 0e3e 8a29 f9bd 907a d6bd 92c1 c73b
000000f0: 9709 df3d 47b3 0bbe cf6d 3fbd f79c 973d
00000100: d4b0 ec3d 3e6a 0cbe df64 cfbd e6a9 e23d
00000110: 7825 8c3c 1e03 2c3d cde2 19be cb81 ddbc
00000120: 217d 303d 593c 89bc 698f f73d 631d c43d
00000130: f841 edbd e456 c3bd 9aa4 dbbd 4036 853b
00000140: d677 203e 0ab6 bfbd c89b 973d e4ae b9bc
00000150: dc4d d53d 008c 3f3c 24a4 66bd 8cc9 abbd
00000160: 1300 d8bd 61dc ffbd 9c1a 963d d7bc f6bd
00000170: 567f 06be 5974 0f3e 94c9 23bd 3fb9 babb
00000180: 1df1 123d 142f 2dbd cf90 a5bd 600c c8bd
00000190: f033 8c3d 9e7c d2bd 2689 953c 82c0 b53d
000001a0: c04f 61bb bb7b 803b 8fc8 5e3d 6415 a7bd
000001b0: b603 03be 62ec 0d3d 68db a53d bae4 37bd
000001c0: f59d a83d 042a bdbd 6165 703d 100d ae3c
000001d0: 8de0 1bbc 3640 a2bd a08f a13b 6e26 df3d
000001e0: a4ea 393d 85e0 033e 1082 aebd 0ec1 84bd
000001f0: e8e2 7a3d 0060 b0ba 9829 a9bd 62cb c2bd
00000200: 1e09 d03d 0ec7 e23d d9fb 033e 7a40 d13d
00000210: c307 953d 024f e03d 4a30 0c3d acea 05be
00000220: bb21 0d3e bde9 77bd 1416 693c 0b98 0e3e
00000230: cada ed3d 1265 f33d 1131 433d 8e96 9a3d
00000240: ac6d cfbd c62c c23d 1452 ee3c 0e43 9f3d
00000250: 60d8 24bc 4a99 ddbc 6eca efbc 42fe c53d
00000260: 0d79 033c 37b3 adbd 5592 0b3e e60d c83d
00000270: e07b 923c 408c c0bb 304e 523d 2c36 593d
00000280: f74d 123e f81f 603d c09e 68bc 7596 86bd
00000290: f705 a6bd 508d d1bd 0689 1bbd c964 18be
000002a0: 977a 993d 90a7 273c 1399 abbc 599e eabc
000002b0: e014 d6bb 0bba c83d b41f 84bc 0f7c a1bd
000002c0: e613 5ebd 4f4d 58bd a2be 07be bc38 073e
000002d0: aeef 68bc 469e 8f3d 50b8 0a3e 9ba6 12be
000002e0: b65b debc 65d9 fcbd 9fa4 debd 73c9 f1bd
000002f0: e68b d0bd 66f6 ec3d 43ff 113e 6094 04be
00000300: 846b cebc 8014 f73a 5805 5bbd 8094 59bd
00000310: 7224 6abd f744 043e 14b7 a83d 7c9e eebd
00000320: e694 29bd 1f5c 103e 5c14 7c3d d6c4 953d
00000330: 341c 32bc d8e9 063d 39e4 e0bb cf99 73bd
00000340: 05d1 9d3d fc67 53bd 55a5 4abd 8f71 ecbd
00000350: baf3 fa3d 2200 85bd 8022 b0bc 51d1 9dbd
00000360: 06bc 4bbd 476f fe3d d982 19be cdc9 323d
00000370: 9a55 223a 3b07 863d 6f24 acbd ca30 82bd
00000380: a675 9dbd c02c 0e3d 9ba2 d3bd 5620 a43d
00000390: ccef 1e3d dcd1 efbd c0c4 92bd b557 02be
000003a0: d6be fa3d 9e6f eabd 80ca e23a 60c5 203c
000003b0: 0cd3 b2bc f766 acbd 44c2 edbd fe23 673d
000003c0: 2189 443d 6e17 7abd 5db0 a0bc 7b2a 23bb
000003d0: 6ce3 01bd e1e7 873c a963 1b3c 141f 0c3d
000003e0: faf8 adbd b333 29bd b34d b43d a001 0d3e
000003f0: 0315 a63c f3aa f2bd 7658 bcbd 0226 dabd

gat_layers.1.att_src f4 [1, 4, 128]
0.10926615 0.093458295 -0.0669555 0.09241233 0.059102826 -0.085561156 0.16530733 0.025869062
-0.050761607 0.20731317 0.1476975 -0.19800043 -0.17380711 -0.14702134 0.06386852 -0.13783172
0.0089728115 -0.017083177 0.075726256 -0.07244074 0.14679188 0.17592661 -0.026284695 -0.2316443
0.19550051 -0.13518769 0.107838236 -0.060165524 0.19542094 -0.05920117 0.13229589 0.009318634
0.14685293 -0.079254545 -0.17267385 -0.0251535 0.20619692 -0.036699742 0.037707116 0.10932934
-0.022327678 -0.080077685 -0.031107392 0.07538358 0.17439662 0.07518824 -0.020677196 0.03447968
-0.06983255 0.12249937 0.018930556 0.13622233 -0.21195997 0.10804696 -0.044760972 0.21367252
-0.061680533 -0.11582934 -0.12377576 0.15132654 -0.21124102 -0.11757194 -0.12625848 0.14333543
-0.019799383 -0.2231208 -0.13012408 -0.08055085 0.026781365 -0.10500654 -0.17045873 -0.1966676
-0.05430702 -0.15140547 -0.22334252 0.046406925 0.13558386 0.1101124 -0.1680629 0.16473585
-0.15875639 -0.12494143 -0.14103329 0.062492054 0.07019093 0.044986647 -0.09179873 -0.015320503
0.1512479 -0.041714184 -0.016280983 -0.07070564 0.19442941 -0.19515438 -0.019585224 0.096810386
0.031105082 0.15237449 -0.08411856 -0.044943437 0.18346396 0.13710882 0.004952365 0.06224338
0.12874468 0.010556185 0.0015505888 0.00056733214 0.1805541 0.1468323 -0.074565984 0.09922718
0.14431578 0.03902242 -0.13684206 0.055792544 -0.14395621 0.0021106796 0.15497327 0.1013845
0.0086222775 -0.013665855 0.037995227 -0.11734566 -0.16934462 0.14803895 -0.03183813 -0.07315469
-0.17784724 0.08891273 -0.21060863 0.14218949 -0.06827587 -0.03238327 0.08560925 0.20871694
-0.17543192 -0.12555952 -0.10319331 -0.15086053 -0.08264616 -0.14182533 -0.15301608 0.16538124
0.16494872 -0.19651134 0.10821838 0.13070339 -0.020824693 -0.20651728 0.0071256487 0.03481283
0.15033948 0.062860504 0.013479158 0.09891792 -0.09819674 0.036300857 0.15246217 -0.012904218
0.04426307 0.18497105 -0.19322476 0.17816961 0.0005162186 -0.038688205 -0.10918518 -0.08135341
-0.08560955 0.18169315 -0.21426184 0.010429725 -0.13068354 -0.06742406 -0.071324654 0.14869642
0.14655825 -0.0064538578 -0.035804123 0.12154644 0.16422167 -0.18737057 -0.02739622 0.06560806
0.0811005 -0.0070616324 0.17216492 -0.12581871 -0.003279448 -0.011822123 0.20394824 -0.015427222
0.024472607 0.07937291 -0.030153256 0.02173559 -0.021663586 -0.027610915 -0.052559655 -0.17537549
0.14234915 -0.11993077 0.01163602 0.03562137 0.052835375 -0.0034820042 0.016175281 -0.191648
-0.13897505 -0.020928947 -0.0047434624 0.21082807 0.16968615 0.1823982 -0.19879968 0.020477591
0.20928356 -0.18914442 0.19620292 -0.11917222 0.0064130793 -0.016023003 0.22113311 0.04127764
0.21132272 0.04713263 -0.10058581 -0.16019472 -0.18287256 0.21400848 -0.12379515 0.18452841
-0.0027891777 -0.039125733 0.17007855 -0.06115285 -0.08357413 -0.16929327 -0.17739278 -0.036099907
0.062823944 0.05516016 0.1771922 -0.0040140008 0.05152372 -0.066153936 -0.15046555 0.18215273
-0.011594953 -0.033857174 0.025849193 0.07384221 -0.15902449 -0.085274614 0.10203825 0.13220945
00000000: eec6 df3d 1067 bf3d f71f 89bd ad42 bd3d
00000010: ce15 723d b03a afbd 5346 293e 5beb d33c
00000020: 67eb 4fbd e749 543e 033e 173e a0c0 4abe
00000030: 7efa 31be c38c 16be 80cd 823d c223 0dbe
00000040: b302 133c 05f2 8bbc 5e16 9b3d d05b 94bd
00000050: 9c50 163e 1b26 343e 0053 d7bc 2a34 6dbe
00000060: 4931 483e a46e 0abe 4bda dc3d 2070 76bd
00000070: 6d1c 483e ed7c 72bd 9378 073e 2fad 183c
00000080: 9d60 163e 3550 a2bd 6ad1 30be b60e cebc
00000090: 4925 533e 7852 16bd c772 1a3d 10e8 df3d
000000a0: 89e8 b6bc c5ff a3bd eed4 febc b562 9a3d
000000b0: 0795 323e 4bfc 993d 3963 a9bc 913a 0d3d
000000c0: 5e04 8fbd f3e0 fa3d 4114 9b3c de7d 0b3e
000000d0: 090c 59be b947 dd3d 4857 37bd f8cc 5a3e
000000e0: baa4 7cbd ef37 edbd 257e fdbd 58f5 1a3e
000000f0: 914f 58be 8fc9 f0bd e749 01be 86c6 123e
00000100: 5132 a2bc c779 64be 3f3f 05be d8f7 a4bd
00000110: 9864 db3c ab0d d7bd bc8c 2ebe 3b63 49be
00000120: 0a71 5ebd 090a 1bbe e7b3 64be 3015 3e3d
00000130: 7fd6 0a3e 9c82 e13d ae18 2cbe 84b0 283e
00000140: 0991 22be 4be1 ffbd 086b 10be abf7 7f3d
00000150: 43c0 8f3d eb43 383d f900 bcbd d902 7bbc
00000160: bbe0 1a3e 7edc 2abd b25f 85bc 1ece 90bd
00000170: 8118 473e 8dd6 47be 3171 a0bc 8644 c63d
00000180: 16d0 fe3c 0f08 1c3e 5a46 acbd 9c16 38bd
00000190: fadd 3b3e 4166 0c3e 7347 a23b eaf2 7e3d
000001a0: a5d5 033e d9f3 2c3c 203d cb3a 04b9 143a
000001b0: 2de3 383e 355b 163e 0db6 98bd 9f37 cb3d
000001c0: 84c7 133e f9d5 1f3d 5320 0cbe b986 643d
000001d0: 4269 13be 5453 0a3b 50b1 1e3e ada2 cf3d
000001e0: 7444 0d3c c0e6 5fbc e2a0 1b3d ec52 f0bd
000001f0: ad68 2dbe 8697 173e b368 02bd 20d2 95bd
00000200: 961d 36be e117 b63d caa9 57be 1f9a 113e
00000210: 38d4 8bbd 52a4 04bd e753 af3d e5b9 553e
00000220: 6da4 33be ad92 00be 0457 d3bd 2f7b 1abe
00000230: 6442 a9bd a93a 11be 3fb0 1cbe b359 293e
00000240: 51e8 283e 453a 49be 99a1 dd3d 1cd7 053e
00000250: 8c98 aabc 4479 53be 467e e93b e697 0e3d
00000260: 98f2 193e 02bd 803d b0d7 5c3c 7a95 ca3d
00000270: 5f1b c9bd 35b0 143d 0b1f 1c3e 376c 53bc
00000280: 314d 353d 0d69 3d3e b6dc 45be 1872 363e
00000290: d852 073a 8677 1ebd 7b9c dfbd 9e9c a6bd
000002a0: 0f54 afbd c50d 3a3e 7567 5bbe 70e1 2a3c
000002b0: e8d1 05be a015 8abd a912 92bd e043 183e
000002c0: 5e13 163e e27a d3bb 58a7 12bd 57ed f83d
000002d0: ba29 283e 12de 3fbe 0a6e e0bc 855d 863d
000002e0: 0518 a63d 4465 e7bb 004c 303e 9fd6 00be
000002f0: 02ec 56bb 94b1 41bc cfd7 503e 75c2 7cbc
00000300: c77a c83c 448e a23d f603 f7bc d60e b23c
00000310: d577 b1bc 4930 e2bc cb48 57bd a295 33be
00000320: fac3 113e 439e f5bd 01a5 3e3c b7e7 113d
00000330: e869 583d 5632 64bb 0682 843c 603f 44be
00000340: 7a4f 0ebe 2f73 abbc 0c6f 9bbb 50e3 573e
00000350: 35c2 2d3e 98c6 3a3e 2592 4bbe 9fc0 a73c
00000360: 6e4e 563e 13af 41be 6be9 483e 9110 f4bd
00000370: cf24 d23b ac42 83bc b870 623e be12 293d
00000380: fc64 583e 250e 413d efff cdbd 160a 24be
00000390: f242 3bbe 0a25 5b3e 5088 fdbd 04f5 3c3e
000003a0: a3ca 36bb 4e42 20bd 1229 2e3e 697b 7abd
000003b0: ea28 abbd 375b 2dbe 74a6 35be 7fdd 13bd
000003c0: d7a9 803d 9fef 613d df71 353e e187 83bb
000003d0: 890a 533d b77b 87bd a413 1abe 3f86 3a3e
000003e0: c2f8 3dbc d2ad 0abd b0c1 d33c 963a 973d
000003f0: 51d7 22be 75a4 aebd 6ef9 d03d ea61 073e

gat_layers.1.att_dst f4 [1, 4, 128]
-0.16821654 0.17213745 -0.20367561 -0.022262406 0.12881365 0.19719182 0.13724226 -0.020109361
0.16677658 -0.20822792 -0.1786835 -0.025410742 -0.19544497 -0.044804998 0.025060097 -0.12550649
-0.024792181 -0.0013629039 -0.02791763 -0.20648682 -0.18946588 -0.035786483 -0.07420046 -0.034205373
0.18707936 -0.17024685 0.023975642 -0.14681464 0.13109444 -0.13017961 0.03247788 0.064489484
0.14640948 0.011555758 0.12516423 -0.046234153 -0.11529095 0.101878785 0.21336365 -0.20389917
-0.15186779 0.11395194 0.03747748 0.081641585 0.15459 0.115070716 0.20263919 0.18507658
0.16823393 -0.18768512 0.0489938 0.19328912 -0.044824276 0.08097478 0.21126261 0.10226074
0.09267798 -0.04887068 0.118079826 -0.07355323 -0.11678258 -0.061600026 0.21138977 -0.09354444
-0.09361211 0.1610819 0.1853983 -0.02679971 0.17728688 -0.22656794 0.007205309 -0.1542751
0.20091239 -0.13223559 -0.14809881 -0.12147757 0.01618617 -0.09259527 -0.13321656 0.20634642
-0.17350562 0.20087372 0.048374094 -0.14917223 -0.090509936 0.21611159 0.0874205 -0.15381162
0.025199022 -0.122803584 -0.04331068 0.12431347 -0.018444495 -0.123429105 0.1548425 -0.16563003
-0.11132797 -0.18159671 -0.19446428 -0.06009963 -0.09786918 0.11438206 -0.20797434 0.051313832
-0.17349194 -0.026174612 -0.11011272 0.14584932 -0.14417458 -0.07219412 0.16624404 -0.13523543
0.15291084 -0.10405696 -0.10463525 -0.1028298 -0.017854529 -0.10673822 -0.14160457 0.16477527
-0.095444106 -0.0072270962 -0.068276 0.0052037383 -0.045257773 0.049004693 -0.0716413 0.083190635
0.088813156 -0.039700024 -0.060850475 0.02622046 -0.19472766 -0.06791151 -0.21616428 0.06784599
-0.14334224 -0.08296814 0.15652062 0.1111576 0.12863636 0.1105264 -0.12301804 0.05904949
-0.15346204 -0.16023767 0.030529907 -0.13226825 -0.048781514 -0.038647022 0.009723999 0.13128565
0.10928601 -0.12312107 0.1409373 0.10442308 0.13084984 -0.14903499 -0.057811406 -0.20619015
-0.047475114 -0.06930756 0.2005494 0.20496973 0.19015399 -0.09000985 -0.0029262304 -0.22034472
-0.03570495 0.007647023 0.1834999 0.18250705 -0.06762161 0.19859017 0.075252324 -0.07971892
-0.18241479 0.118094616 -0.17769612 0.08174463 -0.10625653 -0.00558424 -0.13545907 0.0664765
-0.19189899 -0.05908141 0.00669296 -0.09947671 -0.19841954 -0.18274526 -0.20421664 0.2283044
-0.18589345 -0.019055296 0.112805225 -0.15981142 0.21095903 0.13018042 0.04523375 0.02201885
0.18758419 -0.049691837 0.20561245 -0.12634203 0.012253775 -0.08842275 -0.1542604 -0.17800453
0.06609589 0.17238593 -0.016072176 -0.093133025 0.036248773 0.08004073 -0.031703297 -0.1986054
0.0008019424 0.080543436 0.13868186 0.010092061 -0.12106793 -0.15919542 -0.15552656 -0.093028724
0.20163864 -0.027170593 -0.049585417 0.0804163 0.11990617 -0.070335 -0.16354327 0.0023548263
0.10387614 0.14414503 -0.18364994 0.06823503 0.062338576 0.04305471 -0.09544587 0.16548827
-0.18269369 -0.19728684 0.022772841 0.15461354 0.046533275 -0.07866355 0.17571157 0.121443294
0.021434315 -0.009052097 -0.15363649 0.01915708 -0.11649084 -0.039561007 -0.15148884 0.09287257
00000000: f540 2cbe cd44 303e 5790 50be a65f b6bc
00000010: bae7 033e a7ec 493e 3c89 0c3e 63bc a4bc
00000020: 7bc7 2a3e b339 55be cff8 36be 302a d0bc
00000030: ba22 48be 7285 37bd d54a cd3c c684 00be
00000040: f918 cbbc 77a3 b2ba 83b3 e4bc 4871 53be
00000050: 5803 42be d994 12bd 69f6 97bd ef1a 0cbd
00000060: bb91 3f3e 3155 2ebe 9168 c43c 9456 16be
00000070: 9f3d 063e ce4d 05be 8707 053d 1013 843d
00000080: 5eec 153e 5d54 3d3c 0d2b 003e 0660 3dbd
00000090: a91d ecbd d3a5 d03d 007c 5a3e f2ca 50be
000000a0: 3b83 1bbe a25f e93d fc81 193d b433 a73d
000000b0: d74c 1e3e 32aa eb3d a680 4f3e b784 3d3e
000000c0: 8445 2c3e 8730 40be b9ad 483d 95ed 453e
000000d0: a999 37bd 1bd6 a53d 3a55 583e 146e d13d
000000e0: f4cd bd3d 9f2c 48bd d6d3 f13d 13a3 96bd
000000f0: b52b efbd 4f50 7cbd 8f76 583e 3a94 bfbd
00000100: b5b7 bfbd a7f2 243e 0dd9 3d3e 118b dbbc
00000110: b18a 353e 6d01 68be 831a ec3b 4bfa 1dbe
00000120: fabb 4d3e c468 07be 37a7 17be 3bc9 f8bd
00000130: dc98 843c 97a2 bdbd ec69 08be 7a4c 533e
00000140: 75ab 31be d7b1 4d3e ea23 463d 9bc0 18be
00000150: 465d b9bd 5b4c 5d3e 8509 b33d cb80 1dbe
00000160: 2e6e ce3c 7280 fbbd 8a66 31bd 1098 fe3d
00000170: e918 97bc 66c8 fcbd 088f 1e3e eb9a 29be
00000180: ebff e3bd 7df4 39be a521 47be 082b 76bd
00000190: a36f c8bd 2441 ea3d 3af7 54be 742e 523d
000001a0: dfa7 31be 246c d6bc c782 e1bd 8659 153e
000001b0: 80a2 13be 83da 93bd e13b 2a3e 287b 0abe
000001c0: a994 1c3e d11b d5bd 024b d6bd 6e98 d2bd
000001d0: a943 92bc 9199 dabd ca00 11be d9ba 283e
000001e0: 3378 c3bd 47d1 ecbb 4ad4 8bbd 1f84 aa3b
000001f0: 3760 39bd 25b9 483d adb8 92bd da5f aa3d
00000200: ace3 b53d 7e9c 22bd 593e 79bd 4acc d63c
00000210: b066 47be 3115 8bbd 2b5a 5dbe d7f2 8a3d
00000220: 4fc8 12be 33eb a9bd f146 203e 99a6 e33d
00000230: 40b9 033e aa5b e23d e2f0 fbbd e1dd 713d
00000240: 2725 1dbe 5815 24be db19 fa3c 5471 07be
00000250: 20cf 47bd 574c 1ebd 6851 1f3c bf6f 063e
00000260: 58d1 df3d e626 fcbd de51 103e c5db d53d
00000270: 80fd 053e a19c 18be a7cb 6cbd 8323 53be
00000280: 4475 42bd 1ff1 8dbd d25c 4d3e 96e3 513e
00000290: bab7 423e 1657 b8bd 00c6 3fbb 0ca2 61be
000002a0: 5b3f 12bd e193 fa3b 66e7 3b3e 21e3 3a3e
000002b0: 337d 8abd 395b 4b3e e41d 9a3d ac43 a3bd
000002c0: f1ca 3abe 97db f13d f9f5 35be bb69 a73d
000002d0: 069d d9bd 00fc b6bb c8b5 0abe d524 883d
000002e0: 2b81 44be 59ff 71bd 9e50 db3b 72ba cbbd
000002f0: 7e2e 4bbe 9321 3bbe 2b1e 51be a1c8 693e
00000300: da5a 3ebe da19 9cbc 6d06 e73d 9ba5 23be
00000310: a505 583e 044e 053e 0647 393d e060 b43c
00000320: 1216 403e ab89 4bbd 128c 523e ce5f 01be
00000330: 0fc4 483c fd16 b5bd 70f6 1dbe d246 36be
00000340: 485d 873d f085 303e cca9 83bc 87bc bebd
00000350: 9879 143d 65ec a33d 51db 01bd 375f 4bbe
00000360: 7239 523a f5f3 a43d 9e02 0e3e 2c59 253c
00000370: 76f2 f7bd 2004 23be 5b42 1fbe d885 bebd
00000380: 5c7a 4e3e dd94 debc 141a 4bbd 4db1 a43d
00000390: 5e91 f53d cc0b 90bd e377 27be 6e53 1a3b
000003a0: 04bd d43d c19a 133e bb0e 3cbe cfbe 8b3d
000003b0: bc56 7f3d 235a 303d 2079 c3bd c275 293e
000003c0: 0e14 3bbe 9005 4abe 1c8e ba3c 0353 1e3e
000003d0: ad99 3e3d 5b1a a1bd bced 333e 43b7 f83d
000003e0: 0497 af3c 3f4f 14bc e252 1dbe 4fef 9c3c
000003f0: c092 eebd b90a 22bd e41f 1bbe f933 be3d
