finalhybrid/experiments/experiment_20251104_232429/checkpoint_epoch_25.pth (torch, 662928 bytes, 50 tensors)

gcn_layers.0.bias f4 [64]
00000000: f6b7 10bc 81c2 13bc 0000 0000 0eb6 edbb
00000010: 0000 0000 176c 6d3c 0000 0000 3cac 92bb
00000020: 40f1 8abc 5b92 1539 0000 0000 0000 0000
00000030: 4153 653c 8f36 ffbb 0000 0000 0b88 8dbc
00000040: 0000 0000 657d f13b 3cdc dd3b 548a f43b
00000050: ef77 0fbc 2446 343c 7ed5 a53c cb75 64bc
00000060: ec77 36bc 3d16 adbc 0000 0000 3366 07bc
00000070: 0000 0000 ac2d 133c fce1 ed39 cee2 93bb
00000080: 0000 0000 0000 0000 78e8 c83b dacb 073c
00000090: f68c 55bc 61fb b4bb 4116 6bbc 0000 0000
000000a0: 0000 0000 c2c4 d439 faf9 72ba 0000 0000
000000b0: c848 0dbc ac20 8d3c 0000 0000 ea2d c13b
000000c0: 9ef1 d83b 116b 95bb d82a 773a 0000 0000
000000d0: 0000 0000 231c dfbb 0000 0000 0000 0000
000000e0: 022e 783c 0000 0000 0000 0000 0000 0000
000000f0: a34e 373b 0000 0000 f1c5 1ebc 003f 213c
-0.008832922 -0.009018541 0.0 -0.0072543686 0.0 0.014491103 0.0 -0.0044760983
-0.01696074 0.00014264269 0.0 0.0 0.0139969 -0.0077884863 0.0 -0.017276784
0.0 0.0073696845 0.0067706387 0.007462779 -0.008756622 0.011003051 0.020243403 -0.0139441
-0.01113699 -0.021128768 0.0 -0.008264112 0.0 0.008983057 0.00045372534 -0.004513121
0.0 0.0 0.006131228 0.008288348 -0.013034096 -0.0055231308 -0.014348567 0.0
0.0 0.00040582387 -0.0009268817 0.0 -0.008623309 0.017227493 0.0 0.005895366
0.0066206 -0.0045598825 0.00094286865 0.0 0.0 -0.006808774 0.0 0.0
0.015147688 0.0 0.0 0.0 0.0027970455 0.0 -0.009690748 0.0098416805

gcn_layers.0.lin.weight f4 [64, 36]
00000000: ba39 2dbe 6e20 a73c 2a23 bcbc 8195 74be
00000010: 2af9 2f3d 29c5 35be a0f9 91bd 22f6 4abe
00000020: 9ad9 31bc cfa1 55be 0af2 2ebe e9a7 79be
00000030: 1269 e13d 4d24 383e 3341 76be 71a7 1f3e
00000040: 1d30 61be 4d42 453e 004d a1bb 7c50 563d
00000050: 3a5b e23d d5a8 52be 5de2 653e 98f8 203e
00000060: ca2b 153e cd29 003e e71b d7bd 128f 5f3e
00000070: c08e adbb 67b5 71be 9eb4 453e 8161 5a3e
00000080: 889a 53be 7d4e 53be 2685 803d e47c d8bd
00000090: bad0 02bd 929b 8abe dfa6 9bbd fedb 0dbe
000000a0: 2f1c 47be 1416 5d3d 10b2 ac3c 3250 0fbe
000000b0: 1de7 7ebe 9671 88bd 0a63 ae3d a00a 06be
000000c0: 3939 43be 6d08 283e 3c08 f5bd 7d4a 313e
000000d0: e009 e8bb 2402 5cbe bf4b 183e 23f5 2f3e
000000e0: 18d1 67be af06 95bd 2025 9ebb 8fc6 b5bd
000000f0: f739 523e 98a8 75bd c635 8ebb 4975 8cbe
00000100: 44bd 6f3e 0184 503e 2cce b73c 74d9 143d
00000110: b0ab 233c 2c29 713e 7059 2e3e c97c 263e
00000120: 5b4e 323e 4006 66bd 588b e23c 01bc 30be
00000130: f6dc 59be f054 e9bd e411 e1bd e694 843d
00000140: 3a57 973d 97ab 093e 0030 97b8 4802 a8bc
00000150: 2181 023e 4c24 4f3d 1850 c43c 8c96 2c3d
00000160: 30c5 37be 3c22 6b3d fea0 73be aaf7 de3d
00000170: 80cd 38bb d54d 52be 8222 f1bd 567c 13be
00000180: 6696 bf3d 6711 07be 8c7d 28be f816 fdbc
00000190: 4759 593e 0e3f 75be d44e 43be e322 043e
000001a0: a82b 1dbe b415 a4bd c6f0 f3bd 49bd 023e
000001b0: f265 03bd 6ba0 08be d1c1 6d3e c557 97bd
000001c0: 7af3 223e af0b 26bc 0c4e 1bbd 1469 21bd
000001d0: 9107 22be 469a ffbd 7a89 47be 5fd9 4a3e
000001e0: 3dc4 283e 6873 dbbc 09f6 683e 1e2a b0bd
000001f0: 6cbd a1bd a492 543d 032e 71be 6a90 2fbe
00000200: 672c 613e 8c52 5bbe 7869 10be 5095 6dbe
00000210: 6892 8bbd d866 b4bd 6db5 3d3d 1146 0f3e
00000220: 4894 383e d549 0c3e 5da1 943d a520 08be
00000230: 2404 6d3d 63e0 2fbe f5bf 66be 622f 583e
00000240: af66 223e bfa4 00be a3fa 343e d43e 013d
00000250: 21c1 67be 18aa 8fbc c018 d8bc 8f90 163e
00000260: 8020 f43a a44f 58bd e212 f2bd 780e 01bd
00000270: 3c88 8cbd 18d1 38be 9897 05bd a1db 42be
00000280: 8ca5 273d e9cd 3a3e 5e9d 3cbe 9b7d 393e
00000290: 2d9e 5e3e 2f95 46be 7839 903c b8c5 5dbd
000002a0: c2f3 fe3d fb02 1c3e a607 42be 46bc babd
000002b0: 6620 32be e02e 48be 6854 79bd b57c 79be
000002c0: 26bc 4abe 2483 0f3d aa27 76be f5a2 223e
000002d0: 15bb 79bc f4e1 f3bd d1b0 4c3e 7581 f8bd
000002e0: 1ec2 503e befb db3d 8b6c 3d3e 0033 fbba
000002f0: 6248 32bd 5b45 273e 3844 10be c22b 1cbe
00000300: 0e83 a9bd 9aa1 65be b045 0e3c b2a3 dabd
00000310: 9445 40be 9e2e e3bd 7ecc e63d da8a 1bbe
00000320: 3e61 a7bd 42d0 e33d b616 e73d 10f4 1f3e
00000330: a7d0 3b3e 0fe9 213e 23e5 ba3d 318c 253d
00000340: cde5 5d3e d38a 82bd 87e8 453e 1131 123e
00000350: 544b 48bd 275c 813e 15e4 7d3d 0497 bbbd
00000360: f518 0abe 4670 b53d 267a e1bd bde5 273e
00000370: b8f0 6ebd b68c a43d ed05 6b3e 6c52 2bbd
00000380: ed59 66be fd58 2fbe 8848 923c 4889 6cbe
00000390: 9d4a 453e 5a8c 1abe d716 093e 45b2 623e
000003a0: d300 2e3e 4f87 3f3e 5fb7 54be d8fb f13c
000003b0: 738f 053e c67d d33d 4650 02be 7211 963d
000003c0: a296 12be eb99 1a3e 383b b7bd 2b35 2b3e
000003d0: 62f3 e0bd 1e38 61be bd8d 1cbe 667e ab3d
000003e0: 656c 30be 5a00 3abe c8fb 17be c0f1 f2bb
000003f0: 289d 45be cae3 65be 211b 3a3d 09d8 aa3d
-0.16916552 0.020401206 -0.022965986 -0.23885156 0.04296223 -0.17750992 -0.0712769 -0.19820455
-0.010855103 -0.20862506 -0.17084518 -0.24380459 0.11006369 0.17982598 -0.24048309 0.15591218
-0.2199101 0.19263573 -0.004922509 0.05232285 0.11052556 -0.20572217 0.22449632 0.15719831
0.14567485 0.12515946 -0.10503369 0.2183192 -0.005296558 -0.23604356 0.19307181 0.21326257
-0.20664418 -0.2063541 0.06275396 -0.10570696 -0.03193734 -0.27071816 -0.076001875 -0.13853452
-0.19444345 0.053976133 0.021081 -0.13995436 -0.2489285 -0.0666229 0.08514984 -0.1308999
-0.19064797 0.16409464 -0.11964461 0.17313571 -0.0070812553 -0.21485192 0.14872645 0.17183356
-0.22638357 -0.072766654 -0.004826203 -0.08875763 0.20529924 -0.059975237 -0.0043399064 -0.2743323
0.23412043 0.20362855 0.022437178 0.036340192 0.009989664 0.23550862 0.17026305 0.1625854
0.17412703 -0.056158304 0.027654335 -0.17259218 -0.21275696 -0.11393154 -0.109897405 0.064737126
0.07389684 0.13444363 -7.209182e-05 -0.0205089 0.12744571 0.050571725 0.023963973 0.04213576
-0.17946315 0.057405695 -0.23791882 0.10887082 -0.002819866 -0.20537503 -0.1177416 -0.14402899
0.09354858 -0.13190232 -0.16454142 -0.030894741 0.21225463 -0.23949835 -0.1907304 0.12903933
-0.15348685 -0.08011952 -0.11911158 0.12767519 -0.032079645 -0.13342445 0.23218466 -0.073897876
0.15913191 -0.0101346215 -0.03791623 -0.03940685 -0.15823199 -0.12480597 -0.19486037 0.19809483
0.16481109 -0.026788428 0.22750105 -0.08601783 -0.078974575 0.05189766 -0.23552708 -0.17144933
0.21989594 -0.21418208 -0.14102733 -0.2320149 -0.06815034 -0.088086784 0.0463156 0.13991572
0.18025315 0.1370004 0.0725734 -0.13293703 0.057865277 -0.1717544 -0.22534163 0.21111825
0.15859483 -0.12562846 0.17673735 0.03155406 -0.22632267 -0.017537162 -0.02637899 0.14703582
0.0018625408 -0.052810326 -0.11820008 -0.03150794 -0.06861922 -0.18048513 -0.032615274 -0.19029094
0.040929362 0.18242611 -0.18419406 0.18114321 0.21740027 -0.19392847 0.017605528 -0.054143637
0.12448837 0.15235512 -0.1894823 -0.091179416 -0.17395172 -0.19549131 -0.06087151 -0.24363978
-0.19798335 0.035037175 -0.24038568 0.15882476 -0.015242358 -0.119083315 0.19989325 -0.12134067
0.2038655 0.107413754 0.18498437 -0.001916498 -0.04352606 0.16335051 -0.14088523 -0.15251067
-0.0827695 -0.22424927 0.008683607 -0.10675754 -0.18776542 -0.11092876 0.112694725 -0.15189686
-0.08172844 0.111237064 0.11283629 0.15620446 0.18341313 0.15811561 0.091257356 0.0404169
0.21669693 -0.06374135 0.19326983 0.1427653 -0.048899963 0.2526562 0.061985094 -0.09159663
-0.13486083 0.08859305 -0.11009626 0.16396232 -0.058335036 0.08034651 0.2295148 -0.04182665
-0.22495241 -0.1712379 0.017856851 -0.23099244 0.19266744 -0.15092602 0.13387619 0.22138317
0.16992502 0.1870396 -0.20773076 0.029539034 0.13043003 0.10326724 -0.12725934 0.07327546
-0.14315274 0.15097778 -0.08946842 0.167195 -0.109839216 -0.21994063 -0.15288444 0.08373718
-0.17228849 -0.18164197 -0.1484214 -0.0074140728 -0.19298232 -0.22450176 0.04543603 0.08341987

gcn_layers.1.bias f4 [128]
00000000: dd14 893c 4215 283c 0612 3abc 4cd7 07bc
00000010: d303 b2bb c6c1 96bb 7b31 f2bb 0000 0000
00000020: 474f 64bc fc5a 303c bef9 483c 273e ca3a
00000030: 5017 12bc 7bdd 6c39 b3ff 253c 126c 273c
00000040: 5acf a9bc 0386 043c b0ff adba ca2a d3bb
00000050: 8715 db3b ee3a 71bb a27c 04bc aaa6 7ebb
00000060: 0a08 77bb cbce 48bc 55e7 e03b 63eb 873b
00000070: 8308 edbb bf6f dfbb 7603 f4ba f43d 7abc
00000080: 2cc9 56bb 0c98 2a3a a91e 933b a92a 553b
00000090: 3481 4abc 1ec8 a1bc 60dd 653c 384c fb3b
000000a0: eb82 163b 06fc 7dbb 2a2b 3dbc e0aa fbb6
000000b0: b801 d6bb 9795 fab9 2adb c0ba ac8d bbbb
000000c0: 0000 0000 d557 03bc 9fdd b23b a1cd cbba
000000d0: 4fa0 1abb 906e 60bc 0000 0000 d2ae 333a
000000e0: 0000 0000 a05e a1bb e6e7 59bc 96d0 3fbb
000000f0: ace1 a73b c38c d5bb fc79 033c 5e36 3abc
00000100: 89b6 a63c ec10 a839 d9b9 8c3c 05e9 c13c
00000110: 2f12 743b f4d6 4d3a b085 02bc 7e83 cb3b
00000120: 793a 39bb dcea 08bc f108 593b ded6 a33c
00000130: c672 62bc 9838 97bb eab4 88bb aa5b 3cbc
00000140: b669 6ebb 40e2 a2bb 5a75 113c 383a 10bc
00000150: 626b 03bc 3236 573c d046 c13b d9f9 943c
00000160: db62 4839 2108 9ebc 2aa8 c4bb 883d b3bb
00000170: 9058 c53b cb7f 6fba 87a7 bcbb 7204 9cbb
00000180: f24f 363b 5f6e d53b 365e 113c 1277 643c
00000190: 62e1 603c 936d da3b aa3e db3c 9fad 9eba
000001a0: 794c 98bc f819 6a3a deb7 d3bb 1bb5 2ebc
000001b0: 8121 4bbc d964 53bc 9280 383b ee2d 0b3c
000001c0: ddc1 85bb 47cb 7abc c023 6cbc b0a3 9ebc
000001d0: f7e0 623a 5622 af3b adde a63b 67f9 a3bb
000001e0: 11e2 0a3c 6531 963b a270 2a3c 7e4b 14bc
000001f0: 18e8 723b 59d0 2ebc 8c20 68ba f849 a7b7
0.016733581 0.0102589745 -0.011356836 -0.008291077 -0.005432585 -0.0046007363 -0.0073911524 0.0
-0.013934917 0.01076388 0.012266574 0.00154299 -0.008916691 0.00022589222 0.010131764 0.010218637
-0.020728756 0.0080885915 -0.0013275053 -0.00644431 0.006685916 -0.0036808806 -0.008086355 -0.0038856664
-0.0037694 -0.012256335 0.0068635144 0.0041479333 -0.0072336807 -0.006818741 -0.0018616754 -0.01527356
-0.0032773716 0.0006507642 0.004489739 0.0032526648 -0.012359906 -0.019748744 0.014029831 0.007668998
0.0022966217 -0.0038754954 -0.011545936 -7.5002754e-06 -0.0065309666 -0.0004779517 -0.0014713753 -0.0057236757
0.0 -0.008016546 0.005458548 -0.0015548953 -0.0023594087 -0.013698235 0.0 0.00068543584
0.0 -0.0049246103 -0.013299918 -0.0029268614 0.0051233377 -0.0065170242 0.008024689 -0.011365501
0.020350711 0.00032056065 0.017178463 0.023670683 0.0037242284 0.000785216 -0.007966444 0.0062107434
-0.0028263612 -0.008356776 0.0033116902 0.019999918 -0.013821309 -0.004614901 -0.0041719573 -0.011496464
-0.0036378927 -0.0049708188 0.008878076 -0.008802943 -0.0080212075 0.01313548 0.005898334 0.018185543
0.00019110313 -0.019290986 -0.006001492 -0.0054699816 0.0060225204 -0.0009136169 -0.0057572755 -0.004761272
0.0027818647 0.0065134014 0.008872559 0.013944404 0.01372561 0.0066658943 0.026763279 -0.0012106186
-0.018591153 0.0008930261 -0.0064611277 -0.010663296 -0.012398125 -0.012902462 0.0028152806 0.008494837
-0.004081948 -0.015307254 -0.01441282 -0.019365162 0.0008654738 0.0053446693 0.005092463 -0.0050040963
0.00847675 0.004583525 0.01040283 -0.009051202 0.0037064608 -0.010669791 -0.00088549475 -1.9942396e-05

gcn_layers.1.lin.weight f4 [128, 64]
00000000: ccbe ecbd 31eb 3fbd 5fac 343e 62ce 273d
00000010: 071a c4bd b70b 3d3c f80e 9abd d422 20bc
00000020: 8191 1dbe 8b2d 013d 059e 85bd c85c 303e
00000030: 9bdf 5c3e d793 34be bb7f 10be 78bb d3bd
00000040: c820 80bd f38a 2a3e 0cc3 473e 92d4 13be
00000050: 002a 303d 42c2 033e c4c7 ccbc b368 363e
00000060: 7181 c3bd ade6 f93d 2568 2e3e 5b5d b4bc
00000070: 322d 983d ea57 b33d de7a ae3d b88c ddbd
00000080: 5b0e e8bd c16d 123e 4dac 8a3d d284 db3d
00000090: 621c 333e 09d6 063e 873b f3bd 6a63 22be
000000a0: 132e 95bd 70aa 453d 2486 5c3d a238 533c
000000b0: ef50 79bd e217 0fbe b89f 283e 1126 00be
000000c0: 1c07 2c3e 281e 8e3d 4cc9 d1bd 28ed 933c
000000d0: 09aa 853d 21a8 263d e753 52bc 30fc 55bd
000000e0: 2745 a7bd 00c0 d23a 5eec eb3d b9f4 943d
000000f0: 800e 53bd 1ee7 ef3d 2994 06be 022b e3bc
00000100: 3a6e 85bd fc37 99bd 89e2 c0bd 50e1 28be
00000110: 9046 bdbd 20b7 babd cb45 d5bd d8b7 243e
00000120: 6f34 f03d 7f12 193e 75f1 af3c 8ff3 dc3d
00000130: 47a8 bfbd c169 ddbd 14a2 783d b68c a4bd
00000140: bd2d 09bd 58c3 e6bd 1ad0 d2bd b2a1 babd
00000150: c512 cf3c db05 08bd 0328 afbc e3b9 c3bd
00000160: fa96 393b 5a01 e9bb b8e6 f03c 6ea3 8b3d
00000170: 3395 d23d 5c0c 1e3e 2122 0f3e 068d 3e3e
00000180: 3d8e abbc a119 213e 1dce 37be 320d 1e3e
00000190: 0eba 92bd 3748 8c3d d789 523d 984a f1bc
000001a0: 3160 02be 24b4 29be f703 333e 4006 233e
000001b0: f203 1ebe 0ddb dd3d 7fe2 06be 00ae 253e
000001c0: e05f abbc 48fe d0bd 7e5a 063e 26cc e63c
000001d0: cfa4 513d 9e2e 033e c9ad cebd ff81 e4bd
000001e0: 2b34 24be fab1 21be b99a c53b 2cfd 83bd
000001f0: c90a 5fbc 5462 c8bd 775c 06be b778 9d3b
00000200: cd5a c93d cbc1 1d3e 7734 e8bd 992a 00be
00000210: ec3d 1dbe aa4f ab3d 334e dabd 7c23 2abe
00000220: 9b63 e3bd 2f9e 6e3d 6aff 823d 5513 323d
00000230: 6b4e 50be e448 d63d 2034 b63d c8de 1f3e
00000240: dc90 8b3d 09cf 55bd cfba 2abe 34bc 39be
00000250: 718d bc3d 07a4 943d c6af d4bd 30d4 c03d
00000260: 9a04 cc3d bf60 d13d 276b 80bd 6945 56bd
00000270: 003c d33c 71d3 fa3c dc32 ff3d 21c9 693d
00000280: 67ad 9fbd 0b1a 1e3e 25ce c63d feae 18be
00000290: 2a40 b13c 741f 38be 7e73 ec3c 8c90 483d
000002a0: a28d d73d 703d f53d 3782 6fbd 1344 b23d
000002b0: 02c8 cb3b d042 363d a910 ddbd 1f4f 9c3b
000002c0: d5b4 a33d 232f a2bc 5f44 293d 2150 c93d
000002d0: 34eb f43d 7a5c a13d b5de 19be 09a7 113e
000002e0: fe84 7abd 0d48 013e 1796 1c3e 321b 58bc
000002f0: 6059 24bd 6f51 fabd 6b56 923d dd5d 31bb
00000300: aad5 d5bd 1471 93bd 4ebc 99bd a308 fd3d
00000310: 4216 bcbd cc5e 443d 65d8 1c3e 19f0 13be
00000320: 878b 38be 9007 733d ae47 973d 636e 86bb
00000330: 81c8 f7bc 79bd 6c3d 63e5 21be 53b7 c2bd
00000340: 5bac 22be 1dfb 833d a0cf 3ebe 779c 293e
00000350: 4b98 a13d a852 94bd 9184 8d3d 5e78 1a3e
00000360: 9a3c acbd c72d a13d 7821 bdbd 2edc 233e
00000370: 0506 773d 789e 933b ae93 483d 650f b8bb
00000380: 260a 2c3c b0d0 813c a2c0 8fbd 4a3e ebbd
00000390: 97d3 a0bd 2e58 51bd 798f 083e fe48 6abd
000003a0: 3bbc 90bd 00b0 c5bd 4931 4ebd f836 03be
000003b0: 5327 1c3d 9905 163d 3c73 9e3b fc43 f9bc
000003c0: 294e 023d 0c15 13be c616 ecbc 0be1 3e3e
000003d0: 5c67 91bd 2cc1 32be b2c0 0b3d 3c52 063e
000003e0: ed97 a7bd 17df bcbd b631 123e f129 24bd
000003f0: 9531 afbc 6cd2 4e3d 3d23 35bd 2d77 b83c
-0.11559829 -0.046855155 0.1764388 0.040968306 -0.09575277 0.011538438 -0.07522386 -0.009773929
-0.15387537 0.031537574 -0.065242805 0.17222893 0.21569674 -0.17634521 -0.14111225 -0.10338491
-0.062562525 0.16654567 0.19507998 -0.14436558 0.043008804 0.12867072 -0.0249976 0.17813377
-0.09546173 0.12202201 0.17031915 -0.022017172 0.07430495 0.08757003 0.08519529 -0.108178556
-0.11330863 0.1429968 0.06771145 0.10718693 0.17491296 0.13167585 -0.11876588 -0.15858236
-0.072841786 0.048258245 0.053838864 0.01289192 -0.0608682 -0.13973954 0.16467178 -0.12514521
0.16799587 0.069393456 -0.102434725 0.01805742 0.06526572 0.040687684 -0.012837387 -0.052242458
-0.08167487 0.0016078949 0.11519693 0.0727324 -0.0515275 0.11714004 -0.13142456 -0.027730469
-0.06515165 -0.07481381 -0.09418208 -0.164922 -0.09241974 -0.091169596 -0.104137026 0.16085756
0.11728751 0.14948462 0.02147744 0.107886426 -0.09358268 -0.108111866 0.060701445 -0.08034651
-0.033490885 -0.112677276 -0.102935985 -0.09112872 0.025277505 -0.03320871 -0.021381384 -0.095569395
0.0028318749 -0.007110757 0.02940689 0.06818281 0.10282364 0.15434402 0.13977863 0.18608484
-0.020941848 0.15732433 -0.1794972 0.15434721 -0.07164393 0.068497114 0.051400986 -0.029454514
-0.12732007 -0.16572624 0.17481981 0.15920353 -0.15431193 0.10832796 -0.13172339 0.16179657
-0.02091974 -0.1020475 0.13120458 0.028173517 0.051182564 0.12810752 -0.10091741 -0.11157607
-0.16035526 -0.15790549 0.0060304073 -0.06444773 -0.013613411 -0.097843796 -0.1312121 0.00480565
0.09831772 0.15405957 -0.11338132 -0.1251625 -0.15355653 0.08364804 -0.106594466 -0.16615099
-0.111029826 0.058256324 0.063963726 0.043475468 -0.20342414 0.104631215 0.08896661 0.15612328
0.06814739 -0.052199397 -0.16672824 -0.181382 0.09206665 0.07257848 -0.103850886 0.094154716
0.09961815 0.10223531 -0.06270438 -0.05231229 0.025785446 0.030618401 0.124608725 0.057076577
-0.07796746 0.15439622 0.09707288 -0.14910504 0.021637041 -0.17980748 0.028863665 0.048965976
0.10525061 0.11974609 -0.058473792 0.087043904 0.006218911 0.04449731 -0.10794193 0.004770174
0.07993475 -0.019797867 0.04132497 0.098297365 0.11958924 0.07878967 -0.15026362 0.14223875
-0.061161987 0.12625141 0.1529163 -0.013190078 -0.040124297 -0.122225635 0.07145389 -0.0027064004
-0.10441144 -0.07199302 -0.075066194 0.12355163 -0.09183933 0.047941968 0.15316923 -0.14447059
-0.18021975 0.059333384 0.07386719 -0.0041025146 -0.030246975 0.057797883 -0.1581016 -0.095076226
-0.15886061 0.064443804 -0.1863389 0.16563593 0.07890376 -0.07242328 0.06910051 0.15084979
-0.08409996 0.078700595 -0.09234899 0.1600196 0.060308475 0.004504975 0.048968963 -0.0056170695
0.010500466 0.01584658 -0.07019164 -0.1148649 -0.078528576 -0.051109485 0.1333598 -0.057198517
-0.07067152 -0.0965271 -0.05033997 -0.12813938 0.03812344 0.036626432 0.0048355144 -0.030427925
0.03181282 -0.14363497 -0.028819453 0.18640535 -0.07099792 -0.17456502 0.034119315 0.13117307
-0.081832744 -0.092222385 0.14276776 -0.04007906 -0.021385947 0.050493643 -0.04422306 0.022517765

gat_layers.0.att_src f4 [1, 4, 64]
00000000: 2463 2c3d 8d3c 57bd 56fc 8f3e 1297 22be
00000010: da47 9abe 6e3c 753e eaf3 65bd a40c e93c
00000020: abab 0e3e 8726 f73b 96ad 83be c13b 04be
00000030: 9d6b 2f3e 70f5 ec3c 86e7 943e 6507 243e
00000040: 9595 433e 1c5d bd3d 51e1 553e 2b37 813e
00000050: 4c58 6a3d 2248 3dbc 7210 20be 1b1c afbd
00000060: 43c1 953e 1174 e6bd 94a1 35be fec3 15be
00000070: 0717 2f3e 530b 26be e417 20be 9e0a 4bbe
00000080: ed9f 7e3d 7579 403e 5fab 3d3e fa8e 253e
00000090: 560d 8fbe d37f 17be e972 853e 34cb fb3d
000000a0: a05c 423e 9407 94be ee63 35be 916b 013e
000000b0: fb7b 9cbe 66fb 4b3e 74c6 913d da74 62be
000000c0: 111c 76be af96 ea3d 4e1d 5d3e ffab 30be
000000d0: c9ea f4bd 2340 47be 80df 583e 49bd 753e
000000e0: 4e1e 6c3e 7044 26bd 4177 ab3d d597 f2bd
000000f0: eb1d 60be f091 2c3e 830d 39be 0ee4 243d
00000100: aecf 4f3e b609 8c3e 7089 723e 9697 1c3e
00000110: a131 943a 2966 85be d2f5 3fbe fcba 7b3d
00000120: 21e4 7b3e 3723 50be 0d02 813d 8268 ae3d
00000130: 3592 cdbc daeb 06be 3ba9 853e 87aa 60bd
00000140: b4a0 833e 486b 943e ff55 99bc d5c8 1fbe
00000150: 1cb1 6a3e 427c b5bd ff03 b1bc e518 54bc
00000160: 294d 28be 346f 2cbe dd86 693e fb58 c0bd
00000170: 61e5 dbbd dddc d4bd 4aef 953e ab71 823e
00000180: 76ac 16bd 2ae6 8ebe d4a0 6c3e 4b78 01bd
00000190: 3a42 82bd 5505 3b3e d89a 943d 7e81 d53d
000001a0: 6bdd cc3c 8111 493d fdb8 963e 43aa fb3d
000001b0: 92e8 4abd d550 3e3d 4b55 70be cc4b 7dbd
000001c0: d148 c73d 99f9 013e 2519 433e 051d 62be
000001d0: 1dc8 fe3d 91b8 933e f581 213e 1810 873b
000001e0: 657c 69be 09e4 cd3d 7e73 46bd e87e eebd
000001f0: 8373 5b3e 0067 143e 71cc 9abd 6c20 713e
00000200: e7a6 9dbe 8ea4 5ebe 9b39 04bd 1099 0d3e
00000210: 4c83 75be 9776 09be ad51 2abe 9fcd 943d
00000220: 78d4 553e 9db8 063e 6020 2ebe 0da2 8d3e
00000230: c558 61bd d3a0 4d3e 2c58 5c3e a4ea ac3d
00000240: 11be 713d 351e b93d 15e5 7abe 7eb1 2cbe
00000250: 21b8 8fbe cd44 68bd 1324 f23d 5d07 82be
00000260: 0a7e 74bc 9fac 103e 3db4 113e 46ce 43be
00000270: 16ad e3bd f0f5 803c e174 5dbe 978e 393d
00000280: d27c 6cbe 0245 343d 0cb5 893e ea18 86be
00000290: 5ef0 25be 5fab 17be bc14 c2bd 6665 173e
000002a0: 268a 4ebe 238c 753e 43bd 713e bafa 9abc
000002b0: 299b 673e 22dc cebd 8549 4dbe 32aa 0a3e
000002c0: 0dd0 89bd 35c4 9cbd e086 fcbd 8a67 8fbe
000002d0: 6556 75be 9462 4b3d 37b3 883d a104 25be
000002e0: f8de 9abd 3e84 6f3e 5853 073e 2505 243e
000002f0: dbb0 8f3e 5741 73be c37e 81be d765 553e
00000300: 1b6b 38be bf7c 903e 34a8 33be b78e 34be
00000310: 246d 543e 4d21 883e 89b8 8abe 0e8f 0f3e
00000320: 2d20 183e c2a4 ccbd b077 0a3e a3ab 9a3d
00000330: c91b 1fbd 9686 e7bd 06c1 56be ef36 773e
00000340: 3955 7d3e 5863 05be 871e 3c3c 3bbf 893d
00000350: be99 563c 727f 19bd b7d2 433e 74ed 3fbe
00000360: f057 903e cf4c 803e cc59 14bc cb8e 373e
00000370: 3f76 60bd 7191 873e 2f47 8c3e b092 9ebd
00000380: 7348 18bd 6f56 8e3d fe4d 97be c73f fb3c
00000390: f800 15be 0ade abbc 3a4b 6abe 3c22 903e
000003a0: 87dd 0fbe 163e 5c3e 9fc3 a1bd 7e72 4f3e
000003b0: 5177 fa3d 242b 62be cc62 3ebe 240b d3bd
000003c0: 9ab9 1ebe 6a28 7dbe 7f66 27bd 0b8a 64be
000003d0: 01fb 7a3e ce4b 253e b6d6 25be 228b 8abd
000003e0: 86aa 09be 6e40 aabc 4ef1 f9bd 74b9 e4bd
000003f0: 9966 a63d 01f3 79be 8273 48be 407d 5c3e
0.042086735 -0.05254798 0.28122205 -0.15877941 -0.30132943 0.23948833 -0.056140818 0.02844841
0.13932674 0.0075424346 -0.25718373 -0.1291342 0.17130895 0.028925627 0.29082888 0.16018446
0.1910003 0.09246275 0.20886733 0.25237402 0.057213113 -0.011552842 -0.15631273 -0.085502826
0.2924901 -0.11252607 -0.17737418 -0.14625546 0.17098628 -0.16215257 -0.15634114 -0.19828269
0.062164236 0.18796332 0.18522404 0.16167822 -0.27939862 -0.14794855 0.26064232 0.12294617
0.18980646 -0.28912032 -0.17713901 0.1263869 -0.3056334 0.1992012 0.0711793 -0.22114888
-0.24034144 0.11454522 0.2159321 -0.17253111 -0.11958844 -0.1945806 0.21179008 0.23997988
0.23058435 -0.04059261 0.08372355 -0.11845366 -0.21886413 0.16852546 -0.1807156 0.040256552
0.20294067 0.2735116 0.23685241 0.152922 0.0011306294 -0.26054505 -0.18746117 0.06145762
0.24598743 -0.20325933 0.06299219 0.08516027 -0.025094131 -0.13175908 0.26105675 -0.054850128
0.25708544 0.289881 -0.018717764 -0.15603955 0.22919124 -0.08861591 -0.02160835 -0.012945388
-0.16435684 -0.16839296 0.22805353 -0.09391972 -0.1073711 -0.10393689 0.29284126 0.25477347
-0.036785565 -0.27909976 0.23108226 -0.03160886 -0.06360288 0.18263753 0.072560966 0.10425089
0.025007924 0.04908896 0.2943801 0.12288334 -0.049538203 0.046463806 -0.23470037 -0.061839864
0.097306855 0.1269287 0.1905256 -0.22081383 0.12440512 0.2885175 0.15772231 0.0041217916
-0.22801359 0.1005326 -0.048449986 -0.11645299 0.21430783 0.14492416 -0.07558525 0.23547524
-0.307914 -0.2174246 -0.0322815 0.1382792 -0.23975867 -0.13424145 -0.1663272 0.072657816
0.20881832 0.13156362 -0.17004538 0.27662697 -0.055016298 0.20080881 0.2151801 0.08443192
0.059019152 0.09038965 -0.2450145 -0.16864583 -0.28070167 -0.05670624 0.11823287 -0.25396243
-0.014922628 0.1412835 0.14228912 -0.19121656 -0.11116998 0.015742272 -0.21626617 0.045302
-0.2309449 0.044011123 0.2689594 -0.26190883 -0.16204974 -0.14811467 -0.09476611 0.14784774
-0.20169887 0.23979239 0.23607354 -0.018918384 0.22617783 -0.10100581 -0.20047577 0.13541487
-0.06729136 -0.07654611 -0.12330413 -0.28008682 -0.23958738 0.04965456 0.066748075 -0.16115047
-0.07562059 0.2339029 0.13215387 0.16017587 0.28064618 -0.23755394 -0.25292024 0.2083963
-0.18009607 0.28220174 -0.17544633 -0.17632566 0.20744759 0.26587906 -0.27093914 0.14019415
0.14856024 -0.099923626 0.1352222 0.07552268 -0.038844857 -0.11304967 -0.2097207 0.24142049
0.24739541 -0.13026178 0.011481888 0.067259274 0.013098178 -0.037475057 0.1912335 -0.18742925
0.2819209 0.250586 -0.009054612 0.17925565 -0.05480027 0.2647815 0.2739806 -0.07742822
-0.037178468 0.0695008 -0.2955169 0.03067006 -0.14551151 -0.0209799 -0.22880259 0.2815112
-0.1404935 0.21508059 -0.0789864 0.20258519 0.12229789 -0.2208677 -0.18592376 -0.10304859
-0.15500489 -0.24722448 -0.040869232 -0.22318284 0.24509813 0.16142198 -0.16195187 -0.06764819
-0.13443956 -0.020782676 -0.12204228 -0.11168185 0.08125038 -0.24409105 -0.19575313 0.21532154

gat_layers.0.att_dst f4 [1, 4, 64]
00000000: 5588 76be b74b b23d beaa f53d 2f91 3fbd
00000010: 9546 90be 0ede 263e de2c bbbd 4ee6 efbd
00000020: e65d f9bd 3c41 f03d 74e4 ddbd 7157 36be
00000030: f4e2 1ebe dc34 17be 3eea 343c f7b9 26be
00000040: 43cf 9a3d 5839 3b3e c1eb 8ebe dfad 92be
00000050: aae4 02be de23 a9bd 2cb9 00be 148d 27bd
00000060: 6b84 1fbe 3e57 683e 8519 0d3e da45 eebd
00000070: b42e 6e3e 583c ddbd e1dd 7abc 3f88 4f3e
00000080: 5b83 523e 50ea 283d a35a 103e 00b6 923d
00000090: ec6b 663e 194f 69bc 5ce5 3e3e 3c9c 81be
000000a0: 1e03 c93d 49d7 013d 01ec 4dbe 4af0 493e
000000b0: f78b 08be ac62 38be 1f33 6c3e 13b5 2fbd
000000c0: 2b05 4b3e 2e2c 123e 748b dd3d 13af de3d
000000d0: b5e7 e53c 04c2 b5bc ac97 573e c186 82bd
000000e0: f137 a7bd 5370 2dbe 2731 c13d 5965 893e
000000f0: ee69 6fbd ca1e 33be ee9d bfbc 4de5 5a3e
00000100: 44f2 87be d0fa 823d fd48 51bd a25e 923e
00000110: 77ce a13d 043c f5bd e7a2 d0bc b49b b13d
00000120: 3192 91be e7cb 2e3e 88e3 00bd 2455 dcbd
00000130: b938 053e 0c93 51be cd27 fcbc 3b97 3b3e
00000140: cc7d dcbd ac46 a2bd 8879 86be 9b65 833e
00000150: 794a 783e 2bcc 8d3e dfc1 7a3e 46e7 2c3e
00000160: 42b8 353e 9be5 373e 3e2e f8bd 7cb0 18be
00000170: a7a4 c0bc eb33 43be c32e cabd e204 203e
00000180: 7f9f 843e b668 86bc 87b2 433e e9ea d83b
00000190: 7f9f a73b 6bc6 16bd eaed 75be 7268 8f3e
000001a0: e8fc 343e 05e3 203e 1b47 933e d795 30be
000001b0: 7fb7 b53d 049b 893d a453 53be 356f 933e
000001c0: 0ca2 213e b742 d6bc f539 65be 432e b63d
000001d0: dd55 843e 76c8 703e 4d5f 3b3e 8482 323d
000001e0: 7c80 5cbe 1ee4 ab3d 1895 3abe ea0d a03d
000001f0: bfce 5ebe f11c 0a3d f3d5 18be 65d2 013e
00000200: cb74 0fbd a0d5 a93c 71a5 793d 6c66 9d3d
00000210: e2ef 633c 3e79 7a3d 8ca4 85be 159c e0bd
00000220: 25dc 5f3c cf97 f7bd 5a39 163e d63a b5ba
00000230: 1126 65be 8866 ae3d 2c84 0bbe 22d2 fa3d
00000240: f1a8 10be 3cc4 b2bd 1204 1f3d 70f7 543e
00000250: cbe9 843b 695f 8a3e 4a63 1abd 4bad 26be
00000260: 72d3 953e d5f9 e43d 2b17 403e b1a5 783e
00000270: ee1c 113e 76d1 af3d a6b6 353e 9c86 3d3d
00000280: 165b 68be c25a 64be 6018 333e 82fc 65bc
00000290: 5949 31be d885 91bd ec03 15be 893b 8e3e
000002a0: bfbf 093e e786 d13d ba0a 04be 4f55 933e
000002b0: 1ff3 673d d297 693e d20b 3dbd 8db8 91be
000002c0: 4d0a f73d f0d8 06be 7b1f 18be b33f 043d
000002d0: 5460 2e3e 3380 fdbd 8a1a 953d 927b 33be
000002e0: 63a4 50be 4dbf 663e 36a4 543d 4823 013e
000002f0: c97f 51bc 7577 07be 3247 ce3d b772 993e
00000300: 06bd 32bc 8ee3 a93d 63df 5fbe 767a 2d3e
00000310: 58d2 323e a119 813c ed2a 01be 3755 55be
00000320: 16db 7dbe 9688 043e 5135 09be 9ed9 99be
00000330: 51a2 113d a742 863e f1e1 5abe 9583 453d
00000340: 1a6f 67be 1109 47be b721 69bd a0f9 e93d
00000350: df41 c33d 799f 9abe df29 91be b05b 5fbd
00000360: 9ab0 843e f001 1b3d c1a5 e5bc 2cdd 8f3e
00000370: 57b5 563e 2068 143d d9b7 86be ae83 6fbe
00000380: 5973 3b3e 835a 9a3e 5004 08be 409b 42bd
00000390: 1097 9c3e 451f 40bd b4ca 82be c895 10be
000003a0: ef8b 64be 0f4a 003e e802 993c 8974 febc
000003b0: a0c1 243e a665 153e 3e0d 343e f282 15be
000003c0: d37a 413d c90a 853e cb77 b03c a69e 453e
000003d0: 8490 4d3e 276d 0f3c a8ce cf3a 99e1 4dbe
000003e0: e3a3 bdbd 727f 96bc 2194 fa3d 0730 12bc
000003f0: c398 463e e08d 813d 0662 a0bd 9743 23be
-0.24075444 0.08705848 0.11995457 -0.046769317 -0.2817885 0.16295645 -0.09139417 -0.11713849
-0.12176113 0.117311925 -0.108345896 -0.17806794 -0.15516263 -0.14766258 0.011042176 -0.16281877
0.07559063 0.18283594 -0.2791424 -0.28648278 -0.12782541 -0.08258794 -0.12570637 -0.040906027
-0.15577857 0.2268953 0.13779266 -0.11634417 0.23260003 -0.10802525 -0.015311689 0.20266818
0.2055792 0.041239083 0.14097075 0.0716362 0.22502106 -0.01424005 0.18642181 -0.2531451
0.09815048 0.031699453 -0.2010956 0.19720569 -0.13334642 -0.1800639 0.23066376 -0.042897295
0.1982619 0.14274666 0.10817614 0.108732365 0.028064588 -0.02218724 0.21053952 -0.063733585
-0.08164967 -0.1693738 0.09433203 0.26835135 -0.05845063 -0.17492214 -0.023390736 0.21376534
-0.26552022 0.06395495 -0.051094998 0.28587824 0.07900708 -0.11974338 -0.025468303 0.08672276
-0.28431848 0.1706997 -0.03146699 -0.10758427 0.13009919 -0.2046625 -0.030780697 0.18319409
-0.10766181 -0.07923636 -0.26264596 0.25663456 0.24247159 0.2769483 0.24488018 0.16885099
0.1774607 0.17958681 -0.12118195 -0.14911073 -0.023516012 -0.19062774 -0.098722 0.15626863
0.25902936 -0.016407352 0.19111072 0.0066198003 0.005115449 -0.03681032 -0.24016538 0.28009373
0.17674601 0.15711601 0.28765187 -0.1724466 0.0887289 0.0671902 -0.20637375 0.28795782
0.15784472 -0.026154859 -0.2238539 0.088955425 0.25846758 0.2351397 0.18298073 0.0435815
-0.21533388 0.08393119 -0.18220937 0.07815154 -0.21758555 0.033719007 -0.14925365 0.12677915
-0.03502349 0.020731747 0.060948793 0.07685551 0.013912173 0.06115078 -0.26102102 -0.1096727
0.013663326 -0.12089502 0.14670315 -0.0013826739 -0.22377802 0.0851565 -0.13624638 0.12247111
-0.14126946 -0.08728835 0.03882224 0.20797515 0.0040561906 0.27025917 -0.037692346 -0.16277044
0.29262882 0.11180464 0.18758838 0.24281956 0.14171192 0.085848734 0.17745456 0.04627095
-0.22690997 -0.22300246 0.17489767 -0.014037253 -0.17313136 -0.07105607 -0.14552277 0.27779797
0.13452052 0.10230809 -0.12894717 0.28776023 0.056628343 0.22811821 -0.04615385 -0.28461114
0.120625116 -0.13168693 -0.14855759 0.03228731 0.17028934 -0.12377968 0.072804525 -0.17527607
-0.20375209 0.22533913 0.051914416 0.12611115 -0.012786814 -0.13229163 0.10072173 0.29970333
-0.0109093245 0.08295356 -0.21862559 0.16941246 0.17463052 0.015759291 -0.12614031 -0.20833288
-0.24790606 0.12942728 -0.13399245 -0.3004884 0.035555188 0.26222727 -0.21375252 0.04822119
-0.22600976 -0.19437052 -0.05691692 0.11424565 0.09534048 -0.30199793 -0.28352258 -0.0545308
0.25915986 0.037843645 -0.02803314 0.28098428 0.20967613 0.036232114 -0.2631214 -0.23390076
0.1830572 0.3014718 -0.13282895 -0.04751134 0.30584002 -0.04690482 -0.25545275 -0.14119637
-0.22319005 0.12528251 0.018678144 -0.031061428 0.16089487 0.14589557 0.17583176 -0.14600733
0.047236275 0.2598479 0.021541497 0.19298801 0.2007466 0.008754051 0.0015854435 -0.2010559
-0.092597745 -0.018371318 0.122352846 -0.008922583 0.19394211 0.06325889 -0.078311965 -0.15943752

gat_layers.0.bias f4 [64]
00000000: 0000 0000 7a79 79bc 30c9 c4bb dc25 48bc
00000010: 1090 b5ba 6d3d 6d3c cbc5 e6ba 0000 0000
00000020: ba7a 30bb e624 02bb 3a31 3dbc fb8a 4bbb
00000030: 0000 0000 85ac 20bc 99df 693b 42e5 b9bc
00000040: c4f7 b1bb c6e8 79bc 3cdc dd3b 74be 1f3c
00000050: 7939 0fbc 37b8 c8bb 7253 803c ec0b a1bc
00000060: f0fd cdbb 206b a2bb 0000 0000 6a05 3eba
00000070: 7a99 a039 3ee5 863b cce2 ed39 1922 24bc
00000080: 9b87 0cbc 0000 0000 2623 fcba 38c1 9cbb
00000090: 1397 56bc d8d6 003b f273 ec3b 0000 0000
000000a0: 0000 0000 0000 0000 dfdc 843c 9015 803a
000000b0: 0000 0000 0000 0000 3438 e93c 321f 05bc
000000c0: 9ff4 1fbb 151b 12bc c772 3bbc 2c37 203d
000000d0: 673b 52bb 0000 0000 d6b7 9dba 881b 4c3c
000000e0: 9626 0cbc 0000 0000 a344 03bc b056 47bc
000000f0: 0000 0000 4664 1fbc bac3 2dbc f0cd 19bc
0.0 -0.015226716 -0.0060054287 -0.012216058 -0.0013852138 0.014479977 -0.0017606554 0.0
-0.002692862 -0.001985842 -0.011547381 -0.003105818 0.0 -0.009806757 0.0035686253 -0.022692326
-0.0054311473 -0.015253251 0.0067706387 0.009749997 -0.00874173 -0.0061254757 0.01566479 -0.019659005
-0.006286375 -0.004956618 0.0 -0.00072487316 0.00030631927 0.0041166833 0.0004537314 -0.010017895
-0.008577253 0.0 -0.0019236549 -0.0047837757 -0.013097542 0.0019659307 0.00721597 0.0
0.0 0.0 0.0162186 0.0009772051 0.0 0.0 0.028469183 -0.008125113
-0.002440728 -0.00891759 -0.011440939 0.039115116 -0.0032078864 0.0 -0.0012032937 0.012457736
-0.0085541215 0.0 -0.00801197 -0.012166664 0.0 -0.009728497 -0.010605747 -0.009387478

gat_layers.0.lin.weight f4 [256, 36]
00000000: 9630 c23a 61d0 46bd 89a5 ef3d c043 cb3d
00000010: ed91 9dbc ec90 1fbe 7e2a e9bc 34d0 cc3d
00000020: 2897 fdbd 2acd cc3d 0084 3cbd 96b5 c4bd
00000030: 9c36 9abd 1464 a6bd 8411 873d 0d9f 02be
00000040: 1eec 5abd 42c2 dd3d 78d1 c13d 8699 57bd
00000050: 7e1d 62bd 8b1f ef3c 663a 5cbd 357e a43d
00000060: 5fd1 9bbd 8aaf efbd 7d3f abbd 8b19 d1bc
00000070: 1cac 12be e20b f6bd 1dce dbbc 22f9 3dbd
00000080: 2a1a ed3d f2c7 e73d 8331 333d 69e0 563c
00000090: b6e8 a4bd a137 19be 01c8 63bd b0f4 01be
000000a0: 0607 dfbb 1034 803d dcaa 18be 1d65 91bd
000000b0: 3347 533d 00b4 06b9 08c8 87bc 9795 0f3e
000000c0: e4cb 55bd 7753 f5bd 3aed d0bd 90b1 97bd
000000d0: 9a8e ab3d dadf 8f3d 9446 4a3d 4041 053d
000000e0: 9783 0e3e ba77 f8bd 907a d6bd b34e 1f3b
000000f0: 1970 e03d 47b3 0bbe 0bf0 3bbd c9ff 973d
00000100: 4de4 f53d 4409 0cbe d901 cfbd e6a9 e23d
00000110: 7825 8c3c be66 2d3d 10d0 19be 90aa d6bc
00000120: 5caa 643d 34fd 60bc d0ea e33d c920 aa3d
00000130: 37f5 debd d2bd b8bd 9f1c d3bd 4036 853b
00000140: a767 203e 0ab6 bfbd c89b 973d e4ae b9bc
00000150: dc4d d53d 008c 3f3c 24a4 66bd 8cc9 abbd
00000160: 1300 d8bd 61dc ffbd 9c1a 963d d7bc f6bd
00000170: 567f 06be e3e1 093e 94c9 23bd 6b63 813b
00000180: 7b3d 253d 142f 2dbd e8a6 98bd 2ff8 bcbd
00000190: f9a5 903d 023a c7bd 642f a93c 82c0 b53d
000001a0: c04f 61bb 074c c7ba eb39 703d f309 9ebd
000001b0: 5fd4 06be a808 083d 07f3 ad3d d501 1dbd
000001c0: 7c3e 9b3d 63b4 b9bd 89e8 5f3d 100d ae3c
000001d0: 61f4 1abc 3640 a2bd a08f a13b 6e26 df3d
000001e0: a4ea 393d 85e0 033e 1082 aebd 0ec1 84bd
000001f0: e8e2 7a3d 0060 b0ba 9829 a9bd 62cb c2bd
00000200: 1e09 d03d 3509 e93d d9fb 033e 29a3 bd3d
00000210: 4d57 973d 024f e03d f02f 103d 8cb1 fabd
00000220: 62b0 0b3e 3cd8 6ebd 5714 603c 0b98 0e3e
00000230: cada ed3d 39a7 f93d d750 5e3d 771b 9d3d
00000240: 21f0 cdbd fffd c43d 37f6 ff3c 01bb a23d
00000250: ecb2 0ebc 2839 06bd d612 06bd 42fe c53d
00000260: 292b 073c 37b3 adbd 5592 0b3e e60d c83d
00000270: e07b 923c 408c c0bb 304e 523d 2c36 593d
00000280: f74d 123e f81f 603d c09e 68bc 7596 86bd
00000290: f705 a6bd a54c d3bd 0689 1bbd e348 1dbe
000002a0: 9880 9a3d 90a7 273c 38d1 a4bc 75ec d0bc
000002b0: 0873 f9bb 98db cd3d b13e 88bc 0f7c a1bd
000002c0: e613 5ebd f8cb 5bbd d0cc 04be 9938 083e
000002d0: aff3 85bc aca8 993d 06b6 033e 1b13 10be
000002e0: de74 fbbc 607a 02be 95f9 c5bd 73c9 f1bd
000002f0: aa5e ccbd 66f6 ec3d 43ff 113e 6094 04be
00000300: 846b cebc 8014 f73a 5805 5bbd 8094 59bd
00000310: 7224 6abd f744 043e 14b7 a83d 7c9e eebd
00000320: e694 29bd be73 123e 5c14 7c3d f500 863d
00000330: dce1 44bc d8e9 063d 09b2 04bc 5107 77bd
00000340: 3610 a23d 548d 58bd 1654 54bd 8f71 ecbd
00000350: baf3 fa3d e9d0 80bd 3186 d1bc 2dc3 a1bd
00000360: f549 50bd cc29 ed3d c88f 13be 6259 133d
00000370: 4ad3 373b 5b51 7d3d 0077 c0bd ca30 82bd
00000380: 084e 9dbd c02c 0e3d 9ba2 d3bd 5620 a43d
00000390: ccef 1e3d dcd1 efbd c0c4 92bd b557 02be
000003a0: d6be fa3d 9e6f eabd 80ca e23a 60c5 203c
000003b0: 0cd3 b2bc c00c 96bd 44c2 edbd 28b5 603d
000003c0: fd52 3c3d 6e17 7abd bfdf afbc 7efc 8bbb
000003d0: 4cd9 15bd 0306 4f3c 44b5 3c3c 141f 0c3d
000003e0: faf8 adbd 93fe f8bc 7cd2 ab3d d7f0 083e
000003f0: f868 ef3c 5103 fcbd 644e c3bd 764f e5bd
0.0014815505 -0.04853857 0.11701495 0.09925032 -0.019234622 -0.15582627 -0.028462645 0.10000649
-0.123823464 0.100000694 -0.046024323 -0.09604947 -0.07529947 -0.08124557 0.06595138 -0.12755986
-0.053447835 0.10828067 0.09463781 -0.052636646 -0.055203907 0.029189846 -0.05376663 0.080318846
-0.07608294 -0.11703403 -0.08361719 -0.025524875 -0.14323467 -0.12013985 -0.02683168 -0.04638017
0.11577256 0.113174334 0.04374839 0.013115027 -0.080521986 -0.14962627 -0.05561066 -0.12690997
-0.006806257 0.0625993 -0.14908928 -0.07099364 0.051581573 -0.00012846291 -0.016574875 0.14021908
-0.0521964 -0.1197881 -0.102014974 -0.07406914 0.083768085 0.07025118 0.049383715 0.03253293
0.13917385 -0.12132211 -0.10472596 0.0024308383 0.10958881 -0.13642608 -0.04588322 0.07421834
0.120064355 -0.1367541 -0.10107774 0.11067562 0.01710771 0.04233431 -0.15020776 -0.026204377
0.05582653 -0.013732243 0.11128771 0.083070345 -0.10886615 -0.0902058 -0.103081934 0.004065305
0.1566454 -0.09360893 0.0740276 -0.022666402 0.10415241 0.011691093 -0.05630888 -0.083880514
-0.10546889 -0.12493206 0.07329294 -0.12047737 -0.13134512 0.13465075 -0.03998716 0.003948619
0.040341835 -0.042281225 -0.0745371 -0.09227025 0.07062907 -0.09727861 0.02065248 0.088746086
-0.003437981 -0.0015205153 0.058648985 -0.077167414 -0.1316695 0.03321138 0.084936194 -0.038331825
0.07580277 -0.09067609 0.054665122 0.021246463 -0.0094576785 -0.079224035 0.0049304515 0.10896002
0.045389786 0.12878616 -0.08520901 -0.06482135 0.06125155 -0.0013456345 -0.082598865 -0.095114484
0.10157989 0.11378709 0.12889041 0.09259636 0.07389698 0.109525695 0.035201967 -0.12240896
0.13641503 -0.058311686 0.013676724 0.13925187 0.11613996 0.12190098 0.054276314 0.07671254
-0.100555666 0.096187584 0.031245334 0.079458244 -0.0087096505 -0.032769352 -0.032732807 0.096676365
0.008250036 -0.08481448 0.1363004 0.09768276 0.017881334 -0.005876094 0.051344097 0.053030178
0.14287554 0.054717988 -0.014198005 -0.06571666 -0.081066065 -0.10317353 -0.037972473 -0.15359835
0.075440586 0.010232821 -0.020119295 -0.025503376 -0.0076125897 0.1005165 -0.016631456 -0.078849904
-0.054218195 -0.053661317 -0.12968755 0.1330284 -0.016351549 0.07502875 0.12862405 -0.14069788
-0.030695375 -0.12741995 -0.096667446 -0.118060015 -0.09978993 0.11570434 0.14257531 -0.12947226
-0.025197752 0.0018850714 -0.053471893 -0.053120136 -0.057163663 0.12916933 0.082380444 -0.11651322
-0.041401766 0.14301965 0.061542854 0.06543151 -0.01201674 0.032937855 -0.0080990875 -0.06030971
0.07913248 -0.052869156 -0.051838003 -0.11545097 0.122535184 -0.062898465 -0.025576683 -0.07898555
-0.05085178 0.11580238 -0.14410317 0.035973914 0.0028049522 0.061845165 -0.093976974 -0.06356962
-0.07680899 0.034710646 -0.10333749 0.0801398 0.038802907 -0.117099494 -0.07166433 -0.1272877
0.1224343 -0.114470705 0.0017302781 0.009812683 -0.02182915 -0.073266506 -0.11609319 0.054860264
0.04597758 -0.0610575 -0.021468995 -0.004272043 -0.036584184 0.012635711 0.0115178265 0.034209326
-0.08494754 -0.030394828 0.08389756 0.13373123 0.029224858 -0.1230532 -0.09536436 -0.111967966

gat_layers.1.att_src f4 [1, 4, 128]
00000000: 75f5 e33d 40c8 c33d 5016 89bd 552b c23d
00000010: 06bb 823d b636 b0bd abac 2e3e aa14 e33c
00000020: c0ff 50bd 2399 533e 10b1 143e 7823 4dbe
00000030: f1ca 30be 2333 15be 3d45 773d c509 0abe
00000040: 772f 1c3c 784d 80bc bee2 9d3d c0d6 93bd
00000050: ed4b 163e b914 2f3e 7587 c7bc 2cfa 6cbe
00000060: 6222 443e 801f 0cbe c2e1 de3d dd37 84bd
00000070: f953 433e 08bc 65bd d2c0 053e f1e2 803c
00000080: 354d 153e 96e6 a2bd b2d9 30be 0db9 d7bc
00000090: 05a7 513e 4128 09bd c032 103d a8cb da3d
000000a0: 7aaa c1bc deda a3bd 63ad ddbc 1f2e a03d
000000b0: 1be2 363e 41b0 a53d d23d c5bc caae 133d
000000c0: f984 84bd fa32 f33d 3514 7d3c c32a 0e3e
000000d0: f00a 56be e388 de3d df83 3abd 384c 5e3e
000000e0: 4f95 73bd d247 e6bd d00a f8bd ec93 193e
000000f0: 8b60 5dbe d716 f1bd 7887 08be 93df 163e
00000100: fcac 97bc a6ac 5ebe 3695 02be 6d3a 9dbd
00000110: 268c ff3c 4eda d0bd 98cf 2ebe 2b50 4abe
00000120: e38f 69bd f28c 1dbe c153 69be a5ef 433d
00000130: 0a02 0d3e 794b e33d 6d18 2abe d69a 243e
00000140: b70b 23be e9fc ecbd 0863 11be 0f66 7d3d
00000150: cb25 893d 1f55 3a3d 6d21 b7bd eaa4 aebc
00000160: 80c5 1c3e dec1 1fbd 4985 3dbc b1ee 8cbd
00000170: e9e8 483e 5e9a 47be f042 bfbc a4c1 cb3d
00000180: 75dd 0c3d d72c 1b3e 795f afbd 7da3 3dbd
00000190: 03d9 3c3e d046 083e db1f ca3b 32c5 8b3d
000001a0: 1e90 043e 80e4 533c 763f 6b3b 7e88 cf39
000001b0: 8118 3a3e 8789 143e 6912 92bd b7e4 c83d
000001c0: 894d 153e 7c3e 253d 404d 11be fba4 733d
000001d0: 3e5a 10be b5d1 3f3a a511 1c3e 894f c93d
000001e0: b39b 233c 3cbf 89bc b3c7 153d fe1f ffbd
000001f0: 4601 2fbe 03ee 163e 8e1f debc ea4b 92bd
00000200: 71f0 32be 8ef7 b33d 3c4e 5abe d636 103e
00000210: 5666 93bd 3756 00bd d35d b23d 3415 573e
00000220: bbde 33be 59b8 01be efce cebd bb94 1abe
00000230: 9cba a6bd b5e6 11be b73e 1bbe 0723 283e
00000240: db48 283e 3a9f 48be 1013 db3d 94d2 033e
00000250: a198 8fbc f727 55be 919b 543c f20f 123d
00000260: 1a8a 193e 7d96 823d 33d3 5f3c d84d cc3d
00000270: 4b9d cabd 5298 133d 1d63 1b3e 911e 4dbc
00000280: 6e65 453d 3133 3f3e 512a 44be 1653 3a3e
00000290: d490 34bb ed01 1abd fcdd e3bd f0bd a3bd
000002a0: 620b b4bd d5e0 3b3e 8bf6 54be 0dd6 233c
000002b0: f840 05be 9a12 8dbd 37be 94bd a0b4 153e
000002c0: ca28 153e 6b5b 31bc e20f 12bd be5f fc3d
000002d0: 116c 253e 5aab 41be e987 e3bc d93a 893d
000002e0: 9e3c a83d 4db5 06bc edfe 2e3e 539e fbbd
000002f0: 8e47 21ba 82f8 1ebc 0da9 503e 2188 7dbc
00000300: a6b3 e23c 7ddd a43d 00ad eebc e72d ac3c
00000310: e046 b5bc f29a dabc 0284 53bd 1687 33be
00000320: 3452 163e bab7 f2bd 2fd8 863c aa42 163d
00000330: 5135 503d 2bba c8ba 213b 853c 6e6b 41be
00000340: 1dcd 0dbe d859 91bc 3853 96bb 01ab 573e
00000350: b3eb 2a3e 5c82 3c3e 8162 49be c5a5 bd3c
00000360: f8f8 563e ef5d 42be 6884 4a3e 005e f1bd
00000370: 83f4 2c3c 5563 82bc cc78 603e 303a 243d
00000380: 24e3 543e 637e 583d 5705 c4bd 11e2 23be
00000390: 788e 39be 1d23 593e 5234 01be 20db 3a3e
000003a0: 06c8 c8ba a6ea 1dbd 6f19 2b3e c613 7bbd
000003b0: f5b9 a8bd 523e 2ebe 1eca 35be 621f 18bd
000003c0: 46c3 813d ddb0 503d 5426 353e db85 97bb
000003d0: 46d3 3b3d ea0e 8bbd 9498 17be d0d7 373e
000003e0: 6fc7 45bc 9881 11bd 8412 d23c b3dd 963d
000003f0: 2829 20be a580 b1bd 497c ce3d e287 073e
0.111308016 0.09559679 -0.06693709 0.09480921 0.06383328 -0.08604185 0.17058055 0.027719814
-0.051025152 0.20663886 0.14520669 -0.20033062 -0.17264916 -0.14570288 0.060368765 -0.1348029
0.009532801 -0.01566194 0.07709263 -0.07218695 0.14677401 0.17097749 -0.024356583 -0.23142308
0.19153741 -0.13683891 0.10882904 -0.064559676 0.19075002 -0.056087524 0.13061836 0.015733214
0.14580233 -0.07954137 -0.17270544 -0.026333356 0.20473869 -0.033485655 0.03520465 0.106833756
-0.02364086 -0.0800073 -0.027060216 0.07821297 0.1785969 0.080902584 -0.02407733 0.036055364
-0.06470675 0.118749574 0.015446712 0.138835 -0.2090261 0.10865953 -0.04553592 0.21708763
-0.059468564 -0.112441674 -0.12111437 0.14997834 -0.2161886 -0.117719345 -0.13332927 0.14733724
-0.018515103 -0.21745548 -0.12752232 -0.076771595 0.031194758 -0.10197888 -0.17071378 -0.19757144
-0.057021987 -0.15385798 -0.22785856 0.047835965 0.13770309 0.1109838 -0.1661088 0.1607469
-0.15922438 -0.11571676 -0.14197934 0.06186491 0.066966616 0.045491334 -0.08941922 -0.021318872
0.15309715 -0.039003246 -0.011567422 -0.06881464 0.19620098 -0.1949248 -0.023347348 0.099490434
0.034390885 0.15153824 -0.08563132 -0.046298493 0.18442158 0.13308263 0.0061683482 0.068247214
0.12945601 0.012932897 0.003589598 0.0003958381 0.1817341 0.14505588 -0.07132418 0.09809249
0.14580359 0.040342793 -0.14189625 0.05948351 -0.14096925 0.00073173206 0.15241106 0.09829623
0.009985852 -0.01681482 0.0365674 -0.12457274 -0.1709033 0.14739232 -0.027114656 -0.07143386
-0.17474534 0.08787452 -0.21318907 0.14083418 -0.071972534 -0.03133222 0.08709302 0.21004182
-0.17565434 -0.1266798 -0.10098063 -0.15095799 -0.08141062 -0.14248164 -0.15160643 0.16419612
0.16434042 -0.1959199 0.10696995 0.12873298 -0.017528834 -0.20816027 0.012976543 0.035659738
0.14994088 0.063763596 0.013661194 0.09975785 -0.098932825 0.036033936 0.15174527 -0.012519495
0.048192434 0.18671872 -0.19156767 0.18195757 -0.0027552145 -0.037599493 -0.111263245 -0.07995212
-0.087912336 0.18347485 -0.20797174 0.009999764 -0.13013065 -0.068883136 -0.07262843 0.14619684
0.14566341 -0.010825018 -0.03565968 0.12322949 0.16154505 -0.18913022 -0.027774768 0.067006774
0.08214687 -0.008221936 0.17089434 -0.12286057 -0.0006152325 -0.009702804 0.20376988 -0.01547435
0.027673554 0.08050058 -0.029135227 0.021017982 -0.022128522 -0.026685212 -0.051639564 -0.17532
0.14679796 -0.11851449 0.016460506 0.03668467 0.050832096 -0.0015314271 0.016263546 -0.18888637
-0.13847776 -0.017743036 -0.004587557 0.21061327 0.16691475 0.18409103 -0.19666483 0.023150334
0.20993412 -0.18981145 0.19777071 -0.11785507 0.010556343 -0.015916506 0.2192108 0.040094554
0.20789772 0.052854907 -0.09571331 -0.16004206 -0.18120754 0.21204801 -0.12617615 0.18247652
-0.0015318401 -0.038553856 0.16708921 -0.061298154 -0.082385935 -0.17015961 -0.17752883 -0.037139304
0.063360736 0.05094992 0.17690402 -0.004624111 0.045855783 -0.06789954 -0.14804298 0.1795342
-0.012071474 -0.03552398 0.025643595 0.073665045 -0.156407 -0.08667115 0.10082299 0.13235429

gat_layers.1.att_dst f4 [1, 4, 128]
00000000: 49f5 29be 7107 353e c28a 4cbe eba3 a3bc
00000010: abe1 063e c138 483e 67c1 0e3e 51a5 aebc
00000020: af7e 283e 41f1 56be 1f6f 38be 41e4 d9bc
00000030: 1fa0 45be 712c 31bd 6b2e b53c 33b2 fcbd
00000040: 3066 bfbc 15ad 323b e58c d0bc e208 51be
00000050: 0931 44be a353 15bd c0e8 97bd 5c77 06bd
00000060: 2d82 3c3e 6004 30be b380 cd3c 9cd8 14be
00000070: 76d9 003e 9347 02be 9883 053d b121 833d
00000080: a72f 143e 8cff 703c e523 023e 99d7 3cbd
00000090: 3571 eebd e05d d93d 3b1f 5a3e 00c9 50be
000000a0: dc0b 1dbe b764 e73d 68ec 213d 9259 ab3d
000000b0: 2d37 203e 13d0 f03d dad3 4c3e 87f3 423e
000000c0: d9f6 2c3e 4493 43be 4ef5 3c3d b6a0 463e
000000d0: c6b6 25bd e8dd a83d 894e 583e 025e d93d
000000e0: 7062 c53d 722f 3fbd 2743 f33d 3f50 9dbd
000000f0: 95dc f3bd 5aa2 78bd 91f6 543e 33a6 bdbd
00000100: 064d bcbd 71cd 273e c4e4 413e 55b0 c6bc
00000110: 2e53 373e 9de6 63be f7d6 083c d226 21be
00000120: 36f7 4a3e 2eaa 09be df26 1cbe fc0f f7bd
00000130: 7432 9a3c 6c98 bdbd c7d9 04be e015 4f3e
00000140: 107a 2ebe 3dff 533e 6554 3f3d a4a8 17be
00000150: a96a bfbd 4559 5d3e 92b0 b73d 215a 21be
00000160: 5687 e83c 3dee fabd 38b8 2dbd e647 003e
00000170: 1858 54bc 0596 fabd 794d 1c3e d109 29be
00000180: f4d4 e4bd 4556 3cbe 145d 4abe 1ba4 6bbd
00000190: 3ffe c8bd 835b e53d f1f1 52be fb45 5c3d
000001a0: 7028 2fbe de20 cabc 4658 dbbd 4872 173e
000001b0: 9cc4 0fbe 42de 93bd 33ee 2b3e df5b 09be
000001c0: e40d 1d3e 50c2 d3bd e46e ddbd 2d85 cfbd
000001d0: b483 89bc 03eb e0bd 1529 13be 0b2b 2a3e
000001e0: 13f1 c2bd 70b5 17bc 4999 8fbd 2e51 cf3a
000001f0: 71de 3dbd 8dae 453d 1205 8cbd 1839 a93d
00000200: dbfb b53d cd9f 27bd 8175 78bd f5e4 cf3c
00000210: fc72 48be 65f1 88bd cdb1 5cbe 80f4 883d
00000220: 6019 14be 9342 acbd e8e4 1f3e 1537 e23d
00000230: 5dad 033e e07b e13d 5511 fcbd b9ad 6b3d
00000240: 478e 1dbe 9cfb 23be c604 003d 20d5 08be
00000250: 31e8 43bd 57bf 1bbd 1505 2b3c 927e 073e
00000260: c053 e33d 273e fbbd fb5c 0f3e fad1 d83d
00000270: 6b63 063e 2c19 1abe 1da5 71bd 2c15 52be
00000280: 442f 3dbd b015 8cbd c8c6 4b3e 095c 513e
00000290: eded 403e abb0 b7bd 0010 83bb b5ca 61be
000002a0: 5a0a 10bd 5e5c 143c b28a 3d3e 9782 393e
000002b0: e64c 8dbd 4f63 4a3e e6e0 963d 5b37 a5bd
000002c0: 7351 3cbe 0cbd ef3d 50b6 34be d5be a53d
000002d0: 6132 d7bd 2469 a0bb c29c 09be 94ba 893d
000002e0: 14c7 44be 2620 6cbd 3d08 a13b 3293 cdbd
000002f0: 8a4e 49be 5563 3abe 4441 4fbe 0bfb 673e
00000300: 371d 3ebe 6c2b 98bc 32bf e63d 360f 23be
00000310: 0c25 573e 68a2 063e 6a00 3a3d c9af b03c
00000320: 4267 413e 69e1 4ebd 942e 543e 3171 02be
00000330: 5230 223c 213e b3bd caea 1dbe e5bb 34be
00000340: 207a 853d 11eb 2e3e 83fc 74bc 1585 c1bd
00000350: d0f1 0c3d f1cb a53d 6a49 fbbc 429b 4cbe
00000360: a6a8 ddb9 f95e a53d 5ed8 0c3e e493 303c
00000370: f005 f9bd 1acb 24be 52a6 20be da0d c2bd
00000380: fef3 4e3e 646d d2bc 23de 43bd fc53 a33d
00000390: b48a f83d d038 8fbd 5717 27be 9c8a 5f3a
000003a0: 76a1 d13d 5376 143e 9f10 3dbe a7fa 8c3d
000003b0: 1353 773d 92c4 2b3d 37a3 c3bd 6df6 2a3e
000003c0: 02ec 39be 3e64 4bbe d136 b43c 32d0 1d3e
000003d0: d355 423d b83d a2bd 4047 353e 7b01 f63d
000003e0: 443d a93c dbe6 19bc d250 1ebe 5aaf ad3c
000003f0: 1400 efbd 5bd9 27bd a755 1cbe 2f4d be3d
-0.16597475 0.1767862 -0.19974807 -0.019975623 0.13172023 0.195529 0.13940965 -0.021319063
0.16454576 -0.20990469 -0.1801114 -0.026598098 -0.19299363 -0.043255273 0.02211686 -0.12338676
-0.023364156 0.002726381 -0.025457809 -0.20413545 -0.1915933 -0.036456715 -0.074174404 -0.032828674
0.18409033 -0.17189169 0.025085783 -0.14535755 0.12582955 -0.12722616 0.0325962 0.064029105
0.14471303 0.014709365 0.12709005 -0.046104047 -0.11642686 0.10613608 0.21300976 -0.20389175
-0.15336555 0.11298507 0.039532095 0.083666936 0.15646048 0.11758437 0.2000269 0.19038211
0.1689104 -0.19099146 0.04613238 0.19397244 -0.04045751 0.0824545 0.21123709 0.10613634
0.09637916 -0.046676107 0.11878043 -0.07681321 -0.11907307 -0.060701706 0.20797183 -0.092602156
-0.091943786 0.16386963 0.18934923 -0.024254004 0.17902824 -0.2225594 0.008352033 -0.15737465
0.19820866 -0.13443825 -0.15249203 -0.12063596 0.018822886 -0.09257588 -0.129737 0.20223188
-0.1703875 0.20702834 0.046711344 -0.14810425 -0.09346516 0.21616085 0.08969225 -0.15757038
0.028384846 -0.122524716 -0.042412013 0.12527427 -0.012960456 -0.12235645 0.15263928 -0.16507651
-0.1117343 -0.18392284 -0.19762069 -0.05752955 -0.098141186 0.11199095 -0.20600106 0.053777676
-0.1710527 -0.024673875 -0.10710196 0.14789689 -0.14039844 -0.07220127 0.16790085 -0.13413952
0.1533733 -0.103397965 -0.10812166 -0.10132823 -0.016786434 -0.10982325 -0.1437114 0.16617982
-0.095186375 -0.009259567 -0.07011659 0.001581704 -0.046354715 0.048262168 -0.068369046 0.08262843
0.08885928 -0.040923882 -0.060658935 0.02537773 -0.19575113 -0.06686667 -0.215522 0.0668726
-0.14462805 -0.084111355 0.15614665 0.11045662 0.12859102 0.110099554 -0.12307993 0.05753872
-0.15386306 -0.1601395 0.031254552 -0.1336255 -0.047828857 -0.038024273 0.010438223 0.13231876
0.110999584 -0.12267714 0.14000313 0.10586925 0.13123862 -0.15048665 -0.058995355 -0.20515889
-0.046187654 -0.06840074 0.19900048 0.20445265 0.18840761 -0.089692436 -0.00399971 -0.22049983
-0.035166122 0.009055225 0.1850994 0.18116222 -0.06899433 0.19764446 0.07367115 -0.08067199
-0.18390445 0.1170598 -0.17647672 0.08093039 -0.10507656 -0.0048953462 -0.13438705 0.0672504
-0.19216567 -0.057647847 0.004914312 -0.10037841 -0.19658867 -0.18201955 -0.2023974 0.22654359
-0.18565832 -0.018575393 0.11266936 -0.15923771 0.21010226 0.1314789 0.04541055 0.021568196
0.18887046 -0.050507937 0.20720893 -0.12738492 0.009899216 -0.087520845 -0.15421596 -0.17649801
0.06517434 0.17081858 -0.014952782 -0.094492115 0.034410298 0.08095539 -0.030674655 -0.19981101
-0.00042278058 0.08074755 0.13754413 0.010777447 -0.121593356 -0.16093102 -0.15688446 -0.09475298
0.20210263 -0.025686927 -0.047819268 0.07975003 0.121358305 -0.06993258 -0.16317497 0.00085274293
0.10235874 0.14498262 -0.18463372 0.06883746 0.06038196 0.04193551 -0.09552615 0.16695566
-0.18156436 -0.19862458 0.021998795 0.15411451 0.04744513 -0.07921928 0.17702961 0.12012001
0.020659097 -0.009393419 -0.15460518 0.021201778 -0.11669937 -0.04097877 -0.15267049 0.09292065
