finalhybrid/experiments/experiment_20251104_232429/final_model.pth (torch, 662432 bytes, 50 tensors)

gcn_layers.0.bias f4 [64]
0	0x3ca5d1e9	0.020241695
1	0xbccd80fd	-0.02508592
2	0x00000000	0.0
3	0x3c820743	0.015872603
4	0x00000000	0.0
5	0x3c8baf2d	0.017051304
6	0x00000000	0.0
7	0xbb8f9694	-0.004381964
8	0xbc9a5bb7	-0.018842561
9	0x3b81d230	0.003961824
10	0x00000000	0.0
11	0x00000000	0.0
12	0x3b92d656	0.0044811172
13	0xbc3f76b6	-0.011686018
14	0x00000000	0.0
15	0xbcbb4281	-0.02285886
16	0x00000000	0.0
17	0x3cc1c54e	0.023653653
18	0xba9ec02a	-0.0012111713
19	0xbae4b39f	-0.0017448551
20	0xbc7ef63b	-0.015561636
21	0x3b3870b9	0.002814336
22	0x3c8ad2ab	0.016946157
23	0xbc5c36cd	-0.0134408
24	0x3c9d2a9c	0.019185357
25	0xbcad1646	-0.021128785
26	0x00000000	0.0
27	0xbc076644	-0.008264128
28	0x00000000	0.0
29	0x3c3882a2	0.011261614
30	0xbc04db1d	-0.008108881
31	0xbb1ac4f1	-0.0023615921
32	0x00000000	0.0
33	0x00000000	0.0
34	0x3d651f86	0.055938266
35	0xbbac796a	-0.005263497
36	0xbc8a87c9	-0.01691045
37	0x39b5d760	0.00034683477
38	0xbaf0f407	-0.0018383273
39	0x00000000	0.0
40	0x00000000	0.0
41	0xbc2716b2	-0.010198282
42	0x3bf79031	0.0075550308
43	0x00000000	0.0
44	0xbc91e01b	-0.017807057
45	0x3cf2584f	0.029583124
46	0x00000000	0.0
47	0x3b11388a	0.0022158944
48	0x3c62f7ec	0.0138530545
49	0xbb37fb1c	-0.0028073257
50	0xbc3940d7	-0.011306963
51	0x00000000	0.0
52	0x00000000	0.0
53	0xbccb215c	-0.02479618
54	0x00000000	0.0
55	0x00000000	0.0
56	0x3c2d5950	0.010580376
57	0x00000000	0.0
58	0x00000000	0.0
59	0x00000000	0.0
60	0x3c1f560d	0.009725106
61	0x00000000	0.0
62	0xbc124269	-0.008926966
63	0x3bec03e3	0.007202612

gcn_layers.0.lin.weight f4 [64, 36]
0	0xbe2331e5	-0.15937002
1	0xbc850d19	-0.016241597
2	0x3d1a4492	0.03766305
3	0xbe7e1f2f	-0.24816583
4	0x3df4eacb	0.11958846
5	0xbe65b4a2	-0.22432187
6	0xbe07b11a	-0.13251153
7	0xbe4af622	-0.19820455
8	0xbcf8f3ed	-0.03038975
9	0xbe55a1cf	-0.20862506
10	0xbe2ef20a	-0.17084518
11	0xbe79a7e9	-0.24380459
12	0x3de16912	0.11006369
13	0x3e38244d	0.17982598
14	0xbe764133	-0.24048309
15	0x3e1fa771	0.15591218
16	0xbe61301d	-0.2199101
17	0x3e45424d	0.19263573
18	0xbba14d00	-0.004922509
19	0x3d56507c	0.05232285
20	0x3de25b3a	0.11052556
21	0xbe440a05	-0.19144447
22	0x3e65e25d	0.22449632
23	0x3df374e3	0.11887529
24	0x3e2746a8	0.16335547
25	0x3e0029cd	0.12515946
26	0xbdc37c60	-0.09545207
27	0x3e3d8dcc	0.18511122
28	0xbca9e729	-0.020740109
29	0xbe8b1ab7	-0.2716882
30	0x3e877973	0.26459846
31	0x3e5a6181	0.21326257
32	0xbe539a88	-0.20664418
33	0xbe44afad	-0.1920764
34	0x3d2f736b	0.04283468
35	0xbd8e86d1	-0.06959308
36	0xbd3db80a	-0.04631809
37	0xbe984cc2	-0.29746062
38	0xbd9ed1ef	-0.077548854
39	0xbe1230bc	-0.14276403
40	0xbe4225b4	-0.18959695
41	0x3d4432b3	0.047899913
42	0xbacbd0df	-0.0015549919
43	0xbe0f5032	-0.13995436
44	0xbe7ef3a4	-0.24897629
45	0xbd887196	-0.0666229
46	0x3dae630a	0.08514984
47	0xbe060aa0	-0.1308999
48	0xbe433939	-0.19064797
49	0x3e28086d	0.16409464
50	0xbdf5083c	-0.11964461
51	0x3e314a7d	0.17313571
52	0xbbe809e0	-0.0070812553
53	0xbe5c0224	-0.21485192
54	0x3e184bbf	0.14872645
55	0x3e2ff523	0.17183356
56	0xbe67d118	-0.22638357
57	0xbdabaf44	-0.08383039
58	0xbb9e2520	-0.004826203
59	0xbdd271a0	-0.102755785
60	0x3e3f35c1	0.18672849
61	0xbd75a898	-0.059975237
62	0xbcb90550	-0.022585541
63	0xbe948e48	-0.29014802
64	0x3e642c38	0.22282493
65	0x3e41d92c	0.18930501
66	0x3c855663	0.016276544
67	0x3d14d974	0.036340192
68	0x3c23abb0	0.009989664
69	0x3e65d4e2	0.2244449
70	0x3e1ae415	0.15126069
71	0x3e12635d	0.14295717
72	0x3e324e5b	0.17412703
73	0xbd660640	-0.056158304
74	0x3ce28b58	0.027654335
75	0xbe30bc01	-0.17259218
76	0xbe59dcf6	-0.21275696
77	0xbde954f0	-0.11393154
78	0xbde111e4	-0.109897405
79	0x3d8494e6	0.064737126
80	0x3d97573a	0.07389684
81	0x3e09ab97	0.13444363
82	0xb8973000	-7.209182e-05
83	0xbca80248	-0.0205089
84	0x3e028121	0.12744571
85	0x3d4f244c	0.050571725
86	0x3cc45018	0.023963973
87	0x3d2c968c	0.04213576
88	0xbe37c530	-0.17946315
89	0x3d6b223c	0.057405695
90	0xbe73a0fe	-0.23791882
91	0x3ddef7aa	0.10887082
92	0xbb38cd80	-0.002819866
93	0xbe524dd5	-0.20537503
94	0xbdf12282	-0.1177416
95	0xbe137c56	-0.14402899
96	0x3dbf9666	0.09354858
97	0xbe071167	-0.13190232
98	0xbe287d8c	-0.16454142
99	0xbcfd16f8	-0.030894741
100	0x3e595947	0.21225463
101	0xbe753f0e	-0.23949835
102	0xbe434ed4	-0.1907304
103	0x3e0422e3	0.12903933
104	0xbe1d2ba8	-0.15348685
105	0xbda415b4	-0.08011952
106	0xbdf3f0c6	-0.11911158
107	0x3e02bd49	0.12767519
108	0xbc3ca556	-0.0115140285
109	0xbe29d8e7	-0.16586648
110	0x3e864cc6	0.26230448
111	0xbd9c7545	-0.07639555
112	0x3e36f8b9	0.17868318
113	0xbcf10c77	-0.029424889
114	0xbda0419a	-0.078250125
115	0xbd216914	-0.03940685
116	0xbe26a0af	-0.16272233
117	0xbdff9a46	-0.12480597
118	0xbe47897a	-0.19486037
119	0x3e4ad95f	0.19809483
120	0x3e28c43d	0.16481109
121	0xbcdb7368	-0.026788428
122	0x3e68f609	0.22750105
123	0xbdb02a1e	-0.08601783
124	0xbda1bd6c	-0.078974575
125	0x3d5492a4	0.05189766
126	0xbe712e03	-0.23552708
127	0xbe2f906a	-0.17144933
128	0x3e612c67	0.21989594
129	0xbe1ef85c	-0.15524429
130	0xbe106978	-0.14102733
131	0xbe6b06cb	-0.2295181
132	0xbd384428	-0.044986874
133	0xbdb466d8	-0.088086784
134	0x3d85ac71	0.06527031
135	0x3e0f69dc	0.14005226
136	0x3e2d842a	0.16944948
137	0x3e07f210	0.13275933
138	0x3de39756	0.111128494
139	0xbe0820a5	-0.13293703
140	0x3d6d0424	0.057865277
141	0xbde70c6e	-0.11281668
142	0xbe73bc01	-0.23802187
143	0x3e631867	0.22177278
144	0x3e2266af	0.15859483
145	0xbe00a4bf	-0.12562846
146	0x3e34faa3	0.17673735
147	0x3d013ed4	0.03155406
148	0xbe67c121	-0.22632267
149	0xbc8faa18	-0.017537162
150	0xbcd818c0	-0.02637899
151	0x3e16908f	0.14703582
152	0x3af42080	0.0018625408
153	0xbd584fa4	-0.052810326
154	0xbdf212e2	-0.11820008
155	0xbd010e78	-0.03150794
156	0xbd8c883c	-0.06861922
157	0xbe38d118	-0.18048513
158	0xbd059798	-0.032615274
159	0xbe42dba1	-0.19029094
160	0x3d27a58c	0.040929362
161	0x3e3acde9	0.18242611
162	0xbe3c9d5e	-0.18419406
163	0x3e397d9b	0.18114321
164	0x3e5e9e2d	0.21740027
165	0xbe46952f	-0.19392847
166	0x3c903978	0.017605528
167	0xbd5dc5b8	-0.054143637
168	0x3dfef3c2	0.12448837
169	0x3e1c02fb	0.15235512
170	0xbe4207a6	-0.1894823
171	0xbdbabc46	-0.091179416
172	0xbe322066	-0.17395172
173	0xbe482ee0	-0.19549131
174	0xbd795468	-0.06087151
175	0xbe797cb5	-0.24363978
176	0xbe4abc26	-0.19798335
177	0x3d0f8324	0.035037175
178	0xbe7627aa	-0.24038568
179	0x3e22a2f5	0.15882476
180	0xbbd3744a	-0.0064530717
181	0xbe0de646	-0.13857374
182	0x3e500851	0.20315672
183	0xbdf8a642	-0.12141086
184	0x3e3a4db1	0.181937
185	0x3e05e890	0.13076997
186	0x3e150940	0.1455431
187	0xbafb3300	-0.001916498
188	0xbd3fdea8	-0.0468432
189	0x3e27455b	0.16335051
190	0xbe104438	-0.14088523
191	0xbe1c2bc2	-0.15251067
192	0xbda9830e	-0.0827695
193	0xbe65a19a	-0.22424927
194	0x3c0e45b0	0.008683607
195	0xbddaa3b2	-0.10675754
196	0xbe404594	-0.18776542
197	0xbde32e9e	-0.11092876
198	0x3de6cc7e	0.112694725
199	0xbe1b8ada	-0.15189686
200	0xbda7613e	-0.08172844
201	0x3deff3f4	0.11716452
202	0x3de716b6	0.11283629
203	0x3e0fd673	0.1404665
204	0x3e3ed70d	0.18636723
205	0x3e21e90f	0.15811561
206	0x3dc08f5b	0.09402343
207	0x3d16ea0f	0.03684431
208	0x3e5c9d67	0.21544419
209	0xbd831c4f	-0.06401884
210	0x3e44fc4e	0.19236872
211	0x3e123111	0.1427653
212	0xbd484b54	-0.048899963
213	0x3e846516	0.25858372
214	0x3d8eaca1	0.0696652
215	0xbdc2809c	-0.094971865
216	0xbe0a18f5	-0.13486083
217	0x3db57046	0.08859305
218	0xbde17a26	-0.11009626
219	0x3e27e5bd	0.16396232
220	0xbd6ef0b8	-0.058335036
221	0x3da48cb6	0.08034651
222	0x3e6b05ed	0.2295148
223	0xbd2b526c	-0.04182665
224	0xbe6659ed	-0.22495241
225	0xbe2f58fd	-0.1712379
226	0x3c924888	0.017856851
227	0xbe6c8948	-0.23099244
228	0x3e454a9d	0.19266744
229	0xbe1a8c5a	-0.15092602
230	0x3e0916d7	0.13387619
231	0x3e62b245	0.22138317
232	0x3e2e00d3	0.16992502
233	0x3e3f874f	0.1870396
234	0xbe54b75f	-0.20773076
235	0x3cf1fbd8	0.029539034
236	0x3e058f73	0.13043003
237	0x3dd37dc6	0.10326724
238	0xbe025046	-0.12725934
239	0x3d961172	0.07327546
240	0xbe1296a2	-0.14315274
241	0x3e1a99eb	0.15097778
242	0xbdb73b38	-0.08946842
243	0x3e2b352b	0.167195
244	0xbde0f362	-0.109839216
245	0xbe61381e	-0.21994063
246	0xbe1c8dbd	-0.15288444
247	0x3dab7e66	0.08373718
248	0xbe306c65	-0.17228849
249	0xbe3a005a	-0.18164197
250	0xbe17fbc8	-0.1484214
251	0xbbf2f1c0	-0.0074140728
252	0xbe459d2a	-0.19298235
253	0xbe65e3ca	-0.22450176
254	0x3d3a1a55	0.04543527
255	0x3db010b9	0.085969396

gcn_layers.1.bias f4 [128]
0	0x3b984ee9	0.0046480787
1	0x3c490013	0.012268084
2	0xbc026c7a	-0.007960433
3	0xbbed926c	-0.007250121
4	0x3c5e5c9b	0.013571884
5	0xbc287dad	-0.01028387
6	0xbc2aa7c1	-0.010415972
7	0x00000000	0.0
8	0xbbc8185c	-0.0061064195
9	0x3ce5d23d	0.028054351
10	0x3c3d925c	0.011570539
11	0x3c2c411b	0.010513569
12	0xbc1a8ba0	-0.009432703
13	0x3c13bd56	0.009017309
14	0x3bf838d3	0.0075751333
15	0x3c037780	0.0080240965
16	0xbca9cf96	-0.020728868
17	0x3c05adfb	0.008159156
18	0xbc694a6c	-0.014238935
19	0xbbffde74	-0.007808501
20	0x3bbe5f8b	0.0058097295
21	0x3b803294	0.0039122794
22	0xbc06c562	-0.008225771
23	0xbbcfe9e5	-0.006345021
24	0xbc145e8d	-0.009055746
25	0xbbcb2d43	-0.006200464
26	0xbbaea296	-0.0053294403
27	0x3b4f212d	0.0031605468
28	0xbc41d58b	-0.011830698
29	0xbc2f573d	-0.010701952
30	0xbbb8a3f3	-0.0056347786
31	0xbc7a3c9f	-0.015273242
32	0xbbcaf678	-0.006193932
33	0xbb3f1dc7	-0.0029162036
34	0xbbc0cf88	-0.0058841147
35	0xbbb5aae3	-0.005544053
36	0xbae2454c	-0.0017263084
37	0xbcbb3c82	-0.022856
38	0x3ca33fc3	0.019927865
39	0x3ca44f2e	0.020057287
40	0x3b974417	0.0046162712
41	0xbc53bb85	-0.012923126
42	0xbc5ec043	-0.013595643
43	0xbb8c5657	-0.0042827534
44	0xbb88257f	-0.0041548605
45	0xbb4b45d3	-0.003101696
46	0xbad8ba36	-0.0016534987
47	0xbc1b3aab	-0.009474437
48	0xbc705b3a	-0.014670188
49	0x3b170073	0.002304104
50	0x3bb125bf	0.005406111
51	0xbbdb5a98	-0.006694149
52	0xbc1a47b8	-0.009416513
53	0x3b089625	0.0020841446
54	0x00000000	0.0
55	0xbc2801a1	-0.010254295
56	0x00000000	0.0
57	0xbc42ff13	-0.011901635
58	0xbc595b30	-0.01326637
59	0xbb11b1c9	-0.0022231212
60	0xbb0a3bb0	-0.0021092705
61	0xbc4c3bb3	-0.012465405
62	0x3c23daf6	0.010000935
63	0xbc1a774b	-0.009427856
64	0x3c778f81	0.015109898
65	0x3b9b8b9b	0.004746867
66	0x3c597c4d	0.0132742645
67	0x3cffc752	0.031222973
68	0x3b8c668f	0.004284687
69	0x3c0d141a	0.00861075
70	0xbc3717c9	-0.011175104
71	0x3bb0cbdd	0.005395396
72	0xbb1cc2a0	-0.0023919716
73	0xbb231e26	-0.0024889796
74	0xbc1567fb	-0.009119029
75	0x3beaffe2	0.007171617
76	0xbc682d55	-0.014170964
77	0xbc0b892a	-0.008516589
78	0xbb8fd0db	-0.004388911
79	0xbc854b71	-0.016271325
80	0xbbb0ffc9	-0.0054015857
81	0xbc3b51a9	-0.0114330435
82	0x3c0f885d	0.008760539
83	0xbc103a53	-0.008802968
84	0xbc1061ac	-0.008812349
85	0x3c805eb6	0.015670162
86	0x3bbade76	0.005702789
87	0x3c8bc16e	0.017060008
88	0xbb5bce29	-0.003353963
89	0xbcc939a5	-0.02456362
90	0xbc209fc0	-0.009803712
91	0xbc2e7bbd	-0.010649619
92	0xba9494a3	-0.0011335801
93	0xbb99b305	-0.0046905302
94	0xbb8e0658	-0.0043342523
95	0x3a4cfdb6	0.00078197883
96	0xb8f3509c	-0.000116021576
97	0x3b0790d5	0.0020685692
98	0x3b45d503	0.003018678
99	0x3b4e97d4	0.0031523602
100	0x3c9b0fc1	0.01892841
101	0x3c8607dc	0.01636117
102	0x3cd477fb	0.025936117
103	0xbc7d1412	-0.01544668
104	0xbc9da8aa	-0.019245464
105	0xba1f08a4	-0.0006066656
106	0xbc119b7c	-0.008887168
107	0xbc788d35	-0.015170385
108	0xbc905a40	-0.01762116
109	0xbbf4fb62	-0.007476256
110	0x3c46d290	0.012135163
111	0x3b13eb31	0.0022570605
112	0xbbf4ed95	-0.007474611
113	0xbc77d23a	-0.0151258055
114	0xbccc1860	-0.024913967
115	0xbcab11b5	-0.020882467
116	0xbaf39a86	-0.001858548
117	0xbb826b18	-0.0039800517
118	0x3b8b347a	0.004248199
119	0xbc213051	-0.00983818
120	0x3c263dcb	0.0101465685
121	0x3b4c0fff	0.0031137464
122	0x3c550d70	0.013003692
123	0xbc1ec7fa	-0.009691233
124	0xbb79856c	-0.003807391
125	0xbbb2b654	-0.005453864
126	0x3c227382	0.0099152345
127	0xbb09dd7b	-0.0021036554

gcn_layers.1.lin.weight f4 [128, 64]
0	0xbe0f8ee6	-0.14019355
1	0xbd3b87f0	-0.045783937
2	0x3e34d68b	0.17659967
3	0x3cd8eca2	0.026480023
4	0xbdd18662	-0.102307096
5	0x3a8e29ff	0.0010846256
6	0xbb4d6d34	-0.0031345608
7	0xbc1f724f	-0.009731843
8	0xbe2da45b	-0.16957228
9	0x3c829f55	0.015945116
10	0xbd852492	-0.06501116
11	0x3e291c96	0.16514811
12	0x3e7210a4	0.2363916
13	0xbe480e7b	-0.19536774
14	0xbe173ad1	-0.1476853
15	0xbdd2f912	-0.10301413
16	0xbd9a846e	-0.0754479
17	0x3e59eb13	0.2128108
18	0x3e44c9df	0.19217633
19	0xbe164b17	-0.14677082
20	0x3d012ba1	0.03153575
21	0x3e05a48d	0.13051052
22	0xbd02a707	-0.03189757
23	0x3e378585	0.17922027
24	0xbe027800	-0.12741089
25	0x3dd617bf	0.10453748
26	0x3e3dfa9e	0.18552634
27	0xbd5d3a8b	-0.05401091
28	0x3d90311d	0.070406176
29	0x3ddcc9fd	0.10780714
30	0x3da9d394	0.082923084
31	0xbdf95115	-0.12173668
32	0xbde75531	-0.11295546
33	0x3e126dc1	0.1429968
34	0x3cd10bf1	0.02551839
35	0x3dd92bbf	0.10604047
36	0x3e2f7ab7	0.17136656
37	0x3e1b1549	0.15144838
38	0xbe0378f9	-0.12839116
39	0xbe22636a	-0.15858236
40	0xbd952e13	-0.072841786
41	0x3d37fd36	0.044919215
42	0x3d525c2b	0.05135743
43	0x3c595077	0.013263813
44	0xbd74c443	-0.059757482
45	0xbe3200d7	-0.17383133
46	0x3e2e8035	0.17041095
47	0xbdfba07b	-0.122864686
48	0x3e2e8799	0.17043914
49	0x3d5b0dd9	0.053480003
50	0xbdd8a93e	-0.105791554
51	0x3b777194	0.0037756907
52	0x3da01356	0.07816188
53	0x3d101793	0.035178732
54	0xbb43b0d6	-0.002986004
55	0xbd88f6be	-0.06687687
56	0xbdd77b20	-0.10521531
57	0x3ad2c000	0.0016078949
58	0x3e02ce75	0.1277407
59	0x3d949db8	0.07256645
60	0xbd8a604f	-0.06756651
61	0x3defc56c	0.11707577
62	0xbe088339	-0.13331307
63	0xbd0b548d	-0.03401618
64	0xbdb20699	-0.08692665
65	0xbd86d9a1	-0.06584478
66	0xbda0dfbe	-0.078551754
67	0xbe3d103e	-0.18463227
68	0xbdbed8d2	-0.09318699
69	0xbdab8c33	-0.0837635
70	0xbe1898c6	-0.14902028
71	0x3e24b909	0.1608621
72	0x3ded26d0	0.115796685
73	0x3e1c175d	0.15243287
74	0x3cb187f1	0.021671267
75	0x3de5b4e8	0.11216146
76	0xbdde8f7b	-0.108672105
77	0xbdcd3b75	-0.10021106
78	0x3d8d9e58	0.06914967
79	0xbda2cf70	-0.07949722
80	0xbce1717e	-0.027519938
81	0xbdfd7875	-0.12376491
82	0xbdd77c0a	-0.105217054
83	0xbdb81343	-0.08988049
84	0x3d01cf8a	0.031692065
85	0xbd482c41	-0.04887033
86	0xbce935c3	-0.028468018
87	0xbdc69207	-0.09695821
88	0xbcf32338	-0.02967988
89	0xbca3231d	-0.019914204
90	0x3d2c2b66	0.042033575
91	0x3d96a27c	0.0735521
92	0x3de24025	0.11047391
93	0x3e0d9251	0.13825347
94	0x3e0e52bc	0.13898748
95	0x3e3dcfd8	0.18536317
96	0xbcac0daa	-0.02100261
97	0x3e2119a1	0.15732433
98	0xbe6902fd	-0.22755046
99	0x3e2b2baf	0.16715883
100	0xbd8db3e0	-0.06919074
101	0x3d885af2	0.066579714
102	0x3d77ab2c	0.060465977
103	0xbcf14a98	-0.029454514
104	0xbe026031	-0.12732007
105	0xbe2eb60f	-0.17061637
106	0x3e31e8f8	0.17374027
107	0x3e2734a1	0.1632867
108	0xbe29d338	-0.1658448
109	0x3df08373	0.11743822
110	0xbe0e01ea	-0.13867918
111	0x3e21a11d	0.15784116
112	0xbd0fa80c	-0.03507237
113	0xbdc59d79	-0.09649176
114	0x3e0614a7	0.13093816
115	0x3d13f9dd	0.03612696
116	0x3d553ecf	0.052061852
117	0x3e02f929	0.1279036
118	0xbdba1f5b	-0.09088012
119	0xbdcadee0	-0.09905791
120	0xbe29425b	-0.16529219
121	0xbe21b1fa	-0.15790549
122	0x3be9b1bb	0.007131783
123	0xbd842406	-0.064521834
124	0xbca60144	-0.020264275
125	0xbdcba546	-0.09943633
126	0xbdf61137	-0.12015002
127	0xbc205d98	-0.0097879395
128	0x3e143a2d	0.14475317
129	0x3e180a56	0.14847693
130	0xbde10af0	-0.10988414
131	0xbde5d479	-0.112221666
132	0xbe246993	-0.16055898
133	0x3dae5a81	0.08513356
134	0xbe252771	-0.16128327
135	0xbe2a2a56	-0.16617712
136	0xbdd57c20	-0.104240656
137	0x3d7c20f3	0.06155486
138	0x3d835951	0.0641352
139	0x3d406917	0.04697522
140	0xbe5f9fdc	-0.21838325
141	0x3dd209e4	0.10255793
142	0x3db512de	0.08841489
143	0x3e1f9be5	0.15586813
144	0x3d95a5cb	0.07307013
145	0xbd905618	-0.07047671
146	0xbe29d97d	-0.16586871
147	0xbe37c661	-0.1794677
148	0x3dc4fcd8	0.096185386
149	0x3d8c9e06	0.06866078
150	0xbde13554	-0.109965
151	0x3dc46cd5	0.095910706
152	0x3e0bcbc4	0.13651949
153	0x3dd9f902	0.106431976
154	0xbdafe271	-0.08588112
155	0xbd413b28	-0.047175556
156	0x3cdbe7e1	0.026843967
157	0x3c8db527	0.017298294
158	0x3df74402	0.12073518
159	0x3d773289	0.06035093
160	0xbd9fc9a5	-0.078021325
161	0x3e1e1a0b	0.15439622
162	0x3e112088	0.14172566
163	0xbe1f763a	-0.15572444
164	0x3c9f5fdd	0.01945489
165	0xbe45b40f	-0.19306968
166	0x3cbc7d40	0.023008943
167	0x3d48908c	0.048965976
168	0x3dd78da2	0.10525061
169	0x3df6be22	0.12047984
170	0xbd721bfe	-0.059108727
171	0x3dac7105	0.08419994
172	0xbb5f1cfc	-0.0034044376
173	0x3d871636	0.06596033
174	0xbdf2397b	-0.1182737
175	0xbc771695	-0.015081068
176	0x3d93243f	0.07184648
177	0xbca4b999	-0.020108031
178	0x3d1d653e	0.03842663
179	0x3dd6b3ec	0.10483536
180	0x3df13b4b	0.11778887
181	0x3da7f6d6	0.08201377
182	0xbe14d2cd	-0.14533539
183	0x3e19fa44	0.15036875
184	0xbd3907e4	-0.04517354
185	0x3e01480d	0.12625141
186	0x3e1aec37	0.15129171
187	0xbc546d24	-0.012965474
188	0xbccba97e	-0.024861094
189	0xbdfc50f9	-0.12320132
190	0x3da7f78b	0.08201512
191	0xbc1a8c2d	-0.009432835
192	0xbd8d9faa	-0.06915219
193	0xbd90305b	-0.07040473
194	0xbd9f325a	-0.07773276
195	0x3dfbb85c	0.12291023
196	0xbdb81bdd	-0.089896895
197	0x3d513229	0.051073227
198	0x3e323471	0.17402817
199	0xbe13f18c	-0.14447612
200	0xbe3c594d	-0.1839344
201	0x3d6d85f7	0.057989087
202	0x3d96c0fe	0.07361029
203	0xbb71ca0e	-0.0036894116
204	0xbbbd232b	-0.0057720146
205	0x3d741223	0.05958761
206	0xbe208d21	-0.15678836
207	0xbdc12388	-0.09430605
208	0xbe243610	-0.16036248
209	0x3d83b5b2	0.0643114
210	0xbe399386	-0.18122682
211	0x3e2e347e	0.17012212
212	0x3d98cbd2	0.07460751
213	0xbd63db56	-0.055629097
214	0x3d8a66c1	0.0675788
215	0x3e1bc59f	0.15212105
216	0xbda1fe47	-0.07909828
217	0x3dae9e19	0.085262485
218	0xbdae4b63	-0.085104726
219	0x3e2587e2	0.16165116
220	0x3d81e8bc	0.06343219
221	0x3b11a046	0.0022220775
222	0x3d55c4fe	0.05218982
223	0xbbd5997d	-0.0065185414
224	0x3c2bed70	0.010493621
225	0x3c81d0b0	0.01584658
226	0xbd3ab8f2	-0.045586534
227	0xbdcc8045	-0.09985403
228	0xbdaa1034	-0.08303872
229	0xbd51f528	-0.05125919
230	0x3e05176f	0.1299722
231	0xbd6a48fe	-0.057198517
232	0xbd90bc3b	-0.07067152
233	0xbdc58a50	-0.09645522
234	0xbd37acf8	-0.04484269
235	0xbdfe5500	-0.12418556
236	0x3d5ccd65	0.053906817
237	0x3d21dcee	0.039517336
238	0x3c29956c	0.010350566
239	0xbd137173	-0.035996865
240	0x3d3723f4	0.044712022
241	0xbe0d9895	-0.13827737
242	0xbcd15ff5	-0.025558451
243	0x3e4cf6c9	0.20016016
244	0xbd90a745	-0.07063154
245	0xbe348ca2	-0.17631772
246	0x3d26b7a7	0.04070249
247	0x3e02b3ea	0.12763944
248	0xbdaf6b83	-0.08565428
249	0xbdbcdf17	-0.092222385
250	0x3e13205e	0.14367816
251	0xbd2429f1	-0.04007906
252	0xbc921dfa	-0.01783656
253	0x3d4f125b	0.050554615
254	0xbcec3c4e	-0.02883735
255	0x3c5a067b	0.013307209

gat_layers.0.att_src f4 [1, 4, 64]
0	0x3da61c07	0.081108145
1	0xbd633ac7	-0.055475976
2	0x3eafe568	0.3435471
3	0xbde628dc	-0.11238262
4	0xbe9acb48	-0.30233216
5	0x3e93ed62	0.28892046
6	0xbdbaae6f	-0.09115302
7	0x3d2dc154	0.0424207
8	0x3e03b777	0.12862955
9	0xbc86fe57	-0.0164787
10	0xbe9868a8	-0.29767346
11	0xbdb30f6d	-0.087431766
12	0x3e4cd1c8	0.200019
13	0x3d8d3975	0.06895725
14	0x3e9c1a58	0.3048885
15	0x3e06228c	0.13099116
16	0x3e764c68	0.24052584
17	0x3e082f9d	0.13299413
18	0x3e40bdad	0.18822356
19	0x3e895d43	0.26828966
20	0x3dad822f	0.08472096
21	0x3bebdd8d	0.007198042
22	0xbe3604d8	-0.17775285
23	0xbdd6866b	-0.10474857
24	0x3e92983e	0.28631777
25	0xbe0dbb05	-0.13840874
26	0xbe2dc4fb	-0.16969673
27	0xbdf1ee79	-0.11813063
28	0x3e37ebd4	0.17961055
29	0xbe461e11	-0.19347407
30	0xbe07ba02	-0.1325455
31	0xbe5a19bc	-0.2129888
32	0x3d5def93	0.054183554
33	0x3e47803b	0.1948251
34	0x3e56de92	0.20983341
35	0x3e2f63ed	0.17127962
36	0xbe815969	-0.25263527
37	0xbe1ea443	-0.15492348
38	0x3e8a0698	0.26958156
39	0x3e03f819	0.1288761
40	0x3e3e0ba8	0.18559134
41	0xbe985ed8	-0.2975986
42	0xbe720738	-0.23635566
43	0x3e0cae9a	0.1373848
44	0xbeba8389	-0.36428478
45	0x3e7042f6	0.23463044
46	0x3d1305d7	0.03589424
47	0xbe4dbaf9	-0.20090856
48	0xbe79ff83	-0.24413876
49	0x3dc3a59f	0.09553074
50	0x3e657361	0.22407295
51	0xbe183e79	-0.14867581
52	0xbe1bb4f7	-0.15205751
53	0xbe45c918	-0.19314992
54	0x3e1ef4db	0.15523092
55	0x3e930eb0	0.28722143
56	0x3e512ed8	0.20428026
57	0xbcef0074	-0.02917502
58	0x3de82345	0.11334852
59	0xbe2a1386	-0.1660901
60	0xbe7d4cc8	-0.24736321
61	0x3e47c7a3	0.19509749
62	0xbe7406bd	-0.23830695
63	0x3db86b44	0.09004834
64	0x3e57b48c	0.21064967
65	0x3e93957f	0.28824994
66	0x3e827795	0.2548186
67	0x3e1e84dc	0.1548037
68	0xbbf6dfcb	-0.0075340024
69	0xbe8d8f36	-0.27648324
70	0xbe2fa757	-0.17153679
71	0x3d9f307b	0.07772919
72	0x3e75b8f0	0.2399633
73	0xbe672a6d	-0.22574778
74	0x3d3a46e4	0.045477763
75	0x3db237f1	0.08702076
76	0xbc071dd0	-0.008246854
77	0xbe1a3d14	-0.15062362
78	0x3e812dc8	0.2523024
79	0xbd0e1d76	-0.034696065
80	0x3e780c57	0.24223457
81	0x3e9bd8f9	0.30438974
82	0x3c588db3	0.0132173775
83	0xbe2a051d	-0.16603513
84	0x3e56e4fd	0.2098579
85	0xbda752ff	-0.08170127
86	0xbaca5d34	-0.0015439154
87	0xbc03ae95	-0.008037229
88	0xbe2fdd08	-0.1717416
89	0xbe0c656a	-0.13710561
90	0x3e6b5f67	0.22985612
91	0xbdcdf5be	-0.10056637
92	0xbe030274	-0.12793905
93	0xbda38cee	-0.079858646
94	0x3e9026e6	0.28154677
95	0x3e896513	0.26834926
96	0xbd8dff34	-0.06933442
97	0xbe8c6005	-0.27417007
98	0x3e5e210c	0.21692294
99	0xbc5e4a1e	-0.013567476
100	0xbd8a95eb	-0.06766876
101	0x3e4a4764	0.19753796
102	0x3d578507	0.0526171
103	0x3dbd7656	0.092510864
104	0x3d13d7e6	0.03609457
105	0x3d805869	0.06266863
106	0x3e979eac	0.29613245
107	0x3e0397d0	0.1285088
108	0xbd1c2f62	-0.038131125
109	0x3d260236	0.040529452
110	0xbe66b5de	-0.22530314
111	0xbd84d2a9	-0.06485493
112	0x3d920fdf	0.071319334
113	0x3e06a7a4	0.13149887
114	0x3e583016	0.21112093
115	0xbe5b60b9	-0.21423616
116	0x3e0eaaa3	0.1393228
117	0x3e93b29b	0.28847203
118	0x3e1f1ad7	0.15537582
119	0xbc07068f	-0.00824131
120	0xbe6a43a0	-0.2287736
121	0x3dc8fafd	0.09813497
122	0xbd847993	-0.06468501
123	0xbdc9bd15	-0.09850518
124	0x3e635294	0.2219947
125	0x3e2f323e	0.1710901
126	0xbd6f81df	-0.058473464
127	0x3e7d22e0	0.24720335
128	0xbeae114b	-0.33997568
129	0xbe7123ed	-0.23548861
130	0xbd4cc65e	-0.049993865
131	0x3e18dea1	0.14928676
132	0xbe8703b7	-0.26370022
133	0xbe1a9575	-0.15096076
134	0xbe49a43d	-0.19691558
135	0x3db87c29	0.09008057
136	0x3e4e439b	0.20142977
137	0x3e206a65	0.15665586
138	0xbe18cce3	-0.14921908
139	0x3e8752e4	0.26430428
140	0xbdafecab	-0.08590063
141	0x3e62ee8b	0.2216131
142	0x3e77364d	0.24141808
143	0x3d8da5da	0.06916399
144	0x3da5a659	0.08088369
145	0x3de118ec	0.109910816
146	0xbe867006	-0.26257342
147	0xbe14eb11	-0.14542796
148	0xbe965c9b	-0.29367527
149	0xbd9c0c3f	-0.07619523
150	0x3dc5fb0f	0.09667026
151	0xbe912ced	-0.28354588
152	0x3b92792e	0.004470012
153	0x3e15ce88	0.14629567
154	0x3e261608	0.16219342
155	0xbe3564e4	-0.17714268
156	0xbdbe9910	-0.09306538
157	0x3a5e8cf3	0.0008489631
158	0xbe67e48f	-0.22645782
159	0x3d91246b	0.07087024
160	0xbe771ed2	-0.24132851
161	0x3d747e2a	0.059690632
162	0x3e990bfb	0.29891953
163	0xbe7f45d0	-0.24928975
164	0xbe386115	-0.18005784
165	0xbe1e501f	-0.15460251
166	0xbdb42dbd	-0.087977864
167	0x3e2f1ab1	0.17100026
168	0xbe70e3ee	-0.23524448
169	0x3e852e23	0.26011762
170	0x3e61a531	0.22035672
171	0xbc202fc3	-0.009777012
172	0x3e82187e	0.2540931
173	0xbdc36acd	-0.09541855
174	0xbe5ff000	-0.21868896
175	0x3df424f9	0.119211145
176	0xbd48eeb1	-0.04905576
177	0xbdad4ef1	-0.084623225
178	0xbdd6f866	-0.10496597
179	0xbe972362	-0.29519182
180	0xbe63780d	-0.22213764
181	0x3d8a42f7	0.06751054
182	0x3dbcf9f6	0.09227364
183	0xbe3dbc47	-0.18528853
184	0xbd9b1b68	-0.07573587
185	0x3e889bc3	0.26681337
186	0x3dea972f	0.11454617
187	0x3e4975fc	0.19673914
188	0x3e96b35a	0.2943371
189	0xbe665a8e	-0.22495481
190	0xbe7c1979	-0.24619092
191	0x3e3cccd8	0.18437517
192	0xbe4305b1	-0.1904514
193	0x3e8e594f	0.27802512
194	0xbe42f6d8	-0.19039476
195	0xbe2193d2	-0.15779045
196	0x3e5508e5	0.20804174
197	0x3e8eb43b	0.2787188
198	0xbe8d2c10	-0.2757268
199	0x3e29e653	0.16591768
200	0x3e1dac3d	0.15397735
201	0xbdeecaa4	-0.116597444
202	0x3de95938	0.1139397
203	0x3d793fe3	0.060851943
204	0xbd0ed5ed	-0.034871984
205	0xbe081472	-0.1328905
206	0xbe5056f3	-0.20345668
207	0x3e6e4f8f	0.23272537
208	0x3e8600d0	0.26172495
209	0xbdedec93	-0.116173886
210	0xbbd59045	-0.0065174424
211	0x3d49d571	0.04927582
212	0x3cfc1a93	0.03077439
213	0xbd172ce8	-0.03690806
214	0x3e559d06	0.20860681
215	0xbe222c1c	-0.15837139
216	0x3e9ffa1d	0.3124551
217	0x3e65fcc1	0.22459699
218	0xbd1823d6	-0.03714355
219	0x3e516be9	0.2045132
220	0xbd8df7b2	-0.0693201
221	0x3e73bf2e	0.23803398
222	0x3e980b74	0.29696238
223	0xbda6a76d	-0.08137403
224	0xbcb33611	-0.021876367
225	0x3dc2bcb8	0.095086515
226	0xbea1174c	-0.31463087
227	0x3cbcec4d	0.023061896
228	0xbe071ad7	-0.13193832
229	0xbd0ca8e0	-0.03434074
230	0xbe57211e	-0.21008727
231	0x3e9521e1	0.2912741
232	0xbe28f0b5	-0.16498072
233	0x3e48a27b	0.19593231
234	0xbd878131	-0.06616438
235	0x3e3d0f80	0.18462944
236	0x3de028a7	0.10945254
237	0xbe7f4444	-0.24928385
238	0xbe554687	-0.20827685
239	0xbde9437a	-0.11389823
240	0xbe2da5eb	-0.16957824
241	0xbe74f82e	-0.23922798
242	0xbd535d29	-0.051602516
243	0xbe78c768	-0.24294817
244	0x3e87afef	0.26501414
245	0x3e53ecdd	0.20695825
246	0xbe31092b	-0.17288654
247	0xbd5f6274	-0.05453725
248	0xbe19e080	-0.15027046
249	0xbc347e3f	-0.011016428
250	0xbdbcffe4	-0.09228495
251	0xbe1a7a89	-0.15085806
252	0x3dd4f6a7	0.10398608
253	0xbe82f2d0	-0.25575876
254	0xbe5f9fb5	-0.21838267
255	0x3e4aef8d	0.19817944

gat_layers.0.att_dst f4 [1, 4, 64]
0	0xbe870bc6	-0.2637617
1	0x3d910344	0.07080701
2	0x3de206d0	0.11036456
3	0xbcb502e4	-0.022096105
4	0xbea35aeb	-0.31905302
5	0x3e1465c5	0.14491947
6	0xbdd8f408	-0.1059342
7	0xbded19e3	-0.11577203
8	0xbe1d1266	-0.1533905
9	0x3dc5178c	0.09623632
10	0xbdd369f3	-0.103229426
11	0xbe33df07	-0.17565547
12	0xbe352b0b	-0.17692201
13	0xbde7581a	-0.11296101
14	0x3d24982e	0.040184192
15	0xbe451c57	-0.19249092
16	0x3da46d20	0.080286264
17	0x3e22dee6	0.15905342
18	0xbe951d61	-0.29123977
19	0xbe8d6e60	-0.27623272
20	0xbdd20dbc	-0.10256526
21	0xbdda7f02	-0.10668756
22	0xbdca2396	-0.09870069
23	0xbce3c275	-0.027802685
24	0xbe3fad0a	-0.18718353
25	0x3e719fb8	0.23596084
26	0x3df26cd2	0.11837162
27	0xbe07b289	-0.132517
28	0x3e825960	0.25458813
29	0xbdc4c10e	-0.09607135
30	0xbccb1008	-0.024787918
31	0x3e5dd5d9	0.21663608
32	0x3e4d7ccb	0.20067136
33	0x3d225e82	0.03964091
34	0x3df900ae	0.12158333
35	0x3d6fe288	0.058565646
36	0x3e833ccd	0.25632325
37	0xbb86af77	-0.0041102725
38	0x3e560f1b	0.209042
39	0xbe90edf4	-0.28306544
40	0x3daa0377	0.08301442
41	0x3d6e4d74	0.058179334
42	0xbe4a6551	-0.19765212
43	0x3e698a63	0.22806697
44	0xbe2a2bf6	-0.16618332
45	0xbe4ede56	-0.20202002
46	0x3e81103a	0.25207692
47	0xbd8f0118	-0.069826305
48	0x3e628408	0.22120678
49	0x3df56e6b	0.11983951
50	0x3def5919	0.11686916
51	0x3dbc198e	0.09184562
52	0x3d51ca36	0.051218234
53	0x3b3b78dc	0.0028605973
54	0x3e739738	0.23788154
55	0xbda04b2d	-0.07826839
56	0xbd881f35	-0.06646577
57	0xbe4ae8d4	-0.1981538
58	0x3d8297b7	0.063765936
59	0x3e9dc632	0.30815274
60	0xbd94f8f4	-0.072740465
61	0xbe4f6673	-0.20253925
62	0xbc7fb8cc	-0.015608024
63	0x3e4302ad	0.1904399
64	0xbe87db36	-0.26534432
65	0x3d83554b	0.06412753
66	0xbd511eaa	-0.051054634
67	0x3e9255fc	0.28581226
68	0x3da1c940	0.078997135
69	0xbdf56bd0	-0.11983454
70	0xbcd17a0e	-0.025570896
71	0x3db16111	0.08661092
72	0xbe91926a	-0.28432018
73	0x3e2ed87d	0.17074771
74	0xbd005407	-0.031330135
75	0xbddc2cba	-0.107507184
76	0x3e052f20	0.13006258
77	0xbe516aa5	-0.20450838
78	0xbcfc3545	-0.03078712
79	0x3e3b9210	0.18317437
80	0xbddc7628	-0.10764724
81	0xbda27954	-0.07933298
82	0xbe868af6	-0.26277894
83	0x3e835198	0.2564819
84	0x3e785755	0.24252065
85	0x3e8dd183	0.27698907
86	0x3e7a9ab9	0.24473085
87	0x3e2cdde8	0.16881526
88	0x3e357f4d	0.17724343
89	0x3e37afe6	0.17938194
90	0xbdf828cf	-0.121171586
91	0xbe18de7a	-0.14928618
92	0xbcbfbecc	-0.023406409
93	0xbe4323c5	-0.19056614
94	0xbdca5c07	-0.09880834
95	0x3e20000b	0.15625016
96	0x3e84a151	0.25904325
97	0xbc860b33	-0.016362762
98	0x3e43e260	0.19129324
99	0x3bdb7033	0.006696725
100	0x3ba681ff	0.0050814147
101	0xbd1663e3	-0.036716353
102	0xbe75ec2b	-0.24015872
103	0x3e8f60d3	0.2800356
104	0x3e35272f	0.17690729
105	0x3e20e72f	0.1571319
106	0x3e934781	0.2876549
107	0xbe306224	-0.17224938
108	0x3db5adba	0.08871026
109	0x3d89ab99	0.06722183
110	0xbe5358c3	-0.20639329
111	0x3e9374dc	0.28800094
112	0x3e21a60b	0.15785997
113	0xbcd51a5c	-0.026013546
114	0xbe654377	-0.22389017
115	0x3db62d9e	0.088954195
116	0x3e844a7a	0.2583807
117	0x3e70ced4	0.23516399
118	0x3e3b578f	0.1829512
119	0x3d32a710	0.043616354
120	0xbe5cad5a	-0.21550503
121	0x3dac0510	0.08399403
122	0xbe3a9da1	-0.18224193
123	0x3da02fde	0.0782163
124	0xbe5eb296	-0.21747813
125	0x3d09bd4b	0.03362779
126	0xbe18b374	-0.14912206
127	0x3e01e16f	0.12683652
128	0xbd0f7510	-0.03502375
129	0x3ca9d587	0.0207317
130	0x3d79a5b5	0.060949046
131	0x3d9d668e	0.076855764
132	0x3c63eec0	0.013911903
133	0x3d7a78f8	0.06115052
134	0xbe85a493	-0.26102123
135	0xbde09c35	-0.10967294
136	0x3c5fdb19	0.013663077
137	0xbdf797ae	-0.120894775
138	0x3e163969	0.14670338
139	0xbab5322a	-0.0013824154
140	0xbe652622	-0.22377828
141	0x3dae6670	0.08515632
142	0xbe0b843b	-0.1362466
143	0x3dfad246	0.12247138
144	0xbe10a8ff	-0.14126967
145	0xbdb2c456	-0.08728854
146	0x3d1f03c6	0.038821958
147	0x3e54f77d	0.20797534
148	0x3b84e779	0.004055914
149	0x3e8a5f64	0.27025902
150	0xbd1a6390	-0.037692606
151	0xbe26ad59	-0.16277064
152	0x3e95d378	0.292629
153	0x3de4f9b1	0.11180437
154	0x3e40173a	0.1875886
155	0x3e78a5c0	0.24281979
156	0x3e111ce3	0.14171176
157	0x3dafd193	0.08584895
158	0x3e35b6b3	0.17745475
159	0x3d3d8661	0.04627073
160	0xbe685b16	-0.22690997
161	0xbe645ab5	-0.22300227
162	0x3e33186f	0.1748979
163	0xbc65fc44	-0.014037196
164	0xbe314967	-0.17313157
165	0xbd9185f9	-0.071056314
166	0xbe1503df	-0.14552258
167	0x3e8e3b90	0.27779818
168	0x3e09bfcc	0.13452071
169	0x3dd18707	0.102308325
170	0xbe040ac9	-0.12894739
171	0x3e935555	0.2877604
172	0x3d67f367	0.05662861
173	0x3e6997e1	0.22811843
174	0xbd3d0b94	-0.04615362
175	0xbe91b887	-0.28461096
176	0x3df70a2f	0.12062489
177	0xbe06d8ff	-0.13168715
178	0xbe181f88	-0.14855778
179	0x3d043ff4	0.032287553
180	0x3e2e6063	0.17028956
181	0xbdfd8015	-0.12377945
182	0x3d951a6d	0.07280431
183	0xbe337b7b	-0.17527573
184	0xbe50a453	-0.20375185
185	0x3e66bf40	0.22533894
186	0x3d54a3f2	0.051914163
187	0x3e01233b	0.12611096
188	0xbc517ea2	-0.012786539
189	0xbe077780	-0.1322918
190	0x3dce4754	0.100721985
191	0x3e9972bc	0.29970348
192	0xbc32923c	-0.010899123
193	0x3da9dfbd	0.08294628
194	0xbe5fdbf1	-0.21861245
195	0x3e2d7bd9	0.16941775
196	0x3e32d007	0.17462169
197	0x3c8113d8	0.015756533
198	0xbe0127bf	-0.12612818
199	0xbe55531a	-0.20832482
200	0xbe7ddc73	-0.24791126
201	0x3e0485a4	0.12941605
202	0xbe0936f4	-0.13399869
203	0xbe99dad0	-0.30049753
204	0x3d11acbc	0.035565123
205	0x3e864273	0.26222572
206	0xbe5ae524	-0.21376473
207	0x3d457e5c	0.04821621
208	0xbe676e93	-0.22600774
209	0xbe470c73	-0.19438343
210	0xbd692af0	-0.056925714
211	0x3de9ffd1	0.11425746
212	0x3dc33dc8	0.09533268
213	0xbe9aa08b	-0.3020061
214	0xbe9128da	-0.2835148
215	0xbd5f6294	-0.05453737
216	0x3e84aee2	0.25914675
217	0x3d1af74d	0.0378335
218	0xbce5b280	-0.028039217
219	0x3e8fde5e	0.2809934
220	0x3e56b4c0	0.20967388
221	0x3d14615c	0.03622566
222	0xbe86b67c	-0.263111
223	0xbe6f85ac	-0.23390836
224	0x3e3b7521	0.183064
225	0x3e9a5b4f	0.30147788
226	0xbe0806e9	-0.13283886
227	0xbd42a85c	-0.04752384
228	0x3e9c982a	0.30584842
229	0xbd4026a7	-0.04691186
230	0xbe82c99c	-0.2554444
231	0xbe1092c2	-0.14118484
232	0xbe648eb8	-0.22320068
233	0x3e004a13	0.12528257
234	0x3c990b5d	0.018682176
235	0xbcfe82cf	-0.031068234
236	0x3e24c077	0.16089045
237	0x3e156463	0.14589076
238	0x3e340a6e	0.17582104
239	0xbe1583eb	-0.14601104
240	0x3d41829d	0.047243703
241	0x3e850ba5	0.25985447
242	0x3cb067e1	0.021533908
243	0x3e459c9a	0.1929802
244	0x3e4d931c	0.20075649
245	0x3c0f8e63	0.008761975
246	0x3acf9182	0.0015836211
247	0xbe4ddf08	-0.20104611
248	0xbdbda747	-0.09260421
249	0xbc966839	-0.018360244
250	0x3dfa99d6	0.12236373
251	0xbc122587	-0.00892008
252	0x3e4699fe	0.19394681
253	0x3d8188b4	0.06324902
254	0xbda064a7	-0.07831698
255	0xbe2345a5	-0.15944536

gat_layers.0.bias f4 [64]
0	0xbcae4c74	-0.02127669
1	0xbc8d837a	-0.017274607
2	0xbca88ac8	-0.020573989
3	0xbc4827f8	-0.012216561
4	0x39c8ba08	0.00038285577
5	0x3c8b97e1	0.017040195
6	0x3c020b42	0.007937254
7	0x00000000	0.0
8	0xbc069905	-0.008215194
9	0xbbd417b6	-0.006472553
10	0xbc47b105	-0.012188201
11	0xbb68be96	-0.0035513989
12	0x00000000	0.0
13	0xbc20ac86	-0.009806758
14	0xb967e7d4	-0.0002211624
15	0xbcbeaad0	-0.02327481
16	0xbae6f28c	-0.0017619892
17	0xbc929b2e	-0.017896261
18	0xba9ec020	-0.0012111701
19	0xbb259407	-0.0025265233
20	0xbc55097d	-0.01300275
21	0xbbc8b884	-0.0061255116
22	0x3c15c651	0.009141521
23	0xbca0464a	-0.019564766
24	0xbbcdfdf1	-0.0062863757
25	0xbaf01955	-0.0018318096
26	0x398f39b0	0.00027318066
27	0xbac1dcff	-0.0014790593
28	0x39b93fa0	0.00035333354
29	0xbb974b05	-0.0046170973
30	0xbbcdaa4f	-0.006276406
31	0xbc266fc6	-0.010158485
32	0xbc0c5f98	-0.008567713
33	0x00000000	0.0
34	0x39258924	0.00015786715
35	0xbbf9239e	-0.007603123
36	0xbc8434f3	-0.01613853
37	0xbae1dc3e	-0.0017231775
38	0xbb025b6f	-0.0019890924
39	0x00000000	0.0
40	0x00000000	0.0
41	0x00000000	0.0
42	0x3d040167	0.0322279
43	0xbb69d801	-0.0035681727
44	0x00000000	0.0
45	0xbc4039b4	-0.0117325075
46	0x3c96f107	0.018425478
47	0xbc052114	-0.008125562
48	0xbb98282f	-0.004643462
49	0xbc121c83	-0.008917931
50	0xbc424d7f	-0.011859297
51	0x3cec204e	0.028823998
52	0xbb3e3744	-0.002902464
53	0x00000000	0.0
54	0x3b9cfa85	0.0047906064
55	0x3c3e87a7	0.011629022
56	0xbc066783	-0.00820339
57	0x00000000	0.0
58	0xbb93fc87	-0.0045161876
59	0xbc8adaa0	-0.016949952
60	0x00000000	0.0
61	0xbc6207fb	-0.013795848
62	0xbc2dc46f	-0.010605915
63	0xbbc10a47	-0.0058911177

gat_layers.0.lin.weight f4 [256, 36]
0	0xbd20913e	-0.039201014
1	0x3c3de36c	0.011589866
2	0x3df6358b	0.12021931
3	0x3e0f7617	0.14009891
4	0xbc9eebc3	-0.01939953
5	0xbe4e71a2	-0.20160535
6	0xbd97c426	-0.07410459
7	0x3dccd034	0.10000649
8	0xbe0021cc	-0.12512892
9	0x3dcccd2a	0.100000694
10	0xbd3c8400	-0.046024323
11	0xbdc4b596	-0.09604947
12	0xbd9a369c	-0.07529947
13	0xbda66414	-0.08124557
14	0x3d871184	0.06595138
15	0xbe029f0d	-0.12755986
16	0xbd5aec1e	-0.053447835
17	0x3dddc242	0.10828067
18	0x3dc1d178	0.09463781
19	0xbd579986	-0.052636646
20	0xbd621d7e	-0.055203907
21	0x3c024935	0.007952024
22	0xbd5c3a66	-0.05376663
23	0x3ddf25a5	0.10895852
24	0xbdcfc303	-0.101446174
25	0xbdefaf8a	-0.11703403
26	0xbde8d4cf	-0.11368715
27	0xbd5db190	-0.054124415
28	0xbe13d848	-0.14437973
29	0xbe0cd50f	-0.1375315
30	0xbd26ce70	-0.040724218
31	0xbd3df922	-0.04638017
32	0x3ded1a2a	0.11577256
33	0x3dbc4930	0.09193647
34	0x3cb3663c	0.021899335
35	0xbc6de7a3	-0.0145205585
36	0xbda44c0c	-0.08022317
37	0xbe1ea804	-0.1549378
38	0xbd678d70	-0.05653137
39	0xbe04d87b	-0.12973206
40	0xbbd38f0d	-0.006456262
41	0x3d812ae7	0.06307011
42	0xbe13195f	-0.14365147
43	0xbd91651d	-0.07099364
44	0x3d5371ad	0.05162208
45	0xb906b400	-0.00012846291
46	0xbc87c808	-0.016574875
47	0x3e0f9597	0.14021908
48	0xbd55cbe4	-0.0521964
49	0xbdf55377	-0.1197881
50	0xbdd0ed3a	-0.102014974
51	0xbd97b190	-0.07406914
52	0x3dab8e9a	0.083768085
53	0x3d8fdfda	0.07025118
54	0x3d4a4694	0.049383715
55	0x3d054140	0.03253293
56	0x3e0e8397	0.13917385
57	0xbdfd2b05	-0.12361721
58	0xbdd67a90	-0.10472596
59	0xbc9d531b	-0.019204667
60	0x3dddc23b	0.10828062
61	0xbe0bb347	-0.13642608
62	0xbd41e79b	-0.047340017
63	0x3d99ff1c	0.075193614
64	0x3ddcf82e	0.10789524
65	0xbe0bb1c4	-0.13642031
66	0xbdd0a0fd	-0.10186956
67	0x3de2a9e6	0.11067562
68	0x3c8c2578	0.01710771
69	0x3d240036	0.040039264
70	0xbe19c0fb	-0.15015022
71	0xbce2d439	-0.027689086
72	0xba3b4eeb	-0.00071452436
73	0x3cfa2c26	0.03053863
74	0x3e1ba83f	0.152009
75	0x3e1b0776	0.15139565
76	0xbdf4a8ec	-0.11946282
77	0xbe0805e1	-0.13283493
78	0xbe0f8fc0	-0.1401968
79	0x3b853640	0.004065305
80	0x3e1f770e	0.1557276
81	0xbdbfb60a	-0.09360893
82	0x3d979bc8	0.0740276
83	0xbcb9aee4	-0.022666402
84	0x3dd54ddc	0.10415241
85	0x3c3f8c00	0.011691093
86	0xbd66a424	-0.05630888
87	0xbdabc98c	-0.083880514
88	0xbdd80013	-0.10546889
89	0xbdffdc61	-0.12493206
90	0x3d961a9c	0.07329294
91	0xbdf6bcd7	-0.12047737
92	0xbe067f56	-0.13134512
93	0x3e30dedb	0.17272513
94	0xbd23c994	-0.03998716
95	0x3d711ce3	0.05886544
96	0x3d36619e	0.04452669
97	0xbd2d2f14	-0.042281225
98	0xbdaac07f	-0.08337497
99	0xbdf42b74	-0.119223505
100	0x3db6f287	0.08932977
101	0xbe0572db	-0.13032095
102	0x3cfaff33	0.030639267
103	0x3db5c082	0.088746086
104	0xbb614fc0	-0.003437981
105	0x3d15b97c	0.036553845
106	0x3d287524	0.04112734
107	0xbdba1da0	-0.09087682
108	0xbdb5eff1	-0.08883656
109	0xbbb63e00	-0.00556159
110	0x3d8d7f2d	0.069090225
111	0xbdc6b83c	-0.09703109
112	0x3daecf2c	0.08535609
113	0xbd810e80	-0.06301594
114	0x3daf415a	0.08557387
115	0x3cae0d10	0.021246463
116	0xbc0f9118	-0.00876262
117	0xbda24036	-0.079224035
118	0x3ba18fa0	0.0049304515
119	0x3ddf266e	0.10896002
120	0x3d39eaa4	0.045389786
121	0x3e03e085	0.12878616
122	0xbdae8210	-0.08520901
123	0xbd84c10e	-0.06482135
124	0x3d7ae2e8	0.06125155
125	0xbab06000	-0.0013456345
126	0xbda92998	-0.082598865
127	0xbdc2cb62	-0.095114484
128	0x3dd0091e	0.10157989
129	0x3dbc9a1b	0.09209081
130	0x3e03fbd9	0.12889041
131	0x3d3d6ac0	0.046244383
132	0x3d8e786a	0.06956561
133	0x3de04f02	0.109525695
134	0x3d13e24c	0.036104485
135	0xbde6d2a4	-0.11270645
136	0x3dfe282d	0.12410007
137	0xbd28c671	-0.041204873
138	0x3c0c41f5	0.008560647
139	0x3e0e980b	0.13925187
140	0x3deddaca	0.11613996
141	0x3dcd3820	0.100204706
142	0x3d78be87	0.060728576
143	0x3da4a6cd	0.08039627
144	0xbdc90124	-0.09814671
145	0x3dc90f98	0.098174274
146	0x3cb3fc69	0.021970944
147	0x3d44e1ad	0.048066784
148	0xbd2422bd	-0.04007219
149	0xbc829a53	-0.015942728
150	0xbc81517c	-0.015785925
151	0x3dc5fe42	0.096676365
152	0x3be40de0	0.006959662
153	0xbdadb337	-0.08481448
154	0x3e0b9255	0.1363004
155	0x3dc80de6	0.09768276
156	0x3c927be0	0.017881334
157	0xbbc08c40	-0.005876094
158	0x3d524e30	0.051344097
159	0x3d59362c	0.053030178
160	0x3e124df7	0.14287554
161	0x3d601ff8	0.054717988
162	0xbc689ec0	-0.014198005
163	0xbd869675	-0.06571666
164	0xbda605f7	-0.081066065
165	0xbdc91d04	-0.098199874
166	0xbd1b8906	-0.037972473
167	0xbe43e575	-0.191305
168	0x3d975df3	0.07390966
169	0x3c27a790	0.010232821
170	0xbcaf6201	-0.021409037
171	0xbcf3b2ac	-0.029748283
172	0x3c91955d	0.017771417
173	0x3dd5a0c0	0.10431051
174	0xbcefa3b1	-0.029252859
175	0xbda17c0f	-0.078849904
176	0xbd5e13e6	-0.054218195
177	0xbd476cb6	-0.04868766
178	0xbe0ac5ef	-0.13552068
179	0x3e00c1e1	0.12573959
180	0xbc967263	-0.01836509
181	0x3d6d4902	0.057930954
182	0x3e0fac4d	0.14030571
183	0xbe08d405	-0.13362129
184	0xbd582672	-0.05277104
185	0xbddd1015	-0.10794083
186	0xbe0e9b7f	-0.13926505
187	0xbdf1c973	-0.118060015
188	0xbdd24c50	-0.10268462
189	0x3decf666	0.11570434
190	0x3e11ff43	0.14257531
191	0xbe049460	-0.12947226
192	0xbcce6b84	-0.025197752
193	0x3af71480	0.0018850714
194	0xbd5b0558	-0.053471893
195	0xbd599480	-0.053120136
196	0xbd6a2472	-0.057163663
197	0x3e0444f7	0.12916933
198	0x3da8b714	0.082380444
199	0xbdee9e7c	-0.11651322
200	0xbd2994e6	-0.041401766
201	0x3e279f6b	0.16369407
202	0x3d7c145c	0.061542854
203	0x3d833c4c	0.06407985
204	0xbc5324db	-0.012887205
205	0x3d06e9d8	0.032937855
206	0xbc1975db	-0.009366478
207	0xbd874239	-0.06604428
208	0x3d9dbad6	0.07701652
209	0xbd621a6c	-0.05520098
210	0xbd6c7089	-0.05772451
211	0xbdec718f	-0.11545097
212	0x3dfaf3ba	0.122535184
213	0xbd2cf315	-0.04222401
214	0xbcc60c31	-0.024175735
215	0xbdae9cc4	-0.085259944
216	0xbd21e2d6	-0.03952297
217	0x3e42c1c7	0.19019233
218	0xbe28fe08	-0.16503155
219	0x3d5d0455	0.05395921
220	0xbcb1cccf	-0.021704106
221	0x3df4e09d	0.11956904
222	0xbca6450e	-0.0202966
223	0xbd8230ca	-0.06356962
224	0xbd510790	-0.051032603
225	0x3d0e2cc0	0.034710646
226	0xbdd3a29b	-0.10333749
227	0x3da42056	0.0801398
228	0x3d1eefcc	0.038802907
229	0xbdefd1dc	-0.117099494
230	0xbd92c4c0	-0.07166433
231	0xbe0257b5	-0.1272877
232	0x3dfabed6	0.1224343
233	0xbdea6f9e	-0.114470705
234	0x3ae2ca80	0.0017302781
235	0x3c20c560	0.009812683
236	0xbcb2d30c	-0.02182915
237	0xbe0a422a	-0.13501802
238	0xbdedc244	-0.11609319
239	0x3dd2d7ac	0.102950424
240	0x3d840157	0.06445568
241	0xbd7a176e	-0.0610575
242	0xbab3f717	-0.0013730255
243	0x3d04aef8	0.032393426
244	0xbdce9f41	-0.10088969
245	0x3d81ecd9	0.06344003
246	0xbc97a3ac	-0.018510662
247	0x3d0c1f14	0.034209326
248	0xbdadf8fa	-0.08494754
249	0xbdbcb734	-0.09214631
250	0x3e0523d6	0.13001952
251	0x3e36a2fa	0.17835608
252	0xbc3570a7	-0.011074222
253	0xbd79ff76	-0.061034642
254	0xbdb3acb0	-0.08773172
255	0xbd8d481e	-0.06898521

gat_layers.1.att_src f4 [1, 4, 128]
0	0x3db7bf89	0.08972079
1	0x3db7b7d5	0.0897061
2	0xbd62657c	-0.055272564
3	0x3de6189e	0.11235164
4	0x3d0e15ec	0.034688875
5	0xbd91689b	-0.0710003
6	0x3e0b3fdc	0.13598579
7	0x3d296928	0.04136005
8	0xbd1cd701	-0.03829098
9	0x3e7017ce	0.23446581
10	0x3e22195d	0.15829988
11	0xbe50e464	-0.20399624
12	0xbe4e43cf	-0.20143054
13	0xbe33d149	-0.17560305
14	0x3d9c66c6	0.0763679
15	0xbe1c67db	-0.15273993
16	0x3c22bbaa	0.009932438
17	0xbd2a77ea	-0.041618265
18	0x3d718c3c	0.05897163
19	0xbd98e547	-0.07465606
20	0x3e240afa	0.16019812
21	0x3e357952	0.17722061
22	0xbce64e0b	-0.028113386
23	0xbe65cf8f	-0.22442459
24	0x3e495819	0.19662513
25	0xbe1b2829	-0.15152039
26	0x3dd8f328	0.105932534
27	0xbd6b9820	-0.057518125
28	0x3e5d7c67	0.21629487
29	0xbd799d5b	-0.06094108
30	0x3e24ab9d	0.1608109
31	0x3bbc2237	0.0057413834
32	0x3e3887da	0.18020573
33	0xbd8d5850	-0.0690161
34	0xbe12aaa7	-0.14322911
35	0xbd49a55d	-0.04922997
36	0x3e4d0f8c	0.20025462
37	0xbd0afd57	-0.03393301
38	0x3d14afe3	0.03630055
39	0x3dfa87d6	0.1223294
40	0xbd10540f	-0.035236415
41	0xbd90937b	-0.0705938
42	0xbd41884a	-0.047249116
43	0x3d7f0d55	0.062268574
44	0x3e179f72	0.14806917
45	0x3d2346a3	0.039862286
46	0xbc3f6064	-0.011680696
47	0x3c46c184	0.012131099
48	0xbd9cca5f	-0.07655787
49	0x3e0cc7ae	0.13748047
50	0x3d1be211	0.03805739
51	0x3dea77da	0.11448641
52	0xbe52224b	-0.20520894
53	0x3df7c579	0.12098212
54	0xbd1e7be8	-0.038692385
55	0x3e3b6294	0.18299323
56	0xbd94d7f9	-0.07267756
57	0xbddedd6a	-0.10882075
58	0xbe1c020e	-0.15235159
59	0x3e1d30f8	0.15350711
60	0xbe62f869	-0.22165073
61	0xbe00b14f	-0.12567638
62	0xbdcd02ba	-0.10010286
63	0x3e1c9cc4	0.15294176
64	0xbd0fa738	-0.03507158
65	0xbe829f5e	-0.25512213
66	0xbdff46fd	-0.12464712
67	0xbdd5b585	-0.10435013
68	0xbbd82a80	-0.0065968633
69	0xbddc95f6	-0.1077079
70	0xbe4d827a	-0.20069304
71	0xbe2d2b5b	-0.1691107
72	0xbd8bcbb3	-0.06825962
73	0xbdf9107d	-0.12161348
74	0xbe42736a	-0.1898934
75	0x3d557e74	0.05212255
76	0x3e0275d4	0.1274026
77	0x3da2a855	0.07942263
78	0xbe30945b	-0.17244093
79	0x3e215946	0.15756711
80	0xbe18fb81	-0.14939691
81	0xbe0c5167	-0.13702928
82	0xbde336d7	-0.11094444
83	0x3db9b60a	0.09067924
84	0x3ddea458	0.1087119
85	0x3d410ab2	0.04712934
86	0xbda79519	-0.08182735
87	0x3c5e4616	0.0135665145
88	0x3e124fa3	0.14288191
89	0xbd4d7700	-0.050162315
90	0xbc891f1b	-0.016738465
91	0xbdd9f4d6	-0.10642402
92	0x3e56377c	0.20919603
93	0xbe434d6c	-0.19072503
94	0x3c32ff1a	0.010925079
95	0x3defd3db	0.1171033
96	0x3d2dc335	0.042422492
97	0x3e3e79bc	0.18601125
98	0xbd40f622	-0.04710973
99	0xbd87a10c	-0.06622514
100	0x3e2d4196	0.1691955
101	0x3e0d0009	0.13769545
102	0x3b9a0f2c	0.0047015157
103	0x3d68114b	0.056657117
104	0x3de0cdb9	0.109767385
105	0xbc94f948	-0.018185273
106	0xbc8b2d2c	-0.016989313
107	0xbc8c7f46	-0.017150532
108	0x3e235851	0.15951659
109	0x3e3c7ebf	0.18407725
110	0xbdbef060	-0.09323192
111	0x3db75814	0.089523464
112	0x3e18fdef	0.14940618
113	0x3d29c23a	0.041444995
114	0xbe00cce1	-0.12578155
115	0x3d85735f	0.06516146
116	0xbe1ed994	-0.15512687
117	0x3cca9e84	0.02473379
118	0x3e1b4906	0.15164575
119	0x3ddab2d6	0.106786415
120	0x3ca56256	0.020188492
121	0x3c3c8b17	0.011507771
122	0x3d15caae	0.036570244
123	0xbda3a74e	-0.07990895
124	0xbe26db9f	-0.16294716
125	0x3e40ff43	0.18847375
126	0xbd36d271	-0.044634286
127	0xbd959412	-0.07303633
128	0xbe3674e4	-0.17818028
129	0x3daa24d1	0.083078034
130	0xbe543b72	-0.20725802
131	0x3e09cf65	0.13458021
132	0xbd8093eb	-0.06278213
133	0xbd21c6ed	-0.03949635
134	0x3dbbfc61	0.09178997
135	0x3e575afe	0.21030805
136	0xbe3ac004	-0.1823731
137	0xbdff3945	-0.12462095
138	0xbdcef854	-0.101059586
139	0xbe15e8d7	-0.14639603
140	0xbd9d479c	-0.07679674
141	0xbe0dc39b	-0.13844149
142	0xbe1e9042	-0.15484717
143	0x3e242782	0.16030696
144	0x3e2940ea	0.16528669
145	0xbe43ec58	-0.19133127
146	0x3ddbceed	0.10732827
147	0x3e03ab13	0.12858228
148	0xbce05804	-0.02738572
149	0xbe4a3504	-0.19746786
150	0x3b47d105	0.0030489576
151	0x3d3900bc	0.045166716
152	0x3e21b7f3	0.15792827
153	0x3d5ddb58	0.05416426
154	0x3c0cfa1b	0.008604552
155	0x3dcf2110	0.10113728
156	0xbdd33626	-0.10313062
157	0x3cf192f1	0.029489012
158	0x3e163eb9	0.14672364
159	0xbc1a3b5e	-0.009413568
160	0x3d0114c8	0.03151396
161	0x3e450f5b	0.19244139
162	0xbe4b1021	-0.19830371
163	0x3e2fb8a3	0.17160277
164	0x3bca00b2	0.0061646337
165	0xbd39ac6b	-0.045330446
166	0xbddd45dd	-0.10804341
167	0xbdb9fe2a	-0.09081681
168	0xbdac2231	-0.08404959
169	0x3e3b2143	0.18274407
170	0xbe5e575d	-0.21713014
171	0x3b65d08f	0.0035066938
172	0xbe0a4d1d	-0.13505979
173	0xbda35a64	-0.07976225
174	0xbd88db15	-0.066824116
175	0x3e0f352e	0.1398513
176	0x3e1356f7	0.14388643
177	0xbc20cd4d	-0.0098145725
178	0xbd0299ca	-0.031884946
179	0x3dfae5cc	0.122508615
180	0x3e2d0fa6	0.169005
181	0xbe343b70	-0.17600799
182	0xbcf2b001	-0.02962494
183	0x3d816df1	0.06319798
184	0x3d966e62	0.073452726
185	0xbb514285	-0.0031930518
186	0x3e329d73	0.17442875
187	0xbe0e9abf	-0.13926218
188	0x3a32d3e5	0.0006821736
189	0xbc1f42e4	-0.009720538
190	0x3e4fc9b5	0.20291789
191	0xbccf5a5a	-0.025311638
192	0x3cbf242e	0.023332682
193	0x3dbe040f	0.09278118
194	0xbd244252	-0.04010231
195	0x3ccd50ec	0.025063
196	0xbc67440f	-0.0141153475
197	0xbc99e189	-0.018784301
198	0xbd25f3cb	-0.040515702
199	0xbe32cf22	-0.17461827
200	0x3e1027d5	0.14077695
201	0xbe08fd16	-0.13377795
202	0x3b2360c9	0.0024929515
203	0x3cafb1fb	0.021447172
204	0x3d5ec702	0.054389007
205	0xbbd1ec45	-0.0064063394
206	0x3c9f088e	0.019413259
207	0xbe433f2a	-0.19067064
208	0xbe1e5210	-0.15460992
209	0xbd05159a	-0.032491304
210	0xb9935464	-0.000281009
211	0x3e5f1ec6	0.21789083
212	0x3e2f57b5	0.17123301
213	0x3e369007	0.1782838
214	0xbe4f7107	-0.2025796
215	0x3c27fcde	0.010253159
216	0x3e4de66d	0.20107432
217	0xbe3b73f0	-0.18305945
218	0x3e3bf81f	0.1835637
219	0xbdfd64d6	-0.123727486
220	0xbac6a9e1	-0.0015156829
221	0xbc987e42	-0.018614892
222	0x3e5f1d75	0.2178858
223	0x3d1fe054	0.039032295
224	0x3e57a095	0.21057351
225	0x3d49e725	0.049292702
226	0xbdcc38cb	-0.0997177
227	0xbe2a249f	-0.16615532
228	0xbe37fcd1	-0.17967536
229	0x3e62610f	0.22107337
230	0xbdf255e1	-0.11832786
231	0x3e3d4292	0.18482426
232	0xbb71aea6	-0.003687778
233	0xbd394e27	-0.045240548
234	0x3e3153d0	0.17317128
235	0xbd5aab4e	-0.053386025
236	0xbdb4c316	-0.08826272
237	0xbe2c4bf4	-0.16825849
238	0xbe3998f8	-0.18124759
239	0xbd2e7c5f	-0.04259908
240	0x3d909b3b	0.07060858
241	0x3d75e0a1	0.060028676
242	0x3e34a06d	0.17639323
243	0x3bf06628	0.0073363967
244	0x3d8cf9b7	0.06883567
245	0xbd78372e	-0.0605995
246	0xbe1039c0	-0.1408453
247	0x3e3fac58	0.18718088
248	0xbc2ffca6	-0.010741388
249	0xbd197414	-0.037464216
250	0x3cc93f24	0.02456624
251	0x3da9abb9	0.082847066
252	0xbe2795f1	-0.16365792
253	0xbdbb3089	-0.09140117
254	0x3dc583c9	0.09644277
255	0x3e016db1	0.126395
