finalhybrid/experiments/experiment_20251104_083331/final_hybrid_model.pth (torch, 828338 bytes, 21 tensors)

gcn_branch.gcn_layers.0.bias f4 [64]
00000000: 0000 0000 c767 23bc fa93 41bc 0000 0000
00000010: 5d35 cdbc a721 13bc c6ac 163d 0000 0000
00000020: 0000 0000 0000 0000 1c49 dfb9 8461 0fbc
00000030: 292a 0a3c a42f ebbb 43eb ac3b 0000 0000
00000040: 71e2 03bb c9d5 85bc 1397 39bc 5447 a23b
00000050: 5753 6cbc 0000 0000 f6bc cfbb b795 19bc
00000060: b49f 74bc 39e0 cabb f4c2 a9bc 0000 0000
00000070: 0000 0000 0000 0000 4bef 59bc 0000 0000
00000080: cdff 3abc 8f5f 87bc ef7c 43bc f139 363a
00000090: 81c0 48ba 514c a4bb 06af a8bb 2e93 73bc
000000a0: 76a9 c4bb 9086 2ebc 0000 0000 a063 60bc
000000b0: 0afa 5cbc 0938 693c 6cbb b5bc da84 7abc
000000c0: 277a 0bbc bc0a 00bb fa48 46bc 0a55 62bc
000000d0: 85e3 00bc 0ffd 65bc 2dfd 6fbc 0000 0000
000000e0: 972e afbc 80e7 a5b6 97d1 c83c 4797 8bbc
000000f0: de75 5b3c 369b 003d 7c41 c1bb c9a6 b93b
0.0 -0.009973473 -0.0118150655 0.0 -0.02504986 -0.008980191 0.036785863 0.0
0.0 0.0 -0.00042588345 -0.008751277 0.008432903 -0.00717731 0.005277069 0.0
-0.0020123983 -0.016337292 -0.011327523 0.0049523506 -0.014424167 0.0 -0.0063396646 -0.009374074
-0.014930654 -0.00619128 -0.020722844 0.0 0.0 0.0 -0.013301681 0.0
-0.011413527 -0.016525058 -0.011931642 0.0006951383 -0.000765808 -0.0050139804 -0.0051478175 -0.014866633
-0.0060016466 -0.010652199 0.0 -0.013695627 -0.013487348 0.014234551 -0.022184096 -0.015290463
-0.00851301 -0.0019537648 -0.01210236 -0.01381422 -0.007866745 -0.014037385 -0.014647764 0.0
-0.02138452 -4.9443333e-06 0.024514003 -0.017039908 0.013394801 0.03139802 -0.005897699 0.0056656343

gcn_branch.gcn_layers.0.lin.weight f4 [64, 36]
00000000: 746f a1bd 17d2 2d3e 4469 733d efeb 283e
00000010: 81de 3b3e 2499 29be f0d0 17be 32f5 16be
00000020: 18ce 48be 64ff 75be 32d2 fa3d 9b59 643e
00000030: 8ca8 55bd 2ef6 853d a81b 27bd 70c1 47bd
00000040: cf7a 51be 2744 063e 8202 a73d 029a 75be
00000050: 73fe 2bbe ad64 17be 7199 51be 0c4d 30bd
00000060: a78e 3ebe 109a a5bc 088b 7dbd 88bc 26be
00000070: 3af7 a63d 10bf 66bc 9327 463e f1a3 1ebe
00000080: aca2 6e3d 9619 f73d 0ce3 26bd 781b 62bd
00000090: e7a0 8fbd 354c 44bd 1587 08be c4f0 6d3d
000000a0: 932a d13d 0e1a d93d b3e1 adbd f485 283d
000000b0: bb02 07be 3401 e7bd a12d 053e 1086 7dbc
000000c0: 1a56 32be 0000 72b8 b68a 853d 1762 703e
000000d0: 74d0 6fbd 8bee fbbd 0721 1cbe 80b0 9e3b
000000e0: b497 0b3d fe01 6abe 0a68 1bbe b822 4f3d
000000f0: 986e c43d 6862 fc3c ad10 b53d c34e 573e
00000100: f396 52bc 267a e63d 54bc dc3d 4fee 62be
00000110: 8409 bfbd 1ad1 6cbe e9c1 5fbe b131 bc3c
00000120: 2996 2e3e d5c2 273d 852c d6bd cd99 06be
00000130: 53a0 27be 32fc 6cbe b21a c9bd 3a0d e8bd
00000140: 60b7 7fbc e0fe f03b 8ccf 6d3d 422c df3d
00000150: a4eb 523d 8457 0c3d d4d5 263d fc77 4b3d
00000160: c07a 92bb a478 64be 0c21 0ebe cc56 60be
00000170: 64c3 053d 8868 3e3e 6254 06be 9d16 00be
00000180: 0664 a2bd 2057 1ebe 3542 f23d a50f 50be
00000190: 616e 0f3d 76e2 1ebe 0272 463d 6c47 1e3d
000001a0: 5d1e 6cbe 7d9c b83d 90d7 85be dc08 243e
000001b0: 2bab 613e df4e 503e 7e37 58be f291 a03d
000001c0: 603e e8bc 46af e73d 5010 563c f04e afbc
000001d0: 00c9 863b 6399 6c3e 5fe9 4f3e 76d2 803d
000001e0: bb7e 133e f4c6 05bd a64e b23d a380 fabd
000001f0: 30c7 463c 088a c9bc 0040 0937 7bd5 3fbe
00000200: f0c9 a9bc 2ced 7a3d 3b74 1a3e d95a 533e
00000210: 3e75 53be c855 e1bc 02c3 b9bd 007a f3b9
00000220: 63a6 473e 1c2e b3bd ef5c 3f3e 2460 2b3d
00000230: 762b e73d 978e 2f3e a8d5 993c c1a8 3a3e
00000240: 7133 dcbd 926e 54be 7e88 84bd e21b dcbd
00000250: 0280 1f3d a8ed 31be 2a56 233d e6a2 f43d
00000260: cbf4 3c3d f8b4 34be 2297 5cbe 1c29 5a3d
00000270: b20f c43d 5243 8b3d c5d5 44be 92ec cc3d
00000280: c213 e33d cec2 dfbd cef4 4fbe fc8c 0b3d
00000290: 591d 6a3e fccd 74be d6c8 c53d 49de 6abd
000002a0: 7fb8 493e c5d2 253e b2a7 423e 91d0 083d
000002b0: 441f 3abe d42c cd3d b931 65be 22d1 b93d
000002c0: 2fb6 0ebe 0ad4 203e 6cf9 673e 2aee 15be
000002d0: effb 513e 5b8d eebc e5e9 e2bd 5f5c 88be
000002e0: d44b a3bd a99b 27bd 7254 cb3d 10d4 1fbe
000002f0: 9337 b93d c71f 72be 7451 443d a827 5fbe
00000300: 9e0d e73d fc61 713d d84b 02be abbd 5abe
00000310: dcde a1bd e0ec dc3b 8808 b33c c0aa 1abc
00000320: b096 67bc 0280 9abd 3faa 433e a9eb 523c
00000330: 76f9 09be 4ecf ec3d 34a7 3e3e 4931 f23b
00000340: ed2c 143e 566b e03d 0cce abbd 906a 3abc
00000350: 644c b3bd faaf 503e fc9b b73d 887a dabd
00000360: cf34 53be 65c3 b9bd e444 7fbd 0e4a 583e
00000370: 1602 8f3e 12b1 2bbe 763a 0dbe 8178 383e
00000380: 93c5 f5bc 4c4c 003d 6dcd 08be 3665 933d
00000390: a726 213e 25ac 663e 78b8 27be 51df 09be
000003a0: 00cc 7139 85bf 073e 4a6f b03d 9849 00be
000003b0: e2b9 923d d503 213d 7539 53be 7077 603c
000003c0: 46c0 52be f692 cabd 9625 4f3e 2eda 51be
000003d0: ee26 69bd c73d 0dbd 9743 2b3e 2f6f 63be
000003e0: 946e 74be 2e07 7fbc 22c9 3bbe 1931 7abd
000003f0: 6c3b 463d 0071 a3ba 5ff8 2b3e 48fe 40be
-0.07882586 0.16974674 0.05942656 0.16496252 0.18346597 -0.16562325 -0.14825797 -0.14741972
-0.19609869 -0.24023205 0.12247123 0.22299807 -0.052162692 0.06541096 -0.04079786 -0.04876846
-0.20457004 0.13111936 0.08154775 -0.2398453 -0.16796283 -0.14784499 -0.2046869 -0.043042228
-0.18609105 -0.020215064 -0.06190017 -0.16282856 0.081526235 -0.014083639 0.19351034 -0.15492226
0.058260605 0.12065427 -0.040743873 -0.055201977 -0.070131116 -0.04792424 -0.1333278 0.05809094
0.102131985 0.10600673 -0.08490314 0.041143373 -0.13184635 -0.11279526 0.13005687 -0.0154738575
-0.17415658 -5.7697296e-05 0.06520598 0.23474918 -0.058548406 -0.12301358 -0.15246974 0.004842818
0.034080222 -0.22852322 -0.15176407 0.05057022 0.095914066 0.030808643 0.08841071 0.21026139
-0.012853372 0.11253767 0.10778108 -0.2216122 -0.09327987 -0.23126641 -0.21851315 0.022972913
0.17049469 0.04095729 -0.1045771 -0.13144608 -0.16369753 -0.2314308 -0.09819545 -0.11330648
-0.015607685 0.007354602 0.05805926 0.108971134 0.051494256 0.03426315 0.040731266 0.049674973
-0.0044701993 -0.22311646 -0.13879794 -0.2190811 0.032657042 0.18594563 -0.13118127 -0.12508626
-0.07929234 -0.15462923 0.11829034 -0.20318468 0.035017375 -0.15516075 0.04844857 0.038642332
-0.23058458 0.09014223 -0.26141024 0.16019005 0.22037952 0.20342587 -0.21114919 0.07840337
-0.028350055 0.11312728 0.013065413 -0.021399945 0.0041133165 0.23105387 0.20303868 0.06290142
0.14403813 -0.03266044 0.08706407 -0.12231567 0.012132451 -0.024601951 8.1807375e-06 -0.1873378
-0.020726174 0.06126134 0.15083401 0.20640124 -0.20650193 -0.027506724 -0.09070398 -0.0004643947
0.19497065 -0.08749029 0.18687795 0.041839734 0.112875864 0.17144237 0.018778637 0.18228437
-0.10751999 -0.20745304 -0.06471346 -0.10747506 0.038940437 -0.17375815 0.039877094 0.11945133
0.04613189 -0.17647159 -0.21542028 0.05326186 0.09573306 0.0679995 -0.19222172 0.1000606
0.11087753 -0.10925828 -0.2030823 0.03407 0.22862758 -0.23906702 0.09657447 -0.057340894
0.19699286 0.16193683 0.19009283 0.03340203 -0.1817599 0.10018316 -0.22382249 0.09073092
-0.13936685 0.15705886 0.2265374 -0.14641634 0.20506261 -0.029120138 -0.11079768 -0.26632974
-0.079734474 -0.040919933 0.09928216 -0.15608239 0.09043803 -0.23644935 0.047929242 -0.21792471
0.11281894 0.058931336 -0.12724245 -0.21361415 -0.07903835 0.006742105 0.021854654 -0.009440124
-0.014135048 -0.07543947 0.19107912 0.012873569 -0.13474068 0.11562978 0.1861847 0.007391129
0.14470263 0.10957973 -0.0838891 -0.011377946 -0.08754805 0.2037963 0.089652985 -0.10667902
-0.20625614 -0.09070472 -0.06232156 0.21122 0.2793128 -0.16766766 -0.13791832 0.18014719
-0.030001437 0.031322762 -0.13359614 0.07197039 0.15737401 0.22526605 -0.16378963 -0.13464095
0.00023059547 0.13256653 0.08614977 -0.12528074 0.071643606 0.039310295 -0.20627387 0.013700351
-0.20581159 -0.09891312 0.20229182 -0.20493385 -0.056921892 -0.034482744 0.16725002 -0.22210382
-0.23870307 -0.015565677 -0.18338445 -0.06108198 0.048396513 -0.001246959 0.16793965 -0.18847

gcn_branch.gcn_layers.1.bias f4 [128]
00000000: 3337 5abc 4668 76bb f5f8 c7bb d080 dabb
00000010: bb23 73bc 73c6 5d3b 974f 0ebc efb8 953b
00000020: a07f e5bb 5b6a c9ba 3193 5cbc 7f89 f4bb
00000030: 960c c9bb d6d4 5abc 77ac 88bc b11b 11bc
00000040: 3437 bbbb bc38 0bbc 2dfe d1bb 76ed 87bc
00000050: 2550 d9bb c240 75bc b0de 89bb 0000 0000
00000060: ea83 28bc 2b2d 55bb 87bc 47bc 0a15 61bc
00000070: a343 c7bb 0f2f 1cbc 87df 06bb 74d7 12bc
00000080: 9c6e c6bb 99ff 10bc 0000 0000 826a 15bc
00000090: 685d acbb 2802 49ba 50c4 dcbb 4d33 1bbc
000000a0: 1941 2cbb 36d7 30bc 2988 46bc ce59 acbb
000000b0: ce78 fbbb c8e6 20bc e0cb 15bc 3172 d4bb
000000c0: 3e95 55ba 00d8 a0bb 03d3 c3bb c189 d9bc
000000d0: 302a 34bc e62e 21bc 2390 023c d17a 46bc
000000e0: 0000 0000 c1e7 debb 82ac b4bb ff67 3abc
000000f0: 7855 95bb 0047 82ba 5b2a e1bb 4767 29bc
00000100: ac09 d8bb 5cf5 01bc 1be5 193b 0df2 5abc
00000110: 203b 7fbb d6a8 28ba 82f1 a1bc 3c86 5bba
00000120: 1cf0 0dbb 9ff6 e0bb b6c1 06bc 6654 8fbc
00000130: 53e6 12bc a8d9 8bbb 22ce 2cbc d967 cabb
00000140: 7f01 d8bb 46cb b3bb 224a 57bb 56ca 07bc
00000150: 8a83 9ebb 9f79 edbb f420 71bc 51f7 5c3c
00000160: 6a34 bbbb d6ae f4bb 0363 75bc 2073 aabb
00000170: 012b bcbb 324a 9e3b fc08 3dbc 6832 67bb
00000180: d37c 96bb 4d57 e53b d8c0 d63b 28e2 77bc
00000190: c339 0abc 159b 42bc a6d3 fa3a c902 1cbb
000001a0: 046d c93b 6a58 5ebc 4e3d ec3b b00c 0dbc
000001b0: 64a7 543b ad99 8438 6c1d b9bb 89fb 86bb
000001c0: 4073 19ba d1ef c8bc 8b96 d1bb 216b 2fbc
000001d0: 0756 41bb 40fe fc38 a581 1cb9 ec2d e9bb
000001e0: f244 44bb 44ff 3bbc 7019 6ebb 75e4 493c
000001f0: 546a 053b 5841 403c 6093 a0ba cbaa 38bc
-0.013318825 -0.0037598773 -0.006102676 -0.0066681877 -0.014840062 0.0033840209 -0.008685968 0.004569165
-0.0070037395 -0.0015366779 -0.013462828 -0.00746268 -0.0061355336 -0.013356408 -0.0166838 -0.0088567
-0.005713368 -0.008497413 -0.006408474 -0.016592722 -0.0066318684 -0.014969053 -0.0042074546 0.0
-0.010285357 -0.0032528143 -0.0121909445 -0.013737926 -0.006081061 -0.009532704 -0.002058001 -0.008962501
-0.006055666 -0.008850002 0.0 -0.009119632 -0.0052601583 -0.0007667863 -0.0067372695 -0.00947268
-0.0026283918 -0.010793498 -0.012117424 -0.005259729 -0.007674313 -0.009820648 -0.009142846 -0.0064833392
-0.0008147544 -0.0049085617 -0.0059760823 -0.026554944 -0.010996386 -0.009837842 0.007968935 -0.012114243
0.0 -0.0068025296 -0.0055137286 -0.011377334 -0.004557308 -0.0009939373 -0.0068715042 -0.010339565
-0.00659295 -0.007932033 0.0023482505 -0.0133633735 -0.0038945153 -0.000643385 -0.01976848 -0.00083741895
-0.002165801 -0.006865337 -0.008224895 -0.017496299 -0.008966046 -0.00426789 -0.010547193 -0.0061769304
-0.006591975 -0.0054868786 -0.0032850583 -0.008287987 -0.004837458 -0.0072471644 -0.014717329 0.013486699
-0.0057130354 -0.007467131 -0.0149772195 -0.0052017123 -0.005742431 0.004830622 -0.011537787 -0.0035277847
-0.004592517 0.0069989325 0.0065537505 -0.015129603 -0.008436623 -0.011877795 0.0019136562 -0.002380537
0.006147029 -0.013570884 0.0072094565 -0.008608982 0.0032448405 6.322875e-05 -0.0056492593 -0.004119341
-0.00058536604 -0.024528416 -0.00639612 -0.010706694 -0.002950074 0.00012063654 -0.00014925616 -0.00711607
-0.0029948321 -0.011474434 -0.003633108 0.012322535 0.0020357566 0.011734329 -0.0012250952 -0.011271189

gcn_branch.gcn_layers.1.lin.weight f4 [128, 64]
00000000: 0ae5 a9bd a406 eebd 633a ccbc 1d5e 15be
00000010: 1b79 9a3d 56e9 bfbd e54a 76bd 9e1d da3d
00000020: 07e0 3f3d a610 263e cca5 05be 7d8e e13d
00000030: 8a64 023e c0ed 2e3e c126 393d 4593 cb3d
00000040: 3b3d 9a3d 9a31 003e ef23 05bd 6ac2 71bc
00000050: 219d ccbb cd5c e5bd 20fe d6bd 7763 c5bd
00000060: 1c99 f53c 13b6 173e acb3 35be 1e3e e6bd
00000070: 6f30 173e b7b5 28be 549d 03be a306 bebc
00000080: b07b 13be 0bfb 183e bbcb 073e a019 0a3e
00000090: 404a 583d e293 f73a 5e51 fabd f004 1d3e
000000a0: 73b6 f13d 74d9 9dbc b1c3 9fbd 12d8 1cbe
000000b0: 53a8 cc3d f5dd 273e e0f6 2cbe b3e1 b53d
000000c0: df92 0e3e 7395 fa3d b8c5 c93d 08de 01bd
000000d0: 35dd febd 73f9 353d b46b 923d b9bc fc3d
000000e0: b057 84bd e50d ecbc de51 a3bc 85d5 4d3d
000000f0: c986 92bc 96bc 053e 0424 bc3d e24f c4bd
00000100: 1951 183d a7e2 34be 9a7f f13d d364 d4bc
00000110: 701f 29be 71e6 33bd 0d44 583d ac6b 32be
00000120: f673 b2bd 0fcb 0e3e e1a6 31be 7bcc 06be
00000130: 3a91 423d 001a 00be b82f 68bc 1915 6bbd
00000140: 1c4b 4a3b 0f7c 8cbc d251 6ebd 6179 c83d
00000150: 4c9b b23d 6773 da3d ee60 0e3e a3b5 c43b
00000160: 5f4b 60bd 4953 cfbd 64ab 023e 4485 173e
00000170: 0271 8cbd 0823 433d 772e 103e 4c4d dc3c
00000180: d1c6 303c c116 153e 7088 143e 0133 95bd
00000190: 845e 2a3d bda8 1c3e d85c 163e da10 f53c
000001a0: 88f8 2bbe 0a36 e2bd 6e68 24be 7046 3cbd
000001b0: 981a 29be 13f9 c53d 8018 28bd d676 0f3e
000001c0: 89fb 81bd 15e6 02be e32b d83b d2e1 06be
000001d0: 7ab7 d3bc 1554 253e bede 1e3e 9415 15bd
000001e0: c4d8 8b3d 44c3 fc3d e5b6 3dbc 8663 1f3e
000001f0: eca2 913d 900b 88bb bc12 b13d fe17 01be
00000200: 57f5 a53d 11ed 3f3e 57d7 cfbd a683 103e
00000210: a124 de3d 7d97 1dbe cd8e f6bb 5bde 9c3c
00000220: b803 89bc bf24 a6bd 1093 00be d8ed 96bd
00000230: 5dd1 213e 2ed8 ffbc 6188 18be 7c32 743d
00000240: dce3 cbbd d96e 3b3d a32c 87bd 56ae e13d
00000250: c1cd 45bc db9e da3c a3d4 17be c930 cabd
00000260: 72b3 09be cca4 df3b b021 72bb 3d08 e9bd
00000270: 58ef 17bc b9a8 7fbd 9c35 2c3e 4765 203e
00000280: ac41 843d 9786 373e ee9e 653d 9a28 853d
00000290: 8950 c5bd 5ec8 b1bc 872b 283e 042e 1c3e
000002a0: cb76 c4bd 2f53 fdbc ab56 103e c193 bfbd
000002b0: fbc5 9ebd feed 103e 399a f23d 64cf 16bd
000002c0: 04ed a0bc 023f 1dbc cc97 88bd fe3a 69bc
000002d0: 77e1 26be df9d 953c 3a91 00bd 5ddf b1bc
000002e0: 171c bc3d 79f8 f93d f376 d4bd 234c 1e3e
000002f0: ee7d 243d 3ceb 2c3e 1d75 bd3d 16f9 95bc
00000300: 7811 febd 4fb5 ea3d 8934 3f3d c7d2 8b3d
00000310: f8e5 8cbc 155e 583c 587f fbbd b6e5 453c
00000320: 0296 6ebd e02d d73c b486 e73d 5289 bcbd
00000330: 191a e9bd 7ea8 013e dc0f 61bd 5eab 93bc
00000340: ea31 88bd 1052 293e cc09 36be f285 1cbe
00000350: 562e e6bd eaac c8bd cad4 21be a2d0 2dbd
00000360: 97b8 213e fc14 0a3e 3b41 643d 5c46 123e
00000370: 5a5e cf3c f826 5cbd 55d8 e43d 25a7 bc3d
00000380: 997d fabd 44c2 87bc 3077 8f3d fe51 21be
00000390: 35ef 0dbe 5a12 29be 4e79 dc3d 77b7 193e
000003a0: 302f 8c3d 30bb 343c fcb9 e8bd 8c7a 233e
000003b0: 1bfd 1a3e bd65 fd3d e0e0 233e cfed 023d
000003c0: e173 07be 8dc3 cabd d686 ebbd a440 b5bd
000003d0: c3c4 24bd 203d c8bd ac78 1cbe bdfa 2b3e
000003e0: 1d01 e73d d111 0d3e 3880 14bd 8c9f f1bc
000003f0: 6f65 cebd 6bbb 34be 2543 c3bd afc1 4cbd
-0.08295639 -0.1162236 -0.024930185 -0.14586683 0.0754263 -0.09370677 -0.06013002 0.1065018
0.04684451 0.16217288 -0.13051528 0.110135056 0.12733665 0.17082882 0.045202974 0.09940199
0.0753121 0.12518921 -0.032504972 -0.014755825 -0.006244317 -0.11199341 -0.10497689 -0.09638112
0.029980235 0.1481555 -0.1774432 -0.11242317 0.1476457 -0.16475569 -0.12852985 -0.023196524
-0.14402652 0.14939515 0.13261311 0.13486338 0.052805185 0.0018888677 -0.12222551 0.15333915
0.118023776 -0.019268729 -0.07800997 -0.153168 0.09993043 0.16393264 -0.1689105 0.08880939
0.13923214 0.122355364 0.09852165 -0.031705886 -0.12444536 0.044427346 0.07149449 0.123406835
-0.064620376 -0.02881522 -0.019936498 0.050252456 -0.017886536 0.13060221 0.09186557 -0.09585549
0.037186716 -0.17664586 0.11791916 -0.025926983 -0.16515899 -0.043920938 0.052799273 -0.17423886
-0.08713524 0.13944648 -0.17348816 -0.1316394 0.04750178 -0.12509918 -0.014171533 -0.057393167
0.0030867523 -0.017149 -0.0581835 0.09788776 0.08721027 0.106665425 0.13904163 0.006003098
-0.05475938 -0.10123307 0.12760693 0.1479693 -0.06857492 0.04764083 0.14080225 0.026892327
0.010789589 0.14559461 0.14505172 -0.07285119 0.041594043 0.15298744 0.14683855 0.029915262
-0.16794026 -0.110454634 -0.16055462 -0.045965612 -0.16514051 0.09666648 -0.04103899 0.14010176
-0.06346805 -0.12783082 0.0065970286 -0.13172081 -0.025844324 0.16145356 0.15514657 -0.03639753
0.06828454 0.123419315 -0.01157925 0.15565309 0.07111153 -0.004151769 0.086461514 -0.12606809
0.081034355 0.18742777 -0.10148495 0.1411272 0.1084683 -0.1538982 -0.0075243474 0.019148996
-0.016725406 -0.081124775 -0.125561 -0.07369584 0.15802522 -0.031231012 -0.14895774 0.05961846
-0.0995557 0.04576001 -0.06600311 0.1101958 -0.012072981 0.026687076 -0.14827208 -0.09872586
-0.13447359 0.0068250652 -0.003694635 -0.113785245 -0.009273373 -0.062416766 0.16817325 0.15663634
0.064578384 0.17922436 0.05605977 0.06501885 -0.096345015 -0.021701988 0.16422854 0.15251929
-0.095929705 -0.030923454 0.14095561 -0.09354354 -0.077526055 0.14153287 0.11845822 -0.036818877
-0.019644268 -0.009597542 -0.06669578 -0.014235256 -0.16296946 0.018263755 -0.0313885 -0.021712953
0.09185045 0.122055955 -0.1037425 0.15458731 0.04015916 0.1688661 0.09250853 -0.01830725
-0.12405676 0.11460363 0.04668096 0.06827312 -0.017199501 0.013206025 -0.12280148 0.012078693
-0.058248527 0.026266992 0.113049895 -0.09205879 -0.11381931 0.12661931 -0.054946765 -0.01802605
-0.06650145 0.1653521 -0.17777175 -0.15285471 -0.11239307 -0.09798606 -0.15803829 -0.042435296
0.15793072 0.13484567 0.05572627 0.14284652 0.025313545 -0.0537481 0.111740746 0.09211568
-0.12230987 -0.016572125 0.07005155 -0.15753934 -0.13860781 -0.16510907 0.107653245 0.15011393
0.06844938 0.011030957 -0.11363599 0.15964717 0.15135615 0.12372921 0.16003752 0.031965073
-0.13227798 -0.099005796 -0.11500327 -0.0885022 -0.04022671 -0.09777284 -0.15280408 0.16794868
0.11279509 0.13776328 -0.03625509 -0.029495023 -0.10077941 -0.1764962 -0.09534291 -0.0499894

gcn_branch.gat_layers.0.att_src f4 [1, 4, 16]
00000000: d323 963e 8b73 093e 5d3a adbe 5dda 623e
00000010: 63bf dd3d 97b2 a93e 78b6 82be ba7d 933e
00000020: 3d32 a13e 8a64 4bbd 46e5 ea3a 1f51 4a3e
00000030: a8d5 c53e 8489 9fbe ae46 9ebe da68 e3be
00000040: 3c60 7cbd de36 d9be 7ae8 433e a833 f73e
00000050: e6cf 8ebe 65fb 8d3e 3eeb 57bb 443d 09bd
00000060: 7d2e e33e 2110 b93e c338 04bf a76a dd3e
00000070: ecc5 3a3e 5cd5 0ebf 23c8 d53d ab62 07be
00000080: 2413 043f 2f7f acbe 4ed5 ea3e de96 393e
00000090: ba3e a0be 5d38 3abe 46b7 543e 23f8 90be
000000a0: 0e67 f93d 216a ef3e 6c8c f5be b98d 84be
000000b0: 345a 8cbe b176 bf3e 1248 91bd 60ce dfbe
000000c0: efbb 73be 0c80 98bc 1175 573e 2d54 e53e
000000d0: 0fda 263e b909 133e 91cd 143d 42d0 a13e
000000e0: 349a f8be e380 c9be eb1c 3cbe ec4f e8be
000000f0: 9726 36be 91da 9abe 982c d4be c8d6 393e
0.29324207 0.13422982 -0.3383359 0.22153611 0.1082752 0.33144066 -0.25529838 0.2880686
0.3148364 -0.04965643 0.0017921112 0.19757508 0.3863957 -0.31159604 -0.309133 -0.44415933
-0.061615214 -0.42424673 0.19131652 0.48281598 -0.2789299 0.2773086 -0.0032946612 -0.033505693
0.44371405 0.36145118 -0.5164911 0.43245432 0.18239564 -0.5579431 0.10438564 -0.13221233
0.51591706 -0.33690783 0.45865864 0.18123958 -0.31297857 -0.18185563 0.20773038 -0.28314313
0.12177859 0.46760657 -0.47958696 -0.25889376 -0.2741257 0.37395242 -0.070938244 -0.4371214
-0.2380216 -0.018615745 0.21040751 0.44790784 0.1629412 0.14359178 0.036328856 0.316042
-0.48555148 -0.39356145 -0.18370406 -0.45373476 -0.17788158 -0.30244878 -0.41440272 0.18148339

gcn_branch.gat_layers.0.att_dst f4 [1, 4, 16]
00000000: 1591 b03e d5bb 5d3e f3ce 9ebe 2db0 c7be
00000010: e44b a43d 6a41 f2be a98b c43e e1df a73e
00000020: 1f3b 023f c76d 063e 2bd9 8ebd 9be7 9f3e
00000030: 04ff ccbe 8ed5 023f 7378 1f3e a06e 033e
00000040: bf17 033e c073 8e3e fa58 db3e aa15 bd3e
00000050: 589e 05bf 82ab 46bd de51 e6be d9cd 663d
00000060: 41cc c4be ab79 2c3e 4236 063f aa48 3a3e
00000070: 4afc da3e d7fc d2be c720 e1be 5c36 86bc
00000080: 0286 15be 9877 ffbe a3be e33e 6a13 db3e
00000090: a64c c93e 174c d6be 9fc5 45be a375 0a3f
000000a0: 7591 98be 4c35 6f3d b657 063f 06d2 b7be
000000b0: ef3b 3d3d 673b af3e 9965 ac3d 149a d0bd
000000c0: 79d9 c4be 023b ae3e 0f3d 9e3e c04b f5be
000000d0: 018e 943c 4b99 a03e 9315 bdbc 0309 03bf
000000e0: a960 b43e 624a b3bd c1cc d33e ee50 d83d
000000f0: cd90 bbbe 27e8 bd3e e456 3c3d b808 4ebd
0.3448569 0.21653683 -0.31017265 -0.390016 0.080222875 -0.47315532 0.38387802 0.32787994
0.5087146 0.13127814 -0.06975015 0.31231388 -0.4003831 0.5110711 0.15573291 0.12835169
0.12802027 0.27822685 0.4284132 0.3693059 -0.5219474 -0.048503406 -0.44984335 0.056348655
-0.38437083 0.16843288 0.5242654 0.18191782 0.42770606 -0.41208526 -0.4397032 -0.016383342
-0.14601901 -0.4989593 0.44481382 0.4278825 0.3931629 -0.41854927 -0.19313668 0.5408575
-0.29798475 0.058400437 0.52477586 -0.35902423 0.046199735 0.34225008 0.08417816 -0.10185638
-0.38447168 0.34029394 0.3090596 -0.47909355 0.018134119 0.31366953 -0.023081576 -0.51185626
0.35229996 -0.08754422 0.41367152 0.10562311 -0.36633912 0.3709118 0.045981303 -0.050301284

gcn_branch.gat_layers.0.bias f4 [64]
00000000: ae7b 453c 9f17 fa3b fdb2 843b b559 b6bb
00000010: 9b13 d6bc 0662 49bb a3ff 6fbc 632c d53b
00000020: 48dc 42bb 3b06 703a d31d bc3a 6dd9 9a3a
00000030: 669f cabb cd39 39bc ff92 6d3a 67af 213c
00000040: 6bdc 2ebc d922 533b c2d7 133b 58d3 0abb
00000050: 38cc 0dbc 3983 55bc b41b 173c ec13 9cba
00000060: 158f efbb 8e1b 43bb 3df0 7ebc cd65 ddbb
00000070: 9de5 933c f8bf 38bb 73b2 8fbb 8165 5fbc
00000080: b826 bfba 968d 963b be6c a7bc c27f ce3b
00000090: e285 963b b605 9b3a 6924 85bc 1119 c5bb
000000a0: 483c 06bb 8e44 cf3a 8e15 1abc 25ed eabb
000000b0: 8a52 3ebc 545c 173c c950 58bc af35 84bb
000000c0: cc03 11bc d2d9 493c 38e0 413c 5b38 21bc
000000d0: 87a9 03bc 163b 1abc 2c1e bbba 89b6 dbbb
000000e0: 8e79 14bc 4066 813b 373f 203c 356f ecbb
000000f0: 1fb2 f4bb 4915 89bc cbc6 343c 27f8 8a3b
0.012053413 0.0076322104 0.0040496574 -0.005564893 -0.026132395 -0.0030728593 -0.014648351 0.0065055354
-0.0029733349 0.0009156202 0.001435215 0.0011814066 -0.0061835526 -0.011305285 0.00090627366 0.009868479
-0.010672669 0.0032216816 0.0022559022 -0.00211831 -0.008654647 -0.013031774 0.0092229135 -0.0011907793
-0.007310758 -0.0029771063 -0.015560207 -0.0067565204 0.018053824 -0.0028190594 -0.0043852865 -0.01363504
-0.0014583683 0.004594515 -0.020437595 0.006301851 0.004593597 0.0011827264 -0.016252713 -0.006014951
-0.0020482708 0.0015813278 -0.009404553 -0.007169383 -0.0116163585 0.009238321 -0.013202854 -0.00403472
-0.008851003 0.012319999 0.011833243 -0.009840096 -0.008036024 -0.009413501 -0.001427596 -0.0067051095
-0.009062184 0.0039489567 0.009780697 -0.0072154053 -0.0074675228 -0.016733782 0.011033724 0.004241008

gcn_branch.gat_layers.0.lin.weight f4 [64, 64]
00000000: 2c0e 793d 50db 20be 0f87 8bbd f0f8 593c
00000010: f8ab 4dbe 4caa 1fbe 492b 31bd af52 34be
00000020: 1949 1b3e 000c 9dbd d003 45be b9ff 89bd
00000030: 29c8 233d 3ca9 48bd a059 f53c 6031 513c
00000040: 5ec3 d4bd c5a7 873d 1912 e3bd 8ea2 adbd
00000050: 76d8 a4bc b4fa 62bd 3083 c03d 8188 12be
00000060: 9709 7e3d cadd af3d 8fea fa3d bb4e 3b3e
00000070: 1c65 333d 9065 8cbc 35fc 37be 6ce7 61bd
00000080: 208b 4cbc 409e d4bd 10b0 193b 010e 163e
00000090: 4d1d 853d f00e 443e 1467 2bbe a06d 3bbe
000000a0: 6c6e cabd 1acd 653d 80b0 303b a696 933b
000000b0: 19ff 16be 8872 64bd b842 74bc 572e c13d
000000c0: 3f6c 0a3d 97f3 11be 6190 563c fe0f 183e
000000d0: 1fbc 39be 5036 d8bd 5872 f0bd db57 19be
000000e0: b356 19be b20a 2c3e 5501 fd3d 4e49 a4bd
000000f0: b27f 2f3e c613 e03d 1e42 b6bd 40b0 fb3d
00000100: 1051 1cbe 266e e23b 3930 d73d 70e7 923c
00000110: 95a9 6e3d 5d84 54be e71d d6bd 1ad6 3fbe
00000120: 6c39 663d 75ca d1bd 975e 21bd 7f9a 323e
00000130: b2b3 2d3e a054 35be ea24 70bd 53ec 433e
00000140: cbaf b1bd 3e9d 1ebe ace8 3b3e 2003 5fbd
00000150: 1e27 c43c 001c b9ba 845b 5bbe acd2 523e
00000160: 65fb b03d 0f15 fbbd 2303 febd b037 afbd
00000170: fed4 bf3d 1778 5b3e 729d 3bbe 0041 3cbe
00000180: 69f7 3abe a406 213e c15b 03be e160 163d
00000190: cb89 80bb bf84 2b3e 6bd7 35bd 74c5 3b3d
000001a0: c853 d53c db5f 8e3d 41f0 c5bd 91ef 013e
000001b0: 01f1 c9bd 9a6a 38bd 127b 21be 9e58 16be
000001c0: 51b6 4fbe 5015 83bc 16c3 11be f1a4 5c3e
000001d0: 8349 373d 7fad 283e 8539 013d b0fe afbc
000001e0: f101 2dbe 7e4f 6abd d182 9bb9 34cb 783d
000001f0: a656 f4ba bd34 073e 084d 13be aba5 803c
00000200: 1346 4f3e bdf6 a1bd fc5f c1bd 8a7c 873d
00000210: 1f26 33be 2b16 18be 12e1 393e f053 1dbe
00000220: 917e 2b3e 499c 4c3e 5c9a 233e 72d2 3dbe
00000230: 3a3d 25be 19a2 28be 8a1b d83d 5201 973d
00000240: 9811 1abd 583f 41be 2d9b 4f3e dca9 a1bc
00000250: 3172 4abe 079d 593e 9c38 003e 8b9d b3bd
00000260: cac1 323e 3f80 783c e98e a53d 61d1 503e
00000270: 130c 51be 3661 4bbe bca3 efbd 5ce9 0bbe
00000280: 437d 82bd 7350 98bd 088c 333e 84ac 8b3b
00000290: 2f4b cdbd 03c7 863b 749c bf3d 887c 29be
000002a0: f3f2 dc3c 6495 94bd 7d26 42be 1544 60bd
000002b0: 5535 a43d b137 a73c 96b2 4dbe 9ca0 1cbb
000002c0: 418b c1bb 6d68 3e3e c839 1c3e 5325 093d
000002d0: f1a9 7c3d d82e 4e3e 7f3e 4fbe d932 313e
000002e0: 4485 afbc a6af eebd 330e 0d3e 646d 0b3e
000002f0: 9c15 16be 12aa a53c e995 dc3d 88e7 a4bc
00000300: d8eb ecbd a001 cbbd a6ef 263e 5824 4dbd
00000310: 213c 23be 20e8 393e 9583 a83d 9923 273e
00000320: 7004 993c 0080 31b7 d1a9 3ebe cc8e d1bc
00000330: 8be9 06be c33b 32bc fbbd c5bd 4230 a43d
00000340: 2be2 64be 5ceb 16be fcfe 143d 2e0a 2fbe
00000350: 4f58 843d 1445 23be 0c5d 053e 42c1 01be
00000360: 9dec 9b3d 1c4f 0cbe ad1e 35bb a09e b2bd
00000370: da22 d33d aea5 ee3d 7b75 03bd 70e7 31be
00000380: 6c96 dc3b 53b0 1f3d 2114 c93d 2966 083e
00000390: 25c4 303e b749 86bd d6dc 4b3e 3f24 abba
000003a0: 5384 55bd 03e4 97bc 2e68 963d 649d e93d
000003b0: 21c8 debc 4708 d0bd d44c 293e d0d3 ad3d
000003c0: ea94 333e eb49 1c3e 8222 44be 38d4 0fbe
000003d0: 58b9 553d 9be2 f2bd 6180 3e3e 04f8 babd
000003e0: 51e4 103e 2081 3dbd eee7 aebd 71ac 1d3e
000003f0: 9938 14be 09a0 1f3e 9b2f 7a3d 1f39 1b3e
0.06080453 -0.15708661 -0.0681287 0.01330398 -0.20085132 -0.15592307 -0.04325417 -0.17609666
0.15164603 -0.076683044 -0.19239736 -0.06738228 0.03998581 -0.04898952 0.029949963 0.01276812
-0.10388826 0.066237964 -0.11087436 -0.084782705 -0.020122748 -0.05541487 0.09400022 -0.14309885
0.062020864 0.08587225 0.1225177 0.18291752 0.043797597 -0.017138273 -0.17967303 -0.05515234
-0.012484342 -0.10381746 0.0023450889 0.1465378 0.06499729 0.19146323 -0.1673854 -0.18303537
-0.098843426 0.056103803 0.002696067 0.0045040427 -0.1474575 -0.055773288 -0.014908485 0.09432667
0.033794638 -0.14253078 0.013095946 0.1484985 -0.18138169 -0.10557234 -0.11740559 -0.1497492
-0.1497448 0.16800955 0.1235377 -0.08021794 0.17138556 0.109412715 -0.088993296 0.122894764
-0.15265298 0.0069101034 0.105072446 0.017932624 0.058267195 -0.20753618 -0.10454922 -0.18734017
0.056207106 -0.10243694 -0.03939685 0.17441748 0.1696308 -0.17708063 -0.058628954 0.1913312
-0.08676108 -0.1548967 0.18350476 -0.05444634 0.023944434 -0.0014122725 -0.21421629 0.20588177
0.086417 -0.12259876 -0.12402942 -0.085555434 0.09366797 0.2143253 -0.1832178 -0.1838417
-0.18258442 0.1572519 -0.1282797 0.036713485 -0.003922676 0.16749857 -0.04439489 0.045842603
0.026040927 0.06951877 -0.096649654 0.12689044 -0.09860421 -0.04502354 -0.15769604 -0.14682242
-0.20284392 -0.016001374 -0.14234576 0.21547295 0.04474784 0.16472434 0.031548996 -0.02148375
-0.16895272 -0.057204716 -0.0002966137 0.060740665 -0.0018641546 0.13203712 -0.14384854 0.015703997
0.20241575 -0.0790839 -0.09442136 0.06615551 -0.17495011 -0.14852206 0.18152264 -0.15364051
0.167475 0.19981493 0.15976852 -0.1853731 -0.16136637 -0.16468085 0.10552128 0.07373299
-0.037614435 -0.1887182 0.20274039 -0.019734316 -0.19770123 0.21251307 0.12521595 -0.08770283
0.17456737 0.015167295 0.080838986 0.20392372 -0.20414762 -0.19861302 -0.11701152 -0.13663238
-0.06371548 -0.074372195 0.17533886 0.004262509 -0.10024106 0.0041130795 0.09356013 -0.16551411
0.026971316 -0.072550565 -0.18959995 -0.054752428 0.08017985 0.020412298 -0.20087656 -0.0023899442
-0.005906493 0.18594523 0.15256417 0.03348286 0.061685506 0.20135057 -0.20238684 0.17304553
-0.02142585 -0.11654596 0.13774948 0.13615948 -0.14656681 0.020222697 0.107707806 -0.020129934
-0.11568421 -0.09912419 0.16302356 -0.05008349 -0.15940906 0.18154955 0.08228222 0.16322173
0.018678874 -1.0579824e-05 -0.18619467 -0.025580786 -0.13175027 -0.010878506 -0.096553765 0.08017017
-0.22351901 -0.1473822 0.036375985 -0.17093727 0.06462156 -0.1594432 0.13023776 -0.12671378
0.0761349 -0.13702053 -0.0027636692 -0.087216616 0.10309382 0.11652695 -0.03209446 -0.17373443
0.006731799 0.038986515 0.098182924 0.13320221 0.17262323 -0.06557029 0.19908461 -0.0013057067
-0.052128147 -0.018541342 0.073440894 0.11406973 -0.027195038 -0.10157829 0.16533214 0.08487666
0.17537275 0.15262572 -0.19153789 -0.14045799 0.05217871 -0.11859628 0.1860366 -0.091293365
0.14149596 -0.04626572 -0.08540331 0.15397812 -0.14474715 0.15588392 0.061080556 0.15158509

gcn_branch.gat_layers.1.att_src f4 [1, 4, 32]
00000000: 3346 443b cc03 02be b7de ae3e 54e5 803e
00000010: 8c4f 4d3e d924 8bbe 11ce 91be abdc 903e
00000020: 59ab 2fbe 4dd1 d0be 966c 1bbd 314d 933e
00000030: b0df 893e 1b2e ccbd ba16 9a3e b86d 84be
00000040: b8c3 38bd 9f68 86be 4184 c43e 3572 9fbe
00000050: 2ef4 2e3c 78c3 633e a47a b63e 0198 2b3e
00000060: f372 90be 8204 b3be bfeb 21bb 977c c73e
00000070: f26c a9be 0116 aabe 109f b0be a344 873e
00000080: 6927 2abe 59ab 2f3e 6eb8 b13e bbb7 c8bc
00000090: 8e68 c2be b113 a4be 0c6f cd3e 7865 b1be
000000a0: cdd7 f3bd 339f 83bc c9f0 5f3e f5fc 5b3d
000000b0: d802 87bd 5855 e93c 22b5 bebe c359 813e
000000c0: 1fc8 b0be 4f4d 19be 0b0d adbe 9a93 3f3d
000000d0: d428 c1be 919c edbd de59 bf3d 9739 9dbd
000000e0: 2563 c53e b0e5 6c3d 4f9a c6be c1f7 ccbe
000000f0: ecfd 503e 8ebe c83e 559b c63e cbc9 a63e
00000100: a21d d3bd 7c04 c43c 9d27 f8bd 5e96 b53e
00000110: f53c 2b3e 4eaa f03d ba80 b43e 7129 c8be
00000120: 05cb cfbc 47e6 0bbe 54d5 6cbe 5cd9 88be
00000130: f9ca 80be ba26 923e 928c 3e3e 3a82 8f3e
00000140: 0ad3 843b d6ff 983e afdd 373d dcaa 463e
00000150: 58a1 cc3e 8b5d 4cbd 71f6 f23d e49e 443e
00000160: 43e1 f7bd db29 9f3e 79da e83d 9224 6bbe
00000170: daf4 9dbe cd8d 833d 0ac0 0bbe 2101 ab3e
00000180: 16d9 36be 9f5e 2b3e 0f63 8cbd 81c5 09be
00000190: 64ad b63e fa34 cd3e bc06 29be 441a 813e
000001a0: f9b7 d8be 369f 19be 8021 ae3e 0d84 fdbc
000001b0: 507a 8d3e 2264 5f3c b062 e5bd 94cb 8abe
000001c0: e415 84be f267 95be cfd2 7e3e 1138 09be
000001d0: 2b4c 373e 5bac 30be 895c adbe c1f2 9bbe
000001e0: e2c8 8f3e 42cc 43be 532c b5be 8f70 26be
000001f0: bb95 51be c109 1a3d a973 4abe 902f 713e
0.0029949069 -0.12696761 0.34154293 0.25174963 0.20049876 -0.2717655 -0.2847753 0.28293356
-0.17155208 -0.40784684 -0.037945352 0.2876983 0.26928473 -0.099697314 0.30095464 -0.2586496
-0.045108527 -0.26251695 0.38382152 -0.3114182 0.010678334 0.22242534 0.35640442 0.16757204
-0.282127 -0.34964377 -0.0024707166 0.38962242 -0.3309093 -0.33219913 -0.34496355 0.26419553
-0.16616596 0.17155208 0.3471102 -0.024501672 -0.37970394 -0.32046273 0.40123785 -0.34647727
-0.11906395 -0.016067123 0.21869196 0.053708035 -0.06592339 0.028483078 -0.37247568 0.25263795
-0.3452768 -0.14970897 -0.33799013 0.046771623 -0.37726462 -0.11602128 0.09343313 -0.07677
0.38552204 0.057836235 -0.38789603 -0.4003277 0.20409364 0.39207882 0.38790384 0.3257583
-0.103083864 0.02392792 -0.12116931 0.35466284 0.16722472 0.11751233 0.3525446 -0.39094117
-0.025365362 -0.13662063 -0.23128253 -0.26728332 -0.25154856 0.2854517 0.18608311 0.28029042
0.004053478 0.29882687 0.04488915 0.19401115 0.39966846 -0.049893897 0.11863411 0.19201237
-0.12103512 0.3108662 0.11369795 -0.22963169 -0.3085087 0.06423531 -0.13647476 0.333993
-0.17856249 0.16735314 -0.068548314 -0.13454248 0.35679162 0.4007948 -0.16506475 0.25215352
-0.4232786 -0.1500214 0.34009933 -0.030946756 0.2763238 0.013634713 -0.11200464 -0.27108443
-0.2579795 -0.29180866 0.24885105 -0.13400294 0.1790015 -0.17253248 -0.3385966 -0.30458644
0.2808295 -0.19120887 -0.3538538 -0.16253875 -0.20467274 0.03760696 -0.19770683 0.235533

gcn_branch.gat_layers.1.att_dst f4 [1, 4, 32]
00000000: 2d7a 89bd 704b 2e3d a911 95be a71c 8bbe
00000010: d049 75be 2831 aa3e 5d2b 21be 5730 99bd
00000020: 74c1 adbe 5675 b0bd 3888 bfbe 9ac7 993e
00000030: 30d9 1f3e 387a 94be 1928 28be e404 b73e
00000040: b4b1 2ebd e51f aebe 91f2 99be e620 cbbd
00000050: 26eb 4dbe 62a4 b4be d8e4 883e d70d 8d3b
00000060: 6aed 0e3d 6bbb cdbe 7d70 503e 84c6 5cbc
00000070: 5951 2bbe ded2 b73e bfe8 b0be 413b 043d
00000080: d2e5 2cbe 1d55 623e 4735 82be f72d cfbe
00000090: 9d65 cb3d 22f4 9b3e 5bd3 9f3d b7e3 3f3e
000000a0: d277 c63e 8159 7cbe 0056 9e3e 3d6b 5abe
000000b0: 6be3 8d3e 03f4 903e 632d 463d a478 d7bb
000000c0: 66f1 8dbe cc70 4c3d 49db 45be e1a5 61be
000000d0: 0a95 d4bd 5443 4ebe ca3a 6a3e 69e2 d63e
000000e0: 422b 8e3e 0b25 d5bc 2c8b 273d 9983 833e
000000f0: 8d91 9c3e 912b 273e 073b c03e 7ebe b8bc
00000100: ce7e 5bbd fb75 aebe 75d4 c03e 02ab 823d
00000110: 0512 8e3e 0083 3d3d 0d5e 3bbe 584a 70be
00000120: 6491 66be 2679 513d df31 d7be 1771 4bbd
00000130: 0d7a 7abd 07ed dcbd fcb2 313e 14a8 22be
00000140: a5ac 8abe 99ab d1bc 83d3 38be 6a73 b93e
00000150: fd29 adbe 2bb5 aabd 2ece a4be 1ec0 db3d
00000160: 1dc6 14be 08ba 8d3e 90e1 9ebd 0702 57be
00000170: 9477 bdbe fe7d 323e 98ef c83d 54b7 37be
00000180: 9b72 c53e bbdf 3cbd 7ee5 933c f857 103e
00000190: d41f 373e efb5 2b3d 88f6 52be 2125 7a3e
000001a0: e57c 463e ba51 69be 9249 013e 1e6f 843e
000001b0: 6348 b83e a435 a6be f1c6 1e3e 1097 84be
000001c0: 63b2 a33d a0fe 9dbd 1816 233e bd1a 673e
000001d0: 8c1b b83e 77ec 503c efbd a8be 7541 b83e
000001e0: c8c8 bebe d7f4 bbbe 9061 7fbe aa1e 1b3e
000001f0: d7c3 82be fa66 453e 429a 933e ac4f 9dbe
-0.06712756 0.04255241 -0.29115036 -0.27170298 -0.23953938 0.33240628 -0.15739198 -0.07479923
-0.33936656 -0.0861613 -0.37408614 0.30035096 0.15610194 -0.28999496 -0.16421546 0.3574592
-0.04264994 -0.3400871 -0.30067876 -0.09918384 -0.20109233 -0.35281664 0.26737094 0.0043046284
0.034894384 -0.4018205 0.20355411 -0.013475064 -0.1673025 0.35903066 -0.3455257 0.03228307
-0.16884544 0.2210278 -0.25431272 -0.40464756 0.099314906 0.30459696 0.07803985 0.1873921
0.3876329 -0.24643518 0.30924988 -0.2132997 0.2771257 0.28311166 0.048383128 -0.006575661
-0.27723235 0.04991226 -0.19321932 -0.22035934 -0.103799894 -0.20142871 0.22873989 0.41969612
0.27767378 -0.02601864 0.04090421 0.2568634 0.30579796 0.16325213 0.37545034 -0.022551771
-0.053587727 -0.34074387 0.37662092 0.063802734 0.27748123 0.04626751 -0.18297596 -0.2346586
-0.225164 0.051140927 -0.42030236 -0.049668398 -0.061151553 -0.10787397 0.17353433 -0.15884429
-0.27084842 -0.02559452 -0.18049435 0.36220866 -0.33821097 -0.08335336 -0.32188553 0.10730003
-0.14528699 0.27680993 -0.077578664 -0.20996867 -0.37005293 0.17430875 0.09811324 -0.17941028
0.38564 -0.046111804 0.018053766 0.14096057 0.17883235 0.041921552 -0.20601857 0.24428226
0.19383581 -0.22785082 0.12625721 0.25866026 0.35992727 -0.324628 0.15505578 -0.25896502
0.07993009 -0.077145815 0.15926397 0.22568794 0.35958517 0.01275169 -0.32957408 0.3598744
-0.3726256 -0.36710235 -0.24939561 0.15148416 -0.2554004 0.19277564 0.28828627 -0.30724847

gcn_branch.gat_layers.1.bias f4 [128]
00000000: e613 1bbc f4c2 143b 2138 c23a 50f8 3d3b
00000010: af1b 84bc 4a89 b5ba 5ea7 c2bb 6d01 1d3c
00000020: 7d60 173b 47a1 ef3a c989 ccbb 92e0 af3b
00000030: 9e42 1bbb aaf4 daba c2f0 e4ba 95e4 363a
00000040: 49f1 e6b9 e425 53bc 2f97 3dba a3eb b5bb
00000050: a3a0 14bb bffb babb 84f7 2abb 8b7a d73b
00000060: dd67 47ba ed95 263b 9cb5 b8bb 3f73 543b
00000070: 690a 703b aaea 793b 430e 9c39 b995 80bb
00000080: dca0 7c3b 5da4 ee3b 97e8 433b 7351 d0bb
00000090: 1f9b 123b 79c3 e13b 2fa6 eb3b ab6e 5cbb
000000a0: 4491 86bb 650a a03b e367 8bbb 53a2 9a3b
000000b0: f6b7 b73a 061b bcbb 89b6 243b c430 4e3a
000000c0: 8771 4d3b f7bc 48bb 3464 35bc 0c31 bb39
000000d0: 45f8 64ba 6ee2 92bb 532f c2ba 5535 ebba
000000e0: 8c13 f33b b193 773b a068 f336 6b16 23bc
000000f0: 8089 2e3b 4f10 ba3b 9db3 193b 8a6f 983b
00000100: 398c 223b b34c 03bb f859 933b 686a d43b
00000110: 5c41 c3ba 2772 bc3b da30 ca3b 8524 723b
00000120: 3d34 4c3b 6c4d 1c3c 7e12 bbbb f629 1cbc
00000130: 6c95 753b 7a0a 91bb 0a0d babb 63df 48ba
00000140: d511 033c 6a87 563c c58e 9dbb a119 93b9
00000150: eeca 1f3c 902c edba 32ec 57bb c64e 533b
00000160: cece a03a e94a 79bb aa09 10bc 3d18 663b
00000170: fd8c fa3a 554e 563c 34b7 ed3b 7f7c 3cbc
00000180: 42ff b73a 6050 763a f077 de39 2ed5 d0ba
00000190: de73 d5b8 1318 5ab8 1091 5639 34f3 5cbb
000001a0: 33d8 debb 3cf5 b63a 498e cd3b bc66 e0bb
000001b0: 062e 723a f091 8fbb dcf3 92bc 3121 bebb
000001c0: 4fb2 c93b 338e 433b 0d54 d4ba 01a3 3a3b
000001d0: 672c 893b 4797 b73b 5b19 8a3a 2f28 c6ba
000001e0: e9e0 983b 615a 89bb f4fc 283c d63c 793b
000001f0: b899 713b 64a6 b43b 24e3 3e3c 9d17 c13b
-0.009465193 0.002269921 0.0014817753 0.0028987117 -0.016126482 -0.001385012 -0.005940362 0.009582859
0.0023098283 0.0018282317 -0.006242011 0.005367347 -0.002369083 -0.0016704996 -0.0017466771 0.00069768104
-0.0004404879 -0.012887452 -0.0007232306 -0.0055517717 -0.0022678755 -0.00570628 -0.0026087472 0.0065758876
-0.00076067244 0.0025418953 -0.005636884 0.0032417325 0.0036627299 0.0038134255 0.00029765264 -0.0039240983
0.0038548028 0.007282777 0.0029893273 -0.0063573658 0.0022370291 0.0068897572 0.0071914415 -0.00336353
-0.0041066725 0.0048840516 -0.0042543276 0.0047190576 0.0014016617 -0.005740526 0.0025133213 0.0007865543
0.0031348185 -0.003063021 -0.011071254 0.00035703962 -0.0008734505 -0.004482559 -0.0014815129 -0.0017944971
0.0074181017 0.003777724 7.2541443e-06 -0.009954075 0.002663225 0.0056782137 0.0023453005 0.0046519684
0.0024802817 -0.002003473 0.004496809 0.006482411 -0.0014896798 0.0057509127 0.0061703743 0.0036948037
0.0031159066 0.009539943 -0.0057089915 -0.009531489 0.0037473096 -0.0044262977 -0.005677824 -0.0007662682
0.007999857 0.013093809 -0.004808279 -0.0002805712 0.009752972 -0.0018094946 -0.003294718 0.0032242998
0.0012268664 -0.0038039035 -0.008791367 0.0035109662 0.0019115504 0.013080199 0.0072545055 -0.011504292
0.0014037865 0.0009396132 0.000424325 -0.0015932673 -0.000101782134 -5.199767e-05 0.0002046267 -0.0033714296
-0.0068006753 0.0013958584 0.006273065 -0.0068481844 0.00092384254 -0.004381411 -0.017938547 -0.0058022966
0.0061552892 0.0029839396 -0.0016199365 0.0028478506 0.0041862014 0.0056027505 0.0010536121 -0.0015118177
0.0046654833 -0.004191682 0.010314215 0.0038030646 0.0036865305 0.0055129994 0.011650834 0.0058927075

gcn_branch.gat_layers.1.lin.weight f4 [128, 128]
00000000: 3dca e13c 245e c4bd b594 82bc e790 3e3d
00000010: b258 613c 7e77 bbbc 855a 913d 753d e1ba
00000020: 3e04 2abe d9b5 b1bc 0b98 cabc 8c36 e6bd
00000030: 86ce 9a3d 92fe 373d e79f 7f3d 2056 7e3c
00000040: 18df 8d3d 523c 213d 3afe fbbd 922a 463d
00000050: cf36 aabd addb 5b3d 2435 403d 42d1 873d
00000060: 1a2b 883d 2f57 ccbd eaea 3b3c 1964 a23d
00000070: d645 5b3d 7772 90bd 895c a9bc 7bc7 05be
00000080: 9b04 203d d6b4 29bc 6432 1ebd 177c 7bbd
00000090: 71ae cbbd 1726 4a3d 4082 8e3d e83f 93bd
000000a0: becb 453d 1b0e c3bd d83f b4bd 5e3a 913c
000000b0: f135 60bd 41dc 093e 4192 1f3c 79f8 d5bc
000000c0: de66 c83d 2235 293b 5b09 313b 4369 a83d
000000d0: 6af6 063d fcd3 dd3c 7fba d63d 5cac 07be
000000e0: 9095 41bd 5aa4 913a a183 3ebd d53d 1ebe
000000f0: 1f69 abbd 41e9 c03d c010 4e3d 0d96 15bd
00000100: cdd9 c0bd dae2 b0bd c04c b83d 4994 e7bc
00000110: ed10 7a3d 5761 0a3e 9ba9 efbd a75d 993d
00000120: fd32 6a3d 31e5 1d3d 2dc7 9abd 41bb 11be
00000130: 900b 0bbe f673 0ebe 14fd 953b 2f3c f4bd
00000140: 9aea 07bd be4b fa3c 8079 ba3d 4a6e c1bd
00000150: f28a 12be f114 22be 4ec4 56bd ad37 013e
00000160: cecb 673d 0d35 123e ce7e e4bc 047b 62bd
00000170: 1b2e 10bd d44b 6bbc 1da3 cd3c e7bf 89bc
00000180: b43f 623c bde2 b9bd 22a9 f33d c150 8fbd
00000190: 8659 fc3d 6b8f 9dbd d1f7 20be c144 323c
000001a0: 4ace f5bc 99ab 743d dbc3 0a3e de3d 0fbe
000001b0: b50b b4bd b222 2abe de0f 0abd dbdb bd3d
000001c0: d9ca 37bc 2ebb 29bd e3e5 133d 2f16 873d
000001d0: cca9 b23c 5ea9 90bd 0cd4 ef3c cf0b 943d
000001e0: 892e e9bd 2eba b6bd 252b 863d 0cca af3d
000001f0: 21d4 debd 815f d13d 3ed6 4dbd 3f20 f93d
00000200: d8db c1bd 09a0 d93d 23e9 adbd 745e adbd
00000210: 6b03 023e d0ff 62bd f27e c83c 9bc9 303d
00000220: a912 f0bd 4e8e bcbc 4c50 d03d 802a 55bc
00000230: 82a0 813d 0d32 a03b b318 f6bd b37e 53bd
00000240: a0b1 0ebe 8bc7 01be 9ab2 023e 962e c93d
00000250: 811b 48bc 05c8 25bc c6d5 0dbd 808c 0ebe
00000260: 56c6 193e fdb1 26be 387a 90bd 61ca f63d
00000270: 358b e33d 4fa9 5abd 0d92 0cbe 645b c2bc
00000280: b89c f53d ce12 a53d 32ca cfbd 420e 283d
00000290: acb8 043e 71b3 1e3e 20b8 043e 0795 11be
000002a0: 243a 48bd 3905 dcbd cf3b 0fbe 20aa b23d
000002b0: b86f 32bd 0c62 af3b 4b92 53bd 7f7b ef3d
000002c0: 2cb6 d03d 86eb 6c3d bdc4 01be f1cf afbc
000002d0: 5774 debd 3fa5 19bd 0f99 73bd 988d 3abd
000002e0: 74e9 15be f118 2cbd 6946 b73d 26b3 f53d
000002f0: 07e3 0fbe edbf 39bd 2e4e debc a7b7 95bd
00000300: 226c adbd 60a2 f93d 0ebe 063e 80a2 ffbd
00000310: c108 9a3d 0347 cd3b 10fb b6bd 5218 6d3a
00000320: d421 af3d 2359 2cbd 0b84 4f3d 6b0f 9c3d
00000330: 8577 e5bd e20d 13bd e885 053e 1952 6f3d
00000340: e3f9 ebbd 4e95 613d 2c45 ac3d e966 62bd
00000350: fa85 f83d e08a 103e 6c20 78bc 8776 a1bc
00000360: 2d30 1dbe b941 d93d 6ee1 0b3e b42f 883d
00000370: c7ed 303d 1fcf 29bd 664c cabc 2393 7ebd
00000380: 37ef 1fbd 3779 c33d dbb6 f0bd 0d38 d83c
00000390: 553e 86bd 9516 c7bc b8e5 073d 41bf e6bc
000003a0: be53 1abe 8ff2 c83d 3bc9 b83d 1be0 cabc
000003b0: 0aba edbd d30a 383d 01f0 953d 26ec 62bd
000003c0: 85ff b13d 653f 113d f541 c8bd 2c9d a5bd
000003d0: db9b 0dbe 11b8 3e3d aefd 00bc 46c6 6c3d
000003e0: 8384 f2bc 7104 293d 43fe a2bd c294 ccbd
000003f0: ce4c 863c ac13 123d deeb 35bd f4ea 0fbe
0.027562255 -0.095882684 -0.01594005 0.04652491 0.013754057 -0.022884127 0.07097343 -0.0017184453
-0.16603181 -0.021693157 -0.024730703 -0.11240873 0.075589225 0.04492051 0.062408354 0.0155234635
0.069273174 0.039364167 -0.12304349 0.048380442 -0.08311235 0.053676296 0.04692568 0.0663171
0.06648846 -0.099775665 0.011469582 0.07929248 0.053533398 -0.070530824 -0.020674007 -0.13064377
0.039066892 -0.010358056 -0.038622275 -0.06139764 -0.099453814 0.04935273 0.06958437 -0.071899235
0.048290007 -0.09524175 -0.0880124 0.017728027 -0.054738943 0.13462926 0.0097394595 -0.026119458
0.09785245 0.0025819023 0.0027013633 0.08223202 0.032949843 0.027078621 0.1048479 -0.13249344
-0.047261775 0.0011111603 -0.04651225 -0.15453275 -0.0836966 0.0941949 0.050308943 -0.036520053
-0.09416542 -0.086370185 0.08999014 -0.02826895 0.061051298 0.13513695 -0.117022716 0.07488566
0.057177532 0.038548652 -0.07557521 -0.14231588 -0.1357863 -0.13911423 0.0045772884 -0.119255416
-0.033182718 0.030553695 0.091052055 -0.09444864 -0.14310816 -0.15828301 -0.052433304 0.12618895
0.056590848 0.1427805 -0.027892496 -0.055293098 -0.03520022 -0.014361341 0.025102193 -0.016815139
0.013809133 -0.0907645 0.11897494 -0.069978245 0.12321763 -0.076933704 -0.15719534 0.01088065
-0.030005593 0.05973396 0.13551275 -0.13988444 -0.087912954 -0.16614798 -0.03370654 0.0927045
-0.011217796 -0.041438274 0.03610791 0.06596028 0.021809481 -0.07063554 0.029275917 0.07228815
-0.11385829 -0.0892223 0.06551198 0.08583459 -0.10880304 0.10223294 -0.050253145 0.121643536
-0.0946576 0.106262274 -0.08491733 -0.08465281 0.12696616 -0.055419743 0.024474595 0.043161016
-0.11722309 -0.023017075 0.101715654 -0.013010621 0.063294426 0.004888779 -0.1201643 -0.0516345
-0.13934946 -0.12673776 0.12763444 0.09823339 -0.012213589 -0.010118489 -0.0346277 -0.13920784
0.15017065 -0.16278835 -0.070545614 0.120503195 0.11110536 -0.05338412 -0.13727589 -0.02372522
0.11992782 0.08060227 -0.101459876 0.041029222 0.12961072 0.15498139 0.12960863 -0.14217006
-0.048883572 -0.10743184 -0.13987659 0.08723855 -0.043563575 0.0053522643 -0.051653188 0.11693477
0.101909965 0.0578418 -0.12672706 -0.021461459 -0.10862034 -0.037511107 -0.05947214 -0.04554519
-0.14639837 -0.042015973 0.089489765 0.119970605 -0.14051448 -0.04534905 -0.027136888 -0.073104195
-0.0846789 0.12189174 0.13158438 -0.12482166 0.07521201 0.006264569 -0.08934605 0.00090444565
0.08551374 -0.042077195 0.050663035 0.07620128 -0.11204437 -0.03590191 0.13039362 0.058427904
-0.115222715 0.05507403 0.08411631 -0.055273924 0.12134929 0.14115477 -0.015144449 -0.019709839
-0.15350409 0.10608239 0.13660213 0.06649724 0.043195512 -0.04145729 -0.024694633 -0.06215204
-0.039046492 0.09544604 -0.11753627 0.026393915 -0.06554858 -0.02430276 0.03317806 -0.028167369
-0.15071008 0.098118894 0.09022757 -0.024765065 -0.1160775 0.044932198 0.07321168 -0.05540099
0.086913146 0.03546085 -0.09778205 -0.08086619 -0.13828985 0.04656226 -0.007872982 0.057806276
-0.029604202 0.041264 -0.07958653 -0.09989311 0.016394045 0.03566329 -0.044414394 -0.14054471

gcn_branch.attention_pooling.attention.0.weight f4 [64, 128]
00000000: 075b c93d 84a0 c2bd 22e1 bb3d 7001 4cbe
00000010: a50a 023e 10f6 16be 12cd 063d 8056 16be
00000020: e8d8 0bbe 5970 b63d 9124 a4bd 4d21 b3bd
00000030: 6d65 cfbd 810e d3bd 9371 f23d eedf 9939
00000040: 1146 813d a448 5a3d 9b55 2ebd 8f88 2f3e
00000050: 6de7 de3c 8e3b 153e f8e3 53bd 09a9 ce3d
00000060: b005 1c3d decc 58bb 792a 16be 19f2 763e
00000070: 204c 913d b9a0 64bc f553 dabd 8169 893d
00000080: 3ac4 c43d 266d 13bd 3f86 49be 37b4 0abe
00000090: e8f5 56bd 4e5e 523e 95d8 16be 17c9 c43c
000000a0: 0cc0 233e 7793 413c 9a2f 07be e8ed 43be
000000b0: a42b c0bd 5d6b c73d cf65 afbd 8e6f f43d
000000c0: 3c71 1a3d 41d1 d6bd 1735 f53d 94af b93d
000000d0: c8df 053e c8b7 b1bc d5a7 2c3e 80f9 2abe
000000e0: 1094 02be 49c6 8a3d 569f f3bd 301a 4abd
000000f0: 1c3b bcbb 93de b6bd 1964 a0bc f4cb 05be
00000100: 18d1 93bc 421d 68bd c13c 553c e636 a6bd
00000110: 3f84 f73d cd17 99bd a6c3 2dbe 825a 88bd
00000120: c17a ff3d bf38 c03c 4654 07be 3bfa 9e3d
00000130: 2352 05be fca6 ec3d 1ecc 0b3c 9881 75bd
00000140: 3f72 87bd 965b 36bd 333f 0c3c 2429 ff3c
00000150: ce08 cb3c 1026 26be ebb3 f43d ee2e a93d
00000160: c1dc e33d 22bc 31be 45b3 15be 05ec 0dbe
00000170: 13d2 fbbd fef8 34be 70b5 443e 70cf 13be
00000180: e822 5ebc 95c2 fe3d 232b f5bd 3585 1ebe
00000190: 3084 a43d 5074 4f3e 04fe 46be d14a 483e
000001a0: 0775 833d 9291 aa3d 8dba 21be 6e5f b3bd
000001b0: 3a12 8c3d 3d5c 5dbd 47de a9bb 0f08 64be
000001c0: 5adc b0bd 2be8 453d bb09 0cbe 4098 6c3d
000001d0: 0eda 8e3c cb02 fcbd d618 f63a 89a2 34be
000001e0: c78b 65bd acf5 c0bd 5e88 53bd ac51 893d
000001f0: 4ffb 113e 923b 073e 1133 f13c 10e3 15be
00000200: 1727 04be 1d87 083e 2e28 e23d a451 be3b
00000210: 5404 b43c 70e8 52be 4250 223d 2946 fabc
00000220: 2cd3 173e 71a3 8fbc 9b70 063e 2432 15bd
00000230: 34d4 00bd d786 f8bd e741 ec3d cfe8 f7bd
00000240: 56f3 c9bd cffe 383d 5338 063e 623e 19be
00000250: 2dfd 97bd ecc2 9a3d bb73 f13d b230 1b3d
00000260: 1ec0 94bd bdc4 533c d20b 0bbc 7b9f 93bd
00000270: d135 7c3d 3ab2 aabd a337 66be 05e4 623d
00000280: f8e8 453e 7471 dbbc 14da 913d 5bd9 043e
00000290: 2edb 44be 6129 02be c425 093e 2407 013e
000002a0: 6eaf 98bd 1dd0 45be 8f2f fabd fd5f 56bd
000002b0: 3f24 2a3c a934 12be fc55 0abe 8069 22be
000002c0: 56bc 7b3d a118 dc3d 682f 133d 4ba0 2dbe
000002d0: da3e 2abb aefe 18bd be4b 2d3e 937f df3d
000002e0: 36d7 2fbd 36d9 24bc e800 bebd daee 98bd
000002f0: dc60 e8bd 97d9 89bb 43b6 07be 4c1b 493d
00000300: 185f 5f3d 6e42 683d b83b dabd 4db7 91bd
00000310: e8d5 b2bc a4b4 86bc fa23 073d 39c7 3a3d
00000320: 3912 15be 945c 1ebe 0b41 0bbe c366 173e
00000330: 3ad7 01bd 9147 5b3e a306 df3c 3cb2 5d3d
00000340: 8b19 76bd 8a93 22bd 49ca d53c 86f4 31be
00000350: 7e88 61be 77de 253d d735 26be 4d2f 2f3e
00000360: 2a94 e13d 3f84 c63d a311 dcbd f2bd 4ebd
00000370: c30b 65bd acab ca3d 20e6 1fbd 4bfb e43d
00000380: 316d e9bd 60c2 50bd 1156 12be 54e6 21be
00000390: 8948 ed3d 00c7 093e 2850 fc3d 4e89 423e
000003a0: c01f f23c eb4f 353e 1cdd cdbb e71d 70bd
000003b0: 22bb 163e 8df8 15bc bd22 8ebc f9e4 b03d
000003c0: 6372 243e e26d 18be fcee fb3d a790 083d
000003d0: dc02 463e 7ba0 5b3e d001 723c f0e0 08be
000003e0: c19e e0bd d681 563c 54d7 14bd 33c8 323e
000003f0: 350d 13be 9f94 893d 607a 613d f9a0 ab3d
0.09831815 -0.09503272 0.091738 -0.19922423 0.12699373 -0.14742303 0.032910414 -0.14681435
-0.13656962 0.08908147 -0.08014787 -0.08746586 -0.10126767 -0.10305501 0.11838069 0.00029349275
0.06312192 0.05329193 -0.04256211 0.17141937 0.027209962 0.145735 -0.05173108 0.10090835
0.03809136 -0.0033081095 -0.1466464 0.2411579 0.07094598 -0.013954335 -0.10660545 0.067095764
0.0960774 -0.035992764 -0.19680117 -0.13545309 -0.05248061 0.20543787 -0.14731057 0.024021668
0.15991229 0.0118149435 -0.13201752 -0.19133723 -0.09383324 0.09737275 -0.0856434 0.1193534
0.037705645 -0.10489131 0.11973017 0.09066692 0.13073647 -0.021694079 0.16860898 -0.16696739
-0.12751794 0.06776101 -0.11895625 -0.04934138 -0.005744351 -0.089291714 -0.01957898 -0.13066083
-0.01804404 -0.056668527 0.013014973 -0.0811594 0.12085771 -0.07475243 -0.16969165 -0.06657888
0.12474585 0.023464559 -0.13215742 0.077625714 -0.13019614 0.11555287 0.008532552 -0.059938043
-0.066135876 -0.044520937 0.00855999 0.031147547 0.024784472 -0.16225457 0.11948379 0.08260904
0.1112609 -0.17356923 -0.14619167 -0.13859566 -0.12295928 -0.17673108 0.19209838 -0.144346
-0.013558127 0.12439457 -0.11971118 -0.15480502 0.08033025 0.20259213 -0.19432837 0.1955979
0.064188056 0.083285466 -0.1579382 -0.08758436 0.06839414 -0.054043043 -0.005183968 -0.22268699
-0.08635779 0.048317116 -0.13675587 0.057762384 0.017437961 -0.1230522 0.0018775712 -0.17640127
-0.056041505 -0.09421858 -0.05164372 0.06705031 0.14256023 0.13206318 0.029443296 -0.14637399
-0.12905537 0.13332792 0.1104282 0.005808072 0.02197472 -0.2059648 0.03962732 -0.030551033
0.1482665 -0.01753399 0.13128893 -0.03642477 -0.031452373 -0.12135094 0.115360074 -0.121049516
-0.09860866 0.04516488 0.13107423 -0.14965203 -0.07421336 0.0755671 0.11789652 0.037888236
-0.07263206 0.012925324 -0.008486705 -0.07208153 0.06157476 -0.08334775 -0.22482161 0.055393238
0.19327152 -0.026787497 0.07121673 0.1297354 -0.19224235 -0.12711097 0.13393313 0.1260038
-0.074553356 -0.1931767 -0.12216102 -0.052337635 0.010384618 -0.14277901 -0.13509363 -0.15860558
0.061458908 0.10746885 0.035933882 -0.16955678 -0.0025977404 -0.037352256 0.16923425 0.10913005
-0.04292985 -0.010061553 -0.092775166 -0.07467432 -0.113465995 -0.004206847 -0.13253121 0.049098298
0.054534048 0.056703977 -0.10655922 -0.0711504 -0.021830514 -0.016443558 0.032993294 0.04560015
-0.14557733 -0.15465003 -0.1359903 0.14785294 -0.031699397 0.21414019 0.027224844 0.054125056
-0.060082953 -0.039691485 0.026097434 -0.17378435 -0.22024724 0.040495362 -0.16231476 0.17107888
0.11014588 0.09693193 -0.107455514 -0.050474115 -0.05591942 0.09896025 -0.039037824 0.11180743
-0.1139778 -0.05096662 -0.14290644 -0.1581052 0.115861006 0.13454819 0.12319976 0.1899769
0.029556155 0.17706268 -0.006282462 -0.058622267 0.14719823 -0.009153497 -0.017350549 0.08637423
0.1605926 -0.14885667 0.12301442 0.033341076 0.19337028 0.21447937 0.01477094 -0.13367057
-0.1096778 0.013092479 -0.036338165 0.17459182 -0.14360507 0.067178 0.055048347 0.083803125
