finalhybrid/experiments/simple_model_small_samples/best_model.pth (torch, 223714 bytes, 39 tensors)

gat_layers.0.att_src f4 [1, 4, 16]
0	0xbe002166	-0.1251274
1	0x3ec787e2	0.38970858
2	0x3e7a1a7b	0.24424164
3	0x3bfa391e	0.0076362034
4	0xbec46e26	-0.38365287
5	0x3eea7c5a	0.45797998
6	0xbf03766c	-0.5135257
7	0x3dca87d8	0.098891914
8	0x3ea4be0a	0.32176238
9	0x3e3f4880	0.1868
10	0x3e28eac6	0.16495809
11	0x3d430ba8	0.04761854
12	0x3b55c63b	0.0032619375
13	0xbee5dcdd	-0.44895068
14	0xbe39b56f	-0.18135618
15	0xbd51b16e	-0.0511946
16	0x3e827eb4	0.25487292
17	0xbeca7cb8	-0.39548278
18	0x3eb0a456	0.34500378
19	0x3ef510cc	0.47864377
20	0xbe42bc79	-0.19017209
21	0x3ef2d13d	0.4742526
22	0xbef88cde	-0.48544973
23	0x3ef1ce50	0.47227716
24	0xbd4bc454	-0.04974778
25	0x3eaf302f	0.3421645
26	0xbed5c713	-0.41753444
27	0x3e506e61	0.20354606
28	0xbee0269b	-0.43779454
29	0xbed3eac5	-0.41390052
30	0xbef127d7	-0.47100708
31	0xbdfd8281	-0.12378407
32	0xbe8f4643	-0.27983293
33	0x3d0a004a	0.033691682
34	0xbd336668	-0.043798834
35	0xbf046a25	-0.51724464
36	0xbf053ce1	-0.5204602
37	0x3e82d6c4	0.25554478
38	0x3ebcb3bc	0.36855876
39	0x3eb82946	0.3596899
40	0x3e6878cd	0.22702332
41	0xbdecf22e	-0.115696296
42	0x3eeb543b	0.459627
43	0x3eee4362	0.46535784
44	0x3ea9d04b	0.33166727
45	0xbe0eaffe	-0.13934323
46	0x3f09b675	0.5379403
47	0x3de106da	0.10987635
48	0x3f05e594	0.52303433
49	0x3e84dcdd	0.25949755
50	0x3daf0968	0.08546716
51	0x3dc06a20	0.09395242
52	0x3ed5c8ff	0.4175491
53	0xbe5ca5d5	-0.21547635
54	0x3da7264d	0.08161602
55	0x3ec536eb	0.38518462
56	0x3e94c745	0.2905828
57	0xbe1b8111	-0.15185954
58	0x3e8b7ab6	0.2724206
59	0xbf04bdd3	-0.5185215
60	0xbe3b4e52	-0.18291596
61	0xbebab90c	-0.36469305
62	0x3d5d3f2d	0.054015327
63	0x3e5eca94	0.21756965

gat_layers.0.att_dst f4 [1, 4, 16]
0	0xbee792cd	-0.45229188
1	0xbcc1e79a	-0.023670007
2	0xbd201e72	-0.039091535
3	0xbee479d2	-0.44624192
4	0xbedd13dd	-0.43179217
5	0xbe96f6a4	-0.29485047
6	0xbd910ace	-0.07082139
7	0x3d2e956c	0.04262297
8	0x3dc459a2	0.095874086
9	0x3c052bb3	0.0081280945
10	0x3f00542b	0.5012843
11	0xbed5f64a	-0.41789466
12	0xbf0418cb	-0.5160033
13	0xbe226b12	-0.15861157
14	0xbec7081e	-0.3887338
15	0xbeffd275	-0.49965253
16	0xbed8237b	-0.4221457
17	0xbe2b3ab9	-0.1672162
18	0xbd0eea98	-0.034891695
19	0x3ecac1e8	0.39601064
20	0x3f042f20	0.5163441
21	0x3e78f527	0.24312268
22	0xbe34e7e9	-0.17666592
23	0xbeb30643	-0.34965715
24	0x3dd6bccd	0.1048523
25	0x3da106ed	0.07862649
26	0xbdff7ce4	-0.12474993
27	0xbe9f4951	-0.31110623
28	0xbdf3cfde	-0.11904882
29	0x3dcd21a0	0.10016179
30	0x3ee1d565	0.4410812
31	0xbe9b0b26	-0.30281943
32	0x3e280691	0.16408755
33	0x3e673c69	0.22581638
34	0xbef97714	-0.48723662
35	0x3ebfe9e5	0.37483135
36	0xbe8470a8	-0.258672
37	0xbd96a96b	-0.07356533
38	0xbed31f63	-0.41234884
39	0x3f06d1ca	0.5266386
40	0x3dcd619d	0.10028384
41	0x3ed1ae88	0.4095347
42	0xbf09d9c5	-0.53847915
43	0xbec11c0a	-0.37716705
44	0xbefd34ac	-0.49454248
45	0x3e6dc836	0.23220906
46	0xbdefba6e	-0.117054805
47	0x3d9d479b	0.07679673
48	0x3e4bd495	0.19905312
49	0x3c962cb3	0.018331861
50	0xbecce16d	-0.40015736
51	0x3e3aed9b	0.18254702
52	0x3f0c5cce	0.5482911
53	0x3eaf2a3d	0.34211913
54	0xbe9537d4	-0.29144156
55	0xbead0338	-0.33791518
56	0xbe2877f1	-0.16452004
57	0xbe9ee503	-0.31034097
58	0x3e2bde40	0.16784
59	0x3d8c526e	0.0685166
60	0x3d219fa1	0.039458875
61	0x3e2ecd08	0.170704
62	0xbe956844	-0.2918111
63	0x3ee776c7	0.45207807

gat_layers.0.bias f4 [64]
0	0x3b21b5de	0.0024675052
1	0xbc26956e	-0.010167463
2	0x39820328	0.00024797884
3	0x00000000	0.0
4	0xbab18fd0	-0.0013546888
5	0xbc015b80	-0.00789535
6	0xbbb045d6	-0.005379419
7	0xbafe545c	-0.0019403803
8	0xba44539e	-0.00074892666
9	0xbb9c4374	-0.004768783
10	0xbb8636f6	-0.0040959073
11	0x00000000	0.0
12	0x00000000	0.0
13	0x3be036b3	0.006842458
14	0xb9fa2c82	-0.00047716877
15	0xbba3c3b0	-0.004997693
16	0x00000000	0.0
17	0x3aa867fc	0.0012848373
18	0xbc2c690f	-0.010523095
19	0x00000000	0.0
20	0x3b404966	0.0029340624
21	0xbb431ddb	-0.0029772434
22	0x00000000	0.0
23	0x00000000	0.0
24	0x3bee4930	0.007271908
25	0xbbbf50f1	-0.0058385064
26	0x3b00d9f9	0.0019661172
27	0xbc2b20ed	-0.010444862
28	0x3b64f615	0.0034936715
29	0x00000000	0.0
30	0xb989657d	-0.0002620629
31	0xbbf9e2c9	-0.007625912
32	0xbaaa1600	-0.0012976527
33	0x3b5a6b5b	0.003332815
34	0xbb9c8484	-0.0047765393
35	0xbb5a8462	-0.0033343066
36	0xbba5d161	-0.0050603603
37	0x3b23c296	0.0024987808
38	0xbb8d98be	-0.004321187
39	0x39a5e3bb	0.00031640925
40	0xbbfeff44	-0.007781895
41	0x00000000	0.0
42	0x3c02d8d1	0.007986263
43	0xba89bf6c	-0.0010509319
44	0xbc19370f	-0.009351506
45	0xba93a4b6	-0.0011264298
46	0xbbf58c12	-0.0074935043
47	0x3b7b1cd7	0.003831675
48	0xbb11790e	-0.0022197398
49	0x399c85cf	0.00029854334
50	0xba172433	-0.0005765587
51	0x3bb21c33	0.0054354905
52	0x3b54829e	0.0032426487
53	0xb9d5514c	-0.00040687097
54	0xbc247882	-0.010038497
55	0x3bbf89a9	0.005845268
56	0x3c109f12	0.008826988
57	0x3b5cd6b2	0.0033697304
58	0xbbb0137b	-0.005373416
59	0xbbbf2cdc	-0.005834205
60	0xbb5a5ea3	-0.0033320568
61	0xbc02b976	-0.007978788
62	0xbbbaf901	-0.005705953
63	0x00000000	0.0

gat_layers.0.lin.weight f4 [64, 36]
0	0xbdabd327	-0.083898835
1	0xbe0ca160	-0.13733435
2	0xbca70ae0	-0.020390928
3	0xbe3a8a96	-0.18216929
4	0x3df6187a	0.12016387
5	0xbe5db499	-0.21650924
6	0xbe6424bd	-0.2227964
7	0x3e44c38a	0.19215217
8	0x3d82bc9c	0.06383631
9	0x3d5927e5	0.053016562
10	0x3dc9455f	0.098276846
11	0x3e2552c0	0.16144848
12	0xbe476c7d	-0.19474979
13	0x3e47d71a	0.19515648
14	0xbe5ca75d	-0.21548219
15	0xbe1a9223	-0.15094809
16	0xbdbe39ef	-0.09288394
17	0xbe2a38ca	-0.16623226
18	0xbbb47d42	-0.005508096
19	0x3cea2212	0.0285807
20	0x3a9f6c89	0.0012163083
21	0x3e2ebb44	0.17063624
22	0x3d8d72e0	0.06906676
23	0x3d8030c0	0.06259298
24	0x3d9ee8a7	0.07759219
25	0x3e0205b9	0.12697496
26	0xbdd4c52c	-0.1038917
27	0x3e1f9e7f	0.15587805
28	0x3e2d7c5c	0.1694197
29	0x3deac2fd	0.11462972
30	0xbe5789ff	-0.21048735
31	0xbe08b7c4	-0.13351351
32	0x3e41157f	0.18855856
33	0x3e3d28c9	0.1847259
34	0x3df81b7b	0.121146165
35	0x3e037bfb	0.12840264
36	0x3d236d2e	0.039899044
37	0x3c9be171	0.019028397
38	0x3e1f108c	0.15533656
39	0x3c6653c7	0.01405806
40	0x3dd097a5	0.10185174
41	0xbce4f558	-0.02794902
42	0x3df9e3cb	0.12201651
43	0xbe486ebe	-0.19573495
44	0x3d5644e6	0.0523118
45	0xbe5b2222	-0.2139974
46	0xbe497ada	-0.1967577
47	0x3e13e934	0.14444429
48	0x3e01d536	0.1267899
49	0x3da822c2	0.082097545
50	0xbe1c1449	-0.15242113
51	0x3dd78b87	0.105246596
52	0xbdef49b0	-0.11683977
53	0xbdb0d00b	-0.08633431
54	0xbd9d23a0	-0.076728106
55	0xbe1560d0	-0.14587712
56	0xbe2f99b7	-0.17148481
57	0x3e5209e3	0.20511584
58	0xbd95a7f5	-0.07307426
59	0x3e613e26	0.21996364
60	0x3e4a3289	0.1974584
61	0xbdcf4ac7	-0.101216845
62	0x3c7d7f9a	0.015472317
63	0x3de453a7	0.11148768
64	0x3e519bbc	0.20469564
65	0x3e6316be	0.22176644
66	0xbc44551b	-0.011983181
67	0xbe555fa9	-0.20837273
68	0x3e43d516	0.19124255
69	0x3dab2d5b	0.0835826
70	0xbda9f917	-0.08299463
71	0xbe02aa1e	-0.12760207
72	0xbdab30e9	-0.08358938
73	0x3e61e0fd	0.22058482
74	0x3dbc9639	0.0920834
75	0xbe2758d2	-0.16342476
76	0x3e35c7a0	0.17751932
77	0xbd4b0a1e	-0.049570195
78	0x3e0287e7	0.12747155
79	0x3dfa7381	0.12229062
80	0x3e2386b3	0.15969352
81	0xbe047f6f	-0.12939237
82	0xbe334f53	-0.17510729
83	0xbe2918a7	-0.1651331
84	0xbdf5affa	-0.119964555
85	0xbde76771	-0.11299027
86	0x3d00464b	0.031317037
87	0x3e2726c9	0.16323389
88	0xbe3f3dc5	-0.18675907
89	0xbe047f66	-0.12939224
90	0xbe133b4c	-0.14378089
91	0xbc86309c	-0.0163806
92	0x3ccbccd7	0.024877949
93	0x3df3be54	0.119015366
94	0x3d36b14a	0.04460267
95	0xba941b70	-0.0011299681
96	0x3cbe749e	0.023248967
97	0xbcdfd524	-0.027323313
98	0x3e0a9f96	0.1353744
99	0x3e36df19	0.17858543
100	0xbdc0d5b6	-0.09415762
101	0x3d818130	0.06323469
102	0xbe6313c1	-0.22175504
103	0xbdc0355e	-0.09385179
104	0x3e17436c	0.14771813
105	0x3deff501	0.11716653
106	0xbe060964	-0.1308952
107	0x3c84274c	0.01613202
108	0xbe401b24	-0.18760353
109	0x3e62ddaf	0.22154878
110	0x3da37f65	0.07983283
111	0x3e3fd9c7	0.18735419
112	0xbe425124	-0.18976265
113	0x3d75293d	0.05985378
114	0x3e462d53	0.19353227
115	0xba387328	-0.00070362026
116	0x3e158350	0.14600873
117	0xbc855e03	-0.01628018
118	0xbe547fa2	-0.20751813
119	0xbe3edf3f	-0.18639849
120	0xbe2df728	-0.16988814
121	0xbd5ecc93	-0.054394316
122	0xbd4e9d3d	-0.050442923
123	0xbc64895d	-0.013948766
124	0xbd89a166	-0.067202374
125	0xb9870616	-0.0002575374
126	0x3d5892e3	0.052874457
127	0x3cd41b3b	0.02589189
128	0xba961a0d	-0.0011451856
129	0x3b29236a	0.0025808462
130	0x3e10f412	0.14155605
131	0xbe1e4f4f	-0.15459941
132	0xbe04a7ae	-0.1295459
133	0xbe517a7d	-0.20456882
134	0xbe0c3e66	-0.13695678
135	0xbe115513	-0.1419261
136	0xbe1965f8	-0.14980304
137	0x3db428ec	0.08796868
138	0xbc22ac57	-0.009928784
139	0x3d05ea86	0.032694362
140	0x3e1647b6	0.14675793
141	0x3de498dd	0.11161969
142	0xbdb9f5f8	-0.09080118
143	0xbd04ebb7	-0.032451358
144	0x3c6a2613	0.014291304
145	0x3e6595d7	0.2242044
146	0x3d230509	0.039799724
147	0xbe1057c8	-0.14095986
148	0xbe649758	-0.22323358
149	0xbddfdc7d	-0.10930727
150	0xbd40732a	-0.04698483
151	0xbd920509	-0.07129867
152	0xbd8dd21b	-0.0692484
153	0xbd66310c	-0.05619912
154	0x3e2c41a1	0.1682191
155	0xbde9a472	-0.114083186
156	0x3d84bbb6	0.064811155
157	0x3d1ffb40	0.03905797
158	0xbe174a1d	-0.14774366
159	0x3e1269a8	0.14298117
160	0xbdffc204	-0.124881774
161	0xbe0edeb5	-0.13952143
162	0xbe45a52f	-0.19301294
163	0xbdb7f862	-0.08982922
164	0x3e1a295d	0.15054841
165	0xbd5b81ce	-0.05359059
166	0x3e14eb93	0.1454299
167	0xbc7e948b	-0.015538345
168	0xbc016bff	-0.007899283
169	0xbcb3e7d2	-0.021961126
170	0xbc3a4bd3	-0.011370617
171	0xbe37bfca	-0.17944255
172	0x3cfcd18b	0.030861637
173	0xbe6ac2b9	-0.22925843
174	0xbe622d6e	-0.22087643
175	0xbe222b86	-0.15836915
176	0xbe4dc6ea	-0.20095411
177	0x3e260173	0.1621149
178	0x3d93298a	0.07185657
179	0x3cb134ee	0.021631684
180	0xbc5867af	-0.013208314
181	0xbe64207d	-0.22278018
182	0xbe02bf11	-0.12768199
183	0x3bc6a26c	0.0060618427
184	0xbd20a19e	-0.03921663
185	0x3e0be204	0.13660437
186	0x3c8671d5	0.016411701
187	0x3b0f402a	0.0021858313
188	0x3e25682a	0.16153017
189	0xbe57071a	-0.20998803
190	0x3df2937c	0.11844537
191	0xbe1a2d7e	-0.15056416
192	0xbe61138f	-0.21980117
193	0x3d97ab9c	0.07405779
194	0x3e33f13a	0.1757249
195	0xbe175539	-0.14778604
196	0xbe338055	-0.17529424
197	0x3c1d04c4	0.009583656
198	0x3e50d8ca	0.20395198
199	0x3e4a45a6	0.19753131
200	0x3deee42f	0.11664616
201	0x3e6e23dc	0.23255867
202	0xbde04e60	-0.10952449
203	0xbe485924	-0.19565254
204	0x3e41c089	0.18921103
205	0xbd71de91	-0.059050146
206	0xbcdd38fc	-0.027004711
207	0xbe2caf51	-0.16863753
208	0xbe0fa7eb	-0.140289
209	0xbe64bc44	-0.22337443
210	0xbe25b74c	-0.16183203
211	0x3e6dca3c	0.23221678
212	0xbe32e2a8	-0.17469275
213	0xbe187abc	-0.1489057
214	0xbe03cfcb	-0.12872235
215	0xbe159d6f	-0.14610837
216	0x3e375860	0.17904806
217	0xbe3f812a	-0.18701616
218	0xbddd9987	-0.10820299
219	0xbe169ccd	-0.14708252
220	0x3e07337f	0.13203238
221	0x3be900f9	0.0071107117
222	0x3e531a0e	0.20615408
223	0x3e0fd110	0.14044595
224	0xbdad03db	-0.08448001
225	0x3e02c41f	0.12770127
226	0xbe40634c	-0.18787879
227	0x3e498eb4	0.19683343
228	0xbdbd027e	-0.09228991
229	0x3d52db77	0.05147883
230	0x3e2056ab	0.15658061
231	0xbdccfdb1	-0.10009325
232	0xbdbce7c1	-0.09223891
233	0xbdc2ccbf	-0.095117085
234	0x3e2ff6b6	0.17183957
235	0xbe2e87eb	-0.17044036
236	0xbe13c007	-0.14428721
237	0x3e5143dd	0.20436044
238	0xbde1fdcf	-0.11034738
239	0xbd3dc8c1	-0.046334032
240	0x3d840bd7	0.06447571
241	0xbb06d8c7	-0.0020575987
242	0x3aa153fa	0.0012308352
243	0x3def829e	0.11694835
244	0x3d98ed04	0.07467082
245	0x3d03695b	0.032082897
246	0x3dc87629	0.09788162
247	0xbd6e4745	-0.058173437
248	0x3e21847d	0.15773197
249	0xbe680a22	-0.22660115
250	0x3e624aa8	0.22098792
251	0xbdde8f75	-0.10867206
252	0x3d885197	0.06656187
253	0x3d5e8b03	0.05433179
254	0xbe3d95d0	-0.1851418
255	0x3e5cd2fd	0.2156486

gat_layers.1.att_src f4 [1, 4, 16]
0	0xbda4ece9	-0.080529995
1	0x3ecc8c4e	0.39950794
2	0x3ca7e7e2	0.020496313
3	0xbe9fe771	-0.31231263
4	0x3eec6cef	0.4617686
5	0xbd3f9226	-0.046770237
6	0x3d952c00	0.07283783
7	0xbf08d6aa	-0.5345255
8	0xbea8edc1	-0.32993892
9	0x3d731e46	0.059355043
10	0x3cd74751	0.026279123
11	0x3eb7fb44	0.35933888
12	0xbf054187	-0.5205311
13	0xbe656c67	-0.22404633
14	0xbe6f0270	-0.23340774
15	0x3caba53b	0.020952811
16	0xbec763e8	-0.3894341
17	0xba8ff120	-0.0010981895
18	0x3d09ba2d	0.033624817
19	0xbe9f76c4	-0.31145298
20	0x3e98295a	0.2971905
21	0x3eb46aea	0.3523782
22	0xbea09bb3	-0.3136879
23	0x3e59293b	0.21207134
24	0xbe0926a9	-0.13393654
25	0xbe84ffd7	-0.2597644
26	0xbe6decd1	-0.2323487
27	0x3edf9a6d	0.43672505
28	0x3eb5bbaf	0.35494754
29	0xbd9af3d8	-0.07566041
30	0xbec956dc	-0.3932408
31	0x3e230f2e	0.1592376
32	0xbe9e5150	-0.30921412
33	0xbee5c553	-0.4487711
34	0xbebdc272	-0.37062413
35	0x3dca00a7	0.09863406
36	0xbeeb467e	-0.4595222
37	0x3cd2139c	0.025644116
38	0x3d526c41	0.05137277
39	0xbf03e079	-0.51514393
40	0xbebd3def	-0.36961314
41	0xbe3ab7bd	-0.18234153
42	0x3e938ac6	0.28816813
43	0x3ee85262	0.45375353
44	0x3ec82851	0.3909326
45	0xbe594c83	-0.21220593
46	0xbee548af	-0.44782016
47	0xbec33777	-0.38128254
48	0x3d525c41	0.05135751
49	0xbe52eda2	-0.20598462
50	0x3ea80668	0.32817388
51	0xbe5856e8	-0.21126902
52	0xbe7b9ae4	-0.24570805
53	0xbdc26634	-0.0949215
54	0xbdb5075b	-0.088392936
55	0xbe508a11	-0.20365168
56	0xbdcb157b	-0.099162064
57	0xbe63bb53	-0.22239427
58	0x3de7c018	0.11315936
59	0xbeb401de	-0.35157675
60	0xbefc0888	-0.4922526
61	0xbe9480a0	-0.29004383
62	0x3f01e4f9	0.5074001
63	0xbd43fe3b	-0.047849875

gat_layers.1.att_dst f4 [1, 4, 16]
0	0xbec905ed	-0.39262334
1	0x3ec7f608	0.39054894
2	0xbeff5c8e	-0.498753
3	0x3eae29f2	0.34016377
4	0xbf05efa0	-0.52318764
5	0xbec5e095	-0.38647905
6	0x3ef00ea4	0.4688617
7	0x3dca03d1	0.09864009
8	0xbc9e4a02	-0.019322399
9	0xbe3847f1	-0.17996193
10	0xbd5013e2	-0.05080021
11	0xbe769682	-0.24080852
12	0x3dde1b60	0.10845065
13	0x3e8ebc6c	0.2787813
14	0xbeca6b26	-0.39534873
15	0xbc142c2b	-0.009043734
16	0x3e577a6c	0.21042794
17	0xbeea80f7	-0.45801517
18	0xbdb3ebdb	-0.0878522
19	0xbe9c07da	-0.3047474
20	0xbe1da7be	-0.1539602
21	0xbeba2891	-0.36359075
22	0x3f0ba066	0.54541624
23	0xbebeafe1	-0.3724356
24	0x3eaf23dc	0.34207046
25	0x3eac328c	0.33632314
26	0x3ee5083b	0.44732842
27	0x3ea8dd63	0.32981405
28	0xbd996cdf	-0.07491469
29	0x3e989b9b	0.29806218
30	0x3eb4ac1e	0.35287565
31	0xbef5dbe2	-0.4801932
32	0x3e3dfe29	0.18553986
33	0xbebb8fa9	-0.36633042
34	0xbecaac4a	-0.3958457
35	0x3ee081a1	0.438489
36	0x3ee66b99	0.45003965
37	0x3e30cd43	0.17265801
38	0xbe949cf8	-0.29026008
39	0xbdc5d0c6	-0.09658961
40	0x3effb245	0.49940696
41	0x3f0a182a	0.5394312
42	0xbe912fcd	-0.28356782
43	0xbe52fbec	-0.20603913
44	0xbd8d5f4f	-0.06902944
45	0x3eb3749b	0.350499
46	0x3e3104b7	0.17286955
47	0x3f0308e8	0.51185465
48	0xbe9c4e85	-0.30528656
49	0x3e951ea8	0.2912495
50	0xbdd32f87	-0.103117995
51	0xbe1dfb5a	-0.15427914
52	0x3dff2135	0.124575056
53	0xbee76799	-0.45196226
54	0x3d96e7f6	0.07368462
55	0xbda5b6f0	-0.08091533
56	0x3e5a1172	0.21295717
57	0x3e26bf78	0.16283977
58	0x3d149ce5	0.03628244
59	0x3d212a1f	0.03934681
60	0xbcebb5dd	-0.028773243
61	0x3ef39d81	0.47581103
62	0x3e7e5b46	0.24839506
63	0xbedc762d	-0.4305891

gat_layers.1.bias f4 [64]
0	0x3b8f5e81	0.0043752794
1	0xbbc9c7b1	-0.0061578383
2	0x3b450ee8	0.00300687
3	0x3a9df294	0.0012050443
4	0xbbfda25b	-0.0077403015
5	0x3a4ac6ba	0.0007735301
6	0x3af35eb1	0.0018567649
7	0xba02f4a7	-0.00049955625
8	0xbafd3ef6	-0.0019321132
9	0x3bcb3bb9	0.006202188
10	0xbc05212b	-0.008125584
11	0x3b998d3b	0.0046860254
12	0xbc1b4822	-0.009477647
13	0xbb8949b2	-0.0041896934
14	0x3b933c5a	0.0044932785
15	0xbb3d3b45	-0.0028874439
16	0x3ad20777	0.0016023953
17	0xbb503b27	-0.0031773539
18	0x3b45d083	0.0030184097
19	0xba8eccef	-0.0010894815
20	0xbb4890a6	-0.0030603795
21	0xba8aef5c	-0.0010599899
22	0xbbc3abf0	-0.0059714243
23	0xbb225f0d	-0.0024775893
24	0xba9953a4	-0.00116979
25	0xbbe0e808	-0.006863598
26	0x3b36d09d	0.002789534
27	0x3ba4bd99	0.0050274846
28	0x380214ac	3.1013667e-05
29	0xbbfd1bea	-0.007724275
30	0x3b12290f	0.0022302305
31	0x3b1e7252	0.0024177027
32	0xbbfa057c	-0.0076300483
33	0xbbfcba06	-0.0077126054
34	0xbb19afdf	-0.0023450775
35	0xbb14943d	-0.0022671365
36	0x3a8817a5	0.0010383023
37	0x3b4acc3a	0.0030944482
38	0xbb157631	-0.0022806043
39	0xbb2fc5ab	-0.00268207
40	0x3baf91a4	0.005357938
41	0x3c1ea07c	0.009681817
42	0x3aa0739c	0.0012241486
43	0xbb99c3d0	-0.004692532
44	0xbae4460d	-0.0017415896
45	0xbb79219d	-0.003801442
46	0xbb65e8b6	-0.0035081333
47	0xbafe01d4	-0.0019379207
48	0x3afb08bb	0.0019152382
49	0xbbaadeba	-0.0052145394
50	0xbb1c932c	-0.0023891432
51	0xbb0a15e8	-0.0021070186
52	0x3b4a7323	0.003089138
53	0xbb0870fb	-0.0020819295
54	0xbb90b38e	-0.004415936
55	0x39a5b6ca	0.0003160744
56	0x3b320f36	0.002716971
57	0xbb94acc6	-0.0045371978
58	0xbb9df3ef	-0.004820339
59	0xbc091b3e	-0.008368311
60	0xba3d3bd5	-0.00072186935
61	0x3b8465d3	0.0040404587
62	0x3ac1895b	0.0014765667
63	0x3b1252b6	0.0022327132

gat_layers.1.lin.weight f4 [64, 64]
0	0x3dfc31eb	0.123142086
1	0xbe37c59c	-0.17946476
2	0x3e0e9463	0.13923793
3	0x3e1db19f	0.15399788
4	0x3e25fea0	0.16210413
5	0x3e29658d	0.16542645
6	0xbe444d25	-0.19170053
7	0x3a9b3042	0.0011839943
8	0x3de31916	0.11088769
9	0x3d7c5be6	0.06161108
10	0x3cd49908	0.025951877
11	0x3a7feb56	0.0009762546
12	0xbe2cdeb1	-0.16881825
13	0xbe5d7ed8	-0.21630418
14	0xbdaae0f6	-0.08343689
15	0xbcba5614	-0.022746123
16	0x3d63dbca	0.05562953
17	0xbe4ef994	-0.20212394
18	0xbe431567	-0.19051133
19	0x3dbfaa60	0.09358668
20	0x3be9b6b9	0.007132378
21	0xbdb10c43	-0.08644917
22	0x3dc457de	0.09587072
23	0x3e1993b6	0.14997754
24	0xbe0c323f	-0.13691042
25	0xbdc74a99	-0.09731025
26	0x3e42d592	0.19026783
27	0xbe11104f	-0.14166377
28	0x3c5263d9	0.012841188
29	0x3e34dc52	0.1766217
30	0x3e516feb	0.2045285
31	0x3e45982b	0.19296329
32	0xbdf7deae	-0.1210302
33	0xbe1731cd	-0.14765091
34	0xbe53b372	-0.20673922
35	0x3d8a3567	0.06748467
36	0xbdcad848	-0.099045336
37	0xb983a888	-0.00025111833
38	0xbdf138b2	-0.11778392
39	0x3d41d484	0.04732181
40	0x3dd5f758	0.10447568
41	0xbe45ce4a	-0.19316974
42	0x3ce45b32	0.027875517
43	0xbdac7219	-0.084202
44	0xbd8b152e	-0.06791149
45	0x3c7505e9	0.014955022
46	0x3db4f709	0.08836181
47	0xbe24e038	-0.16101158
48	0x3e5f8e74	0.21831685
49	0x3d8411a2	0.06448676
50	0x3ade5063	0.0016961213
51	0xbe45c0e5	-0.19311865
52	0xbdac773c	-0.0842118
53	0x3de97250	0.113987565
54	0x3e30adfb	0.17253868
55	0xbc3b2195	-0.011421581
56	0x3b0752ef	0.0020648798
57	0xbe419bd9	-0.18907107
58	0xbe5afe10	-0.2138598
59	0xbd78b819	-0.060722444
60	0xbe4de26f	-0.20105909
61	0xbcba8ba1	-0.022771658
62	0x3e4ac48f	0.19801544
63	0x3ddfebb2	0.10933627
64	0x3dd3c923	0.10341098
65	0xbdbc3e24	-0.0919154
66	0xbd18c7bb	-0.037299853
67	0xbd9cd1db	-0.07657214
68	0xbd8c37bf	-0.0684657
69	0x3e31c822	0.17361501
70	0xbe563aeb	-0.20920913
71	0xbae90c36	-0.0017780128
72	0xbe1d5e01	-0.15367891
73	0x3e16b053	0.147157
74	0x3e54c487	0.20778094
75	0x3e2fcab2	0.17167166
76	0x3d4b3d98	0.049619287
77	0xbdf58072	-0.119873896
78	0xba9709c8	-0.0011523301
79	0x3e0b58ae	0.13608047
80	0x3d8dfc2b	0.06932863
81	0xbc4f1060	-0.012638181
82	0xbe26619e	-0.16248176
83	0x3d870866	0.06593399
84	0x3cea6b1d	0.028615529
85	0xbde23d19	-0.1104681
86	0x3dc18ab6	0.09450285
87	0x3d93b4c5	0.072122134
88	0x3cfbbc70	0.030729502
89	0x3c6613fa	0.014042849
90	0x3cb4236b	0.021989545
91	0x3e2c2c7d	0.16813846
92	0xbe222ad7	-0.15836655
93	0x3df13577	0.11777776
94	0xbe1d8249	-0.15381731
95	0x3e34dc50	0.17662168
96	0x3d931527	0.07181769
97	0x3d0c2d2b	0.034222763
98	0xbd8b90fb	-0.06814762
99	0x3e035372	0.128248
100	0xbe30f6f5	-0.17281707
101	0x3df1a507	0.117990546
102	0x3e1a0699	0.1504158
103	0xbc27421a	-0.010208631
104	0x3e4299f2	0.19004038
105	0xbe2806a3	-0.16408782
106	0xbc568547	-0.013093299
107	0xbd464208	-0.048402816
108	0xbe584950	-0.21121716
109	0xbd941bdb	-0.072318755
110	0x3e40e5e1	0.18837692
111	0xbdda3e1f	-0.1065638
112	0x3c8d6550	0.017260224
113	0xbcd26bf9	-0.025686251
114	0xbe2ae9a0	-0.16690683
115	0x3e08327e	0.13300511
116	0xbdb528da	-0.088456824
117	0x3e5772f9	0.21039952
118	0x3e11c92d	0.14236899
119	0xbe11b25c	-0.14228195
120	0xbde3f403	-0.11130526
121	0xbd52831b	-0.051394563
122	0xbda3e8fa	-0.08003421
123	0x3c6e2726	0.014535701
124	0x3e29126d	0.16510935
125	0x3e2b1cfa	0.16710272
126	0x3de16613	0.11005797
127	0xbbb00cf0	-0.005372636
128	0xbd998c9e	-0.07497524
129	0xbd9ed997	-0.07756346
130	0xbc82a7de	-0.015949186
131	0xbe0c5f5c	-0.13708252
132	0xbdbe24d9	-0.09284372
133	0x3e4fa2a6	0.20276889
134	0x3e514e3f	0.20440005
135	0x3e2c5a53	0.16831331
136	0x3d71eb64	0.059062377
137	0xbdf94b0c	-0.12172517
138	0x3befc31c	0.00731696
139	0x3d40a573	0.047032785
140	0xbc5cc23e	-0.013474045
141	0xbdb0185a	-0.08598395
142	0xbdcd52db	-0.10025569
143	0x3dc6ce97	0.09707373
144	0xbaab6861	-0.0013077372
145	0x3d42a275	0.047518212
146	0xbda88bfd	-0.08229826
147	0xbe2b322d	-0.1671836
148	0xbe58d82e	-0.21176216
149	0x3da5fe15	0.08105103
150	0xbd737e04	-0.05944635
151	0x3e0f5b08	0.1399957
152	0x3d800ce8	0.06252462
153	0x3c9620c8	0.018326178
154	0x3cd094ae	0.025461521
155	0x3c0ba151	0.008522348
156	0xbd482960	-0.048867583
157	0xbd72deb2	-0.05929441
158	0xbe439ea7	-0.1910349
159	0xbe2b86fd	-0.16750713
160	0x3e563930	0.20920253
161	0xbd3dd18d	-0.04634242
162	0xbc954c5f	-0.018224893
163	0x3d79eeed	0.061018873
164	0xbdf41fab	-0.11920103
165	0xbcd3d9db	-0.025860718
166	0x3e4f9a2c	0.20273656
167	0xbdd807e9	-0.10548384
168	0x3e22576c	0.15853661
169	0x3a9422fa	0.0011301928
170	0x3decfd22	0.11571719
171	0xbe3fdff0	-0.18737769
172	0xbdb3abea	-0.087730244
173	0x3d999c16	0.07500474
174	0x3e3b45b4	0.18288308
175	0x3d4d1a6c	0.050074026
176	0xbc3db2e9	-0.0115783
177	0xbd8faa18	-0.07014865
178	0x3a55953a	0.00081475417
179	0xbdc95c17	-0.09832018
180	0xbca2b195	-0.019860068
181	0xbdc105d2	-0.09424938
182	0x3e10d181	0.1414242
183	0x3e28a549	0.16469301
184	0x3c32231d	0.0108726295
185	0xbe032b16	-0.12809405
186	0x3ddf3d9e	0.109004244
187	0x3cefff5c	0.02929657
188	0xbe17e653	-0.14833955
189	0xbe43297e	-0.19058797
190	0xbbb7f10f	-0.005613453
191	0xbe4c29fb	-0.1993789
192	0x3dd24d05	0.102685966
193	0xbc9020b9	-0.017593728
194	0xbe39ccac	-0.18144482
195	0x3e47b2a0	0.19501734
196	0x3c931f7e	0.017959353
197	0xbc0bd024	-0.008533511
198	0xbd652256	-0.05594095
199	0x3e34f567	0.17671739
200	0xbcedd5dd	-0.029032642
201	0xbe27754e	-0.16353342
202	0xbe42a860	-0.19009542
203	0xbe231f7a	-0.15929976
204	0x3e4a0bea	0.19731107
205	0x3e39dbca	0.18150249
206	0x3d2e4c8c	0.04255347
207	0x3e2d0f31	0.16900326
208	0x3d84c879	0.064835496
209	0x3c19aa07	0.009378917
210	0xbdd952a6	-0.10611467
211	0xbe465084	-0.19366652
212	0xbda10eeb	-0.078641735
213	0xbdff05be	-0.12452267
214	0x3e1f58cc	0.15561217
215	0xbe4ddb64	-0.20103222
216	0x3c04c7af	0.008104249
217	0x3d603a00	0.054742813
218	0xbd99a468	-0.07502061
219	0x3e39a591	0.18129565
220	0xbd85835e	-0.06519197
221	0x3cbe4c58	0.023229763
222	0x3e0c4e30	0.13701701
223	0xbe02e694	-0.12783271
224	0xbe3e226a	-0.18567815
225	0xbe393737	-0.18087469
226	0x3e08d950	0.13364148
227	0x3e0c011d	0.136723
228	0x3dd018fb	0.10161015
229	0xbdaeec37	-0.08541148
230	0x3e12a749	0.14321627
231	0x3e094bee	0.13407871
232	0xbe5650f1	-0.20929314
233	0x3d403d7e	0.046933644
234	0xbe085425	-0.13313349
235	0x3b1a6ec3	0.0023564554
236	0x3e00ea21	0.12589313
237	0x3bae488d	0.0053187073
238	0xbd359866	-0.04433479
239	0xbdd32615	-0.10309998
240	0x3da8c43c	0.08240554
241	0xbe056078	-0.13025081
242	0xbdd0dcbd	-0.101983525
243	0xbd8010ef	-0.0625323
244	0x3dc69fee	0.09698473
245	0x3e31e75a	0.1737341
246	0x3caee0e2	0.021347467
247	0x3dd60adf	0.10451292
248	0xbdabe500	-0.08393288
249	0xbc607957	-0.013700805
250	0xbe599630	-0.21248698
251	0xbd00f61c	-0.03148471
252	0x3db77cac	0.08959326
253	0x3df910a5	0.12161378
254	0xbdb3f576	-0.08787052
255	0x3c837971	0.016049119

shared_embedding.0.weight f4 [64, 128]
0	0xbd872986	-0.06599717
1	0xbdcc5d53	-0.09978738
2	0xbcb90514	-0.02258543
3	0xbcdb35e4	-0.026759095
4	0xbdb514c2	-0.0884185
5	0x3dfa3502	0.12217142
6	0xbdf1c302	-0.11804773
7	0xbe0699a5	-0.13144548
8	0x3e066d19	0.13127555
9	0xbd5d8fac	-0.054092094
10	0x3d01dedb	0.031706672
11	0x3d820633	0.06348839
12	0xbd7f3756	-0.06230863
13	0x3dcbeb1f	0.09956955
14	0x3d70be21	0.05877507
15	0x3dc85709	0.09782226
16	0x3dd428cd	0.10359345
17	0x3da708ad	0.08155952
18	0x3dc19f30	0.09454191
19	0xbc056f15	-0.00814416
20	0x3e270896	0.16311869
21	0x3d553b7f	0.052058693
22	0xbd4b86dc	-0.04968916
23	0xbe3472d1	-0.17621924
24	0xbc2306bc	-0.009950336
25	0x3d0a9fdb	0.033843856
26	0x3d132f73	0.035933923
27	0xbe32bfe9	-0.1745602
28	0xbdba4d6c	-0.09096798
29	0x3e30d327	0.17268048
30	0x3de4db18	0.11174601
31	0x3e14056d	0.14455195
32	0x3dfb1d15	0.12261406
33	0xbd79f859	-0.06102786
34	0xbe0c9403	-0.13728337
35	0xbe050ce6	-0.12993202
36	0x3e2998d6	0.16562209
37	0x3d1b7645	0.037954587
38	0x3e10144c	0.14070243
39	0xbdf41255	-0.11917559
40	0xbd0e47b1	-0.03473634
41	0x3d823f48	0.06359726
42	0x3d848a36	0.06471674
43	0x3dd69f48	0.10479599
44	0xbc8ee00f	-0.017440824
45	0xbdd8ffee	-0.1059569
46	0x3de57d1b	0.112055026
47	0xbda50a21	-0.080585726
48	0xbdfeec0c	-0.12447366
49	0x3def33fc	0.11679837
50	0xbe16fa65	-0.14743955
51	0xbdb6d44c	-0.08927211
52	0x3daafad5	0.08348624
53	0xbddad712	-0.10685553
54	0xbe1490a1	-0.14508297
55	0x3c81e749	0.015857356
56	0x3c71e63c	0.014764365
57	0x3d83f2be	0.06442784
58	0x3d09d043	0.03364588
59	0x3ddb5505	0.107095756
60	0xbd831e92	-0.06402315
61	0x3da02617	0.07819765
62	0x3e209a78	0.15683925
63	0xbe024f9f	-0.12725686
64	0xbdb7fa44	-0.08983281
65	0x3c5c1336	0.013432315
66	0xbe010a17	-0.12601505
67	0xbd8e0399	-0.0693428
68	0xbdba0c48	-0.09084374
69	0x3d9a75ae	0.07541977
70	0xbbc29308	-0.0059379376
71	0xbc7b16b9	-0.015325242
72	0x3cfaa55b	0.030596426
73	0xbcccec36	-0.025014978
74	0xbd4bb17f	-0.04972982
75	0xbdd79671	-0.10526741
76	0x3de4db4e	0.111746415
77	0x3e03f86c	0.12887734
78	0xbd7975fc	-0.060903534
79	0x3d9b5830	0.0758518
80	0x3e139953	0.14413957
81	0x3d3add59	0.04562125
82	0xbc1e956d	-0.009679181
83	0x3d09930d	0.033587504
84	0x3e05a686	0.13051805
85	0xbdb3cd83	-0.087794326
86	0x3d262a53	0.040567707
87	0x3dd3f4a7	0.10349398
88	0x3e0c763b	0.13716976
89	0xbe063368	-0.13105547
90	0x3d5ef4e6	0.054432772
91	0xbc8dc27b	-0.01730465
92	0xbdfc0b63	-0.12306859
93	0xbd93000a	-0.07177742
94	0xbdd5c889	-0.1043864
95	0x3c73903c	0.014865931
96	0x3dcb0f27	0.099149995
97	0x3ce31463	0.027719682
98	0x3d48497a	0.048898198
99	0x3ca4a856	0.0200998
100	0xbe11a571	-0.14223267
101	0x3cdfc9a3	0.027317828
102	0xbdabc750	-0.08387625
103	0x3c6a7d11	0.014312045
104	0xbb370e5a	-0.0027932138
105	0x3dfc30ec	0.123140186
106	0xbddf1ccd	-0.10894165
107	0xbc267b80	-0.010161281
108	0xbe187035	-0.14886554
109	0x3e29779e	0.16549537
110	0xbdc63765	-0.096785344
111	0x3b57a386	0.0032903864
112	0xbd962c11	-0.07332624
113	0x3dabc181	0.08386517
114	0xbe0935ad	-0.13399382
115	0x3d0647b0	0.03278321
116	0xbdfa9364	-0.12235144
117	0x3dc471a1	0.095919855
118	0x3dc4d76d	0.09611402
119	0xbe2dedd1	-0.16985251
120	0x3c71a8d3	0.0147497235
121	0xbdb12d0d	-0.08651171
122	0xbd77f67f	-0.06053781
123	0x3d7f0f21	0.062270287
124	0xbdb7d194	-0.08975521
125	0x3e1a90f5	0.15094359
126	0x3d48e72a	0.04904858
127	0x3d1f1c63	0.03884543
128	0xbb856103	-0.0040704026
129	0xbe1f2450	-0.15541196
130	0xbdbbbaa2	-0.09166457
131	0xbc7528c8	-0.014963336
132	0xbcf06340	-0.029344201
133	0x3cbefa91	0.023312839
134	0xb84ff320	-4.9579074e-05
135	0xbbb802d8	-0.0056155734
136	0xbdfb5d03	-0.122736
137	0x3e01cb73	0.12675266
138	0xbd87ef4f	-0.06637441
139	0x3b620bfe	0.0034492011
140	0x3d026ebb	0.031843882
141	0xbdaa56d4	-0.083173424
142	0x3d54d87d	0.05196427
143	0x3d57aeae	0.052656822
144	0x3e13dab6	0.144389
145	0x3e032e5e	0.12810656
146	0xbe03be6e	-0.12865612
147	0xbd7f3fdb	-0.062316757
148	0xbd70b10d	-0.0587626
149	0xbaca61fa	-0.0015440576
150	0xbd88696d	-0.06660733
151	0xbe123d0d	-0.14281102
152	0xb9d69f36	-0.00040935882
153	0x3d6cd04e	0.057815842
154	0x3d1b8678	0.037970036
155	0x3d889464	0.06668928
156	0x3e26708f	0.16253875
157	0x3d6ede86	0.058317684
158	0xbe17e7e0	-0.14834547
159	0xbe283086	-0.1642476
160	0xbd585595	-0.052815992
161	0x3a7b1e9c	0.0009579451
162	0xbda26855	-0.07930056
163	0xb9313aa4	-0.00016901881
164	0x3c7f50f5	0.0155832665
165	0xbe07e39d	-0.13270421
166	0x3cac5967	0.021038724
167	0xbb922def	-0.004461042
168	0x3d296f08	0.041365653
169	0x3db146e5	0.086561
170	0xbdb92b3b	-0.09041449
171	0x3e2616b4	0.16219598
172	0xba9a17ac	-0.0011756322
173	0x3e215863	0.15756373
174	0x3d5ddea9	0.054167423
175	0xbe0e93df	-0.13923596
176	0x3d85b514	0.065286785
177	0xbccb96fa	-0.024852265
178	0x3da27163	0.07931783
179	0x3dd1a44a	0.10236414
180	0x3d0a0f14	0.033705786
181	0x3cdee7cf	0.027210144
182	0xbc9d8142	-0.019226674
183	0x3dc59644	0.096478015
184	0x3d9c1e31	0.07622946
185	0x3b02b205	0.0019942534
186	0xb8a174b6	-7.698817e-05
187	0x3de9d42f	0.11417424
188	0xbe0e9f25	-0.13927896
189	0xbe04c08e	-0.12964079
190	0x3d80a5be	0.06281613
191	0xbd4159c2	-0.04720474
192	0x3d4b363b	0.049612265
193	0xb7ebb0e0	-2.8096547e-05
194	0x3c072905	0.008249526
195	0xbd6de177	-0.05807635
196	0x3db7f2e1	0.08981872
197	0xbd9975a5	-0.07493142
198	0x3d93d38c	0.07218084
199	0xbde4b6e7	-0.11167698
200	0x3d833fb9	0.064086385
201	0xbdd81ed6	-0.105527565
202	0xbcdafd68	-0.026732162
203	0x3d0795d8	0.033101887
204	0x3e11a4e6	0.1422306
205	0xbdf87032	-0.121307746
206	0x3e24f331	0.16108395
207	0xbda14003	-0.078735374
208	0xbd089d20	-0.03335297
209	0xbae61d86	-0.0017556406
210	0x3c5b3e7c	0.013381597
211	0xbd9c7c5d	-0.07640908
212	0x3c6ae280	0.014336228
213	0xbdefad94	-0.11703029
214	0x3e001a16	0.12509951
215	0xbd3173b0	-0.04332322
216	0xbca1e4d3	-0.019762432
217	0xbe1d698e	-0.15372297
218	0x3aeabd56	0.001790921
219	0xbc41be1b	-0.01182511
220	0xbde395ab	-0.11112531
221	0xbdf27186	-0.11838059
222	0x3d3d66e0	0.046240687
223	0xbdd1cd7b	-0.102442704
224	0xbd9647a7	-0.07337885
225	0xbdeea32d	-0.11652217
226	0xbaca0a84	-0.0015414511
227	0xbab582e3	-0.0013848211
228	0xbdfb627d	-0.122746445
229	0xbe1a9ff6	-0.15100083
230	0xbdebe0e7	-0.11517506
231	0xbd3c8d53	-0.046033215
232	0xbe03809d	-0.12842031
233	0xbe005cae	-0.12535354
234	0x3dd803a1	0.10547567
235	0xbdcd6940	-0.100298405
236	0x3e0a16c8	0.13485253
237	0xbe216ad2	-0.15763405
238	0x3cae47e6	0.021274518
239	0xbd113246	-0.035448335
240	0x3db00533	0.08594742
241	0x3e01525e	0.12629077
242	0xbd53e72e	-0.051734142
243	0xb9c05f3c	-0.0003669205
244	0x3daf41e7	0.08557492
245	0xbdbb3125	-0.09140233
246	0x3dbbe9ca	0.09175451
247	0xbceb5c86	-0.028730642
248	0xbdd5342c	-0.104103416
249	0xbe2212eb	-0.15827529
250	0x3ca0d3f0	0.01963231
251	0x3c276613	0.0102172075
252	0xbcad1bb3	-0.021131372
253	0xbe202bd9	-0.15641727
254	0xbd83f25f	-0.06442713
255	0x3e0668bc	0.1312589

shared_embedding.0.bias f4 [64]
0	0xbb32aede	-0.0027264873
1	0x00000000	0.0
2	0x00000000	0.0
3	0x00000000	0.0
4	0xbb3d00e0	-0.0028839633
5	0xbbc747b6	-0.0060815467
6	0x3b207c45	0.0024488133
7	0xbb2d73bf	-0.0026466695
8	0xbb3eb8bd	-0.0029101812
9	0x00000000	0.0
10	0xbb4a1722	-0.0030836542
11	0x3b848335	0.0040439614
12	0x3bfea2f8	0.007770892
13	0xbb7ab35c	-0.003825388
14	0x3a0a47ca	0.00052749796
15	0xbbbbd1a3	-0.0057317778
16	0xbb699691	-0.0035642723
17	0xbadf342b	-0.0017029097
18	0x3b13adf6	0.0022534109
19	0x00000000	0.0
20	0x00000000	0.0
21	0xbad40dd0	-0.0016178433
22	0x00000000	0.0
23	0xbbf562ed	-0.0074885995
24	0x3a50ee9e	0.0007970127
25	0xbb97b00f	-0.004629142
26	0x00000000	0.0
27	0x3a4d1e0e	0.0007824608
28	0x00000000	0.0
29	0x3b5ff834	0.003417504
30	0xbb22edaf	-0.0024860909
31	0xb996b52e	-0.0002874522
32	0x3bcd4f20	0.006265536
33	0xbb9c9fe5	-0.004779803
34	0xbb7305fe	-0.003708243
35	0x00000000	0.0
36	0xba9d34f3	-0.001199393
37	0x00000000	0.0
38	0x00000000	0.0
39	0xbbbd323b	-0.00577381
40	0x00000000	0.0
41	0x00000000	0.0
42	0xbb65126c	-0.0034953607
43	0x00000000	0.0
44	0xb9a22320	-0.00030925218
45	0x3b28e6f2	0.002577242
46	0xbba85fd5	-0.005138377
47	0xbb39fac3	-0.0028378225
48	0xb973c3c6	-0.00023247217
49	0x3ba6681f	0.00507833
50	0xbb5c26ca	-0.0033592456
51	0x00000000	0.0
52	0xbc0628ab	-0.008188407
53	0xbb897099	-0.004194331
54	0xbb8e99aa	-0.0043518143
55	0x3b64c39d	0.0034906634
56	0x3b2ef89f	0.0026698483
57	0xbba7f24d	-0.00512532
58	0x3b55d088	0.0032625515
59	0xbbc47e1d	-0.005996479
60	0xbb7ecb48	-0.003887849
61	0xb773c3c0	-1.4529505e-05
62	0x00000000	0.0
63	0xbb4aab10	-0.0030924715

task_heads.target1.0.weight f4 [32, 64]
0	0x3e3915b3	0.18074684
1	0xbe06b247	-0.13153945
2	0x3dfe99a4	0.124316484
3	0xbb043d52	-0.0020178151
4	0xba6e8c84	-0.0009099918
5	0x3e08c14d	0.13354988
6	0xbe795d8c	-0.24352092
7	0xbe142155	-0.1446584
8	0x3e005439	0.12532128
9	0x3e5d1647	0.2159053
10	0x3e196451	0.14979674
11	0x3e7221bd	0.23645683
12	0xbe5da212	-0.21643856
13	0xbd6691c3	-0.056291353
14	0xbd844b46	-0.0645967
15	0xbcde836e	-0.02716228
16	0xbe6a29f4	-0.22867566
17	0xbc14ff0e	-0.009094013
18	0x3c4b5a3c	0.01241165
19	0xbdd3e782	-0.10346891
20	0xbe56f2e7	-0.20991097
21	0x3dd7c07f	0.105347626
22	0xbe31ec72	-0.17375353
23	0x3e07a5f4	0.132469
24	0xbe321e71	-0.17394425
25	0x3e168cd3	0.14702158
26	0x3d89aa32	0.06721915
27	0xbe224e89	-0.15850271
28	0x3d727e8b	0.059202712
29	0x3d4ea9d3	0.050454926
30	0xbd0fbf33	-0.03509445
31	0xbe5fe04f	-0.2186291
32	0xbe513601	-0.20430757
33	0xbd597973	-0.05309434
34	0x3d429e1b	0.047514062
35	0x3d7e737b	0.06212185
36	0xbd40951e	-0.04701721
37	0x3e631f0f	0.22179817
38	0xb88cf010	-6.720435e-05
39	0x3a9efd4e	0.0012129934
40	0x3e089d7d	0.13341327
41	0x3db4c1c9	0.08826024
42	0x3aedebc3	0.0018151928
43	0x3e1e8597	0.15480648
44	0xbdf942ba	-0.1217093
45	0xbe194072	-0.1496599
46	0xbdad1dbe	-0.084529385
47	0x3d8750ac	0.06607184
48	0x3d67a345	0.05655219
49	0xbdd5f696	-0.10447423
50	0xbe547db7	-0.20751081
51	0xbd4af151	-0.049546544
52	0xbddd0290	-0.107915044
53	0xbe45bfe4	-0.19311482
54	0x3de1ee2e	0.11031757
55	0xbe566eae	-0.20940658
56	0xbdf65324	-0.120275766
57	0xbe582d6b	-0.21111076
58	0x3e345d39	0.17613687
59	0xbe04041a	-0.1289219
60	0xbe4c4524	-0.1994825
61	0xbc8d6b45	-0.017263064
62	0xbd3331ce	-0.04374867
63	0x3dab4768	0.08363229
64	0x3e5d3b31	0.21604611
65	0x3e597f3e	0.21239945
66	0x3d63e1d8	0.055635303
67	0xbe2b0bd2	-0.16703728
68	0xbd78575c	-0.060630187
69	0x3e22a9ef	0.15885137
70	0xbcbf3d4d	-0.02334466
71	0xbe3d9a9e	-0.18516013
72	0xbe0fcc20	-0.14042711
73	0x3e326d74	0.17424566
74	0xbdd66b4f	-0.10469686
75	0xbd8e3e36	-0.069454595
76	0x3c77a2b1	0.015114472
77	0x3d64c5cb	0.055852693
78	0xbda5a076	-0.08087246
79	0xbcd4b3ff	-0.025964735
80	0xbe569d6f	-0.20958494
81	0xbd4a8bbb	-0.049449664
82	0xbcbd1112	-0.023079429
83	0xbe283d58	-0.16429651
84	0x3d0b3ef8	0.0339956
85	0xbda2a4f9	-0.07941622
86	0xbd64242c	-0.05569856
87	0x3d681563	0.05666102
88	0x3e3d4b01	0.18485643
89	0x3d377398	0.044787973
90	0xbdead613	-0.11466613
91	0xbe2a802b	-0.16650455
92	0x3e0d8c65	0.13823088
93	0x3de24d29	0.110498734
94	0x3dd105bd	0.102061726
95	0xbda67e24	-0.08129528
96	0xbbb3fe2d	-0.0054929466
97	0xbe324548	-0.17409241
98	0x3d910a66	0.070820615
99	0xbdf3c551	-0.119028695
100	0xbe45d80d	-0.19320698
101	0x3d5a7e6c	0.05334322
102	0x3dbb889a	0.09156914
103	0x3e32f703	0.1747704
104	0x3df8f1ce	0.121554956
105	0xbb537e6b	-0.0032271396
106	0xbe651390	-0.22370744
107	0x3e124958	0.14285791
108	0xbe05d690	-0.1307013
109	0x3e2a739e	0.16645667
110	0x3d76c0ab	0.060242336
111	0xbe5998e2	-0.21249726
112	0xbdcd0dc8	-0.10012394
113	0xbe0e977d	-0.13924976
114	0x3e4ca877	0.19986139
115	0xbd941eab	-0.07232412
116	0x3e478a40	0.19486332
117	0xbe1297a1	-0.14315654
118	0xbbde4cac	-0.0067840423
119	0xbe0b61a9	-0.13611473
120	0xbdb8a952	-0.0901667
121	0x3e27ccb5	0.16386683
122	0xbcb30cc4	-0.021856673
123	0xbe51f629	-0.20504059
124	0xbddd03f2	-0.10791768
125	0xbd85fb7d	-0.06542108
126	0x3ca35e55	0.019942442
127	0xbd77588b	-0.060387176
128	0x3db2377b	0.08701988
129	0xbe5e8b87	-0.21732913
130	0x3e7263f5	0.23670943
131	0xbe308bb8	-0.17240798
132	0xbda385ea	-0.079845265
133	0x3dba3266	0.09091644
134	0xbe0ddfe9	-0.13854946
135	0xbe5f6252	-0.2181485
136	0x3e0784ba	0.13234225
137	0xbdb49481	-0.08817387
138	0x3e11edf1	0.14250924
139	0xbcc536f9	-0.024074065
140	0xbd4620ae	-0.04837101
141	0x3e6807ef	0.22659276
142	0xbcad2238	-0.02113448
143	0xbe444f25	-0.19170816
144	0xbe728643	-0.2368403
145	0x3e757760	0.23971319
146	0x3e41a509	0.18910612
147	0x3e3228ec	0.17398423
148	0x3e329215	0.17438538
149	0x3dca285b	0.098709784
150	0x3da68db4	0.081324965
151	0xbc7ea063	-0.015541169
152	0xbe0fbc80	-0.14036751
153	0xbdc716a1	-0.09721113
154	0xbcf6cb12	-0.030126128
155	0xbcec0267	-0.02880974
156	0xbe02ed52	-0.12785843
157	0xbdf383cb	-0.11890372
158	0x3e5a1158	0.21295679
159	0x3db209e7	0.08693295
160	0x3e1c0b6f	0.15238737
161	0xbe52377d	-0.2052898
162	0xbdc66311	-0.09686864
163	0x3e4a767a	0.19771758
164	0xbc81e27b	-0.015855065
165	0xbdd2fecd	-0.10302506
166	0xbca94940	-0.020664811
167	0x3d258790	0.040412486
168	0x3e45ba5a	0.19309369
169	0x3d873e0e	0.06603633
170	0xbe213fef	-0.15747045
171	0x3e0c7300	0.13715744
172	0x3d9f3d85	0.07775406
173	0xbe49eaee	-0.19718525
174	0xbd6672d3	-0.05626185
175	0xbe458740	-0.19289875
176	0x3d5c850b	0.053837817
177	0x3d820512	0.06348623
178	0x3e6ae366	0.22938308
179	0x3b1e1cfb	0.002412616
180	0x3e1cea7b	0.15323822
181	0xbb6de787	-0.003630133
182	0x3e3ad225	0.18244226
183	0x3d0b216c	0.03396742
184	0x3e4cc994	0.19998771
185	0xbd2ec726	-0.04267039
186	0xbcb58304	-0.0221572
187	0xbdb13059	-0.086518
188	0xbe36f6e8	-0.17867625
189	0xbc8057a7	-0.015666796
190	0xbdbf7970	-0.09349334
191	0x3d789a7b	0.0606942
192	0x3dc361d9	0.09540147
193	0xbdad245c	-0.084542006
194	0xbbcf8264	-0.0063326824
195	0xbdd6245f	-0.10456156
196	0xbd58115d	-0.052750934
197	0x3e71a7bb	0.2359914
198	0x3d626852	0.05527527
199	0xbd832bdc	-0.0640485
200	0x3e144b53	0.14481859
201	0x3d0e9f06	0.034819625
202	0xb9503329	-0.00019855484
203	0x3d2b0f58	0.04176268
204	0xbe55f9c7	-0.20896064
205	0xbdb041c9	-0.086062975
206	0x3c9b17a9	0.01893218
207	0xbe5e5a35	-0.21714099
208	0x3dd88eef	0.105741374
209	0x3e220518	0.15822256
210	0x3d271c74	0.04079862
211	0x3dc1e8be	0.0946822
212	0x3d8afba3	0.06786277
213	0x3c860053	0.016357576
214	0xbe060c79	-0.13090695
215	0xbc53b96d	-0.012922627
216	0xbc97d423	-0.018533772
217	0xbd97029f	-0.07373547
218	0xbdfecc4d	-0.12441311
219	0xbb7503ea	-0.0037386366
220	0xbe1dc472	-0.15406969
221	0x3e4265c0	0.18984127
222	0x3e3dc8e9	0.18533672
223	0x3d80cbde	0.062888846
224	0x3e27332d	0.16328116
225	0x3d4c9a00	0.049951553
226	0x3d545305	0.051836986
227	0x3e4b7b17	0.19871174
228	0x3e76acab	0.24089305
229	0xbe22d36a	-0.1590096
230	0xbdf427ca	-0.11921652
231	0x3e75a70f	0.23989509
232	0xbb0d9e88	-0.0021609385
233	0xbd7d9520	-0.061909795
234	0xbde664a6	-0.11249666
235	0xbe61a900	-0.22037125
236	0xbe1da053	-0.1539319
237	0xbe3d7622	-0.18502095
238	0xbd9f82f3	-0.077886485
239	0xbe406270	-0.18787551
240	0x3cb5abb2	0.022176597
241	0x3e64a674	0.22329122
242	0xbdbabad5	-0.09117667
243	0xbd03dc1c	-0.032192335
244	0x3d507cb6	0.050900184
245	0x3e5f6884	0.21817213
246	0xbe3c397b	-0.18381302
247	0xbd3489c9	-0.044076715
248	0xbe365476	-0.17805657
249	0x3e23f8b3	0.1601284
250	0x3e4a6417	0.19764744
251	0xbe1a8d53	-0.15092973
252	0xbdb01522	-0.08597781
253	0x3d586608	0.05283168
254	0xbd8f946d	-0.07010732
255	0x3d318ef6	0.04334923

task_heads.target1.0.bias f4 [32]
0	0xbb97ea0b	-0.0046360544
1	0x3b1e55f7	0.0024160126
2	0xbbc7e745	-0.0061005675
3	0xba17a414	-0.00057846424
4	0x3ac9abe7	0.0015386314
5	0xbaba3dd5	-0.0014209101
6	0xbb6d63e8	-0.003622288
7	0xb7920350	-1.7406099e-05
8	0xba36a840	-0.000696782
9	0xbb08770b	-0.0020822908
10	0xbba87327	-0.0051406804
11	0x3a4749e3	0.00076022575
12	0xbb4b8e3d	-0.0031060122
13	0xbbc6af53	-0.0060633807
14	0x39a2d013	0.00031054075
15	0xbab76135	-0.0013990762
16	0x3bbcba7a	0.0057595344
17	0xb9a10794	-0.0003071396
18	0xbab2269e	-0.0013591831
19	0xbbb0ebd7	-0.005399208
20	0xbbc735de	-0.0060794195
21	0xbbac0098	-0.005249094
22	0xbb2a1c9b	-0.0025956992
23	0x00000000	0.0
24	0xba61c58a	-0.00086125045
25	0xbb4da1c9	-0.003137695
26	0xba8ce636	-0.001074976
27	0xbb0bc3e1	-0.002132647
28	0xbb0796a6	-0.0020689159
29	0x3b176cb2	0.002310556
30	0xbb050c1a	-0.0020301403
31	0x3acf0566	0.0015794456

task_heads.target1.3.weight f4 [1, 32]
0	0xbe48dd1f	-0.19615601
1	0x3d70b299	0.058764074
2	0x3c758c5c	0.014987078
3	0x3e5e1580	0.21687889
4	0xbdc04f67	-0.09390145
5	0xbe4ceeef	-0.20013021
6	0xbe86fc8f	-0.26364562
7	0xbdb79083	-0.0896311
8	0x3e9f6815	0.31134096
9	0xbeb96aea	-0.3621438
10	0xbe972f5b	-0.29528317
11	0x3e2046cb	0.15652005
12	0xbeb390fe	-0.35071558
13	0xbea1075e	-0.31450933
14	0xbeb25db7	-0.34837124
15	0xbe30d6e6	-0.17269477
16	0xbde7f4b8	-0.11325973
17	0xbebd3fc0	-0.369627
18	0x3e67b2f4	0.22626859
19	0xbea4fc56	-0.32223767
20	0xbe1e50dc	-0.15460533
21	0xbbd3ecd9	-0.0064674434
22	0x3d8f39b0	0.06993425
23	0xbeae2210	-0.34010363
24	0x3d6b3133	0.057419967
25	0xbe5d7224	-0.21625572
26	0x3e41aeb9	0.18914308
27	0x3ecf018b	0.40430865
28	0xbda8d76c	-0.082442135
29	0x3cd61ca1	0.026136698
30	0x3eb0008b	0.34375414
31	0x3cb30a00	0.021855354

exp_avg f4 [1, 4, 16]
0	0xba9475f2	-0.0011326654
1	0x3a97f953	0.001159469
2	0x39910b84	0.00027665135
3	0xbb59def6	-0.0033244467
4	0xbaa5f11d	-0.0012660358
5	0x388f11fc	6.822121e-05
6	0x3af8e76a	0.0018989865
7	0xbac13264	-0.0014739749
8	0x3b3dd753	0.0028967455
9	0x3b22ca1a	0.00248397
10	0xba471e0e	-0.0007595726
11	0xbae8b09c	-0.0017752829
12	0xbb2dd5e4	-0.0026525194
13	0x3ac8480e	0.0015280263
14	0xbab1b861	-0.0013558978
15	0xb9673468	-0.000220494
16	0xbb53b367	-0.0032302977
17	0xba07c451	-0.0005179095
18	0x3aa457bc	0.0012538354
19	0xba28af81	-0.00064348435
20	0x37d0220a	2.4811383e-05
21	0x39d0db6e	0.0003983634
22	0xbb292809	-0.0025811216
23	0xbae69084	-0.0017590676
24	0x3ad64142	0.0016346353
25	0x39fa455e	0.00047735398
26	0x3acd0b67	0.0015643657
27	0x3b011d44	0.0019701282
28	0x3b1ab762	0.002360784
29	0xb9b4b605	-0.0003446789
30	0x3a9c636b	0.0011931484
31	0x3ab29949	0.0013626005
32	0xb9a754a2	-0.00031915779
33	0x38e43867	0.00010882393
34	0x3a0717e7	0.0005153403
35	0xb9e82745	-0.00044279746
36	0x3903f9fa	0.00012586257
37	0x3b160879	0.0022893234
38	0x3721aa26	9.635964e-06
39	0xba280e15	-0.000641079
40	0x3b9c215d	0.0047647194
41	0xbb8c06a7	-0.004273254
42	0x3a51defc	0.00080059445
43	0x3b4b772b	0.0031046371
44	0x3bc16280	0.0059016347
45	0xb8a1402f	-7.6890334e-05
46	0x3a36566d	0.00069556275
47	0x3afc0a64	0.0019229171
48	0xba20f7c2	-0.00061404344
49	0x3b43f66e	0.0029901522
50	0xba8b772f	-0.0010640378
51	0xba1fa2eb	-0.00060896453
52	0x38901e9f	6.872159e-05
53	0xbb073145	-0.0020628732
54	0x3b5235e1	0.0032075571
55	0xb9ebb8c4	-0.00044960354
56	0x3ada2dd2	0.0016645736
57	0xbac91bec	-0.0015343404
58	0x3ad37060	0.0016131513
59	0xba560bb5	-0.00081651966
60	0x3b2502b8	0.0025178622
61	0x38a2a106	7.754755e-05
62	0x3b18ecd3	0.0023334518
63	0xbb227947	-0.0024791525

exp_avg_sq f4 [1, 4, 16]
0	0x3383816d	6.123705e-08
1	0x33424ae0	4.5237243e-08
2	0x32165d46	8.752357e-09
3	0x34c2ce97	3.628563e-07
4	0x3364583e	5.3165643e-08
5	0x32a6d627	1.9422329e-08
6	0x3402fabf	1.2198414e-07
7	0x33b7cd13	8.558904e-08
8	0x34918fbf	2.7112944e-07
9	0x3461ad1d	2.1017736e-07
10	0x32e209a2	2.6314243e-08
11	0x33e6c0d6	1.0745286e-07
12	0x347c3ae2	2.349075e-07
13	0x33b07f13	8.218753e-08
14	0x33c1f32e	9.031497e-08
15	0x3102a83e	1.9013124e-09
16	0x34dda565	4.1284798e-07
17	0x33463edb	4.6157634e-08
18	0x338fa85c	6.689581e-08
19	0x32d5f1b8	2.4906385e-08
20	0x32753c79	1.4274627e-08
21	0x32041aa4	7.689469e-09
22	0x34a66070	3.0990077e-07
23	0x342f2808	1.6312708e-07
24	0x33fee12d	1.1868756e-07
25	0x32cbae0f	2.3711463e-08
26	0x33b5dc9c	8.468598e-08
27	0x3446f4d0	1.8529249e-07
28	0x346e8eec	2.2217472e-07
29	0x32d63888	2.4938586e-08
30	0x3351003e	4.8661825e-08
31	0x33d30b85	9.8275486e-08
32	0x31e225a0	6.581743e-09
33	0x31ee8935	6.9423103e-09
34	0x32bc5cc2	2.1928262e-08
35	0x32939290	1.7179701e-08
36	0x31b693e6	5.3137112e-09
37	0x34289721	1.57012e-07
38	0x31ae4f77	5.0731006e-09
39	0x327aca9e	1.4597985e-08
40	0x352e7817	6.4994805e-07
41	0x350a3314	5.1483335e-07
42	0x32ac639a	2.0068729e-08
43	0x349ad271	2.8837852e-07
44	0x358a10d0	1.0286694e-06
45	0x31015403	1.8819726e-09
46	0x328f784d	1.6702097e-08
47	0x33e9b940	1.0883605e-07
48	0x331b2965	3.6126398e-08
49	0x3501f2e3	4.840969e-07
50	0x337f9d32	5.9514782e-08
51	0x32ba1be6	2.1665937e-08
52	0x30aee440	1.2725039e-09
53	0x3483159e	2.441638e-07
54	0x3515853c	5.5700707e-07
55	0x328ffa38	1.6761177e-08
56	0x341e313a	1.4732805e-07
57	0x341a1ab1	1.4352078e-07
58	0x3427e130	1.563501e-07
59	0x3317ff4b	3.5389615e-08
60	0x34be9a8d	3.5502708e-07
61	0x3178dafc	3.6213228e-09
62	0x34b99327	3.4566003e-07
63	0x34c532ff	3.6731214e-07

exp_avg f4 [1, 4, 16]
0	0xb809b64d	-3.2833126e-05
1	0xb60aa635	-2.0660348e-06
2	0xb6552d40	-3.1765812e-06
3	0xb807e3f8	-3.239882e-05
4	0xb8038aba	-3.1362033e-05
5	0xb7b4a683	-2.153521e-05
6	0xb6b71724	-5.456519e-06
7	0x36663811	3.4305306e-06
8	0x36f370ce	7.2550965e-06
9	0x357b7f76	9.3690267e-07
10	0x3818752d	3.6348752e-05
11	0xb7feb7aa	-3.0364685e-05
12	0xb81ce313	-3.7404778e-05
13	0xb745459e	-1.1758324e-05
14	0xb7ed2a2b	-2.8272238e-05
15	0xb817f76c	-3.6231635e-05
16	0x3a31d2f9	0.00067834515
17	0x3a9f0e6a	0.0012135033
18	0x39297c59	0.00016163419
19	0x3a4ac377	0.0007734815
20	0x39d54b71	0.00040682734
21	0x39f8898c	0.00047404727
22	0x3a672702	0.00088177633
23	0x3a519fb2	0.0007996514
24	0xb9bcdc20	-0.0003602216
25	0xba1ba147	-0.0005936813
26	0x3a056050	0.0005087899
27	0xba66be9a	-0.00088022056
28	0xb9f34779	-0.00046401823
29	0x3aa09362	0.0012250955
30	0x3a2e91b7	0.00066592864
31	0xba90b760	-0.0011040978
32	0xb97de331	-0.00024212596
33	0xb919fecf	-0.0001468614
34	0x396f8db0	0.00022845599
35	0x384a027b	4.8162863e-05
36	0xb938b296	-0.00017614136
37	0x3a852612	0.001015844
38	0xb9ab1a13	-0.00032635088
39	0xb8cdd3e4	-9.8146294e-05
40	0x3ae13ff9	0.0017185203
41	0xbad590dc	-0.0016293782
42	0x3a1f1b08	0.00060693966
43	0x3abd24a4	0.0014430475
44	0x3b26683a	0.0025391714
45	0xb81706ae	-3.6007426e-05
46	0x393541ac	0.0001728597
47	0x3a709e78	0.0009178887
48	0xb828cbf9	-4.0244286e-05
49	0x39a37ba3	0.000311819
50	0xb9263053	-0.00015848996
51	0xb63e8c55	-2.839389e-06
52	0xb950e92e	-0.00019923292
53	0x39cb4011	0.0003876691
54	0xb991cfeb	-0.00027811466
55	0xb97244de	-0.00023104573
56	0x37203277	9.548493e-06
57	0xb9be1245	-0.00036253236
58	0x38a45498	7.835886e-05
59	0xb8d543d3	-0.00010169265
60	0x3a62bc13	0.0008649241
61	0x39af8af0	0.00033482118
62	0x3a31f65d	0.0006788725
63	0xbaa2c485	-0.0012418187

exp_avg_sq f4 [1, 4, 16]
0	0x2ddcf390	2.5119268e-11
1	0x29f4ae6a	1.0866033e-13
2	0x2a8ba9eb	2.4809264e-13
3	0x2dd72942	2.4460992e-11
4	0x2dc9a59c	2.29246e-11
5	0x2d3ea5fc	1.08371055e-11
6	0x2b48d406	7.1348515e-13
7	0x2aa222d7	2.8801156e-13
8	0x2bb003ae	1.2506573e-12
9	0x28e573e4	2.5474367e-14
10	0x2e07549d	3.0770598e-11
11	0x2dbd0fa0	2.1493751e-11
12	0x2e0f49f9	3.2580137e-11
13	0x2c64ed9b	3.2532646e-12
14	0x2da3f8e4	1.8641484e-11
15	0x2e06764b	3.0573138e-11
16	0x33349913	4.2048736e-08
17	0x33669a6e	5.36915e-08
18	0x3158148a	3.1443812e-09
19	0x32bf18e0	2.2246638e-08
20	0x31d579b5	6.2129524e-09
21	0x320088af	7.481659e-09
22	0x3353a589	4.927782e-08
23	0x3309d85c	3.2094576e-08
24	0x325be857	1.2800306e-08
25	0x324ff2dc	1.2104206e-08
26	0x325b1e3f	1.2754355e-08
27	0x331d2c09	3.659446e-08
28	0x32b489db	2.1017447e-08
29	0x335d07c2	5.1462628e-08
30	0x3285fa45	1.5597047e-08
31	0x3350d769	4.862469e-08
32	0x312909c1	2.4598281e-09
33	0x3185dc61	3.8958636e-09
34	0x3147ba8e	2.9064355e-09
35	0x3136a70a	2.6579436e-09
36	0x30d58593	1.5535754e-09
37	0x331c7bf8	3.643433e-08
38	0x316045a4	3.2635876e-09
39	0x305e60d8	8.090075e-10
40	0x33dbf42d	1.02423975e-07
41	0x33c859b0	9.32954e-08
42	0x328a408c	1.6094667e-08
43	0x33a690ba	7.756303e-08
44	0x3479b0f5	2.3254309e-07
45	0x301113e2	5.277895e-10
46	0x310e390b	2.0696145e-09
47	0x32f471e5	2.8457132e-08
48	0x2f1802e6	1.3825349e-10
49	0x32059e45	7.777605e-09
50	0x311463de	2.1593602e-09
51	0x2edf619e	1.0158206e-10
52	0x3120cd3d	2.3399729e-09
53	0x3208b100	7.956487e-09
54	0x3168cc73	3.387666e-09
55	0x319e3b57	4.6051514e-09
56	0x2f9c2c36	2.8407648e-10
57	0x3216d057	8.77852e-09
58	0x2fdb849a	3.9930087e-10
59	0x30b4192d	1.3103879e-09
60	0x3355107e	4.9607927e-08
61	0x321732a7	8.800874e-09
62	0x33046f8a	3.083509e-08
63	0x33e3accb	1.0601942e-07

exp_avg f4 [64]
0	0xbb5879f6	-0.0033031679
1	0x3bd4c574	0.006493265
2	0xbaa394d7	-0.0012480271
3	0x00000000	0.0
4	0x3a6cfb69	0.00090401486
5	0x39fd09f9	0.0004826335
6	0x3bbf57f9	0.0058393446
7	0x38b07cb1	8.4155596e-05
8	0x3b69d9a1	0.0035682695
9	0x3b550556	0.0032504401
10	0x3b6fd96b	0.0036598097
11	0x00000000	0.0
12	0x00000000	0.0
13	0xbb8d1504	-0.004305484
14	0x39b9bdf1	0.00035427467
15	0x39397bbe	0.00017689072
16	0x00000000	0.0
17	0xb822e7d4	-3.8839717e-05
18	0x3ba87c61	0.0051417802
19	0x00000000	0.0
20	0xba0310a4	-0.0004999733
21	0xb86bfd46	-5.6264245e-05
22	0x00000000	0.0
23	0x00000000	0.0
24	0xbae61292	-0.0017553142
25	0x3b41a5f9	0.002954839
26	0x39a7a8fa	0.0003197862
27	0x3bc56ce8	0.0060249455
28	0x3b3420cf	0.0027485376
29	0x00000000	0.0
30	0x394e9347	0.00019700556
31	0x3b6b7c61	0.003593229
32	0x3992a562	0.0002797051
33	0xb9b2257b	-0.0003397873
34	0x3b35af64	0.002772295
35	0x3adfe308	0.001708121
36	0x3a549726	0.0008109681
37	0xba1dfc9e	-0.00060267176
38	0x3820c7bd	3.8332993e-05
39	0xbace2086	-0.0015726245
40	0x3c16f00e	0.009212507
41	0x00000000	0.0
42	0xbbc21ee6	-0.0059240935
43	0x3a968639	0.0011484093
44	0x3c0265f3	0.007958877
45	0x39ecfda3	0.00045202402
46	0x3a585952	0.0008253056
47	0xbb9355f8	-0.0044963323
48	0x39c1f50a	0.00036994397
49	0x3a9c66c5	0.0011932483
50	0xb7a9ad68	-2.0227119e-05
51	0xb9cec4ff	-0.00039438155
52	0xba96ae55	-0.0011496047
53	0xb9ffcb72	-0.0004878897
54	0x3ba3edca	0.005002712
55	0xb9f96baf	-0.00047573211
56	0xbbe39d4c	-0.0069462415
57	0x38d6b9e8	0.00010238943
58	0x3b883e59	0.004157823
59	0x397551d9	0.00023395511
60	0x3bba761b	0.005690349
61	0x3b856890	0.0040713027
62	0x3b83b56d	0.0040194304
63	0x00000000	0.0
