finalhybrid/experiments/simple_model_small_samples/final_simple_model.pth (torch, 74162 bytes, 13 tensors)

gat_layers.0.att_src f4 [1, 4, 16]
-0.10611557 0.3653198 0.22754312 0.028865708 -0.3597003 0.46405602 -0.53051764 0.11937505
0.2974985 0.16530667 0.18540452 0.06885333 0.022438318 -0.4684438 -0.1650317 -0.03220182
0.27951905 -0.3923741 0.31170407 0.48602918 -0.19396007 0.44713703 -0.4599448 0.49542573
-0.07081434 0.33806875 -0.4460112 0.18059243 -0.4619993 -0.41782582 -0.5003024 -0.13814655
-0.29242977 0.022307191 -0.047467448 -0.48658916 -0.53446007 0.23037691 0.3517735 0.38408312
0.19813374 -0.09222985 0.44225684 0.44197884 0.30681425 -0.12360657 0.5080138 0.08674162
0.5237376 0.24593204 0.0982719 0.1054304 0.3861575 -0.20132327 0.067499414 0.39363417
0.2748501 -0.14052282 0.2587021 -0.498964 -0.19291405 -0.3548466 0.044302635 0.22835448
00000000: 1f53 d9bd 320b bb3e 1001 693e c777 ec3c
00000010: a32a b8be c098 ed3e 01d0 07bf e87a f43d
00000020: b951 983e 2746 293e afda 3d3e fa02 8d3d
00000030: 90d0 b73c ded7 efbe 12fe 28be 0ee6 03bd
00000040: 1f1d 8f3e 42e5 c8be ad97 9f3e d1d8 f83e
00000050: 789d 46be 25ef e43e e37d ebbe 71a8 fd3e
00000060: 1c07 91bd 5917 ad3e 945b e4be 39ed 383e
00000070: 2c8b ecbe 44ed d5be d113 00bf 4a76 0dbe
00000080: 5bb9 95be 92bd b63c 3a6d 42bd 3722 f9be
00000090: 60d2 08bf ede7 6b3e a81b b43e 8ba6 c43e
000000a0: 92e3 4a3e 01e3 bcbd 7d6f e23e 0d4b e23e
000000b0: c216 9d3e 7125 fdbd 310d 023f 97a5 b13d
000000c0: ab13 063f 9cd5 7b3e c742 c93d e5eb d73d
000000d0: 70b6 c53e b027 4ebe 223d 8a3d 6b8a c93e
000000e0: 27b9 8c3e 37e5 0fbe 9a74 843e 3678 ffbe
000000f0: 438b 45be 74ae b5be ae76 353d c2d5 693e

gat_layers.0.att_dst f4 [1, 4, 16]
-0.3241236 0.01275916 0.008159391 -0.3114536 -0.2908527 -0.17477253 -0.002373581 -0.0072001633
0.021870604 -0.008379946 0.36555406 -0.31046033 -0.40347004 -0.046303917 -0.25571498 -0.3562083
-0.43819755 -0.19785745 -0.055672176 0.3611885 0.4766757 0.20775372 -0.19851685 -0.3729429
0.12298254 0.11009803 -0.15066887 -0.282028 -0.1030181 0.06599235 0.40070224 -0.27173588
0.16310102 0.210645 -0.47226515 0.36063236 -0.23128107 -0.073619395 -0.39414126 0.4952971
0.09676537 0.40743482 -0.52116644 -0.37319174 -0.4929268 0.2102448 -0.10921527 0.07446053
0.17890513 0.010601066 -0.36441422 0.15544231 0.5272543 0.3219114 -0.26809326 -0.31543478
-0.14875573 -0.29171407 0.13810545 0.06773728 0.030912505 0.15687421 -0.2950913 0.45624393
00000000: 87f3 a5be cc0b 513c f7ae 053c d976 9fbe
00000010: a5ea 94be 92f7 32be 158e 1bbb 59ef ebbb
00000020: fb29 b33c 0b4c 09bc e729 bb3e a8f4 9ebe
00000030: a093 cebe 2da9 3dbd 13ed 82be ef60 b6be
00000040: 6e5b e0be 259b 4abe 8208 64bd b3ed b83e
00000050: d60e f43e 64bd 543e 0048 4bbe 5ff2 bebe
00000060: 45de fb3d 137b e13d f148 1abe f965 90be
00000070: 27fb d2bd ff26 873d d828 cd3e f720 8bbe
00000080: f403 273e 53b3 573e bdcc f1be cea4 b83e
00000090: f2d4 6cbe c4c5 96bd e2cc c9be 9597 fd3e
000000a0: ec2c c63d 4c9b d03e 2a6b 05bf fd12 bfbe
000000b0: e760 fcbe 6a4a 573e 41ac dfbd c37e 983d
000000c0: e832 373e 18b0 2d3c 8094 babe 452c 1f3e
000000d0: 23fa 063f 92d1 a43e 8543 89be ab80 a1be
000000e0: 6c53 18be 8c5b 95be 846b 0d3e d8b9 8a3d
000000f0: 393c fd3c a2a3 203e 3516 97be ce98 e93e

gat_layers.0.bias f4 [64]
0.0013544752 -0.030630361 -0.003864051 0.0 -0.016078845 -0.017400969 -0.022208804 -0.003997196
-0.012499979 -0.015077155 -0.011546953 0.0 0.0 0.017823268 -0.008151379 -0.0035812426
0.0 -0.004317703 -0.018656857 0.0 -0.003125621 -0.0086717 0.0 0.0
0.021684108 -0.021556217 -0.0070097097 -0.025616579 -0.011632224 0.0 -0.00017231972 -0.030273842
-0.0053587956 0.017817633 -0.0064552315 -0.0072099515 -0.0053656916 0.0052947765 -0.00420533 -0.0024419131
-0.024384774 0.0 0.023179853 -0.0072725276 -0.035370663 -0.0004834002 -0.0035193434 0.001603197
-0.013958874 -0.015471487 -0.0029422035 0.017935086 0.018080248 -0.0028919224 -0.03008585 0.01732098
0.025289914 0.0041486463 -0.017876256 -0.013958683 -0.021783218 -0.023146868 -0.018686775 0.0
00000000: a588 b13a 86ec fabc 053c 7dbb 0000 0000
00000010: c8b7 83bc 7a8c 8ebc 3def b5bc e9fa 82bb
00000020: b6cc 4cbc 2c06 77bc 6e2f 3dbc 0000 0000
00000030: 0000 0000 1a02 923c 5d8d 05bc 48b3 6abb
00000040: 0000 0000 857b 8dbb 44d6 98bc 0000 0000
00000050: 38d7 4cbb bf13 0ebc 0000 0000 0000 0000
00000060: dfa2 b13c aa96 b0bc b5b1 e5bb dcd9 d1bc
00000070: 1595 3ebc 0000 0000 b9b0 34b9 d900 f8bc
00000080: d698 afbb 49f6 913c 6886 d3bb 7541 ecbb
00000090: afd2 afbb ce7f ad3b ddcc 89bb 8108 20bb
000000a0: 94c2 c7bc 0000 0000 ade3 bd3c 624e eebb
000000b0: d4e0 10bd e070 fdb9 c9a4 66bb 5d22 d23a
000000c0: c3b3 64bc 1f7c 7dbc fcd1 40bb 9aec 923c
000000d0: 071d 943c 6886 3dbb 9a76 f6bc bae4 8d3c
000000e0: cb2c cf3c 5ef1 873b 3a71 92bc f6b2 64bc
000000f0: b872 b2bc 809e bdbc 0215 99bc 0000 0000

gat_layers.0.lin.weight f4 [64, 36]
-0.08371884 -0.13837697 -0.01916662 -0.16292726 0.12374018 -0.1947726 -0.10794925 0.06897744
0.02922219 -2.623243e-05 0.007937051 0.045076866 -0.07109922 0.07143254 -0.088456854 -0.03753263
-0.006014395 -0.04863522 -2.6602635e-07 -1.3971728e-06 -2.2974884e-07 0.16699888 0.0007914128 0.05576155
0.07635503 0.022023575 -0.10436332 0.15989941 0.14419432 0.11877672 -0.2171077 -0.025978003
0.066064365 0.18103072 0.12519202 0.1265838 0.01940154 0.011288652 0.13254224 0.019240702
0.102518074 -0.03766053 0.087897666 -0.071907304 0.042308282 -0.08719123 -0.072748154 0.033066727
0.021915102 0.002978781 -0.038567185 0.010794129 -0.016386848 -0.0040389453 -0.0018839994 -0.03403578
-0.05262034 0.18847851 -0.0012959762 0.20062454 0.17664748 -0.009092682 -0.006312718 0.09026898
0.19015962 0.1959097 -0.02238259 -0.082426384 0.06823765 0.0673636 -0.105393015 -0.14836638
-0.08714948 0.20950611 0.08843754 -0.16571666 0.18136974 -0.035867613 0.09585505 0.019339288
0.13187458 -0.023458542 -0.055412933 -0.047811456 -0.018055992 -0.01442128 1.6099577e-06 0.046396654
-0.06461569 -0.023458444 -0.032621007 9.695443e-07 -9.432376e-07 0.11816587 -1.9306375e-05 0.017231189
0.016158408 1.850314e-06 0.12887417 0.17435513 -0.065333545 0.06063528 -0.22900803 -0.006340191
0.035293438 0.11632426 -0.13110413 0.011435635 -0.1677169 0.11780376 0.025518285 0.07097718
-0.07660473 0.0089084245 0.06915406 -4.5828443e-09 0.03453461 1.0354587e-06 -0.08170659 -0.06432627
-0.05140061 1.1966825e-05 3.719395e-05 1.2585572e-06 -0.0006041889 -4.917844e-09 -2.7333188e-05 -1.5611939e-06
-4.229547e-07 0.018444618 0.031140156 -0.043962885 -0.14310226 -0.079231635 -0.15324517 -0.11148314
-0.038464025 0.043633178 -0.02000883 3.6041315e-06 0.03463575 0.10571685 -0.08934621 -0.0075833327
0.026197877 0.21589673 0.034795225 -0.12398742 -0.1953805 -0.10401267 -0.0103648715 -0.0010547612
-0.049773984 -1.7924849e-05 0.05013336 -0.014968836 0.00040542232 3.2850387e-06 -0.035310946 0.03208624
-0.020808036 -0.029805299 -0.069679104 -0.005042889 0.037253313 -0.07920945 0.033732377 -0.014835155
-0.00053993124 -1.2423391e-06 -0.0025439444 -0.1635389 0.022122646 -0.2108979 -0.21196842 -0.042824943
-0.07621809 0.13521113 0.08164723 0.03112305 -0.030279506 -0.22192605 -0.13938563 -5.632601e-05
-0.056386583 0.12965289 0.009422837 -4.4374364e-08 0.13751054 -0.08378985 0.017236501 -0.037264332
-0.09215589 0.0014419899 0.055892505 -0.035340037 -0.05555804 7.37632e-07 0.07871587 0.073385365
0.016285563 0.23480147 -0.012741959 -0.16492017 0.17195974 -9.656021e-05 -0.044890724 -0.1801471
-0.12764058 -0.23509699 -0.1804913 0.10292321 -0.055091694 -0.14512928 -0.1459269 -0.16408172
0.16349964 -0.17145044 -0.11127937 -0.14680544 0.1159925 0.0035883074 0.14381176 0.030409519
-0.06289718 0.022451274 -0.06551634 0.07281038 -0.005818704 -3.4908917e-05 0.04153152 -0.008642317
-0.00580205 -0.0067789247 0.052892238 -0.051821694 -0.032961022 0.17894208 -0.013132703 -0.0322899
0.050206393 2.7359968e-07 -0.011800552 0.109284386 0.059797026 0.027396012 0.08315619 -6.784541e-05
0.04236289 -0.2507978 0.20829423 -0.11842957 0.045871653 0.042523723 -0.1565688 0.14295706
00000000: c874 abbd b1b2 0dbe 5103 9dbc 67d6 26be
00000010: 7e6b fd3d 7872 47be 7f14 ddbd 0b44 8d3d
00000020: 6063 ef3c b70d dcb7 680a 023c 85a2 383d
00000030: 789c 91bd 394b 923d de28 b5bd d1bb 19bd
00000040: 6714 c5bb b935 47bd 62d2 8eb4 7e86 bbb5
00000050: e1b0 76b4 c101 2b3e d076 4f3a 3966 643d
00000060: 0760 9c3d c96a b43c 70bc d5bd acbc 233e
00000070: ada7 133e 3541 f33d 7b51 5ebe d2cf d4bc
00000080: c14c 873d 1e60 393e 5632 003e 2f9f 013e
00000090: faef 9e3c 0af4 383c 27b9 073e ad9e 9d3c
000000a0: fff4 d13d ee41 1abd b103 b43d 2344 93bd
000000b0: 734b 2d3d 5191 b2bd fcfc 94bd fa70 073d
000000c0: 4d87 b33c a737 433b a0f8 1dbd dcd9 303c
000000d0: b63d 86bc 2159 84bb 88f0 f6ba 1a69 0bbd
000000e0: 6d88 57bd 8300 413e bfdd a9ba 8570 4d3e
000000f0: 14e3 343e 79f9 14bc ebda cebb f1de b83d
00000100: 34b9 423e 8d9c 483e b25b b7bc 2acf a8bd
00000110: 2ec0 8b3d edf5 893d 4bd8 d7bd 5bed 17be
00000120: 6d7b b2bd c588 563e be1e b53d a1b1 29be
00000130: fdb8 393e ebe9 12bd a74f c43d 6d6d 9e3c
00000140: 210a 073e 212c c0bc acf8 62bd f2d5 43bd
00000150: 29ea 93bc 3b47 6cbc ba15 d835 6b0a 3e3d
00000160: 3b55 84bd ec2b c0bc 9b9d 05bd 4a21 8235
00000170: cb32 7db5 f300 f23d 20f4 a1b7 6c28 8d3c
00000180: a35e 843c 4e58 f835 97f7 033e 278a 323e
00000190: 98cd 85bd b35c 783d 1581 6abe 60c1 cfbb
000001a0: da8f 103d 6a3b ee3d 2940 06be 885c 3b3c
000001b0: fbbd 2bbe 1943 f13d b90b d13c 7c5c 913d
000001c0: f1e2 9cbd a4f4 113c a5a0 8d3d 2077 9db1
000001d0: 2a74 0d3d 17fa 8a35 c955 a7bd 7ebd 83bd
000001e0: 7289 52bd 1fc5 4837 b300 1c38 b2eb a835
000001f0: 6e62 1eba d0f9 a8b1 9349 e5b7 378a d1b5
00000200: 7412 e3b4 2b19 973c a419 ff3c 6d12 34bd
00000210: 6689 12be 3244 a2bd 4dec 1cbe 4651 e4bd
00000220: 748c 1dbd b4b8 323d 8fe9 a3bc 82de 7136
00000230: 37de 0d3d 1382 d83d 25fb b6bd 9b7d f8bb
00000240: ee9c d63c 0814 5d3e 7085 0e3d 1eed fdbd
00000250: d311 48be 9804 d5bd 6cd1 29bc ea3f 8aba
00000260: cedf 4bbd 525d 96b7 a358 4d3d d93f 75bc
00000270: dd8e d439 8974 5c36 36a2 10bd dc6c 033d
00000280: 9d75 aabc 3e2a f4bc ebb3 8ebd d23e a5bb
00000290: ee96 183d 9038 a2bd f62a 0a3d 260f 73bc
000002a0: 2c8a 0dba 72be a6b5 4eb8 26bb be76 27be
000002b0: 8d3a b53c 9ef5 57be 400e 59be 3569 2fbd
000002c0: 3b18 9cbd c974 0a3e aa36 a73d c4f5 fe3c
000002d0: ba0c f8bc 9540 63be 1bbb 0ebe 983f 6cb8
000002e0: 9ef5 66bd bac3 043e 3e62 1a3c 2196 3eb3
000002f0: 90cf 0c3e 039a abbd 9033 8d3c 7ca2 18bd
00000300: 3abc bcbd 2701 bd3a 8aef 643d b7c0 10bd
00000310: d490 63bd af01 4635 c935 a13d 114b 963d
00000320: 4d69 853c cc6f 703e a6c3 50bc d5e0 28be
00000330: 3716 303e 5e80 cab8 56df 37bd 7b78 38be
00000340: 36b4 02be 44bd 70be b6d2 38be 67c9 d23d
00000350: d4a7 61bd c59c 14be dc6d 15be 0a05 28be
00000360: 736c 273e b490 2fbe 70e6 e3bd 2a54 16be
00000370: 7a8d ed3d cf29 6b3b 6443 133e 621d f93c
00000380: 3dd0 80bd bceb b73c 6e2d 86bd 9c1d 953d
00000390: d4aa bebb 2a6b 12b8 f51c 2a3d 8198 0dbc
000003a0: 1f1f bebb be21 debb 88a5 583d fc42 54bd
000003b0: 2302 07bd 983c 373e 8c2a 57bc 6a42 04bd
000003c0: 38a5 4d3d 41e3 9234 1a57 41bc 7ed0 df3d
000003d0: baed 743d 9a6d e03c cb4d aa3d 3a48 8eb8
000003e0: b684 2d3d 9268 80be 154b 553e 348b f2bd
000003f0: eae3 3b3d 5b2d 2e3d 9253 20be 5663 123e

gat_layers.1.att_src f4 [1, 4, 16]
-0.08775891 0.38376385 0.012100194 -0.29960114 0.44918597 -0.05192266 0.06759828 -0.52919704
-0.34827173 0.06596487 0.029350797 0.361989 -0.5072126 -0.21529478 -0.2402964 0.018916197
-0.39154556 -0.0072557298 0.03528325 -0.30488458 0.27014422 0.3411288 -0.31684786 0.19774394
-0.141364 -0.26485947 -0.23761174 0.42373693 0.33903667 -0.079472534 -0.37824127 0.14968757
-0.2936114 -0.4522263 -0.35639307 0.0988505 -0.45584407 0.014771489 0.057816144 -0.5230087
-0.36408317 -0.18120158 0.28156397 0.44099867 0.37541956 -0.19608791 -0.44414526 -0.36147606
0.04619944 -0.20235728 0.31823432 -0.19882876 -0.23863834 -0.079795435 -0.08496517 -0.19757108
-0.09522538 -0.20964749 0.104429126 -0.34337506 -0.48686174 -0.26846176 0.49199173 -0.048815496
00000000: f2ba b3bd b27c c43e e43f 463c 5265 99be
00000010: b4fb e53e dbac 54bd f870 8a3d 7579 07bf
00000020: ac50 b2be 9718 873d 1571 f03c 9f56 b93e
00000030: afd8 01bf 3c76 5cbe 4210 76be 24f6 9a3c
00000040: a978 c8be 79c1 edbb 2b85 103d d519 9cbe
00000050: 5850 8a3e 6fa8 ae3e e239 a2be 637d 4a3e
00000060: b9c1 10be a99b 87be 7e50 73be 0cf4 d83e
00000070: 3796 ad3e 7fc2 a2bd d7a8 c1be b347 193e
00000080: 3c54 96be 358a e7be 2779 b6be 2272 ca3d
00000090: 6564 e9be 1e04 723c 9fd0 6c3d e6e3 05bf
000000a0: 1c69 babe e88c 39be 2729 903e 94ca e13e
000000b0: fe36 c03e 45cb 48be 0267 e3be 6413 b9be
000000c0: a03b 3d3d bf36 4fbe 9cef a23e c499 4bbe
000000d0: 9c5d 74be ca6b a3bd 3802 aebd 1350 4abe
000000e0: 8605 c3bd d5ad 56be f0de d53d dbce afbe
000000f0: f145 f9be d273 89be 57e6 fb3e c2f2 47bd

gat_layers.1.att_dst f4 [1, 4, 16]
-0.38377705 0.36100417 -0.46950778 0.34281626 -0.49285933 -0.35203046 0.43345714 0.093539335
-0.03421711 -0.16795635 -0.058189765 -0.23709387 0.11009774 0.2671526 -0.38826463 -0.013218214
0.20109102 -0.45350325 -0.0915478 -0.30161402 -0.16162695 -0.36613995 0.54254794 -0.37580994
0.3410072 0.33046114 0.43150237 0.33315578 -0.079392694 0.3085558 0.35359326 -0.48091757
0.1968444 -0.3502922 -0.38000375 0.43152013 0.46246147 0.16479228 -0.270675 -0.10839729
0.48139656 0.5318563 -0.28106928 -0.19668736 -0.08254193 0.33575466 0.17219223 0.52071005
-0.3006398 0.29177588 -0.088503145 -0.14559737 0.12093518 -0.43450835 0.06978862 -0.07448921
0.2056124 0.15778999 0.024493685 0.041698202 -0.026334329 0.4718819 0.22449501 -0.42342007
00000000: 6d7e c4be 8ad5 b83e 5363 f0be 9d85 af3e
00000010: 0f58 fcbe 563d b4be 18ee dd3e 8d91 bf3d
00000020: 3e27 0cbd c0fc 2bbe 6458 6ebd bcc8 72be
00000030: ed7a e13d 3ac8 883e 9fca c6be 3591 58bc
00000040: ceea 4d3e 9431 e8be 6a7d bbbd 276d 9abe
00000050: 8981 25be b276 bbbe 6ce4 0a3f 296a c0be
00000060: 7f98 ae3e 3432 a93e e1ed dc3e 6593 aa3e
00000070: a398 a2bd 07fb 9d3e 2d0a b53e d43a f6be
00000080: 9491 493e 8059 b3be da8f c2be 35f0 dc3e
00000090: c0c7 ec3e 4fbf 283e ea95 8abe 66ff ddbd
000000a0: 9c79 f63e bc27 083f 50e8 8fbe 6968 49be
000000b0: be0b a9bd 09e8 ab3e 2953 303e 414d 053f
000000c0: 76ed 99be a663 953e 2341 b5bd 7a17 15be
000000d0: ddac f73d e177 debe 56ed 8e3d cd8d 98bd
000000e0: 0f8c 523e b393 213e fba6 c83c bccb 2a3d
000000f0: 17bb d7bc 819a f13e 05e2 653e 84ca d8be

gat_layers.1.bias f4 [64]
0.0075523695 -0.00649399 0.002426761 0.0025390782 -0.018233255 -0.006792535 0.00090953964 -0.0132525
-0.014987982 0.0054381294 -0.016912632 0.005563166 -0.032066498 -0.015864879 0.0096849585 -0.0059238467
-0.022533782 -0.011887975 0.008841901 -0.015431761 -0.023459774 -0.0053692143 -0.017191611 -0.021429554
-0.012485651 -0.014039251 0.0020524797 0.018333897 -0.0029030957 -0.010214853 -0.0037280994 0.014083002
-0.02184951 -0.018980518 -0.0034033686 -0.019165818 -0.0004587065 0.019837217 -0.008495854 -0.0068334653
0.0013008604 0.017747592 -0.0054416643 -0.01911781 -0.014402045 -0.00640365 -0.019312957 -0.0067428774
0.018683402 -0.012654917 -0.016870042 -0.010385967 0.008457471 -0.022408247 -0.0028444089 5.6548277e-05
-0.0008217316 -0.020496383 -0.023207618 -0.029233847 -0.0048078443 0.012645139 0.007962419 -0.002325354
00000000: de79 f73b 89cb d4bb 4b0a 1f3b aa66 263b
00000010: e85d 95bc ea93 debb 2c6e 6e3a 0421 59bc
00000020: 2790 75bc 5632 b23b 5c8c 8abc 384b b63b
00000030: 2958 03bd 10f7 81bc a9ad 1e3c d41c c2bb
00000040: c498 b8bc c8c5 42bc 9fdd 103c 7fd5 7cbc
00000050: b62e c0bc 3cf0 afbb 6cd5 8cbc 088d afbc
00000060: 9e90 4cbc e304 66bc e582 063b f830 963c
00000070: dd41 3ebb 335c 27bc 2153 74bb 64bc 663c
00000080: befd b2bc 087d 9bbc 0d0b 5fbb a201 9dbc
00000090: 8b7e f0b9 a981 a23c 3232 0bbc 43eb dfbb
000000a0: a281 aa3a 6663 913c fd4f b2bb f49c 9cbc
000000b0: 8ef6 6bbc b6d5 d1bb 3536 9ebc 5bf3 dcbb
000000c0: ef0d 993c 9256 4fbc 0b33 8abc e729 2abc
000000d0: 3491 0a3c 8091 b7bc 4369 3abb 402e 6d38
000000e0: 7969 57ba 08e8 a7bc e71d bebc d27b efbc
000000f0: 1f8b 9dbb 8f2d 4f3c ce74 023c f764 18bb

gat_layers.1.lin.weight f4 [64, 64]
0.13173401 -0.16453305 0.14734639 0.039683495 0.1350816 0.1615251 -0.18796827 3.9822436e-07
0.11820586 0.06607796 0.025501864 -9.82824e-08 -0.050587345 -0.20720817 -0.031739093 -0.014585404
6.989655e-06 -0.07707043 -0.18116054 0.0062500928 0.0112198265 -0.08305352 0.0070471074 0.03685547
-0.12393744 -0.0923459 0.18216807 -0.13854213 0.016538166 0.056590613 0.19524503 0.19920883
-0.11300093 -0.08158847 -0.18943445 0.07338771 -0.08982649 0.013039362 -0.016508779 0.03968038
0.10949596 -0.06980704 0.036615163 -0.084902115 -0.058290474 0.027111094 0.09887505 -0.15735728
0.17193367 0.06667522 1.1732283e-06 -0.17840947 -0.07954385 0.09581464 0.17859796 0.002026447
0.017062105 -0.06922531 -0.21042287 -0.01973765 -0.19022225 -0.021853233 0.200563 0.01265332
0.10483365 -0.0880447 -0.043981105 -0.0018563349 -0.048008353 0.17998101 -0.21481407 1.7486528e-07
-0.16084754 0.15052824 0.20873728 0.05276352 -3.73311e-05 -0.11710666 0.00047232615 0.09567214
0.0008200671 -0.0005368886 -0.16226898 0.0004931417 0.04136747 -0.080370195 0.0065641333 0.0011630768
0.024815459 0.012852217 0.0074114013 0.16243848 -0.15640673 0.016881136 -0.15777344 0.16692466
0.077032074 0.026221197 -0.057181295 0.1169407 -0.18615617 0.11666419 0.05050385 -0.0036117914
0.18653613 -0.047031395 -0.013984052 -0.04694486 -0.20012169 -0.08623588 0.1663126 -0.118164346
0.013516338 -0.027449924 -0.049264826 0.10729172 -0.10542328 0.20201097 0.1323411 -0.071057
-0.11150096 -0.022915678 -0.08494765 0.010178204 0.16028085 0.1618346 0.11077339 -3.5256363e-07
-0.06434328 -0.081420474 -0.013691063 -0.02823046 -0.084294416 0.19894366 0.20585203 0.050197497
0.058664355 -0.12598583 0.003695733 -3.0743893e-05 9.70888e-07 -0.07835434 -0.084306344 0.0666754
-1.2749096e-07 0.015618977 -0.08429772 -0.049351066 -0.18354964 0.05859333 -0.0001109638 0.030114764
0.060698956 0.016260898 0.025707047 0.013088701 -0.049623407 -0.00010533236 -0.15315653 -0.15720904
0.19648185 -0.042200506 -0.020750223 0.072639585 -0.10136921 -0.03215051 0.08229923 -0.102489516
0.16172777 4.2892862e-07 0.1115538 -0.18536936 -0.085364 0.07315168 0.19032034 0.05305808
-0.0077980086 -0.066107646 -6.3660465e-08 -0.035283837 0.009772907 -0.08436779 0.14757235 0.05581512
0.0075400597 -0.02563741 0.10693572 0.013347555 -0.14664476 -0.18650438 -0.00360516 -0.07491184
0.100599684 -0.012804239 -0.18260401 0.07131849 0.001366166 -0.0143174585 -0.051622532 0.056670167
-0.026008021 -0.17096293 -0.19234669 -0.043502193 0.07320386 0.18395993 0.03463505 0.07367043
0.00040722114 0.00042213674 -0.097205356 -0.07021285 -0.07733529 -0.07792014 0.04083578 -0.07628291
0.014586367 0.059838418 -0.06454707 0.1832541 -0.056839082 3.7912267e-07 0.13231842 -0.1269148
-0.16523471 -0.12690064 0.11988998 0.13372277 0.10178524 -0.07822074 0.04357422 0.13240321
-0.21087225 -3.0339977e-05 -0.13413376 0.0076222843 0.12149938 0.00754856 -0.039327096 -0.10365611
0.06833073 -0.11553431 -0.010185799 -0.040311612 0.09858339 0.1481589 0.032253016 0.057578146
-0.08255657 -0.00019035603 -0.20181905 0.0035742456 0.093707584 0.12909849 -0.09144919 -1.173649e-06
00000000: 48e5 063e 5a7b 28be f9e1 163e 298b 223d
00000010: d552 0a3e d666 253e c17a 40be 8acb d534
00000020: ea15 f23d e253 873d 49e9 d03c 520f d3b3
00000030: ad34 4fbd 612e 54be da00 02bd 9ef7 6ebc
00000040: ae88 ea36 1ad7 9dbd 2682 39be 94cd cc3b
00000050: 5dd3 373c f717 aabd 6ceb e63b c3f5 163d
00000060: ead2 fdbd d91f bdbd 448a 3a3e fddd 0dbe
00000070: 0c7b 873c 8fcb 673d 50ee 473e 66fd 4b3e
00000080: 086d e7bd db17 a7bd 1bfb 41be 4c4c 963d
00000090: f3f6 b7bd 0ca3 553c 6b3d 87bc e587 223d
000000a0: 6b3f e03d fef6 8ebd c8f9 153d 29e1 adbd
000000b0: fec1 6ebd 1618 de3c 017f ca3d 4422 21be
000000c0: 610f 303e 058d 883d d177 9d35 f9b0 36be
000000d0: e3e7 a2bd 773a c43d 62e2 363e 24ce 043b
000000e0: d4c5 8b3c 00c6 8dbd 1879 57be dab0 a1bc
000000f0: 9fc9 42be 8d05 b3bc 6360 4d3e df4f 4f3c
00000100: 06b3 d63d c850 b4bd 8825 34bd 4350 f3ba
00000110: 68a4 44bd f14c 383e 38f8 5bbe 9ac2 3b34
00000120: 38b5 24be 1324 1a3e 3abf 553e 901e 583d
00000130: f793 1cb8 9ed5 efbd 8ba2 f739 c1ef c33d
00000140: c6f9 563a fcbd 0cba d729 26be 2e46 013a
00000150: f070 293d 2199 a4bd f117 d73b 6272 983a
00000160: ca49 cb3c 1b92 523c 57db f23b 4656 263e
00000170: 1629 20be 4f4a 8a3c 5c8f 21be 4cee 2a3e
00000180: fec2 9d3d d6cd d63c ef36 6abd 9b7e ef3d
00000190: b99f 3ebe a3ed ee3d 20dd 4e3d ceb3 6cbb
000001a0: 5403 3f3e fea3 40bd 5e1d 65bc 4149 40bd
000001b0: b3ec 4cbe 709c b0bd da4d 2a3e 2600 f2bd
000001c0: a173 5d3c aade e0bc eac9 49bd c3bb db3d
000001d0: 29e8 d7bd f7db 4e3e 6d84 073e 5586 91bd
000001e0: 9e5a e4bd a9b9 bbbc 09f9 adbd 7bc2 263c
000001f0: aa20 243e f8b7 253e 29dd e23d fa47 bdb4
00000200: 69c6 83bd c7bf a6bd 7b50 60bc 9143 e7bc
00000210: 8da2 acbd e3b7 4b3e e0ca 523e e49b 4d3d
00000220: 094a 703d 6e02 01be 1c34 723b 01f3 00b8
00000230: 754f 8235 3d78 a0bd cea8 acbd 1d8d 883d
00000240: 73e4 08b4 bde6 7f3c 48a4 acbd 5824 4abd
00000250: 70f4 3bbe 8fff 6f3d 3db5 e8b8 3db3 f63c
00000260: 789f 783d 9335 853c 9697 d23c fe71 563c
00000270: ea41 4bbd e1e5 dcb8 11d5 1cbe 68fb 20be
00000280: 8a32 493e 70da 2cbd 5ffc a9bc 10c4 943d
00000290: a99a cfbd 41b0 03bd 808c a83d 06e6 d1bd
000002a0: f79b 253e 8047 e634 5276 e43d 77d1 3dbe
000002b0: 52d3 aebd 8cd0 953d 56e3 423e 6e53 593d
000002c0: 7086 ffbb 7263 87bd b6b5 88b3 c985 10bd
000002d0: 8b1e 203c 05c9 acbd 351d 173e 659e 643d
000002e0: 9b12 f73b 8c05 d2bc 1d01 db3d b4af 5a3c
000002f0: 0b2a 16be 01fb 3ebe 8c44 6cbb 616b 99bd
00000300: 3507 ce3d dfc8 51bc 8cfc 3abe 6e0f 923d
00000310: ed10 b33a c693 6abc 2672 53bd fa1e 683d
00000320: c60e d5bc e810 2fbe 88f6 44be 5b2f 32bd
00000330: e8eb 953d fe5f 3c3e 7bdd 0d3d 86e0 963d
00000340: 4c80 d539 3c52 dd39 9a13 c7bd c1cb 8fbd
00000350: f761 9ebd 9894 9fbd 6b43 273d 373a 9cbd
00000360: a8fb 6e3c 2119 753d 4131 84bd f6a6 3b3e
00000370: 19d0 68bd 398a cb34 7b7e 073e f4f5 01be
00000380: 4a33 29be 3ef2 01be e188 f53d 9fee 083e
00000390: c874 d03d 3232 a0bd e27a 323d b594 073e
000003a0: e5ee 57be 9b82 feb7 5c5a 09be 5bc4 f93b
000003b0: abd4 f83d e959 f73b 7315 21bd a849 d4bd
000003c0: fbf0 8b3d 419d ecbd 56e2 26bc ca1d 25bd
000003d0: 17e6 c93d f7b6 173e bd1b 043d 10d7 6b3d
000003e0: 6b13 a9bd 4f9a 47b9 a7a9 4ebe e43d 6a3b
000003f0: c3e9 bf3d 6532 043e b749 bbbd 4686 9db5

shared_embedding.0.weight f4 [64, 128]
-0.0638928 -0.10423566 -0.020473834 -0.024903147 -0.08837099 0.038575575 -0.12205139 -0.12765911
0.12445109 -0.04842641 0.02792876 0.052104574 -0.008756144 0.093449675 0.04820517 0.08973855
0.095065 0.07353605 0.08401999 -0.0029864435 0.15438905 0.044991005 -0.055832125 -0.18101399
-0.015584508 0.029478483 0.024134267 -0.18007025 -0.09903878 0.16044712 0.074734576 0.13523485
0.02211958 -0.064213775 -0.032941062 -0.12101174 0.12155965 0.025717176 0.06718345 -0.12711342
-0.044262387 0.050439976 0.053142816 0.09333148 -0.02276242 -0.10474492 0.09916189 -0.0026079612
-0.13635641 0.030699024 -0.14759809 -0.025483785 0.032832213 -0.067513764 -0.1451976 0.004890733
0.001410244 0.05706787 0.027484948 0.09958548 -0.06810908 0.009056649 0.14667498 -0.13596836
-0.095821805 0.00900351 -0.13078414 -0.07034643 -0.09533457 0.07059535 -0.014453914 -0.017403787
0.022559252 -0.03064157 -0.05426599 -0.115837015 0.10166339 0.1226232 -0.06651055 0.070662744
0.14045563 0.03738416 -0.018132621 0.027401922 0.1219388 -0.09484128 0.033580586 0.09738998
0.12877709 -0.13246919 0.04484791 -0.029049478 -0.13183656 -0.08104933 -0.11058532 0.007016405
0.085064314 0.02107026 0.046159502 0.015491357 -0.14837807 0.017809663 -0.0913358 0.0065218755
-0.013792776 0.11045288 -0.112129055 -0.013731583 -0.1545613 0.15529974 -0.100880004 5.4091724e-05
-0.0837744 0.07405165 -0.13928305 0.028621163 -0.1303989 0.09186163 0.08711681 -0.1684038
0.0013765782 -0.09271723 -0.0671544 0.05814469 -0.096960485 0.1282189 0.04046298 0.028847516
-3.7200047e-07 -0.040692378 -0.0056162043 1.5053216e-06 7.9826873e-07 3.1268837e-07 8.468897e-08 -1.9193492e-07
-0.019588841 0.02189329 -0.00053024053 -1.3764355e-07 2.3720695e-06 -0.003231596 -3.2907e-05 -2.8894665e-05
0.033029515 0.02269121 -0.02301802 -0.00024417523 -8.66702e-05 -1.8912651e-07 -0.0005504834 -0.0319728
2.2301219e-08 5.7335266e-05 5.283662e-06 0.00055770937 0.045881648 7.2278686e-05 -0.03572505 -0.04715041
2.776742e-05 -2.3218062e-07 -0.0023738723 8.1782495e-08 -1.3858655e-06 -0.025476184 1.5752597e-06 -5.5187326e-07
-4.040326e-06 0.004100541 -0.005222286 0.045628216 -4.094484e-07 0.04224109 -1.4788181e-05 -0.029619545
0.0004413908 9.244697e-07 0.0023773788 0.009563486 4.939916e-06 -1.8575041e-06 -1.2315697e-06 0.0072669038
0.0017963544 1.5765544e-07 -1.2022493e-08 0.0150148375 -0.02964747 -0.023607805 0.0002728923 3.1424883e-05
-3.7326656e-05 6.78902e-09 -1.9082972e-07 -6.4924956e-05 0.0050397003 -0.0015792248 0.0011710325 -0.013774609
0.00035390258 -0.010917667 1.8284825e-06 4.1684966e-06 0.03158681 -0.01879285 0.044808682 -0.0022608077
-4.500367e-06 8.136008e-08 -9.0475373e-07 -0.0018276513 -1.4167604e-06 -0.016486784 0.020933295 1.2878519e-05
-1.4723529e-06 -0.03948823 -1.07429344e-07 -3.8569542e-07 -0.013506685 -0.017201886 -2.7318096e-05 -0.009596143
-0.0013402409 -0.016220845 -1.3298053e-07 4.2504315e-08 -0.019594705 -0.037569497 -0.015524259 2.6356336e-05
-0.022877619 -0.021079771 0.010894807 -0.008723746 0.026815651 -0.042291995 1.5203373e-06 -6.4079272e-06
0.003934969 0.021623459 3.3935434e-05 -1.1534422e-07 0.003836209 -0.005532368 0.0056451033 1.2979586e-06
-0.010297983 -0.042756774 1.4239254e-06 9.55822e-07 -1.5563138e-06 -0.041413922 -0.00037763533 0.024588486
00000000: 3ada 82bd 8179 d5bd beb8 a7bc af01 ccbc
00000010: d9fb b4bd 6c01 1e3d 14f6 f9bd 12b9 02be
00000020: 37e0 fe3d c55a 46bd dbca e43c 9b6b 553d
00000030: ee75 0fbc 8b62 bf3d c972 453d d8c8 b73d
00000040: 70b1 c23d 129a 963d ac12 ac3d 35b8 43bb
00000050: 2a18 1e3e 7d48 383d 3ab0 64bd bb5b 39be
00000060: 2a56 7fbc dc7c f13c 3ab5 c53c 5664 38be
00000070: d8d4 cabd 404c 243e 710e 993d 017b 0a3e
00000080: 1f34 b53c 8382 83bd 35ed 06bd 01d5 f7bd
00000090: 44f4 f83d d4ac d23c 7a97 893d 052a 02be
000000a0: 7a4c 35bd 269a 4e3d 48ac 593d 9324 bf3d
000000b0: 4178 babc 8184 d6bd 6415 cb3d 54ea 2abb
000000c0: 04a1 0bbe 857c fb3c f423 17be 5fc3 d0bc
000000d0: 127b 063d a844 8abd aeae 14be 7142 a03b
000000e0: f0d7 b83a 00c0 693d 1d28 e13c 79f3 cb3d
000000f0: c67c 8bbd 5762 143c f731 163e 4a3b 0bbe
00000100: 393e c4bd 7583 133c 47ec 05be ca11 90bd
00000110: c53e c3bd 4b94 903d 1cd0 6cbc 6392 8ebc
00000120: 2ece b83c 0804 fbbc 0446 5ebd f53b edbd
00000130: e534 d03d df21 fb3d af36 88bd a1b7 903d
00000140: 9ad3 0f3e 2220 193d dd8a 94bc ff79 e03c
00000150: 0dbb f93d 253c c2bd cc8b 093d 6674 c73d
00000160: 24de 033e 01a6 07be 71b2 373d 2cf9 edbc
00000170: 2a00 07be 31fd a5bd 8e7a e2bd dfe9 e53b
00000180: 3336 ae3d 8a9b ac3c bf11 3d3d 76cf 7d3c
00000190: 6cf0 17be 92e5 913c 440e bbbd 75b5 d53b
000001a0: 18fb 61bc 1f35 e23d eba3 e5bd 6ffa 60bc
000001b0: 5145 1ebe e506 1f3e 2d9a cebd 8ce0 6238
000001c0: ea91 abbd 64a8 973d 37a0 0ebe ee76 ea3c
000001d0: 4a87 05be f321 bc3d 4c6a b23d 0c72 2cbe
000001e0: 4d6e b43a 88e2 bdbd 3f88 89bd 2029 6e3d
000001f0: 3893 c6bd d14b 033e 82bc 253d a051 ec3c
00000200: 5bb7 c7b4 0dad 26bd 2308 b8bb 750a ca35
00000210: 9c48 5635 90df a734 41de b533 ab16 4eb4
00000220: c778 a0bc 8f59 b33c d7ff 0aba 2ccb 13b4
00000230: d82f 1f36 2fc9 53bb 9f05 0ab8 d262 f2b7
00000240: f549 073d ebe2 b93c 4990 bcbc a504 80b9
00000250: b6c2 b5b8 b312 4bb4 514e 10ba e9f5 02bd
00000260: e690 bf32 467b 7038 504a b136 3e33 123a
00000270: 65ee 3b3d 5394 9738 6e54 12bd ca20 41bd
00000280: 15ee e837 534d 79b4 f892 1bbb 67a0 af33
00000290: fa01 bab5 6eb3 d0bc 836d d335 7124 14b5
000002a0: 2392 87b6 d55d 863b b61f abbb a7e4 3a3d
000002b0: 29d2 dbb4 fe04 2d3d c11a 78b7 b0a4 f2bc
000002c0: 786a e739 1329 7835 cccd 1b3b 2bb0 1c3c
000002d0: 8ec1 a536 5b4f f9b5 6a4c a5b5 351f ee3b
000002e0: a773 eb3a ff47 2934 7c8b 4eb2 cb00 763c
000002f0: 40df f2bc 2865 c1bc fc12 8f39 36ce 0338
00000300: 318f 1cb8 da44 e931 e0e6 4cb4 5228 88b8
00000310: 1224 a53b fefd ceba 557d 993a e6ae 61bc
00000320: 008c b939 04e0 32bc 2e6a f535 1ddf 8b36
00000330: 2c61 013d 77f3 99bc 4f89 373d 0f2a 14bb
00000340: dc01 97b6 2db8 ae33 34de 72b5 cd8d efba
00000350: 8427 beb5 4b0f 87bc 4d7c ab3c d110 5837
00000360: a99d c5b5 69be 21bd e8b3 e6b3 9311 cfb4
00000370: 254b 5dbc f8ea 8cbc 2a29 e5b7 2439 1dbc
00000380: 06ab afba 94e1 84bc 69c9 0eb4 fd8d 3633
00000390: 1385 a0bc 79e2 19bd 7659 7ebc cd17 dd37
000003a0: d869 bbbc 7caf acbc 2280 323c 0bee 0ebc
000003b0: 7fac db3c 5f3a 2dbd 640e cc35 ad03 d7b6
000003c0: eaf0 803b ae23 b13c e555 0e38 28b3 f7b3
000003d0: e868 7b3b de48 b5bb 8ffa b83b 8535 ae35
000003e0: dfb8 28bc ba21 2fbd b41d bf35 cb49 8035
000003f0: 89e2 d0b5 a5a1 29bd 5bfd c5b9 cb6d c93c

shared_embedding.0.bias f4 [64]
-0.012283973 0.0 0.0 0.011580413 -0.005013302 -0.015163138 -0.005686313 -0.017685734
-0.015139159 0.0 -0.014490278 -0.009855732 0.022509368 -0.006922444 -0.0014654722 -0.008353874
-0.00748081 -0.00095619675 0.0122174565 0.0 0.0 -0.016616752 0.0 -0.01987128
-0.015389469 -0.012978076 0.0 0.011596767 -0.006235931 -0.0064549954 -0.010971637 -0.0043001
0.0032586642 -0.010402015 -0.0007656339 -0.008476979 -0.014571128 0.0 -0.0076426947 -0.004819459
0.005362618 0.0 -0.008521762 0.0 -0.017033242 0.0011055659 -0.019395925 0.0043482985
-0.016973315 -0.00276346 -0.009715961 -0.0119186295 -0.01381717 -0.009528654 -0.009004292 0.005316911
0.011485358 -0.016065635 -0.0010198556 -0.007880523 -0.007857116 -0.015826592 -0.0072349287 -0.01526845
00000000: b842 49bc 0000 0000 0000 0000 c6bb 3d3c
00000010: a046 a4bb cf6e 78bc 4054 babb ace1 90bc
00000020: 3c0a 78bc 0000 0000 a268 6dbc f079 21bc
00000030: 9165 b83c abd5 e2bb 1615 c0ba b0de 08bc
00000040: 9521 f5bb 47a9 7aba ba2b 483c 0000 0000
00000050: 0000 0000 db1f 88bc 0000 0000 18c9 a2bc
00000060: 1d24 7cbc ffa1 54bc 0000 0000 5e00 3e3c
00000070: c856 ccbb 6d84 d3bb 62c2 33bc dae7 8cbb
00000080: 508f 553b 376d 2abc d2b4 48ba 07e3 0abc
00000090: bebb 6ebc 0000 0000 926f fabb 8dec 9dbb
000000a0: e6b8 af3b 0000 0000 dc9e 0bbc 0000 0000
000000b0: 4c89 8bbc a3e8 903a 34e4 9ebc 2c7c 8e3b
000000c0: 9f0b 8bbc 2a1b 35bb b22f 1fbc 5b46 43bc
000000d0: 6961 62bc 121e 1cbc bd86 13bc 7b39 ae3b
000000e0: 152d 3c3c 149c 83bc adac 85ba 4f1d 01bc
000000f0: 22bb 00bc c5a6 81bc fb12 edbb 8528 7abc

task_heads.target1.0.weight f4 [32, 64]
0.12844267 -0.024759924 0.020484157 -0.009615594 6.9120546e-08 0.14222483 -0.22711153 -0.1289731
0.12672004 0.08881805 0.15405181 0.20130923 -0.08927372 -1.9834026e-05 -0.07385758 1.8588995e-06
-0.21742783 -4.298041e-07 0.0097147385 -0.010027176 -0.08372464 0.10817496 -0.054365277 0.12947309
-0.1685407 0.14174366 0.00060574483 -0.13719295 0.000101998885 0.04078535 -0.030232992 -0.09114951
-0.20775183 -0.047093976 0.041714817 0.00023343142 -0.054579828 0.09387474 1.7151042e-07 -0.017847339
0.034498848 0.0045778453 2.1083346e-07 0.04025954 -0.12823358 -0.124576144 -0.06745533 0.05839502
0.060436226 -0.07955677 -0.19819565 3.728045e-05 -0.100339405 -0.14769591 0.013118457 -0.08812469
-0.114032306 -0.19549438 0.056212947 -0.02317671 -0.07499761 -0.011645558 1.4991153e-05 0.08400203
0.19150947 0.08583264 7.0933397e-06 -0.04924081 -0.03356052 0.1478742 -0.026757302 -0.181507
-0.13348685 0.05474558 -0.10178004 -0.057925448 0.007846462 0.039652992 -0.0803481 1.594318e-06
-0.20238122 3.640845e-05 -0.025088882 -0.047186844 5.272662e-06 -0.073321365 -8.238145e-06 0.056276694
0.18079144 0.043079894 -0.015264339 -0.15863766 0.028968472 0.10906822 0.09390355 -0.06658756
-0.0056790407 -0.17054898 0.0586943 -0.017549397 -0.19185284 -2.3450624e-05 0.005585625 0.055151816
0.018929748 3.2355697e-07 -0.095522866 0.03200405 -0.13219716 0.14435881 0.061255526 -0.1956566
-0.097454526 -0.10001618 0.19316803 -0.0011905793 0.18655822 -0.10916198 -0.0014828147 -0.10292189
-0.09201722 0.15766393 -0.018793281 -0.08460733 -0.038612027 -0.06847747 1.5281396e-06 -0.060427547
0.06939 -0.09003554 0.106864065 -0.1096887 -0.0024857554 0.08161079 -0.1391307 -0.21547697
0.12628244 -0.0045529166 0.13741569 -0.018847618 -0.04596815 0.1540166 -0.02859046 -0.123180084
-0.22260845 0.17235892 0.18921475 0.05454348 0.05485366 0.096263655 0.0028041406 -0.019882776
-0.13555326 -0.09881238 -3.4249737e-08 -0.011703882 -0.022200132 -0.10865257 0.20028976 0.06558815
0.14494985 -0.21002385 -0.0829506 0.07587195 -0.01943372 -0.009839668 -1.6159904e-06 0.026841378
0.08461236 0.00050162413 -0.04411448 0.028278425 0.09012433 -0.18505481 -0.054735787 -0.19125988
0.045960117 0.03480005 0.21057947 -0.00731406 0.14340217 -0.002273124 0.09553094 0.019049631
0.19291173 -0.044714604 -0.023225032 -0.06313269 -0.07785481 -0.013252597 -0.047506936 0.055470012
0.09404633 -0.00356935 3.1436946e-07 -0.08360053 2.8237719e-05 0.23673037 0.057124432 -0.06313389
0.13858181 6.041102e-06 -0.00035523283 0.043805208 -0.20591521 -0.08323561 0.02165046 -0.20757198
0.105630964 0.15538143 0.04614623 0.0066265 0.0006671847 0.017499547 -0.024373963 -0.015347424
-0.017910728 -0.0727566 -0.02053938 0.0013281252 -0.039734617 0.19410942 0.17638382 0.06491278
0.16237393 0.03698717 0.05189984 0.07682897 0.23439336 -0.04329071 -0.017650604 0.24082927
-0.0124648 -0.000222037 -0.014176769 -0.09264599 -0.14369418 -0.17216948 -0.07700539 -0.18399227
0.017145513 0.2121816 -0.093011715 -2.881016e-06 0.045804974 0.21917681 -0.17338821 -0.054521646
-0.17972484 0.15904471 0.19180684 -0.14644763 -0.060516074 0.056129735 -0.06682796 0.044020265
00000000: 7a86 033e 53d5 cabc 64ce a73c b98a 1dbc
00000010: 6c6f 9433 63a3 113e ed8f 68be 8611 04be
00000020: e6c2 013e 3de6 b53d c2bf 1d3e 0224 4e3e
00000030: 24d5 b6bd 3f61 a6b7 a542 97bd 4d7f f935
00000040: 67a5 5ebe d3bf e6b4 912a 1f3c 0649 24bc
00000050: d377 abbd d58a dd3d 20ae 5ebd 9894 043e
00000060: ef95 2cbe 4025 113e d9ca 1e3a 4f7c 0cbe
00000070: 3ce8 d538 8a0e 273d 2eab f7bc 98ac babd
00000080: e5bc 54be 9de5 40bd 28dd 2a3d 45c5 7439
00000090: 198f 5fbd 6641 c03d 6d28 3834 9534 92bc
000000a0: aa4e 0d3d c001 963b 7661 6234 30e7 243d
000000b0: aa4f 03be c721 ffbd 0526 8abd 9e2f 6f3d
000000c0: fa8b 773d a9ee a2bd cdf3 4abe 945d 1c38
000000d0: bf7e cdbd 993d 17be ccee 563c b87a b4bd
000000e0: c589 e9bd ae2f 48be 8c3f 663d 15dd bdbc
000000f0: 5998 99bd 03cd 3ebc 8382 7b37 4209 ac3d
00000100: 0f1b 443e 06c9 af3d 5303 ee36 bbb0 49bd
00000110: c176 09bd 566c 173e 2132 dbbc f9dc 39be
00000120: c7b0 08be e73c 603d 0e72 d0bd 3c43 6dbd
00000130: 728e 003c 2d6b 223d 8b8d a4bd 59fc d535
00000140: 063d 4fbe 47b5 1838 3387 cdbc fe46 41bd
00000150: d2eb b036 8329 96bd 9036 0ab7 6482 663d
00000160: 6421 393e 8b74 303d 4717 7abc e971 22be
00000170: 4a4f ed3c 295f df3d 8150 c03d 0f5f 88bd
00000180: 3f17 babb 64a4 2ebe 6f69 703d c1c3 8fbc
00000190: 1275 44be d5b7 c4b7 9e07 b73b dfe6 613d
000001a0: 8f12 9b3c 55b5 ad34 7ea1 c3bd ae16 033d
000001b0: b15e 07be ccd2 133e 13e7 7a3d 345a 48be
000001c0: 3d96 c7bd 48d5 ccbd d7cd 453e 360d 9cba
000001d0: 1e09 3f3e 5190 dfbd 015b c2ba b6c8 d2bd
000001e0: 8673 bcbd a772 213e 5ef4 99bc 9c46 adbd
000001f0: a527 1ebd ea3d 8cbd 7a1a cd35 e082 77bd
00000200: 581c 8e3d 8e64 b8bd 8cdb da3d 78a4 e0bd
00000210: 0ee8 22bb 8f23 a73d 4778 0ebe ffa5 5cbe
00000220: 2f50 013e a230 95bb b3b6 0c3e 5266 9abc
00000230: 1949 3cbd 87b6 1d3e 8a36 eabc d745 fcbd
00000240: 78f3 63be db7e 303e 83c1 413e fc68 5f3d
00000250: 3bae 603d e125 c53d acc5 373b 34e1 a2bc
00000260: 79ce 0abe 255e cabd fc19 13b3 a4c1 3fbc
00000270: 0ddd b5bc 3d85 debd c218 4d3e 1453 863d
00000280: bc6d 143e 7e10 57be 01e2 a9bd c162 9b3d
00000290: 7733 9fbc 8f36 21bc 02e5 d8b5 73e2 db3c
000002a0: 3f49 ad3d 6d7f 033a 63b1 34bd 28a8 e73c
000002b0: 1b93 b83d 027f 3dbe a232 60bd a1d9 43be
000002c0: ad40 3c3d 7f8a 0e3d 25a2 573e c8aa efbb
000002d0: 05d8 123e b1f8 14bb baa5 c33d f90d 9c3c
000002e0: a78a 453e a926 37bd 6c42 bebc b64b 81bd
000002f0: 5872 9fbd 6c21 59bc a296 42bd 8634 633d
00000300: 5d9b c03d c2eb 69bb 9cc6 a834 c136 abbd
00000310: 0ae0 ec37 7269 723e 4ffb 693d 574c 81bd
00000320: 64e8 0d3e acb4 ca36 8b3e bab9 176d 333d
00000330: 70db 52be 6e77 aabd 4e5c b13c c08d 54be
00000340: 0c55 d83d 4f1c 1f3e d403 3d3d 1c23 d93b
00000350: 02e6 2e3a 365b 8f3c e8ab c7bc c373 7bbc
00000360: 85b9 92bc 6a01 95bd 3442 a8bc 7d14 ae3a
00000370: c4c0 22bd 9fc4 463e f69d 343e fef0 843d
00000380: 5a45 263e dc7f 173d ed94 543d 8258 9d3d
00000390: d004 703e 9951 31bd 0098 90bc f39b 763e
000003a0: 2939 4cbc 9ad2 68b9 ae45 68bc 2ebd bdbd
000003b0: 9124 13be 324d 30be 00b5 9dbd 7868 3cbe
000003c0: bf74 8c3c 2246 593e ed7c bebd 7a57 41b6
000003d0: ff9d 3b3d e36f 603e ae8c 31be 1752 5fbd
000003e0: ca09 38be 9edc 223e 0369 443e 5ef6 15be
000003f0: b4df 77bd 4be8 653d 19dd 88bd 984e 343d

task_heads.target1.0.bias f4 [32]
-0.007865244 -0.0022912081 0.0017967485 3.671083e-05 -0.015426003 -0.018462513 -0.01978308 -0.014233516
-0.015417933 -0.031346105 -0.04843303 0.003406011 -0.015665112 -0.027740788 -0.02449599 -0.022671431
-0.007161134 -0.03716437 -0.016779706 -0.031009566 -0.025954433 -0.00737785 0.014922305 -0.005398537
0.0008730907 -0.024985356 -0.0090815015 -0.010657793 -0.004727333 0.0141285 0.0074512754 0.010688258
00000000: 39dd 00bc 1828 16bb e080 eb3a f4f9 1938
00000010: 59bd 7cbc b23e 97bc 2010 a2bc b133 69bc
00000020: 809b 7cbc c664 00bd b661 46bd 6237 5f3b
00000030: 1f54 80bc a640 e3bc d0ab c8bc 70b9 b9bc
00000040: f2a7 eabb ab39 18bd 9875 89bc c607 febc
00000050: 649e d4bc e4c1 f1bb af7c 743c 36e6 b0bb
00000060: 20e0 643a 17ae ccbc 94ca 14bc 069e 2ebc
00000070: bee7 9abb 397b 673c d429 f43b ce1d 2f3c

task_heads.target1.3.weight f4 [1, 32]
-0.1900408 0.057719413 0.011602951 0.20418765 -0.06503911 -0.16959192 -0.24196972 -0.070539616
0.28959265 -0.34960976 -0.26775324 0.14640832 -0.34146324 -0.29938346 -0.335066 -0.16332038
-0.103872925 -0.35004762 0.21451758 -0.30460584 -0.13638425 0.005812195 0.05547211 -0.28898984
0.057980753 -0.19356501 0.18171804 0.39698014 -0.07639947 0.03526891 0.33939016 0.027669499
00000000: 0e9a 42be 316b 6c3d 4e1a 3e3c 9116 513e
00000010: 3a33 85bd 81a9 2dbe e9c6 77be 1377 90bd
00000020: 7d45 943e 0d00 b3be f416 89be 10ec 153e
00000030: 45d4 aebe ca48 99be c58d abbe 753d 27be
00000040: 54bb d4bd 7139 b3be 7faa 5b3e 4cf5 9bbe
00000050: 50a8 0bbe 3a74 be3b b936 633d 7af6 93be
00000060: 3a7d 6d3d e835 46be 4b14 3a3e fb40 cb3e
00000070: 5377 9cbd 2276 103d 8cc4 ad3e 25ab e23c
