finalhybrid/experiments/simple_model_small_samples/latest_checkpoint.pth (torch, 226758 bytes, 39 tensors)

gat_layers.0.att_src f4 [1, 4, 16]
000000 b4 8b dd bd b0 6e bb 3e 7b 55 67 3e 22 a9 e3 3c
       -0.10817662 0.36607885 0.22591202 0.02779061
000010 3d c3 b8 be a2 89 ed 3e 8a 9d 07 bf 6b 7d f1 3d
       -0.36086455 0.46394068 -0.5297476 0.117915
000020 8a ee 98 3e 61 9c 2a 3e 2a 2c 3d 3e f5 63 8b 3d
       0.2986949 0.16661216 0.18473879 0.06806175
000030 00 31 b0 3c f0 5f ef be 22 79 2a be 91 2c f9 bc
       0.02150774 -0.46752882 -0.16647771 -0.030416759
000040 fa 1a 8f 3e c5 c3 c9 be 1d 49 9f 3e ca b2 f8 3e
       0.2795027 -0.39407173 0.31110469 0.48573905
000050 9f e7 47 be 13 d0 e4 3e e1 9a eb be 1a b3 fd 3e
       -0.1952195 0.44689998 -0.460166 0.49550706
000060 6f bd 90 bd 96 a4 ad 3e 71 f1 e4 be f0 13 39 3e
       -0.070673816 0.33914632 -0.44715455 0.18074012
000070 cf c0 ec be 88 07 d7 be 46 81 00 bf 17 dc 0c be
       -0.4624085 -0.41997933 -0.50197256 -0.13755833
000080 bb 5f 95 be c9 ba b4 3c 88 47 40 bd 2a 93 f9 be
       -0.291746 0.022061722 -0.046943218 -0.4874509
000090 e7 f3 08 bf ac d6 6c 3e 19 17 b4 3e 71 5e c4 3e
       -0.53497165 0.23128766 0.35173872 0.38353303
0000a0 19 9f 4b 3e 01 fd bd bd 60 15 e3 3e 4c a8 e2 3e
       0.1988491 -0.09276772 0.44352245 0.44269025
0000b0 33 86 9d 3e a9 a6 fc bd 97 18 02 3f b1 0d b3 3d
       0.30766448 -0.123364754 0.5081877 0.08742846
0000c0 70 fd 05 3f 8d 2d 7c 3e dc f8 c8 3d ed fd d6 3d
       0.5233984 0.24626751 0.09813091 0.10497651
0000d0 e5 54 c6 3e 42 97 4e be ef d4 8a 3d 15 8d c9 3e
       0.38736644 -0.20174888 0.06778895 0.3936545
0000e0 d1 e7 8c 3e c5 9b 10 be a5 b3 84 3e 4f 98 ff be
       0.27520612 -0.14121921 0.25918308 -0.4992089
0000f0 fc 49 45 be 11 1b b6 be c3 71 37 3d aa a0 69 3e
       -0.19266504 -0.35567525 0.044786226 0.22815195

gat_layers.0.att_dst f4 [1, 4, 16]
000000 ff ff a8 be 44 f4 0e 3c 7b eb 86 3b 0a 58 a0 be
       -0.3300781 0.00872523 0.004117427 -0.31317168
000010 67 bb 97 be 84 af 38 be c4 77 5b 3a cc 48 4d bb
       -0.29635164 -0.18035704 0.00083720335 -0.0031323908
000020 ec 34 d7 3c 94 aa 8d bb e1 17 bc 3e 9a 37 9e be
       0.026270352 -0.004323313 0.36736968 -0.30901796
000030 d0 0e ce be 9b 99 52 bd ed d0 83 be b1 c0 b8 be
       -0.40245676 -0.05141602 -0.25745335 -0.36084512
000040 ae b7 e1 be d2 a7 4c be 2e 96 64 bd 00 f5 b7 3e
       -0.4408545 -0.19985893 -0.055807285 0.35929108
000050 8d 9f f3 3e bc e7 52 3e a6 9f 4d be 30 37 c0 be
       0.47582665 0.20596212 -0.20080432 -0.37542105
000060 78 9e 00 3e 34 a3 e4 3d c0 9f 1a be 91 78 8f be
       0.12560451 0.11163941 -0.15100002 -0.28021672
000070 77 47 cf bd c7 f5 83 3d 11 4c cd 3e 45 58 8a be
       -0.10121053 0.06443363 0.40097097 -0.2702047
000080 c5 17 28 3e b8 d7 57 3e 49 e4 f2 be 0e 89 b9 3e
       0.16415317 0.21078384 -0.47439793 0.36237377
000090 f2 91 6d be d4 72 97 bd 1d 04 ca be 4b 8d fe 3e
       -0.23200205 -0.073949486 -0.39456263 0.49717173
0000a0 0b 5a c6 3d 9d e3 d0 3e d6 7c 05 bf d2 3c bf be
       0.09685143 0.40798655 -0.5214361 -0.3735109
0000b0 71 8f fc be ad 82 58 3e 6b ce e0 bd d7 e2 97 3d
       -0.49328187 0.21143599 -0.10976871 0.07416313
0000c0 a1 b9 38 3e aa 88 2d 3c 3f 62 bb be 43 c3 20 3e
       0.18039562 0.010591665 -0.36598393 0.15699486
0000d0 cf 6a 07 3f 9d 1d a5 3e fb 9b 89 be 7d e8 a1 be
       0.5289735 0.32249156 -0.26876816 -0.31622687
0000e0 ab 53 19 be 1c a4 95 be 03 b4 0e 3e a3 61 8b 3d
       -0.14973323 -0.29226768 0.13935857 0.06805732
0000f0 41 54 fd 3c b9 fa 20 3e 86 3e 97 be 04 b7 e9 3e
       0.030923964 0.15720643 -0.2953989 0.45647442

gat_layers.0.bias f4 [64]
000000 0d 21 1b 3a 05 d3 ef bc b6 d3 98 bb 00 00 00 00
       0.0005917706 -0.029275427 -0.00466391 0.0
000010 b5 c6 91 bc b3 bf 90 bc 53 e1 b0 bc 07 a9 83 bb
       -0.017794946 -0.017669534 -0.021591818 -0.0040179524
000020 e7 7a 46 bc 43 28 7d bc bb 47 50 bc 00 00 00 00
       -0.012114263 -0.015451494 -0.012712414 0.0
000030 00 00 00 00 4f 1d 8f 3c bc a4 06 bc 10 02 8c 37
       0.0 0.01747003 -0.008217987 1.6690261e-05
000040 00 00 00 00 8c fd 8c bb 92 b3 9d bc 00 00 00 00
       0.0 -0.004302686 -0.019250665 0.0
000050 1b cc 53 bb 0b 96 19 bc 00 00 00 00 00 00 00 00
       -0.0032317701 -0.009374152 0.0 0.0
000060 35 56 a8 3c 83 6d af bc 5c 44 e9 bb 3f 62 cd bc
       0.02054892 -0.021414524 -0.007118745 -0.025071261
000070 49 6e 48 bc 00 00 00 00 56 07 98 ba 8d 07 00 bd
       -0.012233325 0.0 -0.0011598866 -0.0312572
000080 aa 24 91 bb fe 00 97 3c e1 8b cb bb d7 1f 02 bc
       -0.0044294195 0.01843309 -0.006211743 -0.0079421615
000090 68 53 c5 bb 1b 4a a9 3b 52 b8 8a bb cb 7e 24 bb
       -0.0060219057 0.0051663048 -0.0042333985 -0.0025099989
0000a0 6c bd cd bc 00 00 00 00 5f 35 c6 3c 83 02 f9 bb
       -0.025114737 0.0 0.024195371 -0.0075991764
0000b0 b8 a4 0d bd 57 5f 62 ba bb 6d 23 bb e1 b6 1f 3b
       -0.034580916 -0.00086354226 -0.002493723 0.002437048
0000c0 32 26 63 bc 38 f2 79 bc 04 ad 41 bb 9e 64 96 3c
       -0.013864087 -0.015255503 -0.0029552588 0.018358525
0000d0 07 dc 8b 3c b1 72 53 bb d8 a8 ec bc 75 14 8e 3c
       0.01707269 -0.0032264406 -0.028889105 0.017343739
0000e0 a1 57 ce 3c 96 97 9c 3b 22 c0 87 bc 9d bf 67 bc
       0.02518827 0.0047788126 -0.016571108 -0.014144805
0000f0 16 41 ab bc ed eb ae bc 81 5e a0 bc 00 00 00 00
       -0.020905059 -0.021352733 -0.019576313 0.0

gat_layers.0.lin.weight f4 [64, 36]
000000 0a 91 ac bd 3a 9e 0e be 41 39 a2 bc ab 68 28 be
       -0.084261015 -0.13927546 -0.019802691 -0.16446178
000010 67 c5 fc 3d 3d a4 48 be 0e 72 e1 bd 34 3d 94 3d
       0.12342339 -0.19593902 -0.11008082 0.07238236
000020 c4 22 03 3d 47 4d 11 b8 9e 1e 14 3c 3f 63 44 3d
       0.032015577 -3.4642664e-05 0.009040503 0.04794621
000030 8f a9 98 bd 64 5b 99 3d 2b c4 bc bd 25 8f 24 bd
       -0.07454216 0.074881345 -0.092171036 -0.040175576
000040 95 31 e3 bb 31 5a 53 bd de 63 ad 35 64 8c 3e b5
       -0.006933401 -0.051599685 1.291857e-06 -7.098481e-07
000050 cd 01 f6 33 5f f3 29 3e c5 bf 82 3a a7 2e 5d 3d
       1.1455595e-07 0.16596745 0.0009975365 0.05399957
000060 da ae 9a 3d ea 00 c5 3c 1d 46 d7 bd d8 36 23 3e
       0.075528815 0.024048287 -0.1051142 0.1593889
000070 4d a5 14 3e f0 12 f2 3d 3c 30 5f be 84 e6 e6 bc
       0.14516182 0.11820018 -0.21795744 -0.02818609
000080 70 29 8e 3d 62 52 38 3e da 37 ff 3d 07 e5 00 3e
       0.06941497 0.18000177 0.12461825 0.12587367
000090 80 dd a8 3c cc 8a 39 3c fb 2f 09 3e ee cc aa 3c
       0.020613432 0.011324596 0.1339721 0.020849671
0000a0 f6 e3 d1 3d f5 10 1d bd ac d3 b6 3d a7 58 9a bd
       0.10248558 -0.03834625 0.08927092 -0.0753644
0000b0 3a 32 2c 3d 59 23 ba bd 25 19 9c bd a1 a3 11 3d
       0.042040087 -0.09088773 -0.076219834 0.03555644
0000c0 34 12 c4 3c f8 1b 68 3b df ee 28 bd 02 d0 46 3c
       0.023934461 0.0035417061 -0.04124343 0.012134554
0000d0 1f 52 94 bc 1c 42 9b bb af ce 15 bb 18 c0 15 bd
       -0.018105565 -0.0047381055 -0.0022858789 -0.036560148
0000e0 c6 14 64 bd 86 58 42 3e a8 87 d1 ba 86 ca 4e 3e
       -0.055683874 0.18979082 -0.0015985863 0.20194444
0000f0 d9 3d 36 3e ff b2 28 bc 66 82 a3 bb fe c2 b9 3d
       0.1779703 -0.010296582 -0.00498991 0.09070395
000100 86 ab 44 3e 0a 76 49 3e e3 86 ac bc de 3c b0 bd
       0.19206056 0.19673935 -0.021060413 -0.086053595
000110 3a b2 92 3d a0 9c 8c 3d 7a ae d5 bd 42 ae 16 be
       0.071629 0.06865811 -0.104336694 -0.14714912
000120 d2 ea b2 bd 51 c7 55 3e 6a 27 b4 3d 90 08 2a be
       -0.08736195 0.20876814 0.0879658 -0.16604829
000130 43 7f 39 3e 7d 00 13 bd 80 ec c7 3d af e1 ad 3c
       0.18114953 -0.035889138 0.09761906 0.021225778
000140 51 fa 07 3e 32 53 d1 bc 6a c9 6f bd f1 e3 4f bd
       0.13279082 -0.025552366 -0.058541693 -0.05075449
000150 20 ca a2 bc c7 36 83 bc 1e b1 cc 36 f8 f0 49 3d
       -0.019871771 -0.01601733 6.100293e-06 0.04930207
000160 47 23 8b bd fa 52 d1 bc 41 bf 0f bd e8 fc e4 b4
       -0.06793838 -0.025552262 -0.035094503 -4.2652323e-07
000170 28 31 85 b6 5d 1b f1 3d fd 0c 06 b8 23 a0 8f 3c
       -3.9694314e-06 0.11772797 -3.1960186e-05 0.017532414
000180 d6 3a 81 3c 19 a0 41 36 6e 89 03 3e 20 d6 31 3e
       0.015775125 2.885243e-06 0.12845394 0.17366838
000190 e7 96 87 bd 3a 51 76 3d d8 ad 6a be 76 f3 ee bb
       -0.06620579 0.060136057 -0.22917879 -0.0072922064
0001a0 bf 14 1b 3d a7 55 ed 3d 2c 23 07 be 4f aa 32 3c
       0.037861582 0.115886025 -0.13197011 0.010904863
0001b0 5a d6 2b be 14 6e f8 3d 07 58 e3 3c e9 f8 96 3d
       -0.16780987 0.12130371 0.027751936 0.073716946
0001c0 5e dc a2 bd b5 7e 27 3c 6e aa 94 3d b6 3d 2a b5
       -0.07952188 0.01022308 0.072590694 -6.3419736e-07
0001d0 f2 63 14 3d e2 83 a1 b4 cd bd ae bd 91 88 8a bd
       0.036228128 -3.0084544e-07 -0.085322954 -0.06764329
0001e0 d3 f6 5e bd d3 05 65 37 6e ed 5d 38 09 a3 06 36
       -0.05443461 1.365082e-05 5.291163e-05 2.0062455e-06
0001f0 d1 fe 49 ba 3c a2 36 b5 3e 57 18 b8 11 f4 87 b6
       -0.0007705512 -6.8036366e-07 -3.6320875e-05 -4.0517266e-06
000200 8a 80 c0 34 87 cf 9e 3c 95 74 09 3d 69 8c 3e bd
       3.585631e-07 0.019386066 0.033558447 -0.046520624
000210 2a 62 10 be 34 98 a9 bd 09 37 1b be 38 01 e8 bd
       -0.14099947 -0.082809836 -0.15157713 -0.113283575
000220 03 ca 28 bd e0 d3 35 3d 90 ae 93 bc 46 24 1d 37
       -0.04120828 0.044391513 -0.018027574 9.366375e-06
000230 48 4b 18 3d cc ae db 3d 36 b5 b7 bd de 1c c9 bb
       0.03718117 0.10726699 -0.0897011 -0.0061374744
000240 9a 31 ce 3c 61 a9 5c 3e e3 76 0b 3d c1 1d fe bd
       0.025170136 0.21548988 0.034048926 -0.12408019
000250 dc 28 49 be 97 3e d7 bd 8c 7d 19 bc b3 14 ac ba
       -0.19644493 -0.10509985 -0.009368312 -0.0013128727
000260 51 b1 47 bd 10 21 ed b7 15 a5 59 3d d2 fc 87 bc
       -0.048753086 -2.8267998e-05 0.05313595 -0.016600046
000270 36 e8 09 3a 49 99 84 36 bb 27 1b bd d8 79 0d 3d
       0.00052607374 3.9517513e-06 -0.037879687 0.034540027
000280 ae 8b ba bc c9 c6 03 bd bd b3 95 bd c9 f7 bf bb
       -0.022771683 -0.032172 -0.07309673 -0.0058583957
000290 b4 60 23 3d 12 2d a3 bd ab 76 14 3d b3 62 7e bc
       0.039887145 -0.07967581 0.036245983 -0.015526461
0002a0 f9 42 f3 ba 72 53 3d 35 2a 86 7e bb 70 86 27 be
       -0.0018559388 7.0529416e-07 -0.0038837292 -0.16359878
0002b0 98 53 a8 3c 77 1f 58 be 30 8c 5a be 07 e7 3a bd
       0.020547673 -0.21105753 -0.2134254 -0.04563048
0002c0 ed 52 a3 bd e2 0b 0a 3e 32 d5 a6 3d 91 a9 f4 3c
       -0.07974801 0.13481095 0.081461325 0.029866012
0002d0 4e eb f6 bc ad 72 63 be b6 5a 0e be 1d cd 8a b9
       -0.030141499 -0.22211714 -0.13901791 -0.00026474232
0002e0 60 7f 67 bd 26 4e 05 3e 6e de 03 3c d5 80 52 34
       -0.05651796 0.13018093 0.008048637 1.9604643e-07
0002f0 eb d4 0c 3e 5a 12 b3 bd 2e b1 9b 3c a3 6c 23 bd
       0.13753097 -0.08743735 0.019005384 -0.039898526
000300 c2 71 c4 bd 25 0b e8 3a af cb 71 3d 49 47 1b bd
       -0.0959201 0.0017703517 0.05903214 -0.03790978
000310 08 65 70 bd 13 70 f8 35 8b 85 a8 3d f5 6c 9d 3d
       -0.0586901 1.8510058e-06 0.08228596 0.076867975
000320 f1 70 93 3c 0e 18 6f 3e a3 0f 69 bc 51 47 2a be
       0.01799819 0.2334902 -0.0142249195 -0.16628768
000330 f5 ee 2f 3e a5 2c 0c b9 47 9f 38 bd fd 93 38 be
       0.17180999 -0.00013368072 -0.045073774 -0.18025203
000340 4c 1b 03 be 4a f7 70 be 84 84 38 be d3 c4 da 3d
       -0.12803382 -0.23531833 -0.180193 0.106820725
000350 e1 70 6e bd 00 05 16 be 03 d0 14 be 42 31 28 be
       -0.05821312 -0.14650345 -0.14532475 -0.1642504
000360 a4 03 28 3e 92 b7 30 be e3 21 e7 bd 7a b7 15 be
       0.16407639 -0.17257527 -0.1128576 -0.14620772
000370 26 66 ed 3d 97 55 47 3b 29 c0 15 3e 12 59 06 3d
       0.11591749 0.0030416006 0.14624085 0.032799788
000380 3b bd 81 bd bf ad c8 3c 9d 04 8d bd 56 3a 9c 3d
       -0.06334921 0.024496911 -0.068856455 0.07628314
000390 67 1e dc bb 84 47 4b b8 e6 72 35 3d 3f b1 20 bc
       -0.0067174914 -4.8465576e-05 0.04429903 -0.009807884
0003a0 28 84 db bb 9f be fe bb b3 38 65 3d 22 bb 60 bd
       -0.006699104 -0.0077741886 0.055962276 -0.054865964
0003b0 c6 30 11 bd fe b0 38 3e 0d e8 6f bc 1c 3c 01 bd
       -0.035446905 0.18036267 -0.014642728 -0.031551465
0003c0 8d 44 4f 3d 83 0c e1 b4 bf 87 3b bc 75 88 e0 3d
       0.050602484 -4.191862e-07 -0.011445939 0.10963527
0003d0 48 13 7b 3d 8f 9c db 3c 1d 1b ab 3d e6 b2 c8 b8
       0.061297685 0.026808051 0.08354781 -9.5700656e-05
0003e0 68 f4 38 3d d5 6b 7f be e4 d0 55 3e 2c 1f f3 bd
       0.04515496 -0.24943478 0.20880467 -0.1187118
0003f0 3a 82 40 3d 87 b6 32 3d 8a 9a 20 be bd 47 14 3e
       0.046999194 0.043631103 -0.15683952 0.14480491

gat_layers.1.att_src f4 [1, 4, 16]
000000 05 1e b6 bd d2 28 c4 3e 62 ed 3a 3c 2c 09 99 be
       -0.088924445 0.38312393 0.011409136 -0.2988981
000010 06 fa e5 3e 4e 21 51 bd 47 8c 8b 3d 3c 28 07 bf
       0.44917315 -0.051057152 0.06813865 -0.5279577
000020 9d 4e b2 be 3b 5b 86 3d 7e 69 ed 3c 2c 3f b9 3e
       -0.34825602 0.065603696 0.028980967 0.3618101
000030 ff f0 01 bf 74 cc 5c be 81 5c 75 be fd 00 98 3c
       -0.50758356 -0.21562368 -0.23961069 0.018555159
000040 91 90 c8 be ee 72 e6 bb dd 5f 0a 3d 6b 70 9c be
       -0.39172795 -0.0070327437 0.03378283 -0.30554518
000050 ee 4e 89 3e 46 fc ae 3e 70 f2 a1 be 5d e7 49 3e
       0.2681803 0.34176844 -0.31630278 0.19717164
000060 33 61 10 be 5a 9c 87 be b6 a1 73 be 6e 8f d8 3e
       -0.14099579 -0.26486474 -0.23792157 0.42296928
000070 c0 a6 ae 3e 0f 54 a2 bd d9 ea c1 be 73 51 19 3e
       0.34111595 -0.07926189 -0.37874487 0.14972477
000080 04 8f 96 be 28 3d e7 be 89 9c b6 be 23 e2 cb 3d
       -0.29405987 -0.45163846 -0.35666302 0.099552415
000090 6e ab e9 be 4d 8d 75 3c 6d b6 6a 3d f3 fd 05 bf
       -0.45638603 0.014987302 0.05730288 -0.5234062
0000a0 18 7b ba be 68 83 39 be de 9a 90 3e 38 be e1 3e
       -0.36422038 -0.18116534 0.28243154 0.44090438
0000b0 51 83 c0 3e c3 93 49 be 32 7f e3 be b1 9b b9 be
       0.37600186 -0.19685273 -0.4443298 -0.36251596
0000c0 9a ab 3c 3d ed d6 4f be 9c f2 a2 3e ca 93 4b be
       0.04606209 -0.20296831 0.3182572 -0.19880596
0000d0 15 b9 74 be 1e 1c a5 bd 69 10 ad bd e0 89 4b be
       -0.23898728 -0.080620036 -0.084503956 -0.19876814
0000e0 8f 0c c3 bd 8d 80 56 be c2 49 d5 3d 83 bd af be
       -0.0952388 -0.20947476 0.10414459 -0.34324273
0000f0 66 09 f9 be 2b a3 89 be e9 08 fc 3e 4d 13 45 bd
       -0.48639983 -0.268823 0.49225548 -0.04811411

gat_layers.1.att_dst f4 [1, 4, 16]
000000 da 32 c5 be a2 20 b9 3e a1 95 f1 be 32 b4 af 3e
       -0.3851536 0.3615771 -0.4718447 0.34317166
000010 3b fc fc be 7b 36 b4 be f9 6c de 3e 36 e6 be 3d
       -0.49411187 -0.35197815 0.43442515 0.09321253
000020 c3 7c 0b bd de 28 2c be fa a8 6d bd 1e c1 72 be
       -0.03405453 -0.16812465 -0.058022477 -0.23706481
000030 13 bd e0 3d aa 83 89 3e a4 df c6 be ed 06 58 bc
       0.10973563 0.26858264 -0.388425 -0.013185245
000040 85 b4 4d 3e 1b 26 e8 be f6 c8 bc bd c6 c6 9a be
       0.20088394 -0.45341572 -0.09218018 -0.30229777
000050 c0 ca 25 be 0d 43 bb be 2b 13 0b 3f ae 66 c0 be
       -0.16190624 -0.36574593 0.54326123 -0.37578338
000060 74 83 ae 3e 7b 0b a9 3e 1f 34 dd 3e 2d ef aa 3e
       0.34084666 0.3301657 0.43203828 0.33385602
000070 79 eb a0 bd 5d e1 9d 3e 48 da b4 3e 68 14 f6 be
       -0.07857413 0.30836 0.35322785 -0.48062444
000080 ee f3 48 3e ab 47 b4 be ec e2 c2 be fd c8 dc 3e
       0.19624302 -0.35210928 -0.38063753 0.43122092
000090 47 b3 ec 3e ef 79 29 3e 4c 19 8b be 13 01 dc bd
       0.46230528 0.1655042 -0.27167737 -0.107423924
0000a0 9d f4 f6 3e c7 6a 08 3f 27 b1 90 be 00 93 49 be
       0.482335 0.5328793 -0.28260157 -0.19684982
0000b0 f3 17 a9 bd b8 4d ac 3e 82 57 2e 3e 4a 38 05 3f
       -0.08256521 0.33653045 0.17025569 0.52039015
0000c0 c8 bc 99 be 7b 26 95 3e a1 76 b4 bd bb 3d 16 be
       -0.3002684 0.2913092 -0.08811689 -0.14671986
0000d0 29 18 f7 3d a5 2a df be 46 79 8e 3d 33 98 99 bd
       0.12065155 -0.43587223 0.06956725 -0.07499733
0000e0 1d 4f 52 3e 20 6c 21 3e 28 37 c9 3c 03 f0 27 3d
       0.20537992 0.15763903 0.024562433 0.041000377
0000f0 6e cd d5 bc a5 8c f1 3e f3 60 67 3e cd ee d8 be
       -0.026098933 0.47177616 0.22595577 -0.4236969

gat_layers.1.bias f4 [64]
000000 36 0d c6 3b dd 52 ca bb 73 af 3e 3b ce 64 3f 3b
       0.0060440553 -0.006174429 0.0029096275 0.0029204371
000010 5f 84 94 bc d8 c8 cb bb 91 29 bf 3a ca 40 55 bc
       -0.018129526 -0.006219011 0.0014584531 -0.013015935
000020 55 ef 53 bc a9 93 4d 3b 49 69 89 bc 85 10 d7 3b
       -0.012935479 0.003136853 -0.016773837 0.0065632486
000030 69 da 01 bd 7d d6 8d bc 3c 59 11 3c c6 6e af bb
       -0.031702433 -0.01731419 0.008871373 -0.0053537814
000040 aa fd b2 bc ed 6a 26 bc 3c 87 16 3c 5c b4 84 bc
       -0.021849472 -0.010157329 0.009187516 -0.016199283
000050 b2 93 be bc de 78 ef bb 6b d9 85 bc 23 73 a9 bc
       -0.023263786 -0.0073081097 -0.016339025 -0.020684784
000060 35 84 42 bc 12 40 76 bc f4 fc 9b 3a 65 66 9b 3c
       -0.011872341 -0.015029924 0.0011900947 0.018969724
000070 35 36 af ba d6 b2 21 bc 60 5c 33 bb 6c 8a 6d 3c
       -0.0013367595 -0.009869298 -0.0027368292 0.014498334
000080 c4 ec b2 bc ee a9 a2 bc fe cf 91 bb 4c f1 9b bc
       -0.021841414 -0.01985642 -0.0044498434 -0.019035958
000090 fb 35 6b 39 67 bf a7 3c 61 87 07 bc 2a 16 eb bb
       0.00022431456 0.02047701 -0.008272023 -0.007174273
0000a0 39 86 ef 3a 9e 3e 8c 3c f1 0e b5 bb b3 9b 93 bc
       0.0018274254 0.017119702 -0.005525463 -0.01801858
0000b0 25 89 5c bc 08 04 dd bb 52 1b 97 bc df 05 b8 bb
       -0.013460432 -0.0067448653 -0.018445645 -0.0056159343
0000c0 c1 7d 9d 3c b9 1b 59 bc cf ab 8f bc 88 12 29 bc
       0.019225003 -0.0132512385 -0.01753798 -0.01031936
0000d0 61 4d e0 3b bb c1 b4 bc ed eb 15 bb 46 9c 88 3a
       0.006845162 -0.022065034 -0.0022876218 0.001042255
0000e0 70 83 9a 3a 82 66 a0 bc 56 eb b9 bc ec b9 f8 bc
       0.0011788439 -0.01958013 -0.022695225 -0.030362092
0000f0 3b 23 d5 bb 59 02 46 3c d9 01 d3 3b 64 40 c8 b9
       -0.006504444 0.012085521 0.0064394292 -0.00038194947

gat_layers.1.lin.weight f4 [64, 64]
000000 19 85 06 3e d6 cb 29 be 0c 83 16 3e 2c a6 2d 3d
       0.1313671 -0.16581663 0.14698428 0.042394802
000010 c2 5c 0a 3e a1 ac 23 3e 6a 71 41 be 58 9b e3 b4
       0.13511947 0.15983821 -0.1889092 -4.2395072e-07
000020 cb 04 f0 3d 31 3e 86 3d 1e ac be 3c 22 35 5a 34
       0.11719664 0.06554831 0.023275431 2.0322162e-07
000030 01 8d 5b bd 0e 60 54 be be 7b 04 bd 9c e0 8d bc
       -0.05360127 -0.20739767 -0.032344572 -0.017319016
000040 ae 55 5c 37 c2 12 a5 bd 80 4d 3a be c0 b3 eb 3b
       1.3132971e-05 -0.080602184 -0.18193626 0.0071930587
000050 57 80 40 3c f8 d2 ab bd 56 30 04 3c d0 b1 21 3d
       0.011749349 -0.083898485 0.008068165 0.039476216
000060 5e 4e ff bd 6f 26 c0 bd 8f 4c 3a 3e 94 53 0e be
       -0.12466119 -0.093823306 0.18193267 -0.1389907
000070 d9 5f 88 3c 22 b8 74 3d b5 a1 47 3e ea d1 4a 3e
       0.016647266 0.059745915 0.1949528 0.19806638
000080 ac 08 ea bd f4 48 a9 bd 2d 22 43 be 5e 34 94 3d
       -0.11427435 -0.08265868 -0.19056006 0.07236551
000090 d8 ea bb bd 5c b6 24 3c e2 6b 95 bc a3 9c 20 3d
       -0.09175652 0.0100532435 -0.01823992 0.03921188
0000a0 b4 48 dd 3d 06 f8 95 bd f2 36 0d 3d 6f d3 b2 bd
       0.10804883 -0.07322697 0.034476228 -0.08731734
0000b0 be 04 76 bd d3 2b cf 3c 09 31 c8 3d 12 16 23 be
       -0.060063116 0.025289452 0.09774978 -0.15926388
0000c0 83 9c 32 3e ac 74 87 3d 87 f3 89 35 4f 5d 37 be
       0.17442517 0.0661405 1.0278171e-06 -0.17906688
0000d0 b0 fc a2 bd 9a d8 c4 3d d8 bd 35 3e cd ef 3f 3b
       -0.079583526 0.09611626 0.17748201 0.002928722
0000e0 55 8e 76 3c 18 36 94 bd ec 61 58 be 8c 7a bc bc
       0.015048583 -0.0723688 -0.21131104 -0.023007654
0000f0 20 0e 44 be a4 59 bd bc a1 83 4b 3e d4 81 67 3c
       -0.19146013 -0.023114033 0.19874431 0.0141300745
000100 85 f4 d7 3d 9a 74 b4 bd 9f 55 32 bd 40 b4 13 bb
       0.10544685 -0.088113025 -0.043538686 -0.0022537857
000110 1e 9b 44 bd f9 7f 37 3e d5 d3 5b be 5e 95 f9 b3
       -0.047999494 0.17919911 -0.21467526 -1.1622136e-07
000120 49 3a 24 be 8c ec 19 3e d9 3a 55 3e 81 ae 64 3d
       -0.16037859 0.15031642 0.2082323 0.055830482
000130 85 ce 62 b8 90 25 f0 bd 2c 00 e5 39 5d 61 c2 3d
       -5.4074935e-05 -0.117259145 0.00043678412 0.09491227
000140 dd 45 87 3a f4 42 dd b9 35 7e 26 be 1b 54 26 3a
       0.0010320503 -0.0004220229 -0.16259082 0.000634493
000150 34 41 28 3d 70 5c a2 bd 9f 04 f7 3b 94 f0 bc 3a
       0.041077808 -0.07927787 0.0075383927 0.001441496
000160 ad e2 cf 3c 22 7d 52 3c e6 c1 f7 3b 46 31 26 3e
       0.025376642 0.012847217 0.0075609563 0.16229734
000170 5b 0e 20 be 55 9c 98 3c 60 e9 20 be 51 58 2b 3e
       -0.15630476 0.018629232 -0.15714025 0.16732909
000180 19 e0 a0 3d c1 dd dc 3c 76 36 6b bd b5 57 ef 3d
       0.07855243 0.02696121 -0.057424985 0.11686651
000190 b0 a4 3d be 35 80 ef 3d 3b 9e 5a 3d 6f 90 8b bb
       -0.18519855 0.116943754 0.053373557 -0.004259161
0001a0 e3 3f 3f 3e 60 9c 4c bd 59 2c 65 bc e2 0c 41 bd
       0.18676715 -0.04995382 -0.013987624 -0.047131427
0001b0 d0 0d 4d be f5 43 af bd d3 f3 2a 3e bf 32 f0 bd
       -0.200248 -0.08557884 0.16694574 -0.11728429
0001c0 d7 7c 5f 3c 67 87 df bc 27 ef 55 bd 87 61 de 3d
       0.013640604 -0.027286245 -0.052230027 0.108584456
0001d0 12 56 d7 bd 1d 3f 4f 3e 61 08 08 3e de c5 95 bd
       -0.105144635 0.2023892 0.13284446 -0.07313131
0001e0 47 89 e3 bd 02 da c3 bc 22 6b ad bd 29 8d 16 3c
       -0.11110168 -0.023907665 -0.084676996 0.009188929
0001f0 d3 f6 23 3e c3 51 26 3e 6a 12 e3 3d bb b8 9e 35
       0.16012125 0.16242127 0.110874966 1.1825681e-06
000200 e6 3f 84 bd d2 6b a5 bd dc 40 59 bc 3e 22 fa bc
       -0.064575 -0.08077206 -0.013260093 -0.030533906
000210 61 67 ad bd b8 a1 4c 3e b4 46 53 3e 1d ea 59 3d
       -0.084669836 0.19983566 0.2063244 0.053201783
000220 e7 b8 70 3d 03 40 01 be 60 de a2 3b d0 33 46 b8
       0.058770087 -0.12622075 0.004970357 -4.7255133e-05
000230 61 dc 0a 36 e8 ed 9e bd 37 79 ad bd 8f b6 87 3d
       2.069188e-06 -0.07760221 -0.084703855 0.06626617
000240 a7 66 90 34 e7 34 87 3c e7 f1 ac bd 0e 5c 56 bd
       2.689678e-07 0.016504718 -0.08444577 -0.052333884
000250 7b 93 3e be 36 2a 6f 3d 31 fc 1f b9 ff 17 05 3d
       -0.18610947 0.058389865 -0.0001525737 0.032493588
000260 cd e8 75 3d 47 3b 7d 3c e9 b7 d3 3c 4b e9 53 3c
       0.06003647 0.015456027 0.025844531 0.012934039
000270 51 6e 4b bd 60 40 18 b9 60 3e 1d be 2b ea 20 be
       -0.049665753 -0.00014519831 -0.15355825 -0.15714328
000280 bb aa 48 3e af 3e 30 bd a2 fc ab bc f1 d0 93 3d
       0.19596379 -0.04302853 -0.020994488 0.07217587
000290 c6 1d cf bd 10 8d 05 bd 49 dc af 3d 45 84 d3 bd
       -0.10113101 -0.03260523 0.08586938 -0.10327963
0002a0 ab 14 26 3e a4 16 b6 b4 fe 83 e5 3d e6 e6 3c be
       0.16218822 -3.3916615e-07 0.11206816 -0.18447456
0002b0 7a c1 ad bd 06 ef 95 3d 9b 9a 43 3e 5e 9d 5c 3d
       -0.08484168 0.07320981 0.19101946 0.053861015
0002c0 7d 9b 01 bc bc 59 87 bd cc be 6e 35 13 83 14 bd
       -0.007910606 -0.06608912 8.8939555e-07 -0.036257815
0002d0 37 1d 2b 3c f1 0e ae bd 27 6d 17 3e 6f ff 70 3d
       0.010443977 -0.084989436 0.14787732 0.05883735
0002e0 b3 75 fc 3b 80 b1 d7 bc 7a 5b dc 3d 43 ee 45 3c
       0.0077044605 -0.026329756 0.10759635 0.012080732
0002f0 38 fd 16 be 18 b5 3f be f3 b1 80 bb c2 9a a0 bd
       -0.14745033 -0.18721426 -0.003927463 -0.07842018
000300 e6 6d d0 3d 1a fd 50 bc da 5d 3a be 8c 1e 99 3d
       0.101772115 -0.012755657 -0.18199864 0.074765295
000310 03 f7 0b 3b ce 56 6d bc a7 21 53 bd 58 0d 75 3d
       0.0021356947 -0.014486028 -0.051545765 0.05982718
000320 d6 c1 cc bc c3 e7 2e be c8 a7 44 be 9e c1 3d bd
       -0.024994772 -0.17080598 -0.19204628 -0.046327226
000330 2a 0c 9d 3d 6b 02 3d 3e 9b 46 0f 3d 36 5b 9a 3d
       0.07668336 0.18457954 0.034979444 0.07536928
000340 11 7e 0a 3a ac c2 0e b9 5c ba c7 bd 98 d0 96 bd
       0.00052830676 -0.00013614696 -0.09752342 -0.07364005
000350 1b 25 9f bd 06 a0 a1 bd 73 83 32 3d 79 75 a3 bd
       -0.07770749 -0.0789185 0.04358239 -0.079813905
000360 d3 29 81 3c 24 3e 77 3d cf 8d 84 bd 35 80 3c 3e
       0.015767014 0.060361996 -0.0647236 0.18408282
000370 81 0f 65 bd 08 cb 26 b6 9c 11 07 3e 23 bb 00 be
       -0.05592299 -2.4854107e-06 0.13190311 -0.12571387
000380 c0 c7 2a be 95 a4 02 be 43 e6 f5 3d 79 e4 09 3e
       -0.16677761 -0.12758096 0.120068096 0.13466062
000390 30 d1 d1 3d 3d 22 9f bd ce 79 3d 3d c4 05 08 3e
       0.102449775 -0.07770202 0.04625874 0.1328345
0003a0 92 03 57 be ca 17 44 b8 b5 c7 08 be 16 91 05 3c
       -0.20997456 -4.6752197e-05 -0.13357432 0.008152267
0003b0 09 76 f9 3d 28 65 0c 3c 6c 06 1c bd d3 06 d5 bd
       0.121807165 0.008569039 -0.038092062 -0.10401692
0003c0 cb a9 8d 3d a5 e7 ea bd 36 dc 3b bc 67 42 25 bd
       0.06917151 -0.11469964 -0.011466077 -0.04034653
0003d0 37 4d ca 3d c6 ef 17 3e 5b 8f 07 3d 39 63 74 3d
       0.09878009 0.1483756 0.0330957 0.05966494
0003e0 90 18 a7 bd c1 4c e4 39 cb c2 4e be dd b7 68 3b
       -0.08158982 0.00043544735 -0.20191495 0.0035509982
0003f0 15 c5 c0 3d 68 1c 06 3e 52 b2 b8 bd e0 f6 06 32
       0.094125904 0.13096774 -0.09018387 7.855959e-09

shared_embedding.0.weight f4 [64, 128]
000000 50 b4 83 bd d6 a2 d5 bd 1e 09 ab bc 38 7e d0 bc
       -0.06430876 -0.10431449 -0.02087837 -0.02545081
000010 0f 63 b5 bd 0b 9b 27 3d 14 5b fa bd 4d 3c 03 be
       -0.088567846 0.040919345 -0.12224403 -0.12815972
000020 9a 06 ff 3d 59 fc 48 bd 84 01 e5 3c 44 7d 55 3d
       0.12452431 -0.049068782 0.027954824 0.052121416
000030 fc 84 20 bc 00 81 bf 3d 0a 25 46 3d 08 16 b8 3d
       -0.009797331 0.09350777 0.048375167 0.08988577
000040 33 4a c3 3d eb a8 96 3d 50 39 ac 3d 6a 2e 65 bb
       0.09535637 0.07356437 0.08409369 -0.0034970292
000050 3d 30 1e 3e 8c 60 38 3d e2 c3 64 bd 41 65 39 be
       0.15448089 0.04501395 -0.05585087 -0.18105032
000060 0e 80 7f bc 47 1b f3 3c 07 e7 c5 3c b3 b1 38 be
       -0.015594495 0.029676093 0.024158014 -0.18036537
000070 eb ea ca bd 68 a5 24 3e 97 db 9b 3d 1d 86 0a 3e
       -0.09908088 0.16078722 0.07610243 0.13527723
000080 88 9b c5 3c 7a bf 83 bd 6f c0 10 bd b1 b4 f9 bd
       0.024122015 -0.06433006 -0.03533977 -0.12192667
000090 86 9c fc 3d f2 d8 d2 3c f4 89 8e 3d dd 33 02 be
       0.12334542 0.025738213 0.06959906 -0.12715097
0000a0 37 5d 35 bd 16 d7 4e 3d 0b 0c 5b 3d f5 d2 bf 3d
       -0.04427835 0.05049809 0.053478282 0.09366409
0000b0 ba 8b ba bc e3 91 d7 bd 35 0e cc 3d d3 6d 4c bb
       -0.022771705 -0.105258726 0.09963647 -0.003119339
0000c0 0f b5 0b be 6c 2a 06 3d 60 6b 17 be 55 b7 df bc
       -0.13643287 0.0327553 -0.14787054 -0.0273091
0000d0 68 57 0b 3d 8a 23 8e bd f8 0e 15 be 09 b2 a4 3b
       0.034018904 -0.06940372 -0.14556491 0.0050261063
0000e0 0a cd b9 3a ca 22 6a 3d 55 3f e1 3c 9a 33 cc 3d
       0.0014175486 0.057162084 0.02749602 0.0997078
0000f0 da ab 8b bd 3f 7b 21 3c 59 41 16 3e a9 58 0b be
       -0.068198875 0.009856044 0.14673366 -0.1360804
000100 fa 53 c4 bd f5 90 13 3c 42 0c 06 be 3c 33 90 bd
       -0.0958633 0.009006728 -0.13090613 -0.07041022
000110 5c 4c c3 bd 4d e1 90 3d dd cd 6c bc 5d 99 8e bc
       -0.09536049 0.07074223 -0.0144533785 -0.017407114
000120 2e d9 b8 3c 8f 1e fb bc c6 4b 5e bd 11 3e ed bd
       0.022564497 -0.03065422 -0.054271482 -0.11584104
000130 0c e5 d0 3d a7 2a fb 3d 71 3d 88 bd 75 be 90 3d
       0.10199937 0.12263995 -0.06652344 0.07067577
000140 41 df 0f 3e 23 28 19 3d b6 87 94 bc 8a 40 e1 3c
       0.14050008 0.037391793 -0.018131118 0.027496595
000150 20 c5 f9 3d 1e 40 c2 bd 11 92 09 3d d2 78 c7 3d
       0.12195802 -0.09484886 0.033586565 0.097398415
000160 47 e4 03 3e 02 b9 07 be 6f bd 37 3d 32 fa ed bc
       0.1288005 -0.13254169 0.044858392 -0.029049966
000170 d8 02 07 be 6f 07 a6 bd 8f 9f e2 bd 6d 13 e6 3b
       -0.13184679 -0.081068866 -0.1106559 0.0070213587
000180 10 92 af 3d ad a6 ac 3c ef e0 3d 3d 3f ee 7d 3c
       0.08572781 0.021075571 0.04635709 0.015498697
000190 5f 0a 18 be 7e f6 91 3c 7e 46 bb bd d3 d5 d5 3b
       -0.14847706 0.017817732 -0.09144305 0.006525734
0001a0 70 ee 61 bc df 43 e2 3d 76 c7 e5 bd 77 0d 61 bc
       -0.013789758 0.11048102 -0.11219685 -0.01373612
0001b0 d7 49 1e be c4 16 1f 3e b5 ae ce bd f0 cb 85 38
       -0.15457855 0.15536028 -0.100919165 6.3799205e-05
0001c0 2c 94 ab bd 3c fb 97 3d 49 aa 0e be d4 ea ea 3c
       -0.08377871 0.07420966 -0.13932146 0.028676428
0001d0 9b b2 05 be d7 4a bc 3d 1d 75 b2 3d a8 a7 2c be
       -0.13056414 0.09193962 0.08713744 -0.16860831
0001e0 27 f0 b4 3a b2 ed bd bd 01 8a 89 bd 5b 37 6e 3d
       0.0013804481 -0.092738524 -0.06715775 0.05815826
0001f0 c8 9c c6 bd b2 be 03 3e 65 c4 25 3d 43 65 ec 3c
       -0.096978724 0.12865713 0.0404705 0.02885688
000200 60 a7 17 b5 83 e8 31 bd 84 c9 d4 bb 94 c4 ac 35
       -5.6495446e-07 -0.04343463 -0.006493749 1.287221e-06
000210 b1 3d 88 b5 df d1 2d b6 0a 57 22 b4 e9 4a b6 35
       -1.0150744e-06 -2.590117e-06 -1.511909e-07 1.3581858e-06
000220 19 09 b0 bc 32 e2 c3 3c a8 47 32 ba 4e 1c 7e 35
       -0.021488713 0.02391157 -0.0006800839 9.466356e-07
000230 64 37 f9 36 63 e7 7a bb b7 26 3d b8 89 6d 22 b8
       7.4272266e-06 -0.003828489 -4.5097167e-05 -3.8725822e-05
000240 33 7b 11 3d 4a bd ca 3c 8b 8b cd bc ee d0 a9 b9
       0.035517883 0.024748463 -0.025090953 -0.00032389857
000250 ab 05 fd b8 42 82 21 35 1a c9 38 ba 7b fe 0c bd
       -0.00012065036 6.0166724e-07 -0.00070490094 -0.03442238
000260 70 a5 ad 33 08 49 ab 38 6c 76 07 37 f0 1a 3b 3a
       8.086033e-08 8.1675185e-05 8.074199e-06 0.0007137498
000270 4c c6 47 3d 7b 0f d5 38 c6 e8 1c bd 7e 1c 4d bd
       0.048773095 0.00010159515 -0.038307928 -0.050076
000280 11 22 1b 38 9c 32 29 35 33 d7 3a bb 17 64 33 b5
       3.6986607e-05 6.303105e-07 -0.0028509616 -6.6828346e-07
000290 7e a4 1b b5 d0 9b e2 bc c4 27 1a 35 34 70 22 b3
       -5.798137e-07 -0.027662188 5.742734e-07 -3.7820612e-08
0002a0 59 af 14 b7 5e 85 9d 3b 29 7e c6 bb 4e b5 46 3d
       -8.862314e-06 0.0048071584 -0.00605752 0.04851275
0002b0 e0 f5 d4 34 f0 70 38 3d ad ab 94 b7 55 fc 02 bd
       3.9666975e-07 0.04502958 -1.7722918e-05 -0.031978924
0002c0 27 97 15 3a 96 cf 84 36 b9 1a 3b 3b 71 0d 31 3c
       0.00057064224 3.9580727e-06 0.0028549863 0.010806427
0002d0 46 23 3b 37 be 70 4b b6 b7 c1 0d b6 73 21 08 3c
       1.1154281e-05 -3.0314982e-06 -2.1123394e-06 0.008308756
0002e0 9f 23 0f 3b ba 4c a5 b4 a9 a4 01 b3 67 63 88 3c
       0.00218413 -3.078947e-07 -3.018491e-08 0.016648961
0002f0 c4 1a 03 bd ed 9a d2 bc 57 de bc 39 73 b8 49 38
       -0.032007948 -0.02570864 0.0003602381 4.8093916e-05
000300 7e d0 62 b8 20 53 ae 30 ed 3a ab 35 8d 8a c0 b8
       -5.4076772e-05 1.2683792e-09 1.2757642e-06 -9.1810805e-05
000310 13 da bf 3b 50 1c fd ba d7 2c be 3a a9 22 7b bc
       0.005854854 -0.0019310806 0.0014509213 -0.015328088
000320 9b 2f f2 39 ca fd 48 bc 3c 2c 6e 36 95 93 2a 37
       0.00046193306 -0.012267539 3.5490511e-06 1.0167151e-05
000330 9f 5a 0b 3d 67 29 a9 bc 3b 42 43 3d 81 53 32 bb
       0.03402197 -0.020649625 0.047670584 -0.0027210417
000340 4e fc 31 b7 de b9 34 35 a4 1f 0a b6 9c 85 11 bb
       -1.0608766e-05 6.73257e-07 -2.058202e-06 -0.0022204882
000350 dd b4 f3 b5 40 30 95 bc cf 9f bb 3c d0 c7 bd 37
       -1.8157549e-06 -0.018211484 0.022903351 2.26236e-05
000360 a8 78 f8 b5 0d d3 2c bd e3 54 4e 34 2f f1 56 35
       -1.8512555e-06 -0.04219346 1.9216127e-07 8.007218e-07
000370 75 73 76 bc 5c 64 9b bc ab dd 33 b8 9b a1 31 bc
       -0.015042176 -0.018968754 -4.288337e-05 -0.010841752
000380 d0 5d d8 ba 08 e1 92 bc 31 b1 36 35 86 0e b5 34
       -0.001650745 -0.017929569 6.805813e-07 3.3724444e-07
000390 0d 16 b0 bc 12 b7 24 bd bd d2 8c bc ad 8f 2e 38
       -0.02149489 -0.040213652 -0.017190332 4.161864e-05
0003a0 03 57 cc bc 9f e2 bc bc 98 96 48 3c 2a 24 22 bc
       -0.024943834 -0.02305728 0.012242936 -0.0098963175
0003b0 0e 0f ee 3c e2 a7 38 bd a8 eb 8d 34 63 dd 4d b7
       0.029059913 -0.04508198 2.643476e-07 -1.2270498e-05
0003c0 6f 6f 97 3b 37 90 c1 3c a5 4d 44 38 d6 f8 2d b5
       0.004621438 0.023628337 4.6802354e-05 -6.4809626e-07
0003d0 d3 cc 93 3b a6 bf d1 bb 8c d5 d5 3b 12 fe d1 34
       0.004510501 -0.00640102 0.006525701 3.9114144e-07
0003e0 5a 0d 3e bc 78 9d 3a bd 15 a4 01 36 d4 9a b9 35
       -0.011599863 -0.04556033 1.9318006e-06 1.3828635e-06
0003f0 77 fa f3 b4 e6 f3 34 bd c9 d9 00 ba 8c 02 db 3c
       -4.5444514e-07 -0.044177912 -0.0004915265 0.026734613

shared_embedding.0.bias f4 [64]
000000 10 36 49 bc 00 00 00 00 00 00 00 00 9d 10 37 3c
       -0.012280956 0.0 0.0 0.0111733945
000010 58 90 a4 bb 82 69 73 bc ed 42 7c bb ae 2f 92 bc
       -0.00502209 -0.014856698 -0.003849204 -0.017845001
000020 1c 12 78 bc 00 00 00 00 b8 0b 64 bc 95 95 21 bc
       -0.015141036 0.0 -0.01391881 -0.009862323
000030 71 f4 c1 3c 3c 55 e3 bb b6 ac 12 39 34 f2 08 bc
       0.023676129 -0.006937651 0.00013987985 -0.008358527
000040 1f bb ec bb cf c1 7a ba 62 ea 4a 3c 00 00 00 00
       -0.007224455 -0.0009565623 0.012384983 0.0
000050 00 00 00 00 53 b6 88 bc 00 00 00 00 5f 74 a7 bc
       0.0 -0.016688501 0.0 -0.020441232
000060 47 2d 7c bc 3a f7 65 bc 00 00 00 00 6b bf 4c 3c
       -0.015391654 -0.014035994 0.0 0.0124968095
000070 d0 9c e4 bb d1 a5 d2 bb b3 4b 43 bc 02 9f 8f bb
       -0.0069767013 -0.0064284583 -0.011919904 -0.004382969
000080 fb 45 95 3b 3b fc 24 bc 88 cb 69 ba a7 04 0b bc
       0.0045554615 -0.010069902 -0.0008918573 -0.008484996
000090 de bd 8a bc 00 00 00 00 bf 1c fb bb 05 d7 49 bb
       -0.016936239 0.0 -0.007663339 -0.0030798328
0000a0 8c a5 df 3b 00 00 00 00 03 bc 0b bc 00 00 00 00
       0.0068251546 0.0 -0.008528712 0.0
0000b0 f7 09 92 bc e7 b9 9e 3a 7e ea 9e bc 88 4e a3 3b
       -0.017827017 0.0012109847 -0.019398924 0.004983727
0000c0 25 3a 8b bc e1 da 3b bb ec 34 1f bc 07 ce 43 bc
       -0.016995499 -0.0028664398 -0.009717207 -0.011950976
0000d0 5c d6 4f bc 27 d0 1b bc 14 39 0d bc 59 55 ad 3b
       -0.012685385 -0.009510077 -0.0086195655 0.0052897152
0000e0 43 01 32 3c f7 f8 7e bc e9 b3 85 ba 51 2f 01 bc
       0.010864559 -0.0155622875 -0.0010200712 -0.007884816
0000f0 73 cf 00 bc 50 83 84 bc 10 3f ed bb e2 90 7a bc
       -0.00786196 -0.016175896 -0.0072401837 -0.015293332

task_heads.target1.0.weight f4 [32, 64]
000000 a8 0a 06 3e 69 7a dc bc 78 c1 b7 3c c5 cd 21 bc
       0.13090003 -0.026913838 0.02243112 -0.009875719
000010 58 e9 58 b4 91 e4 11 3e 58 9a 69 be 0b 3a 04 be
       -2.0201458e-07 0.14247347 -0.22812784 -0.12912767
000020 21 d5 01 3e 27 84 bd 3d 64 e6 1d 3e 35 d0 4e 3e
       0.12678958 0.09253722 0.15419918 0.20196612
000030 57 76 be bd fa 92 01 b8 8a 97 97 bd 18 69 4f 36
       -0.09299915 -3.089288e-05 -0.07401951 3.0906576e-06
000040 a6 63 5f be 3e 8d fe b5 37 56 1e 3c 7b 43 39 bc
       -0.21815357 -1.8965582e-06 0.00966411 -0.0113075925
000050 a9 ef b2 bd 22 af dd 3d 9d 65 6b bd 83 aa 04 3e
       -0.08737118 0.108244196 -0.057469953 0.1295567
000060 29 bf 2c be 4b 24 11 3e 35 7e 4a 3a f4 ff 0c be
       -0.16869797 0.14174001 0.0007724495 -0.13769513
000070 a2 aa 13 39 c0 9f 29 3d d8 d3 f7 bc 1d 5b c2 bd
       0.00014082578 0.041412115 -0.030252382 -0.09490035
000080 8e fd 54 be 56 2f 41 bd 98 c6 2a 3d 2a aa a2 39
       -0.20799848 -0.047164284 0.0416933 0.0003102583
000090 c4 91 5f bd b7 02 c8 3d c6 ca 23 b5 2d 48 92 bc
       -0.054582372 0.09766143 -6.1017306e-07 -0.017856682
0000a0 44 f9 06 3d b3 01 af 3b 79 51 15 b4 d2 14 30 3d
       0.032952562 0.0053407787 -1.3906346e-07 0.042988606
0000b0 ec 5d 03 be b4 65 00 be 43 a7 8a bd 4b f4 6e 3d
       -0.12828797 -0.12538797 -0.06770184 0.058338445
0000c0 91 c2 77 3d 11 b1 a4 bd b4 45 4b be 88 db 62 38
       0.060488287 -0.08041585 -0.19850808 5.4087053e-05
0000d0 fb b7 cd bd cc 44 18 be 30 a8 6f 3c 06 00 bc bd
       -0.10044857 -0.14869994 0.014627501 -0.09179692
0000e0 97 c7 e9 bd ab 2d 49 be 42 23 73 3d 30 e8 ce bc
       -0.11415022 -0.19646327 0.059359796 -0.0252572
0000f0 7a c8 a0 bd 62 0a 3f bc a5 fc d7 37 08 31 ac 3d
       -0.07850738 -0.01166019 2.5747644e-05 0.084077895
000100 f3 98 45 3e ee 50 b7 3d db c1 5e 37 80 e5 55 bd
       0.19296627 0.08950983 1.3277367e-05 -0.05222082
000110 e9 7c 0e bd eb b5 17 3e 87 2f d9 bc db 25 3a be
       -0.034787092 0.1481549 -0.02651192 -0.18178503
000120 c8 09 09 be 9d fd 6c 3d 17 f5 d0 bd 44 96 70 bd
       -0.13382638 0.057859052 -0.10202997 -0.058737054
000130 ff 51 e6 3b e4 68 25 3d 3e 86 a4 bd 93 30 87 36
       0.0070288177 0.040383235 -0.08033417 4.0289683e-06
000140 2e bb 4f be 34 64 62 38 e8 de dc bc b5 43 4d bd
       -0.20286247 5.397592e-05 -0.026961759 -0.0501134
000150 c6 73 41 37 36 90 96 bd 0b 7c 79 b7 a2 b3 66 3d
       1.1530652e-05 -0.07351725 -1.4870438e-05 0.056323655
000160 47 63 39 3e 52 01 32 3d a2 8f 8a bc 68 09 23 be
       0.18104278 0.04345829 -0.016914193 -0.15921557
000170 6a 36 00 3d c1 ef df 3d 16 da bf 3d 97 ae 89 bd
       0.031301893 0.10934401 0.093677685 -0.067227535
000180 1e 52 e6 bb d0 ea 2e be 24 5b 6b 3d 44 67 9e bc
       -0.007028832 -0.17081761 0.057459965 -0.01933635
000190 56 b8 44 be 70 73 ff b7 da ad d3 3b 5d b1 6e 3d
       -0.19210944 -3.0452124e-05 0.0064599337 0.058274616
0001a0 37 58 aa 3c db 5e 6f b5 e0 6d cb bd 77 20 0d 3d
       0.020794017 -8.917247e-07 -0.09933066 0.03445479
0001b0 b2 8e 07 be d1 40 14 3e 2f 36 7b 3d b3 70 4a be
       -0.13238028 0.1447785 0.06133097 -0.19769554
0001c0 62 16 c8 bd e6 de d0 bd e6 1e 46 3e 80 35 c1 ba
       -0.09769894 -0.101987645 0.19347724 -0.0014740676
0001d0 4c 44 3f 3e 67 f7 e2 bd 58 ad d0 ba 16 a9 d6 bd
       0.18678397 -0.110823445 -0.0015920801 -0.10481469
0001e0 a3 40 bc bd eb e4 21 3e 45 d3 9b bc 39 b0 b4 bd
       -0.09192016 0.15809982 -0.01902164 -0.08822674
0001f0 f7 08 27 bd c5 7c 8c bd f6 35 e7 35 ef d1 77 bd
       -0.040780034 -0.068597354 1.7226546e-06 -0.060502943
000200 d3 1b 8f 3d 34 0b c0 bd 66 ee e2 3d c0 a6 de bd
       0.06987729 -0.09377137 0.11080627 -0.10871649
000210 9a 3f 43 bb 6e b4 a7 3d cd 48 0f be d5 e3 5c be
       -0.0029792548 0.08188711 -0.13992615 -0.21571286
000220 b8 74 01 3e 6d 18 ae bb d7 c4 0c 3e c7 77 9b bc
       0.12642181 -0.0053129704 0.13746963 -0.018978013
000230 04 93 3e bd 50 df 20 3e ea f6 e9 bc be 1c 01 be
       -0.046526924 0.15710187 -0.02856012 -0.1260862
000240 dc 24 65 be 0f a2 33 3e 33 27 42 3e cd 24 6c 3d
       -0.22377342 0.17542289 0.18960266 0.057652283
000250 8a 71 6d 3d 23 6c c5 3d ea 15 5b 3b 97 22 a3 bc
       0.057969607 0.09639766 0.003342981 -0.019913955
000260 63 1b 0b be f9 6d c8 bd b2 19 48 b6 c5 55 52 bc
       -0.13584666 -0.097866006 -2.981728e-06 -0.012837832
000270 76 61 c6 bc 04 3d df bd 48 27 4d 3e c0 5f 89 3d
       -0.024216395 -0.1090031 0.20034516 0.06707716
000280 17 88 14 3e 14 a5 57 be b2 72 a7 bd 54 03 a1 3d
       0.14505039 -0.21059066 -0.08176173 0.07861963
000290 b3 92 99 bc ee f1 35 bc cd de 89 b5 5b 70 de 3c
       -0.01874671 -0.011105044 -1.0272139e-06 0.027153185
0002a0 13 62 ab 3d 86 10 29 3a 41 64 40 bd f6 8a fa 3c
       0.083683155 0.00064493006 -0.04697061 0.03058384
0002b0 f7 c0 b9 3d e1 55 3d be 99 85 60 bd 7a 14 44 be
       0.09070008 -0.18489791 -0.05481491 -0.19148436
0002c0 2c 37 3c 3d fc 4f 13 3d 7e 4c 58 3e e9 fb f6 bb
       0.045951054 0.03596495 0.2112293 -0.0075373542
0002d0 b4 e8 12 3e 11 e7 15 bb 47 8f c6 3d 87 75 a2 3c
       0.14346582 -0.0022873322 0.09695297 0.019831432
0002e0 9d fe 45 3e b7 ad 37 bd 98 f4 bf bc 08 88 83 bd
       0.19335409 -0.0448434 -0.023432061 -0.0642243
0002f0 b3 9d a4 bd df 8f 58 bc 8d 0c 49 bd 46 9a 63 3d
       -0.08037891 -0.013217895 -0.049084235 0.05556705
000300 b0 b3 c0 3d eb f4 89 bb f0 05 af 35 d8 96 a8 bd
       0.09409273 -0.0042101047 1.3040244e-06 -0.08231896
000310 05 2b 1e 38 43 71 72 3e 99 cd 67 3d 9d 4f 81 bd
       3.77102e-05 0.23676018 0.056592558 -0.06314013
000320 44 eb 0d 3e 4a b7 4c 37 40 d0 5c b9 7b 88 33 3d
       0.13859278 1.2202023e-05 -0.00021058414 0.04383133
000330 cd 06 53 be 25 0b ab bd cb b5 b4 3c 92 fb 54 be
       -0.20608063 -0.08351735 0.022059342 -0.20799091
000340 d6 5e d8 3d 1b 56 1f 3e 97 3c 42 3d 38 43 f9 3b
       0.105649635 0.1556019 0.047421064 0.00760689
000350 cb 18 5e 3a 21 5e 8f 3c 21 2c d9 bc 2a 71 7b bc
       0.00084723224 0.017500939 -0.0265103 -0.015346805
000360 d8 bc 92 bc 21 2f 94 bd 43 3b b8 bc ca a2 53 3a
       -0.017912313 -0.072355516 -0.022489196 0.00080732687
000370 6f dd 2d bd 6c d3 46 3e 0f 63 35 3e c0 2d 85 3d
       -0.042447504 0.19416589 0.17713569 0.06502867
000380 81 e1 26 3e 46 a4 18 3d 58 a1 56 3d 5d 83 a4 3d
       0.1629696 0.03726604 0.052399963 0.08032868
000390 01 bc 70 3e 80 dd 3c bd af 47 9f bc 43 1f 77 3e
       0.23509218 -0.046109676 -0.019443361 0.24133019
0003a0 e8 b4 54 bc b7 10 9b b9 89 14 81 bc 1a 76 c5 bd
       -0.012982585 -0.00029576357 -0.015756862 -0.09641667
0003b0 1b 03 13 be ee 53 30 be 9a b9 9d bd 5c fa 3c be
       -0.14356653 -0.17219517 -0.07701416 -0.1845488
0003c0 ad 79 8c 3c c6 97 59 3e bf 85 be bd 12 8f 0a b7
       0.017147863 0.21249303 -0.09302854 -8.258752e-06
0003d0 b6 59 3b 3d f0 7c 60 3e af 29 31 be d9 82 5e bd
       0.045739852 0.2192266 -0.17301057 -0.054324005
0003e0 18 21 37 be f2 d0 22 3e ab 8d 44 3e 82 25 16 be
       -0.17883718 0.15900019 0.19194667 -0.14662746
0003f0 cf a0 7c bd 11 7f 66 3d de 58 89 bd 17 50 34 3d
       -0.061676797 0.056273524 -0.06706403 0.044021692

task_heads.target1.0.bias f4 [32]
000000 ab 1e 02 bc 7f 2d 5f bb 29 a2 01 3b 09 db 73 3a
       -0.007941882 -0.0034054217 0.0019780493 0.0009302353
000010 bb d5 82 bc 89 a8 9d bc eb 6f 8e bc 62 0a 64 bc
       -0.015971055 -0.019245403 -0.017387351 -0.013918491
000020 0d 4a 78 bc 67 46 01 bd b9 d9 3c bd c3 7b 9f 3b
       -0.015154374 -0.03156128 -0.046106074 0.0048670485
000030 cc 64 7f bc 84 8c e0 bc 5e 2d c8 bc 92 37 c1 bc
       -0.015587997 -0.027410753 -0.024435695 -0.023586068
000040 c9 33 fc bb 32 c2 16 bd 2c d1 85 bc 99 0a f7 bc
       -0.007696603 -0.036806293 -0.016335092 -0.03015642
000050 9e d3 d0 bc 23 46 c8 bb 12 5f 83 3c 4a b5 f3 bb
       -0.025491532 -0.0061118766 0.016036544 -0.007437383
000060 fe 49 e5 39 6c 02 d4 bc 5b c8 01 bc 8b 46 2e bc
       0.00043733412 -0.025880061 -0.007921304 -0.010636936
000070 f5 03 9e bb b6 b9 66 3c 44 de dd 3b 86 7f 2f 3c
       -0.004822249 0.014082363 0.006770881 0.010711556

task_heads.target1.3.weight f4 [1, 32]
000000 ee b6 42 be 4a 63 6c 3d bd 20 48 3c e6 0c 52 3e
       -0.19015095 0.057711877 0.012214837 0.20512733
000010 15 e9 84 bd 8e d8 2d be 8d 02 79 be 75 57 92 bd
       -0.06489769 -0.1697714 -0.2431738 -0.07145587
000020 9f 57 94 3e e6 fd b2 be 2d b1 89 be 8f 6b 17 3e
       0.289731 -0.34959334 -0.26892987 0.14787124
000030 5a e5 ae be 91 54 99 be f0 9a ab be ff 88 26 be
       -0.34159356 -0.29947332 -0.33516645 -0.16263197
000040 f5 a0 d3 bd 93 44 b3 be fc ac 5b 3e 52 4c 9c be
       -0.103334345 -0.35013255 0.21452707 -0.30526978
000050 91 a1 0b be 87 f0 c6 3b 44 d5 64 3d 28 85 93 be
       -0.13635851 0.0060711536 0.05586745 -0.28812528
000060 85 8e 6e 3d a8 c8 45 be 6c 82 3a 3e 15 42 cb 3e
       0.058241386 -0.19314826 0.18213814 0.39698854
000070 db bc 9c bd 50 76 14 3d 1d 87 ad 3e 44 09 e2 3c
       -0.07653209 0.036245644 0.33892146 0.027592309

exp_avg f4 [1, 4, 16]
000000 d3 3c 29 ba 9f fa 6e 39 5e 52 d4 b8 18 63 8f ba
       -0.0006455902 0.00022790812 -0.0001012429 -0.0010939566
000010 f0 7e 65 b9 9d 79 c5 38 92 20 c1 39 2d 2d 5e ba
       -0.0002188643 9.416344e-05 0.00036836095 -0.00084753596
000020 f1 59 60 3a 6b 6b 55 3a 9c 47 19 b9 0d 9f 18 ba
       0.0008558324 0.00081413117 -0.00014617894 -0.000582204
000030 f9 96 64 ba 47 fe c6 39 44 cb 16 ba f9 46 ba 38
       -0.00087200064 0.00037954954 -0.0005752335 8.882391e-05
000040 b3 04 07 39 e2 ac a4 b9 0e 43 73 b8 22 62 35 b7
       0.00012876354 -0.00031409325 -5.7998164e-05 -1.0811289e-05
000050 db db c5 b8 6e 27 8f b7 e1 80 19 b8 54 28 91 b8
       -9.434643e-05 -1.706529e-05 -3.659807e-05 -6.9216505e-05
000060 45 c6 bf b7 1c 77 23 39 ea 57 bf b9 8a 54 a0 38
       -2.28613e-05 0.00015589263 -0.0003649586 7.645141e-05
000070 77 79 43 b9 c9 52 de b9 d1 87 ec b9 dd f7 00 38
       -0.00018641898 -0.0004240482 -0.0004511462 3.074842e-05
000080 fe da 08 39 c5 b1 9c b8 6a 82 3c b8 5d 94 85 b8
       0.00013051552 -7.471772e-05 -4.494415e-05 -6.369569e-05
000090 6b c4 ad 38 91 1b 93 39 92 70 a2 b8 14 2b 84 b9
       8.2858685e-05 0.00028058563 -7.74573e-05 -0.00025209098
0000a0 3a 97 07 3a 44 c3 c4 b9 19 de b6 38 a3 48 ac 39
       0.0005172376 -0.00037529517 8.719805e-05 0.00032860515
0000b0 0c 80 21 3a 59 21 20 38 ff ab fe 38 4a a6 83 39
       0.0006160743 3.817803e-05 0.000121437006 0.00025110162
0000c0 03 2e c8 37 80 05 00 39 e8 ae 8b b8 eb 02 c9 b7
       2.3863284e-05 0.0001220908 -6.660615e-05 -2.3962426e-05
0000d0 40 37 71 38 ff ac ee b8 df 76 29 39 d7 28 c4 b7
       5.7510333e-05 -0.000113809474 0.00016161379 -2.3384038e-05
0000e0 54 49 c4 38 32 82 7d b8 c7 37 87 38 70 da 89 b8
       9.359667e-05 -6.0441154e-05 6.447691e-05 -6.573356e-05
0000f0 bd 5e 18 38 7c f9 04 b8 44 04 50 38 79 96 1b b8
       3.6327856e-05 -3.1703603e-05 4.9595037e-05 -3.709502e-05

exp_avg_sq f4 [1, 4, 16]
000000 63 3b c7 34 4f 3d 19 34 1b ab 57 33 ea 73 2d 36
       3.7109848e-07 1.427154e-07 5.0214208e-08 2.584648e-06
000010 2a 46 25 34 87 5a f2 33 16 ac 1c 35 9b 82 82 35
       1.5392348e-07 1.128547e-07 5.8364947e-07 9.723766e-07
000020 88 e3 be 35 26 3d 95 35 ce 16 67 34 1a a1 73 35
       1.4222323e-06 1.1119162e-06 2.1521848e-07 9.075899e-07
000030 7a 7f cd 35 2a 4a 2e 35 ba bc 9e 34 84 03 89 32
       1.5310791e-06 6.4927974e-07 2.956711e-07 1.5950498e-08
000040 eb 51 bf 35 f6 3a 4c 34 d6 52 0b 34 ec 52 03 34
       1.425445e-06 1.902043e-07 1.297552e-07 1.2230493e-07
000050 dc 2d 8c 33 a9 7a f8 32 89 7e 35 35 c1 5a 0d 35
       6.5276e-08 2.892678e-08 6.761189e-07 5.265866e-07
000060 c5 69 b0 34 a5 51 d8 33 57 7f b1 34 46 56 de 34
       3.2859512e-07 1.0073135e-07 3.306147e-07 4.1413495e-07
000070 79 85 0d 35 38 b8 25 34 d5 90 69 34 f9 18 92 34
       5.272082e-07 1.5433841e-07 2.1752506e-07 2.721279e-07
000080 7e 58 0b 33 13 b2 07 33 cb 17 1c 34 ba 3c c2 33
       3.2443943e-08 3.1594094e-08 1.4537288e-07 9.044875e-08
000090 0f 05 90 33 78 8b bd 34 5a 6f 0b 33 f8 cd 0c 34
       6.706443e-08 3.530547e-07 3.2464733e-08 1.3113447e-07
0000a0 7a 4a c2 35 1f b1 82 35 84 43 55 33 1f 4a 03 35
       1.4475802e-06 9.737304e-07 4.9654332e-08 4.8909163e-07
0000b0 b4 e7 08 36 46 2e 2b 32 44 8e 6a 33 9a c7 87 34
       2.0400448e-06 9.964031e-09 5.461176e-08 2.529094e-07
0000c0 11 44 a7 33 94 6c 7a 35 18 c6 40 34 d0 ae 3f 33
       7.788925e-08 9.329026e-07 1.795346e-07 4.4629644e-08
0000d0 1d fc 9d 32 27 b8 e8 34 af 91 a6 35 92 18 00 34
       1.8391853e-08 4.3347356e-07 1.2410363e-06 1.1929868e-07
0000e0 9f 32 e0 34 5c 9a 4d 34 b5 f8 74 34 e8 62 f4 33
       4.1760083e-07 1.9148268e-07 2.281475e-07 1.1380126e-07
0000f0 5e c2 15 35 3f 07 94 32 bb ec 00 35 86 ea 76 35
       5.5789667e-07 1.7232763e-08 4.8028204e-07 9.198342e-07

exp_avg f4 [1, 4, 16]
000000 b0 ea 7b b8 c2 8b 15 b8 ff 2f 04 b8 d7 3f 95 b7
       -6.0061633e-05 -3.5654528e-05 -3.1515952e-05 -1.7791912e-05
000010 8c 5c 0f b8 8b a4 17 b8 38 92 2e 36 23 07 e3 36
       -3.4180048e-05 -3.6154448e-05 2.601313e-06 6.765958e-06
000020 c4 f5 b5 37 8c 0b 6b 37 fc e1 af 37 52 06 c6 36
       2.1691325e-05 1.400978e-05 2.0966858e-05 5.9015956e-06
000030 5d 41 4b 35 3d 59 55 b7 1d ab 78 b7 86 2f 0e b8
       7.571851e-07 -1.2716567e-05 -1.4821792e-05 -3.3899698e-05
000040 55 a4 1e ba 80 0d 01 ba 1c d7 59 b8 a8 d9 9d b9
       -0.0006051709 -0.0004922971 -5.1937168e-05 -0.0003010754
000050 0d 88 1f b8 4e 03 22 b9 90 c1 f4 b9 0e e5 03 ba
       -3.803526e-05 -0.00015450755 -0.00046683522 -0.0005031385
000060 85 47 96 39 bd 99 53 39 a5 b9 2e b9 80 32 a8 39
       0.00028663516 0.000201798 -0.00016663091 0.00032081082
000070 e6 d6 54 39 25 00 d7 b9 28 ad 8e b8 89 a5 a4 39
       0.00020297951 -0.00041008103 -6.8033405e-05 0.0003140385
000080 d2 5c 9a 37 f7 3f 7f b6 ac cf c8 b8 6b c6 89 38
       1.8401453e-05 -3.8035193e-06 -9.575425e-05 6.569627e-05
000090 ed bd 10 36 1b 04 21 b7 ab 35 45 b8 44 73 47 38
       2.1568223e-06 -9.597304e-06 -4.7018442e-05 4.7552647e-05
0000a0 33 e5 5c 38 ad 85 e7 37 06 09 24 b7 c9 bb 14 37
       5.2665546e-05 2.7599594e-05 -9.777263e-06 8.86521e-06
0000b0 6b 38 cc b7 64 68 b7 37 d6 8c 06 37 db f7 32 37
       -2.4344967e-05 2.186391e-05 8.019813e-06 1.0667335e-05
0000c0 a7 97 a8 37 d8 a2 5d b6 b3 60 15 b8 83 d8 9c 37
       2.009778e-05 -3.3026354e-06 -3.5614426e-05 1.869747e-05
0000d0 e2 a6 5d 38 af cc 11 38 e4 4d e6 b7 32 15 f8 b7
       5.2845928e-05 3.476132e-05 -2.7454407e-05 -2.9573774e-05
0000e0 17 e3 95 b7 35 0c d4 b7 de 41 45 37 8e 27 bd 36
       -1.7867931e-05 -2.5278054e-05 1.1757451e-05 5.6372437e-06
0000f0 0b f5 d1 b5 ad 59 8f 37 48 eb 0d b8 53 b4 49 38
       -1.564303e-06 1.7088687e-05 -3.3836142e-05 4.8090074e-05

exp_avg_sq f4 [1, 4, 16]
000000 8d e0 32 30 a9 f1 34 30 41 d1 0b 30 bf ee aa 2f
       6.507513e-10 6.582704e-10 5.0865273e-10 3.109246e-10
000010 c0 07 82 2f 62 b7 96 2f 8a 44 b1 2c 43 90 da 2d
       2.365237e-10 2.7415142e-10 5.038252e-12 2.4847796e-11
000020 7f c7 4e 2f 39 de d9 2e f3 14 e2 2f 9c 72 68 30
       1.8806466e-10 9.907492e-11 4.1124046e-10 8.456398e-10
000030 a5 88 9c 30 59 d4 3a 2e b0 7a 71 2f 5a d7 a6 2f
       1.1389331e-09 4.2480106e-11 2.196241e-10 3.034824e-10
000040 58 5e af 34 73 ef 87 34 08 67 99 32 26 fa e7 33
       3.2664934e-07 2.5319932e-07 1.7858397e-08 1.08022775e-07
000050 50 d9 f9 32 87 c2 06 33 80 af 7b 34 97 1b 52 34
       2.9086237e-08 3.1376228e-08 2.3440043e-07 1.9567811e-07
000060 34 6b ab 33 ee 38 49 33 27 a7 a1 33 d7 48 2c 34
       7.982308e-08 4.6850737e-08 7.5275516e-08 1.6045247e-07
000070 c0 cc d2 33 c4 cc 80 34 a4 8c 92 33 5e e9 53 34
       9.816131e-08 2.3990845e-07 6.824237e-08 1.9735805e-07
000080 cd c4 7f 31 b9 2b 43 32 b9 88 f3 31 ae f1 f4 31
       3.7219252e-09 1.1360435e-08 7.0877744e-09 7.1288104e-09
000090 9a 5f 4b 31 f7 94 49 33 82 1d 3a 32 71 a5 19 32
       2.959473e-09 4.6934442e-08 1.0833334e-08 8.943389e-09
0000a0 ce 78 f3 33 54 30 fb 33 c5 3d f5 32 a8 63 e3 33
       1.13375435e-07 1.1696889e-07 2.8549843e-08 1.05886386e-07
0000b0 6a 91 8f 34 07 a0 d8 30 11 92 bc 31 26 6c 4c 33
       2.6741628e-07 1.5761551e-09 5.488126e-09 4.759581e-08
0000c0 fa fe 85 30 9a 8d 83 32 8c 7c 61 31 e8 de 44 30
       9.749492e-10 1.53148e-08 3.2812606e-09 7.1621153e-10
0000d0 a4 dd c7 31 79 be ac 32 f5 85 2a 32 f3 36 21 32
       5.81686e-09 2.0110052e-08 9.925761e-09 9.383927e-09
0000e0 e2 67 e2 30 91 f6 85 32 e2 e8 3a 30 d0 86 29 31
       1.647319e-09 1.5595363e-08 6.799735e-10 2.4669369e-09
0000f0 48 26 d8 33 33 f0 7b 32 24 ef 86 33 05 b8 86 34
       1.0065247e-07 1.4664738e-08 6.283361e-08 2.5093337e-07
