finalhybrid/experiments/experiment_20251104_082037/final_hybrid_model.pth (torch, 828338 bytes, 21 tensors)

gcn_branch.gcn_layers.0.bias f4 [64]
000000 20 27 f4 3c 00 00 00 00 fb 74 00 bd 00 00 00 00
       0.029803813 0.0 -0.03136156 0.0
000010 31 21 22 3c 4c 7f 7d bc 30 67 e1 bc a9 c0 bd bc
       0.009895609 -0.0154722445 -0.027515024 -0.023163157
000020 38 5a d2 3c 00 00 00 00 00 00 00 00 0f 4e 5f bc
       0.025677785 0.0 0.0 -0.01362945
000030 03 20 81 bb 00 00 00 00 36 4b 31 bd 40 f7 d3 bc
       -0.0039405837 0.0 -0.043284617 -0.025874734
000040 cd 30 d5 bb 00 00 00 00 b7 11 d3 bc a4 f3 b1 bb
       -0.0065060616 0.0 -0.025765283 -0.0054306556
000050 00 00 00 00 83 53 b4 3b 00 00 00 00 de f2 3e bc
       0.0 0.0055031194 0.0 -0.011654584
000060 aa a5 04 bb 7c b2 ad bb d1 00 c1 bb 53 25 d3 bc
       -0.0020240345 -0.005300818 -0.00588999 -0.025774634
000070 1c 6c df 3a ff eb eb bb cc a1 d0 bb 5d 30 8c bc
       0.0017045769 -0.007199764 -0.006366944 -0.017112905
000080 00 00 00 00 bb 60 c8 bc 8b 1b 8d bc 00 00 00 00
       0.0 -0.024460187 -0.017225048 0.0
000090 2d d9 25 3c 1c 26 1a 3c 07 36 ef bc 00 00 00 00
       0.0101225795 0.0094085 -0.029200567 0.0
0000a0 00 00 00 00 0e ec 2a bc 00 00 00 00 54 4f b8 3c
       0.0 -0.010432256 0.0 0.022498764
0000b0 63 c8 64 bc cb 0a 4d bc f6 7a 8a 3c 89 34 08 bc
       -0.013963792 -0.01251478 0.016904335 -0.008313307
0000c0 8b 6d 16 3c 89 e7 f7 39 06 a7 41 bc 00 00 00 00
       0.0091813905 0.00047284018 -0.011819607 0.0
0000d0 d8 72 4b bc 00 00 00 00 00 00 00 00 0c 26 c2 bc
       -0.012417518 0.0 0.0 -0.023699783
0000e0 d0 e6 6c bb 00 00 00 00 00 00 00 00 c7 6b 98 bc
       -0.0036148317 0.0 0.0 -0.01860608
0000f0 1e 1e 8e 3a 00 00 00 00 dc 0d 24 bc 7d 20 34 bb
       0.0010842716 0.0 -0.01001307 -0.0027485185

gcn_branch.gcn_layers.0.lin.weight f4 [64, 36]
000000 f0 ee 85 bd 5a 4d d3 bc d4 aa 41 3e 3a e1 f6 3c
       -0.06539714 -0.02579372 0.18912822 0.030136693
000010 80 10 2f bc 01 5f 11 be 9e 94 2e 3e c9 f0 16 3e
       -0.010685086 -0.14196397 0.1704888 0.1474029
000020 1a 8b e2 3d 5f 22 2f 3e 18 fe c5 bd 12 de b3 3d
       0.11061688 0.17102955 -0.09667605 0.08782591
000030 f8 3c f3 bd 18 66 ee 3c e6 4f b3 3d cc 95 3c 3d
       -0.11876863 0.029101416 0.08755474 0.046041295
000040 83 b9 21 be aa 7e fd 3d 59 39 fd bd 34 b8 47 bd
       -0.15793423 0.12377675 -0.12364454 -0.048759654
000050 83 8e 77 3e 38 54 ec bc 6a 45 cd 3d b5 0b 81 be
       0.24175458 -0.028848752 0.10023005 -0.25204244
000060 97 3d 67 3e 74 8a 1c bd 5b f1 3f be 24 62 df bd
       0.22582088 -0.038217977 -0.18744414 -0.10907391
000070 be ad e2 bd 70 81 29 3e 6b 9b 87 3e 40 00 20 3b
       -0.11068295 0.16553283 0.26485762 0.0024414212
000080 34 e7 0a 3d 5a 54 f7 3c 52 13 34 be 9e 98 b9 3d
       0.0339119 0.03019159 -0.17585495 0.090623125
000090 eb 46 4c 3e c6 d2 25 be 15 ec 07 3e 5e f7 cf 3d
       0.19948928 -0.16193685 0.13273652 0.101546034
0000a0 e9 b4 27 be 69 e2 60 3e 54 21 50 3d a8 49 85 3c
       -0.16377605 0.21961369 0.050813034 0.016270474
0000b0 d8 1c d6 bd f8 b8 ab 3c 5b 45 37 3e c0 7f 13 be
       -0.1045472 0.020962223 0.17897551 -0.14404202
0000c0 a2 fb 91 3d 07 63 66 be dc 38 38 be 1f e0 31 be
       0.07128073 -0.22498713 -0.1799044 -0.17370652
0000d0 82 2e ce bd b2 f2 ac bd 8c 5d 30 be fc fd bd bd
       -0.100674644 -0.08444728 -0.17223185 -0.09276959
0000e0 ca 21 83 3d 44 91 75 be d8 95 f9 3c cd ed 4a 3e
       0.06402929 -0.23981196 0.030466959 0.19817276
0000f0 fd 41 23 be 8c f4 5a 3d 4c df b4 bd 6c 6f 39 be
       -0.15943141 0.053455874 -0.08831653 -0.1810891
000100 f5 d9 3a be 65 51 1f 3e d2 67 2f be a9 be 28 3e
       -0.18247207 0.15558393 -0.17129448 0.16478981
000110 23 11 75 3e 8e d2 b1 3d e8 70 9e bc a0 3a f6 3b
       0.23932318 0.08682738 -0.019340947 0.007514313
000120 8c f0 e3 3d 99 41 21 be 3c c3 a7 3c 31 0c 1d 3e
       0.11129865 -0.1574768 0.020478837 0.15336682
000130 10 17 9d 3c fd 94 4f be e1 82 51 bd d1 ef 20 3e
       0.019176036 -0.20271678 -0.051150206 0.15716483
000140 44 22 57 be 63 7e 6a 3e 0c 13 65 be 06 49 4b be
       -0.21009165 0.22899775 -0.22370547 -0.19852075
000150 e3 e3 16 3e 58 12 72 bd 00 52 23 bd c7 fd 24 3e
       0.1473537 -0.059099525 -0.039873123 0.16112433
000160 4e 36 9c 3d 76 15 e2 3d 1e 69 2f be e4 b5 34 3d
       0.07627545 0.110392496 -0.17129943 0.044118777
000170 d0 44 0e bd eb fe 0f 3e ab 4b 16 3e f0 b6 3b 3d
       -0.034733593 0.14062087 0.14677303 0.04582876
000180 a7 e6 32 3e 90 b3 c7 bd 1c 70 27 3e b5 7e 06 3e
       0.174708 -0.09751046 0.1635136 0.13134272
000190 24 85 71 3c 7b 5f 65 3c 1d 70 e7 3d 82 21 e6 3d
       0.014741216 0.013999815 0.11300681 0.1123686
0001a0 c4 e3 35 bd b2 20 84 be 71 07 18 3e cd 8b 8e 3d
       -0.044406667 -0.25806195 0.14846589 0.06960259
0001b0 fc 36 2e bd c1 9c 52 3e 4b f0 35 3e 0f 56 74 3e
       -0.042532906 0.2056761 0.17767446 0.23860954
0001c0 f9 54 58 be 7a 05 8c 3d cb 3b 2b 3e f4 e5 42 3d
       -0.21126164 0.06836982 0.16722028 0.04758258
0001d0 9c 01 a1 bd 00 dc b9 bc b2 b4 73 be 6e 6d cf bd
       -0.07861635 -0.022687912 -0.23799399 -0.10128294
0001e0 bc a2 d6 bd e0 57 b6 3b a5 71 1e 3e f6 de e2 bd
       -0.10480258 0.0055646747 0.1547304 -0.11077683
0001f0 7a 4c 4e be ac 42 1c be b6 10 49 be 34 36 72 bd
       -0.20146361 -0.15259808 -0.19635281 -0.059133723
000200 d7 08 1f 3e f0 3c ed bd d0 db 2c 3c d0 d4 d5 bc
       0.15530716 -0.115838885 0.010550454 -0.026102453
000210 e4 f2 64 be 90 26 fe bd 0c d6 70 bd 3c 60 a0 bd
       -0.2235828 -0.12409699 -0.05879788 -0.07830855
000220 bc 57 ea bd 30 47 53 3c cb 5b 0c 3e 38 12 6f bd
       -0.11442515 0.01289539 0.13706891 -0.058366984
000230 ba a6 d3 bd 44 41 73 3d 2a 56 bd 3d df b2 67 3e
       -0.10334535 0.059388414 0.0924495 0.22626828
000240 7b 0c ed bc 6a a9 37 be dc c8 2f be 6f 94 2f be
       -0.028936615 -0.1793572 -0.17166466 -0.17146467
000250 9c 6a 12 3e 7b 38 5d be 89 97 dc 3d bb 7d 14 3e
       0.14298481 -0.21603577 0.107710905 0.14501087
000260 c0 84 26 3e 4e 46 11 be 48 62 ce bd 0e 46 ea 3d
       0.16261578 -0.14186975 -0.100773394 0.11439143
000270 b3 a5 4b be 60 f7 57 bd e6 03 db 3d de 36 97 3d
       -0.19887428 -0.05272615 0.10694103 0.07383512
000280 57 09 5d be 7a ee 96 3d a4 c2 4d 3d 80 8c 35 bb
       -0.21585594 0.073697045 0.050234452 -0.0027702153
000290 4e ed b3 3d 8a d2 fe 3d e1 d4 71 3e ea 7a 9d 3d
       0.08785497 0.12442501 0.23616363 0.076894596
0002a0 f3 dd 07 be 4b b6 52 3e 56 39 e7 3d 27 13 73 be
       -0.1326826 0.20577352 0.11290233 -0.23737775
0002b0 64 08 eb bd ad 3b 1c 3e eb f3 43 3e fc 37 5c be
       -0.1147621 0.1525714 0.19136016 -0.21505731
0002c0 68 7c 32 bd 5c 49 73 be cb 0b 4e 3a 93 90 35 3d
       -0.043575674 -0.23758453 0.00078600337 0.04432733
0002d0 c3 12 71 3e ab 2a b9 3d 3a f9 00 be 16 eb ae bd
       0.23542313 0.090413414 -0.12595072 -0.08540933
0002e0 68 4f 7a be c8 c3 5c be 8d 20 6e 3e 58 73 30 be
       -0.24444354 -0.2155906 0.23254605 -0.172315
0002f0 66 f2 10 be a0 02 28 bd f8 15 8e bd 86 23 99 3d
       -0.14154968 -0.04101813 -0.06937784 0.07477479
000300 5a 76 b9 3d 64 e0 0f 3d 91 ea 73 be 67 c8 44 3e
       0.09055777 0.035126105 -0.23819949 0.19217072
000310 60 33 63 bd 92 34 f6 bd 50 ee 5c be c4 3e 3f 3d
       -0.055468917 -0.12021746 -0.21575284 0.046690717
000320 c8 40 7e bd 6a 6e 5a 3e d9 e0 53 be 01 16 08 3e
       -0.0620735 0.21331182 -0.20691241 0.13289644
000330 ef f4 0d 3e f1 a0 61 3e dd 89 1d 3e fc fe 63 be
       0.13862966 0.2203405 0.15384622 -0.22265238
000340 ce ca 79 3e ee 29 47 3e 04 d5 40 be 12 a9 6e be
       0.2439377 0.19449589 -0.18831259 -0.23306683
000350 26 90 14 be 9e 71 55 bd 7a ab 3a 3e a8 c1 1d 3e
       -0.14508113 -0.052110307 0.18229476 0.15405905
000360 b1 12 c8 3d fc 36 a2 3d 69 3d 48 bd ae 3b 79 3d
       0.0976919 0.07920644 -0.04888669 0.06084793
000370 4c e6 02 bd 1d 11 c9 bd fb b9 3c 3e 7e 53 a9 3d
       -0.03195791 -0.09817717 0.18430321 0.08267878
000380 f7 bc 2a be 50 f0 35 bd 4d 57 66 3e 93 35 5f 3e
       -0.16673647 -0.044418633 0.2249424 0.2179778
000390 5a 86 d4 3d ab 5c 79 3e 34 df 13 bd 36 c1 e1 3d
       0.10377188 0.24351756 -0.036101535 0.1102318
0003a0 4f b8 05 3e 19 9c 5a 3e a0 b5 c5 bc 58 92 e3 3c
       0.1305859 0.21348609 -0.024134457 0.027779743
0003b0 cc ec 56 bd e4 20 34 3d c5 b5 79 be 18 5e 05 be
       -0.05247192 0.04397668 -0.24385746 -0.13024175
0003c0 05 6f d7 3d 50 e6 1f 3c 67 b0 22 3e 71 6c 25 be
       0.10519222 0.009759501 0.15887605 -0.16154648
0003d0 c8 75 29 be f8 8d 54 be c6 f3 2a be 9c f3 13 be
       -0.16548836 -0.20757282 -0.16694555 -0.14448398
0003e0 c6 de 63 be c7 2e 25 3e 7f 11 fe 3d 09 41 10 3d
       -0.2225295 0.16131125 0.12405681 0.035218272
0003f0 36 bd 4d be d2 9b 2c be 9f 0a bc bd b9 97 95 3d
       -0.2009171 -0.16856316 -0.09181713 0.073043294

gcn_branch.gcn_layers.1.bias f4 [128]
000000 15 c5 00 bc b5 f5 19 bc aa 2b 11 bc 77 18 9d bb
       -0.007859488 -0.00939696 -0.008860508 -0.004794176
000010 1e c2 65 bc ba 38 1d bc 22 11 75 bc 9c 22 50 bc
       -0.014023332 -0.009596044 -0.014957698 -0.012703564
000020 66 8b 64 ba fc 17 9b 3c 17 5c 98 bc dc c1 6f bc
       -0.0008718282 0.018932335 -0.0185986 -0.014633622
000030 a7 c3 29 bb 6d 7d bb bc 0c 59 47 bc 14 c0 89 bc
       -0.0025903971 -0.022886956 -0.0121672265 -0.016815223
000040 6a 77 82 bc af cb 9b bb 53 4e 67 bc 99 98 0c 3b
       -0.015926082 -0.0047545056 -0.014117795 0.002145326
000050 2a 37 66 bc ca d1 26 bc b0 23 d3 39 50 79 03 bb
       -0.014051238 -0.010181854 0.00040271645 -0.0020061322
000060 e9 d8 dd ba aa 5e 1c 3a 75 17 59 bc a8 8f 52 bc
       -0.0016925606 0.0005965034 -0.0132502215 -0.012851633
000070 e7 a9 76 bc b4 ed 54 bc 9b 6d 29 bc 76 40 21 bc
       -0.015055156 -0.012996126 -0.010341073 -0.009842029
000080 17 93 bc bb dc 7e 73 bc 21 1b 25 bc 14 b0 13 bc
       -0.005754839 -0.014861789 -0.010077269 -0.009014148
000090 e5 fa 88 bb 0f 7f 4d 3c 07 d0 ab bc f2 aa a3 bc
       -0.0041802996 0.0125425 -0.020973219 -0.019978974
0000a0 99 e2 2e bc 2e 38 61 bc 8f 42 43 bc 63 a4 e2 bb
       -0.010674142 -0.013746304 -0.011917724 -0.006916569
0000b0 2c 41 39 ba d3 43 1b bc 1b 45 ee bb dd cd c5 bc
       -0.00070669013 -0.00947662 -0.0072714216 -0.024146015
0000c0 7b ce 3d 3b d1 0a 27 bc 78 d8 83 bc 7e 61 6d bc
       0.0028962183 -0.01019545 -0.016094431 -0.014488576
0000d0 20 8b 88 bb 60 08 66 bc 57 5b 6c bc d6 08 4d bc
       -0.0041669756 -0.014040083 -0.014426074 -0.012514314
0000e0 22 93 2c bc 02 50 4a bc a0 2b de bb 9b 01 09 bc
       -0.010533126 -0.012348177 -0.006780103 -0.008362199
0000f0 f7 6e 92 bb cc 49 84 bc 24 9b 1d bb 51 25 73 bc
       -0.0044687944 -0.01614847 -0.002404877 -0.01484044
000100 ae bc 98 bc 56 a6 c4 bc b6 46 a0 bc f9 ce 36 bc
       -0.018644657 -0.024005096 -0.019564968 -0.011157745
000110 04 db 84 bc 91 a0 27 bc 1e 87 6b bc 3a 27 cf bc
       -0.016217716 -0.010231153 -0.014375476 -0.02528726
000120 43 8d 09 bc 33 1d 5f bb c6 38 71 bb ef 28 99 bc
       -0.008395496 -0.0034044504 -0.0036807521 -0.018696276
000130 71 32 43 bc 7c a2 74 bc 44 ea 7d bc 7d b2 07 3c
       -0.011913882 -0.014931317 -0.015497748 0.008282301
000140 ef e7 67 bc de 5b 51 bb e1 2e 1f bc dd c9 be bc
       -0.014154418 -0.0031945626 -0.009715767 -0.023289615
000150 21 51 ea bb 5e b5 1f 3c ed 4f f0 3b 74 bb 8b bc
       -0.0071507846 0.009747831 0.0073337466 -0.017057158
000160 9f a5 93 3a 75 28 b9 ba 77 aa 9d bc 8b 3c 4a bc
       0.0011264569 -0.0014126437 -0.019246323 -0.012343536
000170 d2 48 a4 bc ce 0b 7e bc 27 12 31 bc 75 a8 2d bc
       -0.020054255 -0.015505744 -0.0108075505 -0.010599245
000180 3e 38 09 3c 58 94 d5 3c 48 4f c4 bc e6 15 8a bb
       0.008375226 0.026071712 -0.023963585 -0.0042140363
000190 00 1e 15 bc 79 7d 84 3b 1d 29 d4 bc 6d cb ba 3a
       -0.009101391 0.004043278 -0.02589851 0.00142513
0001a0 01 a9 1a bc 0f ff 2e bc a0 1e 2f bc d4 b8 8c bc
       -0.009439708 -0.010680928 -0.010688454 -0.017177977
0001b0 24 cf b3 bc dd 4a f8 bb 96 cc 41 bc 10 16 0d 3c
       -0.021949358 -0.007577284 -0.011828562 0.008611217
0001c0 8e fc fa bb 64 16 be bb 24 d2 22 3c 4a e6 0f 3c
       -0.0076595014 -0.005801009 0.009937797 0.008782933
0001d0 63 e3 62 bc 98 42 39 bc 5e 6a aa bb d0 02 89 bc
       -0.0138481585 -0.011307381 -0.0052006682 -0.016724974
0001e0 78 15 84 bc 36 cb ba ba 9d e1 b2 bc 61 bb 7a bc
       -0.016123518 -0.0014251235 -0.021836096 -0.015303464
0001f0 c9 ac 34 bc 6d 2c fd bb 94 dd 7c bc 09 c9 4b bc
       -0.011027523 -0.007726243 -0.015433688 -0.012438067

gcn_branch.gcn_layers.1.lin.weight f4 [128, 64]
000000 68 e3 1e be de 91 0b bd df ac e5 bd ba d5 01 3e
       -0.15516436 -0.034074657 -0.11214613 0.12679186
000010 20 bd fd bb 58 02 fb bc cd e8 05 be 55 8b 9f bd
       -0.0077434927 -0.030640766 -0.13077088 -0.07790247
000020 9e 35 02 be a1 8b 53 3c 49 6f 64 3d a7 73 06 bd
       -0.12715766 0.012911708 0.055770192 -0.03282514
000030 7a a4 f9 bd 33 6d ac bd c3 62 bd 3d 0b 38 87 bd
       -0.121895745 -0.084192656 0.09247353 -0.06602486
000040 21 43 31 be d6 ed 8a 3c f3 7d 3b 3c 4d 8b 2c 3e
       -0.17310764 0.016959112 0.011443603 0.16850014
000050 78 53 84 3d f8 52 0b be 1f 5b b7 bd a8 aa c9 3d
       0.06461233 -0.13605869 -0.08952927 0.09847003
000060 42 1f 23 3e b2 7c b6 bd ef 63 11 3e 2f b2 05 be
       0.15929893 -0.089105025 0.14198278 -0.13056253
000070 e5 03 e4 3c ed 2b e5 bd c8 3c 9c 3d 5c 48 2e 3e
       0.027833888 -0.11190019 0.076287806 0.1701979
000080 72 cf e7 3d 97 95 a2 3b ca 67 08 3e 01 c2 05 be
       0.11318864 0.00496168 0.13320842 -0.13062288
000090 b6 47 c4 bd b2 59 0c 3e 11 cd ee 3d 91 96 92 3d
       -0.0958399 0.13706091 0.11660207 0.071576245
0000a0 8d c4 08 3e 80 d3 1e 3e af 7b e2 3d bd 92 fb 3c
       0.13356228 0.15510368 0.11058747 0.030709619
0000b0 ce 5e 51 3c 44 44 1e be d0 39 b6 3d 3c 32 a0 bc
       0.012778951 -0.15455729 0.088977456 -0.019555204
0000c0 d2 c9 88 3d 8a 3d 18 3e 9e f4 96 bd 43 95 bc bd
       0.06679119 0.14867225 -0.07370876 -0.09208157
0000d0 49 ca 68 bd d6 81 86 bd f7 da 38 3d c3 61 2c be
       -0.05683354 -0.06567733 0.045130696 -0.16834168
0000e0 8d 7d af 3d e0 36 de 3d 68 e6 1c be 6e 3b f1 bb
       0.08568869 0.1085031 -0.15322268 -0.007361821
0000f0 3a d2 cf 3d 02 4c 9b 3d b1 76 0b be 0d dc 26 bc
       0.101475194 0.07582857 -0.13619496 -0.0101843
000100 d3 9a 05 bd 76 d1 d8 bd 25 bf eb 3d 85 74 dc bb
       -0.032618355 -0.105868265 0.11511067 -0.0067277574
000110 6c 3d cb bd 0a ce 20 be f7 50 42 3c 66 12 44 bd
       -0.09923825 -0.15703598 0.011860124 -0.04786911
000120 af f1 e7 bd 5c 05 dc bd ba 25 42 3d f4 bc fc 3d
       -0.11325394 -0.1074321 0.04739926 0.123407274
000130 50 c6 f3 3d fe fc 0e be ce 90 e0 3d 31 a7 3a bd
       0.119030595 -0.13963696 0.10965119 -0.045569602
000140 59 cd 2c be 58 89 53 bd 14 ac 3c bd 04 90 b4 3d
       -0.16875209 -0.051644653 -0.046062544 0.08816531
000150 ab 85 26 be a2 60 2a 3d 2b c5 c2 3d 9d b5 36 be
       -0.16261928 0.041596062 0.09510263 -0.17842717
000160 34 29 6e bd 05 6f 63 3d af 65 af 3d 98 2f 0c be
       -0.058144763 0.0555258 0.085643165 -0.1369003
000170 45 4c 33 3d fb 98 21 bd 10 f9 94 3c dd e2 d6 bd
       0.04377391 -0.039452534 0.018185169 -0.104924895
000180 cb 8c d2 bd 79 bc 9f bd 64 32 1a be bf fd 75 bd
       -0.102807604 -0.0779962 -0.15058285 -0.060056444
000190 d0 9b f8 3b 07 b2 ca bb 68 23 1f be 98 17 20 3e
       0.0075869337 -0.0061857733 -0.1554085 0.15634
0001a0 6a 2d f9 bd ea f4 9a 3d 14 d9 10 3e 62 f8 bd bd
       -0.12166865 0.07566245 0.14145309 -0.09275891
0001b0 34 ab e9 3d e1 b3 2e be 33 a1 b4 3d aa 9e ff bd
       0.114096075 -0.17060806 0.08819809 -0.12481435
0001c0 5c 7e 1f be 15 ef b7 bd 7b 63 38 be 6e 5b 28 be
       -0.15575546 -0.08981148 -0.18006699 -0.16441128
0001d0 1a 10 e2 bd e6 41 94 3c 94 01 f8 3c 86 0b 04 be
       -0.110382274 0.01809783 0.03027419 -0.12895021
0001e0 08 12 31 be 23 3b a5 3c 81 a8 91 3b 13 ad 08 3e
       -0.17292035 0.0201698 0.004445136 0.13347273
0001f0 4d 67 2c 3d 30 64 c7 3d 2b 4f 17 3e 71 8f da 3d
       0.042090703 0.09735906 0.14776294 0.106718905
000200 91 22 1b be c4 9a 8a bd a8 e7 40 bc 2f 64 8e 3d
       -0.15149905 -0.067678005 -0.011773981 0.06952702
000210 11 df 71 bc 2b 28 86 bd 6e 9a b1 3c 0d 8c 33 3e
       -0.014762656 -0.0655063 0.021680083 0.17533894
000220 90 f3 c8 3d 84 ad 0a 3e 75 ba 1a be d2 68 c4 3d
       0.09812081 0.13542753 -0.1511019 0.095903054
000230 4a 6a 9f bd 45 08 4e bd 7d 54 1d 3e 0c 82 63 bd
       -0.07783945 -0.050300855 0.15364261 -0.055543944
000240 24 04 92 3d ba 4f ca bc b5 c7 ac bd c4 3e 1d 3e
       0.07129696 -0.02469622 -0.084365286 0.15355974
000250 a5 97 ac bc 7d 6e 37 3e ff b0 29 be 1a cd 29 3e
       -0.021068403 0.17913242 -0.16571425 0.16582146
000260 bc 22 bf bd da 1a 1e 3e 10 1f ea bd 60 69 c9 bc
       -0.09332797 0.1543993 -0.11431706 -0.02458638
000270 cc 60 27 3e 26 80 8b bd c1 f0 2b 3e e0 8c 1e be
       0.16345519 -0.06811552 0.16791059 -0.15483427
000280 6f 16 1a be 9d c6 60 3d d5 53 b9 3c b6 8c b3 bd
       -0.1504762 0.054876912 0.022622982 -0.08767073
000290 f5 8b b1 bd 3d 0c a3 3c aa a7 e6 bd 2f 69 c3 bc
       -0.08669273 0.019903297 -0.11262448 -0.023853866
0002a0 d0 cf 8b bd 21 cd 97 3d 1f b4 c7 bd b0 dc 10 be
       -0.068267465 0.07412172 -0.09751152 -0.14146686
0002b0 6f cc c1 bd 9a a2 07 be 42 f5 1c bd 58 2b 26 3d
       -0.09462821 -0.13245621 -0.038319834 0.04056868
0002c0 37 f1 09 be 96 ee d5 3d d2 c0 06 be 0e 70 e3 3d
       -0.13470922 0.10445897 -0.13159493 0.11105357
0002d0 7d 91 25 bd 54 ee f8 3d 4e 5e ed 3d 2f 54 40 3d
       -0.04042195 0.121548325 0.11590253 0.046955284
0002e0 0f 46 6b 3a e7 43 05 bd c2 72 04 3e 6c 74 0e 3e
       0.0008974978 -0.03253546 0.12934402 0.13911599
0002f0 60 fb b5 3c cb e6 05 3e 8e 94 d7 bd 4c 15 38 be
       0.022214592 0.13076322 -0.105263814 -0.17976874
000300 9c da 04 3e 5a 47 96 3d 80 d8 bd ba 3a c1 04 3e
       0.12974018 0.07337828 -0.0014484078 0.12964335
000310 e7 85 1f 3e d7 95 c2 bd e9 35 0e 3e 36 76 82 3b
       0.15578423 -0.09501236 0.13887753 0.003981377
000320 a6 7c 25 3e e5 7f 15 3e f2 05 67 bd 49 68 ef 3d
       0.16160831 0.14599569 -0.056402154 0.11689813
000330 cc 83 48 bd ec c4 b5 bd 6b 79 07 be 80 fb f2 3d
       -0.048953816 -0.088754505 -0.13229911 0.11864376
000340 6e a6 4b bd 90 65 00 be 2c 97 3b be c0 50 26 3e
       -0.049719267 -0.12538743 -0.18319386 0.16241741
000350 97 63 fe 3b 67 60 7a 3d 95 2b f2 bc 86 0f a9 3d
       0.007763337 0.061127093 -0.029561797 0.08254914
000360 75 e4 88 bd e0 fb 1f 3e 1d dd 9c 3d 40 47 a0 3d
       -0.066842 0.15623426 0.076593615 0.0782609
000370 ec cd 30 be f0 aa 99 bc 94 c1 cc bd 1b 81 eb bd
       -0.17266053 -0.018758267 -0.099978596 -0.11499234
000380 f9 b0 f7 bd 20 9c c8 bd b3 6e c1 3c 2f 4d 10 3d
       -0.12094302 -0.097954035 0.023612356 0.035229858
000390 50 b6 8a bc bf be 13 be bb 2b 26 3e 7a 19 82 3d
       -0.016932636 -0.14428233 0.1622762 0.063525155
0003a0 fa f0 1b be ee dc 61 bd 5f 66 1b be cf cb d3 bd
       -0.15228644 -0.055142336 -0.1517577 -0.10341608
0003b0 11 1b e8 bd 9f 94 15 be a6 18 8d 3c 8a 7a ad bd
       -0.113332875 -0.14607476 0.017223667 -0.08470638
0003c0 58 c2 f1 3d cd f3 41 bd e4 14 89 bd cc 6f 0e 3e
       0.11804646 -0.047351647 -0.06693438 0.13909835
0003d0 71 82 04 be 75 f6 09 3e 0b 56 bc bd d1 3a e6 bd
       -0.12940384 0.13472922 -0.09196099 -0.11241687
0003e0 1f 93 75 bd df fa 13 3e 94 2a 90 3c a3 30 8d 3b
       -0.05995476 0.14451168 0.017598428 0.0043087765
0003f0 ed 8d 1e be d6 af c9 3d 56 4e 34 be ef 8a 94 3c
       -0.15483828 0.09847991 -0.17608008 0.018132655

gcn_branch.gat_layers.0.att_src f4 [1, 4, 16]
000000 2d 4b 2e be f6 90 44 be 13 1e 00 3f 6c 77 c9 be
       -0.17020865 -0.19195923 0.5004589 -0.39348924
000010 87 29 97 3e 3f 48 de bd 3c 45 9a 3e 76 4e a7 3d
       0.2952387 -0.108536236 0.30130947 0.08169262
000020 01 5f 8a 3e fa 36 2e be 50 40 5f 3e b4 ae 06 3f
       0.27025607 -0.1701316 0.21801877 0.52610326
000030 24 7c e1 be 4d c7 81 3e a7 08 a6 be 2f c2 9e be
       -0.44040024 0.25347367 -0.32428476 -0.31007525
000040 68 e2 d5 3e 56 21 cc be dc 21 13 be ce 1e c4 3e
       0.41774297 -0.39869183 -0.14368385 0.38304752
000050 24 04 1c be 01 c0 b7 bd 81 12 10 3e f0 e1 c2 bc
       -0.15235955 -0.08972169 0.14069559 -0.023789376
000060 cf 66 93 bd 82 37 25 bd 0b 4f 38 be d9 67 c6 3e
       -0.071973436 -0.04033614 -0.17998902 0.38751104
000070 7f 19 50 be 45 08 e1 be 63 80 e6 be 73 0d 3c be
       -0.20322226 -0.43951622 -0.45019826 -0.18364505
000080 e1 ea 0a 3f d5 b9 a6 be 6b 18 b8 be fc d8 8a be
       0.54264647 -0.32563654 -0.3595613 -0.2711867
000090 a2 99 97 be 17 56 3d 3c d9 7d f6 be f8 76 2d bc
       -0.296094 0.01155617 -0.4814289 -0.010587446
0000a0 d7 5b cf be c9 15 1e be 57 00 ea 3d 1e 4a 01 3f
       -0.40499756 -0.15437998 0.11425846 0.5050372
0000b0 ab bd 8d 3d a8 2b 0b be f6 e2 94 bd 11 aa 36 3e
       0.06920942 -0.13590872 -0.07269852 0.17838313
0000c0 f5 21 81 3e 44 8e b4 bd 4f 91 08 3f 86 4e f5 bd
       0.2522122 -0.088161975 0.53346723 -0.11977868
0000d0 3c 0b b8 be c3 f6 5b 3d be 6c a2 bd a1 1e 01 bf
       -0.3594607 0.053702127 -0.07930897 -0.5043736
0000e0 48 bb 72 bd 64 47 8f be 4a ef 91 be c6 75 b8 be
       -0.059260637 -0.27984154 -0.28502876 -0.36027354
0000f0 bd f3 ba 3e ef e5 c8 3e 32 37 00 bf bb 64 3a 3e
       0.36514083 0.39237925 -0.5008422 0.18202488

gcn_branch.gat_layers.0.att_dst f4 [1, 4, 16]
000000 07 e3 dc be f0 3b 6b 3e a9 84 f6 be cc a8 b7 3e
       -0.43141958 0.22972083 -0.48148087 0.3587097
000010 8e ce 21 bd 2a 1c 00 3f d1 fb 74 be 6e ea c3 be
       -0.039503627 0.50042975 -0.23924185 -0.38264793
000020 2d 23 31 be f6 1b 6e 3c fb 4a cb 3e 52 70 ef be
       -0.17298575 0.014533034 0.39705643 -0.4676538
000030 0b 46 f8 3e 7c ca 97 3d 7c 21 33 be 47 41 af bd
       0.4849094 0.07411668 -0.17493242 -0.085573725
000040 44 55 ac be 4f d9 06 bf 20 48 60 3e 01 76 b0 be
       -0.33658803 -0.52675337 0.21902514 -0.3446503
000050 55 27 2e 3e ab 1d 92 3e f7 c0 ca 3e 9f e0 88 3d
       0.17007191 0.2853826 0.39600345 0.06683468
000060 b5 76 cf be 06 c0 85 bd 2a 90 57 be db 06 03 3d
       -0.40520254 -0.06530766 -0.21051088 0.03198896
000070 cd 7c 0f 3e 76 fa e3 3d f0 a5 70 3d 86 b5 03 bf
       0.14012451 0.11131756 0.058752 -0.5144886
000080 46 1b 28 bd 8f 49 95 3e 17 cb 84 3e dd 2c 64 3c
       -0.041041635 0.29157683 0.25936195 0.013926712
000090 09 91 83 bc ad e0 12 3c 11 15 bf be ce 9d 1e bd
       -0.01606037 0.0089647 -0.3732076 -0.038724713
0000a0 6c 07 cd 3e bd 22 cf 3e 96 d8 1a 3e bb 2c 82 3d
       0.40044725 0.4045619 0.15121683 0.06356188
0000b0 e5 a3 49 be 12 29 92 be c4 5a 05 bf 69 34 ff 3e
       -0.19691427 -0.2854696 -0.5209162 0.49844673
0000c0 02 73 c1 bd 7d 2e 38 bd ad 40 70 be 0e f7 67 be
       -0.09445764 -0.04496621 -0.23462172 -0.22652838
0000d0 01 f9 19 be 29 5d 7e 3e 47 d6 fd 3d 82 a1 58 3e
       -0.15036394 0.24840225 0.12394386 0.2115536
0000e0 20 41 9f be a7 64 03 bf 06 5a 9a 3d d2 f2 fa 3e
       -0.31104374 -0.5132546 0.07536702 0.49013382
0000f0 7f 72 9b be ec fe 02 bf 8a da 01 bf 86 b8 4a be
       -0.3036079 -0.5117023 -0.5072409 -0.19796953

gcn_branch.gat_layers.0.bias f4 [64]
000000 ea a4 c6 3b 68 2e f5 bb cd ff f9 bc c2 df 00 bc
       0.0060621398 -0.0074823387 -0.030517483 -0.007865848
000010 c5 66 5e 3b 51 01 51 bc 8a 60 63 bc 04 d2 0f bc
       0.0033935767 -0.0127566615 -0.013877997 -0.008778099
000020 63 1b c7 3c cd 54 be bb e0 2b 7d bc ae 80 40 3c
       0.024305051 -0.005808449 -0.015452355 0.01174943
000030 c1 f8 04 bc 8d 74 82 3b 05 d2 0d bd 07 a3 31 bc
       -0.008115948 0.003981179 -0.03462412 -0.010842091
000040 b9 fe 64 3c db 48 35 bc bf 10 de bc 23 98 d0 bc
       0.013976746 -0.011064733 -0.027107595 -0.02546317
000050 44 8e 29 bc da 78 3a 3c f3 50 0e 3c 15 d9 87 bc
       -0.01034886 0.011381352 0.008686292 -0.016583005
000060 10 48 c6 bb 69 65 04 3b 37 ce 66 3b c9 97 a9 bc
       -0.006051071 0.0020202047 0.0035218128 -0.02070226
000070 7c 59 19 3c 63 68 3c bc 16 5a e3 bb 2d f3 56 bb
       0.009359714 -0.011499497 -0.0069382293 -0.0032798753
000080 2c 91 06 ba ed e4 87 3b f5 25 25 bc e8 48 d2 3c
       -0.00051333266 0.004147163 -0.01007985 0.02566953
000090 26 bd 9c 3b 32 a7 e0 3b 81 f7 e9 bc 19 c8 08 bc
       0.0047832904 0.0068558687 -0.028560402 -0.008348488
0000a0 b9 da f2 3b 58 fe b1 bb 66 c6 65 bc e1 30 b5 3c
       0.0074113277 -0.0054319315 -0.014024353 0.022118034
0000b0 6c a7 11 bc 14 10 d3 3b 65 2c 62 3c ad d5 ff 3a
       -0.008890014 0.0064411256 0.01380453 0.0019518636
0000c0 5b f2 15 3c dc 86 ab 38 c9 2b 73 bc b7 4d 51 bc
       0.00915202 8.179035e-05 -0.014841982 -0.012774876
0000d0 f7 8c ee 3b 30 e0 b9 3b fb 9c 45 bc 2e 7a ac bc
       0.007279988 0.005672477 -0.012061353 -0.021054354
0000e0 7b d9 c3 bc 85 0f a6 bc df 5a 80 3c 7c 52 92 3b
       -0.023907414 -0.020271072 0.01566833 0.0044653993
0000f0 2c 68 bb 3b ac f7 01 b9 61 95 db ba bd 60 12 bc
       0.0057192054 -0.00012394664 -0.0016752892 -0.008934197

gcn_branch.gat_layers.0.lin.weight f4 [64, 64]
000000 27 3d f5 3d c8 07 56 bd aa 57 a2 bd 6c 31 c3 bd
       0.119745545 -0.052253515 -0.07926877 -0.09530911
000010 7e 4e 4c be 4a c0 6a bb a1 7c 10 be 61 3e 62 bd
       -0.19951817 -0.003582018 -0.14110042 -0.05523527
000020 96 39 46 3e f0 76 58 3c 83 fe d9 bd e0 58 5f bd
       0.19357905 0.013211951 -0.106442474 -0.054528117
000030 2d c2 c2 3d 8d fc 1b 3e a0 0d 3d be 23 2c 3b 3c
       0.09509692 0.15233059 -0.18462229 0.011424097
000040 52 42 17 3e a5 cd 2d be 28 30 9b 3d e7 5a 0c 3d
       0.14771393 -0.16972978 0.075775445 0.03426638
000050 7c 45 3f 3d e0 66 ee bc e0 8a b6 bd 72 e6 36 3e
       0.046697125 -0.029101789 -0.08913207 0.17861345
000060 83 f6 cc 3c f4 26 55 3e 2c ef b1 3c 35 0c 8a 3d
       0.02501989 0.2081564 0.021720491 0.067406096
000070 1b 00 34 3e 5a fb 1d 3b 57 51 36 be ec cf 14 3b
       0.17578165 0.0024106116 -0.17804466 0.002270694
000080 e3 29 f5 bd f8 11 12 3c 8c 60 1c bd 22 dd ca 3d
       -0.1197088 0.008915417 -0.03817801 0.09905459
000090 e6 00 b4 3d db 9d bc 3d 39 83 e9 bd 7c 95 7b 3d
       0.08789234 0.09209796 -0.11401982 0.061421856
0000a0 b0 d6 5a bd 15 e9 3f bd d5 f7 4c 3e de fd ab bd
       -0.0534274 -0.046853144 0.20016415 -0.08398031
0000b0 0f 09 21 3d 25 82 48 be 08 59 17 3e 23 fe d5 3d
       0.03931528 -0.19580896 0.14780056 0.10448863
0000c0 5f 12 03 be 18 30 2b be 1e 64 0c 3e 03 b7 d4 bd
       -0.12799977 -0.16717565 0.13710067 -0.10386469
0000d0 6b c4 bc bb fd a1 2a be 71 c8 54 3e 04 0c 49 3e
       -0.0057607195 -0.16663356 0.20779587 0.1963349
0000e0 b5 4f 3a be 8a bd a6 3d 18 b2 88 bd 5d 1b 37 3e
       -0.18194468 0.081416205 -0.06674594 0.17881532
0000f0 0e 21 de 3d b4 9c d8 bd ae f4 9f bd 71 e4 24 bd
       0.108461484 -0.10576764 -0.07810341 -0.04025692
000100 de f8 05 be 38 67 0f bd 4c 10 10 bd 8a 4f 11 be
       -0.13083217 -0.035010546 -0.035171792 -0.14190498
000110 3c 43 05 3e 2b c8 2b 3e f6 63 b3 3d e7 bb 57 be
       0.13013929 0.16775577 0.087593004 -0.21067773
000120 08 6c 27 3e 64 1f 23 bd 18 ab 96 bc 31 a5 dd 3d
       0.16349804 -0.03982486 -0.01839213 0.108225234
000130 fd 3d 44 3d e0 f1 a9 3b e9 08 36 3e 50 14 e6 bd
       0.04791068 0.0051863045 0.17776836 -0.11234343
000140 fa aa 4d be 60 dd e6 bc 9e 97 5c be a2 58 35 be
       -0.20084754 -0.028181732 -0.21542212 -0.17709592
000150 25 70 2b be 4f 81 86 bd c6 17 f1 3d b9 2c f0 3d
       -0.16741998 -0.065676324 0.117721125 0.1172728
000160 c2 17 1a 3e 66 51 41 3e 47 f2 f8 3d 98 ca c1 3d
       0.15048125 0.18878707 0.12155586 0.0946247
000170 1f dd df bd 34 14 d3 bd aa cb f7 bc 24 f5 28 be
       -0.109308474 -0.10306588 -0.030248482 -0.16499764
000180 78 ae 03 3d 92 21 05 be d3 32 f9 3d 4f cb 1d be
       0.03214881 -0.13001087 0.12167897 -0.15409587
000190 7f 72 14 3e 75 d8 68 3c 37 2d a1 bd e2 e3 c2 3d
       0.14496802 0.014211764 -0.07869952 0.095161214
0001a0 8f 0b 2a 3e b2 98 50 3c 3a c9 23 be 08 16 de bd
       0.16605972 0.012731718 -0.1599473 -0.10844046
0001b0 62 7c 1c be 40 ff 8f 3d e7 70 a2 bd 9e f8 e5 3d
       -0.15281823 0.07031107 -0.07931691 0.112290606
0001c0 c2 d9 0f be c3 b5 4a be 95 d2 63 be 90 a5 01 bc
       -0.14047912 -0.19795899 -0.222483 -0.007913008
0001d0 27 57 2b 3d 81 05 3d 3e d1 73 0b 3e 71 01 d0 3d
       0.04183116 0.18459131 0.13618399 0.10156525
0001e0 34 d7 15 3d 88 d0 e3 3c 80 74 1f bb 01 98 43 3d
       0.036582187 0.027809396 -0.0024330914 0.047752384
0001f0 78 dc 89 3d 0e 41 f2 3d 6b e9 2e 3d 11 dc c6 3d
       0.06731504 0.118288144 0.042703073 0.09709943
000200 db 0e ac 3c 8d 14 59 3e a9 d1 e2 3c a5 f8 02 3e
       0.021003177 0.21199246 0.027687864 0.12790163
000210 27 d1 fc 3c 11 a1 e5 bd 8e ba 3c be c2 a9 c4 bd
       0.03086145 -0.112123616 -0.1843054 -0.09602691
000220 cb 30 b9 bc 52 12 d2 3d c6 9b 99 bd 9f 85 37 3e
       -0.022606274 0.102574006 -0.075004146 0.17922066
000230 86 67 a7 bc be 2b 83 bd 5d 08 06 3e 4d 2d 5f 3d
       -0.020435106 -0.064048275 0.13089128 0.05448656
000240 0d 15 a0 3d be e1 85 bd b8 3b 12 3e 9e 1c 0e 3e
       0.07816515 -0.065371975 0.14280593 0.13878104
000250 4c fc b8 bd 0f 3c 01 be 50 1a 1c be 98 c3 fd 3d
       -0.09032497 -0.12620567 -0.15244412 0.12390822
000260 f6 b6 b0 3d de ab a5 3d e3 14 27 3e d4 bd 6b 3d
       0.08628647 0.08089422 0.16316561 0.05755408
000270 c2 84 f5 bc 77 d2 fe bd fe b8 3f 3e 93 84 ee 3d
       -0.02997053 -0.12442487 0.18722913 0.1164638
000280 3f 8d 3a 3e 32 53 71 be 90 fa db bd 00 82 f9 39
       0.18217944 -0.23566893 -0.107411504 0.00047589839
000290 c1 96 f6 bd bf cb 0b 3b a3 09 55 be 02 3d a5 3d
       -0.12040473 0.002133116 -0.20804457 0.08068277
0002a0 4e 36 96 bd d8 7c 2a 3e 0b 40 1c 3e e3 05 10 3e
       -0.073345765 0.16649187 0.15258805 0.14064746
0002b0 b4 f7 58 3d df 0c c5 3d da 84 04 3d 9a c7 11 bd
       0.052970603 0.096215956 0.03235326 -0.035590746
0002c0 c7 2d e2 bd 6d 1f 9a 3c 23 b9 50 be 63 a3 27 be
       -0.110438876 0.018813813 -0.20383124 -0.16370921
0002d0 2d 25 0a be e8 c0 6e bd e8 6a 9d bd 5c 91 0d 3d
       -0.13490744 -0.05828944 -0.076864064 0.034562454
0002e0 14 99 30 3e 5c 41 4e 3d 8c fd 39 3d 6b c2 2a 3e
       0.17245895 0.0503553 0.045407817 0.16675727
0002f0 6d c1 5e bd 6b ac 2f 3e ab dd 68 bd 4d fa d0 bd
       -0.054383684 0.17155616 -0.056852024 -0.10203991
000300 39 66 c7 bd 2a 92 fb 3d cc c9 2c be c0 2e c1 3c
       -0.09736294 0.12283738 -0.16873854 0.023581862
000310 e9 e5 20 be ed b8 a3 bd f0 9a c3 bd 87 b5 75 3d
       -0.15712704 -0.07994256 -0.09551036 0.05998757
000320 a7 46 44 bd 1a 70 4e be 59 fa 10 3e 11 34 5c be
       -0.04791894 -0.20159951 0.14158 -0.21504237
000330 eb 75 39 3e 3c cd 38 be 19 a9 b2 3d c7 de 57 be
       0.18111388 -0.1804704 0.08723659 -0.21081077
000340 cf 7d bf bd ba f3 b2 bd 21 71 c7 bd 5a 1b 35 be
       -0.09350168 -0.087378934 -0.097383745 -0.17686215
000350 e4 90 14 bd 8b 3c 79 3d 19 2e 4a 3e 55 3b 95 3d
       -0.03627099 0.060848754 0.19744147 0.07286707
000360 30 3c 9d bd 37 3f 33 be 33 b9 44 be 6a 47 10 3e
       -0.076774955 -0.17504583 -0.19211273 0.14089742
000370 42 f5 21 3e f7 16 c2 bd 29 8a ca bd 39 ea 26 be
       0.15816215 -0.094770364 -0.09889633 -0.16300286
000380 92 d7 06 be ca 64 db bc 54 32 4b 3e fb 0e 39 3e
       -0.13168171 -0.026781458 0.19843417 0.18072121
000390 72 23 1d 3e d2 af a2 3d 6f ff 3b 3e b2 3d 4b be
       0.15345553 0.07943691 0.18359159 -0.19847754
0003a0 ab a3 0a 3e ad 66 92 bd 57 85 1f be 9b 69 93 3d
       0.13538997 -0.0714849 -0.15578209 0.07197877
0003b0 96 d8 c7 bd 8d 16 76 3d c0 2a 8b 3d 70 5b f6 bd
       -0.09758107 0.0600801 0.06795263 -0.12029159
0003c0 21 d6 b2 bd 9f e0 47 3e bb 5f a1 3d 0a 4d 39 be
       -0.08732248 0.1951928 0.07879587 -0.18095794
0003d0 0d d7 16 be d4 8a 95 bd 62 0d fa 3d f8 64 f7 3d
       -0.14730473 -0.0730187 0.12209584 0.12079805
0003e0 19 1e 84 3d 30 31 0c be 2e 73 8b bd 5a 95 3c be
       0.06451053 -0.13690639 -0.06809078 -0.18416348
0003f0 e3 15 aa bd 61 27 01 3e 98 15 75 3d 17 80 53 3d
       -0.08304956 0.12612678 0.059835047 0.051635828

gcn_branch.gat_layers.1.att_src f4 [1, 4, 32]
000000 97 a9 e5 bd cd 35 b5 3e 84 31 9c be ae be 5a 3e
       -0.11213987 0.3539261 -0.30506527 0.21361801
000010 b0 16 c1 3e 88 72 85 be 2a 13 2f bd e7 77 c0 3e
       0.37712622 -0.26063943 -0.042742886 0.37591478
000020 ae c0 04 3e 3f 05 c6 3e 9c f4 e0 3d 36 21 ce 3e
       0.12964126 0.38675877 0.109841555 0.40259713
000030 30 be 13 3e ed 44 d9 bd bf d1 a1 3d 86 65 fd bd
       0.1442802 -0.1060885 0.07901334 -0.1237288
000040 7b 0e b3 3e a6 be c4 3e b9 2f b3 be 0b e0 1b 3e
       0.34971985 0.38426703 -0.34997347 0.15222184
000050 fd 1e 11 3d b2 f9 9b 3e 66 de 84 3e b4 60 80 3e
       0.035429943 0.3046394 0.25950927 0.2507378
000060 3b 4a f5 3d a2 0a a1 be 28 80 0a bd 65 39 5b be
       0.11977049 -0.31453425 -0.033813626 -0.21408613
000070 4e c7 1e 3e d9 90 d0 3e 0e 26 8b 3d df c3 c0 3e
       0.15505716 0.4073551 0.06794368 0.37649438
000080 6b b1 9a 3e 21 1b bd 3e b4 41 09 3e 9d 88 a6 3e
       0.30213484 0.3693476 0.1340397 0.32526103
000090 23 0c a6 3e fc 7d 6b be 34 a1 4d be ea 09 a5 be
       0.32431135 -0.22997278 -0.20081025 -0.32234126
0000a0 00 28 d7 3e 4b ae b6 be f3 1c 27 be f0 5b 67 be
       0.42022705 -0.3567985 -0.16319637 -0.22593665
0000b0 17 8d 04 3e 6b e3 bd be 37 dd 6e bd 6a 82 75 be
       0.12944447 -0.3708757 -0.058316436 -0.2397553
0000c0 d4 1e 92 3e 55 89 4d 3d 60 5e c7 3e 9d 53 92 3d
       0.28539145 0.0501798 0.3893919 0.07144854
0000d0 3b 1d 28 be fe e9 a2 be fa 9b 86 be 48 aa bf be
       -0.164174 -0.31819147 -0.26290876 -0.37434602
0000e0 eb 3c 82 be 00 b5 11 3e 88 9a a9 be 20 5d 83 3e
       -0.25437102 0.14229202 -0.3312571 0.25656986
0000f0 99 0d 50 bd c6 1b 73 3e ba 6c 40 3e 6c 90 c8 be
       -0.050794218 0.23741063 0.18791476 -0.39172685
000100 00 b1 1b be 18 46 58 be 18 e5 ce 3c 24 cf 73 be
       -0.15204239 -0.21120489 0.025255725 -0.23809487
000110 9d ec 0c be 7d 65 d9 bd 8e 7c 72 3e e1 e0 43 3e
       -0.13762136 -0.106150605 0.23680326 0.19128753
000120 ef 49 26 be e8 6a 03 3e 65 1d 34 bd 52 7d cd ba
       -0.16239141 0.1283375 -0.043973345 -0.0015677607
000130 af ea 87 3e cb 53 2f 3e 0d ba be ba 8d e1 8d 3d
       0.26546237 0.17121808 -0.0014551297 0.06927786
000140 5b cc 8b be 9c 42 3c 3e 1b fb 88 3e cf c5 5f be
       -0.27304348 0.18384784 0.26754078 -0.21852802
000150 48 7c b0 be 1b 95 60 3e 26 aa be be 4f ca 48 3e
       -0.3446982 0.21931879 -0.37239188 0.19608425
000160 31 91 69 be 42 b4 0d 3e c2 e3 8a 3e 68 f7 0c be
       -0.22809292 0.13838294 0.2712689 -0.13766253
000170 3b 14 94 3e dc 5a a6 be 61 96 c4 be 52 0c 91 3e
       0.28921685 -0.32491195 -0.3839598 0.28329712
000180 03 4a fd bd cc 05 a6 bc 9c 2c b5 3e 48 10 1c 3e
       -0.12367632 -0.020266436 0.35385597 0.15240586
000190 13 76 83 bd 94 1a 58 bd 48 9e 0b be 09 61 43 3e
       -0.06419005 -0.052759722 -0.13634598 0.19079985
0001a0 0e a4 7c bc 19 8b aa bd 61 92 e2 3d f8 3a c1 be
       -0.015419973 -0.08327312 0.11063076 -0.37740302
0001b0 18 d3 a8 3e 2d dc 2a 3e e0 3d 24 be b1 23 76 be
       0.32973552 0.16685553 -0.16039228 -0.24037053
0001c0 49 99 be 3d 71 74 88 be b3 34 04 3d fc b5 68 3e
       0.093065806 -0.26651338 0.03227682 0.22725672
0001d0 cd c7 49 be f7 4c 91 3e 22 69 8a 3d 8f ea 06 bd
       -0.19705124 0.28379032 0.06758334 -0.032938536
0001e0 dc 18 8c 3e 5f 17 1a 3e a4 37 b8 3e 9d 16 93 3e
       0.27362716 0.15047978 0.3597995 0.2872819
0001f0 1d 06 c5 be 8f 3e 94 be 3d a8 85 bd f6 48 91 be
       -0.38481227 -0.28953978 -0.065262295 -0.28375977

gcn_branch.gat_layers.1.att_dst f4 [1, 4, 32]
000000 6e c0 03 be 6f 76 5a be 73 00 0f be 94 1f 45 3e
       -0.12866375 -0.21334241 -0.13965015 0.19250327
000010 57 20 70 3d b8 59 53 be 00 28 82 be 2c f6 bb be
       0.05862459 -0.20639694 -0.25421143 -0.36711252
000020 9b ee 16 be 2b 4d 29 3e d2 f7 88 3e 73 03 88 be
       -0.14739458 0.16533343 0.26751572 -0.26565132
000030 36 ae 45 3b 5e 21 97 3e 9b 9c 18 be 0d d0 e7 bd
       0.0030163652 0.29517645 -0.1490349 -0.113189794
000040 e7 6c 46 3e 16 e9 74 be 9e a9 0e 3c 32 26 f3 bc
       0.1937748 -0.2391704 0.008707432 -0.029681299
000050 d5 5d 57 be 00 21 a7 3e 0d ad f5 3b c6 d9 88 be
       -0.21031888 0.32642365 0.007497436 -0.26728648
000060 67 fb 80 3e 7a 66 86 3e 02 66 b9 3e d9 91 6a be
       0.25191805 0.26250058 0.36210638 -0.22907199
000070 fa a2 2e 3d 97 c0 a7 3d 02 f2 26 3e a3 9b b6 be
       0.042635895 0.081910305 0.16303256 -0.35665616
000080 cd a2 48 3e e4 40 cc be 37 12 76 3e 5e 9f 18 be
       0.19593354 -0.39893258 0.24030386 -0.14904544
000090 85 f5 a3 3e e9 9e ac be bc 68 96 be bb 6f 83 3e
       0.32023254 -0.3371499 -0.2937678 0.2567118
0000a0 b5 f7 b2 3e 19 ca 56 3e ea 24 9d be af e3 b7 be
       0.3495461 0.20975532 -0.30692226 -0.35915896
0000b0 d9 d6 5b 3c 3b 4a a1 3e 9d 37 d0 3e 50 ed a6 be
       0.013417923 0.31501946 0.4066743 -0.3260293
0000c0 0a 7d b3 be 16 99 f9 3d ca 48 6a be d5 f4 b6 3e
       -0.35056335 0.12187402 -0.2287933 0.35733667
0000d0 42 6a ca bd e9 7c 50 3e 1d 13 15 3e 0e 28 8a be
       -0.09883548 0.2036015 0.14558072 -0.26983684
0000e0 9b eb c8 be d8 0b 55 3e 20 91 b2 3e c3 ba ce 3d
       -0.39242253 0.208053 0.34876347 0.10094216
0000f0 1c 2b af be f9 34 31 3e 2a 81 bd bd 9e 05 00 be
       -0.34212577 0.17305364 -0.09253152 -0.12502143
000100 e0 3d 9c 3e 73 24 b7 be ec 4c 64 bd 27 f9 06 3e
       0.30515957 -0.35769996 -0.05573742 0.13180982
000110 30 9d 9a be a4 21 80 be b4 5a 9e 3d f5 6a 20 be
       -0.3019805 -0.25025666 0.07732144 -0.15665801
000120 f1 c9 af be 86 35 ad be 68 1d 2c be ed 64 a2 bd
       -0.34333757 -0.33829898 -0.16808093 -0.07929406
000130 5b c4 6f 3e d7 4d 54 bd 52 ee 3b be a3 15 9e bd
       0.23414747 -0.051832046 -0.1835263 -0.077189706
000140 e9 68 be 3e dd 5e b2 be 17 1e b3 3d 34 48 b3 bd
       0.37189415 -0.34838 0.087459736 -0.08754006
000150 15 b1 c6 3e d5 4b 2f bd b7 be 81 be fe b4 25 3e
       0.38806978 -0.04279693 -0.25340816 0.16182324
000160 b0 33 4a 3d b4 94 53 be 15 33 b7 3d b2 ca 86 3e
       0.0493657 -0.20662194 0.0894529 0.2632652
000170 a4 84 64 3e df ae 8e 3d 4c 05 f8 bd 64 fd 87 3e
       0.22316223 0.06966948 -0.12110385 0.2656051
000180 4c 1b 31 be 04 dc 6c 3e f2 7f f2 3c 27 7a 3a 3e
       -0.17295569 0.23130804 0.029602025 0.1821066
000190 65 43 b6 3e 90 e4 89 bd 68 a8 4c 3e 10 77 e5 bd
       0.35598293 -0.06733048 0.19986117 -0.1120435
0001a0 65 f3 e9 bd ee 14 2c be 16 30 cd 3e 27 17 bc 3e
       -0.11423377 -0.16804859 0.4007575 0.36736414
0001b0 7b 73 b6 3e b5 01 41 be e1 3d fb bd eb 04 b3 3d
       0.3563498 -0.18848307 -0.12267662 0.087411724
0001c0 b6 27 94 3e c9 a8 ca bc 17 d9 0c 3d a2 09 22 be
       0.28936547 -0.024738686 0.03438672 -0.15823987
0001d0 11 2a e6 bd 91 15 21 be 1c e6 56 3e f1 9b c6 3b
       -0.11238492 -0.15730883 0.20986217 0.00606107
0001e0 9d 54 ca be 74 65 5f bb 05 8f 13 3c ff 42 31 be
       -0.3951768 -0.003408757 0.0090062665 -0.17310713
0001f0 4f 63 a7 be 2b 69 14 be c2 87 35 3d a5 f2 a3 be
       -0.32692954 -0.14493243 0.044318922 -0.3202106

gcn_branch.gat_layers.1.bias f4 [128]
000000 6b a6 9b 3b 41 b5 a7 bb c1 74 92 3c b0 1f 12 ba
       0.004750063 -0.0051180427 0.017877938 -0.000557418
000010 00 83 0a bc 9a 25 85 bc ee 65 46 ba 69 93 83 3c
       -0.008454084 -0.016253281 -0.00075682893 0.016061502
000020 9e 75 de bb 0a 35 d3 3b 4a 68 24 bb 81 cf 1e 3c
       -0.0067889234 0.0064455317 -0.0025086575 0.0096930275
000030 de 82 f7 3a de 7d 81 bc d5 96 85 bb 88 78 90 b9
       0.0018883606 -0.015807088 -0.0040768185 -0.00027555623
000040 d6 f3 00 3b f4 6f 63 3b 11 7f 88 bb 2d 41 33 3c
       0.0019676588 0.003470418 -0.004165538 0.010940832
000050 75 9d ac bb cc 8f c9 bb 7a 95 f1 3a 1a 3b 82 bb
       -0.005267794 -0.006151175 0.0018431388 -0.0039743306
000060 d2 07 ad 3a 70 e0 90 3b d3 4c a8 3b 81 49 86 bc
       0.0013201183 0.0044212863 0.0051361113 -0.016392471
000070 64 b4 83 bb 1c 79 8d 3b 1c e3 04 bc e7 bf 03 bc
       -0.004019307 0.004317416 -0.008110788 -0.008041359
000080 cf ac fa bb 99 af 89 bc a9 2c 87 3c cf 72 f1 3a
       -0.007649995 -0.016807364 0.016500788 0.0018421056
000090 c7 7a 16 3c 74 04 4d ba 67 09 8b bc 58 d3 1e bc
       0.009184546 -0.0007820793 -0.016972257 -0.009693943
0000a0 2f b6 04 bc ea e9 3b bb d8 ca 8a 3b d8 67 b4 bb
       -0.008100077 -0.002867336 0.0042356066 -0.005505543
0000b0 d9 a5 8d 3b ad b0 bd bb 74 ff b0 3b 81 8b 8b ba
       0.004322749 -0.0057888837 0.005401546 -0.0010646434
0000c0 38 df 1e 3c a1 ba dd bb 45 7c 95 3c 0e ca 8e b9
       0.009696774 -0.0067666327 0.018247733 -0.00027234893
0000d0 ff f8 9e bc 71 63 01 bb 07 d8 42 bc 06 a9 7e 3c
       -0.01940584 -0.001974311 -0.011892325 0.015543228
0000e0 61 fc a6 3b d3 fd 55 bb 42 30 6b bb 8d a9 e6 38
       0.005096004 -0.0032652512 -0.0035886918 0.00010998836
0000f0 2a de 94 bb c9 5a 7d 39 bc 72 1c 3c 9e e3 56 bc
       -0.0045430856 0.0002416178 0.009548839 -0.013115792
000100 99 d1 32 bc 63 2f 96 3b 1a 2d b0 bb d6 39 0c bc
       -0.01091423 0.0045832857 -0.0053764703 -0.008558711
000110 f4 4a 0d bb bf 82 10 bb fd d1 dd 3b 9a 7e 73 bc
       -0.0021559568 -0.0022050587 0.0067694173 -0.014861727
000120 6c a9 7c bb a0 79 6d bc 3e da 06 3b d3 c4 14 bc
       -0.0038553132 -0.01449433 0.002057686 -0.00908013
000130 cf 1b 9f bb 78 47 15 bc f0 c7 74 3a 42 54 ee 3c
       -0.00485561 -0.009111278 0.00093376543 0.029092912
000140 8f 05 cc bb 72 a7 2a 3c ae 26 18 3b 7c c3 26 3c
       -0.0062262486 0.010415899 0.0023216414 0.010178443
000150 bd 51 2e bc 3c 9f 83 3b ec 1d 9f bb 32 04 6a bc
       -0.010639605 0.004016785 -0.004855862 -0.014283227
000160 69 75 92 3c 2b 25 f2 3b 38 62 2f 3c 4d 98 a5 3a
       0.017878251 0.0073896847 0.0107045695 0.001263389
000170 b4 1b e8 bc c7 ca 61 3b 0c 93 a0 38 24 20 0c bc
       -0.028333522 0.003445314 7.656784e-05 -0.008552585
000180 87 56 19 bc 30 c4 34 ba cb 8f 48 bc 91 5c 6a 3b
       -0.009359009 -0.00068956893 -0.012241314 0.003576074
000190 33 84 f9 3a 57 fc e3 39 77 77 71 bb 5f 59 6e bb
       0.0019036591 0.00043484822 -0.0036844888 -0.0036369187
0001a0 2a 09 00 bb 2d fa 4c bc 48 91 a9 3b fe fb 3b bc
       -0.0019536712 -0.012510818 0.0051747896 -0.011473654
0001b0 e7 f4 8b bb 8d 2e 59 bc 5e dc 86 bc 03 e0 b5 3c
       -0.004271138 -0.0132557275 -0.016462501 0.022201544
0001c0 90 07 e1 3b 1c c8 92 3a 1f ac 89 bb 32 37 25 bb
       0.0068673566 0.0011198553 -0.0042014266 -0.00252099
0001d0 e0 b5 bd bb b4 d1 9f bb 65 c1 1b 3c 24 9f b4 bc
       -0.0057895035 -0.0048772935 0.009506558 -0.02204854
0001e0 39 06 d0 3b 5e 3d 0a 3c e7 95 c3 3b ea 53 40 3b
       0.006348398 0.008437483 0.0059687975 0.0029346892
0001f0 2b 76 96 bb 58 01 2c bc 3e 6b 51 bc 26 a3 d0 ba
       -0.0045917234 -0.010498367 -0.012781916 -0.0015917763

gcn_branch.gat_layers.1.lin.weight f4 [128, 128]
000000 ec 0e ab bd a3 a3 f4 bc a3 e4 ef bd 6f b9 ca bd
       -0.083524555 -0.029863184 -0.11713531 -0.0989865
000010 2e 6b 12 3d 08 b7 10 3d a4 c6 eb bd 87 bd c1 3d
       0.035746746 0.035330802 -0.11512497 0.094599776
000020 4e 34 a6 3d f5 1c 09 bc a4 03 fd 3d 11 07 1a bd
       0.08115445 -0.00836872 0.1235421 -0.037604395
000030 82 2c cd 3d 9a 4c 16 be 91 70 aa bd c7 7d a9 3c
       0.10018255 -0.14677659 -0.083222516 0.020689858
000040 bd c2 84 3c 3f 4e eb bd 75 20 f8 bc b3 8f a4 3c
       0.01620614 -0.11489534 -0.030288914 0.020088052
000050 03 92 3f bd 72 2e 94 bd ba d5 a6 bd 82 68 df bc
       -0.046770107 -0.07235421 -0.08146234 -0.027271513
000060 9c 7e 39 3d 4b 32 36 3c 4e 22 c4 bc 51 5b dd bb
       0.04528676 0.011120389 -0.023942139 -0.0067552705
000070 a3 03 e3 bc 86 97 f4 bb 57 25 02 be 87 89 0b be
       -0.027711695 -0.007464352 -0.12709557 -0.13626681
000080 2f 40 a0 bd 5a 54 07 be 48 d7 0c 3e 49 91 8e 3d
       -0.07824742 -0.13215771 0.13753998 0.06961305
000090 80 f1 58 bc 5a dc a5 bd 7e 9f 0d be 6c c7 a4 bd
       -0.013241172 -0.08098669 -0.13830373 -0.08045849
0000a0 c4 bf d1 3b 0e d0 02 3e 2c 65 db 3d 9f 80 5c bd
       0.006401034 0.12774679 0.107126564 -0.0538336
0000b0 c7 c5 b3 3d ad 7d 06 3e 79 8c 8b 3d 49 d9 e8 bc
       0.087779574 0.13133879 0.068139024 -0.028423922
0000c0 79 9d c9 bd af 42 c0 3d 34 c6 b0 3c 7f 71 2f 3e
       -0.09844489 0.09387719 0.021578886 0.17133139
0000d0 e8 70 01 be 62 bb 27 3e 86 56 43 bc 62 65 90 bd
       -0.12640727 0.16380075 -0.011922484 -0.07050587
0000e0 e7 fb 78 bd d2 a8 a6 3d 8f e6 f7 3d f7 eb 99 bd
       -0.060787108 0.08137669 0.121045224 -0.0751571
0000f0 2c 3d 14 be 44 30 0b be a0 c4 90 bd d7 78 37 3c
       -0.1447646 -0.1359263 -0.07068753 0.011198244
000100 bc 43 99 3b 8d 77 b7 3d 17 42 26 ba d1 30 17 be
       0.004677264 0.089583494 -0.00063422456 -0.14764716
000110 a1 9d 1b bd 0c 1f f3 3d 28 85 fe 3d 73 ab e9 bd
       -0.037992124 0.11871156 0.12427741 -0.114096545
000120 b3 65 6e bd 5a 8b 87 bd 51 53 47 3c a3 24 56 3d
       -0.058202457 -0.06618376 0.01216586 0.052281033
000130 3a e1 13 3e 39 c5 70 3d eb e5 80 bb f9 d0 d9 bd
       0.14441386 0.058781836 -0.0039336584 -0.106355615
000140 f3 6d 81 bd c7 80 a0 bd e1 5e d1 bd 28 5c 72 bc
       -0.06319799 -0.07837062 -0.10223175 -0.01479248
000150 08 c0 b5 bd 43 35 3c be 4b 38 36 bc 4a fb 9a bd
       -0.08874518 -0.18379693 -0.01112182 -0.07567461
000160 ba 6f 1a 3c d2 61 e3 bc ba f8 bf bd da 62 5e 3d
       0.009426052 -0.027756605 -0.09373613 0.05429349
000170 df d9 52 3c dc 2e 10 3e e2 3a 5c 3c c1 bd cf 3c
       0.012869327 0.14080375 0.013441773 0.025359036
000180 75 4c 25 3d 01 f6 7a bd 36 53 b2 3d 41 75 03 3e
       0.04035612 -0.061269764 0.087072775 0.12837698
000190 15 96 bc 3d 0f 90 56 bd 72 c8 64 3d 62 d4 dd 3d
       0.092083134 -0.05238348 0.055855222 0.108315244
0001a0 97 5f cc bd a5 de 05 be 83 c4 1f bd eb b2 c7 bd
       -0.0997917 -0.13073213 -0.039005768 -0.09750923
0001b0 36 1c 60 3d 60 21 ce bd 36 99 fe bd 86 22 e7 3c
       0.054714404 -0.100649595 -0.124315664 0.028214704
0001c0 d3 10 0f bd cd 9a c2 bd 88 dc a5 3b a7 08 bb bd
       -0.034928154 -0.09502182 0.0050616898 -0.0913251
0001d0 5d 59 03 3e 94 84 18 3e 7b 0e ae 3c 31 83 4d bd
       0.12827058 0.14894325 0.02124714 -0.050173942
0001e0 ef e0 20 bd b4 df 19 3e 05 fb 48 3a d8 bf 0f bd
       -0.039277013 0.15026742 0.00076667994 -0.035095066
0001f0 fe 6e 1d 3e dc c4 f3 3d df b8 6e 3b ad 3d 0d 3e
       0.15374371 0.11902782 0.003642611 0.13793059
000200 f6 5f 11 3e ca 52 bd 3d 77 b4 91 b9 a1 87 08 be
       0.14196762 0.092443064 -0.00027791012 -0.13332988
000210 17 80 41 bd 7f 5d 8e bd 43 6b 11 be 4f a8 14 be
       -0.047241297 -0.06951427 -0.14201073 -0.1451733
000220 4d 9b 01 be 27 6a cd bc 8e cd 12 be 70 db 18 3d
       -0.12656899 -0.025075031 -0.14336225 0.037318647
000230 13 7f 78 3d 59 08 84 3d 63 98 1f be ff 37 af bc
       0.060668062 0.06446905 -0.15585475 -0.021389006
000240 71 fc 65 3d d1 19 12 be cf db cf bd 80 cd f4 bc
       0.05614895 -0.1426766 -0.10149347 -0.029883146
000250 96 9c c1 bd b5 b9 66 3d 7c 83 a5 3d 75 4d e1 3b
       -0.094536945 0.056329448 0.08081719 0.0068756887
000260 f3 bc b4 bd da 8c b0 3d 69 9c f5 3d d5 38 5e bd
       -0.08825102 0.08620615 0.119927235 -0.054253418
000270 65 6f eb bd 14 13 93 bd 28 bc 9d bd e0 0a 6d bd
       -0.11495856 -0.07181373 -0.077019036 -0.0578717
000280 1e b3 31 bd ed 0c de 3d fc fa 84 3d bc d4 0d bc
       -0.04338371 0.10842309 0.06493184 -0.008656677
000290 d0 25 0c 3e 4b e4 30 be e1 9e b3 3d 6e 3e 06 be
       0.136863 -0.17274587 0.08770538 -0.13109753
0002a0 51 4a a1 3d 2f f4 8a 3d f4 f6 6a 3d 47 61 5e bc
       0.07875503 0.067848556 0.05736442 -0.013572997
0002b0 e8 36 c6 bc d5 58 59 3d 26 3c bd bd 00 a0 14 3d
       -0.024196103 0.053063232 -0.09239988 0.0362854
0002c0 4f 23 25 3d 86 69 27 bc 89 46 a9 3c d4 26 18 3e
       0.040316876 -0.01021803 0.020663517 0.14858562
0002d0 f8 36 dc bd 1c ee 08 bd d1 cf 8b 3d 43 8a 4e 3c
       -0.10752672 -0.033430204 0.06826747 0.012606206
0002e0 14 44 e2 bd 07 c3 a9 bd 49 5f fc bd c2 2e c2 3b
       -0.11048141 -0.08289152 -0.12322862 0.005925984
0002f0 42 ad a5 bb 0e 49 1a be ad 53 e3 bd 98 fa 0d be
       -0.0050560543 -0.1506693 -0.11099944 -0.13865125
000300 aa 75 ea bd f8 55 fc bd ef ec 9d bb 88 36 ff bd
       -0.11448224 -0.12321085 -0.0048195045 -0.12461573
000310 cf 24 cf bd ee 5d 11 3e 5a 59 83 3d a4 55 56 3d
       -0.101144426 0.14195988 0.06413527 0.052327767
000320 2e 92 db bc e9 d7 1f bd 21 8d 07 be 0f a7 22 be
       -0.026803102 -0.039024267 -0.1323743 -0.1588404
000330 bc 81 bf bd d2 dc ba 3d c4 50 9c bc e9 d4 1e be
       -0.09350917 0.091241494 -0.01908148 -0.15510906
000340 ad fd a2 3c 54 a2 e4 bd da 8e d7 3d 86 25 6e 3d
       0.019896353 -0.11163774 0.10525294 0.058141254
000350 ed 25 85 3d 04 ee f2 bc b1 ac 4f bd 96 78 17 be
       0.065013744 -0.02965451 -0.0507018 -0.14792094
000360 1a 47 db bd af 17 de bd 06 0b 9d bd d9 55 63 bd
       -0.10706921 -0.10844361 -0.07668118 -0.055501793
000370 af 74 a7 bd e6 ae 21 3c 4c 50 07 be 69 cc d9 bd
       -0.081765525 0.009868359 -0.13214225 -0.10634691
000380 8b 03 07 3e d4 71 4a 3c 13 24 96 3d 83 99 f2 bd
       0.13184945 0.01235624 0.07331099 -0.11845686
000390 58 c9 51 bd 7e 8c bb bd 2d a4 8f bd 47 0d d8 bd
       -0.051217407 -0.09157656 -0.07013736 -0.105494075
0003a0 9c 3b a9 3c 42 c9 b9 bc 09 27 56 3d ff db 5a bd
       0.020658307 -0.022678975 0.05228332 -0.05343246
0003b0 6b 75 bc 3d df 06 1e be 27 3d 10 be c9 62 39 bd
       0.09202083 -0.15432309 -0.14085828 -0.045260224
0003c0 25 b1 9d bd 59 a1 f8 3c a0 24 18 bd 62 94 e6 3d
       -0.07699803 0.030350374 -0.037144303 0.112587705
0003d0 7a 1e 07 bc 39 fb ce bd 10 30 17 be b7 ba 06 be
       -0.008247012 -0.10106511 -0.14764428 -0.13157164
0003e0 a1 99 db 3d 55 38 3d bd 7c 1f cc bd 88 57 7b bd
       0.10722662 -0.0461963 -0.09966943 -0.061362773
0003f0 10 7f e7 bd 2c 5d 40 bc d3 28 99 3d 4b 34 0c be
       -0.11303532 -0.011740964 0.0747849 -0.13691823
