finalhybrid/experiments/experiment_20251104_083057/final_hybrid_model.pth (torch, 828338 bytes, 21 tensors)

gcn_branch.gcn_layers.0.bias f4 [64]
0	0x00000000	0.0
1	0xbc82edf7	-0.015982611
2	0x3ccba7e7	0.024860336
3	0x3d27cbfb	0.040966015
4	0xbcb067ab	-0.021533808
5	0x3c907979	0.017636048
6	0xba0a9d5a	-0.00052877294
7	0xbc5b5123	-0.013386044
8	0x00000000	0.0
9	0x3b5e515d	0.0033923008
10	0xbbd251a8	-0.0064184256
11	0xbbd0944e	-0.0063653355
12	0xb9ef4d7e	-0.00045643369
13	0xbc09a96d	-0.008402211
14	0xbb6e73ad	-0.0036384866
15	0xbcecca20	-0.028904974
16	0x00000000	0.0
17	0x00000000	0.0
18	0x00000000	0.0
19	0x00000000	0.0
20	0xbbc3dbfb	-0.0059771514
21	0xbc9c75f9	-0.019099222
22	0xbca0327e	-0.019555327
23	0x00000000	0.0
24	0x3aba3fbc	0.0014209668
25	0x00000000	0.0
26	0xbbd19b26	-0.006396669
27	0x00000000	0.0
28	0x3b7a3372	0.0038177636
29	0x3c14aa03	0.009073737
30	0xbc3c862f	-0.011506601
31	0x3c231c03	0.009955409
32	0x3a7028ed	0.0009161372
33	0x00000000	0.0
34	0x3b462d03	0.0030239231
35	0xbc7be1c6	-0.015373653
36	0xbbf0e67a	-0.0073516937
37	0x00000000	0.0
38	0xbc798e0f	-0.015231623
39	0x3c252ff3	0.010082233
40	0x00000000	0.0
41	0x00000000	0.0
42	0xbb1c1ec5	-0.002382205
43	0xbccdf8d4	-0.025143065
44	0x3c7f58fb	0.015585179
45	0x00000000	0.0
46	0xbc5d08e7	-0.013490892
47	0x3a76e73e	0.0009418613
48	0x3b4ab1d9	0.003092876
49	0x3ad2d1c6	0.0016084246
50	0xbaec5e6a	-0.0018033509
51	0xbc76a95b	-0.015055026
52	0x3bdd209b	0.0067482716
53	0x00000000	0.0
54	0xbacbf37a	-0.0015560233
55	0xbcc2df0e	-0.023788001
56	0xbc9b26f3	-0.01893947
57	0x00000000	0.0
58	0x3a007ec2	0.0004901701
59	0xbb742318	-0.0037252363
60	0xb9a40331	-0.00031282895
61	0xbcb8493a	-0.022495855
62	0xbc904be5	-0.017614314
63	0x00000000	0.0

gcn_branch.gcn_layers.0.lin.weight f4 [64, 36]
0	0xbdaa4716	-0.0831434
1	0x3dc908aa	0.09816106
2	0xbdb457fc	-0.08805844
3	0xbe705540	-0.2347002
4	0x3e53bec9	0.20678248
5	0xbd22467c	-0.039618
6	0x3e6b71d5	0.22992642
7	0x3e6d83ab	0.23194759
8	0xbdefbf2a	-0.117063835
9	0x3d069bb4	0.032863334
10	0xbd9242e6	-0.07141666
11	0x3dc7bb7e	0.09752558
12	0xbe199625	-0.14998682
13	0xbe58024b	-0.21094625
14	0x3cac2b88	0.021016851
15	0xbde4f734	-0.11179963
16	0x3dbdce96	0.09267919
17	0x3e4d13e9	0.20027126
18	0x3e414063	0.18872218
19	0x3e5e311b	0.2169842
20	0x3e73422d	0.23755713
21	0x3e65e1b7	0.22449385
22	0xbd8845a6	-0.066539094
23	0x3e43aa11	0.19107844
24	0xbe0895a6	-0.13338336
25	0xbe10e488	-0.14149678
26	0xbd8eebe4	-0.06978586
27	0xbb5a0340	-0.0033266097
28	0x3dbb7546	0.091532275
29	0x3da04a6a	0.07826693
30	0xbd66a044	-0.056305185
31	0xbd7ea5ac	-0.062169716
32	0xbd91093e	-0.07081841
33	0x3dcc91ee	0.099887714
34	0x3d4c8bec	0.049938127
35	0xbe2167fa	-0.1576232
36	0xbdb4eba1	-0.08834005
37	0x3e5e2212	0.21692684
38	0xbe88a35a	-0.26687127
39	0x3c5e244f	0.013558461
40	0xbe1063c1	-0.14100553
41	0x3e0aa900	0.13541031
42	0x3e07f697	0.1327766
43	0x3e4a842f	0.19776987
44	0x3dcfa9e9	0.1013983
45	0x3e0108a7	0.12600957
46	0x3d8ae3ba	0.06781717
47	0x3d5c8d54	0.05384572
48	0xbe142832	-0.14468458
49	0xbe5ff31c	-0.21870083
50	0x3d9beb86	0.07613282
51	0xbbf4bd00	-0.0074688196
52	0xbe191f00	-0.14953232
53	0x3d9c9fbe	0.07647656
54	0xbe14b26c	-0.14521188
55	0xbd980aca	-0.07423933
56	0xbe74ecaf	-0.23918413
57	0x3e3c627f	0.18396948
58	0x3dae873e	0.08521889
59	0x3dbbb729	0.091657944
60	0x3e599034	0.21246415
61	0x3cae1058	0.021248028
62	0xbdd04fb7	-0.101714544
63	0x3e2eb352	0.17060593
64	0x3d009420	0.031391263
65	0xbdc2ff50	-0.09521353
66	0x3e22ead1	0.15909888
67	0xbe51876e	-0.20461819
68	0xbe27b322	-0.16376927
69	0xbd925e52	-0.071468964
70	0x3dfa6a48	0.12227303
71	0xbe328baf	-0.17436098
72	0xbe403e2a	-0.18773714
73	0x3dba5051	0.090973504
74	0xbe51de0d	-0.20494862
75	0xbe61c95b	-0.22049467
76	0x3e01c47b	0.12672608
77	0xbb69aa80	-0.0035654604
78	0x3c62eb50	0.013850048
79	0xbe310666	-0.17287597
80	0x3e02d0bc	0.12774938
81	0xbe1d5e7d	-0.15368076
82	0x3db380c6	0.08764796
83	0xbe1cbdc2	-0.15306762
84	0x3d181704	0.037131324
85	0xbe4dd6c1	-0.20101453
86	0x3e366919	0.17813529
87	0xbe1b27c1	-0.15151884
88	0x3d168944	0.036752
89	0x3dffe83e	0.124954686
90	0x3c7f4690	0.015580788
91	0xbe5b71a3	-0.21430068
92	0xbda01d58	-0.07818097
93	0x3e1322b1	0.14368702
94	0x3e3fac09	0.1871797
95	0x3e50bd87	0.20384799
96	0xbe4435e6	-0.19161186
97	0x3d6f1a94	0.058374956
98	0x3dc7cd3b	0.097559415
99	0x3e3786e5	0.17922552
100	0x3e8b449a	0.27200776
101	0x3d9f26e7	0.07771092
102	0x3ae6f8bc	0.0017621736
103	0xbe5acab0	-0.21366382
104	0xbbd4de40	-0.006496221
105	0x3e41aed5	0.1891435
106	0xbe5d0d1e	-0.21587035
107	0x3e28baf0	0.16477561
108	0x3e4a2768	0.19741595
109	0x3c89eb49	0.016835826
110	0x3e533af2	0.20627955
111	0xbd5a362e	-0.053274326
112	0xbe624cf9	-0.22099675
113	0x3df6f23a	0.1205792
114	0xbe0234c5	-0.12715442
115	0x3d6b2f64	0.057418242
116	0x3e5cec37	0.21574484
117	0x3e060ca1	0.13090755
118	0x3d3cf134	0.046128467
119	0x3dd85b8e	0.10564338
120	0x3e19351d	0.14961667
121	0xbe44da97	-0.1922401
122	0x3d4bd62c	0.049764797
123	0x3e076c61	0.13224937
124	0x3e542c77	0.20720087
125	0xbda27caa	-0.07933934
126	0xbe105f76	-0.14098915
127	0x3bbd3960	0.005774662
128	0x3e230a99	0.15922011
129	0x3e879b14	0.26485503
130	0xbc8e5d58	-0.017378494
131	0xbdc1d353	-0.09464135
132	0xbce32d2e	-0.027731504
133	0xbe764203	-0.24048619
134	0xbca8621e	-0.020554598
135	0xbe207b49	-0.1567203
136	0xbe2caad1	-0.16862036
137	0xbe177bbc	-0.14793295
138	0x3ab4afb4	0.0013785274
139	0x3e1aff2f	0.15136407
140	0x3d54f334	0.05198975
141	0x3e18c66f	0.14919446
142	0xbe2e95fc	-0.17049402
143	0x3e8a9dc7	0.270735
144	0xbe63b4d1	-0.22236945
145	0xbe4895c3	-0.1958838
146	0xbd996cf1	-0.07491482
147	0x3e654d97	0.2239288
148	0x3e702f36	0.2345551
149	0x3e0710b3	0.13189964
150	0x3e03e5ca	0.12880626
151	0xbd7818c0	-0.06057048
152	0x3c8b8f38	0.017036065
153	0xbe542213	-0.20716123
154	0x3dfb4c32	0.122703925
155	0x3e291187	0.16510592
156	0x3e509967	0.20371018
157	0xbe31ee73	-0.17376117
158	0xbe236a8f	-0.15958618
159	0x3d285d74	0.04110475
160	0x3e2932a7	0.16523229
161	0x3d1500b4	0.036377624
162	0x3e5227c3	0.2052298
163	0xbc9f7c18	-0.019468352
164	0x3e4cc237	0.19995962
165	0xbd5302f2	-0.05151648
166	0xbe07aed4	-0.13250285
167	0x3da5cea2	0.08096053
168	0x3e5341c8	0.20630562
169	0xbe53bb3c	-0.20676893
170	0x3e6194b8	0.22029388
171	0x3dae90c1	0.08523703
172	0xbdbb5290	-0.09146607
173	0xbc56c5e4	-0.013108704
174	0x3dd3d185	0.10342697
175	0x3caf1e38	0.021376714
176	0x3d1f0604	0.038824096
177	0x3dfe6885	0.12422279
178	0x3d3e89b4	0.046518043
179	0xbcb1f313	-0.021722352
180	0xbdda7b5f	-0.106680624
181	0xbe5f19ce	-0.21787187
182	0x3e455ebb	0.19274418
183	0xbd9511e1	-0.07278801
184	0x3dd3f948	0.10350281
185	0x3e52cd5f	0.20586155
186	0x3e3f774f	0.18697856
187	0x3e1a7b59	0.15086116
188	0xba9cd50b	-0.0011965347
189	0xbe260d78	-0.16216075
190	0xbe208a50	-0.15677762
191	0x3d9ba826	0.07600431
192	0x3d572834	0.052528575
193	0x3dc8f25e	0.09811853
194	0x3de8bf4a	0.113646105
195	0xbd9341c0	-0.07190275
196	0xbc37ee30	-0.011226222
197	0x3e26c65d	0.16286607
198	0xbcab1038	-0.020881757
199	0x3d3ec044	0.046570078
200	0x3dba5ad6	0.09099357
201	0xbd69067c	-0.05689095
202	0x3d9b7516	0.07590692
203	0x3d8ae509	0.06781966
204	0x3d09796a	0.033563055
205	0xbe0d6cf3	-0.13811092
206	0x3c4296c4	0.011876766
207	0xbde8b4aa	-0.11362584
208	0xbdd09ed7	-0.10186546
209	0xbe2018bc	-0.15634435
210	0x3de4b805	0.111679114
211	0x3e073da5	0.1320711
212	0x3ce9d398	0.028543279
213	0x3e83fc44	0.257784
214	0x3e16a682	0.14711955
215	0xbe11da4b	-0.14243428
216	0xbe02be54	-0.12767917
217	0xbe457f36	-0.19286808
218	0x3e3fac0a	0.18717971
219	0x3e199de7	0.15001641
220	0x3de1b1f1	0.11020268
221	0x3da8e990	0.082476735
222	0xbe84013a	-0.25782186
223	0x3da873aa	0.08225186
224	0x3d175439	0.036945555
225	0x3e59fb43	0.21287255
226	0x3a3b3600	0.00071415305
227	0x3d0a4c2c	0.03376405
228	0xbd78e2f0	-0.0607633
229	0x3e653803	0.22384648
230	0x3e7552ab	0.23957317
231	0xbe16d8e8	-0.1473118
232	0xbe372fa0	-0.17889261
233	0x3da2ab0a	0.07942779
234	0xbdfe4dcd	-0.12417183
235	0xbe019305	-0.1265374
236	0x3c209db0	0.009803221
237	0xbd99b668	-0.07505494
238	0xbe56b4f7	-0.2096747
239	0xbd1645a3	-0.036687505
240	0xbd1bcc85	-0.038036842
241	0x3d21eeb4	0.039534286
242	0x3e5a642c	0.21327275
243	0xbdb94ac5	-0.09047464
244	0xbe809929	-0.25116852
245	0xbdf34604	-0.11878589
246	0xbe6e8673	-0.23293476
247	0x3e4da709	0.2008325
248	0x3e05f9f9	0.13083638
249	0xbe01f466	-0.12690887
250	0x3bd5d429	0.0065255356
251	0xbda570a0	-0.08078122
252	0x3c62410c	0.013809454
253	0x3bb9cf22	0.005670444
254	0xbe303acc	-0.17209929
255	0xbd187081	-0.037216667

gcn_branch.gcn_layers.1.bias f4 [128]
0	0xbbe50c69	-0.006990005
1	0xb62e1478	-2.5939935e-06
2	0x3b90ea50	0.0044224635
3	0x3bc81c3d	0.006106882
4	0xbbd88cfa	-0.0066086026
5	0xbc4d77d8	-0.01254078
6	0xbb1ea151	-0.0024205039
7	0xba615463	-0.00085956434
8	0xbbaeff02	-0.005340458
9	0xb956a7f0	-0.00020471192
10	0x00000000	0.0
11	0xbb6310d8	-0.003464749
12	0xbc233b67	-0.009962893
13	0xbc871748	-0.016490594
14	0xbc2dab22	-0.010599883
15	0xbc542346	-0.012947863
16	0xbc24256a	-0.010018686
17	0x00000000	0.0
18	0xbc743f65	-0.014907693
19	0xbc1f5873	-0.009725678
20	0xbc091649	-0.00836713
21	0x3ae83bd5	0.0017718027
22	0xbaffd5e3	-0.0019518699
23	0xbc1ae6ee	-0.009454472
24	0xbc51c8a3	-0.012804183
25	0xbc327d8f	-0.010894193
26	0x3b6f2355	0.0036489565
27	0xbb58a87d	-0.0033059411
28	0xbbb614f4	-0.005556697
29	0xbcc828bb	-0.024433484
30	0xbbd61185	-0.00653285
31	0xbcb0100c	-0.021492027
32	0xbc16fe9a	-0.009215975
33	0xbbfcf641	-0.0077197854
34	0xba3e850c	-0.00072677503
35	0xbc59565f	-0.013265221
36	0xbc6c9d28	-0.014441766
37	0xbb90666b	-0.0044067404
38	0xbc249141	-0.010044397
39	0xbc2ebe6f	-0.01066552
40	0xbaeabf45	-0.0017909786
41	0xbb41c356	-0.0029565892
42	0xbbe88ef0	-0.0070971176
43	0x3baa34f2	0.0051943
44	0xbc16497c	-0.0091727935
45	0x3b50eb22	0.0031878431
46	0xbc885d6b	-0.016646108
47	0xbb173561	-0.0023072588
48	0xbb81e8ef	-0.0039645354
49	0xbc3fa663	-0.0116973845
50	0x3b917c5a	0.0044398727
51	0xbc335c44	-0.010947291
52	0x3b8a7612	0.004225501
53	0xbc157d3b	-0.009124096
54	0xbc49c834	-0.012315799
55	0x3acffa7c	0.0015867497
56	0xbc93835b	-0.018006971
57	0x3b3c6c04	0.0028750906
58	0xbc6faed0	-0.014629081
59	0xbbbadb44	-0.005702408
60	0xbc372467	-0.011178113
61	0xbc3d0644	-0.011537138
62	0x3a7e595c	0.00097026466
63	0xbc97b356	-0.018518131
64	0xbbe7c9a2	-0.007073597
65	0xbb779aec	-0.003778155
66	0xbc5fd204	-0.0136609115
67	0xbc8f8c30	-0.017522901
68	0xbc7afa93	-0.015318531
69	0xbb9e1870	-0.0048246905
70	0xbd098f60	-0.033584
71	0xbc0934af	-0.008374377
72	0xbaa9f0b6	-0.0012965414
73	0x00000000	0.0
74	0xbb8c2bd8	-0.0042776875
75	0x00000000	0.0
76	0xbc008fd2	-0.007846789
77	0xbc1ecf7c	-0.009693023
78	0xbc3e379d	-0.011609939
79	0xbb60efdc	-0.0034322655
80	0xbc7f5105	-0.015583281
81	0xbb0d5a0e	-0.002156857
82	0x3b9d39ef	0.004798166
83	0xbb278d8d	-0.0025566549
84	0xbb85c492	-0.004082271
85	0xbc7134f5	-0.014722099
86	0xbacc4230	-0.001558369
87	0xbc667afc	-0.014067408
88	0xbc54684d	-0.01296432
89	0xbbc72082	-0.0060768733
90	0xbc0b1cfc	-0.008490797
91	0xbc73d898	-0.014883183
92	0xbc309fe5	-0.010780309
93	0xbc3ffb01	-0.011717559
94	0xbae300b4	-0.0017318935
95	0x3c3bc3ab	0.011460225
96	0xbbbbb2cd	-0.005728102
97	0xbc4884f2	-0.012238728
98	0xbbf101a5	-0.0073549324
99	0xbc0b2f33	-0.00849514
100	0xbb738f1c	-0.0037164157
101	0xbc096d34	-0.008387852
102	0xbc04c6ed	-0.008104068
103	0xbca6dbef	-0.020368544
104	0xba2586ac	-0.0006314318
105	0xbbba0220	-0.005676523
106	0xbbbe7472	-0.005812221
107	0x3b9c4c36	0.0047698272
108	0xbae40734	-0.0017397166
109	0xbc59efac	-0.013301771
110	0x3bd940d9	0.006630045
111	0xbc391334	-0.011296082
112	0xbbf4bd5c	-0.0074688625
113	0xbc0714eb	-0.008244733
114	0xbbf23121	-0.0073911105
115	0xbbc254e3	-0.0059305294
116	0xbcb997fb	-0.022655478
117	0xbc7324d4	-0.0148403235
118	0xbad9319e	-0.0016570573
119	0xbb4694fd	-0.0030301206
120	0xbc9eef32	-0.019401167
121	0x397758bf	0.00023588816
122	0xbb91395e	-0.0044318875
123	0xbb266671	-0.002539065
124	0xbbadbbb5	-0.0053019174
125	0xbc063b16	-0.008192798
126	0xbbe25ddf	-0.006908163
127	0x3bacd850	0.00527481

gcn_branch.gcn_layers.1.lin.weight f4 [128, 64]
0	0x3d83ce5e	0.06435846
1	0x3d239bee	0.039943628
2	0x3d119602	0.03554345
3	0x3dd31e68	0.10308534
4	0xbe23ff1c	-0.16015285
5	0xbdb9769c	-0.09055826
6	0x3d9fd362	0.0780399
7	0xbdb1ef17	-0.08688181
8	0xbcdad0d7	-0.02671091
9	0xbe26f2b4	-0.16303521
10	0x3da8fbc4	0.082511455
11	0xbdcb1ceb	-0.09917625
12	0xbda0ffec	-0.07861313
13	0x3def0589	0.116709776
14	0x3de959ca	0.11394079
15	0x3d85d811	0.06535352
16	0xbdd934dd	-0.10605786
17	0xbdc5772a	-0.09641869
18	0x3e2be71e	0.16787383
19	0xbe1df7f1	-0.15426613
20	0x3d399476	0.0453076
21	0xbd4b154e	-0.049580865
22	0xbce0e4e2	-0.02745289
23	0xbbfeaadc	-0.007771833
24	0x3cb1a31b	0.02168422
25	0xbdf72830	-0.12068212
26	0x3d52a916	0.051430784
27	0xbd492f78	-0.049117535
28	0xbce23f91	-0.027618201
29	0x3e31ba7b	0.17356293
30	0x3e29077c	0.16506761
31	0x3d44d84d	0.048057843
32	0xbdb1c0d5	-0.08679358
33	0x3ca83810	0.020534545
34	0x3cbe5c76	0.023237448
35	0xbdf1accc	-0.118005365
36	0x3ddb44bc	0.107064694
37	0xbdedef6c	-0.11617932
38	0xbe1353b8	-0.14387405
39	0x3dfd79b7	0.12376731
40	0x3e14a2cc	0.14515227
41	0x3d989f06	0.07452206
42	0x3dfe3e5d	0.124142386
43	0x3d19b199	0.037522886
44	0x3c4baccd	0.012431336
45	0xbe11ed01	-0.14250566
46	0xbd16657d	-0.03671788
47	0xbb16a8bc	-0.0022988757
48	0xbe2a1c13	-0.16612272
49	0xbcdcbf86	-0.026946794
50	0xbd639b71	-0.055568162
51	0xbb190e64	-0.0023354525
52	0x3e1e6e41	0.15471746
53	0x3d8ee726	0.06977682
54	0x3da8ab27	0.0823577
55	0x3e06f184	0.13178068
56	0x3e0c1cbb	0.13682835
57	0xbcaff9ac	-0.021481358
58	0xbd5eb4fe	-0.054371826
59	0xbd9c5d1d	-0.076349474
60	0xbdd0230b	-0.10162934
61	0x3c457cb6	0.012053659
62	0x3d4b223e	0.049593203
63	0xbe05e8b3	-0.13077049
64	0xbd5a3e06	-0.053281806
65	0xbdae8f1c	-0.0852339
66	0x3ce72475	0.028215626
67	0x3d172cec	0.036908075
68	0x3bb0edbf	0.0053994353
69	0x3c929341	0.017892482
70	0x3e24585b	0.1604933
71	0x3e3003d1	0.17188956
72	0xbe2c4bb5	-0.16825755
73	0x3dc73a89	0.097279616
74	0x3df2ed0f	0.118616216
75	0x3dcb7915	0.09935204
76	0x3d0b05a2	0.03394092
77	0xbe0e38be	-0.13888833
78	0xbc0e028a	-0.008667598
79	0xbd58d8a4	-0.05294098
80	0xbe1ae2c7	-0.15125571
81	0x3dc0e093	0.09417834
82	0x3dc9f1d0	0.09860575
83	0x3d2b5a49	0.04183415
84	0x3df27023	0.11837795
85	0xbd3450e2	-0.04402245
86	0x3d365228	0.044511944
87	0x3c940ec2	0.018073443
88	0xbdf35260	-0.11880946
89	0x3e17e464	0.14833218
90	0x3e208304	0.15674978
91	0x3d9d7589	0.07688434
92	0xbe043b6b	-0.12913291
93	0xbc54c5a7	-0.012986577
94	0x3c88623b	0.016648402
95	0x3dc5e6f2	0.0966319
96	0x3dab1982	0.083544746
97	0xbda2145a	-0.07914038
98	0xbe30ecf1	-0.17277886
99	0xbc502bf1	-0.012705789
100	0x3e1a2933	0.15054779
101	0xbdc37aa1	-0.09544874
102	0xbcc4d935	-0.024029354
103	0xbd65e9fd	-0.05613135
104	0x3e22d783	0.15902524
105	0x3de233f6	0.11045067
106	0xbe02fc2f	-0.12791513
107	0xbd504387	-0.05084565
108	0xbd264d37	-0.04060098
109	0xbde9886d	-0.11402974
110	0x3cc3e248	0.02391161
111	0xbd466271	-0.048433725
112	0xbddc3890	-0.10752976
113	0xbda1392a	-0.07872231
114	0x3dc082db	0.09399959
115	0xbe329886	-0.17440996
116	0xbdef9c71	-0.11699761
117	0xbe1121d7	-0.14173065
118	0x3dc3b4b1	0.095559485
119	0xbc43ca62	-0.011950107
120	0x3d2b842e	0.041874103
121	0xbd869c65	-0.06572799
122	0xbe0a655d	-0.1351523
123	0x3972fe56	0.00023173666
124	0x3d3213b1	0.04347581
125	0x3d7a36ec	0.061087534
126	0x3d9086eb	0.070569836
127	0xbdb7aa05	-0.089679755
128	0x3ca331ba	0.019921172
129	0xbcbceb84	-0.023061521
130	0x3d883697	0.06651037
131	0xbcdd92dc	-0.027047567
132	0xbe0dc5ad	-0.13844939
133	0x3e265c21	0.16246082
134	0x3caa58f0	0.020794362
135	0x3cd6921c	0.026192717
136	0x3d97f39f	0.07419514
137	0x3d4cd54d	0.050008107
138	0xbd8c7208	-0.06857687
139	0x3d51071f	0.05103218
140	0xbd431919	-0.047631357
141	0xbd780e99	-0.060560796
142	0x3da391c0	0.07986784
143	0xbd15c96a	-0.036569037
144	0x3e13acb0	0.14421344
145	0x3d45555b	0.048177104
146	0xbdf0d35e	-0.11759065
147	0x3e1c6097	0.15271221
148	0x3e118169	0.14209522
149	0x3dc104a2	0.09424712
150	0xbd65ad8b	-0.056073707
151	0xbda7eb29	-0.0819915
152	0x3e04a3ff	0.12953185
153	0x3d15db44	0.03658606
154	0xbd0d2805	-0.034461994
155	0x3da01682	0.07816793
156	0x3dffef06	0.12496762
157	0x3dc572a1	0.09641004
158	0xbe2e720f	-0.17035697
159	0xbd7cbba7	-0.061702397
160	0xbdc09168	-0.09402734
161	0x3d1661f4	0.03671451
162	0x3d70d994	0.05880125
163	0x3db46281	0.08807851
164	0x3e08b45c	0.13350052
165	0xbd725b8f	-0.05916935
166	0x3d493d15	0.049130518
167	0xbe31cd78	-0.17363536
168	0xbc497834	-0.012296725
169	0xbe24c212	-0.16089657
170	0x3e177ea3	0.14794402
171	0x3d576b03	0.05259229
172	0x3e24058d	0.16017742
173	0xbe1cbd56	-0.15306601
174	0xbe3a47a5	-0.18191393
175	0xbdc708bc	-0.09718463
176	0xbdb6ca02	-0.08925249
177	0xbda5253a	-0.08063741
178	0xbd6e953a	-0.058247782
179	0xbe259fe7	-0.16174279
180	0x3dfbb8ca	0.12291105
181	0x3df19a2a	0.117969826
182	0x3c51f1fe	0.012814043
183	0xbcc2976c	-0.023753844
184	0xbdd75b2b	-0.10515436
185	0x3ddb61bb	0.10712
186	0xbdd0610d	-0.10174761
187	0x3db2ddf2	0.08733739
188	0xbd6a0f77	-0.057143655
189	0xbe184366	-0.1486946
190	0x3d5b9fe9	0.0536193
191	0xbe252776	-0.16128334
192	0x3e1248a7	0.14285527
193	0xbe307b5f	-0.17234562
194	0xbd66fed9	-0.056395385
195	0x3d071f1a	0.032988645
196	0xbc1476e6	-0.009061551
197	0x3c938a98	0.018010423
198	0x3ded6156	0.11590831
199	0xbda824a2	-0.08210112
200	0xbc9d5d53	-0.01920954
201	0xbdd8451c	-0.105600566
202	0xbd99baa9	-0.07506306
203	0x3da5097b	0.08058449
204	0xbc17b5c7	-0.009259648
205	0x3d65697c	0.0560088
206	0x3db1225f	0.08649134
207	0x3de4e508	0.11176497
208	0xbe1a6dbd	-0.15080924
209	0xbd6a284a	-0.05716733
210	0x3e16e6ee	0.1473653
211	0xbcb85528	-0.022501543
212	0x3d62b4d0	0.055348217
213	0xbc82a754	-0.015948929
214	0x3d3296be	0.04360079
215	0x3c95d588	0.018290296
216	0xbd2f381f	-0.04277813
217	0x3e02d660	0.1277709
218	0x3c4d0133	0.012512493
219	0xbe098516	-0.13429675
220	0x3e30acf1	0.17253472
221	0xbd8e28a5	-0.06941346
222	0x3e23bfbd	0.15991111
223	0x3d84212c	0.064516395
224	0x3be798ec	0.0070677903
225	0xbd9b9da1	-0.07598425
226	0x3dc00f0c	0.0937787
227	0xbdad7bec	-0.08470902
228	0x3bce38ff	0.0062934156
229	0x3d006b60	0.0313524
230	0x3d87228d	0.06598387
231	0x3e3adb10	0.18247628
232	0x3d0f83aa	0.035037674
233	0xbc9e9ce6	-0.019361924
234	0xbe1fb258	-0.15595376
235	0xbe275b8b	-0.16343515
236	0xbe34b144	-0.17645746
237	0xbd0a3d91	-0.03375012
238	0xbe18c13a	-0.1491746
239	0xbd7bc9d7	-0.061471786
240	0xbe1a7c0e	-0.15086386
241	0xbe0b2436	-0.13588032
242	0xbdcc94f6	-0.099893495
243	0xbd2e1cd0	-0.042507946
244	0x3e0b4fd1	0.13604666
245	0xbdfe9789	-0.12431247
246	0xbdea3557	-0.11435955
247	0x3e1fa283	0.15589337
248	0xbdbfb82a	-0.093612984
249	0x3cb13726	0.021632742
250	0x3dd6a3cd	0.10480461
251	0x3e46ac96	0.19401774
252	0xbcd05b70	-0.025434226
253	0x3d3a7481	0.045521263
254	0x3e1a247c	0.1505298
255	0xbd9ad442	-0.07560016

gcn_branch.gat_layers.0.att_src f4 [1, 4, 16]
0	0x3ee6297a	0.4495352
1	0xbe1eaabc	-0.15494817
2	0xbec38ec4	-0.3819486
3	0xbded91e3	-0.11600091
4	0x3e4f8357	0.20264946
5	0xbee19416	-0.44058293
6	0xbd986c17	-0.074424915
7	0x3efb8407	0.49124166
8	0x3e8fa09c	0.28052223
9	0xbd69b99f	-0.057061788
10	0x3eb92944	0.36164296
11	0xbec2e6ba	-0.38066655
12	0x3e488343	0.19581322
13	0xbd89d504	-0.06730083
14	0xbe49fcb8	-0.19725311
15	0xbccc3ea8	-0.02493222
16	0x3ea61e0b	0.32444796
17	0xbea5f2f2	-0.32411915
18	0x3f049d3c	0.5180242
19	0xbefc3e61	-0.4926634
20	0xbd987da1	-0.07445837
21	0xbdca50b6	-0.09878676
22	0xbc614db1	-0.013751433
23	0xbf032754	-0.51231885
24	0x3f045c40	0.5170326
25	0xbdfa3ca3	-0.12218597
26	0x3ea4bd37	0.3217561
27	0x3b770ae0	0.003769569
28	0xbd895f95	-0.06707684
29	0x3ebc2bb6	0.367521
30	0x3ecb8cbe	0.39755815
31	0x3f069ff1	0.525878
32	0xbf0ce484	-0.5503619
33	0xbd7ae8f8	-0.061257333
34	0xbde2c1d2	-0.110721245
35	0xbef1da3c	-0.47236812
36	0xbe94f9e7	-0.2909691
37	0xbef03384	-0.46914303
38	0x3ef06f99	0.46960142
39	0xbd2be5be	-0.041967146
40	0x3ec0147a	0.37515622
41	0x3ee744af	0.4516959
42	0x3ebc90e6	0.368293
43	0xbd3d1957	-0.046166744
44	0xbe1d1048	-0.15338242
45	0xbc1c9456	-0.00955685
46	0x3d0c6aed	0.03428166
47	0xbe9ea040	-0.30981636
48	0xbe267074	-0.16253835
49	0xbea5fd93	-0.32420024
50	0xbee4d3ac	-0.44692743
51	0xbe2ddfeb	-0.16979949
52	0x3e178547	0.14796935
53	0xbf0da389	-0.5532766
54	0xbc4768c8	-0.012170978
55	0xbdf3aa16	-0.11897676
56	0xbf0113f1	-0.50421053
57	0xbf0caa14	-0.5494702
58	0xbd120461	-0.035648707
59	0x3d4b4f48	0.049636155
60	0xbe79c2b8	-0.24390686
61	0x3f06372f	0.52427953
62	0x3ea6c6b2	0.32573467
63	0xbecad010	-0.39611864

gcn_branch.gat_layers.0.att_dst f4 [1, 4, 16]
0	0x3e38f71e	0.18063018
1	0x3e5fb695	0.21846993
2	0x3d8efcbb	0.06981798
3	0x3df31885	0.11869911
4	0x3eb3ab20	0.35091496
5	0x3e38e5c5	0.180564
6	0x3efe7c16	0.49704045
7	0xbe2c8bc9	-0.16850199
8	0x3d394f6c	0.04524176
9	0x3eaf3add	0.34224597
10	0xbe81f2e3	-0.2538062
11	0xbd148057	-0.036255207
12	0xbe48ce14	-0.19609863
13	0xbdde5841	-0.10856677
14	0x3dc5c9c5	0.09657625
15	0x3cf295c4	0.02961243
16	0xbb846665	-0.0040405267
17	0xbd33fadc	-0.04394041
18	0x3f015194	0.50515103
19	0xbdff4cdf	-0.12465834
20	0xbebdaecd	-0.37047425
21	0x3e18fdf1	0.14940621
22	0x3dd65e2b	0.1046718
23	0x3f0f848c	0.56061625
24	0xbe84738d	-0.25869408
25	0x3e95c069	0.2924836
26	0xbcf070e3	-0.029350704
27	0xbea110e0	-0.31458187
28	0x3d944ea2	0.072415605
29	0xbee77f62	-0.45214373
30	0x3df2f2f7	0.11862748
31	0x3e3029d5	0.17203458
32	0xbec869a9	-0.39143112
33	0x3ca3be15	0.0199881
34	0x3de81eb9	0.11333985
35	0xbed62f81	-0.41833118
36	0xbe3ff272	-0.1874483
37	0xbf015dbf	-0.5053367
38	0xbe32a915	-0.17447312
39	0x3d4ec6a2	0.0504824
40	0xbeffa189	-0.4992793
41	0x3ed9ba90	0.42525148
42	0x3e15e08a	0.14636436
43	0xbf0a6c00	-0.54071045
44	0xbe1b64bb	-0.15175144
45	0x3eaf0573	0.34183845
46	0x3e7fd308	0.24982846
47	0x3e57e167	0.21082078
48	0x3cb1fa5c	0.021725826
49	0x3ebed920	0.37275028
50	0x3ea3ecd5	0.32016626
51	0x3ba8e6d6	0.005154471
52	0x3d65957b	0.05605076
53	0x3dba0a73	0.09084024
54	0x3edc3f56	0.4301707
55	0xbebd3715	-0.36956087
56	0x3e587045	0.21136577
57	0xbd3bdbde	-0.04586398
58	0xbd1cb6c4	-0.038260236
59	0xbe56c93a	-0.209752
60	0x3e5b43de	0.21412608
61	0xbe9855ca	-0.29752952
62	0xbe29186b	-0.16513221
63	0x3e68ab7d	0.22721668

gcn_branch.gat_layers.0.bias f4 [64]
0	0x3b9cbd1c	0.004783286
1	0xbc79ea95	-0.015253683
2	0xbaab65b7	-0.0013076578
3	0xbbc3c99c	-0.0059749614
4	0xbc479a96	-0.012182852
5	0x3bc773e7	0.0060868147
6	0x3b114b1e	0.0022170017
7	0xbc016d9e	-0.00789967
8	0x3c302f46	0.010753458
9	0xbb956b2e	-0.004559896
10	0x3bfc8420	0.00770618
11	0xbbc1c5f4	-0.0059134904
12	0xbc1f2f24	-0.009715829
13	0xbc6954ca	-0.014241407
14	0xbc0515fd	-0.008122918
15	0xbc572df5	-0.013133516
16	0x3c1d24cf	0.009591295
17	0x3c4a6d18	0.012355112
18	0xbbf6219f	-0.007511332
19	0xbaf688a6	-0.0018809035
20	0xbbc000b4	-0.005859459
21	0xbcd6ef9a	-0.026237298
22	0xbc887f59	-0.016662287
23	0xbb1ca984	-0.002390475
24	0x3c0d282f	0.008615538
25	0x3c4213e8	0.011845566
26	0x3ae87faa	0.0017738242
27	0xbb3e5f67	-0.0029048563
28	0x3c523b45	0.012831514
29	0x3ca39633	0.019969082
30	0xbc1fa7e8	-0.009744622
31	0xba4ec8ee	-0.0007888217
32	0xbbeafdf7	-0.0071713882
33	0x3c610ea1	0.013736398
34	0x3c1f9a12	0.009741323
35	0xbc1b4225	-0.009476219
36	0xba1e8b8b	-0.0006048015
37	0xb9a84611	-0.0003209566
38	0xbc2563ea	-0.010094622
39	0xbb6126dd	-0.003435544
40	0xbbe1d7e5	-0.0068921917
41	0xbb88d6d6	-0.004176001
42	0xbaf2e297	-0.0018530664
43	0xbcdc3953	-0.026882803
44	0x3bc149b1	0.0058986773
45	0xbb8be791	-0.004269548
46	0x3a338774	0.0006848492
47	0xba5f92cf	-0.0008528651
48	0xbc182961	-0.009287209
49	0x3b702d84	0.0036648223
50	0xbaba24ec	-0.0014201677
51	0xbb67f46c	-0.003539349
52	0xbbd7389a	-0.0065680267
53	0xbb73fd60	-0.003722988
54	0x39435ce5	0.00018631255
55	0xbc300713	-0.010743874
56	0xbc87e4d0	-0.016588598
57	0x3bbd3905	0.0057746195
58	0x3bccbcdf	0.006248101
59	0x3c1586ac	0.009126347
60	0xbaf0503f	-0.0018334462
61	0x3b28c76f	0.0025753637
62	0xbc2b8fe4	-0.010471318
63	0xbbcab95b	-0.006186647

gcn_branch.gat_layers.0.lin.weight f4 [64, 64]
0	0x3e09cdd9	0.13457431
1	0xbdb3d7e5	-0.08781413
2	0x3e699fbe	0.22814843
3	0xbe0314e7	-0.12800942
4	0x3dc77570	0.09739196
5	0xbd521da7	-0.05129781
6	0xbe345443	-0.17610268
7	0xbcb4bcd5	-0.022062698
8	0x3b8d6760	0.004315302
9	0x3dc37f22	0.09545733
10	0x3d351346	0.044207834
11	0x3dab876d	0.0837544
12	0x3dddf244	0.10837224
13	0x3dade3a4	0.08490685
14	0xbcd0796f	-0.025448529
15	0xbd1d00a7	-0.0383307
16	0x3d89b5e6	0.067241475
17	0xbdb9750e	-0.090555295
18	0xbddb35da	-0.10703631
19	0x3de63d5e	0.112421736
20	0xbdf8cce7	-0.12148457
21	0xbdddf05e	-0.10836862
22	0x3e1d3249	0.15351214
23	0xbd2f2aa8	-0.04276529
24	0x3deea0f2	0.11651792
25	0xbe57ce5d	-0.21074815
26	0x3daefeca	0.08544691
27	0xbe29e77f	-0.16592215
28	0xbdfad793	-0.12248149
29	0xbe481ff1	-0.19543435
30	0xbca921ba	-0.020645965
31	0xbe0ccb0b	-0.1374933
32	0x3e3cd364	0.18440014
33	0xbdf25fd3	-0.11834683
34	0xbe4f83ae	-0.20265076
35	0x3d629a28	0.055322796
36	0x3cffda1d	0.031231934
37	0xbdc3653c	-0.09540793
38	0xbdd0b9df	-0.10191702
39	0xbe494038	-0.19653404
40	0x3e0dc505	0.13844688
41	0x3e59a01d	0.21252485
42	0x3e0e7c5e	0.1391463
43	0xbd373cfc	-0.044735894
44	0xbd8a53b9	-0.0675425
45	0x3e4d1609	0.20027937
46	0xbbf49cb3	-0.007464969
47	0x3ddc9acc	0.10771713
48	0xbe7e1161	-0.24811317
49	0x3db7584e	0.0895239
50	0xbcda9308	-0.026681438
51	0x3d9879e0	0.07445121
52	0x3e50a8c6	0.20376882
53	0xbe250038	-0.16113365
54	0xbe3dd561	-0.18538429
55	0x3d81b628	0.06333572
56	0xbcf29cff	-0.029615877
57	0xbd2b1094	-0.041763857
58	0xbd961e6e	-0.07330023
59	0x3e38ed5c	0.18059295
60	0x3d4226b1	0.04740018
61	0x3de841ad	0.11340652
62	0x3dcab3a8	0.09897548
63	0x3e2987f7	0.16555773
64	0xbd008d50	-0.031384766
65	0x3d726cb0	0.059185684
66	0xbda68c17	-0.08132189
67	0x3da02257	0.0781905
68	0x3e457f1d	0.19286771
69	0xbe32482f	-0.17410348
70	0x3db1f93e	0.08690117
71	0x3e3512c8	0.17682946
72	0x3e0b7255	0.13617833
73	0x3dd0f26f	0.102024905
74	0x3dc02b55	0.09383265
75	0xbdd1ae97	-0.102383785
76	0x3dbc2d19	0.09188289
77	0x3e227b64	0.15867382
78	0x3dcb0b1a	0.09914227
79	0x3dedda10	0.11613858
80	0xbe1bdc38	-0.15220726
81	0x3d2e728c	0.04258971
82	0x3d465644	0.048422113
83	0xbe2dd792	-0.16976765
84	0x3db99533	0.090616606
85	0xbd76bff9	-0.060241673
86	0xbe4279ec	-0.18991822
87	0xbd68d8d4	-0.05684741
88	0x3e3a9ecc	0.18224639
89	0xbd5f2cdc	-0.05448614
90	0xbd8dfba2	-0.06932761
91	0xbe29937a	-0.16560164
92	0xbdff4da6	-0.12465982
93	0x3e39ea96	0.18155894
94	0x3dea9f15	0.11456124
95	0x3d53e567	0.051732447
96	0x3e3521f9	0.17688741
97	0x3b13bb40	0.002254203
98	0xbcdd1fda	-0.026992727
99	0xbe1084a5	-0.141131
100	0x3d9c8ba6	0.07643823
101	0xbe38c55c	-0.18044037
102	0x3d9237fd	0.07139585
103	0xbdf8f9db	-0.12157031
104	0x3d70dc6c	0.05880396
105	0x3d471ce4	0.048611537
106	0x3e1d0344	0.15333277
107	0x3c8108bd	0.015751237
108	0xbde2666a	-0.1105469
109	0x3dbf066a	0.09327395
110	0xbe16b740	-0.14718342
111	0x3d9306fc	0.071790665
112	0xbe5d9acc	-0.21641082
113	0x3de4e83c	0.11177108
114	0xbdc1bbd0	-0.094596505
115	0x3e1d8e78	0.15386379
116	0xbdf2f10e	-0.11862384
117	0x3e39552f	0.18098901
118	0x3e4c36a5	0.1994272
119	0xbe634ed1	-0.22198035
120	0x3d809cc5	0.062799014
121	0x3d95af5a	0.07308836
122	0x3db28923	0.08717563
123	0xbe07bec7	-0.1325637
124	0x3dffc53e	0.12488793
125	0xbe156292	-0.14588383
126	0xbcbbb58d	-0.022913719
127	0xbe55fbfa	-0.20896903
128	0xbde135ae	-0.10996567
129	0x3de16a16	0.110065624
130	0xbd98f955	-0.07469431
131	0xbd4bf089	-0.04978994
132	0xbe4eb262	-0.20185235
133	0x3ccad029	0.024757462
134	0xbe409606	-0.1880723
135	0x3e13caa9	0.14432777
136	0x3d9b6776	0.07588093
137	0x3e4cac1a	0.19987527
138	0x3dd3c8c7	0.103410296
139	0xbe235f50	-0.15954328
140	0x3b2568cc	0.0025239466
141	0xbe1273e6	-0.14302024
142	0xbe3c2354	-0.18372852
143	0x3e516dab	0.20451991
144	0x3e56e5bd	0.20986076
145	0xbb062240	-0.0020467192
146	0xbd2d89b8	-0.042367667
147	0xbc12c8d0	-0.00895901
148	0x3dc3b38a	0.09555729
149	0x3e4b1ae1	0.19834472
150	0x3e38cd95	0.18047173
151	0xbe05c4de	-0.1306338
152	0xbd46730c	-0.04844956
153	0x3bd963e0	0.0066342205
154	0x3dd01704	0.1016064
155	0xbd542314	-0.051791266
156	0x3e23ae5d	0.15984483
157	0xbe42e18b	-0.1903135
158	0x3e20194d	0.15634651
159	0xbe566f16	-0.20940813
160	0x3e189343	0.14899926
161	0x3e093605	0.13399513
162	0xbc93f573	-0.018061375
163	0x3e0dbadd	0.13840814
164	0x3d4f9af2	0.050684877
165	0x3e03f7e9	0.12887539
166	0xbe506cf8	-0.20354068
167	0xbe2b9d05	-0.16759117
168	0xbe463cb7	-0.19359098
169	0xbcc9fa88	-0.024655595
170	0xbd1c1f6b	-0.0381159
171	0xbe5efe31	-0.21776654
172	0x3dd9bd7f	0.10631847
173	0xbe378350	-0.17921185
174	0xbdc310d8	-0.09524697
175	0xbe558351	-0.20850874
176	0xbdfab2d6	-0.122411415
177	0x3db3f37f	0.087866776
178	0x3e4294da	0.19002095
179	0x3e3e784c	0.18600577
180	0xbd8fb97b	-0.070177995
181	0x3e5016fb	0.20321266
182	0xbdf91a65	-0.121632375
183	0x3e2c3393	0.16816549
184	0x3e4ac736	0.19802555
185	0xbd153330	-0.03642577
186	0x3db2fc24	0.08739498
187	0xbcdc42f7	-0.0268874
188	0xbe3c03aa	-0.18360773
189	0x3e48f04a	0.19622913
190	0xbe533f68	-0.20629656
191	0x3e2d1d5f	0.16905735
192	0x3d7eb554	0.062184647
193	0x3db2b5ef	0.08726107
194	0x3d86679a	0.06562729
195	0xbdc48d10	-0.09597218
196	0x3e22a291	0.15882327
197	0xbd494317	-0.049136247
198	0x3cc7017e	0.024292704
199	0xbd1ee36d	-0.03879111
200	0x3d5d62e4	0.054049388
201	0xbd5204d5	-0.05127414
202	0x3c21a657	0.009866319
203	0x3e5dcdd9	0.21660556
204	0x3de9d849	0.11418206
205	0x3db40a2f	0.08791005
206	0xbe0ed2c2	-0.13947585
207	0x3e379c4e	0.1793072
208	0x3d22f9ec	0.039789125
209	0xbe54b551	-0.20772292
210	0x3d6f6eb4	0.058455184
211	0x3e086c6d	0.13322611
212	0x3e3e0021	0.18554737
213	0xbe1662d5	-0.14686139
214	0x3c01b715	0.007917185
215	0x3dae708a	0.08517559
216	0xbe5dbad6	-0.21653304
217	0xbe40c15e	-0.18823764
218	0xbcc26f5e	-0.023734745
219	0x3dd711c2	0.10501434
220	0x3dbee801	0.09321595
221	0xbda76672	-0.08173837
222	0xbdf34847	-0.1187902
223	0x3e13b7a0	0.14425516
224	0xbe069d4f	-0.13145946
225	0x3dcf1e1e	0.10113166
226	0xbdb5c4ca	-0.08875425
227	0xbd2aa120	-0.041657567
228	0xbbb82efe	-0.0056208363
229	0xbe5bf4a2	-0.21480039
230	0x3d1ef0cd	0.038803864
231	0xbd21fd8e	-0.03954845
232	0xbdd9dbfb	-0.10637661
233	0xbc82a5f8	-0.01594828
234	0x3d8301bf	0.063968174
235	0xbe03bed5	-0.12865765
236	0x3c8f2020	0.017471373
237	0x3dccecde	0.10006116
238	0x3de9e942	0.114214435
239	0xbe19e523	-0.15028815
240	0x3e58e8bb	0.2118253
241	0x3dcb7d57	0.09936016
242	0xbe322628	-0.17397368
243	0x3e20dc30	0.15708995
244	0xbe14e38a	-0.14539924
245	0xbb037e80	-0.0020064414
246	0xbd11f2ae	-0.035631828
247	0xbd00d96c	-0.03145735
248	0xbdc94dea	-0.09829314
249	0x3da31ee6	0.07964878
250	0x3e1af128	0.15131056
251	0x3e0e1582	0.13875392
252	0xba334ab9	-0.00068394426
253	0xbe1c8e31	-0.15288617
254	0x3df3772b	0.11887964
255	0xbd684a3c	-0.05671142

gcn_branch.gat_layers.1.att_src f4 [1, 4, 32]
0	0x3ec8345c	0.39102447
1	0xbe9f6996	-0.31135243
2	0xbea2f406	-0.318268
3	0xbe529839	-0.20565881
4	0x3ec611d2	0.3868547
5	0x3d2a0a40	0.04151368
6	0xbd12f9b1	-0.035882656
7	0xbec5342e	-0.38516372
8	0x3e4297b2	0.1900318
9	0x3d0a8e7a	0.033827282
10	0x3e89ba9f	0.26900193
11	0xbdd462ae	-0.10370384
12	0x3e159082	0.14605907
13	0x3e1e41d0	0.15454793
14	0xbe00d339	-0.12580575
15	0x3e4713b2	0.19441107
16	0xbe79da53	-0.2439969
17	0xbd80db90	-0.06291878
18	0xbe177902	-0.14792255
19	0x3e488f22	0.19585851
20	0xbe8a1411	-0.26968434
21	0xbe998c7f	-0.29990003
22	0xbcee6c6d	-0.029104436
23	0x3d73ac7d	0.05949067
24	0xbeb48f41	-0.35265544
25	0x3d0c773c	0.0342934
26	0xbe5f2dfa	-0.21794882
27	0x3e8087c5	0.25103584
28	0xbe8753ac	-0.26431024
29	0x3e4dd845	0.20102032
30	0xbea404ef	-0.32035014
31	0x3e0a5540	0.13509083
32	0xbe6f19b9	-0.23349656
33	0x3db212f2	0.0869502
34	0xbe58bfc3	-0.21166901
35	0xbe835c12	-0.25656182
36	0x3d0b1fdf	0.03396594
37	0x3e9ce94f	0.3064675
38	0xbe90de08	-0.28294396
39	0xbdf5ae65	-0.11996154
40	0xbea04b39	-0.3130739
41	0x3e33c5ab	0.17555873
42	0xbe2dd433	-0.16975479
43	0xbc6509d3	-0.013979393
44	0xbde619aa	-0.11235364
45	0xbeacf536	-0.3378083
46	0x3ea26acb	0.31722102
47	0x3e089533	0.13338165
48	0xbe4265a0	-0.1898408
49	0x3df99cf0	0.121881366
50	0xbe8d5acf	-0.27608344
51	0x3e9d80b2	0.3076225
52	0x3e8c16e6	0.2736122
53	0xbe11adc2	-0.1422644
54	0xbeaffa17	-0.3437049
55	0x3eaaeb72	0.33382756
56	0xbebd5ef1	-0.36986497
57	0x3eb096a0	0.34489918
58	0xbe2f103d	-0.17096038
59	0x3dc5b110	0.096529126
60	0x3e05c0ca	0.13061824
61	0xbd85628b	-0.06512936
62	0xbe6a68b7	-0.22891508
63	0x3c839f0c	0.01606705
64	0x3e1c11e5	0.15241201
65	0xbe01bf28	-0.12670577
66	0x3d20bc3d	0.039242018
67	0x3d0f500e	0.034988455
68	0x3e2c8617	0.16848026
69	0x3d66f6e2	0.05638779
70	0x3d2a03ee	0.041507654
71	0xbd94e2d8	-0.072698295
72	0x3e5d8282	0.21631816
73	0xbea2f705	-0.31829086
74	0x3e580676	0.21096215
75	0x3e9aad3e	0.30210298
76	0xbd80a6d1	-0.06281818
77	0x39da7bea	0.00041672523
78	0x3eb5a4b6	0.35477227
79	0x3d9e15be	0.07718991
80	0xbe8b8c04	-0.2725526
81	0xbec9fe95	-0.39452043
82	0x3e830f1f	0.25597474
83	0xbebcdca6	-0.3688709
84	0x3daee873	0.0854043
85	0xbec66811	-0.3875127
86	0xbe79d108	-0.24396145
87	0xbea4d7ce	-0.32195896
88	0x3e128edd	0.1431231
89	0x3df0eec1	0.11764289
90	0xbe72fc9f	-0.2372918
91	0xbea17ca9	-0.3154042
92	0xbeacae27	-0.33726618
93	0x3e9f1420	0.31070042
94	0x3ecafb17	0.3964469
95	0xbecd7807	-0.40130636
96	0x3d9b9787	0.07597261
97	0xbe2281e2	-0.15869859
98	0x3e1ca7fe	0.15298459
99	0xbe9ceea5	-0.3065082
100	0x3ed7011f	0.41993043
101	0xbec8340e	-0.39102215
102	0xbeb6f60f	-0.35734603
103	0x3e95e240	0.29274178
104	0xbea40e42	-0.32042128
105	0xbe90b917	-0.28266212
106	0x3eceab0b	0.4036487
107	0x3d0ba3d1	0.034091774
108	0x3ecd93c7	0.40151808
109	0xbe7390c5	-0.23785694
110	0xbdab8a17	-0.08375948
111	0xbd3c832c	-0.046023533
112	0xbe33fa81	-0.17576028
113	0xbe9ed244	-0.31019795
114	0xbd408634	-0.047002986
115	0x3de70101	0.11279488
116	0x3d5841ea	0.052797236
117	0x3e92e349	0.2868903
118	0x3edf4547	0.43607542
119	0xbdb1bf28	-0.08679038
120	0xbec0a1b0	-0.37623358
121	0x3aba614d	0.0014219672
122	0xbe7828eb	-0.24234359
123	0xbddb2956	-0.107012436
124	0x3eae29b3	0.3401619
125	0x3dcb47a3	0.09925773
126	0x3ebea41b	0.37234578
127	0x3eb300b8	0.34961486

gcn_branch.gat_layers.1.att_dst f4 [1, 4, 32]
0	0x3957cecc	0.00020581036
1	0xbe35fe22	-0.17772725
2	0x3eb8c6c9	0.3608916
3	0xbdc48b4e	-0.09596883
4	0xbde1063f	-0.109875195
5	0x3e0de075	0.13855155
6	0xbe9a5c47	-0.30148527
7	0xbea0c2d6	-0.31398648
8	0x3dc66c65	0.09688643
9	0x3d323336	0.04350587
10	0xbdf7e710	-0.121046185
11	0x3e249f0b	0.16076295
12	0x3e814652	0.25248963
13	0xbe1f2961	-0.15543129
14	0x3c4e7873	0.0126019595
15	0x3d8f32ab	0.06992086
16	0xbb072ef1	-0.0020627344
17	0x3c81efcd	0.015861416
18	0xbe651432	-0.22370985
19	0xbe4da93a	-0.20084086
20	0x3e04f7fa	0.1298522
21	0x3ea99853	0.33124027
22	0x3e5dda22	0.21665242
23	0xbeabef6c	-0.33581102
24	0xbe1119a1	-0.14169933
25	0x3e120b11	0.14262034
26	0xbd26fd50	-0.04076892
27	0xbc61541e	-0.013752965
28	0x3e0e8c59	0.13920726
29	0x3e634ce6	0.22197303
30	0xbde80f84	-0.11331084
31	0xbe39dd3f	-0.18150805
32	0xbec24df3	-0.37950096
33	0x3dd1997d	0.10234354
34	0xbeabb77c	-0.33538425
35	0x3e490b3c	0.19633192
36	0x3e81108a	0.2520793
37	0xbec7c590	-0.39017916
38	0xbba2380c	-0.004950529
39	0xbe39c0f1	-0.18140008
40	0xbea9addb	-0.33140454
41	0x3d4a7154	0.049424484
42	0x3e3dccf0	0.18535209
43	0xbe5a32bd	-0.21308418
44	0x3e936cbd	0.28793898
45	0xbed2731e	-0.41103452
46	0x3d632e07	0.055463817
47	0xbed4b429	-0.415437
48	0xbea1a7f2	-0.31573445
49	0x3de42112	0.1113912
50	0x3e943250	0.28944635
51	0x3e999d18	0.30002666
52	0x3e3a15b7	0.18172346
53	0xbddac467	-0.10681992
54	0x3e8f6f15	0.28014436
55	0xbe0108d5	-0.12601025
56	0x3e6404f6	0.22267517
57	0xbdf39686	-0.118939444
58	0xbcdc2154	-0.02687136
59	0xbdd418d7	-0.103563
60	0xbb20d688	-0.0024541933
61	0x3debb458	0.11509007
62	0x3e6c79f9	0.23093404
63	0x3e880456	0.26565808
64	0x3ec1f54a	0.37882453
65	0x3ca2177b	0.019786587
66	0xbe1d2b46	-0.15348539
67	0xbe19f973	-0.15036564
68	0x3db04dba	0.08608575
69	0xbda930cb	-0.0826126
70	0xbde29e2e	-0.11065327
71	0x3e965560	0.2936201
72	0xbec7c7d3	-0.3901964
73	0x3e8739ab	0.26411185
74	0x3e7f3582	0.24922755
75	0xbe9c29b7	-0.30500576
76	0x3ec50d27	0.38486597
77	0x3d65a7b6	0.056068145
78	0xbebbd2c9	-0.36684254
79	0x3eaffce7	0.34372637
80	0xbdfe9b9e	-0.124320254
81	0x3ebac578	0.36478782
82	0x3d688f02	0.056777008
83	0x3e928d0a	0.2862323
84	0xbce6df49	-0.028182643
85	0x3ecd0178	0.40040183
86	0xbe590739	-0.21194161
87	0xbe9cd6d5	-0.30632654
88	0xbdb15111	-0.0865804
89	0x3e2f2915	0.17105515
90	0x3eb73ff4	0.3579098
91	0xbe7bca11	-0.24588801
92	0x3e916683	0.28398523
93	0x3e5d5006	0.21612558
94	0x3e9edfee	0.3103022
95	0x3ecb2ed2	0.3968416
96	0xbe6d4ac0	-0.23173046
97	0xbe98461e	-0.29740995
98	0xbead1ab4	-0.33809435
99	0xbd9ca1e4	-0.07648066
100	0xbeb5e041	-0.35522655
101	0xbecd1b0d	-0.400597
102	0x3cb43895	0.021999637
103	0xbd1bd34b	-0.0380433
104	0xbe331496	-0.17488322
105	0x3e3c0032	0.1835945
106	0x3eaf651c	0.34256828
107	0xbe0def4a	-0.13860813
108	0xbe8e171a	-0.27752
109	0xbeb0713a	-0.34461385
110	0x3e75ffbd	0.24023338
111	0x3d1115b7	0.0354211
112	0xbe8557b9	-0.2604349
113	0x3e147d15	0.1450084
114	0xbdcd93fb	-0.10037991
115	0xbdce9f7e	-0.100890145
116	0x3e3a45f1	0.18190743
117	0x3e3f8883	0.18704419
118	0xbe018bb3	-0.12650947
119	0xbc711f4b	-0.0147169335
120	0xbe7e6f6e	-0.24847195
121	0xbe8c3ff4	-0.27392542
122	0xbced9ced	-0.029005492
123	0x3e7c9339	0.24665536
124	0xbe93f712	-0.28899437
125	0x3ea9bae5	0.33150402
126	0xbe5015da	-0.20320836
127	0xbea65afe	-0.32491297

gcn_branch.gat_layers.1.bias f4 [128]
0	0x3b1a2c5b	0.0023524973
1	0x3b468463	0.003029131
2	0xbbd9b765	-0.006644177
3	0xbbda45a7	-0.0066611352
4	0xbbcb5bea	-0.0062060254
5	0x3932126b	0.00016982264
6	0xbc185311	-0.009297148
7	0x3c224f6b	0.00990663
8	0x3c1379f2	0.009001242
9	0x3954e6cd	0.00020303875
10	0xbbfe8abd	-0.0077680037
11	0x3b41a643	0.0029548563
12	0xb99882c6	-0.00029089133
13	0xbc22dbb1	-0.009940074
14	0x398f7d0c	0.00027368253
15	0xbb0d1172	-0.002152529
16	0xbb206651	-0.0024475048
17	0xbaf49dd2	-0.0018662757
18	0xbc07d91b	-0.008291508
19	0xbb0da51d	-0.0021613308
20	0xbbf6433e	-0.00751534
21	0x3b9fa4ee	0.004871956
22	0x3b71a572	0.0036872295
23	0xb9e8604d	-0.00044322238
24	0xbbea70d9	-0.007154566
25	0x3c13f811	0.009031312
26	0x3c3d3f8d	0.011550796
27	0x3b2addba	0.00260721
28	0xbb8824bc	-0.0041547697
29	0xbbd558db	-0.0065108365
30	0xbbe256a0	-0.006907299
31	0xbc00e74e	-0.007867647
32	0xbc5518c6	-0.013006395
33	0x3bbbf197	0.005735587
34	0x3c4ea129	0.012611666
35	0xbb476e33	-0.0030430674
36	0xbc720fae	-0.014774246
37	0x3bc0234c	0.0058635827
38	0xbb8c8ee6	-0.0042894958
39	0xbbe07f04	-0.006851079
40	0x3b0c166e	0.0021375674
41	0x3bbf7a1c	0.005843414
42	0x3ba07e7e	0.0048978915
43	0xb998253c	-0.0002901944
44	0xb9112000	-0.00013840199
45	0xbb1cda41	-0.00239338
46	0xbb75b8f3	-0.0037494272
47	0x3b8a63d4	0.004223326
48	0x3bbe067e	0.005799114
49	0xbb8969ba	-0.004193512
50	0xbb273170	-0.0025511645
51	0xbb9830f1	-0.004644506
52	0x389a9fa4	7.3730276e-05
53	0xbbe779df	-0.0070640887
54	0x3b7c00af	0.0038452556
55	0x3c42a7e7	0.011880851
56	0xbc87620e	-0.016526248
57	0x3c203a56	0.009779533
58	0x3b0f068c	0.002182397
59	0x3c3015c5	0.010747378
60	0x3c066e84	0.00820506
61	0xbb1d3407	-0.002398731
62	0x3ba9b1e6	0.005178678
63	0xbb084ef4	-0.0020799013
64	0x3a61be37	0.0008611413
65	0x388112e0	6.154715e-05
66	0xbb964140	-0.004585415
67	0xbc5c15d0	-0.013432935
68	0xbb92be84	-0.0044782776
69	0x3b21fcc3	0.0024717308
70	0xbc51740c	-0.012784015
71	0xbb9ef05e	-0.0048504313
72	0x3b817609	0.0039508385
73	0x3be03c36	0.006843115
74	0xbb3e6f4e	-0.0029058042
75	0x3a5e3fcb	0.0008478134
76	0x3b09e594	0.002104138
77	0x3bed6f4f	0.007245935
78	0xb98b416c	-0.0002656089
79	0x3aa4bc4c	0.0012568324
80	0xbbd8acd4	-0.0066123996
81	0x3b8005c7	0.0039069387
82	0xba0bed6b	-0.0005337807
83	0xba48f314	-0.0007665616
84	0xbb4166b0	-0.002951067
85	0xbb969e27	-0.00459649
86	0xbbe17107	-0.006879929
87	0x3a69ac81	0.000891395
88	0x3ab02091	0.001343744
89	0x3a5a803b	0.0008335148
90	0xbb2bbd01	-0.0026205184
91	0xbbc42b63	-0.0059866174
92	0xba9f7036	-0.0012164179
93	0xbc0020c9	-0.007820317
94	0x3baccd48	0.005273495
95	0xbc8c6629	-0.017138558
96	0xbb8135a7	-0.0039431634
97	0x3bc94adb	0.0061429567
98	0x3a8c7c35	0.0010718169
99	0xbb858728	-0.00407495
100	0x3b1d8c68	0.0024039987
101	0xbadf51b1	-0.0017037896
102	0x3bc90e64	0.0061357487
103	0xb94cd46b	-0.00019534088
104	0x3af21f2c	0.0018472425
105	0xbb92ec35	-0.0044837245
106	0x3a09d07d	0.00052572024
107	0xba929228	-0.0011182474
108	0x3bf7dbdb	0.0075640506
109	0xbc46ff37	-0.012145809
110	0x3c8ac1b0	0.01693806
111	0xb771a8b4	-1.4403999e-05
112	0xb9b45f2f	-0.00034403193
113	0x3bdec869	0.006798793
114	0xbb261da2	-0.0025347252
115	0x3b519f64	0.0031985873
116	0xbbf77650	-0.0075519457
117	0x3b0753fd	0.0020649426
118	0xbba12d9d	-0.0049187676
119	0x3ae1a164	0.0017214236
120	0xbc2d2897	-0.010568759
121	0x3aaf9c4f	0.0013398024
122	0x3a8ebadb	0.0010889428
123	0x39c65fc8	0.00037836866
124	0xba948b91	-0.0011333098
125	0xba87bf34	-0.0010356666
126	0xba8d0875	-0.0010759967
127	0x3b27bbe0	0.002559416

gcn_branch.gat_layers.1.lin.weight f4 [128, 128]
0	0x3de3d793	0.11125102
1	0xbe1d0dc0	-0.15337276
2	0xbd1619d5	-0.03664573
3	0x3d96b2ee	0.07358347
4	0xbd462a5f	-0.048380252
5	0xbcdd3238	-0.027001485
6	0xbd058fc2	-0.0326078
7	0x3d258647	0.04041126
8	0xbdb6e808	-0.08930975
9	0x3d20766a	0.03917543
10	0x3d51edb0	0.051252067
11	0x3d0e829c	0.034792528
12	0xbc1b60af	-0.0094835
13	0x3dd67f65	0.10473517
14	0x3d8f4ebd	0.0699744
15	0x3d9ce042	0.07659961
16	0xbdc655a0	-0.096843004
17	0x3dacdf7c	0.08441064
18	0xbd97c25b	-0.07410117
19	0xbda96c80	-0.08272648
20	0xbe1b54d5	-0.1516908
21	0x3c0b54c2	0.008504095
22	0x3d9910bc	0.07473895
23	0x3cb5a564	0.022173591
24	0xbe078912	-0.13235882
25	0xbdbb4694	-0.09144321
26	0x3d69d6b8	0.057089537
27	0xbe08f9be	-0.13376519
28	0x3d9796ae	0.07401787
29	0xbc25b2fc	-0.010113474
30	0xbe08715e	-0.13324496
31	0xbdd9fd18	-0.10643977
32	0xbdadf60d	-0.08494196
33	0x3e115962	0.14194253
34	0x3ba262a1	0.004955605
35	0xbdec2933	-0.115312956
36	0xbdeeaecb	-0.11654433
37	0xbd6ceeba	-0.057844855
38	0x3e1c0e6d	0.15239878
39	0x3ddf3613	0.10898986
40	0x3cc86aca	0.024464983
41	0x3dde37a2	0.10850455
42	0x3da72fe6	0.08163433
43	0xbe015f64	-0.12634045
44	0xbd0b77d5	-0.034049828
45	0x3d5f3510	0.054493964
46	0x3d7859b3	0.06063242
47	0xbd8187a6	-0.06324701
48	0x3e0146c8	0.12624657
49	0xbde5bba5	-0.11217431
50	0xbc59a062	-0.013282867
51	0x3dce2edd	0.10067532
52	0xbdd92699	-0.10603065
53	0xbdc98a16	-0.09840791
54	0xbb68f503	-0.003554643
55	0x3df67a0e	0.12034999
56	0x3d2b7542	0.041859873
57	0x3d64c8e8	0.05585566
58	0x3d877664	0.06614378
59	0xbdb38616	-0.08765809
60	0xbd370e84	-0.044691578
61	0x3da0ae0e	0.07845698
62	0x3d0a86fa	0.03382013
63	0xbd26b2fc	-0.040698037
64	0xbd3c3f6f	-0.045958932
65	0xbd2531d6	-0.04033073
66	0x3d982ce1	0.07430435
67	0x3cb2d463	0.02182979
68	0xbd87b997	-0.06627195
69	0x3dc03d7d	0.09386728
70	0xbde2117d	-0.11038492
71	0x3dce2ba1	0.10066915
72	0x3e19c188	0.15015233
73	0xbd843a5a	-0.06456442
74	0x3adacddd	0.0016693432
75	0x3d14ee64	0.03636016
76	0xbd62042a	-0.055179752
77	0x3d0369de	0.032083385
78	0x3df2e0ef	0.11859309
79	0xbe02e50d	-0.12782688
80	0x3dc3109c	0.09524652
81	0xbe1312b6	-0.14362606
82	0x3e04c82d	0.12966986
83	0xbbb681ea	-0.005569686
84	0xbe03a00a	-0.12854019
85	0xbb40d83a	-0.0029425756
86	0xbd798d64	-0.060925856
87	0xbbe9401b	-0.0071182377
88	0x3e06fd99	0.13182677
89	0x3dd67320	0.10471177
90	0x3e05e460	0.130754
91	0x3de8b01b	0.113617145
92	0xbd16a3ed	-0.036777426
93	0xbd8015ee	-0.06254183
94	0x3d699057	0.05702242
95	0xbd864fed	-0.065582134
96	0x3dc98c12	0.098411694
97	0x3e0d38ab	0.13791148
98	0xbd1fa7cf	-0.038978394
99	0x3c9d93fd	0.019235605
100	0xbdf43874	-0.1192483
101	0x3cd864fa	0.026415337
102	0xbe0232b9	-0.12714662
103	0x3bbdc4cd	0.0057912827
104	0xbde20692	-0.110364094
105	0xbd6ee6bb	-0.05832551
106	0xbdb62cf1	-0.08895291
107	0xbc0e1712	-0.008672493
108	0xbd71e286	-0.05905392
109	0x3df0552a	0.11734994
110	0xbe1ad446	-0.15120038
111	0x3d394f7a	0.04524181
112	0x3d90d578	0.07071966
113	0x3df7dcfe	0.12102698
114	0xb959203c	-0.00020706741
115	0x3dfec63e	0.124401554
116	0xbc00a345	-0.0078514265
117	0xbdb201bc	-0.08691737
118	0x3e009c6b	0.12559669
119	0x3d31ed30	0.04343909
120	0x3e127f07	0.1430627
121	0xbd2bf58a	-0.04198221
122	0xbd97574c	-0.073896974
123	0x3e19daa6	0.15024814
124	0x3dac7634	0.08420983
125	0x3d5fc1ed	0.0546283
126	0x3c33508d	0.010944498
127	0xbe091e40	-0.13390446
128	0x3d956d7b	0.07296272
129	0x3d2d0a74	0.042246297
130	0x3d5c0727	0.05371776
131	0x3dcf64a5	0.10126618
132	0x3cb7b446	0.022424828
133	0xbdbf2468	-0.09333116
134	0x3e0d4acf	0.13798068
135	0x3db33591	0.08750451
136	0x3d22e8f5	0.039772946
137	0xbd13958f	-0.036031302
138	0xbd3e09c6	-0.04639604
139	0xbc5dfbce	-0.013548804
140	0x3936dea2	0.0001743981
141	0xbe0e6579	-0.13905896
142	0xbe1d868f	-0.15383361
143	0xbd42bc01	-0.047542576
144	0x3d4d40de	0.05011069
145	0x3dfd21e6	0.12359981
146	0xbdf00c51	-0.11721099
147	0xbd8d01d0	-0.06885111
148	0xbd93ebf3	-0.07222738
149	0x3b0e2e31	0.0021695013
150	0x3cde2799	0.027118491
151	0x3da3d895	0.08000294
152	0x3ccbad70	0.024862975
153	0x3d727a55	0.059198696
154	0x3dc37f8e	0.095458135
155	0xbceccf5d	-0.028907472
156	0x3cbe527b	0.02323269
157	0xbd054d7a	-0.03254459
158	0x3da92b2e	0.08260189
159	0xbac95047	-0.0015359008
160	0x3defea35	0.11714593
161	0xbdef461e	-0.11683296
162	0x3de7e435	0.11322824
163	0xba7eae14	-0.0009715271
164	0x3da765fe	0.0817375
165	0x3dc27424	0.09494808
166	0x3dbcc0f3	0.0921649
167	0x3dfdc5eb	0.123912655
168	0xbe106860	-0.14102316
169	0x3d9a0dfe	0.075222
170	0x3e08dbfe	0.1336517
171	0x3cb0a0a1	0.021560969
172	0xbdb47ff2	-0.08813466
173	0xbc96eff4	-0.018424965
174	0xbe18b6a5	-0.14913423
175	0xbe0c6a82	-0.13712505
176	0x3e049b00	0.12949753
177	0xbdc9047f	-0.09815311
178	0xbdf23717	-0.11826914
179	0xbdfed0e1	-0.12442184
180	0x3d33282a	0.043739475
181	0x3e029a22	0.1275411
182	0xbe111ae1	-0.1417041
183	0xbd0c738e	-0.03428989
184	0x3db51bd4	0.088431984
185	0xbe18b7e4	-0.14913899
186	0x3db11016	0.08645646
187	0xbd861267	-0.06546479
188	0x3dfaedae	0.12252365
189	0xbda090eb	-0.07840141
190	0xbd67bb1d	-0.05657493
191	0x3c8d757b	0.017267933
192	0x3d5abbbb	0.05340169
193	0xbd84bf7e	-0.06481837
194	0x3d33ddb1	0.043912593
195	0xbe0ddb89	-0.13853277
196	0x3d477568	0.04869595
197	0x3df99d68	0.12188226
198	0xbd463b08	-0.04839614
199	0xbe0d3961	-0.1379142
200	0xbce3f438	-0.027826414
201	0x3d4bbde0	0.049741626
202	0x3d4887d9	0.04895768
203	0x3ddc054a	0.10743196
204	0xbdad8d9d	-0.08474276
205	0x3c66ac82	0.014079215
206	0x3deaad7d	0.114588715
207	0xbdb98f7c	-0.090605706
208	0xbd4b89ca	-0.049691953
209	0x3d847184	0.06466964
210	0xbd3e4549	-0.046452794
211	0xbd11fc19	-0.03564081
212	0xbdd90fd0	-0.10598719
213	0xbd05255a	-0.032506324
214	0x3da2b02f	0.079437606
215	0xbe11a21e	-0.14221999
216	0x3bc59597	0.0060297954
217	0x3ccfd33f	0.025369285
218	0x3cc90758	0.024539635
219	0x3e0a2ba5	0.13493212
220	0x3d3e325c	0.046434745
221	0xbdd42843	-0.10359242
222	0xba5b3056	-0.00083613896
223	0x3d9b4a1f	0.07582497
224	0x3d3ad1d2	0.045610256
225	0xbe11b877	-0.14230524
226	0xbe0b7857	-0.13620125
227	0xbd777626	-0.06041541
228	0xbdd88202	-0.10571672
229	0x3cf8deaa	0.030379612
230	0x3e2be165	0.167852
231	0xbdae0498	-0.0849697
232	0xbc7dd303	-0.015492204
233	0xbcaadd91	-0.020857604
234	0x3deaf773	0.114729784
235	0xbdf5fc5e	-0.12011026
236	0x3d5615da	0.052266933
237	0xbbd357b2	-0.006449663
238	0x3d094f73	0.033523034
239	0x3e0f8ea2	0.14019254
240	0x3e0a4ed5	0.13506635
241	0x3dc28df0	0.09499729
242	0x3dfd581b	0.123703204
243	0xbdb54774	-0.08851519
244	0xbdd90697	-0.1059696
245	0xbbe2917c	-0.0069143157
246	0xbe185467	-0.14875947
247	0x3ddcbf79	0.10778708
248	0xbd635d65	-0.05550899
249	0x3d8b4dad	0.06801925
250	0xbcc1d497	-0.023660941
251	0x3e0d58e9	0.13803448
252	0x3d9b9f70	0.0759877
253	0x3da27d2f	0.07934033
254	0xbd902b6a	-0.070395306
255	0x3d813377	0.06308644
