finalhybrid/experiments/experiment_20251104_083606/final_hybrid_model.pth (torch, 828338 bytes, 21 tensors)

gcn_branch.gcn_layers.0.bias f4 [64]
000000 f1 ce 81 bc 14 3e 78 bc 1a e2 10 bc 4c b8 59 3c
       -0.015845748 -0.015151519 -0.008842969 0.013288569
000010 e6 8c 51 bc 00 00 00 00 35 d1 be bc b9 2b a7 bc
       -0.01278994 0.0 -0.023293117 -0.02040659
000020 ba 42 4a 3b 28 b2 4d bb 19 c0 2c 3d 8c 0e 0e 3c
       0.0030862526 -0.0031386707 0.042175386 0.00867046
000030 22 2b a9 bc 00 00 00 00 00 00 00 00 a9 a3 53 bb
       -0.02065045 0.0 0.0 -0.0032293594
000040 00 00 00 00 0e 39 64 bc 00 00 00 00 92 69 1b bd
       0.0 -0.0139296185 0.0 -0.037942477
000050 4c 0f fb bc 90 8f 22 bc 00 00 00 00 ff 6f a0 bc
       -0.030646943 -0.009921923 0.0 -0.019584654
000060 3d 0a 36 bc 00 00 00 00 89 18 b1 bc 00 00 00 00
       -0.011110839 0.0 -0.021618145 0.0
000070 66 07 c6 bc c5 39 bd bb 29 28 ab ba 93 b7 86 bc
       -0.02417345 -0.005774709 -0.0013058233 -0.016444957
000080 3a 62 15 3d e1 16 c0 bc c6 04 99 bb 93 26 15 3d
       0.03647063 -0.02344841 -0.0046697585 0.03641374
000090 00 00 00 00 00 00 00 00 54 60 52 bc 00 00 00 00
       0.0 0.0 -0.012840349 0.0
0000a0 c3 a4 b8 3c 00 00 00 00 00 00 00 00 4b c5 16 bd
       0.022539502 0.0 0.0 -0.036809247
0000b0 00 00 00 00 db 69 d4 3c b5 37 0d bc 3b 49 8c bb
       0.0 0.025929382 -0.008619239 -0.0042811907
0000c0 ac de 00 bd 94 64 c2 39 00 00 00 00 36 a5 b4 bc
       -0.031462356 0.000370775 0.0 -0.022051435
0000d0 00 00 00 00 00 00 00 00 00 00 00 00 55 b1 b3 bc
       0.0 0.0 0.0 -0.021935144
0000e0 66 f0 c4 bc 50 3e 1f bc 58 e5 55 3b 85 d8 e2 3a
       -0.024040412 -0.009719446 0.003263792 0.001730696
0000f0 f0 cd 74 bc ec a8 2d 3c d4 95 19 3c 00 00 00 00
       -0.014941677 0.010599356 0.009374101 0.0

gcn_branch.gcn_layers.0.lin.weight f4 [64, 36]
000000 20 bf 8a 3d 70 74 8d 3b 55 38 9c bd 34 79 64 be
       0.067747355 0.004316859 -0.07627932 -0.2231186
000010 2d ac 8f 3c 53 43 5f be f5 8f a2 bd 4e cb b9 bd
       0.017538154 -0.21803026 -0.07937614 -0.090719804
000020 02 b9 03 3d 12 c9 db 3d 37 1e 45 3e 20 98 af 3b
       0.03215886 0.107317105 0.19249807 0.005358711
000030 ef 67 23 be f0 79 75 bd 40 eb 41 be c0 2c 86 3b
       -0.15957616 -0.05993074 -0.18937397 0.00409469
000040 c2 bc 21 be ae 06 d2 3d 50 eb b0 bc 8c a7 a9 bd
       -0.15794662 0.1025518 -0.02159658 -0.0828391
000050 00 24 dd b9 bc 3c 28 3e 00 11 18 ba c7 7e 17 3c
       -0.00042179227 0.16429418 -0.0005800873 0.009246535
000060 9f 89 0d bd c0 0f d5 bb 63 52 b0 3d 1e 9e 19 be
       -0.034555074 -0.0065021217 0.08609464 -0.15001723
000070 dc 16 cc bd 3d 90 12 3e 48 c6 c1 bd af 15 3b 3e
       -0.099652976 0.14312835 -0.09461647 0.1826999
000080 66 70 d6 3d 44 4e 36 3e 29 22 d5 b9 6b 01 59 be
       0.10470657 0.17803293 -0.00040651977 -0.21191947
000090 1b c7 01 be d7 8c 22 be 20 6b 1a be 6d dd 80 bd
       -0.12673609 -0.15874039 -0.15079927 -0.062922336
0000a0 fe 5e ef bd 92 d7 ca bd 0c ad 60 bd 00 e4 43 ba
       -0.1168804 -0.09904398 -0.05485253 -0.00074726343
0000b0 d8 45 a7 bc 4c 85 60 3d 18 6c 91 bd b1 e3 49 3e
       -0.020419046 0.05481462 -0.07100695 0.19715764
0000c0 32 ad ea bd cd 26 3b 3e 6a 83 93 bd cc 16 b5 bd
       -0.11458816 0.1827652 -0.072027996 -0.08842239
0000d0 45 e2 36 3e 42 7b c3 bd 4f 3e 3d 3e 9b 33 0c 3e
       0.17859752 -0.09544994 0.184808 0.13691561
0000e0 12 7d 8f bd d5 63 b4 3d 8c 20 1b 3d 33 e8 1a 3e
       -0.07006277 0.08808104 0.037872836 0.1512764
0000f0 89 a6 fa 3d 59 a0 36 3e 6d 89 80 be 28 99 54 3e
       0.12238795 0.17834605 -0.25104848 0.2076155
000100 b8 99 cb bc 68 3a 53 3e 68 e2 6f be d0 c3 73 bc
       -0.024853572 0.20627749 -0.23426211 -0.014878228
000110 62 7f a4 bd 29 78 65 3e bc 8b 0e 3e 5c 4b 55 3e
       -0.08032109 0.22409119 0.13920492 0.20829529
000120 1d 06 d7 3a 14 1c 36 be 5e 51 8f bd d3 11 6b be
       0.001640502 -0.17784148 -0.069979414 -0.22956018
000130 f7 e7 05 3d 41 c4 43 be 42 f2 08 be dc 0b 29 3d
       0.032691922 -0.19117834 -0.13373664 0.041271076
000140 69 f4 1e 3e 0c a3 36 3d 4c ac 26 bd 26 a2 e4 3d
       0.15522923 0.044589087 -0.04069166 0.1116374
000150 2c fb 16 bd 4f 04 2e 3e 52 19 ef bd 89 f1 02 3e
       -0.03686063 0.16993831 -0.11674751 0.12787451
000160 74 f0 a4 bd 40 8d 45 bc 7d 5e 40 3e 5d c3 0b 3e
       -0.08053675 -0.012057602 0.18786044 0.13648744
000170 20 a9 3f be 48 89 4d be 2a c0 61 be c6 63 c3 3d
       -0.1871686 -0.200719 -0.22045961 0.09540515
000180 7c 35 ad bd c6 60 9c bd 56 fe 13 bd 81 00 2c 3b
       -0.08457467 -0.076356456 -0.036131226 0.0026245418
000190 d0 4f d3 bc 6a 7c 73 be 56 2d 66 3e ef ad 12 be
       -0.025794894 -0.23777929 0.22478232 -0.14324163
0001a0 c4 26 f9 bd a9 bd 41 3e e8 aa 19 3e 7d e0 64 be
       -0.12165597 0.18920006 0.15006602 -0.2235126
0001b0 bd fb 27 be 28 de 1a 3d 86 01 a2 3c bc 2d ff bc
       -0.16404624 0.03780952 0.019776117 -0.031149738
0001c0 7e 6d 4c be df 8b 6e 3e 76 63 e0 3d 48 69 91 3c
       -0.19963643 0.23295544 0.10956471 0.017750397
0001d0 68 30 60 bd b2 e2 36 be 8f 92 4d be a8 05 55 bd
       -0.054733664 -0.17859915 -0.20075439 -0.052007347
0001e0 c2 05 db 3d 26 d5 9e 3d 0e 5c e4 bd 20 29 81 3b
       0.106944576 0.077554986 -0.111503705 0.00394167
0001f0 16 ea f1 3d 7d cb 6a 3e 32 07 a8 bd 1c 4a 51 bd
       0.118122265 0.22929187 -0.082044974 -0.051096067
000200 05 19 0d 3e fb 98 76 3e a6 ed df 3d 3e 8a 0b bd
       0.13779075 0.24081795 0.10934 -0.034067385
000210 e2 51 70 3d 2e d7 fe 3d f5 a5 10 be 06 d6 8c 3d
       0.05867184 0.12443386 -0.14125808 0.06876759
000220 97 72 49 3e 4d 63 f9 3d 6d 45 cf bc 90 84 84 bc
       0.19672619 0.12177143 -0.02530166 -0.016176492
000230 c9 b8 78 3e 24 3b 2f 3e 49 c2 1d 3e 55 e5 07 be
       0.2428924 0.17112404 0.15406145 -0.13271077
000240 0b 98 1b 3e 07 e4 90 3c 99 31 01 3e 70 a4 42 be
       0.15194719 0.017686857 0.12616576 -0.1900804
000250 b7 56 39 bd 01 d4 81 3e 2a d4 28 be d0 96 7e 3c
       -0.045248713 0.2535706 -0.16487184 0.015538886
000260 0d 81 24 be 21 31 69 3e d6 3a a1 bd 71 75 68 be
       -0.16064854 0.22772647 -0.0787255 -0.2270105
000270 c3 b8 6e 3e 7e 5d c8 3d ac b6 57 3d d2 b6 0a be
       0.23312669 0.09783457 0.052664444 -0.13546303
000280 4a 40 08 be 78 b9 9e bc 6b 3c 79 3e b4 16 6c 3d
       -0.13305774 -0.019375548 0.24339454 0.05763884
000290 ca 9c e6 bd fa 07 60 be 00 3b 9a ba 65 9f 40 3c
       -0.11260374 -0.21878043 -0.0011766851 0.011756753
0002a0 52 97 08 3d 86 55 20 be 7d ea 0e bb 5e 59 21 3e
       0.033347435 -0.15657625 -0.0021807246 0.15756747
0002b0 f2 61 15 3e 0c ec 24 3e 0f 51 4e 3e d0 f6 79 bd
       0.14588144 0.1610567 0.20148109 -0.061026394
0002c0 5b af 6e be bc a9 40 3d d0 86 63 3e fa 37 79 be
       -0.2330908 0.04703687 0.22219396 -0.2433776
0002d0 be 18 e5 bd 5c 7d 37 3d 68 74 a5 3c 1f 0e 2e 3e
       -0.1118636 0.044797286 0.020197108 0.16997574
0002e0 1c bc 79 3d bc c8 a5 bd d8 be 4a be 15 b3 71 be
       0.06097041 -0.08094928 -0.19799364 -0.2360347
0002f0 30 9d 36 3c 88 c9 dd bc 8b 68 2d 3e 6a 13 cd 3d
       0.011145875 -0.027073637 0.16934411 0.100134686
000300 cf 2e 3b be 07 c8 48 3e c3 60 1c 3e 6c 34 3f bd
       -0.18279575 0.19607554 0.15271287 -0.046680853
000310 02 43 53 be ce 3d e4 3d 05 72 07 be 9a e5 ed 3d
       -0.2063103 0.11144601 -0.13227089 0.11616059
000320 a8 5c e6 bd 87 70 76 be 08 30 87 bd fb ca 2d 3e
       -0.112481415 -0.24066363 -0.06600958 0.16971962
000330 9e 72 26 be 88 cb b4 bc 5e 03 dc bd 27 13 15 3e
       -0.1625466 -0.022069708 -0.1074283 0.14558087
000340 a4 93 07 3d fc ee e5 bd 16 76 c4 3d 7b f3 08 3e
       0.033099785 -0.11227223 0.095928356 0.1337413
000350 76 9c a1 3d 38 74 fd bc 9c 19 6b 3d 9b 35 31 be
       0.07891171 -0.030939206 0.05739747 -0.17305605
000360 77 a9 5b 3e 2b d0 c4 3d af 46 2e 3e 1c 20 8b 3e
       0.21451364 0.096100174 0.17019151 0.27172935
000370 eb 1d fa bc 8f ac 9c 3e c8 d0 8b be a3 a6 49 3e
       -0.030531844 0.30600402 -0.27307725 0.19692473
000380 93 cd 21 3e 64 3c 50 be 58 85 09 be 6e da 48 be
       0.15801077 -0.20335537 -0.13429773 -0.19614574
000390 61 06 03 3e 4a 46 65 be 09 cb 4e 3e 02 4b ba 3d
       0.12795402 -0.22390094 0.2019464 0.09096338
0003a0 50 06 e9 bc b7 10 6e 3e b6 b6 89 3d 42 28 cc 3d
       -0.028445393 0.23248564 0.067243025 0.09968616
0003b0 7a 5e 53 be d0 57 40 3e 9d 54 70 3e 0f 56 1e bc
       -0.20641509 0.18783498 0.23469777 -0.009664073
0003c0 94 07 22 bd 36 77 bd 3d da 18 23 3e 0d 3b 12 bd
       -0.03955801 0.09251253 0.15927449 -0.035700846
0003d0 26 76 17 3e 00 94 f7 bc 42 c6 05 3e 22 ee 14 be
       0.14791164 -0.03022194 0.1306391 -0.14543965
0003e0 7e fc ce 3d 8b 84 23 bd 94 6f 2d bd f1 67 50 3e
       0.10106753 -0.039921325 -0.042342737 0.2035215
0003f0 7c 1e 81 be 33 e6 21 3e e5 99 4c 3e 05 ac 73 3e
       -0.2521857 0.1581047 0.19980581 0.23796089

gcn_branch.gcn_layers.1.bias f4 [128]
000000 1c ec 6d bc 52 9f 16 bc dd ef b7 bc 90 8c dc bb
       -0.014521625 -0.009193258 -0.022453243 -0.0067306235
000010 ad b5 4f bc f8 61 3f bc 2e b6 0b b9 19 71 26 bc
       -0.012677592 -0.011681072 -0.0001332394 -0.0101588005
000020 32 50 3d 3a cf cf 11 3b b0 cc b6 bb f1 aa 75 bc
       0.0007221728 0.0022249108 -0.0055786 -0.014994369
000030 28 e5 fc bc 2e 51 52 3c 43 7d 32 3b 69 48 0f bc
       -0.030870989 0.012836738 0.0027235306 -0.008745291
000040 68 1a 4e bb 99 b6 48 bc 11 0f 1e bc f9 7d 6f bc
       -0.0031448845 -0.012250566 -0.009647147 -0.014617437
000050 d9 00 bb bb da 20 32 3b 38 9c 8e bb a0 d5 9e bc
       -0.005706888 0.0027180226 -0.004352119 -0.019388974
000060 b6 1e 9d 3b ab fa 59 bb 62 22 07 bc 8d e0 70 bb
       0.004794921 -0.0033260982 -0.008247944 -0.0036754936
000070 5f 9a 33 bc 1a 7d 8b ba c6 54 d7 3c 13 62 e2 bb
       -0.010962098 -0.0010642142 0.02628554 -0.006908664
000080 a8 d4 00 bc a8 9e bf bb fb 6b 81 ba 24 1e 83 bc
       -0.007863201 -0.0058477707 -0.00098741 -0.016005583
000090 3a a6 3d bc b0 94 69 bc 8e f4 d9 3b a2 f1 50 3a
       -0.011575276 -0.014256641 0.0066514676 0.00079705764
0000a0 2d a5 3e bc 51 96 f8 bb 76 0d b0 bc 0d 66 2b bc
       -0.011636061 -0.0075862785 -0.021490794 -0.0104613425
0000b0 69 06 8a bc 57 18 90 bb b0 24 b0 bb 0e 02 bf bb
       -0.01684876 -0.004397433 -0.0053754672 -0.0058291024
0000c0 73 3b 06 bb d9 85 a4 bc e3 fb fe bb 24 5a ee bc
       -0.0020482212 -0.020083355 -0.007781492 -0.029095717
0000d0 51 94 8c bc d3 c7 af bc f7 2f 7d bc 3e 78 90 bb
       -0.017160567 -0.021457588 -0.01545333 -0.0044088652
0000e0 8f 99 17 bc f1 af af 3c 5a aa 31 bc 35 69 5a bc
       -0.00925292 0.0214462 -0.010843838 -0.013330747
0000f0 ff a7 a4 bc 46 a0 af 3c 5c d6 44 bc ff eb 9f bc
       -0.020099638 0.021438729 -0.012013998 -0.019521711
000100 47 45 cd ba ef dd 3c bc 0d 03 bd bb 61 82 b7 bb
       -0.0015660905 -0.0115275225 -0.005768186 -0.005600259
000110 cd e0 fc ba da b6 c8 3a e7 bf da bb 29 37 14 bd
       -0.001929307 0.0015313283 -0.0066757086 -0.036185417
000120 26 a4 9c bc c7 80 59 bb 0c ff 0f bc 87 f9 aa bc
       -0.01912124 -0.003318833 -0.008788835 -0.020870937
000130 9b 07 ed ba d4 27 85 bb 44 e7 3d bb ff af aa bc
       -0.0018083932 -0.004063586 -0.0028976956 -0.020835875
000140 62 15 bf 3b 74 0e c4 bb 51 11 cc bc 41 c7 a8 3b
       0.0058314065 -0.0059831683 -0.0249106 0.005150706
000150 9d 21 d9 bb bb a2 6d bc 72 81 da bb 16 b5 4e bc
       -0.0066263215 -0.01450413 -0.006668263 -0.012616416
000160 a5 6f 44 bc 8b 55 f7 bc d7 72 f7 bb eb dc 3f bc
       -0.011989509 -0.030192157 -0.007551532 -0.011710386
000170 ef 58 94 bc a6 db 3b bc d3 b5 4e 3b 46 c4 13 bc
       -0.018108813 -0.0114659425 0.003154148 -0.009018963
000180 db 4c af 3b e0 2b ce bb 71 9e 91 bc 4f 82 07 bc
       0.005349738 -0.0062918514 -0.017775746 -0.008270814
000190 4c 7d bb 3a 57 96 8f bc 55 61 8c 3b 09 8e 76 bb
       0.0014304309 -0.017527742 0.004284064 -0.003762128
0001a0 58 e4 08 bc a0 69 1d bb 46 6d 01 bc af 9e bb bc
       -0.008355223 -0.0024019256 -0.007899588 -0.022902815
0001b0 b7 66 8e bc af 78 55 bc df 32 a2 bb 2c e8 c1 bb
       -0.017382963 -0.0130292615 -0.004949912 -0.0059175696
0001c0 9d d4 29 bb 6a bc 69 bc ad 1e 57 bc 3e e5 31 bc
       -0.002591408 -0.014266113 -0.013129872 -0.010857878
0001d0 cd 89 61 bc 1c 96 5e bc 17 94 91 3a 2f a1 cd bc
       -0.013765764 -0.013585594 0.0011106756 -0.025101272
0001e0 ad 6a 06 bc d0 4a 3f bc bd 2b 12 bc 7c df 40 bc
       -0.008204144 -0.0116755515 -0.008921561 -0.011772033
0001f0 50 38 6c bc cc 05 03 bc da 07 18 bc f6 3f c0 bb
       -0.014417723 -0.007996988 -0.009279216 -0.0058669997

gcn_branch.gcn_layers.1.lin.weight f4 [128, 64]
000000 28 ef 75 bd b4 bb 2d be 03 28 25 be f5 a6 16 3e
       -0.06004253 -0.16966134 -0.16128545 0.14712127
000010 24 d9 bb bc 05 4b 8f 3d a4 3d 55 bd c4 93 11 3d
       -0.02293069 0.06996731 -0.05206074 0.03554131
000020 b5 b7 80 3d ee 6a 11 3e 33 20 06 3e 01 28 10 3d
       0.06285039 0.14200947 0.1309822 0.0351944
000030 e9 0f 0f 3e 0a ee a2 bc 98 5d 32 be fe 0f 84 3d
       0.13970913 -0.019888896 -0.17418516 0.06448363
000040 87 e1 bf bd ac f5 67 bc 1b 08 81 bd b1 6d 5e 3d
       -0.09369188 -0.014157694 -0.06300374 0.05430383
000050 0d c3 46 bd 39 fb 94 bd 5f 91 83 bd 8b f3 ae bc
       -0.04852586 -0.072744794 -0.06424212 -0.021356365
000060 32 4f 41 be 0c 2f 3b bd 72 1f 15 3d c3 ba fd 3c
       -0.18877867 -0.045699164 0.03640694 0.030972844
000070 54 df f1 bc f2 51 cc 3d 82 a9 96 bc c2 c9 b4 bd
       -0.029525436 0.09976567 -0.018391374 -0.08827545
000080 ad 6d 4d bc 06 ab 01 3d 2d 7e ae bd 21 00 bd 3c
       -0.012538356 0.03165724 -0.0852016 0.02307135
000090 a5 63 0e be 8a 00 d1 bd 10 d8 a6 3d 0c 4b 95 3c
       -0.13905199 -0.10205181 0.081466794 0.018224262
0000a0 dc c5 8d bd 0d 1e 1d 3e f2 9a c5 bd d9 a6 cd 3d
       -0.06922504 0.15343495 -0.09648694 0.10041589
0000b0 1f cf 16 3d 99 cb 88 bd 96 d0 8b 3d 8e 62 66 3d
       0.03681862 -0.06679458 0.06826894 0.056246333
0000c0 ee 80 e9 3d 51 7c 98 3d d4 bb fa 3d 1b 81 dd bd
       0.114015445 0.074455865 0.122428566 -0.108156405
0000d0 b2 89 01 be 25 7a 47 3c b3 22 1e bc 43 77 1b 3e
       -0.12650183 0.012175118 -0.009651828 0.15182213
0000e0 93 f1 4a 3e 47 70 8e 3c d7 05 b3 bd 9e d5 3d 3e
       0.19818716 0.017387522 -0.08741348 0.1853852
0000f0 6e 88 cc bd d3 ec 86 3c 2e 37 28 be e6 c4 cb bd
       -0.099869594 0.016470348 -0.164273 -0.09949665
000100 f4 84 71 3a 13 62 ce 3c 13 78 3b bd cb ff fa bd
       0.0009213232 0.02519325 -0.04576881 -0.1225582
000110 f8 88 9f 3d d9 48 e8 3d 53 ff 4d 3d 1d 11 0e 3e
       0.077897966 0.113420196 0.050292324 0.13873716
000120 bb 6d e4 3d 15 74 32 3c b7 d7 bf 3d 9a 9d 48 be
       0.11153742 0.010891934 0.09367316 -0.1959137
000130 a6 46 ca bc 56 b4 df bc 8d 61 33 be c1 8d 11 3e
       -0.02469189 -0.02730767 -0.17517681 0.14214231
000140 51 84 2a 3e 76 4d 22 3e 83 57 1c 3b 14 e5 02 be
       0.16652037 0.15849862 0.0023855872 -0.12782699
000150 17 db 16 3e 29 b2 04 be 0d cf dd 3c 11 08 c0 3c
       0.14732014 -0.12958588 0.027076269 0.023441346
000160 ba e2 a7 bd 22 66 07 be 97 47 1e 3e b6 5f b5 3d
       -0.081975415 -0.13222554 0.15456997 0.08856146
000170 72 23 ca 3d 7b d5 ac 3c 75 9a 06 3e 9a 0e 73 bd
       0.09870042 0.02109789 0.13144858 -0.059340097
000180 2d ce f0 bd 32 c9 6c 3c e1 c2 da 3d 16 2e 06 be
       -0.11758075 0.014452266 0.106817015 -0.13103518
000190 41 4b 89 bd 4e 65 3b 3c 32 a3 db bb ae 65 bc 3d
       -0.06703807 0.011437727 -0.006702804 0.09199081
0001a0 61 67 40 bd d2 45 08 be e8 6f 45 3d bd a3 bd bd
       -0.04697359 -0.13307884 0.048202425 -0.09259746
0001b0 44 28 5a bd 40 82 a8 3c a0 6f b1 3d 2f cd 0a bd
       -0.053261057 0.02056992 0.08663869 -0.033887085
0001c0 1e 86 a0 3d 72 8f 02 be 06 f0 f9 3d d1 1e 24 be
       0.07838081 -0.12750033 0.12203984 -0.1602738
0001d0 12 52 37 3e a9 3e bb bc 02 93 1a 3e 65 6c 3d bc
       0.17902401 -0.022857027 0.15095142 -0.011561488
0001e0 06 5a 94 3c 27 50 79 bd dd c4 5a 3d a2 31 b4 3d
       0.018109333 -0.060867455 0.0534104 0.08798529
0001f0 07 23 16 3e 34 c7 9c bd c3 43 aa bd 86 8a e5 bd
       0.146618 -0.076551825 -0.08313706 -0.11208062
000200 38 a7 16 3e 46 62 a3 bd 22 aa 45 3d 23 08 cd 3d
       0.14712226 -0.079777285 0.048257954 0.100113176
000210 dd 38 bc bd 7f 5e ba 3d ae ab 9c bd 6d 28 af bd
       -0.09190533 0.09100055 -0.07649933 -0.085526325
000220 c4 77 48 3e 76 68 35 3d 24 a2 ba bd 10 11 07 be
       0.19576937 0.044289075 -0.09112957 -0.13190103
000230 b5 33 5a bd 13 82 f2 3d 97 67 04 3e 3d 79 ef 3d
       -0.053271968 0.11841216 0.12930141 0.11693046
000240 33 b9 f4 3d 78 97 1e be b2 24 30 3e 2d 43 dc bd
       0.119493864 -0.15487468 0.17201498 -0.10755
000250 20 ec f3 3d 4f b7 ea 3d 8a b6 24 3e 91 1e 1c 3e
       0.11910272 0.114607446 0.16085258 0.15246035
000260 da c7 cb 3d 24 6c aa bd 9f 71 6d 3c 76 2a d9 bd
       0.09950228 -0.083214074 0.014492421 -0.10603802
000270 cf 49 ce 3d 46 c3 15 3e cf 68 35 bc d2 5d dd 3d
       0.100726716 0.14625272 -0.011072352 0.108089104
000280 c2 79 0f 3e 83 ce 03 3c 62 42 85 bd eb 33 34 3e
       0.1401129 0.008044842 -0.06506802 0.1759793
000290 c8 23 4d 3d 85 cb 4a 3c 82 8f 35 3c d4 27 bc bd
       0.05008295 0.012377624 0.011081578 -0.09187284
0002a0 55 74 fe bd 4e 39 6d bd 0a e1 f1 3d b9 1d 27 be
       -0.12424532 -0.057915978 0.11810501 -0.16319932
0002b0 38 8c dc 3b 04 25 fa bd 55 49 32 be 8c 83 af bd
       0.0067305826 -0.122140914 -0.17410786 -0.085700125
0002c0 e8 c7 6a bd a8 d2 ce bd 18 d8 20 3e ed 0c f2 3b
       -0.05731955 -0.10098773 0.15707433 0.007386795
0002d0 3c 5d 77 bb cb 8a e1 3c 7f cf 1f 3d 7c 3f 65 bd
       -0.003774478 0.027532002 0.039016243 -0.055968747
0002e0 f4 7d fc bc 64 b5 c4 bc 4e 6a e6 3d 3c 49 02 be
       -0.030821778 -0.024012275 0.11250745 -0.12723249
0002f0 45 8f 75 bd f0 95 ca 3d 16 ef a2 bd 1f 7e 85 b9
       -0.059951086 0.098918796 -0.07955758 -0.00025461704
000300 65 3b 8a 3d 35 a2 16 be 1f 43 97 bd 36 86 ca 3c
       0.0674961 -0.14710315 -0.07385849 0.0247222
000310 30 51 07 3e 65 5f 70 3d 9b ff 81 3d 60 a9 16 bd
       0.13214564 0.058684725 0.06347581 -0.036782622
000320 f3 78 29 3e 6f 57 24 3d d0 a1 0d be 93 fd a3 bd
       0.16550045 0.040122446 -0.13831258 -0.0800735
000330 98 92 26 3e 0a e9 36 bd c4 1c 95 3d 0e da 68 3d
       0.16266859 -0.044655837 0.07280877 0.05684858
000340 6a 57 29 3e eb 74 9e 3d ca f9 c9 bd 95 3b bc 3d
       0.16537252 0.07737144 -0.098620966 0.09191052
000350 64 7a 24 3e c6 d3 16 3d 4d e4 4b bc f5 12 fe bd
       0.16062313 0.036823057 -0.012444568 -0.124059595
000360 89 95 39 be 8d 8e 3e bd 08 34 5e 3d 60 ea 88 bd
       -0.1812345 -0.046522666 0.05424884 -0.066853285
000370 ed af ab 3c ac 90 0a 3e ca c1 bb bd 8f 2b 9a 3d
       0.020957911 0.1353175 -0.09167822 0.075278394
000380 3b f5 00 3e bf b7 8c 3c 07 6c b3 3d 38 e9 c9 bd
       0.12593548 0.01717746 0.08760839 -0.09858936
000390 db 61 ff bd cd 34 de 3d 66 c8 1d 3e 67 2d ee 3d
       -0.12469836 0.10849915 0.15408477 0.116297536
0003a0 8f 6f 2a be 68 9d cd bd 50 8b 0f 3e 95 2f 68 3b
       -0.16644119 -0.100397885 0.14017987 0.0035428752
0003b0 09 b2 0a 3e 79 46 0b 3e 33 57 d7 3c 0a 32 0f 3e
       0.13544478 0.13601102 0.026286697 0.13983932
0003c0 80 03 13 be f3 e3 9b bc a3 31 8b bd 63 31 11 be
       -0.14356804 -0.019029593 -0.06796577 -0.14178996
0003d0 97 a3 c2 3c 7a 78 c2 3d 84 2b 31 bd 0c 96 12 be
       0.023759646 0.09495635 -0.04325439 -0.14315051
0003e0 f8 3f 14 be 7b bb 17 3e b0 8b 18 be 1b fb 04 3d
       -0.14477527 0.14817612 -0.14897037 0.032466035
0003f0 4b 88 00 be a3 6a f6 3d 56 38 e2 bd 85 9b 6d bc
       -0.12551992 0.12032058 -0.110459015 -0.014502411

gcn_branch.gat_layers.0.att_src f4 [1, 4, 16]
000000 b8 57 89 3d b9 86 5e be da 31 08 3f ba 39 f7 bd
       0.06706184 -0.2173108 0.5320107 -0.12071557
000010 43 e9 e0 be 02 2f ab be 7a 2c 48 3e a1 e6 fd 3d
       -0.43927965 -0.33434302 0.19548216 0.123975046
000020 b8 ad 05 3f 0e ed a4 be 19 58 10 3d f9 83 bf 3e
       0.522182 -0.32212108 0.035240266 0.37405375
000030 e6 80 04 3f 16 92 fc be f6 c8 e3 be 5c da 5b 3d
       0.51759183 -0.49330205 -0.4448926 0.05367504
000040 42 ac a4 3e 83 07 ea 3e ea 9a 6f 3e 50 7e 9a 3d
       0.32162672 0.45708856 0.23398939 0.075436234
000050 a8 21 00 3e 94 71 94 3e 5a 46 00 3f 04 b7 bd bc
       0.12512839 0.28992903 0.5010735 -0.023158558
000060 c4 fb 3c 3d 2d 85 ca 3e 49 e4 80 3e e2 82 ad 3e
       0.04613854 0.3955473 0.25174168 0.33888918
000070 29 94 91 be bd b0 eb 3d 98 b9 b3 be 14 e0 1d 3d
       -0.2843335 0.115083195 -0.35102534 0.038543776
000080 e6 a3 86 bd fc b5 c5 3c bd 74 23 be e0 6a c5 be
       -0.0657423 0.024134628 -0.15962501 -0.38558102
000090 d0 b5 b5 be 6d 6f b3 3b 19 e7 8b 3e 7d 48 51 be
       -0.35490274 0.0054759295 0.2732475 -0.20437808
0000a0 87 44 50 3e a1 56 a1 be 42 73 08 3f fc 1a de be
       0.20338641 -0.31511405 0.5330087 -0.43379962
0000b0 c8 4b 5e be a5 ff 2c 3d 31 2b 5b be 3c 8a e9 3e
       -0.21708596 0.04223599 -0.21403195 0.45613277
0000c0 98 30 f4 be b6 0a e2 be 0f bc 01 3f 72 b5 93 3e
       -0.47693324 -0.44148797 0.5067758 0.2884937
0000d0 05 91 a4 3c 1d 5a e7 be 40 04 48 be 40 e0 b2 be
       0.020088682 -0.45185938 -0.19532871 -0.34936714
0000e0 8d 83 e5 be 22 2c 84 be 9f f8 b8 3e 17 da 00 bf
       -0.44826928 -0.2581492 0.36127183 -0.5033278
0000f0 21 8f b4 3e 63 0d fe be b4 96 bd be 69 0b 06 bf
       0.3526545 -0.49619588 -0.3702904 -0.5236116

gcn_branch.gat_layers.0.att_dst f4 [1, 4, 16]
000000 5d 97 95 3e 35 7a 00 bf 2f 8f 80 3d d2 28 6a 3e
       0.29217044 -0.50186473 0.0627731 0.22867134
000010 aa 46 41 bd 9c 0a ad 3e ac 12 9d 3d d6 3f 04 3e
       -0.04718653 0.33797157 0.07669577 0.12914976
000020 55 66 92 be d6 4a 2c 3d 87 65 e9 be 66 8a cd be
       -0.28593698 0.042063557 -0.45585272 -0.40144652
000030 5f c3 d2 be 17 7d a4 3c 8e cc ab 3e 44 01 a0 be
       -0.4116468 0.020079179 0.335545 -0.31250966
000040 90 70 66 3e 8e 53 f4 be 90 20 0a 3e 78 2d 1a be
       0.22503877 -0.47719997 0.13488984 -0.15056407
000050 5a 47 26 be b3 8c 07 3f a2 36 e0 3d 67 f2 65 3e
       -0.16238156 0.52949065 0.109479204 0.2245575
000060 37 6c b2 3e ca 65 f4 be cf e4 db 3c 66 0e 98 3e
       0.34848186 -0.4773391 0.026842503 0.29698485
000070 a2 63 a7 3d ec a0 82 be 24 9a d9 be a4 d9 e6 3e
       0.081733 -0.255134 -0.42500412 0.45087922
000080 80 39 6b 3e 89 60 8b bd ad 28 66 3e 14 8b 0f bf
       0.22971153 -0.06805522 0.22476454 -0.5607159
000090 54 86 15 be cf 4b 0e be a9 f1 42 be 59 9a d1 bc
       -0.14602023 -0.13896106 -0.19037499 -0.025586294
0000a0 98 21 98 3e 1c 51 ff 3e 34 c8 ce bd 45 7a c4 3e
       0.2971313 0.4986657 -0.100967795 0.38374534
0000b0 b3 74 9e be 44 fb fb be b1 9f b8 be c5 bf a5 3d
       -0.3094841 -0.49215138 -0.36059335 0.08093218
0000c0 9f a3 2b 3e e0 75 fc 3e e6 88 94 be 01 4f 89 3e
       0.16761635 0.4930868 -0.29010695 0.26818088
0000d0 0a 32 2e be e5 54 c5 be 01 57 aa 3e df 1d 0c bf
       -0.17011276 -0.38541332 0.33269504 -0.5473308
0000e0 9f a5 0a 3f 6d 33 cd be ae ba 61 bd 4b 53 eb be
       0.5415897 -0.40078297 -0.055109672 -0.45961985
0000f0 f1 98 d0 3b 3e 49 09 3f 80 73 ba 3d 1e 6d 09 3f
       0.0063658883 0.53627384 0.09104061 0.53682125

gcn_branch.gat_layers.0.bias f4 [64]
000000 86 d9 82 3c 39 79 aa bb 36 a5 e0 3b 96 52 a5 3c
       0.015972864 -0.005202439 0.006855632 0.020180982
000010 8d 4a fc ba fa 66 67 bc c8 12 8a bc c8 45 37 bc
       -0.0019248292 -0.014123673 -0.016854659 -0.011186071
000020 84 74 eb bb bb 00 0e bc 2e 57 00 3a 20 da a1 b9
       -0.0071855206 -0.008667166 0.0004895803 -0.0003087083
000030 df 70 22 bd cb d3 b0 bb c2 3c 47 3c 8f 61 0b bc
       -0.039658424 -0.0053963414 0.012160482 -0.0085071465
000040 03 d2 86 3c 32 b4 91 bc b6 10 40 3c 00 dd af bb
       0.016457563 -0.01778612 0.011722734 -0.0053669214
000050 9a b5 fe bb a0 87 03 3b 7a 18 2a bc b1 f6 bf bc
       -0.0077731134 0.0020069852 -0.010381812 -0.023433061
000060 58 84 6a bc 92 82 ba 3b ec 83 01 bd 8d a9 6e bc
       -0.01431378 0.0056918347 -0.03161995 -0.014566791
000070 0c 17 03 3b 63 22 93 bc 37 cf ac bb 92 38 19 bc
       0.002000275 -0.017960733 -0.0052737254 -0.009351866
000080 e4 a3 44 3c 0b 28 5c bc 27 e4 e0 bb ff 48 04 3c
       0.012001965 -0.013437281 -0.0068631354 0.008074044
000090 8b e2 fe 3b 91 7f 84 3c ac 53 56 bb fa e0 96 bc
       0.007778471 0.01617411 -0.003270368 -0.018417824
0000a0 50 9f 59 3c 79 49 13 3b 14 d5 98 3c 4d fd bc bc
       0.013282612 0.0022474213 0.018656291 -0.023070002
0000b0 a9 2f db bb 9b 34 b6 3c f7 9a 35 bc d8 a0 a4 3b
       -0.006689031 0.022241881 -0.01108431 0.005024057
0000c0 7a f3 fb bc 05 b8 09 3c d6 09 16 bc d8 ed a4 bc
       -0.030755747 0.00840569 -0.0091576185 -0.020132944
0000d0 91 64 27 3c 4d aa a1 bc 41 dd a0 bb 21 d6 a9 bc
       0.010216848 -0.019734526 -0.004909188 -0.020731987
0000e0 07 75 02 3c db 82 14 3b 6f 34 05 3c 30 f6 ce 3b
       0.007962472 0.0022661004 0.008130177 0.006315969
0000f0 e7 f1 ac 3a d8 df d1 bb 91 6f fc 3b 5d 1b 29 bc
       0.0013194651 -0.006404858 0.0077037294 -0.010321465

gcn_branch.gat_layers.0.lin.weight f4 [64, 64]
000000 8d 98 11 be 77 ca 15 be 9c 64 11 bd 01 3a 8c 3d
       -0.1421835 -0.14628015 -0.03549634 0.06847001
000010 4d 7b 11 3e 72 a9 0c be b2 01 10 3d ec e7 4b 3e
       0.14207192 -0.13736513 0.035157867 0.1991269
000020 54 df 04 be cd 84 28 bc a2 38 df 3d 9c 52 4c be
       -0.12975818 -0.010285568 0.10899474 -0.19953388
000030 77 14 b1 bd 9a bf d8 bd b8 d9 1c be 17 38 30 be
       -0.086464815 -0.1058342 -0.15317428 -0.17208897
000040 34 71 6a 3d 1a 61 b9 bc 6c c0 cd bd 60 19 a7 bd
       0.057236865 -0.02262931 -0.10046467 -0.08159137
000050 e0 7a 8f bd f2 37 48 3e 0c d2 50 3d ba e8 82 bd
       -0.070058584 0.19552591 0.050981566 -0.06392045
000060 0d 0d 69 3e bf 03 24 be 19 a0 0f be ea 12 82 3d
       0.22758885 -0.16017054 -0.14025916 0.06351264
000070 d7 ea c4 3d 2c 6f 90 3d bd 78 b9 bd ac 0e cb 3d
       0.09615105 0.07052454 -0.09056232 0.09914908
000080 d7 3c 1e 3e 68 8d 01 bd 92 d3 27 bb 18 73 15 3d
       0.15452896 -0.031628996 -0.0025608283 0.036486715
000090 4e 73 d0 3d a0 fb 42 3c 1c 2b 64 3c 2c cb 8e bd
       0.101782426 0.011900812 0.013926294 -0.06972346
0000a0 19 98 2a 3e d7 27 4c be 24 40 53 3d 27 69 f8 bd
       0.16659583 -0.19937073 0.05157484 -0.12129431
0000b0 32 6c ad bd 6a 79 14 3e de 10 3f be 85 89 3d be
       -0.08467902 0.14499441 -0.18658778 -0.18509491
0000c0 84 9b fc 3c 7c 6a ef 3c 9c fa 6d bd dd 8b b8 3d
       0.030835874 0.02922558 -0.058100328 0.09011052
0000d0 f8 3c f3 bc 9c 4e 55 3d 9d 97 45 3e 31 3f f5 3a
       -0.029692158 0.05207692 0.19296117 0.0018710849
0000e0 06 c0 06 3e e9 47 60 3e f7 18 0e 3e 2b 89 a6 3d
       0.13159189 0.21902432 0.13876711 0.081316315
0000f0 b2 58 03 3e f8 69 66 bc 58 84 a8 bd 5a ce b9 bd
       0.12826803 -0.014063351 -0.082283676 -0.090725616
000100 de 6a 26 3d 5f 33 cb 3d 3a 6a 7b 3d 83 00 09 be
       0.04062926 0.09921908 0.061380602 -0.13379101
000110 c6 c8 d0 bd fe da ed 3d 0e f4 49 3e 4d f4 66 bd
       -0.101945445 0.11614035 0.19722006 -0.056385327
000120 3d 2a cb 3d 94 30 3a 3e 83 f7 57 3d 6a dc 00 be
       0.09920166 0.18182594 0.05272628 -0.12584081
000130 6c f7 43 bb 67 59 16 be 2e 27 bb 3d 35 a4 f0 3b
       -0.0029902114 -0.14682542 0.09138332 0.0073437938
000140 00 94 9a 3b e4 fc 10 be 7a af 98 bd 31 ae b7 bd
       0.00471735 -0.1415897 -0.074553445 -0.08968771
000150 40 ff a3 3d 28 d9 8a 3d 3d f8 13 3e 3c 2b bf bc
       0.080076694 0.067797005 0.14450164 -0.023336045
000160 7b fc 26 be 5e 97 86 3d af c2 0a be e6 ce dc bd
       -0.16307251 0.0657184 -0.13550828 -0.1078165
000170 e6 f5 32 3e fc c8 a2 bd 92 92 03 be 69 fe 06 bd
       0.17476615 -0.07948491 -0.12848881 -0.03295747
000180 7d af 1f be 48 dd 20 3e 9f 87 15 3e 9b e2 71 be
       -0.15594287 0.15709412 0.14602517 -0.236216
000190 c2 d6 c7 bd bf 46 53 3e 9f 10 eb bd e0 bf 02 3d
       -0.09757759 0.20632456 -0.114777796 0.031921268
0001a0 27 47 10 be a0 c3 17 bd c0 29 35 bd ba 8e 63 bc
       -0.14089642 -0.037051797 -0.04422927 -0.013889009
0001b0 b5 67 54 3e 8b 96 06 3e c3 8c 45 3d b6 08 c8 3d
       0.20742686 0.13143365 0.048229944 0.097672865
0001c0 96 24 01 be 21 b9 e4 3d 08 91 e9 bc 06 c9 29 3d
       -0.12611613 0.11168123 -0.02851154 0.041451477
0001d0 83 f0 52 3e 57 f6 3a be 33 d9 34 3e 4d 70 12 be
       0.2059956 -0.18258034 0.1766098 -0.14300652
0001e0 21 3e 55 3d c1 4d 0b be 78 28 c0 3d 29 21 bf bd
       0.052061204 -0.1360388 0.09382719 -0.09332497
0001f0 42 97 19 3e 1c 59 9f 3c 7a dc fc 3d 0a 97 9f 3d
       0.14999107 0.01945167 0.1234674 0.0779248
000200 18 ee 3c be 8a b5 2f 3e e5 d9 8c bd 58 d0 25 3e
       -0.184502 0.17159095 -0.068774976 0.16192758
000210 15 4c 2d bd 42 04 dc 3d f4 7a c3 bd 05 17 38 be
       -0.042308886 0.107429996 -0.09544936 -0.17977531
000220 cc 70 86 3d af 53 bc 3d c7 d2 a2 bd 9f e6 cd 3d
       0.06564483 0.09195649 -0.07950359 0.10053753
000230 ad ae 20 be 30 38 ff bc 56 cc 9f 3d 1b 86 b7 bc
       -0.15691634 -0.031154722 0.07802646 -0.022402814
000240 eb ea 57 3e 44 58 46 be 83 ce 28 3e b9 99 4e be
       0.21085708 -0.19369608 0.16485028 -0.20175828
000250 3d e6 03 3d 98 4d 32 3e 23 67 1d 3e 82 b4 11 be
       0.032201994 0.17412412 0.15371375 -0.14229015
000260 31 94 c4 bc 50 4d 45 3c 1b a3 98 3c f4 ff 10 bd
       -0.023996444 0.0120423585 0.018632462 -0.035400346
000270 96 93 a8 3d 3a 17 23 bd cc d9 48 be 33 56 dc bd
       0.08231275 -0.039817072 -0.19614333 -0.10758629
000280 1d bb 7f be e8 be ca bd 49 43 24 3e ab 83 bd b9
       -0.24973722 -0.09899694 0.16041292 -0.0003614699
000290 1f a5 06 3e 2c f0 28 bd 92 ed a5 bd 45 6d 1f 3e
       0.13148926 -0.04124467 -0.081019536 0.15569027
0002a0 4d 13 0c be 9a d8 e4 3d ec e8 4c be 09 e5 52 3d
       -0.13679238 0.11174126 -0.20010728 0.051487956
0002b0 36 b5 ee 3d 96 20 69 3b 84 dd 06 be 08 2e 1a bd
       0.11655657 0.0035572401 -0.13170439 -0.037641555
0002c0 2b 95 0a be 05 08 d5 3b c8 25 45 be 2e 97 00 3e
       -0.13533466 0.0065012 -0.19252694 0.1255767
0002d0 ae 41 ab bd 1b 15 2b 3e 68 39 a2 bd 50 c6 e1 bd
       -0.08362137 0.1670727 -0.079211056 -0.11024153
0002e0 fc 6b 26 3e f3 f6 3e 3e 71 0b 1d bc 94 76 59 3e
       0.1625213 0.18648891 -0.009585247 0.2123664
0002f0 77 c5 01 be e2 e4 b5 bc ef 9a db bd af 16 5d 3e
       -0.12672983 -0.022203866 -0.107229106 0.21590684
000300 2b 3f 45 be 92 18 52 3e df 62 b9 bd 9c 21 9a 3d
       -0.19262378 0.20517185 -0.09052061 0.07525942
000310 46 96 38 be 4e 34 47 be 2f 2d 6c bd bc 8e 05 3e
       -0.18026075 -0.19453546 -0.057660278 0.1304273
000320 e3 51 d5 bd 3c ac f6 3d 65 52 09 3e de 55 3f bc
       -0.10416009 0.1204457 0.13410337 -0.011678187
000330 d5 75 e0 bc 00 a4 57 ba 80 6b 95 3a 15 97 2f 3e
       -0.027399937 -0.0008226037 0.0011399835 0.17147477
000340 40 c7 6b 3b 54 c7 26 3a 44 27 91 bd 98 0f 45 bd
       0.0035976917 0.00063620997 -0.070875674 -0.048110574
000350 1f f5 f9 bd d0 18 71 3c 6c b7 16 be 5b ef 4c be
       -0.12204956 0.014715388 -0.14718407 -0.20013182
000360 a3 03 32 be 3f ac 2f 3e 69 46 91 bd ed 15 1c 3e
       -0.173842 0.1715555 -0.07093508 0.15242739
000370 4a 8c 40 be 8d 1b ac 3d 24 1b 79 bd 63 f2 4d 3e
       -0.18803516 0.084036924 -0.0608169 0.20111994
000380 b6 9e 37 be 77 94 0b 3d d4 dc cf 3c 8c ef 8f bd
       -0.17931637 0.034077134 0.025373854 -0.07028112
000390 50 70 20 bd 75 ba 50 be f3 46 18 be 85 9b 29 3e
       -0.03916961 -0.20383628 -0.14870815 0.16563232
0003a0 68 1a 57 bd b2 21 c5 3d 72 82 f2 3d 81 6d 45 bd
       -0.052515417 0.096255675 0.11841287 -0.048200134
0003b0 35 a0 5a 3e fc 56 11 3e 63 47 07 3d b9 7c 46 3e
       0.21350177 0.14193338 0.033027064 0.19383515
0003c0 0a 86 d8 bd f0 5a da bd fd c7 e7 bd 4c 22 e5 bd
       -0.10572441 -0.10661876 -0.113174416 -0.11188182
0003d0 b9 03 f9 bd ca b9 e0 3d 6a 83 c9 3d 37 2a 97 bd
       -0.12158913 0.109729365 0.09839518 -0.07381099
0003e0 35 73 48 be 22 45 3c 3e a1 2c 47 3e ac d2 19 3d
       -0.19575198 0.18385747 0.19450618 0.037554428
0003f0 e2 fc 00 be 47 1a 95 3d 35 f6 38 3e 82 90 dc 3d
       -0.12596467 0.07280403 0.1806267 0.1076975

gcn_branch.gat_layers.1.att_src f4 [1, 4, 32]
000000 89 4a 41 3d b0 1c ce 3d 74 9c be be ea 6c e3 bc
       0.047190223 0.100640655 -0.3722874 -0.027761895
000010 74 d8 66 be ea 7d a2 be 62 fc 31 3e 34 14 cd bd
       -0.22543508 -0.3173669 0.17381433 -0.10013619
000020 71 52 28 3e 9f 02 db 3b 17 49 c5 bc c6 04 18 3e
       0.16437699 0.006683662 -0.024082704 0.14845571
000030 59 39 97 be 8b 0b 75 3d 2c c4 40 3e d7 50 86 bd
       -0.2953594 0.05982546 0.18824834 -0.06558388
000040 50 e6 a8 bd ab 2a ac 3e 07 5c 6c 3e da d6 b8 3e
       -0.082470536 0.33626303 0.2308198 0.3610142
000050 d0 93 2e bc 95 d5 18 bd 4b 0c 2b 3e 2a b2 18 bd
       -0.010655358 -0.037313063 0.16703908 -0.037279285
000060 84 55 84 3e 24 75 a5 3e f2 94 63 bd 77 54 f3 bd
       0.25846493 0.32315934 -0.055561967 -0.11881345
000070 44 f1 42 3e eb a6 15 be 96 f8 47 3d 7d d0 c5 3e
       0.19037348 -0.14614455 0.048821054 0.38635626
000080 e2 4f 42 3d 4f 62 77 bd 56 85 b1 be fa 79 1c 3e
       0.047439463 -0.06039649 -0.3467204 0.15280905
000090 34 64 b9 3e c5 65 41 3e 42 8d 40 3d a7 85 65 3e
       0.3620926 0.18886478 0.047009714 0.22414266
0000a0 9c 88 4f bc 63 84 cb be 44 8c 34 3e bc 42 c5 bd
       -0.012666848 -0.3974944 0.17631632 -0.09631869
0000b0 cc 3e 81 3e 22 6d 93 be 53 34 c4 3d 72 96 06 be
       0.25243223 -0.287942 0.095802926 -0.13143328
0000c0 0b a8 01 bd 55 71 80 3e dc f1 35 3e 75 0d 88 be
       -0.0316544 0.25086465 0.17768043 -0.26572767
0000d0 4c f1 3c be e2 61 e1 be bb 2b 4c 3e df fb 99 3d
       -0.18451422 -0.4401999 0.19938557 0.07518744
0000e0 37 c7 7c be e3 aa 8f be e2 fe 60 3e b2 44 0d be
       -0.2468537 -0.28060064 0.2197223 -0.13795736
0000f0 03 5b 96 be 84 34 b0 be 9a 93 62 be 39 82 af 3e
       -0.2936631 -0.34415066 -0.22126618 0.3427904
000100 16 21 d9 bd 99 2c 78 3e 0e 20 17 be 0d e1 36 3e
       -0.10602014 0.24235763 -0.14758322 0.17859288
000110 8c b3 9f be 29 77 61 be b1 fa 65 be 62 1a ec 3d
       -0.3119167 -0.22018112 -0.22458912 0.115284696
000120 b2 81 60 3e fb 6f 36 3c f0 14 0f be 5b 01 4f be
       0.21924475 0.011135097 -0.13972831 -0.20215361
000130 b5 d4 bd 3e 7d 02 18 be 64 58 1f be e5 77 0e be
       0.37076345 -0.14844699 -0.15561062 -0.13912924
000140 b4 ad 4d be e6 5f 52 3d 37 6c 51 3d 09 c0 90 be
       -0.20085794 0.051360987 0.051128592 -0.2827151
000150 f7 58 8b 3d bf b2 21 3e 51 b8 57 be fe 03 ae be
       0.06804078 0.15790842 -0.21066405 -0.3398742
000160 8d 9d 96 be ba b6 67 3d 31 82 a3 3e 0d 5d 9b 3d
       -0.29417077 0.056570746 0.31935266 0.075861074
000170 bb 6b 9a 3e da 7e 84 3c e6 74 1a be 40 c9 22 be
       0.30160317 0.016173769 -0.15083656 -0.15897083
000180 31 37 ce be a8 d6 60 be 2e b7 d8 be e0 8b 9c bd
       -0.40276483 -0.21956885 -0.42327255 -0.076438665
000190 76 7b 44 be 6b 88 31 3e 70 4d c7 3e cf 44 b3 3b
       -0.19187722 0.17337196 0.38926268 0.005470849
0001a0 aa 77 02 3e f5 84 3e be 12 b8 c7 bd cd 16 16 bd
       0.1274096 -0.18605407 -0.097519055 -0.03664284
0001b0 d0 2e b3 be 97 4d 88 be cd 7c 60 bd 52 b5 83 be
       -0.34996653 -0.26621696 -0.05480652 -0.25724274
0001c0 da 57 9f 3e cb 84 25 3d ac 1f 0c 3e 10 9d b9 bd
       0.31121713 0.040409844 0.13683957 -0.090631604
0001d0 e4 a6 0e be 65 dd 99 be 57 0e 0a bd f4 8b 87 be
       -0.13930851 -0.30051723 -0.03370508 -0.26473963
0001e0 da 44 9b 3e 0d 2d 90 3e 87 1a 0b 3c ca aa 4d be
       0.30325967 0.2815937 0.008490211 -0.20084682
0001f0 af 91 b4 be e4 14 59 3e 98 0c c5 b9 47 fd ce 3d
       -0.35267398 0.21199375 -0.0003758415 0.101069026

gcn_branch.gat_layers.1.att_dst f4 [1, 4, 32]
000000 d3 94 c8 3e 77 c8 e0 bd 3e 9d 2c be 76 4b 3e 3e
       0.39176044 -0.10975736 -0.16856858 0.18583474
000010 8c 4e c7 3e b4 cf d2 bd 74 8d 32 3e 3a 37 95 be
       0.38927114 -0.102935225 0.17436773 -0.29143697
000020 59 02 b9 3e 12 2e bf be 10 c1 b6 3e 18 48 73 3b
       0.36134604 -0.37339836 0.3569417 0.0037121829
000030 e6 26 ca be 98 8d 18 be d1 1a 64 3e 7b 4a 58 bd
       -0.39482802 -0.14897764 0.22275855 -0.052805405
000040 58 aa 90 3d a7 0d 58 3e 41 7c 9e 3c 09 bc c3 be
       0.070637405 0.21098958 0.019346358 -0.38229397
000050 7b 7b f2 bd 54 7e 50 be cc 0e ac 3e 8f f3 0f 3e
       -0.11839958 -0.2036069 0.3360504 0.14057754
000060 d9 1a 4a be 89 5f e2 bd ea d0 2e 3e 93 d5 18 be
       -0.19736804 -0.11053378 0.17071882 -0.14925222
000070 e1 8b 20 3e cb 4f a7 be e4 a3 b7 be 93 07 63 3e
       0.1567836 -0.32678065 -0.35867226 0.22170858
000080 40 03 94 3b 4b ec 94 be e0 93 c0 bd c0 76 90 be
       0.004516989 -0.29086527 -0.09403205 -0.282156
000090 86 c8 65 be a3 af ba 3e 9a 26 89 be 11 e1 45 bd
       -0.22439775 0.36462125 -0.26787263 -0.048310343
0000a0 2b cd 26 bd cd 2a cc 3d be 5a de be 9d 7b 84 3e
       -0.040723007 0.09969101 -0.43428606 0.2587556
0000b0 80 d8 b9 3d aa 47 93 3e 97 12 78 3e e0 f2 ef bd
       0.09074497 0.28765613 0.24225841 -0.117162466
0000c0 5a 8e b3 3e 0b 67 c6 3e 36 a8 6e be 5a 70 87 3e
       0.35069543 0.3875049 -0.23306355 0.26452905
0000d0 c8 7d 92 3e 01 d1 4d 3e a3 49 c8 3d 69 d4 84 be
       0.28611588 0.2009926 0.0977967 -0.25943306
0000e0 c7 0e 41 3e 26 71 c7 be 0f b1 a5 bc 30 1a 06 3e
       0.18853293 -0.38953513 -0.02022603 0.13095927
0000f0 3b a1 0b 3e 20 13 97 bd b6 f9 8b 3e ea f8 84 3e
       0.13635723 -0.07376695 0.27338952 0.25971156
000100 b2 d1 a7 be 52 de fd 3d dd ff 48 bd 20 31 64 3e
       -0.32777172 0.1239592 -0.049072135 0.22284365
000110 56 77 b2 bd 1a ab 26 3e 27 5c 8a 3e ac b9 8e bd
       -0.08714168 0.16276208 0.27023432 -0.06969008
000120 b7 d5 ce 3e 04 74 1c bd 76 19 b4 be 94 72 3e 3e
       0.40397426 -0.03819658 -0.35175675 0.18598396
000130 c2 c3 b8 be 80 72 3f be 2b 40 7d 3e 16 ba a2 3e
       -0.3608685 -0.18696022 0.2473151 0.31782597
000140 10 db 0d be 20 d6 69 3e e3 68 fd 3c 20 4d 96 3e
       -0.13853097 0.22835588 0.030933803 0.29355717
000150 ce 44 8a bd 88 20 04 3d 19 2d 9c 3e f8 72 96 3e
       -0.06751405 0.032257587 0.30503157 0.2938459
000160 8b 9b 09 be f9 f0 8b 3e 9c 42 c9 be f6 8b 35 3e
       -0.13438241 0.27332285 -0.3930863 0.17729172
000170 d4 7e 78 3e 47 46 58 3d 19 8f 83 be eb 86 8c 3e
       0.24267131 0.052801397 -0.25695112 0.27446684
000180 c8 30 22 3c 6f 65 80 be fc ba b6 3e 53 3d 3a 3e
       0.009899326 -0.25077388 0.35689533 0.18187456
000190 5f 09 98 be 40 26 ab bd c2 74 54 bd 7b 25 be 3e
       -0.2969465 -0.08356905 -0.05186916 0.3713797
0001a0 15 7e 34 be 1a 99 14 be ab c0 29 be 12 1f da 3d
       -0.17626221 -0.14511529 -0.16577403 0.106504574
0001b0 80 f5 c0 3e 7b e9 a5 be 9e 32 6c 3e 0d b4 34 bd
       0.37687302 -0.32404694 0.23066184 -0.044117022
0001c0 83 46 c5 be 69 79 60 be 25 4b a3 be bf 00 0f be
       -0.3853036 -0.21921314 -0.31893268 -0.13965128
0001d0 de 5c af be 76 df b4 be 00 ba 22 3e 65 85 43 be
       -0.3425054 -0.35326737 0.15891266 -0.19093855
0001e0 68 a5 fc 3d 0f cc a6 3e ac dd bd be f2 69 8a 3e
       0.12336236 0.3257756 -0.37083185 0.27033955
0001f0 2c 8b f9 3c 7c bd 53 3e 90 92 b9 3e ab b7 a0 3e
       0.03046187 0.20677751 0.3624463 0.31390128

gcn_branch.gat_layers.1.bias f4 [128]
000000 c1 24 e1 3a 1b a9 11 3c ba f5 d8 bb 9a 54 98 3b
       0.0017177091 0.008890416 -0.0066210898 0.004648757
000010 c6 61 85 3c b3 52 e8 bb bc 44 88 3a 45 ab 11 bc
       0.016281974 -0.0070899366 0.0010396461 -0.0088909315
000020 a0 57 ee 3a 6f cd c5 3a e4 58 50 3c 32 b9 be bb
       0.0018184073 0.0015091131 0.012716506 -0.005820417
000030 e3 58 1f 3c b7 0f e5 bb 0a 1b 17 bb 66 3b 27 3b
       0.009725782 -0.0069903987 -0.0023056888 0.0025517582
000040 9f de 89 bb 98 d0 a6 39 72 31 c3 3a a6 e9 ac 3a
       -0.0042074467 0.00031817402 0.0014892055 0.0013192191
000050 38 b3 39 3b 32 8d 35 3c 14 86 c4 ba bc 6c 94 3b
       0.0028335582 0.011081027 -0.0014993572 0.0045295637
000060 4e 25 82 bb 3e d4 17 3c fc 09 e8 bb 09 a5 a3 bb
       -0.003971732 0.009266911 -0.0070812684 -0.004994039
000070 7c 15 ca bb 12 f7 0c 3c 8d e9 1c bb 3c 4e 36 3c
       -0.006167112 0.008603828 -0.0023942918 0.011127051
000080 c2 81 eb 3a fa 52 75 3a 8a 40 b0 bb 24 fb 0f 3b
       0.0017967748 0.0009358373 -0.0053787874 0.002196976
000090 8f 22 bb bb 05 43 e7 bb 0c 07 76 3b 80 03 83 3b
       -0.005710907 -0.00705755 0.0037540821 0.00399822
0000a0 eb 8b 6b 3b 44 86 5f 3b e8 93 52 3b 67 2f ad bb
       0.0035941552 0.0034107128 0.0032131616 -0.005285192
0000b0 06 61 6f 3b 0e 67 d8 bb bc 9f a9 bb 45 5e 7a bb
       0.0036526336 -0.006604082 -0.0051765125 -0.0038203162
0000c0 9b 28 81 bb 8e b1 5e 3b 02 00 0d 3c dd f5 d0 3b
       -0.003941608 0.0033980343 0.008605959 0.0063769654
0000d0 9a 0d ed 3b 37 04 c0 bb 7f ce e0 3b fe c2 9c 3b
       0.0072342874 -0.0058598774 0.0068605538 0.004783987
0000e0 2f be 1b 3c d9 3d ac 3b 41 05 aa bb d3 fc 84 bb
       0.0095057925 0.0052563963 -0.0051886146 -0.0040584593
0000f0 58 9d f0 bb 6a ad b4 ba 5c 0a d9 bb 5f 02 d4 ba
       -0.0073429756 -0.0013784592 -0.0066235494 -0.0016175023
000100 dd 60 2d 3a c9 8b 19 3c 23 0d 99 bb 2c 3e df b9
       0.000661386 0.009371706 -0.0046707555 -0.00042580196
000110 84 e1 01 3c 30 06 ce 3b f7 1f 8c 3c 82 ce 4f 39
       0.007927302 0.0062873587 0.017105086 0.00019817989
000120 a5 5f 9b 3b 45 ca 49 3c 3a 55 69 bb 29 76 62 bb
       0.0047416263 0.012316291 -0.0035603778 -0.0034555292
000130 b3 f2 f9 3b 1d 27 8c 3b a6 77 49 bb 82 3d e0 ba
       0.007627809 0.0042771236 -0.0030741482 -0.0017108175
000140 44 3e 02 3c fe e4 04 3c 81 d4 f1 bb f6 c0 04 3c
       0.007949416 0.008111237 -0.007380069 0.008102646
000150 d8 ba f2 ba 29 3f 9f bb 5f 3e fe b9 82 55 e1 bb
       -0.0018518819 -0.004859824 -0.00048493125 -0.0068766484
000160 56 a3 15 3a 20 2e 3b 3b fe e6 65 3a 94 c3 ad 39
       0.0005708238 0.0028561428 0.0008770077 0.00033142848
000170 30 aa 00 bc 37 f8 0a 3a 43 34 ba bb 4b 6d 13 bc
       -0.007853076 0.0005301269 -0.0056824996 -0.008998225
000180 99 44 95 bb 17 4e 44 bb 4a d8 6a ba e2 a2 a7 3b
       -0.0045552966 -0.0029953772 -0.0008958621 0.0051158527
000190 08 06 f5 3b d5 97 9f bb 9c 91 0f 3c 1b 0e 04 3c
       0.0074775256 -0.0048703947 0.008762743 0.008060004
0001a0 c8 ac 2d bc 91 49 98 3c a1 cb c0 3a 5f d2 38 3c
       -0.010600276 0.018589767 0.0014709124 0.011280625
0001b0 dd 22 75 3b 8a 99 42 bc c3 6d a9 3b 91 f1 97 3a
       0.0037404813 -0.011877427 0.0051705553 0.0011592378
0001c0 8e 6d 79 3c 29 1a 38 bc eb 19 17 bc ed 55 03 bb
       0.015223874 -0.011236706 -0.009222488 -0.002004023
0001d0 10 ec 24 3b 27 79 08 bc b8 51 94 3b 28 52 31 3b
       0.0025165118 -0.008329666 0.004526343 0.0027057026
0001e0 ed 64 18 3c 41 11 93 bb 1d 63 b9 3a ee 15 49 3c
       0.009301406 -0.004488141 0.0014143918 0.012273295
0001f0 fe 27 b9 ba 93 f7 16 bb 36 94 b8 3a 50 77 f8 3b
       -0.0014126298 -0.002303575 0.0014082256 0.0075825825

gcn_branch.gat_layers.1.lin.weight f4 [128, 128]
000000 98 15 ae bc 98 84 df bb 4c 82 87 b9 3e d0 68 3d
       -0.021250531 -0.0068212263 -0.00025846285 0.05683922
000010 50 c8 fc 3d d3 a1 b9 3d c8 9c 5a 3d 65 16 70 3d
       0.12342894 0.09064069 0.053372175 0.058615107
000020 90 20 09 be 42 9d 7d 3d 19 06 1f 3d 3b 30 f8 3c
       -0.13391328 0.06191755 0.038824175 0.030296436
000030 1b 9a b1 bd 25 5b c1 3d 27 83 b4 3d f2 6c e6 3d
       -0.086719714 0.094412126 0.08814078 0.112512484
000040 40 94 20 be 08 56 b0 3d 0e 39 a5 bd 2c fc 3d bd
       -0.15681553 0.08610159 -0.08067523 -0.046383068
000050 7c 55 c4 3d 2e 34 8c 3c a9 df de 3d d5 b1 4a 3d
       0.09586617 0.017114725 0.108825035 0.049486
000060 0e 45 22 bc 55 7a a2 bd e8 3d f6 3d 5b c7 b8 bd
       -0.009904159 -0.07933489 0.120235264 -0.09022399
000070 64 9e fa bd b1 1d e0 bd 9d 95 34 3d ba e3 60 3d
       -0.12237242 -0.10943163 0.044087995 0.054904677
000080 02 f9 d9 bd 3d a3 c5 3a a3 94 e1 bd 09 ca 96 bd
       -0.106431976 0.0015078556 -0.11014678 -0.07362754
000090 3f 57 3e 3d 4d 43 f6 3d e3 5d e8 bd 03 11 ba bc
       0.046469923 0.12024555 -0.113460325 -0.02271319
0000a0 67 db 23 be cc 37 9c 3d 97 2b 2f 3e 07 12 a6 bd
       -0.16001664 0.0762783 0.17106472 -0.08108907
0000b0 6d a2 34 bd 5e bb d4 3d 06 c9 19 be 77 9c 6f bd
       -0.044100214 0.103873 -0.1501809 -0.058498826
0000c0 fd d1 88 bd da f0 14 3c b9 69 63 bd 16 10 0b 3c
       -0.06680677 0.009090627 -0.055520747 0.008487722
0000d0 e7 a5 c8 bc 89 4b 9a 3c 04 56 8d 3b be ee 19 3e
       -0.02449317 0.018834846 0.0043132324 0.15032479
0000e0 fb 75 eb ba 9b f9 c5 bd 37 f4 d8 bd 82 5f 0b 3d
       -0.0017964238 -0.09666749 -0.10593455 0.03402663
0000f0 65 2a ea 3d ca 4a 92 bd b5 95 4c 3d ba 11 f3 3d
       0.11433867 -0.07143171 0.04994746 0.118686154
000100 b3 39 de bd 9b 00 0e be 6b bd 68 bd ce c1 14 ba
       -0.10850849 -0.13867418 -0.056821268 -0.0005674631
000110 10 b7 11 3e b4 a1 03 3d f3 2b a9 bd 50 cf 43 bc
       0.14229989 0.032136634 -0.08260336 -0.011951283
000120 22 04 28 3d e6 b3 ef bd cc 7d 81 bd d7 fc 1d be
       0.041019566 -0.11704235 -0.06322822 -0.15428482
000130 0f 76 f2 3d 33 01 8c 3d 58 53 65 3d 03 08 82 bd
       0.11838924 0.06836166 0.055987686 -0.06349184
000140 a3 ef 1f be af d3 80 bd e2 d1 b7 bd e2 5a 0b be
       -0.15618758 -0.062903754 -0.08975579 -0.13608888
000150 2e 7a e0 3d 73 00 14 3e be b2 0f bd 11 4d 38 bd
       0.10960804 0.14453296 -0.03508257 -0.04499537
000160 25 a7 eb bd 2f 8b de 3c 88 74 0d be 69 e5 fe bd
       -0.1150649 0.027165977 -0.13813984 -0.124461
000170 32 9a de bd 6a 99 a9 bc a0 1d 77 3d 37 8d d3 bd
       -0.10869254 -0.020703036 0.060330987 -0.10329669
000180 46 32 85 3d bc 40 23 bd c1 52 00 3d 57 d0 0e 3e
       0.065037295 -0.039856657 0.03132892 0.13946663
000190 94 15 b6 bd 19 8c 2a 3a 73 f5 5e bd a9 15 8e 3d
       -0.088908345 0.00065058615 -0.054433297 0.06937725
0001a0 9f 2d 90 3d 15 15 94 3d ef 5a e4 bd c1 13 7c 3d
       0.070399515 0.072305836 -0.11150157 0.061542276
0001b0 87 f5 e4 3c 2f 9d 84 3d a7 2a bf 3d de a3 71 3d
       0.027949108 0.06475293 0.09334307 0.058994167
0001c0 fd 07 14 3b 95 fb 02 bd 4c 57 b8 3d 2c e7 f2 3d
       0.002258777 -0.03197821 0.090010256 0.11860499
0001d0 15 a8 e5 bd 37 28 00 3d e5 65 07 be de a3 e9 3d
       -0.112137 0.031288352 -0.13222463 0.11408208
0001e0 20 54 28 3d 1c 97 22 bd 65 1d 0e 3e 80 79 86 bd
       0.041095853 -0.03969489 0.138784 -0.06566143
0001f0 59 62 e0 bd 92 50 7d bc af d5 a3 bd ac e1 e3 bd
       -0.10956258 -0.015461104 -0.07999741 -0.11127028
000200 de 47 09 be 9c 72 fe 3d 50 11 a8 bd fd d5 e5 3d
       -0.13406321 0.12424204 -0.08206427 0.11222456
000210 9f 60 66 bd 39 b9 71 3d ef 48 8c 3d ec 51 00 be
       -0.05624449 0.059014533 0.068498485 -0.1253125
000220 16 d6 af bd 2d 50 07 3e b3 18 0a 3d f2 5c 53 bd
       -0.085857555 0.13214178 0.03371496 -0.05160231
000230 10 e7 05 bc 20 10 95 bd ed 51 30 3d 79 66 02 be
       -0.008172765 -0.07278466 0.04304688 -0.12734403
000240 84 e6 ae 3d c8 65 0d bd 5a c3 b0 bd 34 39 33 3d
       0.08540061 -0.034520894 -0.0863101 0.043755725
000250 e9 d7 0b bd 94 d8 97 3d 8a 27 fc bb 29 b6 c7 bd
       -0.034141455 0.07414356 -0.007695143 -0.09751541
000260 a1 38 01 3e d5 1e 00 3e 37 c9 d4 3b 47 2f 9d 3c
       0.12619258 0.12511761 0.0064937132 0.019187583
000270 ac 07 33 3b e8 29 0b be 7d 8f 62 3c 4a 23 90 3c
       0.0027317805 -0.13590205 0.013828156 0.017594952
000280 c3 36 04 3e 91 e3 0b be a7 b2 1f bc 0b 47 ca bd
       0.12911515 -0.13661028 -0.009747184 -0.098768316
000290 91 f7 08 be ba bd 78 3d 0c 1d ee bd f5 6c 70 3d
       -0.13375689 0.060727812 -0.11626634 0.05869766
0002a0 47 1f 2f 3d 69 23 78 3c 79 ae d5 3d cc c1 00 3e
       0.042754438 0.015145161 0.10433669 0.12573928
0002b0 8f aa 8f 3d f1 ec 03 3e fd c6 2f 3d 9f 0e 5c bd
       0.07014953 0.12883355 0.04291438 -0.05372488
0002c0 fd 7c 2c be 82 e3 fc bd 4a a9 ec bd 1a de c6 3d
       -0.16844554 -0.12348081 -0.11555727 0.09710331
0002d0 f1 ea 1b 3b 82 05 06 3e 10 4a 40 3d 85 77 c5 3d
       0.002379116 0.13088039 0.04694563 0.09641937
0002e0 c0 36 fc bd aa b4 7d 3d 7a 68 5c bd d2 e9 02 bd
       -0.1231513 0.061939873 -0.053810574 -0.03196127
0002f0 da 11 0d 3d 70 6d 40 3c d1 34 ba bc 4a b4 13 be
       0.034440853 0.011744842 -0.022730263 -0.14424244
000300 f0 8e 63 3d 2b 44 54 3c 9f a0 02 3e ac d0 55 3d
       0.055556238 0.012955706 0.12756585 0.052200958
000310 df 29 13 be f0 33 f8 bd 00 22 05 3e dc 15 82 bc
       -0.14371441 -0.12119281 0.13001251 -0.015879564
000320 4d 50 d0 3d 2b d0 b7 bd e3 95 82 3d 34 b5 e9 bc
       0.10171566 -0.08975252 0.06376245 -0.028528787
000330 76 a3 11 3e 33 59 00 be 09 d4 0f 3d d8 ad 9a bd
       0.14222512 -0.12534027 0.03511432 -0.07552689
000340 77 4c e1 bd 86 80 b0 bc 35 16 52 3d af 90 e0 3c
       -0.11000913 -0.02154566 0.05129071 0.02741274
000350 7a 56 0a be 2d 26 db bd 2c 3c 8e bd e1 f2 8e bd
       -0.1350955 -0.10700641 -0.069450706 -0.06979919
000360 78 a6 ec bd d7 0d 19 be 5c cb 79 3d 7f 55 d9 bd
       -0.11555189 -0.14946686 0.060984954 -0.1061201
000370 5f 54 ff bd 13 04 02 bd 0d 2d ba bd f3 c7 db bd
       -0.124672644 -0.031742167 -0.09090624 -0.10731497
000380 4f 3d 8e bd fb 46 ae bd d4 c2 c8 3c 27 59 b2 bc
       -0.069452874 -0.08509632 0.024506964 -0.021771027
000390 b0 78 08 be 89 36 fb 3d d0 4a c0 bd 3d 59 08 be
       -0.13327289 0.12266261 -0.09389269 -0.13315292
0003a0 a4 31 f4 bb 88 09 2e 3d 47 13 c0 bd c8 96 4e 3d
       -0.0074522067 0.04248956 -0.09378677 0.050436765
0003b0 82 0e 81 3d eb db 5d 3c c3 0a c5 3b b0 91 9f bc
       0.06301595 0.013541202 0.006013246 -0.019478649
0003c0 2a 94 93 bd 57 8c 4b bc f0 3e 07 3c bc 43 b0 ba
       -0.072059944 -0.012423596 0.008254752 -0.0013447921
0003d0 f0 54 06 be 9e eb d2 bd 5d d6 0a 3e 57 2f b8 3d
       -0.13118339 -0.10298847 0.13558336 0.08993404
0003e0 2b 5a 98 bd 5b 34 9c 3c 0f c5 06 3e 03 56 86 3c
       -0.07439073 0.019067934 0.1316111 0.016398435
0003f0 f0 cf 5e bd 09 4f f4 bc c0 23 e0 bd 82 c9 9c 3d
       -0.054397523 -0.029822843 -0.10944319 0.07655622
