finalhybrid/experiments/experiment_20251104_193608/final_hybrid_model.pth (torch, 832434 bytes, 21 tensors)

gcn_branch.gcn_layers.0.bias f4 [64]
0	0xb909f38a	-0.00013156064
1	0xbbd3b5f1	-0.006460898
2	0x00000000	0.0
3	0x00000000	0.0
4	0xbc82e6a1	-0.015979113
5	0x00000000	0.0
6	0xbb93a9e9	-0.004506339
7	0x00000000	0.0
8	0x3bda5a9c	0.0066636335
9	0xbc28583a	-0.010274941
10	0xbc0891d1	-0.008335547
11	0x00000000	0.0
12	0x00000000	0.0
13	0xbb791a23	-0.0038009963
14	0x00000000	0.0
15	0xbc5937bb	-0.013257916
16	0x3bf515b7	0.0074793953
17	0x00000000	0.0
18	0xbc71fe89	-0.014770159
19	0x00000000	0.0
20	0xbc892b05	-0.016744146
21	0x3c4d4c41	0.012530387
22	0xbc6136fc	-0.013746019
23	0xbc6f79d1	-0.014616446
24	0xbc03c9b6	-0.008043697
25	0xbb21ee49	-0.002470868
26	0x3b6857a4	0.0035452629
27	0x3af4b518	0.0018669693
28	0x3c9a5e5c	0.018843822
29	0xbca96ec0	-0.020682693
30	0xbbf6642c	-0.0075192656
31	0xba26ea4d	-0.0006367311
32	0x00000000	0.0
33	0xbc2dfcda	-0.010619367
34	0xbc3c0ef6	-0.011478176
35	0x00000000	0.0
36	0xbc36ac93	-0.011149543
37	0xbbe79b63	-0.007068084
38	0x00000000	0.0
39	0x00000000	0.0
40	0x00000000	0.0
41	0x3bf44f26	0.0074557243
42	0x3c91851f	0.017763672
43	0xbc9f7f5a	-0.019469906
44	0x39d51a8f	0.00040646314
45	0x3a79a8d8	0.0009523756
46	0xbbf0bcdc	-0.0073467325
47	0xbb3cfcf8	-0.0028837305
48	0xbc7952c8	-0.0152174905
49	0x00000000	0.0
50	0xbbbbda39	-0.0057328013
51	0xbb49925a	-0.0030757398
52	0x00000000	0.0
53	0xbc047899	-0.008085393
54	0x3a0e68a7	0.00054324645
55	0x00000000	0.0
56	0xbb89d969	-0.0042068255
57	0x3d155469	0.036457453
58	0xbb2efb38	-0.002670003
59	0xbb1af60f	-0.0023645198
60	0xbc135005	-0.008991246
61	0x00000000	0.0
62	0xbc016451	-0.007897452
63	0x00000000	0.0

gcn_branch.gcn_layers.0.lin.weight f4 [64, 36]
0	0xbe3cd0fe	-0.18439099
1	0x3caee365	0.021348665
2	0x3e0857ea	0.13314787
3	0xbe780705	-0.24221428
4	0x3e6ba0d2	0.23010567
5	0x3dbde147	0.09271484
6	0x3dc11bca	0.094291285
7	0x3d233054	0.03984101
8	0x3a059642	0.00050959375
9	0x3e44f665	0.19234617
10	0x3d024a9c	0.031809434
11	0x3e705bfb	0.23472588
12	0xbc751cf0	-0.0149605125
13	0xbda40dc6	-0.080104396
14	0xbda4167c	-0.08012101
15	0x3e5af38b	0.21381967
16	0x3e25ff69	0.16210712
17	0x3e582d73	0.21111088
18	0xbd88b592	-0.06675257
19	0x3e1ca3a5	0.152968
20	0x3da004de	0.07813428
21	0xbe78324d	-0.24237938
22	0xbe21f69a	-0.15816727
23	0xbe2b4f19	-0.16729392
24	0x3de04af6	0.10951798
25	0x3d7530f4	0.05986114
26	0x3b831bea	0.0040011303
27	0x3de5f768	0.112288296
28	0xbe309845	-0.17245586
29	0xbdb8d4db	-0.09024974
30	0x3d807562	0.06272389
31	0x3e27e6dd	0.16396661
32	0x3e6f35d9	0.23360385
33	0xbb74a74e	-0.0037331167
34	0xbe72e855	-0.2372144
35	0xbe4ed4a0	-0.20198298
36	0x3dcaabb4	0.09896031
37	0x3e40307f	0.187685
38	0xbe2e7bd8	-0.1703943
39	0xbda3d072	-0.07998742
40	0xbe05bd42	-0.13060477
41	0x3de4c742	0.11170818
42	0x3e36e5eb	0.17861144
43	0xbb53c240	-0.0032311827
44	0x3dbc2e7e	0.09188555
45	0xbdc8c204	-0.098026305
46	0xbdba0da0	-0.0908463
47	0xbe075959	-0.13217677
48	0x3e2a6f19	0.16643943
49	0x3ce485b8	0.027895793
50	0x3d482dfc	0.04887198
51	0x3e6299dd	0.22129007
52	0x3da2b616	0.079448864
53	0xbb74fb40	-0.0037381202
54	0x3e7251ff	0.23664092
55	0xbdf250a8	-0.1183179
56	0xbc070b00	-0.008242369
57	0xbe164e44	-0.14678293
58	0x3e331cfb	0.17491524
59	0x3e13950d	0.14412327
60	0xbe611849	-0.2198192
61	0x3e526125	0.2054487
62	0x3d5a9f57	0.053374615
63	0xbd456516	-0.048192106
64	0x3e062ad7	0.1310228
65	0x3e19ea3f	0.15030764
66	0x3d3fc872	0.04682202
67	0xbe5fc4d4	-0.21852428
68	0xbe4e5617	-0.20150028
69	0x3d8ec50a	0.06971176
70	0xbe0edb9c	-0.13950962
71	0xbd269e7c	-0.040678486
72	0x3e0a4b59	0.13505305
73	0xbdc8625c	-0.097843856
74	0xbe3b74f2	-0.1830633
75	0xbe5b2f53	-0.21404772
76	0xbe4de213	-0.20105772
77	0xbbfe9da0	-0.007770255
78	0x3d843c42	0.06456806
79	0x3ddc4d32	0.10756911
80	0x3da81042	0.08206226
81	0xbdcffbbe	-0.10155438
82	0xbe0e5a16	-0.13901553
83	0xbe0b63de	-0.13612315
84	0xbc8c48d0	-0.017124563
85	0xbe47755e	-0.19478366
86	0xbe66abcd	-0.22526474
87	0xbe40a0c6	-0.1881133
88	0xbc3d9f40	-0.011573613
89	0x3e4ec8dd	0.20193811
90	0x3de57946	0.11204772
91	0xbe7a30a9	-0.24432625
92	0x3dbe8402	0.09302522
93	0x3e4947ab	0.19656245
94	0x3d7f0274	0.0622582
95	0x3e21339f	0.15742348
96	0x3cbf6b48	0.023366585
97	0x3e60e06b	0.21960609
98	0xbe36e8ce	-0.17862245
99	0xbd75d9bc	-0.0600221
100	0xbe2ebdbc	-0.17064565
101	0xbe4640d2	-0.19360664
102	0xbcf53ec0	-0.029937148
103	0xbe76ebf4	-0.24113446
104	0xbe204f6e	-0.156553
105	0x3e06e46d	0.13173075
106	0x3d84ca4e	0.06483899
107	0x3bd78f60	0.006578371
108	0xbe692c65	-0.22770841
109	0xbe01fd4e	-0.12694284
110	0x3e3af57d	0.18257709
111	0xbe506054	-0.20349246
112	0xbdf4e57e	-0.11957835
113	0x3e771983	0.24130826
114	0x3e1960dd	0.14978357
115	0xbe0dda1d	-0.13852735
116	0x3e20073f	0.15627764
117	0xbdc89fd8	-0.09796113
118	0x3e0f2ea9	0.13982643
119	0xbd228410	-0.039676726
120	0x3e248ccf	0.16069339
121	0xbe4f1d24	-0.2022596
122	0xbdbc1270	-0.09183204
123	0x3de72552	0.11286415
124	0xbdaa7ffa	-0.08325191
125	0xbe746f21	-0.23870517
126	0xbe1e1ebe	-0.15441415
127	0xbe514925	-0.20438059
128	0x3e3b9613	0.18318968
129	0x3e3b12b7	0.18268858
130	0xbe570efe	-0.21001813
131	0x3de4d206	0.11172871
132	0x3c028c70	0.007968053
133	0xbdf60b28	-0.12013847
134	0xbe5c7c57	-0.21531807
135	0xbdc9564c	-0.09830913
136	0xbe1fbc6a	-0.15599218
137	0x3e108b79	0.14115705
138	0x3e7426f7	0.23842989
139	0x3e441443	0.19148354
140	0xbd5a1624	-0.05324377
141	0xbe143780	-0.14474297
142	0xbd9b4286	-0.07581048
143	0xbd4fc730	-0.05072707
144	0x3d80ca1b	0.062885486
145	0x3d6a92d3	0.05726893
146	0xbe1368d9	-0.14395465
147	0x3e1c3cd3	0.15257578
148	0xbe4c33aa	-0.19941583
149	0xba094f66	-0.00052379665
150	0xbd31d22e	-0.043413334
151	0xbe6577f8	-0.22409046
152	0x3e85d5ed	0.26139775
153	0x3e4d6e69	0.2006165
154	0x3da7784a	0.0817724
155	0x3d742a34	0.05961056
156	0xbe2ddf00	-0.16979599
157	0x3e768c31	0.24076916
158	0x3dbcb336	0.09213869
159	0x3e48c635	0.1960686
160	0x3bfaa4a0	0.0076490194
161	0x3e0406db	0.1289324
162	0xbd1447bc	-0.036201224
163	0x3e0fcb97	0.14042507
164	0xbe5d5acd	-0.21616669
165	0x3e508706	0.20364007
166	0x3dda904a	0.10672052
167	0x3d6daf2c	0.058028385
168	0x3d4baae7	0.049723532
169	0xbdfa0fa3	-0.12210014
170	0x3e5f6edb	0.21819632
171	0x3d88e325	0.066839494
172	0xbe752cd5	-0.23942883
173	0xbe676395	-0.22596581
174	0xbe875823	-0.2643443
175	0x3e590f97	0.21197353
176	0xbdb8bd52	-0.09020485
177	0xbe44e441	-0.19227697
178	0x3d173c19	0.036922548
179	0xbe60d708	-0.21957028
180	0xbe10081a	-0.1406559
181	0x3e6ba44d	0.23011895
182	0x3df73fd2	0.1207272
183	0xbe228eb0	-0.15874743
184	0xbdffc1d1	-0.124881394
185	0x3d766e7c	0.06016396
186	0x3d092cb4	0.033489898
187	0xbbe06e00	-0.0068490505
188	0xbdf21be2	-0.118217245
189	0xbe1477f6	-0.14498886
190	0x3db1a31e	0.0867369
191	0x3de7737a	0.11301322
192	0xbe7228bc	-0.23648351
193	0x3e2dc07d	0.1696796
194	0xbe6019e0	-0.2188487
195	0xbe58aee8	-0.21160471
196	0x3da4c2f6	0.08044998
197	0xbe14774b	-0.14498632
198	0xbe73d0d5	-0.23810132
199	0xbe2b62bb	-0.16736881
200	0xbdef0f5a	-0.1167285
201	0x3e6a24a7	0.22865544
202	0x3df8eaca	0.121541575
203	0xbe45bf30	-0.19311213
204	0xbe075b2c	-0.13218373
205	0xbe3c2cff	-0.1837654
206	0xbd5f4ed4	-0.054518536
207	0xbe6a979e	-0.229094
208	0xbe79018d	-0.24316998
209	0xbe60a8fc	-0.21939462
210	0xbde33876	-0.110947534
211	0xbd0c5c84	-0.034267917
212	0xbdf0e93c	-0.11763236
213	0xbdcd27b8	-0.100173414
214	0x3db298b2	0.087205306
215	0xbe3d741e	-0.18501326
216	0xbe3f7421	-0.18696643
217	0x3e4407dd	0.19143625
218	0x3ba39140	0.0049916804
219	0x3d4291ae	0.047502212
220	0xbdb93df0	-0.09045017
221	0x3e206613	0.15663938
222	0x3e00a4b5	0.12562831
223	0x3d6ffe5c	0.058592185
224	0x3c2284d0	0.00991936
225	0x3dc0585a	0.09391852
226	0xbcaddac0	-0.021222472
227	0x38031000	3.1247735e-05
228	0xbdf32d28	-0.11873847
229	0x3e6abfd3	0.22924738
230	0xbc605d00	-0.013694048
231	0xbe184462	-0.14869836
232	0xbe264432	-0.16236952
233	0x3d246284	0.040133014
234	0x3e398741	0.18118002
235	0x3b27d600	0.0025609732
236	0x3e3014a3	0.17195372
237	0xbe544127	-0.20727979
238	0x3e12cd01	0.14336015
239	0x3d977a8e	0.07396422
240	0xbe299a3d	-0.16562743
241	0xbdd2dcec	-0.10296044
242	0x3ca15292	0.019692693
243	0xbc2e10f9	-0.010624164
244	0xbcdbe3c8	-0.026842013
245	0x3da79808	0.081832945
246	0x3deb98e2	0.115037695
247	0xbe64a9c2	-0.22330382
248	0x3e56d34b	0.2097904
249	0x3e57f5a7	0.21089803
250	0x3e16543d	0.14680572
251	0xbe774ed9	-0.24151172
252	0x3d904136	0.07043688
253	0x3e0c89df	0.13724469
254	0x3bfffba0	0.0078119785
255	0xbd84bafc	-0.06480977

gcn_branch.gcn_layers.1.bias f4 [128]
0	0xbb1d775a	-0.0024027438
1	0x3cd5e242	0.026108865
2	0xbc87f619	-0.01659684
3	0xbc7fe48c	-0.015618455
4	0xbc21742d	-0.009854359
5	0xbca3b4ba	-0.019983638
6	0x3cc29895	0.023754397
7	0x3c4703d1	0.012146906
8	0xbc441b34	-0.011969376
9	0xbc44b7f3	-0.012006748
10	0xbbfc7b41	-0.0077051227
11	0x3b9788c8	0.00462446
12	0xbc6040f3	-0.01368736
13	0xbc0ae719	-0.00847795
14	0xbb9907c3	-0.0046701147
15	0xbc020ffb	-0.00793838
16	0x37b86cf5	2.1985246e-05
17	0xbb9669d4	-0.0045902524
18	0xbc354a5b	-0.011065091
19	0xbbb1a6c4	-0.0054214913
20	0x3a7c285c	0.0009619051
21	0xbc1e8790	-0.009675875
22	0xbc5be21b	-0.013420607
23	0xbbe30c00	-0.0069289207
24	0xbbee3d30	-0.0072704777
25	0xbb9f27c9	-0.0048570377
26	0xbbb45819	-0.005503666
27	0xbc484e6b	-0.012225728
28	0xbb21b199	-0.0024672507
29	0x3b9d911c	0.004808558
30	0xbc1ac5b7	-0.009446553
31	0xbbcb7e0c	-0.0062100943
32	0x3c5f19b6	0.01361697
33	0xbc363f6f	-0.011123522
34	0x3ba6e60b	0.005093341
35	0xbc1c3bcb	-0.00953574
36	0xbc0cd582	-0.008595826
37	0xbb035544	-0.0020039836
38	0x3bfd99af	0.007739268
39	0xbbb7ad6e	-0.005605391
40	0x3af4066e	0.0018617639
41	0xbc765fe7	-0.015037513
42	0xbc954576	-0.018221598
43	0xbc0970c5	-0.008388703
44	0xbc1b11bc	-0.009464677
45	0xbbe203c3	-0.006897421
46	0xbaf306ef	-0.0018541495
47	0x3a9bdb17	0.0011890855
48	0xbb66b441	-0.0035202655
49	0xbb2dadfb	-0.0026501406
50	0xbc925a77	-0.017865403
51	0xbb3738be	-0.0027957405
52	0xbc8d2d02	-0.017233375
53	0xbc29c9bc	-0.010363039
54	0xbc1df94e	-0.009641958
55	0xbc101cf8	-0.008795969
56	0x3bbba905	0.005726936
57	0xbba99f98	-0.0051764958
58	0x3a8b05f8	0.0010606637
59	0xbb934cc3	-0.0044952347
60	0x3a67cd90	0.0008842582
61	0x3b9dac29	0.004811783
62	0xbb1e361b	-0.0024141136
63	0xbc844fb8	-0.016151294
64	0xbc49cf7b	-0.012317534
65	0x3c41ded9	0.011832916
66	0xbc0700fa	-0.008239979
67	0x3963e91a	0.00021735244
68	0xbc13859d	-0.009004024
69	0xbc02e42d	-0.007988972
70	0x3b7897bf	0.0037932245
71	0x3b1a4e6c	0.0023545278
72	0x3a45de54	0.0007548083
73	0x3c721750	0.014776066
74	0xbb9730ae	-0.0046139574
75	0xbbdf8219	-0.006820929
76	0xbc0660f2	-0.0082018245
77	0xbbb7debd	-0.0056112693
78	0x3bacdb3d	0.0052751587
79	0xbc3f868d	-0.011689794
80	0xbc8ccdfb	-0.017188063
81	0xbc9d340a	-0.019189853
82	0xb92fd6c7	-0.00016769311
83	0xbaec52e3	-0.0018030073
84	0xbbbb8109	-0.0057221693
85	0x00000000	0.0
86	0xbc17406e	-0.00923167
87	0x3ae3005c	0.0017318833
88	0xbc8742b5	-0.0165113
89	0x39eb44d1	0.00044873965
90	0xbb038a08	-0.0020071287
91	0x3b8d782e	0.004317305
92	0xbc956fea	-0.018241841
93	0x3a921a4d	0.0011146754
94	0xbbc7b909	-0.006095056
95	0xbbc576dc	-0.006026132
96	0xbc22e5f9	-0.009942525
97	0x3b1a1e11	0.0023516456
98	0xbc7eaeed	-0.015544635
99	0xbc17703f	-0.00924307
100	0xba4c2ba1	-0.00077884836
101	0xba9a6629	-0.0011779714
102	0xbc753348	-0.01496584
103	0x3c8c3b22	0.01711804
104	0x3b3fbb91	0.0029256085
105	0xbc3738b7	-0.0111829555
106	0xbb967a88	-0.0045922436
107	0xbb6e5c6c	-0.0036371006
108	0xbc2dadf2	-0.010600554
109	0xbb978acc	-0.0046247
110	0x3b6ea78e	0.0036415788
111	0xbbac3450	-0.0052552596
112	0xbb6d7fb8	-0.0036239456
113	0xbb65f22c	-0.0035086973
114	0xbb37b559	-0.0028031676
115	0xbc0d37bb	-0.008619244
116	0xbc4ec470	-0.012620077
117	0xbbb5af88	-0.0055446066
118	0xbaa9f7d6	-0.0012967538
119	0xbba62597	-0.005070399
120	0xbc895d49	-0.016768115
121	0xbb4acaff	-0.003094375
122	0xbba2a9e5	-0.0049641007
123	0x39fe9c40	0.0004856307
124	0x3aa38cff	0.0012477933
125	0xbc042712	-0.008065956
126	0xbc3a99a4	-0.01138917
127	0xbc062350	-0.00818713

gcn_branch.gcn_layers.1.lin.weight f4 [128, 64]
0	0xbdbb16d4	-0.091352135
1	0xbd9cbef1	-0.07653607
2	0xbd276884	-0.04087116
3	0x3cb98d37	0.022650344
4	0xbe250ac3	-0.16117387
5	0x3e21303c	0.15741056
6	0x3e34f08f	0.17669891
7	0x3e16394d	0.14670296
8	0x3db381c0	0.08764982
9	0xbd8ba062	-0.068177
10	0x3dc0c21b	0.09412023
11	0x3df5e145	0.120058574
12	0xbe301c27	-0.1719824
13	0x3da72fad	0.0816339
14	0xbd4359e0	-0.047693133
15	0xbd97e338	-0.074163854
16	0xbd42be10	-0.04754454
17	0x3e3290ac	0.17438
18	0x3d36f5dc	0.044668064
19	0xbe2ff6c6	-0.1718398
20	0x3e273616	0.16329226
21	0xbe07c78f	-0.1325972
22	0x3dcd9973	0.10039034
23	0x3e2050b2	0.15655783
24	0x3e2f12cc	0.17097014
25	0x3d1c5887	0.038170364
26	0xbd2cfebc	-0.04223512
27	0xbe256de3	-0.161552
28	0x3daf2c18	0.08553332
29	0x3d913b5b	0.07091399
30	0x3dd71e72	0.10503854
31	0xbe14fb8b	-0.14549081
32	0x3d6b0711	0.057379786
33	0xbdb0b354	-0.08627954
34	0xbe052670	-0.13002944
35	0x3c8b89f0	0.017033547
36	0x3d7d3c5d	0.061825145
37	0xbd63e251	-0.055635754
38	0x3ca54a5c	0.020177059
39	0x3e10f17c	0.14154619
40	0xbca9516f	-0.020668713
41	0x3d32a5ae	0.043615036
42	0xbdaacaf2	-0.0833949
43	0x3e1fcd66	0.15605697
44	0x3d9d1c96	0.07671468
45	0x3c52bf6c	0.012863021
46	0x3db7fdb8	0.0898394
47	0x3d3068c6	0.04306867
48	0xbdfb6a6e	-0.12276159
49	0x3da72dc7	0.08163028
50	0x3e29d078	0.16583431
51	0xbd7121cf	-0.058870133
52	0xbc9755f1	-0.018473597
53	0xbd91b378	-0.07114309
54	0xbd58f8d9	-0.052971695
55	0x3d8d20c1	0.06891013
56	0xbdf41b60	-0.11919284
57	0x3e1d43f5	0.15357955
58	0x3da14e42	0.078762546
59	0xbd99472b	-0.07484277
60	0x3cb6d5df	0.022318779
61	0xbc1b1864	-0.009466264
62	0xbd885321	-0.066564806
63	0x3d5715e9	0.05251113
64	0xbd95f254	-0.07321611
65	0xbdb09e0b	-0.08623894
66	0xbe03dba0	-0.12876749
67	0x3df090a0	0.11746335
68	0xbdbeef72	-0.09323014
69	0x3e2df26b	0.16987006
70	0xbd4ddbb2	-0.050258346
71	0xbddbe942	-0.1073785
72	0xbde30778	-0.11085409
73	0xbdc8e589	-0.09809405
74	0x3d640f8e	0.055678897
75	0xbe1dc581	-0.15407373
76	0xbda1f55e	-0.07908128
77	0x3c6dafa6	0.01450721
78	0x3cce11e7	0.02515502
79	0xbe2e7031	-0.17034985
80	0xbe22b650	-0.15889859
81	0xbe28821e	-0.16455886
82	0x3de1f945	0.110338725
83	0xbca592b1	-0.02021155
84	0xbbc19199	-0.005907249
85	0x3bdfa0cb	0.006824588
86	0x3dbf836c	0.093512386
87	0xbe0503c6	-0.1298972
88	0x3c81dd26	0.015852522
89	0xbe1a3ac2	-0.15061477
90	0x3d4209e0	0.0473727
91	0xbcec1625	-0.028819153
92	0xbe2c49d1	-0.16825034
93	0x3d826aa7	0.063679986
94	0x3d7b4a7e	0.06135034
95	0x3e37b36c	0.17939538
96	0x3b8fe576	0.0043913675
97	0xbdc4e086	-0.09613137
98	0x3da5cc2d	0.08095584
99	0xbe1120db	-0.1417269
100	0xbe139bf3	-0.14414959
101	0x3e2566ef	0.16152547
102	0xbdc6fe79	-0.097165056
103	0x3e4854c4	0.19563586
104	0xbd213bc4	-0.039363638
105	0xbd8a8ea0	-0.06765485
106	0x3d974ecb	0.073880754
107	0x3d83f4d0	0.06443179
108	0xbde4347a	-0.111428216
109	0xbb92bf02	-0.0044783363
110	0xbe086aef	-0.13322042
111	0xbde721ee	-0.112857684
112	0x3dbe0853	0.092789315
113	0xbc9896c1	-0.018626573
114	0x3d8b8bf4	0.06813803
115	0x3d6a302a	0.05717484
116	0x3dce5b59	0.10076017
117	0xbd8787e7	-0.06617718
118	0xbcae2b3b	-0.021260848
119	0xbdc342d4	-0.09534231
120	0xbe06353b	-0.13106243
121	0xbe2612ac	-0.1621806
122	0x3e1b1099	0.1514305
123	0xbdb84388	-0.089972556
124	0x3ddcee8b	0.10787686
125	0x3cdbfc0c	0.026853584
126	0xbde3b7c4	-0.11119035
127	0x3ddacc22	0.106834665
128	0xbd5fbc28	-0.0546228
129	0x3dba9f71	0.09112442
130	0x3e130a9b	0.14359514
131	0x3e38b20a	0.18036667
132	0xbc8d108c	-0.017219804
133	0xbddc3f8e	-0.107543096
134	0xbd39b073	-0.04533429
135	0xbd58c22d	-0.052919555
136	0xbe13c492	-0.14430454
137	0x3ddc767a	0.10764785
138	0xbde5eb5e	-0.11226533
139	0xbdd79f16	-0.1052839
140	0x3e03826c	0.12842721
141	0xbd60cd94	-0.054883555
142	0xbd801b06	-0.06255154
143	0xbdcae5b9	-0.09907097
144	0xbc2ac518	-0.010422967
145	0xbca250bd	-0.01981389
146	0x3cb3b9ee	0.021939244
147	0xbe2a1416	-0.16609225
148	0xbde7f08b	-0.11325177
149	0x3c9fe577	0.019518597
150	0x3d004a47	0.031320836
151	0xbd5d2ed2	-0.05399973
152	0xbc691b08	-0.014227636
153	0xbd492fce	-0.049117856
154	0xbe3341e0	-0.17505598
155	0x3d96c482	0.073617
156	0x3e2e26c6	0.17006978
157	0x3d9e5b94	0.07732311
158	0xbe2efc38	-0.17088401
159	0x3ce07a9b	0.027402213
160	0x3e26a272	0.16272905
161	0xbaeb7da9	-0.0017966527
162	0xbdfe75ed	-0.12424836
163	0xbe20e6b5	-0.15713008
164	0x3da331f2	0.07968511
165	0xbd2a5d44	-0.04159285
166	0xbe341467	-0.17585908
167	0xbe35f1e5	-0.17768057
168	0x3e16663f	0.14687441
169	0xbe1d2a19	-0.1534809
170	0xbc722988	-0.01478041
171	0xbcc3635e	-0.023851093
172	0x3dde5cb7	0.10857528
173	0xbe21d601	-0.15804292
174	0x3de55177	0.11197179
175	0x3b584eab	0.0033005874
176	0x3da7067b	0.08155533
177	0xbde6ce4d	-0.112698175
178	0xbdab3412	-0.08359541
179	0x3d95815b	0.07300063
180	0xbe011dd8	-0.1260904
181	0x3cdb6681	0.026782276
182	0x3e1619cd	0.1465828
183	0xbe2c8667	-0.16848145
184	0x3dc82c8a	0.0977412
185	0x3e19c632	0.15017012
186	0x3ddc3d05	0.10753826
187	0xbdab4a17	-0.08363741
188	0xbe2f38b3	-0.17111473
189	0xbce000eb	-0.027344188
190	0x3dc5c928	0.09657508
191	0xbe220183	-0.15820889
192	0x3e17f101	0.1483803
193	0xbe15c4af	-0.1462581
194	0xbd6f5a24	-0.058435574
195	0xbd52d302	-0.051470764
196	0xbdb8860b	-0.09009942
197	0xbe0cb172	-0.13739565
198	0x3e2fff6b	0.17187278
199	0x3ce47d74	0.027891852
200	0x3bfc215f	0.007694408
201	0x3e045094	0.12921363
202	0x3e048829	0.12942566
203	0x3e263c7d	0.16234012
204	0xbd08c880	-0.033394337
205	0x3ddc0e6b	0.107449375
206	0x3e1ba59f	0.15199898
207	0x3c60e620	0.013726741
208	0xbc8ab1d9	-0.016930507
209	0x3dc8096c	0.09767422
210	0xbe3e272b	-0.18569629
211	0x3e033fb4	0.1281727
212	0xbd37158c	-0.044698283
213	0x3db136bf	0.0865302
214	0x3d6ce596	0.057836138
215	0xbd450f75	-0.048110444
216	0xbd3fdff5	-0.04684444
217	0x3dbbc7ff	0.091690056
218	0xbe142e48	-0.1447078
219	0x3e15c882	0.14627269
220	0x3de97829	0.11399872
221	0x3d865afd	0.065603234
222	0xbe24152f	-0.16023706
223	0x3d8a71a3	0.06759956
224	0x3e1fd690	0.15609193
225	0xbcc87270	-0.02446863
226	0x3d53d23c	0.051714167
227	0x3e429e33	0.1900566
228	0xbd6ee929	-0.058327828
229	0x3d313e5c	0.04327236
230	0x3df8a5aa	0.12140973
231	0xbc3abf99	-0.0113982195
232	0x3d92551c	0.071451396
233	0xbd4b0c66	-0.04957237
234	0xbe35dc4d	-0.1775982
235	0xbe00636f	-0.12537931
236	0x3dc223af	0.09479462
237	0x3d769c99	0.060207937
238	0x3d628772	0.055304952
239	0xbe181476	-0.14851555
240	0x3e078fd0	0.13238454
241	0x3d442ba4	0.04789318
242	0xbd933314	-0.07187477
243	0xbd804c14	-0.06264511
244	0xbd26e199	-0.04074249
245	0xbe410ad5	-0.18851788
246	0x3c80f346	0.015741002
247	0xbd52279f	-0.051307317
248	0xbdceac4b	-0.10091456
249	0x3d5e4cf7	0.05427262
250	0x3da86b4f	0.082235925
251	0x3e03f1b0	0.12885165
252	0x3d58c8d8	0.052925915
253	0x3e04e27f	0.12977026
254	0x3d87d346	0.06632094
255	0x3dae2cae	0.08504616

gcn_branch.gat_layers.0.att_src f4 [1, 4, 16]
0	0x3d890620	0.066906214
1	0xbd02a1fe	-0.03189277
2	0x3d20bb85	0.039241333
3	0x3e83cc03	0.25741586
4	0x3ebdac2c	0.3704542
5	0xbebacd22	-0.3648463
6	0xbddcc3b7	-0.10779517
7	0x3bc35db2	0.005962097
8	0x3ee39958	0.4445293
9	0x3db9e14a	0.090761736
10	0x3f00e922	0.5035573
11	0x3e94232a	0.28933078
12	0xbefbb940	-0.49164772
13	0x3ebe9c35	0.37228552
14	0xbda6b605	-0.08140186
15	0xbe205e6f	-0.15661024
16	0x3ee8b385	0.45449463
17	0x3e59a17a	0.21253005
18	0x3e40600a	0.18786636
19	0xbe712c5c	-0.23552078
20	0x3e2845b2	0.16432837
21	0x3f03fc26	0.51556623
22	0xbec27618	-0.37980723
23	0x3daeb671	0.08530892
24	0xbe97b926	-0.29633445
25	0xbefc59c5	-0.4928724
26	0xbec17c05	-0.37789932
27	0xbce423a7	-0.027849032
28	0xbe9366f7	-0.28789493
29	0x3eacfc6d	0.33786336
30	0xbeb76ae8	-0.3582375
31	0xbe1334e1	-0.1437564
32	0xbe5727e5	-0.21011312
33	0x3e2f54e3	0.17122225
34	0xbeedae0b	-0.46421847
35	0xbe6ee2f3	-0.23328762
36	0x3e308131	0.17236783
37	0x3c590731	0.0132463435
38	0xbf093e91	-0.53611094
39	0x3e01cb78	0.12675273
40	0xbec8c63d	-0.39213744
41	0xbc359201	-0.011082173
42	0x3e2dea66	0.16983947
43	0x3ecc9843	0.39959916
44	0x3f04c3a1	0.51861006
45	0x3ed0aee9	0.40758446
46	0x3db73e69	0.08947451
47	0xbe742434	-0.23841935
48	0x3f0d6a88	0.5524068
49	0xbefdde5f	-0.49583718
50	0xbf027de5	-0.5097335
51	0x3ee1c179	0.4409292
52	0x3e66c141	0.22534658
53	0x3e2e58d9	0.1702608
54	0x3e86ca8c	0.26326406
55	0xbdc5e284	-0.09662345
56	0x3ef60124	0.48047745
57	0x3eb54f39	0.35412005
58	0xbeda6ff8	-0.4266355
59	0xbf02ca06	-0.51089513
60	0x3da7035e	0.08154939
61	0x3e25594c	0.16147345
62	0x3de611fc	0.11233899
63	0xbd9ee6d4	-0.07758871

gcn_branch.gat_layers.0.att_dst f4 [1, 4, 16]
0	0x3f0573ee	0.5213002
1	0x3d8cfb71	0.06883896
2	0x3e7f70ec	0.2494542
3	0x3ecb9f2d	0.3976988
4	0xbe38b2bc	-0.18036932
5	0xbeb25c2f	-0.34835956
6	0x3ea68be9	0.32528618
7	0xbf02663b	-0.5093724
8	0xbe49b51c	-0.19697994
9	0x3e9b5f6d	0.30346242
10	0xbdbde484	-0.092721015
11	0xbec2284e	-0.37921375
12	0xbeeb2221	-0.45924476
13	0x3ee7cf99	0.45275572
14	0x3e364956	0.17801413
15	0x3d5ccd5e	0.05390679
16	0x3d62f97c	0.055413708
17	0xbe67bb9f	-0.22630166
18	0xbe845e37	-0.2585313
19	0xbe5420a0	-0.2071557
20	0xbdc969a1	-0.098346
21	0x3e74ce95	0.2390693
22	0x3e6e58fe	0.23276135
23	0x3cf70367	0.03015299
24	0xbedd0257	-0.43165848
25	0xbeda1ba3	-0.4259921
26	0xbeefeae5	-0.46858898
27	0xbde406e8	-0.1113413
28	0x3dc85dd5	0.09783522
29	0x3e7a0a29	0.24417938
30	0x3e10b48d	0.14131375
31	0xbf010f95	-0.504144
32	0x3e44f063	0.19232325
33	0xbf011c62	-0.50433934
34	0xbeffebc2	-0.49984556
35	0xbdd6d8d1	-0.10490573
36	0x3eaab7f3	0.33343467
37	0x3dd81ada	0.105519965
38	0xbd8f81f1	-0.07007206
39	0x3ee07e53	0.43846378
40	0xbeb98704	-0.3623582
41	0xbe445b27	-0.19175397
42	0x3d83fa47	0.06444221
43	0xbecfcb26	-0.40584677
44	0x3ea57108	0.32312799
45	0xbe938ac8	-0.2881682
46	0x3e0e78ff	0.13913344
47	0x3f03430b	0.51274174
48	0xbc01016c	-0.007873874
49	0xbec42a12	-0.38313347
50	0x3eb6e1ec	0.3571924
51	0xbebdf501	-0.37100986
52	0x3eef2efd	0.46715537
53	0x3e663e7a	0.2248477
54	0x3e6bda29	0.2303244
55	0xbe16c8c2	-0.1472502
56	0xbecd10c9	-0.4005187
57	0xbbe3c7d4	-0.0069513116
58	0xbe9a3157	-0.30115768
59	0xbf0fa048	-0.56103945
60	0xbd97d985	-0.074145354
61	0xbd1172ff	-0.03551006
62	0x3e01b238	0.12665641
63	0xbea5a096	-0.3234908

gcn_branch.gat_layers.0.bias f4 [64]
0	0xbb1876f8	-0.002326427
1	0xbb27f725	-0.0025629487
2	0xbc4c3875	-0.012464632
3	0x3c218958	0.009859405
4	0xbc133000	-0.008983612
5	0x3c58279e	0.013193039
6	0xbaefb4d3	-0.0018288143
7	0x3bfd2ad8	0.0077260546
8	0xbc1e667d	-0.00966799
9	0x3b464691	0.0030254463
10	0xbb9c6dc6	-0.004773828
11	0xbbaa4d9f	-0.0051972414
12	0x3b3abd6a	0.0028494247
13	0x39bbada8	0.00035796803
14	0x3b38d80a	0.0028204941
15	0xbc4c1315	-0.012455721
16	0x3a482960	0.000763556
17	0x3bfeebc1	0.007779569
18	0xbc119e63	-0.00888786
19	0xbbac7364	-0.005262779
20	0xbc60c13c	-0.013717946
21	0x3c8d934c	0.01728215
22	0xbc0fa81c	-0.008768108
23	0xbc3b8edc	-0.011447635
24	0xbc5da2ad	-0.013527554
25	0x3be44d5d	0.0069672302
26	0x3a772500	0.00094278157
27	0x3c3d8e6a	0.011569599
28	0xba89efb5	-0.0010523709
29	0xbc2e7265	-0.010647391
30	0xbb5b8fec	-0.0033502532
31	0xbb990cf7	-0.004670735
32	0xbbe0364a	-0.0068424093
33	0xbb920f4d	-0.0044573904
34	0x3be2bfd8	0.006919842
35	0xbbcdd1ce	-0.006281114
36	0xba61185e	-0.00085867
37	0x3ad6d969	0.0016391698
38	0x3af08503	0.0018350187
39	0x3ae9ac2d	0.0017827802
40	0x3c0fcde2	0.008777114
41	0x3a08cf8d	0.0005218916
42	0xbbe03498	-0.006842207
43	0x3b9dc3a0	0.00481458
44	0xbbee6318	-0.0072749965
45	0x3bca915e	0.00618188
46	0x3bfdb0a3	0.007742004
47	0xbc2314f4	-0.009953726
48	0xbadc58ae	-0.0016811097
49	0xba98ff2d	-0.0011672728
50	0xbb34c046	-0.0027580424
51	0xbc0d26b5	-0.0086151855
52	0xb7ee11ca	-2.8380095e-05
53	0xbc0708af	-0.008241816
54	0xbb0729a9	-0.0020624197
55	0xbbedd419	-0.00725795
56	0xbac10f3e	-0.0014729274
57	0x3c095f76	0.008384576
58	0xbae91356	-0.0017782252
59	0xbbbd7827	-0.0057821455
60	0xbc48556d	-0.012227398
61	0x3b9eec5d	0.004849954
62	0xbc37f44c	-0.0112276785
63	0xbb6a4da8	-0.0035751853

gcn_branch.gat_layers.0.lin.weight f4 [64, 64]
0	0xbe24dbd8	-0.16099489
1	0x3e2a22cb	0.16614835
2	0x3e2378bd	0.15964027
3	0x3df4906e	0.1194161
4	0xbcdca814	-0.026935615
5	0xbe135c2c	-0.1439063
6	0xbe35ce23	-0.17754416
7	0x3e3603f7	0.1777495
8	0x3d141b23	0.036158692
9	0xbdb8532a	-0.09000237
10	0x3e45419a	0.19263306
11	0xbd7dc648	-0.061956674
12	0xbd14019c	-0.036134347
13	0x3e432f2c	0.19060963
14	0x3cc845f0	0.024447411
15	0xbe04a668	-0.12954104
16	0x3d3afd0f	0.04565149
17	0xbe206ee2	-0.15667298
18	0x3de91886	0.113816306
19	0x3e13d2e1	0.14435913
20	0x3da8b6d6	0.08237998
21	0xbd5c47da	-0.05377946
22	0x3e461685	0.19344528
23	0x3d62ec46	0.05540111
24	0x3d09db12	0.033656187
25	0xbcb1582a	-0.021648485
26	0xbe0178e8	-0.12643778
27	0xbe0fb350	-0.14033246
28	0x3e62a3d0	0.22132802
29	0x3d9a8c5d	0.075463034
30	0xbe2b5352	-0.16731003
31	0x3e4572e2	0.19282106
32	0xbe38676a	-0.180082
33	0xbe4380bc	-0.19092077
34	0xbded8eee	-0.11599527
35	0xbdc8dccc	-0.09807739
36	0xbdce04d9	-0.10059518
37	0xbd8661fa	-0.06561656
38	0x3e28f86b	0.16501014
39	0x3e38d53d	0.18050094
40	0x3d966dca	0.07345159
41	0xbdfbf649	-0.123028345
42	0x3df50cae	0.11965309
43	0xbe47d764	-0.19515759
44	0xbdb3878d	-0.08766089
45	0x3de0cf4b	0.10977038
46	0x3d46ec3e	0.04856514
47	0xbd379749	-0.04482201
48	0x3e24fe95	0.1611274
49	0x3db6f52a	0.0893348
50	0xbd2edb93	-0.04268987
51	0xbe48b729	-0.1960112
52	0xbe288792	-0.16457966
53	0x3d548c16	0.05189141
54	0x3d8bf3bc	0.06833598
55	0xbe4c8c50	-0.199754
56	0x3e4dd7b1	0.20101811
57	0xbe1a12d7	-0.1504625
58	0xbe52930a	-0.20563903
59	0x3e34cdf1	0.17656685
60	0xbca4c5e1	-0.020113887
61	0xbd6804bc	-0.05664514
62	0x3e4ea366	0.20179519
63	0xbe4dd20e	-0.20099661
64	0x3e6173f1	0.22016884
65	0xbe6ce278	-0.23133266
66	0x3e204371	0.15650727
67	0x3db3f7b2	0.087874785
68	0xbd0085d3	-0.031377625
69	0xbdcf0af2	-0.101095095
70	0xbe679af2	-0.226177
71	0x3e228b79	0.15873517
72	0xbbb52dbf	-0.005529135
73	0x3dca71d5	0.09884993
74	0x3de9377e	0.113875374
75	0x3db980c2	0.09057762
76	0x3e0a12d3	0.13483743
77	0xbc81f118	-0.015862033
78	0x3d166cbc	0.03672479
79	0x3dfff24c	0.12497386
80	0xbe61a527	-0.22035657
81	0xbe28afc1	-0.16473295
82	0xbd72cb4d	-0.059275914
83	0x3e289a99	0.16465224
84	0x3cf226e2	0.029559556
85	0xbd0742c6	-0.033022664
86	0xbe22c55a	-0.15895596
87	0xbe4dec52	-0.2010968
88	0x3d40fa43	0.04711367
89	0x3d84128c	0.0644885
90	0xbe0e78f7	-0.13913332
91	0xbdc26c0c	-0.094932646
92	0x3db7c4ca	0.089730814
93	0x3dc55869	0.096360035
94	0x3d1da1ba	0.038484313
95	0xbe43d406	-0.1912385
96	0xbd9c93f8	-0.0764541
97	0x3d5f3b39	0.05449984
98	0xbdc83cd7	-0.09777229
99	0x3e47ffdf	0.19531201
100	0x3dd69dcc	0.10479316
101	0xbe4bc6e3	-0.19900088
102	0xbe43a905	-0.19107445
103	0xbe078902	-0.13235858
104	0xbe442e29	-0.19158234
105	0xbe5796df	-0.21053647
106	0x3e69d9a5	0.22836931
107	0x3dbee576	0.0932111
108	0xbd8d71fc	-0.069065064
109	0xbe133935	-0.14377292
110	0xbd885d25	-0.06658391
111	0x3dc8af8c	0.09799108
112	0xbd454f57	-0.048171367
113	0xbcdfb1b8	-0.027306423
114	0x3d2da6e9	0.042395506
115	0x3e2182be	0.1577253
116	0xbd1b48bc	-0.03791116
117	0xbe37f146	-0.17963132
118	0x3de1ade9	0.11019499
119	0x3e489625	0.19588526
120	0x3e5755f9	0.2102889
121	0x3d4f8a2c	0.05066888
122	0xbb57d488	-0.0032933075
123	0xbdab3837	-0.083603315
124	0xbd6d3b43	-0.057917845
125	0xbe058fb2	-0.13043097
126	0xbc69a677	-0.01426088
127	0x3db10392	0.08643259
128	0xbd89e6e7	-0.06733494
129	0x3c2e07fc	0.010622021
130	0x3dcd27fe	0.100173935
131	0x3d8c11fe	0.06839369
132	0x3d86a038	0.06573528
133	0xbc949790	-0.018138677
134	0xbd80b100	-0.0628376
135	0xbdfafec4	-0.12255624
136	0x3d6593aa	0.056049027
137	0xbdcace41	-0.09902621
138	0xbcce1285	-0.025155315
139	0xbd9da478	-0.076973855
140	0xbdcee234	-0.101017386
141	0xbdad1a1d	-0.08452246
142	0x3d5a2b0c	0.05326371
143	0x3d516973	0.051125955
144	0x3e3d26ee	0.18471882
145	0x3df9857e	0.12183665
146	0x3e4589fd	0.1929092
147	0x3e40148f	0.18757842
148	0x3d80ff98	0.06298751
149	0x3e09c995	0.13455804
150	0x3e00151a	0.1250805
151	0xbd614e2d	-0.055006195
152	0xbe5b999d	-0.21445318
153	0xbdeeaece	-0.11654435
154	0xbe215924	-0.1575666
155	0x3d6a482a	0.057197727
156	0x3ba145f4	0.004921669
157	0x3e39b0fd	0.18133922
158	0xbdcfe01f	-0.101501696
159	0x3dd84fcb	0.10562094
160	0xbd93153e	-0.07181786
161	0x3e447ba4	0.1918779
162	0x3cfdea09	0.030995386
163	0xbd9e8c7c	-0.07741639
164	0x3e15c50b	0.14625947
165	0xbc8b4d61	-0.01700467
166	0xbca331c8	-0.019921198
167	0xbe137b05	-0.14402397
168	0xbe2f8497	-0.17140423
169	0x3dd5ab20	0.1043303
170	0x3db5632c	0.08856806
171	0x3e426bca	0.18986431
172	0x3de3716e	0.11105619
173	0xbe0d6782	-0.13809016
174	0xbe0eaeb2	-0.13933828
175	0x3b8aa6de	0.004231318
176	0xbe1789cf	-0.14798664
177	0x3e0dcf1f	0.13848542
178	0x3e0d23d7	0.13783203
179	0x3d0b885e	0.034065597
180	0x3c2eebb0	0.0106763095
181	0x3df9d074	0.121979624
182	0xbe2b2f3c	-0.16717237
183	0xbcbfd348	-0.023416176
184	0xbdc90faf	-0.098174445
185	0xbc547353	-0.012966949
186	0x3e2ab353	0.1666997
187	0xbe2d3024	-0.16912895
188	0x3e133bcc	0.1437828
189	0xbd3b3110	-0.045701087
190	0xbdd8f425	-0.10593442
191	0x3e34c363	0.17652659
192	0x3de610f3	0.112337016
193	0x3c46ba29	0.012129345
194	0xbdb51984	-0.08842757
195	0x3e526efb	0.20550148
196	0x3bff3ba3	0.0077890917
197	0xbe1e6bfc	-0.1547088
198	0x3e28902b	0.16461246
199	0x3e4cd52f	0.20003198
200	0xbe20aa73	-0.15690021
201	0xbdbaac47	-0.091148905
202	0x3cfa9a8a	0.030591268
203	0x3e225f9f	0.15856789
204	0xbe4b742b	-0.19868533
205	0xbd38d1e3	-0.04512204
206	0x3da523ba	0.08063455
207	0xbe252817	-0.16128574
208	0x3b630ca9	0.0034644997
209	0xbe3dde21	-0.18541767
210	0xbd37b30a	-0.04484848
211	0x3e409afb	0.1880912
212	0xbe07dbe8	-0.13267481
213	0x3d8bfc9b	0.0683529
214	0x3d71ebfe	0.05906295
215	0xbdc82112	-0.09771933
216	0xbe11f5bc	-0.14253896
217	0x3c07bd73	0.008284914
218	0xbd62d229	-0.055376206
219	0x3d3da702	0.04630185
220	0xbd8df9ca	-0.06932409
221	0xbd6fdec9	-0.058562074
222	0x3b3b2e55	0.0028561552
223	0xbe0927e7	-0.13394128
224	0xb972c800	-0.00023153424
225	0x3dfb0b36	0.12257998
226	0x3c5284ae	0.012849016
227	0x3e4138a3	0.18869261
228	0x3cd49ced	0.025953734
229	0x3e357a28	0.1772238
230	0xbe00c5de	-0.1257548
231	0x3e1a292b	0.15054767
232	0xbd318988	-0.04334405
233	0xbcbfa925	-0.023396084
234	0x3dddf18a	0.108370855
235	0xbe155359	-0.14582576
236	0xbd994878	-0.074845254
237	0x3e2e86ef	0.1704366
238	0xbc860578	-0.01636003
239	0x3df0fac7	0.11766582
240	0xbdf94cbd	-0.1217284
241	0x3ce4d038	0.027931318
242	0xbe0b64b4	-0.13612634
243	0x3da7fb20	0.08202195
244	0xbe3779b6	-0.17917523
245	0xbe49d53b	-0.19710247
246	0x3c5b10e7	0.013370729
247	0x3e356a7b	0.177164
248	0x3a9f4750	0.001215199
249	0xbe3b959b	-0.18318789
250	0x3e4cff66	0.20019302
251	0xbd9df889	-0.0771342
252	0xbd0e60d3	-0.034760308
253	0xbe53fb96	-0.20701441
254	0x3d5be11b	0.053681474
255	0x3e0fc619	0.14040412

gcn_branch.gat_layers.1.att_src f4 [1, 4, 32]
0	0x3e50418e	0.20337507
1	0xbebba2f3	-0.36647758
2	0xbd2a50dd	-0.041581023
3	0x3e95d580	0.2926445
4	0xbe3d7596	-0.18501887
5	0x3e0a5385	0.13508423
6	0x3e003d72	0.1252344
7	0x3e0718c9	0.13193049
8	0x3ea48966	0.32136077
9	0xbeb3552f	-0.35025927
10	0x3dc5e22a	0.09662278
11	0xbe0c3219	-0.13690986
12	0x3c043b6c	0.008070808
13	0x3ed5d9ae	0.4176764
14	0xbeb96963	-0.36213216
15	0xbd923887	-0.07139688
16	0x3d989274	0.07449809
17	0xbcfa567d	-0.030558819
18	0x3dabc683	0.083874725
19	0x3c96afee	0.018394437
20	0xbd6407ea	-0.05567161
21	0xbd12a1be	-0.03579878
22	0xbd9f7573	-0.077860735
23	0xbeaa3eef	-0.3325114
24	0x3e5f9793	0.21835165
25	0xbeb5947f	-0.35464856
26	0xbe901e22	-0.2814799
27	0xbe8d4ee4	-0.2759925
28	0x3eb86e3a	0.36021596
29	0xbe1e53df	-0.15461682
30	0x3df7bbe0	0.12096381
31	0x3ea68512	0.325234
32	0x3e95e5e2	0.2927695
33	0xbca98162	-0.020691577
34	0xbeb8b570	-0.36075926
35	0xbe98e7c2	-0.29864317
36	0x3e3e4529	0.1858107
37	0x3ec6b75a	0.3881176
38	0xbdfa6d91	-0.122279294
39	0xbea3605c	-0.31909454
40	0x3e6f26f0	0.23354697
41	0x3e7b21db	0.24524634
42	0xbd7ff891	-0.06249291
43	0x3e5a04c8	0.21290886
44	0xbeb08963	-0.34479818
45	0xbe8770ad	-0.26453152
46	0xbe6c5114	-0.23077804
47	0x3da67549	0.08127839
48	0x3c774371	0.015091763
49	0x3e7e60de	0.2484164
50	0x3e44fbbe	0.19236657
51	0xbd6f30fd	-0.05839633
52	0x3dacbf66	0.08434944
53	0xbe058a7d	-0.1304111
54	0xbe356fca	-0.17718425
55	0x3e063f80	0.13110161
56	0x3d4109ad	0.04712837
57	0x3dd45132	0.10367049
58	0x3e6fc715	0.23415788
59	0xbe81999a	-0.253125
60	0xbdacbe45	-0.084347285
61	0x3e106bd5	0.14103635
62	0xbe2eb97b	-0.17062943
63	0x3d171f22	0.036894925
64	0xbde4b956	-0.111681625
65	0xbd49fab7	-0.049311366
66	0x3e09d5d1	0.1346047
67	0x3e8153e4	0.25259316
68	0xbe416002	-0.1888428
69	0xbe8382c9	-0.2568572
70	0x3e247cdb	0.16063254
71	0x3eabaf6b	0.3353227
72	0x3e933ea5	0.2875873
73	0x3d99f865	0.075180806
74	0xbe9fd9a8	-0.31220746
75	0xbe6a7d27	-0.22899304
76	0x3dc46597	0.09589689
77	0xbcd8f445	-0.026483664
78	0xbc530d4b	-0.012881587
79	0x3de54cea	0.11196311
80	0xbe11b3fd	-0.14228816
81	0x3ea9d445	0.3316976
82	0xbdfbc537	-0.12293475
83	0x3e92e2ab	0.2868856
84	0x3e979819	0.2960823
85	0xbd77ba9a	-0.06048069
86	0xbe679331	-0.22614743
87	0xbe1da436	-0.15394673
88	0xbe588a84	-0.2114659
89	0xbec79a76	-0.38985032
90	0xbe404dcb	-0.18779676
91	0xbdaf4829	-0.08558685
92	0x3ea48713	0.32134303
93	0x3e923771	0.28557923
94	0xbead061a	-0.33793718
95	0x3d23e698	0.040014833
96	0x3e401d3b	0.1876115
97	0x3ecbf3d9	0.39834478
98	0x3eb2c3de	0.3491506
99	0x3e836d62	0.2566939
100	0xbede1c7d	-0.4338111
101	0xbdb01535	-0.08597795
102	0x3dfffec1	0.12499762
103	0x3e5b6d2e	0.21428367
104	0xbe712ad1	-0.2355149
105	0xbe8168b1	-0.25275186
106	0xbea70c6b	-0.32626662
107	0xbd04c028	-0.032409817
108	0xbdab2562	-0.083567396
109	0x3e9a40e5	0.30127636
110	0x3e8e6315	0.2780997
111	0x3e84f693	0.2596937
112	0x3e0c459f	0.13698433
113	0xbe3d7a4e	-0.18503687
114	0x3ebc34ea	0.3675912
115	0xbdb60759	-0.0888812
116	0x3e9e7870	0.30951262
117	0xbea7d3f8	-0.32778907
118	0x3d300f51	0.042983357
119	0x3e49b5be	0.19698235
120	0xbe4cdb90	-0.20005631
121	0x3d80776c	0.06272778
122	0xbdb6d7b8	-0.08927864
123	0xbe415c31	-0.18882824
124	0xbe8d1145	-0.27552238
125	0x3ba03b8a	0.00488991
126	0xbdad292c	-0.084551185
127	0x3e87d90e	0.26532787

gcn_branch.gat_layers.1.att_dst f4 [1, 4, 32]
0	0x3e8d0a35	0.2754685
1	0xbeb66663	-0.3562499
2	0xbe20af9f	-0.15691994
3	0x3ecbe8da	0.3982609
4	0xbe6a088d	-0.22854824
5	0xbdbb48bc	-0.09144732
6	0x3e147986	0.14499483
7	0xbe961f59	-0.2932079
8	0x3e67b735	0.22628482
9	0x3e9c3c45	0.30514732
10	0xbdf27709	-0.118391104
11	0x3ebb197a	0.36542875
12	0x3cdd39f9	0.027005183
13	0x3e5c4f17	0.21514545
14	0xbe5276c2	-0.20553115
15	0xbec79c32	-0.38986355
16	0x3e9f2685	0.31084076
17	0xbe36c2f2	-0.17847803
18	0x3ea9ef43	0.33190355
19	0xbaa485eb	-0.0012552118
20	0x3eb6668d	0.35625115
21	0x3eb8f862	0.36127
22	0x3e958b1f	0.29207703
23	0x3b3b2a9e	0.0028559337
24	0xbe390e5f	-0.18071888
25	0xbe3d215b	-0.18469755
26	0xbde45fbd	-0.11151073
27	0x3e3313af	0.17487977
28	0xbe462eff	-0.19353865
29	0x3db0e01f	0.08636498
30	0x3d80e907	0.062944464
31	0x3e138799	0.14407195
32	0xbe08845f	-0.13331746
33	0x3e3e0756	0.18557486
34	0x3e8d7d6b	0.2763475
35	0x3cc6faea	0.024289567
36	0xbe4ddfe4	-0.20104939
37	0xbe4420db	-0.19153158
38	0x3e198d63	0.14995341
39	0xbeb76e8c	-0.35826528
40	0xbe629dc8	-0.22130501
41	0x3e5988d6	0.21243605
42	0xbd073e2e	-0.033018284
43	0x3e8b3517	0.27188942
44	0xbec10e18	-0.37706065
45	0xbcc651f7	-0.024209006
46	0x3e7597af	0.23983644
47	0xbe65514c	-0.22394294
48	0xbd92ec62	-0.07173993
49	0x3e5fb693	0.2184699
50	0xbe00164a	-0.12508503
51	0x3d390469	0.04517022
52	0x3e9b4d5d	0.3033246
53	0xbd8596be	-0.065228924
54	0x3cc52d2e	0.024069395
55	0xbd53358c	-0.05156474
56	0x3ecd5638	0.40104842
57	0x3e1c00a7	0.15234624
58	0xbd6ec556	-0.058293663
59	0x3df2e738	0.11860508
60	0x3eba854e	0.36429828
61	0xbe818404	-0.25296032
62	0x3ec242f8	0.37941718
63	0x3e9b2a58	0.30305743
64	0xbe6d0f1c	-0.23150295
65	0x3ec62f57	0.38707992
66	0xbd6fc5e4	-0.058538333
67	0x3e82164c	0.25407636
68	0xbbdebe4f	-0.006797589
69	0xbea5419f	-0.32276627
70	0xbe99cf85	-0.30041137
71	0x3da8a072	0.082337275
72	0xbebbf302	-0.36708838
73	0x3ddc7422	0.10764338
74	0xbe230b25	-0.1592222
75	0x3e640c4f	0.2227032
76	0x3eb68c18	0.35653758
77	0x3e529c64	0.20567471
78	0x3dbc4f05	0.09194759
79	0xbcb3b268	-0.021935657
80	0xbe8c9601	-0.27458194
81	0x3e23d71b	0.16000025
82	0xbec77d4f	-0.3896279
83	0x3ea46eaa	0.3211568
84	0x3e7d7439	0.24751367
85	0xbe580b5f	-0.21098088
86	0x3d5187b2	0.0511548
87	0xbe930986	-0.28718203
88	0x3e444547	0.19167052
89	0xbc43c9ac	-0.011949938
90	0x3dd17783	0.10227873
91	0x3c8e703d	0.017387504
92	0x3cc7a5ad	0.024370993
93	0x3ead4d05	0.33847824
94	0xbc2561cd	-0.010094118
95	0xbe21147e	-0.15730473
96	0x3e9cfec1	0.30663112
97	0xbe8a63ea	-0.27029353
98	0xbeb73c18	-0.35788035
99	0x3b6490e8	0.003487641
100	0x3e79fac2	0.24412063
101	0xbe14b4f2	-0.1452215
102	0x3d1fe689	0.039038215
103	0x3ca9028d	0.0206311
104	0x3dcdd499	0.100503154
105	0x3e9511eb	0.29115233
106	0xbec60d03	-0.38681802
107	0xbecac437	-0.39602825
108	0xbec61827	-0.38690302
109	0x3dea3802	0.11436464
110	0xbd275a06	-0.040857337
111	0x3d0989aa	0.033578552
112	0x3eb3d798	0.35125422
113	0xbed21cfe	-0.41037744
114	0xbea84615	-0.32865968
115	0xbcdd7c6a	-0.027036864
116	0xbe2a5d8b	-0.16637246
117	0xbea95b23	-0.33077344
118	0xbd72f05f	-0.059311267
119	0x3ea1aa10	0.3157506
120	0xbe9fdd7a	-0.3122366
121	0xbcbb3211	-0.022851022
122	0x3decef1a	0.115690425
123	0x3e8b7feb	0.2724603
124	0x3e151311	0.14558055
125	0x3c1105d1	0.008851484
126	0x3ea04aee	0.31307167
127	0x3eb307b4	0.34966815

gcn_branch.gat_layers.1.bias f4 [128]
0	0x3a8ac74d	0.0010587961
1	0x3c193b51	0.009352521
2	0xbbc2a413	-0.0059399693
3	0xbc0ffb72	-0.008787977
4	0x3c256f67	0.010097361
5	0xbbbe2432	-0.0058026547
6	0xbb099adb	-0.0020996842
7	0x3b9e7a1b	0.0048363334
8	0xba47b10f	-0.00076176313
9	0xbc35eaac	-0.011103313
10	0xbc36fbe5	-0.011168455
11	0x3ba26289	0.004955594
12	0x3b2a35db	0.0025972042
13	0x3baea766	0.005330014
14	0xb9ffa554	-0.0004876057
15	0x3b224e39	0.0024765863
16	0xb6b90000	-5.5134296e-06
17	0xbbe6aa2e	-0.00703933
18	0xbbdda746	-0.0067643253
19	0x3bf9ce77	0.0076234895
20	0x3bd6d605	0.006556275
21	0xbb287a13	-0.0025707528
22	0xbad114c0	-0.0015951619
23	0xbbb4e318	-0.0055202357
24	0x3bb78f86	0.005601826
25	0xbc006c9d	-0.007838395
26	0x3c60a945	0.013712232
27	0x3baf3107	0.0053464207
28	0x3c31a268	0.010841943
29	0xbc00ae31	-0.0078540305
30	0xbbadb6f0	-0.005301349
31	0xbaca902f	-0.0015454347
32	0x3c2748eb	0.010210256
33	0x3b83efd4	0.0040263925
34	0x3c6b3893	0.01435675
35	0xbba3eda2	-0.0050026933
36	0x3bc200c3	0.005920501
37	0x3bd3a03c	0.0064583104
38	0xbbd59be8	-0.0065188296
39	0x3bc965b2	0.006146156
40	0xbb12b544	-0.0022385875
41	0xbba21e40	-0.0049474537
42	0x3b420365	0.0029604074
43	0xbb13a903	-0.0022531159
44	0xbb77fe5b	-0.0037840817
45	0x3ac3831c	0.0014916393
46	0x3a25db98	0.00063269725
47	0x399a8e1b	0.00029479046
48	0x3af21194	0.0018468373
49	0x3bb32efb	0.005468247
50	0xbc2d0aee	-0.010561688
51	0xbb88916e	-0.004167727
52	0x3b22e998	0.002485847
53	0xbb84179c	-0.004031135
54	0x3a6a5597	0.00089391455
55	0x3a96be04	0.0011500721
56	0x3c1cac3a	0.009562546
57	0xbc0cf552	-0.008603411
58	0x3a179cac	0.0005783539
59	0x3be5c97a	0.0070125433
60	0x3b5643ae	0.0032694149
61	0x3ac9fb57	0.0015409988
62	0x3beb6328	0.007183451
63	0xbb930905	-0.004487159
64	0xbc5ae1e1	-0.013359518
65	0x3beb1847	0.007174525
66	0xbbc7e951	-0.0061008115
67	0xbb3a5f3e	-0.0028438116
68	0xbb41b239	-0.0029555692
69	0x3ba7da11	0.005122431
70	0x3c10033f	0.008789836
71	0x3baaf0f0	0.0052167103
72	0x3b7bae2a	0.003840337
73	0x3b91292d	0.0044299574
74	0xbb84e079	-0.0040550795
75	0x3bb1fc33	0.005431676
76	0xbb9737be	-0.0046147993
77	0xbbb4601f	-0.0055046226
78	0x3ba069f7	0.0048954445
79	0xbbe8282e	-0.007084868
80	0xbb989cc3	-0.0046573593
81	0x3b19d078	0.0023470204
82	0x3bc5739f	0.006025746
83	0x3b829652	0.0039852047
84	0xbb3e2a40	-0.0029016882
85	0xb8a32bb3	-7.780585e-05
86	0xbb9f209b	-0.004856182
87	0x3c3ed151	0.011646585
88	0xb9dd888c	-0.0004225414
89	0x3aaac970	0.0013030004
90	0xbad7fda8	-0.0016478794
91	0x3bf7a1c5	0.007557126
92	0xbaa5e54d	-0.0012656838
93	0x3b842e1a	0.004033816
94	0x3b853ca3	0.0040660664
95	0xbc241c90	-0.010016575
96	0x39fe771c	0.000485354
97	0x3c80424f	0.015656618
98	0xbb31d792	-0.0027136547
99	0x3c4840ea	0.012222508
100	0x3b49cab0	0.0030790977
101	0xbc4eb69f	-0.012616782
102	0xbb7f53c6	-0.0038959845
103	0x3bf3ae80	0.0074365735
104	0x3bdfe81c	0.0068330895
105	0xbb774da9	-0.0037735498
106	0x3bda043a	0.006653336
107	0xbbed0d01	-0.007234216
108	0xbbf2b221	-0.0074064885
109	0xb9976a10	-0.00028879987
110	0x3c69079a	0.014223004
111	0xbb768734	-0.0037617208
112	0x39c648ed	0.00037819837
113	0x3ace7cc1	0.0015753732
114	0x3b045032	0.0020189402
115	0x3bf2e310	0.007412322
116	0xbc2ca0d4	-0.010536391
117	0x39b62984	0.00034744677
118	0x3b9a5f85	0.004711094
119	0x3b8783e6	0.0041355966
120	0x3bf2145d	0.0073876814
121	0x3a943d5e	0.0011309793
122	0x3bfdf0e8	0.0077496655
123	0x3a93911e	0.0011258458
124	0xba0b1575	-0.00053056265
125	0x3b7de8c1	0.0038743468
126	0xbb542e58	-0.0032376256
127	0xbbae98aa	-0.0053282576

gcn_branch.gat_layers.1.lin.weight f4 [128, 128]
0	0x3d39ad33	0.04533119
1	0x3ded1bfc	0.11577603
2	0xbdf84041	-0.121216305
3	0xbdcdb317	-0.10043924
4	0xbe1d7936	-0.1537827
5	0xbe1b7b91	-0.15183856
6	0x3d325132	0.043534465
7	0x3ccd6d98	0.025076672
8	0xbdc752f1	-0.09732617
9	0x3e017687	0.12642871
10	0x3c97d854	0.01853577
11	0x3dd018fc	0.101610154
12	0x3d61615b	0.055024486
13	0xbe1c420f	-0.15259574
14	0xbd0c3994	-0.0342346
15	0x3d7ad783	0.061240684
16	0xbd35fa51	-0.044428173
17	0x3d61c692	0.055121012
18	0xbdcc083a	-0.099625066
19	0xbc9b8e05	-0.018988619
20	0xbe076c7d	-0.13224979
21	0x3de06d51	0.109583504
22	0xbdeb9265	-0.11502532
23	0xbd8a9736	-0.067671224
24	0x3d8f0130	0.069826484
25	0x3d7d2a90	0.06180817
26	0x3dcf95e9	0.10136015
27	0xbdaa85e0	-0.08326316
28	0x3b4af1f2	0.0030966965
29	0xbde5b47d	-0.11216066
30	0xbde292d2	-0.1106316
31	0x3d58e47a	0.052952267
32	0x3d3c0dd7	0.045911636
33	0x3de1a204	0.1101723
34	0xbd69830e	-0.05700975
35	0x3daa773d	0.08323524
36	0x3d4984e0	0.049198985
37	0xbd268333	-0.040652465
38	0xbdaffffb	-0.08593746
39	0x3db35d02	0.08757974
40	0x3dc70b4a	0.0971895
41	0xbd0fce67	-0.03510895
42	0xbdf40f1c	-0.119169444
43	0xbdc32c52	-0.09529938
44	0x3d07f13f	0.033189055
45	0xbe25a1c0	-0.16174984
46	0xbddec720	-0.10877824
47	0xbb805be0	-0.0039172024
48	0x3de280d5	0.11059729
49	0x3d43ed38	0.04783365
50	0x3e1a7f3e	0.15087602
51	0x3db23c5a	0.087029174
52	0x3df63664	0.12022093
53	0xbdddc184	-0.10827926
54	0x3dcd060b	0.10010918
55	0x3de9d469	0.11417467
56	0x3df47035	0.11935464
57	0x3df442c9	0.11926801
58	0xbd23c7e0	-0.039985538
59	0x3ccc2213	0.024918592
60	0x3d773f66	0.060363196
61	0x3c17483a	0.009233529
62	0xbbc5a754	-0.00603191
63	0x3d804273	0.06262674
64	0x3d3d0a03	0.046152126
65	0x3dd754bb	0.10514208
66	0x3c434a36	0.011919549
67	0x3d0aeb5e	0.03391587
68	0xbd42ac4c	-0.047527596
69	0xbdb4a252	-0.08820023
70	0xbe0d421c	-0.1379475
71	0x3e013f1d	0.12621732
72	0xbe0a179e	-0.13485572
73	0xbba9e6e0	-0.005184993
74	0x3de277c1	0.110579975
75	0xbde4a57d	-0.11164377
76	0xbd29d01c	-0.041458234
77	0x3debe9d1	0.11519206
78	0xbd9c8bd6	-0.07643859
79	0x3d32b891	0.043633047
80	0xbdf5c576	-0.12000553
81	0x3df23f2d	0.11828456
82	0x3dabe5c4	0.08393434
83	0x3d0e7795	0.03478201
84	0x3d8f7e32	0.07006492
85	0xbe143d94	-0.14476615
86	0xbdbf349e	-0.09336208
87	0x3d356132	0.044282146
88	0xbe0f8f98	-0.1401962
89	0x3c996ebe	0.018729564
90	0x3cf058a4	0.029339142
91	0x3dc70711	0.09718145
92	0x3d4c4853	0.04987366
93	0xbdfdfbd0	-0.12401545
94	0x3d9954ac	0.07486853
95	0x3da7d18a	0.08194263
96	0xbc1a3d78	-0.009414069
97	0xbd9f19d0	-0.07768595
98	0x3dc6b512	0.09702505
99	0x3d13be49	0.036070142
100	0x3de2a55c	0.11066696
101	0xbdde511c	-0.10855314
102	0xbdfb0bed	-0.12258134
103	0x3e2c9b09	0.16856016
104	0xbbee571d	-0.0072735683
105	0x3da6b497	0.081399135
106	0xbe0fb469	-0.14033665
107	0xbd81ce94	-0.0633823
108	0x3e0c0b48	0.13676178
109	0x3d426edf	0.047469016
110	0xbafbb9ea	-0.0019205187
111	0x3d84801f	0.0646975
112	0x3de42620	0.11140084
113	0xbd27e0e1	-0.040985946
114	0x3cdc3086	0.026878607
115	0xbe027113	-0.12738447
116	0xbe041fb2	-0.12902716
117	0xbd9abfea	-0.07556136
118	0xbd1c8ff7	-0.038223233
119	0xbcac4fdc	-0.021034174
120	0x3d4c11f9	0.049821828
121	0x3e0c81fe	0.13721463
122	0xbd904327	-0.07044058
123	0xbe073c47	-0.13206588
124	0x3d3dd3ae	0.04634445
125	0xbdb2752c	-0.08713755
126	0xbe001335	-0.12507327
127	0x3dda0ea7	0.10647326
128	0xbc5cf1cc	-0.013485383
129	0x3d0718a7	0.032982495
130	0xbd460706	-0.04834654
131	0x3e151bdf	0.14561413
132	0xbdd2a9cc	-0.102862924
133	0xbd92c457	-0.07166355
134	0xbe2ed8af	-0.17074846
135	0x3dd68e39	0.104763456
136	0xbe000482	-0.1250172
137	0x3dbd5240	0.092442036
138	0xbd2de180	-0.04245138
139	0x3ddeb7a9	0.10874874
140	0x3e0ebdfc	0.13939661
141	0xbe0eb5ea	-0.13936582
142	0x3d17b666	0.037039183
143	0x3e2db0af	0.1696193
144	0xbd1101eb	-0.03540222
145	0xbe188d65	-0.14897688
146	0xbdca8e30	-0.09890401
147	0xbe085595	-0.13313897
148	0x3d8a23bb	0.06745096
149	0xbb220eca	-0.0024728053
150	0x3aa604d8	0.0012666238
151	0xbd042c15	-0.032268602
152	0xbc206baf	-0.009791299
153	0xbd17d4d6	-0.03706821
154	0xbddb9abe	-0.10722874
155	0x3e0955fb	0.13411705
156	0x3e07e7cd	0.13272019
157	0xbdc94f07	-0.098295264
158	0xbdc009c4	-0.09376863
159	0xbd360f9e	-0.044448487
160	0x3cdedfee	0.027206387
161	0xbd050405	-0.032474536
162	0xbe1055d5	-0.14095242
163	0x3d33ebb4	0.043925956
164	0x3dd500f2	0.10400571
165	0xbd601b87	-0.054713752
166	0x3dd42169	0.10357935
167	0xbc5f105b	-0.013614739
168	0xbe213128	-0.15741408
169	0xbdf30c9a	-0.11867638
170	0x3da2601a	0.07928486
171	0x3da9e25d	0.082951285
172	0xbd8be7e4	-0.06831339
173	0x3d351231	0.0442068
174	0x3a76f9b1	0.0009421362
175	0x3cdad3ab	0.02671226
176	0x3e080990	0.13284898
177	0x3d38c3d6	0.04510864
178	0x3d1477d9	0.036247108
179	0x3db61d47	0.08892303
180	0x3d79d857	0.060997333
181	0x3d4fb87d	0.05071305
182	0x3d0f677e	0.035010807
183	0x3e0853f3	0.13313274
184	0x3e17d411	0.1482699
185	0xbda3a158	-0.07989758
186	0x3e0596f5	0.13045867
187	0x3df060e3	0.1173723
188	0xbdecd1e3	-0.1156347
189	0x3e25f719	0.16207542
190	0x3e14fa20	0.1454854
191	0x3e0097c5	0.12557895
192	0xbdcf52c6	-0.1012321
193	0xbd524b7c	-0.05134152
194	0x3da54dd0	0.08071482
195	0xbdb28288	-0.08716303
196	0x3d5419fe	0.0517826
197	0xbda768eb	-0.081743084
198	0xbd4a09c1	-0.04932571
199	0xbd14366d	-0.036184717
200	0x3de07339	0.10959477
201	0xbbc6abe7	-0.006062973
202	0xbb8f12c1	-0.0043662493
203	0xbd985496	-0.074380085
204	0xbd062bc5	-0.032756586
205	0xbe121f97	-0.14269863
206	0x3dcaa766	0.0989521
207	0xbd165341	-0.03670049
208	0x3cefa345	0.029252658
209	0xbddf0d1d	-0.10891173
210	0x3d6ac572	0.057317205
211	0x3d805731	0.062666304
212	0x3dca9e54	0.0989348
213	0xbe017b36	-0.12644657
214	0x3bf91d97	0.0076024043
215	0xbdbf6aac	-0.09346518
216	0x3dc9f58b	0.09861287
217	0xbd0279f1	-0.031854574
218	0x3de0dcba	0.109796
219	0xbbecf774	-0.007231647
220	0x3d59dcbc	0.053189024
221	0x3d2af342	0.041735895
222	0x3d0fc617	0.035101023
223	0x3db057a7	0.08610468
224	0xbd9d8f2a	-0.07693322
225	0x3d2c4f44	0.04206778
226	0x3d354c8d	0.044262458
227	0x3ddcf6ec	0.10789284
228	0xbc87d41a	-0.01658063
229	0xbdb1c25c	-0.08679649
230	0xbbc82428	-0.006107826
231	0x3df934be	0.12168263
232	0x3da7cfed	0.081939556
233	0xbda1721d	-0.078830935
234	0xbdae20dc	-0.08502361
235	0xbddd9bc3	-0.10820725
236	0x3de16594	0.110057026
237	0x3d336bab	0.043803852
238	0x3d431935	0.04763146
239	0x3d8170af	0.06320321
240	0x3da4fda7	0.08056193
241	0x3cd05515	0.025431195
242	0x3e149889	0.14511313
243	0xbca7c719	-0.02048068
244	0x3da90bc0	0.08254194
245	0xbe15be6b	-0.1462342
246	0x3d5964c3	0.05307461
247	0x3ab2a07a	0.0013628148
248	0xbd64b896	-0.055840097
249	0xbd827c6f	-0.0637139
250	0xbc8591de	-0.016304906
251	0xbd3edd91	-0.04659802
252	0x3df4dc7d	0.11956117
253	0x3db96baa	0.090537384
254	0xbdf6db5f	-0.120535605
255	0xbdf5170e	-0.11967288
