finalhybrid/experiments/experiment_20251104_082715/final_hybrid_model.pth (torch, 828338 bytes, 21 tensors)

gcn_branch.gcn_layers.0.bias f4 [64]
000000 1b 5b 94 bc 48 c4 ae bc 52 36 ab bc 00 00 00 00
       -0.018109849 -0.021333829 -0.020899925 0.0
000010 b5 d2 ea ba 6b 09 0f bc 00 00 00 00 ec 15 9c 3b
       -0.0017915579 -0.008730273 0.0 0.0047633555
000020 00 ac ee bc 3c 47 3b ba b7 81 19 bc 00 00 00 00
       -0.02913475 -0.00071440986 -0.009369305 0.0
000030 ca 4a c7 bb f1 be 0b bd 16 5d 3f bc 5b 99 b8 bb
       -0.0060819136 -0.034117643 -0.011679908 -0.005633516
000040 c8 bc 39 bc ee 70 d2 3b b7 83 8d 3b 89 52 b5 3a
       -0.011336513 0.0064221537 0.00431868 0.0013833801
000050 4b 43 1c bb e6 a0 03 bd d6 e8 1c bc ac bc a0 bc
       -0.002384382 -0.032135867 -0.009576997 -0.019621216
000060 15 9d 88 bc 5f b3 db 3b f2 b7 5b bb d3 41 a5 3c
       -0.016676465 0.0067047323 -0.0033526388 0.020172989
000070 00 00 00 00 00 00 00 00 55 0a a9 bb 20 4d 15 bd
       0.0 0.0 -0.0051587024 -0.036450505
000080 61 74 ac bb 9f 9d 83 bc 15 48 78 bc 00 00 00 00
       -0.005262897 -0.01606637 -0.015153904 0.0
000090 50 a4 fa 3a 5e 5c 55 3b ee d6 b9 bc e1 9b 0d bc
       0.0019122455 0.0032556276 -0.022685494 -0.008643121
0000a0 9b 84 a6 bc 00 00 00 00 24 06 9c bc 5d 4f e2 bc
       -0.020326903 0.0 -0.019045897 -0.027625734
0000b0 7d 6a 16 3c d1 19 ba bc 00 00 00 00 9b a9 0b 38
       0.009180662 -0.022717388 0.0 3.329814e-05
0000c0 52 ca 8b bc 54 a2 9a bb 44 bb f5 bb 00 00 00 00
       -0.017064247 -0.004719058 -0.0074991304 0.0
0000d0 a7 a9 bc bc 34 ae 5e bc 55 ca 0b bc 00 00 00 00
       -0.023030115 -0.013591338 -0.008532126 0.0
0000e0 00 00 00 00 a3 6a 13 bb 00 00 00 00 a6 0c 7f 3b
       0.0 -0.002249398 0.0 0.0038917451
0000f0 00 00 00 00 00 00 00 00 e5 7a d2 bb 6c dc 65 bc
       0.0 0.0 -0.0064233416 -0.014029603

gcn_branch.gcn_layers.0.lin.weight f4 [64, 36]
000000 92 4b 58 be 5d a6 5a be 9b 13 90 be 0b 31 3c bd
       -0.21122578 -0.21352525 -0.28139958 -0.04594521
000010 86 98 ec 3d 99 a5 dc 3d cb df 73 bd d7 66 2f 3e
       0.11552529 0.10773773 -0.059539597 0.17129074
000020 c5 2c 4e be 41 af 4f be 40 56 a5 bb cd b6 74 3e
       -0.20134266 -0.20281698 -0.005045682 0.23897858
000030 4f ad 46 3e 42 0b 8f bd b3 1f 35 3e bd 10 77 be
       0.1940205 -0.06984569 0.17687874 -0.24127479
000040 d3 2c 63 be 8c c4 d2 bd 34 5c 40 3d 0e c8 ba 3d
       -0.22185068 -0.102913946 0.04696293 0.09120189
000050 c6 91 af 3d e6 9e b6 3d 87 59 35 3e 90 91 25 3d
       0.08572726 0.08917026 0.17709933 0.040422022
000060 df 6a 19 bc 05 aa 27 3e b6 20 32 3e 05 e7 7a 3d
       -0.009363859 0.16373451 0.1739529 0.061255474
000070 87 f3 8b 3d b9 0d 05 3e 6e 68 36 be c8 b4 ee bc
       0.068335585 0.12993516 -0.17813274 -0.029138938
000080 d5 ad 6d 3e 7e 04 e7 bd 20 e7 57 bc db 58 b6 3c
       0.23210843 -0.11280154 -0.013177663 0.022259166
000090 27 98 50 be fe f1 84 bd 66 24 11 3d 98 21 4f 3d
       -0.20370542 -0.06491469 0.035435103 0.050569147
0000a0 15 ad 57 bd d3 0d 00 3e e5 bd 82 be 60 43 05 be
       -0.0526553 0.12505274 -0.25535503 -0.13013983
0000b0 af fd ea bd 20 cd c0 bd 8e f6 cd bd bd 1a 4e 3e
       -0.114741676 -0.094141245 -0.10056792 0.20127387
0000c0 8e 14 a3 3d c0 c8 75 bc 08 25 c2 3c 08 c9 ff bc
       0.07962905 -0.015001476 0.023699299 -0.031223789
0000d0 f0 71 89 bd f8 ed 9e bc 7a 4e c3 bd 34 e4 45 3d
       -0.06711185 -0.019400582 -0.095364526 0.048313335
0000e0 1a 48 1d be e2 d1 00 3e 30 0a 8f bd 85 1e 88 3b
       -0.15359536 0.12580064 -0.06984365 0.004154029
0000f0 ce 31 1a 3e 00 4a 93 3b 4d 69 79 bb 83 eb 2c be
       0.15058061 0.0044949055 -0.003805715 -0.16886716
000100 7a 30 ce 3c 02 58 8c 3d 38 7f d9 3d af 2e 12 be
       0.0251696 0.06852724 0.10619968 -0.14275621
000110 84 b5 17 3d 16 eb 03 3e 86 cc 12 3d 93 77 83 be
       0.03703834 0.12882647 0.03583958 -0.25677165
000120 44 0b 80 be 7d c7 d4 3d 16 fc 86 bd f6 85 96 3c
       -0.25008595 0.10389612 -0.0659105 0.018374424
000130 7a 6f 00 be 6c 61 5b be 58 89 6b 3e 49 2c 2e 3e
       -0.12542525 -0.21423882 0.23001611 0.17009081
000140 17 56 2f ba fa 5e 0f be 1c 11 33 3d 1c 92 36 be
       -0.00066885486 -0.14001074 0.04371749 -0.17829174
000150 24 f6 e9 bd c5 6e 53 3e ea cd a8 3d 29 a7 0f be
       -0.11423901 0.20647724 0.082424 -0.1402861
000160 b2 f3 fe 3d af 4b 36 3e dd 1d 29 3e f0 19 62 bc
       0.12448825 0.17802308 0.16515298 -0.013800129
000170 53 e8 22 3e 8a 3b f6 3d 0c 42 72 bd 4e a9 fa bd
       0.15908937 0.12023075 -0.05914502 -0.122393236
000180 73 c9 11 bd da 72 f7 3d 84 b1 1c 3e 97 76 18 3d
       -0.035592508 0.12082453 0.15302092 0.03722247
000190 35 ee 51 be e6 50 89 bb da a2 a1 bd 55 ac 3b 3e
       -0.20501025 -0.004190552 -0.078923896 0.18327458
0001a0 8e 6f 62 be 4b 20 6b 3e 76 4a 50 3e f6 12 16 3e
       -0.22112867 0.22961538 0.20340905 0.1465567
0001b0 f7 06 2c 3e 9b 82 0e 3e 20 e5 12 be 8a 53 55 be
       0.16799532 0.1391701 -0.14345217 -0.20832649
0001c0 06 2c bf bd 74 73 8e bd 08 70 0f be 14 86 2a be
       -0.09334569 -0.06955615 -0.1400758 -0.16652709
0001d0 f8 13 cf bc 18 88 9e 3c 4a 95 8f bd 20 f8 fb bc
       -0.025278077 0.019352004 -0.070108965 -0.030757964
0001e0 6a e7 d6 bd a5 f1 2e 3e 1c cc ca bd 45 21 19 3e
       -0.104933575 0.17084368 -0.09902212 0.14954098
0001f0 71 7d 6f 3e c4 d7 0a 3d 4a 29 9f bd 54 94 0b 3d
       0.23387696 0.033897176 -0.07771547 0.034077004
000200 a0 04 85 bd f2 70 81 3d bd c9 3f be b2 81 33 be
       -0.06495023 0.06320371 -0.18729301 -0.17529944
000210 bc 05 68 be 9a 72 2c be a8 b4 59 bd 95 49 3e be
       -0.22658437 -0.16840592 -0.053150803 -0.18582757
000220 50 b4 1f be b8 d4 91 bc 42 9c 5a be f8 a6 64 bd
       -0.15596128 -0.017801628 -0.2134867 -0.055823296
000230 0b ef 17 3e 67 d8 15 be 35 45 37 3e a3 dd 79 3e
       0.14837281 -0.14633332 0.17897494 0.24400954
000240 38 a8 6d 3d 14 be e6 3d 2d a9 6e 3e 46 50 57 be
       0.058021754 0.11266723 0.23306723 -0.21026716
000250 25 9e 4c be 13 1c 6a 3e 7f 2d 5d be 33 3e 76 3e
       -0.19982202 0.22862272 -0.21599387 0.24047165
000260 39 57 36 3d f1 9e 08 3e 0a a9 32 be 28 da a3 bc
       0.044516776 0.13341881 -0.17447296 -0.020001486
000270 28 3b de bd cd a4 5f 3e 32 b3 c5 3d 44 25 f3 bd
       -0.10851127 0.2184021 0.096533194 -0.11872342
000280 99 d9 68 3e fc 1f 6c be e2 14 5d be 51 35 74 be
       0.22739257 -0.23059076 -0.21589997 -0.23848464
000290 e3 25 39 3e 09 02 74 be d4 24 7e 3d 82 bd 64 bd
       0.18080859 -0.23828901 0.06204684 -0.05584479
0002a0 b6 ed 6e 3e da 1e a8 bd 8c 8a c0 bd a5 5f df bd
       0.23332867 -0.082090095 -0.09401426 -0.109069146
0002b0 2b 37 27 3e 2e ff 3c 3e 29 f3 30 3e 79 0f 51 3e
       0.16329639 0.18456718 0.17280258 0.20416059
0002c0 f1 34 0a be b8 55 46 be 5b d4 1d be c8 fd 4c be
       -0.13496758 -0.19368637 -0.15413038 -0.20018685
0002d0 ab 81 dc 3d b2 69 32 3b a9 1d e1 bd 93 53 e7 bc
       0.1076692 0.0027223644 -0.10991985 -0.028238093
0002e0 75 94 21 3e 39 43 3d 3e 8e 92 13 be b9 a1 12 3e
       0.15779288 0.18482675 -0.14411375 0.14319505
0002f0 73 c1 10 3e 29 52 5b be b2 c2 cd bd 0c f0 c8 bd
       0.14136295 -0.2141806 -0.10046901 -0.0981141
000300 a6 dc ad bd b7 f0 55 3e 90 34 9b bd 90 44 0a be
       -0.08489351 0.20892607 -0.07578385 -0.13502717
000310 ee 5b 48 be 56 ff 13 be 8b 8f 2b 3e 30 28 3d bc
       -0.19566318 -0.14452872 0.16753976 -0.011545226
000320 55 1a 58 3e 32 86 33 3e 2e c2 81 3d c5 80 58 3e
       0.21103795 0.1753166 0.06335865 0.21142872
000330 f1 ff a2 bd af 5a 5f 3e 99 a2 6f 3e 2f 1a 56 be
       -0.07958973 0.21811937 0.2340187 -0.20908426
000340 ca 81 25 3e 6e 7b a0 bd c1 b2 78 be a3 2e 3e 3e
       0.16162792 -0.07836042 -0.24286939 0.18572478
000350 e2 37 5a be 19 78 3e 3e 1f 0b e9 bd da 01 5c 3e
       -0.2131038 0.18600501 -0.11379074 0.21485081
000360 38 8e 6d bd 14 9b 52 3d 07 36 4f be 25 fb 4f 3e
       -0.05799696 0.051417425 -0.20235454 0.20310648
000370 59 0b 11 3e 10 ff e9 bd da e7 81 bd a8 e9 ed bd
       0.14164485 -0.114256024 -0.0634305 -0.11616832
000380 a6 7e 6e be 83 f1 5e 3e d8 f8 a9 bd e6 44 2e be
       -0.232905 0.21771817 -0.08299416 -0.1701847
000390 48 30 f7 3c b3 bd 6a be 00 fb 4a bb 10 86 11 bc
       0.03017439 -0.22923927 -0.0030972362 -0.008882061
0003a0 d8 09 b6 bd 06 9b b4 bd 8d 62 17 3e 7a 1f 14 be
       -0.08888596 -0.08818631 0.14783688 -0.14465132
0003b0 0c 8a 39 3d 54 bc 36 3d aa 6a dd 3d 2f 82 2e 3e
       0.045297667 0.044613197 0.1081136 0.17041849
0003c0 38 77 95 bd 48 1e b5 3c a4 50 0d be 3f 1d 51 be
       -0.0729813 0.022109166 -0.13800293 -0.20421313
0003d0 72 5e af 3d 80 46 1e be 44 cc 31 be 04 1e 9f bd
       0.08562936 -0.15456581 -0.17363077 -0.07769397
0003e0 33 28 2c 3e 8f b8 54 3e a0 65 ea bd c8 2f c8 3c
       0.1681221 0.20773529 -0.11445165 0.024436846
0003f0 65 18 aa 3d 2f 38 72 3e 37 c4 24 be c6 ff e4 bc
       0.08305434 0.23654245 -0.16090475 -0.027953994

gcn_branch.gcn_layers.1.bias f4 [128]
000000 f6 4d 91 bc 80 f7 ad bc 73 d3 a3 bc 05 4a a8 bb
       -0.01773737 -0.021236181 -0.019998288 -0.005135777
000010 f4 a4 c1 bc 31 93 8c bc 22 13 32 bc b8 2b 46 bc
       -0.023638226 -0.01716003 -0.010868819 -0.012095384
000020 10 b5 a5 ba d6 a3 ef ba b0 fa 80 bc 47 8e 9c bc
       -0.0012642462 -0.001828308 -0.015744537 -0.019110812
000030 75 94 9a ba 6d aa 13 bc b3 9f be bb de 75 63 bb
       -0.0011793511 -0.009012801 -0.0058173775 -0.0034707705
000040 24 bf 20 bc 33 a8 86 bc 85 34 9c bb 24 67 52 bb
       -0.0098111965 -0.016437626 -0.004767003 -0.0032104934
000050 df a9 1c bc ca 58 4d bb b8 94 b1 bb 96 e2 69 bc
       -0.009561985 -0.003133344 -0.00541934 -0.014275214
000060 dc 21 40 bc 48 ba 25 bc 59 55 40 bc b1 70 18 bc
       -0.011726823 -0.010115214 -0.0117390985 -0.0093042115
000070 21 8b 1d bb 58 a5 a5 bc 40 a7 63 bc 22 62 ad bc
       -0.0024039226 -0.020220444 -0.013894856 -0.021164957
000080 16 61 2f bc 43 cd 6e bc f6 39 52 bc a3 f7 41 bc
       -0.010704299 -0.014575305 -0.012831202 -0.011838826
000090 15 18 25 b9 64 1a 91 3b 78 e3 85 bc 8d 91 f8 bb
       -0.00015744597 0.004428195 -0.016343817 -0.0075857104
0000a0 d8 cd 79 bc 2d 3c 54 bc 39 d9 17 bc 5e 56 83 3b
       -0.015246831 -0.0129538 -0.0092680985 0.0040080985
0000b0 44 53 bc ba b0 b4 b6 bb d5 1f 24 bc 56 ad 1a 3c
       -0.0014368077 -0.005575739 -0.010017355 0.009440741
0000c0 b0 72 b2 bb 95 90 b4 bb ac 60 0a bc b5 e2 59 bc
       -0.0054458007 -0.0055103996 -0.0084459 -0.01329868
0000d0 12 04 19 bc 4c 61 fa 3b 13 c7 a9 bc 16 93 12 bc
       -0.009339349 0.007640993 -0.020724809 -0.008946201
0000e0 00 00 00 00 9d f6 42 bc 3c 34 35 bc 1a 6a 76 bc
       0.0 -0.0118996175 -0.011059817 -0.015039945
0000f0 79 10 bb bc 62 b7 65 bc af 0e a9 bc 60 0f 5b bb
       -0.022835003 -0.014020773 -0.020636884 -0.0033425912
000100 c7 8a 8d bc 9a 73 55 bb 27 4f b1 bb 81 0e e3 bb
       -0.017278088 -0.0032570125 -0.005411047 -0.0069292192
000110 f2 d3 93 bb 66 7d cc bb e4 3e 3e bc 3a 03 89 bc
       -0.00451135 -0.0062405346 -0.011611674 -0.016725171
000120 5b dd 46 bc 62 2f 1c bc 3d 9d 1c 3b 22 04 5d bc
       -0.012137736 -0.009532781 0.0023897432 -0.013489755
000130 96 e2 ad 3a 28 79 9e bc 31 f6 58 bc e1 25 4b bc
       0.001326638 -0.019344881 -0.01324229 -0.012399168
000140 9a 09 a1 bc 0f 98 92 3a f4 ef 20 3b d6 52 29 bc
       -0.019657899 0.0011184233 0.0024557086 -0.010334691
000150 54 2f 99 bb 7a d9 b3 bc 11 a4 48 bc ba 92 35 bc
       -0.0046748314 -0.021954287 -0.012246148 -0.011082346
000160 f2 82 27 bc 13 6f e6 bb 87 c8 62 bc 8a 2c a2 bc
       -0.010224091 -0.007032284 -0.013841755 -0.019796629
000170 81 f1 87 bc 0d a3 90 bc 85 5a 38 bc 77 4e 09 bc
       -0.01659465 -0.017655874 -0.01125205 -0.008380524
000180 00 00 00 00 5c b4 a1 bc 65 a8 c3 bc 6e 85 b9 bc
       0.0 -0.019739322 -0.023884008 -0.022646632
000190 ec 53 78 bc 10 31 58 bc 21 06 3c bc 26 c4 de bb
       -0.015156727 -0.013195291 -0.011476071 -0.006798285
0001a0 78 5e a6 bb 01 c0 1a bc 9d 36 28 bc c4 0f d0 bb
       -0.0050771795 -0.009445191 -0.010266927 -0.0063495357
0001b0 02 53 3e bc e2 0e 13 bc c1 48 c9 bb d4 c5 bf ba
       -0.01161647 -0.008975716 -0.006142706 -0.0014631101
0001c0 b3 dc 8c bc 45 e1 f2 3b aa 4c 2b ba 00 23 6b bc
       -0.017195081 0.007412108 -0.0006534556 -0.014351606
0001d0 2e fc d4 bb 72 5e 53 bb fe 19 06 bc 0b 77 aa bc
       -0.0064997887 -0.0032252339 -0.008184908 -0.020808717
0001e0 ab e8 83 bc a2 54 88 ba 2f cd 81 bc 0a 5e 16 bc
       -0.016102156 -0.0010401199 -0.01584491 -0.009177694
0001f0 9a 42 1a bc ac 5c 2e bc 12 6f 37 bc 3e 57 89 3c
       -0.009415293 -0.010642212 -0.011195915 0.016765233

gcn_branch.gcn_layers.1.lin.weight f4 [128, 64]
000000 1c d2 fb bd df 44 b7 3d 74 47 ee bd bd a9 46 3c
       -0.122959346 0.08948683 -0.11634722 0.01212543
000010 0f ae fa 3d 65 6b 8c 3d b2 41 d3 bb 4c c2 49 bc
       0.1224023 0.068564214 -0.0064470405 -0.01231439
000020 ea 23 ff bd 02 d8 ba 3c a9 22 40 3e 7e f0 05 3e
       -0.12458022 0.022808079 0.18763222 0.13080022
000030 d1 13 ec 3d 46 d5 5f bc 05 54 04 be 29 b0 2f be
       0.11527217 -0.013661688 -0.12922676 -0.17157044
000040 e6 cb 06 be 98 38 0c 3e 6e 41 d0 bd a7 23 db bd
       -0.13163719 0.13693464 -0.1016873 -0.107001595
000050 83 84 e4 bd 66 57 22 be 29 12 15 bc 76 b0 39 3c
       -0.11158087 -0.15853652 -0.009098568 0.0113335755
000060 d6 a0 46 3d ba 77 7a 3d 23 2f 06 be f2 4e 26 bd
       0.04849323 0.061149336 -0.13103919 -0.040602632
000070 b4 2e c0 bc 55 ae 99 3c 3e 38 13 3e 11 fc 20 3e
       -0.02345977 0.018759886 0.14376923 0.15721156
000080 96 95 22 3e 16 b8 2b be 14 82 b0 bd bf c9 fc 3d
       0.15877375 -0.16769442 -0.086185604 0.123431675
000090 f2 fe ae 3d 2f d2 3e 3e 0f 4c aa 3c af f6 ee bd
       0.08544721 0.18634866 0.02078822 -0.11668145
0000a0 ef c3 c4 3d 3a a8 c1 bc 70 56 07 be 90 db 0f 3e
       0.09607684 -0.023639787 -0.13216567 0.140486
0000b0 6b 1d f9 3d 64 9f cb bc e6 57 2c be 18 cc 7a 3d
       0.12163814 -0.024856277 -0.16830406 0.061229795
0000c0 9e da 53 3d 2a e9 93 ba af 8f 27 3d 75 ed 3a bd
       0.05172216 -0.0011284698 0.04090851 -0.045636613
0000d0 0e 43 97 bd 88 59 fe 3d af 7a 7d 3a a1 94 c8 bc
       -0.073858365 0.124194205 0.00096694654 -0.024484934
0000e0 ed 58 d2 bd 1d d7 a1 bb e4 f5 be 3c 69 35 03 be
       -0.102708675 -0.0049389736 0.02331061 -0.12813343
0000f0 80 1b 05 be f7 d3 cf 3a 98 6f 1d be 09 71 21 be
       -0.12998772 0.0015856017 -0.15374601 -0.15765776
000100 04 3b a4 3c 38 81 3c be ba 9c 5d 3d 8e 66 73 bc
       0.020047672 -0.18408668 0.054104544 -0.014855994
000110 04 6c fb bd fe 51 1e be 43 d3 44 3d 7f 03 e8 3c
       -0.12276462 -0.15460965 0.048053037 0.02832198
000120 b9 71 1e 3e 33 72 dc bd c8 ca 7f bd 5d 72 e9 3d
       0.15473069 -0.10763969 -0.062449247 0.11398766
000130 d5 10 08 bd 61 5d 01 3e 2f c9 a0 3c 1f 54 e7 3d
       -0.033219177 0.12633277 0.019627182 0.11295342
000140 ff 4e 1d be 10 a5 21 be 9f b9 a8 3d ef 18 3b ba
       -0.15362166 -0.15785623 0.082385294 -0.0007137199
000150 97 53 2f 3e ee 48 bf 3c 96 5e 20 3d a5 3c 16 bd
       0.1712173 0.023350205 0.039152704 -0.03667893
000160 b1 0d ea 3d a1 b1 0b be 7b ae 31 bc b5 da 26 3b
       0.11428393 -0.13641979 -0.010844822 0.002545995
000170 fb b1 59 bd 80 c4 1a bd ba da f0 bd 49 b6 16 be
       -0.05314825 -0.037785053 -0.11760469 -0.14717974
000180 59 ed e1 3d ea a6 f4 bc 7d cc 4f 3d 27 96 00 3e
       0.110315986 -0.029864747 0.050732125 0.12557279
000190 ce b6 46 3c 7c 9f 01 3d 84 f7 41 bd f3 5a 62 3d
       0.012128545 0.031646237 -0.04735519 0.055262517
0001a0 67 d0 ec 3c a9 47 f7 bd b7 ba 72 3d 73 40 ff 3d
       0.028907968 -0.12074215 0.059260096 0.124634646
0001b0 76 99 29 3e 97 2f 5f bd 69 64 0b be 29 2b 9f 3d
       0.16562447 -0.054488745 -0.13612522 0.07771904
0001c0 b8 97 ce 3d d1 22 bf 3c 19 44 04 be 8a 85 03 3e
       0.10087532 0.023332031 -0.12916602 0.1284391
0001d0 2c 62 18 be 79 c7 51 3d 98 c8 ea 3d 32 32 5e 3c
       -0.148812 0.051215623 0.114640415 0.013561772
0001e0 30 18 1a be 53 2d 26 3e c5 02 27 3e 98 ad 88 bd
       -0.1504829 0.16228227 0.1630965 -0.066737354
0001f0 e9 d1 dc 3d 4d 00 ef 3d 24 3c 1a 3e dd 4e 22 be
       0.10782225 0.11669979 0.15062004 -0.15850396
000200 ac 16 fe 3d f2 97 96 bc 01 82 09 be c8 32 f0 3d
       0.12406668 -0.018383 -0.13428499 0.11728436
000210 5c cd ad 3c b7 9f 2f be ec af 46 3d ef d5 0f be
       0.021216087 -0.1715077 0.048507616 -0.14046453
000220 78 45 1d be f3 15 6f 3b e3 f1 30 bd 46 cd 76 bd
       -0.15358531 0.0036481589 -0.04319943 -0.060254358
000230 dc 56 bc bd 21 65 02 3c 80 57 0d be 2c 60 58 bc
       -0.091962546 0.007958681 -0.1380291 -0.013206523
000240 a1 00 3f be fc e8 c1 3d 21 04 4f bc 01 56 c6 bc
       -0.18652584 0.09468266 -0.012635262 -0.024210932
000250 7b b8 b9 bd 8c 9d 43 be de bd d5 3d 44 dc 7b 3d
       -0.0906839 -0.19103068 0.10436605 0.06148936
000260 f8 06 aa bd 2b b8 8c bd fd 32 99 3d b8 58 0a 3e
       -0.083021104 -0.06871065 0.07480428 0.13510406
000270 fc f5 b7 3d d5 2d 14 3e 39 34 cb bd 9c b7 c3 3d
       0.08982465 0.14470609 -0.0992207 0.09556505
000280 a1 a8 79 3d 05 39 10 3e a7 bc 1a bd 6f e1 c7 3d
       0.060951833 0.14084251 -0.03777757 0.09759795
000290 f0 d4 2d be dc 08 8b 3d 14 12 06 bb 45 22 64 3d
       -0.1697576 0.06788799 -0.0020457553 0.055696744
0002a0 35 2f 20 3e f4 77 02 be 0f ae ee bc 5e 37 0f 3e
       0.15643008 -0.12741071 -0.029135732 0.13985965
0002b0 d9 d6 f2 bd 18 f0 7c 3d d0 89 c3 3d d4 ad 0b 3e
       -0.11857385 0.06175241 0.0954777 0.13640529
0002c0 b5 14 11 3e 17 b5 e6 bd d9 9b d8 bc b4 fc 75 3b
       0.14168055 -0.11265009 -0.026441501 0.0037534656
0002d0 56 6f 0b 3e a1 24 a7 3d 5a b8 a0 3c eb 47 dc bd
       0.1361669 0.08161283 0.019619156 -0.10755905
0002e0 aa 28 43 bd 19 c6 35 3e fd bb 01 3e aa 0e de 3d
       -0.047646202 0.1775135 0.12669368 0.10842641
0002f0 44 dd 9a bd 0e 7a ce bd f2 dd 83 3d c4 ef 23 3c
       -0.07561734 -0.10081874 0.06438817 0.010005895
000300 18 bb 1e be 1b 2d 03 3e 61 85 56 3d 69 59 f6 3d
       -0.15501058 0.12810175 0.052373294 0.120287724
000310 e5 2b 19 3d 32 71 a6 3d 3e 78 07 3e 5a a2 0d be
       0.037395377 0.08127059 0.13229463 -0.13831463
000320 6c 78 97 3d fe 0b 07 3d 26 3a 05 3e 78 d7 6e 3d
       0.073960155 0.03297042 0.13010463 0.058310956
000330 14 cd 84 bd 56 46 6b bd 13 47 d2 3c d5 59 36 bd
       -0.06484428 -0.057440124 0.025668656 -0.044519264
000340 64 98 17 3e 32 b8 dc bb bc 57 5b 3d 0a 01 2d be
       0.14804226 -0.006735825 0.053550467 -0.16894928
000350 cd 47 e1 bd 69 57 17 3e 32 80 d4 bd 6a 92 8c 3d
       -0.11000023 0.14779438 -0.10376014 0.06863864
000360 1f 62 bd 3d bd a9 96 bc 72 56 2f 3e 90 02 06 3d
       0.09247231 -0.018391484 0.1712282 0.032717288
000370 8e 1e e6 bb 19 bb 19 3d df fa f5 3d 70 c0 a0 3d
       -0.0070226854 0.037531946 0.120107405 0.078492045
000380 d6 45 20 3e 8f 5b 81 3d a1 83 07 bd 75 48 22 bc
       0.1565164 0.063162915 -0.033084515 -0.00990497
000390 41 c8 34 be bc 96 0b be 62 c0 ee bc 98 c7 a2 bd
       -0.17654516 -0.1363172 -0.02914447 -0.07948226
0003a0 6d b4 1f 3e 81 02 17 bb 73 57 01 3e c1 46 17 3e
       0.1559617 -0.0023042264 0.12631015 0.14773084
0003b0 93 76 d3 3a ef 29 c6 bd 03 69 dc bd 11 57 0d 3e
       0.001613336 -0.09675967 -0.10762217 0.13802744
0003c0 ba 39 cb bc 31 2e 1b 3e 66 0f af 3d 0d 26 08 be
       -0.0248078 0.1515434 0.08547859 -0.13295765
0003d0 5e 8f 01 3e 32 82 35 3d 0e 23 19 be 80 3f e8 bd
       0.12652346 0.044313617 -0.14954779 -0.11340237
0003e0 7c e0 38 3e 64 46 dd 3d c4 ca 09 3d 2d 1d 23 bd
       0.18054384 0.108044416 0.033640638 -0.039822746
0003f0 a9 e2 ec bd cd 10 05 be 20 df 7a bc 77 9e 22 bc
       -0.115666695 -0.1299469 -0.015311986 -0.009925476

gcn_branch.gat_layers.0.att_src f4 [1, 4, 16]
000000 70 8f 6e 3e a6 68 dc 3e 82 fb 08 bf 62 60 be 3d
       0.23296905 0.4304859 -0.5350877 0.09295727
000010 ba 62 08 3e 76 94 ce be b9 f7 fb be 23 54 00 bf
       0.13318911 -0.40347642 -0.49212435 -0.5012838
000020 d4 f0 c2 3e da 4c 9c 3e 6b c9 73 be cf e3 98 3e
       0.38074362 0.30527383 -0.23807304 0.29861304
000030 17 6e 34 be e4 8c 86 be 4d f6 e2 3d 6d 98 a8 3e
       -0.17620121 -0.26279366 0.110821344 0.32928792
000040 5a 8a 9f 3d 73 3c c4 3e 4d 48 56 3d 2f 51 eb be
       0.0779006 0.3832737 0.052315045 -0.45960376
000050 6c d9 d3 3e b3 f0 3c bd 1a e7 98 bd 01 25 7f 3e
       0.41376817 -0.046127986 -0.07465954 0.2491646
000060 9e e9 f8 3e a6 43 37 3d bd ee f2 be 72 a5 e5 be
       0.48615736 0.04474225 -0.47447768 -0.44852787
000070 8c cc 09 3f ea 16 c3 3e 79 7e f5 3d c8 f7 f9 be
       0.5382774 0.3810342 0.11987013 -0.48821855
000080 a9 63 ce bd fa e7 eb bc 32 10 b7 3e 30 fa 08 bf
       -0.100776024 -0.028797138 0.35754544 -0.53506756
000090 22 06 03 bf 16 68 52 bd 01 72 78 3e db 76 b4 3c
       -0.5118123 -0.051368795 0.24262239 0.022029331
0000a0 d8 07 31 bd 39 dc bc 3e b6 ee 06 bd 7b 0b 41 be
       -0.04322037 0.36886767 -0.032942496 -0.18852036
0000b0 fa f2 e8 3d ed fd be 3e 5e 46 c8 be 20 d8 00 3f
       0.11374469 0.37303105 -0.39116186 0.5032978
0000c0 e3 ae bb bc 2b 0e 15 3d 88 e0 83 be ff d4 06 bf
       -0.02291054 0.036390465 -0.2575724 -0.52668756
0000d0 b8 a7 c4 3e 24 20 f0 be 4f ac fb be ed 59 a0 be
       0.3840921 -0.4689952 -0.491549 -0.31318608
0000e0 fc 93 6b 3e 51 8a e7 3d 61 96 f2 be 19 67 29 3e
       0.2300567 0.11305679 -0.47380355 0.16543235
0000f0 2d ba 68 3e 22 51 c1 be 3d de b1 bd 50 8e 6c be
       0.2272727 -0.37757212 -0.08684967 -0.23101163

gcn_branch.gat_layers.0.att_dst f4 [1, 4, 16]
000000 b4 3a 9b bd 2f e8 e6 3c e4 e9 ee be 33 9a 86 3e
       -0.07579556 0.028186886 -0.4666282 0.2628952
000010 e6 12 a2 be 16 ca 46 bd df 12 0a 3e bc 4b d9 3e
       -0.31655043 -0.048532568 0.13483761 0.42440593
000020 21 16 7f be f3 c4 e8 be 08 e1 e2 3e 85 37 f5 3e
       -0.24910785 -0.4546276 0.4431231 0.4789392
000030 1b 50 53 3e c5 71 82 be a9 4b ef bd 6a 26 f4 3e
       0.20636027 -0.25477424 -0.11684353 0.47685558
000040 78 e1 02 bd 77 10 ce 3e cf 78 93 3e 66 18 4e bd
       -0.031953305 0.40246937 0.28803107 -0.050316237
000050 06 5e b7 3e 9f c0 96 3e be a7 10 be 2a c6 f4 be
       0.35813922 0.29443833 -0.14126489 -0.47807437
000060 7a 5f 52 be 36 d6 ce bd 92 79 bb 3e 2a 5b e0 be
       -0.20544234 -0.10099451 0.36616188 -0.43819553
000070 fc bc 66 be 36 55 82 be d1 58 16 3d f4 d0 ec bd
       -0.2253303 -0.25455636 0.036705796 -0.11563292
000080 0a f8 e9 be 64 0c c2 3e fd 14 c4 bd b5 7b e7 bd
       -0.4569705 0.37900078 -0.09574316 -0.11302892
000090 f6 bb 4a bd 86 83 f1 be 53 80 aa bb 70 e5 2f be
       -0.04949566 -0.47170657 -0.0052032857 -0.17177367
0000a0 d0 d9 68 be 6f c6 5e bd 12 d7 0b bf 44 00 6a 3e
       -0.22739339 -0.05438846 -0.54625046 0.22851664
0000b0 4f b9 13 3e 35 e0 05 bf 50 1a a9 3e 73 5a 09 3d
       0.14426158 -0.5229524 0.33027887 0.033533525
0000c0 6b a0 35 3e 8f 47 89 be 6b e7 8b 3e 59 68 51 3d
       0.17736976 -0.26812407 0.27324995 0.051124904
0000d0 ad 2a ac be 3d 14 b4 3e 6b 72 96 be d2 7e f1 3e
       -0.3362631 0.3517169 -0.2938417 0.4716707
0000e0 85 8c 02 bf c3 71 04 3d 1e 9c b4 be 05 bd 99 be
       -0.50995666 0.032335054 -0.35275358 -0.30027023
0000f0 c0 af 92 be 1f 28 80 be 11 53 b1 3d c5 2e 3a bd
       -0.28649712 -0.2503061 0.08658422 -0.04545476

gcn_branch.gat_layers.0.bias f4 [64]
000000 08 4e ad bb 6e ad ba bb ff e5 c5 bb 85 72 1a 3c
       -0.005288843 -0.005696944 -0.0060393806 0.009426718
000010 a8 2f f0 bb 94 42 8e bc f5 21 80 bc 6c 66 2e 39
       -0.0073299 -0.017365731 -0.015641192 0.00016632088
000020 7a 76 00 bd 69 ed a7 bc 61 24 83 bb 45 6b aa bb
       -0.031362988 -0.020498948 -0.0040021394 -0.005200776
000030 4e 3d 1d 3c 50 2c ef bc 79 9b 5d 3b 50 b0 2f 3c
       0.009597136 -0.029195935 0.0033814593 0.0107231885
000040 e7 1e 8a bc db f4 32 39 c8 10 3e 3c 6c 94 8f 3a
       -0.016860439 0.00017066619 0.011600681 0.0010954267
000050 17 37 14 ba 1f f1 86 bc d1 69 45 3c 93 7c 43 bc
       -0.0005653961 -0.016472397 0.012049154 -0.011931556
000060 2f 21 44 bc 66 19 9b bc 83 5d f2 bb a6 7d 78 3c
       -0.011970802 -0.01893301 -0.0073964014 0.015166676
000070 12 e5 f7 ba e2 66 95 3c 6c f3 75 3c 04 4e df bc
       -0.0018912873 0.018237535 0.01501165 -0.02725888
000080 92 7f c7 3a 9f 5e b4 ba 23 a6 f5 bb 48 11 2c b9
       0.0015220514 -0.001376111 -0.0074966117 -0.00016409636
000090 6f f8 35 bc 93 fc c6 3c 5b 4f 82 bc 90 d6 ab bc
       -0.0111065945 0.024290359 -0.01590698 -0.020976335
0000a0 fa 15 53 bc bc be 85 3c b9 3c ef bb e3 e0 d5 bc
       -0.012883658 0.0163263 -0.00730094 -0.02610821
0000b0 20 8f 1d 3c e8 e8 85 ba 92 3c a5 bc 6a f1 b2 ba
       0.009616643 -0.0010216506 -0.020170484 -0.0013652269
0000c0 15 69 9d bc 15 a2 83 3c c8 b7 62 3c aa 91 64 bc
       -0.019215146 0.016068498 0.013837762 -0.013950745
0000d0 03 0e 2c bc bd 26 00 bc 16 9f 63 3b 67 c7 0a bb
       -0.0105013875 -0.007821736 0.0034732274 -0.0021175982
0000e0 1d a4 f3 bb 3a bf 08 bc 2b 06 94 3b f8 78 10 3b
       -0.0074353353 -0.008346373 0.004517337 0.002204476
0000f0 5b b2 26 bb d8 9a bb 3c 49 b0 80 bc a3 a7 a9 bc
       -0.0025435898 0.022900984 -0.01570906 -0.020709818

gcn_branch.gat_layers.0.lin.weight f4 [64, 64]
000000 23 25 ed 3d 7c 78 0f 3e c1 3b 58 3e 40 e0 40 bc
       0.11579349 0.14010805 0.21116544 -0.011772215
000010 ad 54 1a 3e 41 ec 1f be 95 24 2b be c6 26 e7 bd
       0.15071364 -0.15617467 -0.16713174 -0.11286692
000020 0b a9 41 be be a8 dd 3d f9 91 0d 3d f6 16 fb bd
       -0.18912141 0.10823201 0.03456304 -0.12260239
000030 0c 03 2d 3e 07 b2 3b 3e b1 e6 32 bd b1 2e 61 bc
       0.16895694 0.18329631 -0.043677036 -0.013744042
000040 4d ac 7c bd 7b a6 73 3c d2 99 6a 3d 61 83 36 be
       -0.061687756 0.014871235 0.0572756 -0.17823555
000050 a3 b2 29 bc 8c 0e da bc 92 36 41 be 2f 4c b5 3d
       -0.010357532 -0.026618265 -0.18868473 0.088524215
000060 3c 43 44 be 24 8d a4 bc 1a 2b 87 3d c7 6c 26 be
       -0.19166273 -0.020086832 0.06600018 -0.16252433
000070 16 4e f6 3d 32 71 87 3d 2a a5 48 be 52 82 cf bd
       0.120266125 0.06613387 -0.19594255 -0.101322785
000080 42 2c ca bd 65 24 2c be 09 0b 87 bd a8 e4 b2 bc
       -0.09871723 -0.16810758 -0.06593902 -0.021837547
000090 12 b7 1a 3e 10 0a 64 be b5 d5 1d 3e db b6 07 3e
       0.15108898 -0.22269464 0.15413554 0.13253348
0000a0 bb bc 21 be 38 44 ed bc 8c 12 a6 bd fd c5 7b bc
       -0.15794651 -0.028963193 -0.08109006 -0.015367028
0000b0 02 96 68 3d f3 f0 d5 bd 7a 4a ef 3d 3c a4 a6 3c
       0.056783684 -0.10446348 0.11684127 0.020341985
0000c0 96 55 4b 3e 2c 2a 4c be f9 7f 29 be 60 8b ad 3b
       0.19856867 -0.19937962 -0.16552724 0.005296156
0000d0 32 7a 44 be e8 b4 38 3e 3d 7f a0 3d 70 89 a0 bc
       -0.19187239 0.1803776 0.07836769 -0.019596785
0000e0 0e c6 04 be d2 b3 f3 bd 98 cb ae 3c 3b b4 09 be
       -0.12966177 -0.118995324 0.021337315 -0.13447659
0000f0 c0 83 7f bc a0 d7 fb bd a3 cd ed 3d 80 0f 0d bb
       -0.0155953765 -0.122969866 0.11611488 -0.0021524131
000100 96 a7 14 3e af 58 d7 3d 19 03 b8 3d 1a a3 f5 3d
       0.14517054 0.10514962 0.08984966 0.11994
000110 eb 35 27 be a0 d7 52 bd 0c ad 44 3d 3b 56 41 3e
       -0.16329162 -0.051475167 0.048016593 0.1888055
000120 eb 13 0e be 39 ec 2d 3e 2c bc 2a be 06 e1 83 3d
       -0.13874786 0.16984643 -0.16673344 0.06439404
000130 52 e7 44 be 05 b6 89 3d d6 55 04 be a0 f9 53 be
       -0.19228867 0.067241706 -0.12923369 -0.20700693
000140 48 9b 4b 3e 47 87 c5 bd 86 57 54 bd ce 59 1c 3e
       0.19883454 -0.09644943 -0.05184128 0.15268633
000150 be 78 19 3e 34 69 29 be 67 0a 21 3d 9f e0 c2 3d
       0.14987466 -0.16544038 0.03931656 0.09515499
000160 70 55 27 be 02 bb 5a be 4c 25 9b bc f5 84 bf bd
       -0.16341186 -0.213604 -0.018938683 -0.093515314
000170 ea 13 1a be 91 7d 52 be 05 d0 0f 3d ea 4b f3 3c
       -0.15046659 -0.20555712 0.035110492 0.029699285
000180 18 97 3e 3d 89 b6 41 bc b2 d7 c6 bd 96 8f 25 be
       0.046530813 -0.011823305 -0.09709109 -0.16168055
000190 50 c6 e3 bd 68 ca 48 be df d6 ef bd b0 fc 0b be
       -0.111218095 -0.19608462 -0.11710905 -0.13670611
0001a0 3a cb b9 bc 69 3d cd bd 26 20 01 3e 5b 60 9b bc
       -0.022679914 -0.10021479 0.1260992 -0.018966844
0001b0 91 4d b0 bd 8b 3d d2 bc 59 9f 20 3e e9 69 cb bc
       -0.086085446 -0.025664112 0.15685786 -0.024830775
0001c0 7b 61 18 be a7 ec 1f be d6 c8 93 b9 1c bd 07 bd
       -0.14880936 -0.1561762 -0.0002818766 -0.033139333
0001d0 9d 48 ed 3d f0 7f 1c 3e de ca 2a be 04 5f 2d bd
       0.115861155 0.1528318 -0.1667895 -0.042326942
0001e0 17 8e 5d 3e 4d 90 42 3d 43 0e 27 be fb f8 83 3d
       0.21636234 0.047500897 -0.16314034 0.06443974
0001f0 bd a7 49 3e 24 dc 34 3d be 6d 2d 3d 1c e2 16 3d
       0.19692893 0.044155255 0.042340986 0.03683673
000200 5a 07 09 3e 36 79 3d be bc 05 25 3e 33 7c 15 3e
       0.1338171 -0.1850327 0.16115469 0.1459816
000210 c8 ed 64 be b8 97 29 3e 11 db 1e 3e 4e 7f 6e bd
       -0.22356331 0.16561782 0.15513255 -0.058226876
000220 ae 19 8c 3d 96 39 64 bd 32 a2 07 3e e3 59 29 3e
       0.068408355 -0.05571898 0.13245466 0.16538195
000230 fd b9 01 bd 74 44 19 be 58 36 46 be 69 35 1a bd
       -0.031671513 -0.14967519 -0.19356668 -0.037648592
000240 8d fb 48 3e ce df 37 3e 64 ee bb bd a5 ce d2 3c
       0.19627209 0.17956468 -0.09176329 0.025733301
000250 df de 34 be 54 4f 93 3d f7 6e a4 bd 93 54 90 3c
       -0.17663144 0.07192865 -0.08028977 0.017618453
000260 e8 55 9b bc 9d d8 f9 bd 79 c3 e9 3d 87 46 7b bd
       -0.018961862 -0.12199519 0.114142366 -0.061346557
000270 53 05 4f be 1d 20 30 3e fb cf d1 bd 85 e6 a5 3d
       -0.20216875 0.1719975 -0.10244747 0.08100609
000280 30 1e 20 be 74 e8 c6 bc f4 e4 ec bd c6 84 ce 3d
       -0.15636516 -0.024280764 -0.11567107 0.10083918
000290 4a 4c 3f 3c ca be 5b be 17 1b 54 bb 0a 1a 03 be
       0.011675904 -0.21459499 -0.003236478 -0.12802902
0002a0 93 e4 b6 3d 6c 62 9d bd 61 65 14 3e d1 0d eb bd
       0.08930316 -0.07684788 0.14491798 -0.11477245
0002b0 b8 30 28 bd 11 d2 3b bd 10 91 8b 3c 95 e3 83 3c
       -0.041062087 -0.04585463 0.017036945 0.01609973
0002c0 02 9e 1d bd ea e4 1b be 34 10 24 3e c0 f4 54 3c
       -0.038480766 -0.15224043 0.16021806 0.012997806
0002d0 6b df 3c be 03 45 09 be 8c c5 c6 bd 6d 4d 03 3e
       -0.18444602 -0.13405232 -0.09705648 0.12822504
0002e0 f7 43 52 be e2 02 a4 bd 40 85 5b bd 38 f8 c3 3c
       -0.20533739 -0.08008362 -0.053593874 0.02392207
0002f0 ec 53 5b bd d0 22 f5 bc 6b 9a 0f be 6b f0 2e 3c
       -0.05354683 -0.029923826 -0.1402375 0.010677437
000300 43 ce 11 bd 75 ec 45 3e cc a6 2c bc 14 2e 37 3d
       -0.035597097 0.19328482 -0.010537814 0.044721678
000310 da 94 d6 bd 5f c9 3d 3e ec 81 30 be 81 82 9d 3d
       -0.1047761 0.18533848 -0.17237061 0.07690907
000320 43 a2 16 be 19 bc 21 bd 6a d9 27 be e7 23 35 3e
       -0.14710335 -0.039486025 -0.1639153 0.17689477
000330 59 ac a1 bc 7f 5a 01 be d8 a9 8b bc 91 bb 1b be
       -0.019735502 -0.12632178 -0.017048761 -0.1520827
000340 70 08 d2 bd d8 f1 1e be 1b e2 0c 3e 4b 89 83 3d
       -0.102555156 -0.15521944 0.13758127 0.06422671
000350 a6 2b 8d 3d d2 e1 e7 bd 3f a9 40 bd b6 0d b0 bc
       0.06893091 -0.11322369 -0.047036406 -0.021490913
000360 dc 68 ea bd 0f ca 5e 3e 25 fc cb bd 1e 01 2a be
       -0.114457816 0.21756767 -0.09960202 -0.16601989
000370 b3 29 35 3e 50 0f 0c be b4 cd 5c bd e7 da 80 3d
       0.17691688 -0.13677716 -0.05390711 0.06291752
000380 26 d8 b1 3d a5 2d 12 be a3 77 4c be b8 09 3a be
       0.08683805 -0.14275225 -0.19967513 -0.1816777
000390 92 4f ab 3d a8 8e c0 3c f0 00 6f 3d 24 c8 7e 3c
       0.08364786 0.023505524 0.058350503 0.015550647
0003a0 4b e5 c1 3d 89 9b 5d 3e c9 db 85 bc 57 84 3d 3e
       0.09467562 0.21641363 -0.016340153 0.18507515
0003b0 50 02 55 3d c5 20 af 3d e8 25 f6 bc 68 92 11 be
       0.05200416 0.08551172 -0.030047372 -0.14216006
0003c0 e3 45 01 be 88 7a 45 be cd af 08 be 50 bb 02 bd
       -0.12624316 -0.19285023 -0.13348313 -0.031916916
0003d0 ae 77 41 3e 40 30 16 3e 64 dc 64 3d dd 9d f9 bd
       0.1889331 0.14666843 0.055874243 -0.12188313
0003e0 22 0f a9 3d 21 7f 6f 3d d5 b2 e9 bd 4d 31 4c be
       0.082548395 0.05847085 -0.11411063 -0.19940682
0003f0 a0 8e a5 bb e2 e0 94 3d 54 0c af bd 4d 86 1f 3d
       -0.0050524026 0.072694555 -0.08547273 0.03894644

gcn_branch.gat_layers.1.att_src f4 [1, 4, 32]
000000 6c 7e 1b 3e 8b 3e ac 3e 98 c0 d2 be 47 32 08 3e
       0.15184945 0.33641466 -0.41162562 0.1330043
000010 e6 c1 cb 3e 0d 11 d8 3c 4f cc a4 3e 8b 9e c9 bc
       0.3979637 0.026375318 0.32187125 -0.024611732
000020 ef 07 e3 bd 92 ef a1 3d 0b 4d c5 be a4 1f 2d 3e
       -0.110854976 0.079070225 -0.38535342 0.16906601
000030 fd d3 a5 be 6e a8 6a be f5 e0 88 3d 42 ac 85 3d
       -0.32388297 -0.22915813 0.06683532 0.06526996
000040 e0 5f d0 3e 6c 13 ea 3d 18 4e d4 bd e6 41 cc be
       0.40698147 0.11429486 -0.10366458 -0.39894027
000050 cb 21 a2 be 2d b2 53 be 5c a9 81 3d ab 2a 02 3e
       -0.31666407 -0.20673437 0.06331131 0.12711589
000060 68 de d4 be 6e 63 99 bd 3a a2 c5 be 58 c2 c4 bd
       -0.41575933 -0.07489668 -0.38600332 -0.09607381
000070 20 17 78 3e 07 23 35 be 13 ed 58 3d 3b d3 c2 3e
       0.24227571 -0.17689143 0.052960467 0.3805178
000080 c3 ea 36 3e 96 75 16 bd 1f 7d c6 3e e6 d1 be be
       0.17862992 -0.036733232 0.38767335 -0.37269515
000090 eb 8c ff bd 9e 4c a6 3e d8 7d 89 3e fa 86 c6 bd
       -0.1247805 0.3248033 0.26853824 -0.096937135
0000a0 13 17 93 3e 3a 38 a6 be 86 a1 46 3d 38 16 c7 bc
       0.28728542 -0.32464772 0.048493885 -0.024302587
0000b0 aa 1e a9 3e 8d f9 ae bd d0 28 b8 3e 6e 54 3e 3e
       0.33031207 -0.08543692 0.35968637 0.18586895
0000c0 0f 14 5d 3e 4f ed 48 3e d8 c8 45 3e 80 bf cd be
       0.21589683 0.19621776 0.19314897 -0.40185165
0000d0 29 88 84 bd f6 00 29 be 35 de 9d 3e 8a fb da 3d
       -0.06471283 -0.16504273 0.30833593 0.106925085
0000e0 52 2b b2 be 34 58 a3 be 15 e6 67 3e 59 26 c9 be
       -0.34798676 -0.3190323 0.22646363 -0.3928707
0000f0 b1 c0 b8 3d 95 12 50 3e 17 37 92 bd e0 16 a3 3e
       0.09021128 0.20319588 -0.07139414 0.3185339
000100 d3 13 5f be 6d ba fe bc 55 35 47 be 9b 9a 6a bd
       -0.21784906 -0.031094754 -0.19453938 -0.05727635
000110 0a 55 26 bd d5 11 81 be a6 e3 a1 bd 89 ff 5f 3d
       -0.040608443 -0.25208917 -0.079047486 0.054687057
000120 dc 0a a6 be 3e 57 5b be 52 8a 3b 3e 19 67 38 be
       -0.3243016 -0.21419999 0.18314484 -0.18008079
000130 7c 99 1b be c9 60 97 be 88 fe 94 be 1c 3c f6 bc
       -0.15195268 -0.2956603 -0.29100442 -0.03005796
000140 d8 5b 41 be e2 8f 94 be df 4a 86 be a8 a4 70 3e
       -0.18882692 -0.29016024 -0.26228997 0.23500311
000150 7a d6 f2 3d 4f 5a 82 3e 3b 7b bb 3c be 67 ba 3d
       0.118573144 0.25459525 0.02288591 0.091018185
000160 d0 d5 90 3e a5 b5 ad be 37 bc 99 3e 7f 8b 84 3e
       0.28288126 -0.33927646 0.3002641 0.25887677
000170 b5 26 7d 3e 72 22 03 3d 5e 65 b4 be e4 a9 c9 be
       0.24721797 0.03201527 -0.35233587 -0.3938743
000180 b8 d7 6d bc 68 02 6a be 45 37 f3 3b 68 8c 2d be
       -0.014516763 -0.2285248 0.00742236 -0.16948092
000190 75 f1 46 be f3 e3 e1 bd bc e5 b6 3e 33 10 b9 be
       -0.19428046 -0.11029806 0.35722148 -0.36145172
0001a0 37 b7 42 3d b8 ce 38 be a7 dd 60 be 87 42 c3 be
       0.04753801 -0.18047607 -0.21959554 -0.38136694
0001b0 ee 48 16 3e ef b2 c4 be 38 51 a7 be dc a9 a0 be
       0.14676258 -0.38417765 -0.32679152 -0.31379592
0001c0 03 68 2d 3e 4e dc 21 be 27 94 b2 3e f2 ed 97 be
       0.16934209 -0.15806696 0.34878656 -0.29673725
0001d0 b5 5c 10 3d f9 7c 94 be c6 f5 85 be e8 16 de 3d
       0.035244662 -0.29001597 -0.26164073 0.10844213
0001e0 5f dc c0 be c4 03 cb bd 84 b8 73 3e 69 96 97 3b
       -0.3766813 -0.099128276 0.23800856 0.0046260846
0001f0 81 71 91 be 49 27 5c 3e 25 a3 b6 3e 1c 78 1a be
       -0.2840691 0.21499361 0.35671344 -0.1508488

gcn_branch.gat_layers.1.att_dst f4 [1, 4, 32]
000000 17 26 8f bd 6b 65 63 be 8d d4 5c be 6d 0f 8c be
       -0.06989687 -0.22206657 -0.21565457 -0.2735552
000010 33 9a 93 3e a7 e0 90 bb 7d 2f 63 be 55 37 05 be
       0.28828582 -0.004421312 -0.22186084 -0.13009389
000020 d6 44 a9 be da 08 7b 3e be 25 bf be 93 b4 80 3c
       -0.3306033 0.24515095 -0.37333483 0.015711104
000030 ac 93 d3 bd 0b 99 b2 be 36 b7 9e 3e ad d1 57 3e
       -0.103309005 -0.34882388 0.30999154 0.21076079
000040 23 fa 6e 3e e6 ba 60 be 63 09 8a bd 76 9f e9 3d
       0.23337607 -0.21946296 -0.067400716 0.11407368
000050 03 b5 a1 3e 6b 05 86 3c e6 61 ab be 28 95 a9 3e
       0.31583413 0.016360005 -0.33473128 0.3312161
000060 d8 e3 a1 be 32 3a be 3e 88 23 74 be 9a 6c c5 be
       -0.31619143 0.37153774 -0.23841679 -0.3855942
000070 df 2e 8e 3e e3 f2 70 3e 1f 89 5b be 81 cd b0 3e
       0.27770135 0.23530154 -0.21439026 0.34531787
000080 b4 b5 60 be a5 b1 94 be 8f f7 b3 3c 69 eb 73 be
       -0.21944314 -0.29041782 0.021968631 -0.2382027
000090 84 6b 50 be 35 c9 98 be 81 07 84 3e 5a c9 8e 3c
       -0.20353514 -0.2984101 0.25786975 0.017429996
0000a0 f8 47 13 be 36 4f 2e be f8 61 39 3d ab 1e 59 3e
       -0.14382923 -0.17022404 0.045259446 0.21203105
0000b0 bc 3f 0f be 1a 51 fb bd 87 68 4d be 77 49 1b 3e
       -0.13989156 -0.12271328 -0.20059405 0.15164743
0000c0 3e 61 cf be b9 1b 83 be 4e 53 bf 3d ca 09 9e 3e
       -0.40503877 -0.25607088 0.09342061 0.30866843
0000d0 14 fe 8d 3e 7b 97 86 be 34 a6 8b bd c8 1f 2f 3d
       0.2773291 -0.26287445 -0.0681881 0.04275492
0000e0 e1 f6 ae 3d fd da fd bd fe 5c 7a 3e 9f e9 ad be
       0.08543182 -0.12395284 0.24449536 -0.339673
0000f0 05 05 a7 bd 5f 33 8d be 3b bc a1 be 62 1d fb 3c
       -0.08155254 -0.27578256 -0.3158892 0.03065366
000100 11 1a cf 3e 2c 8e 27 3a 0d a3 1e 3e 35 cb c6 be
       0.40449575 0.00063917297 0.15491886 -0.3882691
000110 70 0c 9b 3d 77 70 c2 3e 9c 31 a0 be e2 cf f6 bd
       0.07570732 0.3797643 -0.3128785 -0.12051369
000120 c9 6e 8c 3e 0f c1 bf bc 44 ef b1 be ca e1 91 3e
       0.27428272 -0.023407487 -0.34752858 0.28492576
000130 94 48 1f 3e 3e f2 3d 3b e0 08 18 3e c8 0d 8b 3e
       0.1555503 0.00289835 0.14847136 0.27158952
000140 eb e9 73 be 17 da 67 3e 6c 81 5e be 76 0a 93 be
       -0.23819701 0.22641788 -0.21729058 -0.2871892
000150 3e e0 1b be 95 f1 10 3e fb a3 5f 3e 93 3f aa be
       -0.1522226 0.14154656 0.21839897 -0.33251628
000160 84 4e af 3e 1e e6 74 bd 1b c0 ae be 95 dd d6 be
       0.3423959 -0.05978977 -0.3413094 -0.4196593
000170 95 55 ed 3c 4b 6c 8a be ac 45 49 3e 1e eb d1 3e
       0.028971473 -0.27035746 0.19655484 0.40999693
000180 44 0f 12 3e 32 d4 96 3e 3f 25 84 3e 1e be a6 3e
       0.14263636 0.29458767 0.25809667 0.32566923
000190 14 9c bc be 39 55 95 3e ce 7e cb bd 8c de b9 be
       -0.36837828 0.29166582 -0.099362954 -0.36302602
0001a0 a5 0e 8c be a8 82 c4 3d f9 d3 76 be f0 c2 58 3e
       -0.27354923 0.09595233 -0.24104299 0.21168113
0001b0 e0 20 bf be 28 42 27 3b ef ca b8 3d c7 b0 d1 bc
       -0.3732977 0.002552161 0.090230815 -0.02559699
0001c0 34 ee ff 3d 54 b2 ba 3e af 9f a8 3e d5 07 c9 3d
       0.124966055 0.3646418 0.3293433 0.09815947
0001d0 62 98 d3 3b 10 ae a0 be 21 4b 10 bd ca 3f 29 3e
       0.0064573744 -0.313828 -0.0352279 0.1652824
0001e0 65 79 62 be 98 fe 84 3e 6d f4 b5 be 94 a8 8f be
       -0.22116621 0.2597549 -0.35538045 -0.28058302
0001f0 d1 70 50 be 62 74 5b 3c 75 f8 fe 3d 5d d3 93 3d
       -0.20355536 0.013394447 0.12449733 0.07218049

gcn_branch.gat_layers.1.bias f4 [128]
000000 26 7a db b9 06 88 29 bc d2 b2 1f 3c c2 74 04 ba
       -0.00041861943 -0.010347372 0.009747224 -0.00050527987
000010 3e 24 6d bc 13 af fb bb 96 04 1c 3c 5a 74 04 bc
       -0.014473973 -0.0076807826 0.009522578 -0.008084381
000020 9d ce d8 bb 6b f6 60 3c 2f 75 cb bb e4 ae 83 bb
       -0.006616427 0.013730626 -0.0062090377 -0.0040186513
000030 91 92 2a 3c 44 b7 e4 ba 0f b3 57 3b 2b e5 ab bb
       0.010410921 -0.0017449637 0.0032913124 -0.005245825
000040 2a d3 e3 3b a2 c5 57 3c 74 3c 46 3c b3 41 2f 3c
       0.006952663 0.013169678 0.012099374 0.010696816
000050 9d d6 b2 bc 8c d3 1b 3b 88 4a be b8 f2 4b 7f 3c
       -0.021830851 0.0023777215 -9.0737885e-05 0.015582072
000060 fc 56 1a 3c 59 20 6f bb a4 27 87 ba 03 5b 46 3b
       0.009420153 -0.0036487787 -0.0010311496 0.003026665
000070 45 5e 1f b9 e5 7a b9 bc a3 fd f3 3a 88 01 7d bc
       -0.0001519854 -0.022641608 0.0018615018 -0.01544226
000080 ab a2 d4 3b d4 ce 29 39 7a 47 a0 3b cc e0 f0 bb
       0.006489118 0.00016194145 0.004891333 -0.0073510166
000090 55 f6 9b bb 80 44 88 3b a7 5d c1 bb 94 18 3e bc
       -0.0047595897 0.0041585565 -0.005901057 -0.01160254
0000a0 26 07 58 3a bc 24 71 bb e2 01 06 3a f8 b0 32 bb
       0.00082408113 -0.0036795577 0.0005111975 -0.0027266126
0000b0 3f b4 43 3b a2 a9 9d 3b 28 7e 31 3c 0d ce d0 3a
       0.0029862074 0.0048114816 0.010833301 0.0015930549
0000c0 d1 a7 69 bc 3e ee eb 3b 09 7e ef 3a 4d 2e d2 ba
       -0.014261202 0.0072000315 0.0018271814 -0.0016035527
0000d0 c9 a7 2f 3c f2 c4 6c bb de 96 84 bc 4c 24 e3 bb
       0.010721155 -0.003612813 -0.01618522 -0.006931817
0000e0 1f e8 cf 39 2a c6 6c 3b 7f 3b c5 bc fa 61 9b bc
       0.0003965506 0.0036128857 -0.024076222 -0.018967617
0000f0 1b 10 c5 ba 0e f5 24 bc af b3 f1 bb 9d 14 36 3b
       -0.0015034707 -0.010068191 -0.0073761563 0.0027783283
000100 79 af bc ba 87 6e 97 3b 12 04 20 bc eb 28 4c bc
       -0.0014395557 0.00462133 -0.009766595 -0.0124609275
000110 55 58 f9 3b 2c fd fe 3b 49 41 2e ba 6a 0a ac bb
       0.007609407 0.0077816453 -0.00066473015 -0.005250265
000120 c4 91 22 3c 84 2b 8d bb 3e be b0 bb ca d7 41 bc
       0.009922449 -0.004308166 -0.0053937724 -0.011831233
000130 f8 98 6a 3c bf 0e aa ba e1 e0 17 bc 53 30 25 bc
       0.014318697 -0.0012974365 -0.009269924 -0.010082322
000140 2d 8e 20 bc 56 29 36 3c 9b 1e 80 3b 87 e5 55 3b
       -0.009799522 0.011118254 0.0039098985 0.003263803
000150 c0 65 b0 3b b3 81 dc 3b 48 51 9b 3b fb dc 1c bb
       0.0053832233 0.0067293285 0.004739914 -0.0023935426
000160 83 27 5b bb 66 bd 1d bc 53 ab ee bb 7e 57 96 ba
       -0.00334403 -0.009627676 -0.007283607 -0.0011470167
000170 7f a5 56 bc 9e 7d 51 bc 59 ca a6 bc 04 37 15 39
       -0.013100981 -0.012786297 -0.020360159 0.00014230242
000180 c3 0b 7b 3b f4 6e b7 bb 0d 45 d9 bb 2e 45 01 bc
       0.003830657 -0.0055979434 -0.006630546 -0.007890029
000190 10 8b 32 bb 27 d6 02 ba cc f9 1b bc e5 2f cd 3b
       -0.0027243532 -0.00049910176 -0.009520005 0.006261813
0001a0 3d f2 93 bb f7 1b 14 3c 3c d8 83 3b ae f7 42 ba
       -0.004514961 0.00903987 0.00402358 -0.000743742
0001b0 bd 63 5f bb aa 1e cb bc 05 c2 8f 3c 50 23 bc bb
       -0.0034086548 -0.024794895 0.01754857 -0.0057415143
0001c0 67 4e 14 bb a2 2f 62 bb 9c 4f 91 3c 28 17 12 3c
       -0.002262974 -0.0034513255 0.017738156 0.008916654
0001d0 a8 d0 a1 b6 85 fd 4f ba d0 5b 8d 3b 1c 60 25 bc
       -4.8224647e-06 -0.00079342007 0.0043139234 -0.010093715
0001e0 05 ac 2a 3a 50 79 96 39 65 33 49 b9 63 e7 fe bb
       0.0006510618 0.00028700614 -0.00019188 -0.0077790483
0001f0 ce ca 5d 3c 00 53 39 3c 99 c2 5a 3c da c4 de 3b
       0.013537122 0.011311293 0.01335206 0.006798369

gcn_branch.gat_layers.1.lin.weight f4 [128, 128]
000000 f4 3c fa 3c fd 74 f3 3d 67 35 b2 bd 59 95 16 3e
       0.030546643 0.11887548 -0.08701592 0.14705409
000010 3a 3e 08 be 0a 5e 0f 3e f7 2f 5e bd 73 9a 82 bd
       -0.13304988 0.14000717 -0.05424496 -0.06377115
000020 51 8e 0a bc 64 03 b0 bd 14 7b 03 3e 56 1a 67 3d
       -0.008456782 -0.08594397 0.1283992 0.0564216
000030 45 52 bc bd f0 87 78 bd 31 22 91 3d 3e d8 1a 3e
       -0.09195379 -0.060676515 0.070865996 0.15121552
000040 e9 1e 8a 3c 25 78 4c 3d 2c 82 46 bd 84 2d 15 3e
       0.016860442 0.049919266 -0.048463985 0.14568144
000050 96 de 9a bd fb f4 0c 3e 04 77 70 3d 10 2d de 3d
       -0.07561986 0.13765328 0.058707252 0.10848439
000060 cb 46 e9 bc a5 0e 10 be ff 77 d3 bc b5 ca 03 bc
       -0.02847614 -0.14068086 -0.025814055 -0.008043935
000070 06 1d 15 be 0d 1e 9c bd 1f 42 1c 3e 78 24 ad 3c
       -0.14561853 -0.07622919 0.15259598 0.021135554
000080 0a 36 0b 3e 51 da 09 be a3 39 bc 3b 9d 89 e5 3d
       0.13594833 -0.13462187 0.0057441755 0.11207888
000090 1f c6 c7 3d 7c 79 17 3e 63 88 df 3d d9 8c e4 3d
       0.097545855 0.14792436 0.109146856 0.11159677
0000a0 ed 76 f9 bd 56 19 31 bd 7a 8c 02 bd fe 9f fd 3c
       -0.121808864 -0.043237053 -0.03187225 0.03096008
0000b0 36 ac 64 3d 25 20 07 be 4a ab 8f bd e1 7d e1 bd
       0.055828296 -0.13195856 -0.07015093 -0.110103376
0000c0 9c 86 b6 3c ac 6b 24 bd 96 72 3f 3c bc 7b 2a bb
       0.022280984 -0.040141746 0.011685034 -0.0026013693
0000d0 f6 68 fa bd e4 0a 04 3e 05 09 33 bd 00 dd 49 3d
       -0.12227051 0.1289478 -0.043709774 0.049283028
0000e0 80 da 11 3b d3 74 dc bd d2 10 9b 3d 6b 30 07 3e
       0.002225548 -0.1076447 0.075715676 0.13202064
0000f0 2a 23 5d bd 45 74 0b bd 6d 75 fc 3d 65 e9 86 bd
       -0.053988613 -0.03404643 0.12327085 -0.06587485
000100 95 be 0e be 0e f0 fc 3d d8 19 08 be c1 2e 42 3d
       -0.13939889 0.12350474 -0.13291109 0.04740787
000110 9f 68 e9 bd b8 a5 db 3d 4f 2c 91 bc db ba cb bd
       -0.11396908 0.10724968 -0.017721323 -0.09947749
000120 ca 5f 5b 3d 2b ac 0b 3e 53 80 5c 3d d0 e0 8b 3c
       0.05355815 0.13639896 0.053833317 0.017074972
000130 96 c5 c5 bd d5 42 1a 3e cf 47 e7 3c ee 74 94 3d
       -0.09656827 0.15064557 0.028232483 0.07248865
000140 b9 9f 80 3d c7 16 f1 bd d6 3a 83 bd ac 6c ea bd
       0.06280465 -0.117719226 -0.064077064 -0.11446509
000150 6e 38 96 3d d0 79 d7 3c 2a 1e d6 3d d1 1e a0 3c
       0.07334982 0.026303202 0.10454972 0.019545944
000160 70 7c 4e 3d fc 25 16 be 16 20 f6 3d 58 21 c8 3d
       0.05041164 -0.14662927 0.12017839 0.09771985
000170 09 72 ce bd d8 47 f4 bd 86 fe 3c bd a8 a5 46 bd
       -0.10080344 -0.119277656 -0.04614117 -0.048497826
000180 c3 63 98 bd bc b3 d4 bd 8f 6a 12 3e bd a5 b9 3c
       -0.07440903 -0.10385844 0.14298461 0.022662038
000190 e7 ea 6e bc 1d 3a 49 3d 9b bb 0a 3e 29 c2 7c bd
       -0.014582372 0.049127687 0.13548128 -0.061708603
0001a0 a3 ea d7 bd 23 c8 02 3c 89 8f c7 bd c5 c4 a0 3c
       -0.105428 0.007982287 -0.09744174 0.019625077
0001b0 f6 9b da 3d ef cc fe bd 0f 94 fc 3d 6b 3e 4b 3d
       0.106742784 -0.12441432 0.123329274 0.049620073
0001c0 99 32 6b 3d ea ae ce 3c 95 fb 02 be 89 fb 0e 3e
       0.0574213 0.02522989 -0.12791283 0.1396314
0001d0 99 52 97 3d 3d 71 6c 3d 58 27 cb 3d d7 b1 8a bd
       0.07388801 0.05772518 0.099196136 -0.067722015
0001e0 19 c8 97 bd ce 45 5a bc 30 6e 8a bd 91 8a 14 be
       -0.074112125 -0.013322307 -0.06759298 -0.14505984
0001f0 ad 32 5a bd bd 53 fd 3d c0 db 09 be d9 cc 09 3e
       -0.053270984 0.123694874 -0.13462734 0.1345705
000200 d9 4e 11 3c 9d db b8 bc 7f 25 e3 3d 27 88 e4 3d
       0.008868896 -0.022565657 0.11091136 0.111587815
000210 f1 f4 03 3e a8 f4 61 bc 68 41 aa bd 87 cd 94 bd
       0.12886406 -0.013791241 -0.083132565 -0.07265764
000220 44 21 f1 3d db 49 13 bd 8e e2 c6 3d d1 6c ca 3d
       0.11773923 -0.035959106 0.097111806 0.09884036
000230 52 00 b3 bd 56 0c 2a bc 27 f8 83 bd ca 40 05 3e
       -0.087402955 -0.010378918 -0.06443816 0.13012996
000240 77 28 b8 bc 05 ad 0b bc 67 9b bf 3d bc c8 1f 3c
       -0.022480233 -0.008525138 0.093558125 0.009752449
000250 00 86 e5 bd 07 fa 63 bd b7 f8 e2 bc 9a 2b e4 3d
       -0.11207199 -0.055658367 -0.027706487 0.11141129
000260 1d fe c9 bd 41 36 17 be 23 4f e9 3d 31 10 50 3d
       -0.098629214 -0.1476679 0.11392047 0.05079669
000270 41 9e 18 3c a3 8f 40 3d 78 50 9f bd de a0 27 bd
       0.009315074 0.047011983 -0.0777902 -0.0409249
000280 40 d4 0f be f6 c9 07 be 32 b7 7f bd bc 1d 47 3d
       -0.1404581 -0.13260636 -0.062430568 0.04861234
000290 a7 c8 23 be 63 1b f3 3d d3 9f 07 3d 4c f4 20 3e
       -0.15994512 0.11870458 0.033111405 0.15718192
0002a0 65 df 8f 3d b1 35 24 3c 65 36 00 be 93 d4 94 bc
       0.07025031 0.010022567 -0.1252075 -0.01816777
0002b0 57 37 d8 bd aa 3f bd 3d fc 23 ff 3d ed af 6f bd
       -0.1055743 0.092406586 0.12458035 -0.058517385
0002c0 82 ef c1 3c d7 56 b7 3d 53 ea 15 be 7c ba dd bc
       0.023673777 0.0895211 -0.14640169 -0.027066462
0002d0 37 54 d3 bb 49 5e 9e bd 81 2a d5 3c 82 db 10 3c
       -0.006449248 -0.07732827 0.026021244 0.008841397
0002e0 58 1f bc 3c 80 38 2f 3d 06 e9 05 3e bd 3b f0 bd
       0.022964165 0.042778492 0.13077173 -0.11730144
0002f0 53 d3 c2 bc c2 96 13 3e 90 5f b2 3c 08 89 43 3d
       -0.023782408 0.14412978 0.021774083 0.047738105
000300 4e 32 14 3c 65 ab c5 3c e6 89 88 bd f8 2f 19 3e
       0.009045197 0.024129579 -0.06666927 0.14959705
000310 38 b4 e0 bd 99 70 84 3d 49 2a 93 3c e9 cc fd bd
       -0.10971874 0.06466789 0.0179645 -0.12392599
000320 9e e2 a5 3d b9 c8 f5 bd 73 39 1a 3c b4 cd 9d 3c
       0.080998644 -0.120011754 0.009413111 0.019263126
000330 e5 14 82 3d 65 bc 66 3d 04 fc 94 3c 40 c7 11 be
       0.063516416 0.05633201 0.018186577 -0.14236164
000340 2a a3 a1 3c 80 4d 04 3e f4 0d 61 3b f9 bb 35 bd
       0.019731123 0.12920189 0.0034340592 -0.044368718
000350 90 ca ce bd f0 5a 6a bc 00 97 08 bd 1c bd 16 bd
       -0.100972295 -0.014303908 -0.03334713 -0.036801443
000360 cd f2 c0 bd c7 7e 31 3d 41 7a 84 3d 90 c1 f3 bd
       -0.094213106 0.043333795 0.064686306 -0.119021535
000370 93 3a 07 bd 9c 19 06 be 34 dd ef b9 0d f4 0f bd
       -0.033014845 -0.13095707 -0.00045750441 -0.035144854
000380 9e 19 ad 3d c1 5d ab 3a fd 7c e1 3d 83 90 ea bc
       0.08452152 0.0013074205 0.11010168 -0.028633362
000390 1d 0d 88 bc 40 d9 96 3b 1e f8 02 bc 3d 59 0c 3d
       -0.016607815 0.004603535 -0.007993726 0.03426479
0003a0 6f 4d c4 bc 2d 1d 49 3d a9 0b e2 bc f2 e1 0e 3e
       -0.023962704 0.04910009 -0.02759345 0.13953379
0003b0 c3 3d 4c bd e1 8f 70 3d 88 79 ee 3d d9 fb 2d 3e
       -0.049863588 0.058730964 0.11644274 0.16990604
0003c0 0c a9 11 be 40 2e b1 3d 51 9b f5 bd e5 21 5d bd
       -0.14224643 0.086513996 -0.11992515 -0.053987402
0003d0 5f 97 00 be 37 4e 34 be a8 2b 0e be 68 8e 7c bc
       -0.12557743 -0.17607962 -0.13883841 -0.015414812
0003e0 16 28 76 3d 6c 7f b6 3d a4 a2 0a be 75 9f e9 bd
       0.060096823 0.089110225 -0.13538605 -0.11407367
0003f0 35 52 06 be ef 94 4e bd e0 3e d0 3d 03 66 e2 bc
       -0.13117297 -0.050435003 0.101682425 -0.027636534
