finalhybrid/experiments/experiment_20251104_194213/final_hybrid_model.pth (torch, 828338 bytes, 21 tensors)

gcn_branch.gcn_layers.0.bias f4 [64]
00000000: 0000 0000 0000 0000 0000 0000 c08a 053a
00000010: ba7b 643a 0000 0000 0000 0000 e13d 5bbb
00000020: 765f 8ebb 1ff4 78bc ba66 33bc 9e48 5fbb
00000030: b8b5 bebc a184 adbc 0000 0000 0561 223c
00000040: d889 98bc 65f7 1e3c d800 31bc e7ff 61bc
00000050: ec4f 8ebc 069c 30bc 6ea8 0dbc aa53 33bb
00000060: bcf7 6e39 ad2f 99bc 0000 0000 0000 0000
00000070: b022 b7bc 0000 0000 4731 04bd 0399 83ba
00000080: d5a2 0abc 0000 0000 b7b2 50bb ca1c ed3c
00000090: a605 473c 0000 0000 0000 0000 a2b0 4bbc
000000a0: 0000 0000 077c aa3a bc3a 04bc c374 05bc
000000b0: 3625 66bc 2459 113c 75ab 50b9 074c 60bc
000000c0: 4b75 b53b 52b3 e0bc 2b77 003c e590 0cba
000000d0: 7637 7f3b 2b11 b1bc 0000 0000 87d5 383c
000000e0: 0000 0000 ad16 66bc 0000 0000 0000 0000
000000f0: 0000 0000 7360 5dbb c9c5 babc 0000 0000
0.0 0.0 0.0 0.0005094223 0.00087159465 0.0 0.0 -0.003345363
-0.004344876 -0.015194922 -0.010949785 -0.0034070383 -0.02328001 -0.021181406 0.0 0.009910827
-0.018620417 0.009702538 -0.010803424 -0.013793922 -0.017372094 -0.010779386 -0.008646114 -0.00273631
0.00022789737 -0.018699491 0.0 0.0 -0.022355407 0.0 -0.032273557 -0.0010040108
-0.008461674 0.0 -0.0031844804 0.028944392 0.012147343 0.0 0.0 -0.012432249
0.0 0.0013006934 -0.008070644 -0.008145514 -0.014046958 0.00887135 -0.00019900299 -0.013690001
0.005537664 -0.027429257 0.007840912 -0.0005362167 0.003894297 -0.021614632 0.0 0.011281378
0.0 -0.014043492 0.0 0.0 0.0 -0.0033779412 -0.02279939 0.0

gcn_branch.gcn_layers.0.lin.weight f4 [64, 36]
00000000: 3792 593e 0ae9 f0bd 4e77 5cbe 6766 0f3e
00000010: 0bda 793e ccb9 3ebd 2090 23be 74b4 87bd
00000020: bebf d83d 283a 4fbd 1908 583e 13aa 2c3e
00000030: beee 2abe 2ca0 afbd 8278 25be bed6 15be
00000040: 7018 41be bccc 1dbd 687d 2abd 4eac 16be
00000050: e407 90bd f022 2cbe 8675 22be 2405 6fbd
00000060: 3885 ec3c d2e7 aabd 0794 72be 7b7d 673e
00000070: 9fe0 2fbe 0ba0 20be d8d9 85bc 8028 f5bd
00000080: 8c30 02be 2418 efbd fc33 643d dafb 73be
00000090: da46 e13d a479 b2bd e0f8 27be f3f1 323e
000000a0: 8ee7 61be f2e8 e4bd 52fd 02be f8dd fe3c
000000b0: e06a 42be d4b3 04be 376d 1c3e adc2 263e
000000c0: 0081 9cbd f4be 243d 4f07 713e eb8b 003e
000000d0: 8120 53be c07f 1b3b 6f1c 473e 0107 4fbe
000000e0: 3fc8 5cbe 7e65 853d cfce 013e 4916 123e
000000f0: 8874 40be d614 23be 8444 26be 20ac 53be
00000100: 40f0 c2bc a4f8 023d 4564 703e 38ba 95bc
00000110: 847e 353d 42c6 65be c678 813d e4f9 dabd
00000120: 34f7 76bd fd32 593e 62a1 01be 5c16 333d
00000130: 506f 28bd a0c7 49be ed63 71be 38cb e63c
00000140: c463 39be 70cd 38bd 4217 843d 53f7 3a3e
00000150: 609d 2ebc 6894 8e3c ead8 973d 94dd f4bd
00000160: 9007 443c 74f4 60bd 0ee7 71be 1376 fcbd
00000170: 4fe2 4b3e 6dfc 5fbe 64b2 fbbd 3a8a cc3d
00000180: e0ba 9ebb d6cc 973d 0a35 fbbd 5024 04be
00000190: dfd2 533e 426e f23d 281c 6dbd f480 1a3d
000001a0: 5636 873d 4836 c03c 1aef 8d3d 59e9 3e3e
000001b0: 0f67 b6bd ba7c 1e3e 5153 5abe 46fe 3bbe
000001c0: 2720 913d b5f9 5fbe 0538 213d a583 6abe
000001d0: 087c 6a3e 7e75 943d 5b85 07be 709a fcbd
000001e0: 33ce 6b3e d0df 63bc f413 a2bd b0b5 b4bc
000001f0: a061 41be 92a5 d93d d7be 213e 048e 1e3d
00000200: 6498 8ebd 33f6 52be e885 68be bea2 863e
00000210: b13b 39bd f44b 0abe 7828 003e 76c8 14be
00000220: f4f3 223e 3d13 58bd 18c0 55be 58ea 01bd
00000230: f2b2 0bbe a884 9dbc 5e37 c43d 97cf 19bd
00000240: fa32 c83d 57dd 7bbe 47fe 23be d17c fdbc
00000250: ad63 cbbb bba8 3d3e dde8 14bc 7868 20bd
00000260: 4524 49be 7705 643e b86f a2bd a49a 35be
00000270: 90ff 66bc 3705 073e e13d 3e3e 08f7 da3c
00000280: ba2d 99bd 4cf0 94bd 9206 06be 2d1f 0fbe
00000290: 1b4c 0b3e e96c 1abd b4fc 3bbe c8ac 2c3e
000002a0: 7fd4 21be 5ff8 293e d15e ed3d c0a8 703d
000002b0: 9bb6 523d 6b04 293d 7f48 fe3d 94dd 663d
000002c0: ce06 0cbe 1da6 05be 9fd7 a63d e041 d03d
000002d0: 6090 a23b 7406 dfbd 8605 c73d 60f3 a8bb
000002e0: e4d3 11be af55 073e 9403 05be b078 223c
000002f0: c0ad 9dbd 5d65 5c3e 8f95 093e e0c7 5ebe
00000300: 972c 533e a6b4 c03d cc51 c7bd dbe9 013e
00000310: ece7 2fbe 2ec9 dc3d b379 0d3e 9c45 12be
00000320: c4cf 0abe 98f7 c23c c0e5 11be 7bd6 6b3e
00000330: b8f5 24bd 60c1 a0bb 3ab1 36be 2a7c 79be
00000340: 7d30 013e c149 773e 95ec 5d3e e249 d13d
00000350: 1c55 c3bd 38ab 10be 1997 3b3e 73fd 73be
00000360: f23f 2abe e4a5 49be 296c 60be a898 eabc
00000370: 6c73 7abe 425e 2ebe c112 10be 3852 f3bc
00000380: d51d 0d3e 78af fb3c ba90 ad3d d9b5 07be
00000390: 4336 503e 00da 9439 2f5b 2e3e d549 6bbe
000003a0: 118c 2bbe 78cd 1cbd e1b5 1f3e 1883 b23c
000003b0: f36c 633e 8fc6 713e bf95 0d3e f4f0 5cbe
000003c0: c06a 74be 270d 783e 9ab2 d43d cbec 393e
000003d0: fcd7 653d f0f2 1abc f344 643e 48b9 c03c
000003e0: 4d84 603e 025e b8bd 083e e8bd 6c57 49bd
000003f0: 0c4d a2bd e3ae 0f3e 4507 2a3e 4021 803c
0.21247183 -0.11763199 -0.21529886 0.14003907 0.24399583 -0.04656391 -0.15972948 -0.066262156
0.10583447 -0.05059257 0.21096839 0.16861753 -0.16692635 -0.08575472 -0.16159251 -0.14632699
-0.18856978 -0.038525328 -0.041623503 -0.14714167 -0.07032755 -0.16810203 -0.15865144 -0.05835451
0.028872117 -0.083449975 -0.2368928 0.22606461 -0.1717553 -0.15686052 -0.016339228 -0.119706154
-0.12713832 -0.11674526 0.05571364 -0.23826542 0.10999842 -0.08714607 -0.16403532 0.17475109
-0.22060987 -0.11177243 -0.12791947 0.031111702 -0.18986082 -0.12959224 0.15276037 0.162852
-0.07641792 0.04022117 0.23537944 0.12553374 -0.20617868 0.0023727268 0.1944444 -0.20217516
-0.21560763 0.06513499 0.12676547 0.14266314 -0.18794453 -0.15925917 -0.16237074 -0.20671129
-0.0237962 0.031975403 0.2347575 -0.018277273 0.044310108 -0.2243891 0.06321864 -0.10692194
-0.060294345 0.21210857 -0.12659219 0.043722495 -0.04112178 -0.19705057 -0.23573275 0.028173074
-0.18104464 -0.045117795 0.064497486 0.18258409 -0.010657638 0.01740475 0.0741442 -0.11956325
0.011964694 -0.05492063 -0.23623297 -0.12327208 0.19910549 -0.21873637 -0.12289885 0.09987302
-0.0048440546 0.07412116 -0.12265976 -0.12904477 0.2068591 0.11837436 -0.05788818 0.037720636
0.06602161 0.023463383 0.06930371 0.18643703 -0.089063756 0.15477267 -0.21320845 -0.18358716
0.07086211 -0.218726 0.039360065 -0.22901781 0.22898877 0.07248972 -0.13234465 -0.12334144
0.23027878 -0.0139083415 -0.07913962 -0.022059292 -0.18884897 0.10627283 0.15795456 0.038709655
-0.0696266 -0.2060173 -0.22707331 0.26296037 -0.04522294 -0.13505536 0.12515438 -0.14529595
0.15913373 -0.052752722 -0.20874059 -0.03171763 -0.13642481 -0.019228294 0.09580873 -0.03755149
0.09775348 -0.24596153 -0.16014968 -0.030943306 -0.0062069506 0.18521397 -0.009088722 -0.03916213
-0.19642742 0.2226771 -0.07931465 -0.17734772 -0.014099017 0.13185583 0.18578292 0.026729122
-0.07479425 -0.072723955 -0.13088444 -0.13976736 0.1360325 -0.03770152 -0.18358117 0.16862786
-0.15803717 0.16598652 0.115903504 0.058754683 0.051443677 0.04126398 0.12416171 0.056363657
-0.13674471 -0.13051648 0.08146595 0.10168815 0.0049610585 -0.10889903 0.097178504 -0.0051559657
-0.14240986 0.1321628 -0.12989646 0.009916469 -0.07699156 0.21523042 0.13435958 -0.21755934
0.20622478 0.09409456 -0.097323984 0.12686865 -0.17178315 0.107805595 0.13815956 -0.14284366
-0.13555819 0.023799703 -0.14247799 0.23031037 -0.0402734 -0.0049058646 -0.17841044 -0.24363771
0.12616153 0.24149229 0.2167228 0.1021917 -0.09537718 -0.14127815 0.18319358 -0.23827152
-0.16625956 -0.19692189 -0.2191626 -0.028637245 -0.24458092 -0.17028144 -0.14069654 -0.02970229
0.13780911 0.030723318 0.0847487 -0.13252963 0.20333199 0.00028391182 0.17026971 -0.22977383
-0.1675265 -0.038281888 0.15596725 0.021791026 0.2220953 0.236109 0.13826655 -0.21576291
-0.23868847 0.24223767 0.10385628 0.18156736 0.056114182 -0.009457335 0.22291927 0.023525849
0.21925469 -0.090023056 -0.113399565 -0.049155638 -0.07924852 0.14031558 0.16604336 0.015640855

gcn_branch.gcn_layers.1.bias f4 [128]
00000000: db5e e7bb afbc 3cbc 9d72 73bc 3c31 0c3b
00000010: a3b4 04bc 821b a6bb bc8e c73b bac4 2cbc
00000020: c4e7 41bc 0fb5 1abc 28a5 1d3b dc06 3fbc
00000030: e5d5 ffbb 64af 5cbc 47b0 27bc 8f1e 4fbc
00000040: f0ad 9bbb e17b 8f3b 7a53 babb 3a62 4ebc
00000050: 834e 1dbb 8079 e83a 65a0 dcbc a1bc eebb
00000060: e9ce 6dbc a095 9cbb 8354 88bc 6eee 34bc
00000070: 1d09 1abc 4cf8 ddba b9cf 96bb a55f 1b3a
00000080: 9ce4 fbbc e19e 1cba d99a 3bbc 24f9 f1bb
00000090: 01db 47bc f6aa 8abb 03b3 b83b 3fa4 8bbb
000000a0: ead1 0dbc a855 12bc 1458 f3bb fb9d 9abc
000000b0: 107d e8bb aedb 51bc ee88 a4bb 5852 cbba
000000c0: 7378 273b 3ed6 2bbc d117 123b 08dc ad3b
000000d0: 1ab4 06bc eaf2 10ba 4594 66bc c752 96bb
000000e0: 1bc0 34bc 8bbb 1ebc d9d6 403b fa80 7b3a
000000f0: 8a73 b83b 884e a1bb 2a86 89bc 4400 4abc
00000100: 8a03 efbb 1c96 aaba 3fa7 27bc 488c 4abc
00000110: 6f18 ddbb b486 ea3a a8e5 15bc 884a a1bb
00000120: 8dd4 e4bb cfed f33a b92c 57bc 198d 1ebc
00000130: 9ef3 13bb b37c e1bb 2a6c 933b da63 8a3b
00000140: e95c a9bb 37e7 94bb 5543 74bb 240a 29bc
00000150: f707 8cbb b361 5abc 0337 cfbb 10fe aebc
00000160: 0a72 f0bb 9ef9 12bc a13c 40bb fae3 4fbc
00000170: b4d5 1ebc 17d5 a3bb 65b0 95bc 7cff 39bc
00000180: a1f9 79bb a6af debc 0c8a 5ebb 7a23 47ba
00000190: 26d5 913b 10c0 8d3b fb0b fc3b 53e5 e4bb
000001a0: dae1 4cbc f2ed dfbb 6929 ecbb 96b1 85bc
000001b0: 5d98 84bb e07b 833c d1bc 96bb 980a 6fbc
000001c0: dbdc 3ebc a997 bdbb 474c 30bc 4edb 59bc
000001d0: b601 4fbc 4a82 38bb 0d56 d2bc 4f53 983a
000001e0: 9a19 9fbb a5bc 29bc 69ab a0bc cfa6 b1bb
000001f0: 9344 c3bc 0708 03bc a5c5 07bc 5319 92bb
-0.007060868 -0.011519595 -0.014858869 0.002139165 -0.008099708 -0.005069197 0.0060900133 -0.01054495
-0.011835042 -0.009442582 0.002405474 -0.01165935 -0.0078074806 -0.013469551 -0.010234899 -0.012641563
-0.0047509596 0.004378781 -0.0056862207 -0.012596661 -0.0024003095 0.0017736405 -0.02693195 -0.00728567
-0.014514663 -0.004778579 -0.01664186 -0.011043174 -0.009401587 -0.001693496 -0.004602399 0.0005927033
-0.030748658 -0.00059746025 -0.011450493 -0.007384436 -0.012198211 -0.004231806 0.0056365742 -0.004261523
-0.008656004 -0.008931555 -0.007426271 -0.01887416 -0.0070949867 -0.012808723 -0.005021206 -0.0015512211
0.002555397 -0.010488091 0.0022292028 0.005305771 -0.0082216505 -0.0005529361 -0.014073436 -0.0045875045
-0.01103213 -0.009688268 0.0029424934 0.0009594109 0.0056290077 -0.0049226917 -0.016787607 -0.012329165
-0.007294123 -0.0013014707 -0.010232746 -0.012362547 -0.0067472975 0.0017892928 -0.009148993 -0.004922215
-0.006983346 0.0018610301 -0.013133221 -0.009677195 -0.0022575627 -0.0068813204 0.004498978 0.004223329
-0.0051685465 -0.0045441645 -0.0037271578 -0.010317359 -0.0042734104 -0.013328957 -0.0063236966 -0.02136138
-0.0073378133 -0.008970646 -0.0029333013 -0.012688631 -0.0096945055 -0.0049997675 -0.018272588 -0.011352416
-0.0038143175 -0.027183365 -0.0033956794 -0.0007596534 0.004450458 0.004325874 0.007691858 -0.0069853454
-0.012505019 -0.006833785 -0.007207085 -0.016320031 -0.0040464834 0.01605028 -0.0046001454 -0.014589928
-0.011649336 -0.0057859016 -0.010760373 -0.013296915 -0.012634685 -0.002815383 -0.025675798 0.0011621508
-0.004855347 -0.010359918 -0.019612985 -0.0054214965 -0.02383641 -0.007997519 -0.008286868 -0.0044585853

gcn_branch.gcn_layers.1.lin.weight f4 [128, 64]
00000000: 9946 98bd f1b8 1bbd 8be5 babd b6af 3e3d
00000010: 54da adbd 7b59 81bd 4198 213e 76d8 78bd
00000020: b94b 6e3d 788c 1a3d d0ed a6bd d25d 873d
00000030: 9a06 103e cec5 43be 18bb 2e3e b8d7 033d
00000040: 0af6 45bd 32c1 233e 5ee8 23bd e6c4 f23d
00000050: 5fea bbbd b81e 0ebd 24bc 19be e90b ae3d
00000060: d65a 873d 52b2 c93d 0bed e93c d2fb 8c3c
00000070: bd7c f83d c159 133d aeea 29bd 1eaa 28be
00000080: 03c4 d83d c6c5 d5bc 2c88 eabd 61e8 cc3d
00000090: dd46 8fbd a851 3e3e 2f15 183e a7cd 9bbd
000000a0: cb85 d3bd df8b b23d c33d 7c3d d936 07be
000000b0: 0f54 3cbc 1589 dbbc 7fff 473d 20a4 2e3e
000000c0: 9824 dd3d 4f2b 413c 79c3 013e c116 08be
000000d0: f4c6 4dbd c9eb f73a c446 95bb 5b97 f5bd
000000e0: 289d fcbd 0e7b 333b aa33 fb3d f5dc ba3c
000000f0: f89d 3b3e c88c b4bc 96ee 90bc a618 a33d
00000100: b4d4 ab3d 8bca 933d 11d8 6bbd 3b42 9b3c
00000110: de7e faba c148 6a3d d9bb 3abe 937f 443d
00000120: 369f 1c3e ef7a f7bd f051 84bd 4351 febc
00000130: fa0d d2bd ffe5 0d3e 7906 10be aa40 963d
00000140: bebf 80bb f215 98bb 692c 71bc 8ae6 30be
00000150: e037 0fbe 56a3 75bc ba0a f23d 5893 1f3e
00000160: 93e5 ccbd 1489 1c3d 51be 033e 81e8 3f3c
00000170: 2b20 d3bc a289 d73c 4565 e3bd 3eb8 1fbe
00000180: 0468 76bd 1c68 0bbe 794e 0b3d feaf 123e
00000190: d7be 123e 1dd3 dcbd e160 fcbd 8c43 99bb
000001a0: 5ccc 8a3d 1da6 17bd cfe3 ffbd 46d2 b4bd
000001b0: 6471 e03d e12a c33a 2757 303c 502a 1d3e
000001c0: eb8b c83d a849 263e ce2a adbd 5d3d 35be
000001d0: 8895 36bc 5caa 30bd 6c87 ec3d ef9a fa3c
000001e0: 6d16 56bd 3a9b 113e 9f0e 8c3d 092e e93d
000001f0: 51c1 ff3c fa10 eb3d e9fe 22be 7527 acbc
00000200: c4fb 81bd 3ca5 233e 557c a73c c663 083d
00000210: 8a10 10be ca7d eebc 1016 063e cdd1 7e3d
00000220: 6718 d83d 713b e2bb c35c 953d 1032 f33c
00000230: a4a5 603d 3dc2 3c3c 868d d2bb 33ec 92bc
00000240: 2dac ccbd 31dc 183e 6b61 2fbd 70f4 143e
00000250: 7b9b f63d 802e 8a3d 8235 56bc ba6e 9d3c
00000260: d0d9 113e 4fa3 163e b0d5 10bd 8a66 0ebe
00000270: 81a1 903d fd71 053d 9ea6 063e c0d8 22be
00000280: c638 593b 4b90 e53d 9fee cebc b98c 383d
00000290: c0ab c33d 3c66 653d ea32 1a3e eb36 97bd
000002a0: 0263 7cbc 08fd 303d 758f d43d 7201 01be
000002b0: c86c 38bd 0a78 903d 46d5 4f3d 9933 953d
000002c0: fef7 0b3e 8128 0a3e 73a9 93bd 052c c5bd
000002d0: e6e3 dc3d 6b87 4ebd 5ab8 2abd 5946 bd3d
000002e0: abe7 2d3c 4630 1c3e 38be c73d 8ef2 96bd
000002f0: c379 6c3d c870 393e 5ebf 0c3d ae5a 7abd
00000300: 3dff de3c bc76 843d bec0 dc3d 3116 bbbd
00000310: 626c 433d 7163 e73d aedc c93c 8292 073d
00000320: a846 ee3d bd3c ac3d fb4f 23be 3b5d 2e3c
00000330: 2fc9 983d fa40 0dbe 7957 323e 6b64 2f3e
00000340: c4f9 bcbc b358 563d 89ef 8fbd 8f2c d7bd
00000350: 9aaa f4bc a0f1 3abc a4ec 02be 1eb4 423d
00000360: a903 29bd 35fa af3d 3a3c 1fbe f169 c3bd
00000370: 2dea e5bd bfda 0f3e 8dc1 83bd 0d82 283e
00000380: 226a 23be 0d85 263e fd81 cf3d ec15 2abc
00000390: 9ebf 9b3a becd 06be 4876 e13d e7b7 5d3d
000003a0: 8052 bebd 96cc 2b3e 3d8e 8a3d 4115 203c
000003b0: 2e05 f33c ca43 59bc a8cc d4bd e85b 23be
000003c0: 751b 413d 9b9c dcbd fce0 8b3d b656 803b
000003d0: f83d 963d 3794 edbc 3f11 3c3d c9f8 e93d
000003e0: 3a24 d33d 4da3 77bd d02c d5bd 376b 463e
000003f0: fa09 943d dab0 383e 7c3d 39be 6954 1cbe
-0.074353404 -0.03801817 -0.09125813 0.04655429 -0.084889084 -0.06315895 0.15780737 -0.06075331
0.058177684 0.037731618 -0.08150828 0.06609692 0.14065018 -0.19118425 0.17063558 0.032188147
-0.048330344 0.15991667 -0.040016524 0.11853962 -0.09175562 -0.034697264 -0.15013176 0.084983654
0.066091225 0.09848465 0.028555414 0.017209921 0.12133167 0.035974268 -0.041483574 -0.16471145
0.10584261 -0.026095282 -0.11451754 0.1000526 -0.06995938 0.18585837 0.14851831 -0.076075844
-0.10328253 0.087180845 0.061582338 -0.13204516 -0.0114946505 -0.026798764 0.048827644 0.17054796
0.10797995 0.011790111 0.12672223 -0.1328993 -0.050238565 0.0018914874 -0.004555555 -0.119917594
-0.12334663 0.0027386579 0.122657135 0.022810439 0.18321979 -0.022039786 -0.017691892 0.07963686
0.08390179 0.072163664 -0.057579104 0.01895248 -0.0019111296 0.05719829 -0.1823572 0.047973227
0.15295109 -0.120839946 -0.06460941 -0.031044608 -0.10256572 0.13857268 -0.14064969 0.073365524
-0.0039291074 -0.004641288 -0.014720061 -0.17275444 -0.13986158 -0.014992556 0.11818452 0.15583551
-0.10004725 0.038216665 0.12865569 0.011713148 -0.025772175 0.026310746 -0.111033 -0.15597627
-0.06015779 -0.13613933 0.034010384 0.14324948 0.14330612 -0.10782454 -0.12323166 -0.0046772417
0.0677726 -0.037023652 -0.12494623 -0.08829169 0.109591275 0.0014890098 0.010762966 0.15348172
0.09792312 0.16239035 -0.0845543 -0.1769919 -0.011144049 -0.043131217 0.11549267 0.030591456
-0.05226748 0.1421937 0.06838726 0.11385734 0.03122011 0.114778474 -0.15917553 -0.021014908
-0.063468486 0.15981 0.020445028 0.033298276 -0.14068809 -0.029112715 0.13094354 0.0622118
0.105515294 -0.0069040586 0.072930835 0.029686958 0.054845467 0.011520919 -0.0064255623 -0.017934894
-0.099937774 0.14927746 -0.042817514 0.1454637 0.12041374 0.067471504 -0.013074281 0.019217838
0.14243245 0.14710735 -0.03536004 -0.13906303 0.070620544 0.03257941 0.13149497 -0.15902996
0.0033145412 0.11209162 -0.025260268 0.04505608 0.09554243 0.0560057 0.15058485 -0.07383522
-0.015404465 0.04321006 0.10378925 -0.12598208 -0.045025617 0.07054146 0.050740503 0.07285232
0.1366882 0.13492014 -0.07210054 -0.09627537 0.10785656 -0.050422113 -0.041679718 0.092419334
0.010614316 0.1525279 0.09753078 -0.073704824 0.05773331 0.18109429 0.03436219 -0.061121635
0.027221316 0.06467959 0.1077895 -0.09135092 0.047710784 0.11298264 0.024641361 0.033098705
0.1163457 0.084100224 -0.15948479 0.010642345 0.07460248 -0.13794318 0.1741618 0.1712815
-0.023068316 0.052330684 -0.070281096 -0.10506546 -0.029866505 -0.011410147 -0.12785584 0.047535054
-0.041263256 0.08592645 -0.15550318 -0.09541691 -0.11226306 0.14048289 -0.06433401 0.1645586
-0.15958455 0.16261692 0.10132215 -0.010381203 0.0011882668 -0.13164422 0.110088885 0.05413046
-0.092930794 0.16777262 0.06765411 0.009770692 0.029665556 -0.013260791 -0.103905976 -0.15953028
0.047145326 -0.107720576 0.06830022 0.0039165867 0.07336038 -0.029001338 0.045914885 0.11424405
0.10309644 -0.06045847 -0.10408938 0.19376837 0.072284654 0.18036214 -0.1808986 -0.15266575

gcn_branch.gat_layers.0.att_src f4 [1, 4, 16]
00000000: 2315 00bf 242e aebc 8714 e73e f050 bf3e
00000010: 4d43 943e 25c5 81be 501d 08bf 8454 dfbe
00000020: 50e8 f2be 244f 83be 47fd 6ebe c455 c3bd
00000030: 5c00 a7be bcd0 073f 21a7 cbbe 28a4 e53e
00000040: 057b 773c aa83 b6be 2583 bebe a365 253e
00000050: 2be2 90be bc1d 433e 395b d83e 368c 84be
00000060: 2b45 f13d 5a23 163e 08f3 36be d03e 0cbe
00000070: 6e9a d4be afe3 ce3c 238e 763e 7fda 013f
00000080: 53e8 34be a030 5fbe 730f d6be 3587 d2be
00000090: 6992 c5be 7784 04bf dfd7 293e c980 053f
000000a0: ef9e 89be b7e2 553c 4d42 0abe b4f4 293e
000000b0: 24e0 ebbe 66c0 efbd 3d31 79be 3413 fcbe
000000c0: 3b6e e23d 52ed 9f3d 4422 173e 0fe8 41bd
000000d0: c1b0 6bbe bd44 c73d e5d9 0bbf 0066 50be
000000e0: 23ef e33e 7c3b 4b3c 8c80 8b3e cae2 afbd
000000f0: f8d3 353e b149 e9be e62e ed3d f4c5 19bd
-0.5003225 -0.021262236 0.4513285 0.37366438 0.28957596 -0.25345722 -0.5316973 -0.43619168
-0.47442865 -0.25646317 -0.23338805 -0.09537843 -0.32617462 0.5305288 -0.39775947 0.44851804
0.015105014 -0.35647327 -0.3720943 0.16152053 -0.28297552 0.19054312 0.42257097 -0.25888222
0.11780771 0.14661923 -0.17866147 -0.13695836 -0.4152407 0.025255052 0.24077658 0.50724024
-0.1766675 -0.21795893 -0.41808662 -0.4111878 -0.38588265 -0.51764625 0.16586255 0.52149636
-0.2687907 0.013054541 -0.13501854 0.16597253 -0.46069443 -0.11706619 -0.24335189 -0.492334
0.11056181 0.07808937 0.14759165 -0.04734045 -0.23016645 0.09729908 -0.54629356 -0.2035141
0.44518384 0.012404319 0.2724651 -0.085881785 0.17756641 -0.45564035 0.11581211 -0.0375423

gcn_branch.gat_layers.0.att_dst f4 [1, 4, 16]
00000000: a3f4 c2be 10eb 52bd 8d30 593e 1172 0e3e
00000010: 3ede b2be 3f53 4f3c 9bd2 7d3e 52ab 8f3c
00000020: 5ea4 6c3e 2a24 9dbe 72bc a3be d0d9 7b3e
00000030: 7bd3 c83d df7f 5c3c 55a6 c9be 105c 0f3f
00000040: 0d11 84be 1689 453d 5c2c 713e 40d6 40be
00000050: 4717 02bf a062 9abe 866f 0a3f ac04 663d
00000060: e397 be3e aa5f 1bbe 5204 85bd a46e aabe
00000070: faf5 e13e 6a98 14bf 2d33 08bf ecf3 e03e
00000080: 40fa 9dbe c7df 09bf 58da 95be 49af 81bd
00000090: 9254 893d 78b9 e13d 88b4 d7be dfaf 093f
000000a0: dc57 f1be 1973 9c3e 069c 22be ff78 bfbe
000000b0: e82f debe e0e3 99be 9ad5 b93e 726c e4be
000000c0: d222 ba3e 9e6c 98bc c782 fdbe 6863 0d3e
000000d0: 79af 883c 7e07 78be d5eb f5be 4510 c43e
000000e0: c1b8 cabe 2fe6 e3be b3d3 203d 1c1d d63e
000000f0: 4dfb 1c3e 3ad4 013f 9a8c 9ebe 54a8 01bf
-0.38077268 -0.051493704 0.21209927 0.139107 -0.34935182 0.012654125 0.24787371 0.017537747
0.23109576 -0.30691653 -0.3197971 0.24594808 0.09805962 0.013458221 -0.39384714 0.5599985
-0.2579426 0.04822644 0.23552078 -0.1883173 -0.5081677 -0.3015337 0.5407642 0.0561568
0.37225255 -0.15173212 -0.06494965 -0.33287537 0.44132978 -0.58045065 -0.5320309 0.43936098
-0.30854988 -0.5385708 -0.29268146 -0.06332261 0.06705584 0.110217035 -0.42129922 0.53783983
-0.47137344 0.30556563 -0.1587983 -0.37397 -0.43395925 -0.30056667 0.36295778 -0.44613987
0.3635469 -0.01860648 -0.49513838 0.13807452 0.016685234 -0.24221608 -0.48031488 0.38293663
-0.3959408 -0.44511554 0.039264392 0.41819084 0.15330239 0.5071446 -0.30966645 -0.50647473

gcn_branch.gat_layers.0.bias f4 [64]
00000000: fb2c d93b 4054 b2bc c831 e6bb 67da 06bc
00000010: 04ad 5c3c 815f 1bbc e77a fcbb 8614 e9b9
00000020: b2b1 bc3b 60e8 87bb ef7c 9bbc 3041 f4bb
00000030: cc58 c3bc 6db8 4ebb 52a2 b9bc 5413 b43a
00000040: 3923 0cbc 6bf9 8d3b 275a 91bc 8648 a2bc
00000050: 43d1 3abc c0cb 3cbc b935 f2bb e867 dbbc
00000060: 78ac 88bc 44d0 8cbc 13eb 9dbc 4e9d bd3b
00000070: 690f 6ebc 872a 8b3c 3a36 c0bc a184 62bc
00000080: 6fb5 f1bb 8695 08bc de66 93ba 0926 433b
00000090: 285f d1ba d4c3 f8b9 e40b 02bc eb99 0bbc
000000a0: 2b33 e33b 9922 e63b d10c e1bb 90a7 b8b7
000000b0: 4b17 91bc d098 ac3b 85d6 9cbc 6003 8cbb
000000c0: e3f7 ac3c 4203 f0bb 2f2c 8cba dc46 8cbb
000000d0: 247b 8239 59f3 83bc 9643 2bbc abac 973b
000000e0: 2ac1 0e3c 8495 68bc 781b 973b 917e 27bb
000000f0: 301e 963b 7637 1c3c e6e3 22bb b11e 8b3c
0.0066276765 -0.02176869 -0.0070249774 -0.008230782 0.0134689845 -0.009483219 -0.007705081 -0.00044456514
0.0057584876 -0.0041475743 -0.018980471 -0.00745406 -0.023846053 -0.0031543032 -0.022660408 0.001373867
-0.00855332 0.0043327115 -0.017743183 -0.019809972 -0.011402431 -0.011523187 -0.007391658 -0.026782945
-0.016683802 -0.017189153 -0.019277131 0.0057865744 -0.014530041 0.016988052 -0.023463357 -0.0138255665
-0.007376365 -0.00833643 -0.0011245867 0.002977731 -0.0015973793 -0.0004744815 -0.007937405 -0.008520584
0.00693359 0.0070231673 -0.006867983 -2.2012537e-05 -0.017711302 0.00526724 -0.01914526 -0.0042728633
0.021114295 -0.007324607 -0.001069432 -0.004280908 0.0002488728 -0.016107248 -0.010453125 0.004628738
0.008713046 -0.014195804 0.004611429 -0.0025557617 0.0045812353 0.009534707 -0.0024855076 0.016982408

gcn_branch.gat_layers.0.lin.weight f4 [64, 64]
00000000: 53c7 54be b64a 9c3d 4476 2b3d ecf9 85bd
00000010: 4e2a 23bd 68cd 19be 56ca 00be 9f22 473e
00000020: 5b5c 1a3e 4996 673c 8a26 14bd d0b0 a83d
00000030: 5bd8 e9bd d242 dcbd 9af6 c63d 5101 16be
00000040: 6b37 5f3d 2d14 763e e0df c63a 48ac 9e3d
00000050: cb43 88bd e554 b3bc c862 5d3d 51b4 083e
00000060: 8346 493e f3c8 c73d da57 ed3d 6c02 d2bd
00000070: f421 fe3d b0f5 65bc a863 9fbd afbe 73bd
00000080: 1081 5fbe d840 88bc 22e9 5b3e 48c8 fdbd
00000090: 8e06 eebd 2729 373e 796f 483e 6cdb 5d3e
000000a0: a85c bebc 0a56 04be b82a 393b b1f5 9abd
000000b0: f3f1 3abe 984c 0e3d 3950 2e3e 8551 903c
000000c0: 2cc8 6dbd cfe9 b53c 5157 d8bd bbda 303e
000000d0: 76c3 7d3d d1a2 43be d2b8 e5bd c05b 3a3e
000000e0: f7f2 273e 9dea eb3d 0b33 343e 69f6 383e
000000f0: 90d5 acbc f81f 0d3e 65ad 0c3e 2080 ca3b
00000100: 8dc7 4c3e 2d2d 223e 78f0 2cbd cb34 6bbe
00000110: 81d7 0fbc 4edd a93d e156 e5bd a546 2fbe
00000120: 078d 78bc ab99 b33d 30c9 b5bc 6e6e fc3d
00000130: f744 5f3d aa44 2c3d b7ac 393e 1c1c 0fbe
00000140: f9d5 213e fd51 10be a57a 103d 59ce e33d
00000150: 3d7c 283e ed8f 153e f0fd 56bd 6c30 573d
00000160: 2e0c 66be dcbf 41be 1d8a 533e 9a6c df3d
00000170: e49b 433e 4071 7ebc 1593 ce3d 6fb0 d83c
00000180: f73e c93d f7c4 163e e4c2 2a3e 7f68 413e
00000190: f8dc 24be d672 98bd 1404 1abe 703b 023d
000001a0: d85c b9bc e6f6 b63c 61b1 b1bd 8bc5 81bd
000001b0: aa2e 0dbd 7bc1 3dbe af4f 13be 2e4e 2b3e
000001c0: b672 2d3e 31c6 983c 93b0 01bd fb5d 97bc
000001d0: 7d39 65be 0d50 1b3c d503 353e 1fb1 773e
000001e0: 5e64 db3d b7a7 943d 07d5 463e c213 ad3d
000001f0: c7b9 4c3e 813c 6c3d 552a 413e 32d3 c53d
00000200: fc5a 3bbe 6c06 5a3d 0da6 48be a5ff 1cbe
00000210: 9b99 cb3d 722d 57be ca4e fc3d d848 3a3d
00000220: 09f2 31be 49e2 f7bc 4c54 82bd f191 9a3d
00000230: c386 d63d 4661 213e 4e5b fd3d 2567 013e
00000240: a781 1d3d 5ccc 1dbd 8cf0 c73d 3704 2ebe
00000250: 7922 c6bd da34 8cbd c1f3 d9bd e43d 393e
00000260: 2d6e ab3d 1f13 8ebd 948d 5c3d f627 b0bd
00000270: 582d 31be 0318 4b3e a18b 17be ee27 d6bc
00000280: 4985 473e 3298 12be ed1d e43d 0660 693e
00000290: f3bf dcbd 285a 8c3c 3e3b adbd 914e 0e3e
000002a0: 5f6b 393e 2aff 463d c134 353e c5c3 a3bd
000002b0: e290 c63b e413 a9bd fee7 ebbd 6fa6 093e
000002c0: 5142 c73d 4a21 c5bd 898b 633d 490b a03d
000002d0: 37ad d83d ed5e 16be 41cc 403e ab7f 423e
000002e0: b4d3 42bd 0c7d 8d3c 7443 a8bd 92c7 a33d
000002f0: 7b9d 1a3e f5ab 33be 733e 393e 384c 52bd
00000300: 3042 1a3c 2cdf 6abd a470 58be a278 51be
00000310: 10ca 93bd 1667 be3d bcdf 753d 79be 1bbe
00000320: fc56 26bc fb11 fdbc aed3 5abd 5abc 413d
00000330: 040c 0bbd 474a b13d 9b23 223e a816 30be
00000340: 2d63 fbbd b6be 543e c208 0a3e 837a 3e3e
00000350: ebe4 083e 434b 17be 2295 513e ad62 48be
00000360: 314b 60be ee0a eebd b055 593c 2457 41bd
00000370: 3984 d8bd cda5 513e ec65 f73b 97af 623d
00000380: 80f8 78be b89a 95bc 1df9 30be 22f2 5abe
00000390: 4d33 8b3c b070 17be 6d2b eabd a55e 06be
000003a0: ae2a ecbd 4852 4cbe efc9 163e a4c3 81bd
000003b0: 5e16 d03c 91b4 f83d 0a5d aabd 3f16 403e
000003c0: 2602 893d 819c f9bd 59f5 55be 432d 2f3e
000003d0: 8007 d5bd e605 273e a529 013e 1068 ef3c
000003e0: 1927 e2bd f770 8dbc d359 3d3e d4e8 14be
000003f0: 08e4 0cbd 848f 103e fc65 9abc d3fd 5b3e
-0.20779161 0.076314375 0.041860834 -0.065418094 -0.039835267 -0.15019763 -0.12577185 0.194468
0.15074293 0.014134952 -0.036169566 0.08236849 -0.1141822 -0.107549325 0.09715004 -0.1464894
0.05449621 0.24031134 0.0015172921 0.07747704 -0.066535555 -0.021891067 0.054049283 0.13350035
0.19655804 0.09755125 0.11589022 -0.10254368 0.1240882 -0.014035627 -0.0778268 -0.059508022
-0.21826577 -0.016632482 0.21475652 -0.12391716 -0.11622344 0.17886792 0.19573773 0.21665734
-0.023237541 -0.12923446 0.0028254222 -0.07566393 -0.18256359 0.034741014 0.1702279 0.017616997
-0.058052227 0.022206215 -0.10563529 0.17270939 0.061953984 -0.19105078 -0.11216892 0.18199062
0.16401277 0.11519358 0.17597596 0.18062748 -0.021097928 0.13781726 0.1373802 0.0061798245
0.19997998 0.15837546 -0.042221516 -0.22969358 -0.0087794075 0.08294164 -0.111982115 -0.17116793
-0.015170342 0.08769544 -0.02219066 0.1232575 0.05450913 0.04205767 0.18132292 -0.13975567
0.1580428 -0.14093776 0.035273213 0.11123342 0.16453643 0.14605685 -0.052488267 0.052536413
-0.22465584 -0.18920845 0.20658155 0.10909386 0.19102436 -0.015529931 0.100866474 0.026451318
0.09826463 0.14723574 0.16675907 0.18887518 -0.16099918 -0.07443778 -0.15040618 0.031794965
-0.02262728 0.022334527 -0.086764105 -0.063365065 -0.03446833 -0.18530838 -0.14385866 0.16729042
0.1693829 0.018649193 -0.031662535 -0.01847743 -0.22385211 0.009479535 0.17677243 0.2418866
0.10712503 0.072585516 0.19417201 0.08451034 0.19992743 0.05767489 0.18863805 0.09659423
-0.18296427 0.05322878 -0.19594593 -0.15331896 0.09941407 -0.2101343 0.12319715 0.045479625
-0.17377485 -0.030259268 -0.063637346 0.07547367 0.104749225 0.15759763 0.123709306 0.12637003
0.038453724 -0.03852497 0.097626776 -0.16993795 -0.09674544 -0.06846018 -0.106421955 0.18090016
0.08370624 -0.06937241 0.053845957 -0.08601372 -0.17302454 0.19833378 -0.14799358 -0.026142087
0.19484438 -0.1431587 0.111385204 0.22790536 -0.10778799 0.017132834 -0.08458565 0.13897158
0.18107365 0.048583187 0.17695905 -0.079963244 0.006059752 -0.08255747 -0.115188584 0.13442396
0.09729446 -0.0962549 0.055552993 0.078146525 0.10579913 -0.14684649 0.18827917 0.18994014
-0.047565177 0.017271541 -0.08215991 0.079970494 0.15099137 -0.17546065 0.18090229 -0.05134222
0.009415194 -0.05734174 -0.21136719 -0.20456174 -0.07216275 0.09297006 0.060027823 -0.15209378
-0.010152575 -0.030892363 -0.05342453 0.047298767 -0.033947006 0.086567454 0.15833895 -0.17196143
-0.12274776 0.20775875 0.13479903 0.18601422 0.13368575 -0.14774804 0.20467046 -0.19568892
-0.21903683 -0.116231784 0.013265058 -0.047202244 -0.105720945 0.20473404 0.007549992 0.055343237
-0.24313545 -0.018262252 -0.17282529 -0.21381429 0.016992236 -0.1478908 -0.11434064 -0.13122042
-0.11531578 -0.19953263 0.14725469 -0.063361436 0.02540129 0.12143815 -0.08318527 0.18758486
0.06689863 -0.12188054 -0.20894374 0.1710711 -0.10401821 0.16310844 0.12613542 0.029224426
-0.110426135 -0.01726578 0.18491296 -0.14541942 -0.034397155 0.14117247 -0.018847458 0.21483545

gcn_branch.gat_layers.1.att_src f4 [1, 4, 32]
00000000: b7ff 62be 6c0f 0d3d 2a19 3d3e 07b6 fa3d
00000010: e170 a93e 4970 bcbe 5496 e9bd b762 ccbe
00000020: 8787 923e bd4d 7b3d ab02 f53d 7d58 59be
00000030: 2857 3dbe 36ac bc3e 7ef6 423d c686 dfbd
00000040: f336 27be a472 b3be 3884 d23e dfda cbbd
00000050: bc6f 8cbe ac06 57be f557 0c3e c99d 8e3e
00000060: df9c d1be 3b1e 8d3d 8898 9abe beaf db3d
00000070: e2b3 ba3d f5e8 a93e dba5 d83e 9afa 8f3e
00000080: d44a 8b3e 71a7 3cbe 6047 d03e 0e7c cd3e
00000090: 7b31 263e 1e54 b2be 787d 883e e2c2 853e
000000a0: 5a92 8a3e 1593 9f3e efb3 4d3e 1737 9d3e
000000b0: e5c7 32be 7798 51be 5a11 de3d 0c85 763d
000000c0: 570b 693e 57c6 31be d0ff 47be 78df abbe
000000d0: 64ce 8bbe 48c6 223d 62cb ee3c b1ce 543e
000000e0: 1022 cebc 6b16 9a3d 9a94 3cbe 8934 9dbe
000000f0: 3187 8abc ac47 01be b848 d3be 9615 75be
00000100: 564a fb3d 1a21 d0bd 8d09 a83e 840a f53d
00000110: d4cb bc3e 19b3 a4be 2231 ab3e 0ed2 983e
00000120: 9fe2 52be 19d2 c73e 2dad b03e a438 13be
00000130: 2c14 3ebd 7b8d 613d f1ba c1be fd85 293b
00000140: ee74 4fbe b9f0 94be 2c50 743d f377 97be
00000150: 452d 5fbd 69ff 673e 1975 50be 8070 dc3d
00000160: 2054 ca3e b954 89bd 14f2 a5bd cc9b 24bd
00000170: 28a7 94be 18d1 8d3e c411 b73e b236 923e
00000180: f890 8e3e 6e84 053e 0f8b a3bd e5bc 56be
00000190: 978f fe3d 2926 623d 262e 203e 1e91 563e
000001a0: 4349 9fbe 64e3 983b 9844 903c 46aa 2bbc
000001b0: 9de4 c9bd 5847 17bd 9033 923e f0d1 b53e
000001c0: 5115 0b3e 2bf8 203d 4feb 28bd eb6c 83be
000001d0: 9b9f 1fbe 35fc c43d 7a5c 2b3e ce1a 4fbe
000001e0: 5d0f 383e 1bc3 37be 7f63 123e db82 893d
000001f0: efc9 1dbd d419 3bbd aff9 8e3d 77de 00be
-0.2216786 0.034438536 0.1846663 0.1224175 0.33093932 -0.36804417 -0.11405626 -0.39919063
0.28619024 0.061353434 0.119633995 -0.21225162 -0.18490279 0.36850137 0.047598355 -0.10914378
-0.16329555 -0.350484 0.411165 -0.09953856 -0.27428997 -0.20998639 0.13705428 0.27854756
-0.40939996 0.06890532 -0.30194497 0.107268795 0.09116341 0.33185545 0.42314038 0.2812088
0.27205527 -0.18423249 0.40679455 0.4013371 0.16229813 -0.348298 0.26658225 0.26125246
0.27064782 0.31166902 0.2008817 0.30706093 -0.17459066 -0.20468317 0.10843153 0.060185477
0.22758232 -0.17360817 -0.19531178 -0.3356893 -0.273059 0.039739877 0.029149715 0.20781972
-0.025162727 0.07523807 -0.18416062 -0.30704144 -0.016910167 -0.12624997 -0.41266418 -0.23934016
0.12270038 -0.101625636 0.32819787 0.11964896 0.3687426 -0.3216789 0.33435923 0.2984776
-0.20594262 0.3902748 0.34507123 -0.14377075 -0.046405956 0.055066567 -0.37837937 0.0025867217
-0.20259449 -0.29089907 0.05964677 -0.29583701 -0.05448653 0.22656025 -0.20357169 0.10763645
0.39517307 -0.06705613 -0.08102813 -0.040187642 -0.2903378 0.27698588 0.35755742 0.28557354
0.27844977 0.13038799 -0.07985508 -0.20970495 0.12429731 0.055212174 0.15642604 0.20953795
-0.31110582 0.004665779 0.017610833 -0.010477608 -0.09858058 -0.036933273 0.28554964 0.35511732
0.1358235 0.03929917 -0.041240033 -0.25669035 -0.15588228 0.09618417 0.16734496 -0.20225069
0.1797461 -0.1794552 0.14295767 0.06714412 -0.038522657 -0.04567893 0.06981217 -0.12584864

gcn_branch.gat_layers.1.att_dst f4 [1, 4, 32]
00000000: 8c98 763e d31f 7dbd 2fcc 27be e8be 12be
00000010: d30e cebe fb71 9ebe 4390 b6be c218 c1be
00000020: 89aa 183e 0857 483e 7658 f9bc 5325 703e
00000030: dacd 78be 12b1 1c3e 8d45 81bd f4b4 c9bd
00000040: 3098 513e 65ae 503e 467f 9f3e 152d 8dbd
00000050: dace a03e fe1c c33d 53c8 aa3e 919f 4c3e
00000060: 3169 f73d 2712 8abe 1318 8bbe c814 45be
00000070: 1a79 883d 7802 8fbe eb3c 903e 0b28 b53e
00000080: 5936 c03d 245e bfbe 2155 be3e ca37 19bd
00000090: be4c 2bbe d333 003d 8abf a53e 9492 18bd
000000a0: 4842 30bd 93ed aabd c902 b23e 9b65 5bbc
000000b0: 0dd4 44be b286 913e 5ae1 b63e efb0 1f3e
000000c0: db47 87be 2811 c93e ab75 09be 781e 2abd
000000d0: ac4f a63e 2149 75be 8d19 063e 1b65 63bd
000000e0: 4c22 84be 0da6 b63e e231 8dbd 40fd 37bc
000000f0: 050c 18bd a8c4 16bc 9835 cfbe 1afe f7bd
00000100: b64d d73e fbcb cabb 612b 753e 23dd 5cbc
00000110: ee2a 203e f1f2 a23e 1b4d 2abe 2977 0cbe
00000120: a0c7 723e 8b19 88be c591 97bd e2a1 be3c
00000130: 5cfa 1ebe 691a 6b3d e6fd 3a3e 3052 a4be
00000140: 1f3e 83bc 353a 8cbd 2791 d53d 2c75 ad3d
00000150: 409d 743e 12d7 893e 9e86 c7be 5327 4c3d
00000160: 0407 67be ae05 0e3e 6166 d3be a5b6 933d
00000170: c363 53bd 0095 2d3e c85c 95bd 96aa 193e
00000180: a172 c73e dea2 913e 75a0 113e 3151 b2bd
00000190: c677 a3bd 59ad 39be 8973 ca3e 385d c53e
000001a0: 22d6 613e c0ce ccbe 1976 bebe 3531 943e
000001b0: 5eca 5cbe ddba 943d 1246 d6bc 87a5 163e
000001c0: 4ec2 22bd 2f03 963e b9e6 1bbc b970 113e
000001d0: cb9a 1abe b51a 14be fb38 643e 51b8 193d
000001e0: c3b2 a9be 7c3d b1be 269d b03e f799 95be
000001f0: d2c8 3ebd 8e8c 253d d98f 083e 0b70 bdbe
0.2408163 -0.061797928 -0.16386484 -0.14330637 -0.40245685 -0.30946335 -0.35656938 -0.377142
0.14908804 0.1956445 -0.03043769 0.23451738 -0.24297276 0.15301922 -0.06312094 -0.09848967
0.20468211 0.20379026 0.3115179 -0.06893364 0.31407815 0.09527014 0.3335596 0.19982745
0.120806105 -0.26966974 -0.27166805 -0.19246209 0.06663723 -0.2793157 0.28171477 0.35382113
0.09385366 -0.3737651 0.37174323 -0.03740672 -0.16728494 0.031299423 0.32372695 -0.037249163
-0.04303196 -0.08346095 0.3476775 -0.013390924 -0.19221516 0.28423077 0.35718805 0.15594839
-0.2642201 0.39270902 -0.13423793 -0.041532964 0.3248266 -0.23953678 0.13095684 -0.055516344
-0.25807416 0.35673562 -0.0689428 -0.011229813 -0.037120838 -0.00920216 -0.40470576 -0.12109013
0.42051476 -0.006188867 0.23942329 -0.0134804575 0.15641376 0.31825975 -0.16630976 -0.13717331
0.23708963 -0.26581988 -0.0740085 0.023270551 -0.15525192 0.057398234 0.18260917 -0.32093954
-0.016020833 -0.068470396 0.10428076 0.084696144 0.23888111 0.26921898 -0.38969892 0.04984219
-0.2256127 0.13869354 -0.41289046 0.07212571 -0.051608812 0.1695137 -0.07293087 0.1500648
0.38954642 0.2844457 0.14221366 -0.08706892 -0.07981829 -0.18132533 0.3954127 0.38547683
0.22054341 -0.40001488 -0.37199476 0.28943792 -0.21561572 0.07262204 -0.026156459 0.14711581
-0.039736085 0.29299304 -0.009515458 0.14203157 -0.15098111 -0.14463313 0.22287361 0.037529293
-0.33144197 -0.3461722 0.34494895 -0.29219028 -0.046578236 0.040417247 0.13336124 -0.36999545

gcn_branch.gat_layers.1.bias f4 [128]
00000000: 1e81 283c cff0 65bb af1c 013c 9423 2ebb
00000010: 9bb4 29bb 138c 9f3b bd37 ae3b a04c 80bb
00000020: 34ba e13b fbc9 3e3c de5b ac39 f01d 9c3b
00000030: d3d0 dd3b 56f0 66bc 3ecd ebbb 7fa0 483c
00000040: 85e2 7bbb 8f36 163c 60db 8f3b 95af d0bb
00000050: 0fe2 ef3b b8e9 0a3c 8004 2e3b a8a5 7e3a
00000060: 1ce3 b0bb 23ff 0b3b 936e 473b a207 14bc
00000070: 793a 69ba 4a91 42bb 3462 533c 0179 883c
00000080: 659e 8dbb bf86 ecba 8d30 433c d0ec 323c
00000090: 786c 2abb 94f6 97ba 6cfa 6abb 99a5 a93b
000000a0: 6153 dcbb f049 a63b bffe f03a 83c2 76bc
000000b0: a44b 21bb 4c48 c03b 3e3c 69ba 30f6 2ebb
000000c0: 56cd 82ba 56cf 2d3b d5ec 443b 518b 223c
000000d0: c6f3 223c 53e0 323c 1616 e2b8 9a54 043c
000000e0: b39d b73b e723 1d3c a4e0 3f3c d33a a2bb
000000f0: bd80 4c3b ef9c ca3b b7a4 d43a f332 c5bb
00000100: 6cad b83b 20e0 e6bb cc0a 3a3c 0fdf c1ba
00000110: 477a f53a 188d ca3b 08de 9c3b 3ca1 d8ba
00000120: 7c1d 1fbc c321 1dbb bf89 7ebb f507 3cbc
00000130: e454 3c3b 8d31 003c bd99 2fbc c72b d7bb
00000140: b31d 983b fa0f 363c 6673 d4bb 6a54 263c
00000150: 557b 033c 609c ae3b d97e dbbb 063a c1b8
00000160: 78c2 843c d0bb 8bba abd0 2e3c 8ac7 593b
00000170: e560 c3bb b240 ec3b f5c0 8c3b 5a0d 69bb
00000180: 86e4 7dba fd0e f539 5e75 313c bc87 e63b
00000190: 8612 653b a9b0 493c 8f35 8b3b 2ae5 2abb
000001a0: f610 0e3b 9b49 d7bb 74e3 6939 a558 1d3c
000001b0: 7225 44bb e169 01bc 3f20 8f3b 1943 dfbb
000001c0: 4d34 433c 50ee b93b 1060 ec3b add6 31ba
000001d0: 8c77 c73a bce3 e43a a1ec 5b3b ccee 72bb
000001e0: cb18 61ba 3f36 d93b eaa6 1fbc 5ecb ea3a
000001f0: 34aa a43c 4df4 8bbb 284c 70bb 842a 543c
0.01028469 -0.003508616 0.007880374 -0.00265715 -0.0025895003 0.004868993 0.005316703 -0.0039153844
0.006888652 0.011644836 0.00032874843 0.004764311 0.0067692786 -0.0140953865 -0.0071960976 0.0122452965
-0.0038434577 0.009168281 0.004390165 -0.0063685873 0.0073206495 0.008478574 0.0026552975 0.0009714016
-0.0053981673 0.002136179 0.0030430898 -0.009035023 -0.0008896958 -0.002968865 0.012901831 0.016659262
-0.0043218606 -0.0018045529 0.011913431 0.010920718 -0.0026004594 -0.0011593872 -0.003585483 0.0051772115
-0.0067238067 0.005074732 0.0018386467 -0.015061024 -0.0024611736 0.0058679935 -0.00088972214 -0.0026697032
-0.0009979408 0.0026521287 0.003004839 0.009920911 0.009945815 0.010917741 -0.000107806336 0.008076811
0.005603516 0.009591079 0.011711273 -0.00495086 0.0031204664 0.0061832587 0.0016223405 -0.0060180365
0.005635908 -0.0070457608 0.011355113 -0.0014791208 0.0018728458 0.0061813705 0.0047872104 -0.0016527544
-0.0097116195 -0.0023976422 -0.0038839427 -0.0114765065 0.0028737122 0.007824314 -0.010717806 -0.006566498
0.0046422123 0.011112208 -0.006483483 0.010151962 0.00802501 0.0053287 -0.006698471 -9.213765e-05
0.016206011 -0.0010660831 0.0106698675 0.0033230507 -0.0059624785 0.0072098607 0.004295463 -0.0035560937
-0.0009685237 0.0004674121 0.010831205 0.0070352238 0.0034953668 0.0123101855 0.004248328 -0.0026076534
0.002167759 -0.0065700538 0.00022305344 0.009603654 -0.0029929546 -0.007898779 0.0043678577 -0.0068134186
0.011914325 0.005674161 0.0072136 -0.00067840033 0.0015218123 0.001746289 0.003355779 -0.0037068604
-0.0008586763 0.006628781 -0.009744385 0.0017913391 0.02010069 -0.0042710663 -0.0036666486 0.01294959

gcn_branch.gat_layers.1.lin.weight f4 [128, 128]
00000000: 94b0 153d 92fb bebc 1a3d d8bd 05c0 e3bd
00000010: 788d 823d 4fcc 443d a9ae 1c3d 49d2 ea3d
00000020: cf29 f53d 39fe 963d 7e54 e3bd 82e1 02be
00000030: f713 3d3d ab80 66bc a360 76bd 233a d33c
00000040: bebc f03d ef5f c6bc 3ac8 6539 932c e43d
00000050: 4a55 1dbd 0539 9c3d d531 d8bd bfc9 adbd
00000060: baaf 9cbd a013 d4bb 4a49 3c3d 1e0a 973d
00000070: 4ebc 7f3d 5853 613d 4a6a b4bd 1d9c e3bd
00000080: a629 9d3d 2631 163c c310 8b3d 4134 1ebd
00000090: f44d 79bc 8a66 9ebb 7666 0f3e b3a3 85bd
000000a0: 05cb 4b3d 190e b8bd 04b9 6abd 7721 56bd
000000b0: d030 b73a a486 d7bd 85ef fe3d bf63 253e
000000c0: da1e 2b3e 5548 f1bd 9775 f53d 7285 283e
000000d0: ba4b 1b3d 0697 bfbd 57eb 08be 6785 32bc
000000e0: f811 13be b10b febd e0ed 183e c4b6 b03d
000000f0: aef8 be3d 2c07 8f3d 41c8 d3bd fac1 acbd
00000100: 35f4 0c3e 8464 0fbe 89be 0ebd 22ce 9f3c
00000110: 7c58 e5bd 5e2d 2abc 6253 da3d 43b7 433d
00000120: 3311 113c 6ec6 88bd c984 033e cd7c 173e
00000130: bda8 7d3d 1aaa 1c3e e847 073e a552 c2bc
00000140: 4f41 233e 3648 18be 490e fabd 9d3b 0fbd
00000150: 57ad b3bc 3426 f23d be97 553d ad1c ab3d
00000160: d6fc 643d cc9e 1b3e ddbb 81bd bb75 1b3e
00000170: 8fe6 093e e78d 373d 98d0 77bd 2372 d93d
00000180: 66e8 e13d c556 32ba f23e 0dbe ad4d 93bb
00000190: f006 2d3e eabf cf3d 5a83 f3bc fb63 9a3d
000001a0: f511 c3bc 26c6 3fbd 8218 f2bb 282d d43d
000001b0: 6d15 93bd 6cac fcbc 7eba a7bd 7446 3cbd
000001c0: 025b 8f3d 3864 933d 2abb 12be 35dd c23c
000001d0: fbc8 8c3d 08a4 33bd 0367 d4bc 9185 07bd
000001e0: 04bd 113e 11fe b73d 329e 09be 8630 e13c
000001f0: 4ab9 07bb 0252 ad3d e603 e43d dd79 75bd
00000200: f544 ae3d 0628 8c3c e578 0e3e 750c cd3d
00000210: ebd0 803d 9947 8c3c f11f 03be caca a73c
00000220: 2098 603d d3ce 6fbc 0334 0a3e c66a 0d3e
00000230: 1d02 bdbd 55e8 143d e86e 7ebd 593d af3d
00000240: 1a71 10be 4cf2 f53c cf09 063e 929c f8bd
00000250: a649 93bd 9960 893d 85ab fc3c d872 2b3d
00000260: 1421 e43d ba21 0d3e 613f 83ba f96a d3bd
00000270: 2346 163e e8ed 17bd aab4 8e3d 48d1 e13d
00000280: 7af6 25be 7d07 0dbe 4af9 07be cca9 50bc
00000290: c151 14be 48a3 843d 771e 0d3e 8914 1ebe
000002a0: 8db3 d43d 3cae 013d 9670 1fbe 310e ba3d
000002b0: 62e6 843d 5a54 7ebc f875 d03c a3a8 f83d
000002c0: 7a93 643c 0e6c 043d e1ab 3d3d d46a cf3d
000002d0: b3dd ffbc 92e9 3abb b930 d43d cdf8 a2bc
000002e0: ac2a 593d b568 933c 45c5 0c3e 88e6 8a3d
000002f0: 6cc5 883d a1e7 22bd 5396 0dbe 72fe 9dbb
00000300: 83ee 803a 5049 20be 8e84 8dbd e36b edbc
00000310: c4da 68bd 8c94 89bd 8207 11be dcce 0abe
00000320: cbc9 f93d abb9 d8bd 3236 e93d 76c5 763c
00000330: bca4 383d 7eed 463d 9c4d 0abe 2227 17be
00000340: d39b ffbc 637c 07be 46e0 1b3e 9180 adbc
00000350: 0ebc c93d d547 c53d 2ee2 95bd f142 bc3d
00000360: a558 783d fea2 b6bd 1d92 173e c0fb edbd
00000370: 9874 1dbd 133a 893d 2edb d9bd a0b0 0abd
00000380: 2c11 85bd ee4c ce3d ac05 88bd 7217 5a3d
00000390: 6ec4 c73d 0651 be3d 883b e73d 3d5a 333d
000003a0: 0e03 b53d e97f 59bd 7f12 1a3e 8311 a93c
000003b0: ae27 043e d234 e8bd fba1 fb3d c3a4 2d3d
000003c0: 0ba2 b33c 2fd9 0e3e fa29 bb3c d495 a63c
000003d0: 5f9f 583c 7f0b 863d 1a76 04be bf99 a5bd
000003e0: 6bcd 983d 1b7f 01bd 45d0 253d 225c eabd
000003f0: 1236 11be 8de8 993d 99f1 dabc aa6e 39bd
0.03654535 -0.023313317 -0.10558529 -0.11120609 0.06374639 0.048046406 0.038252506 0.1146589
0.11970865 0.07372708 -0.111001 -0.12781337 0.046161618 -0.014068763 -0.060150754 0.025784558
0.1175475 -0.024215667 0.00021913732 0.11141314 -0.038411416 0.07628063 -0.1055638 -0.08485746
-0.07650705 -0.006472066 0.04596833 0.073749766 0.06243544 0.055011123 -0.088093355 -0.111137606
0.076739594 0.009166991 0.067903064 -0.038624052 -0.015216339 -0.004834001 0.1400393 -0.06525364
0.04975416 -0.08987064 -0.05730535 -0.05227801 0.0013976339 -0.105237275 0.124480285 0.16151331
0.16710988 -0.11781374 0.11985319 0.16457155 0.037914015 -0.09354977 -0.13371025 -0.010896063
-0.14362323 -0.12404574 0.14934492 0.0862861 0.09324776 0.0698379 -0.1034093 -0.084354356
0.13765033 -0.14003187 -0.034849677 0.019507471 -0.11198518 -0.010386793 0.10660435 0.047782194
0.008854198 -0.066784725 0.12843622 0.14793701 0.0619285 0.15299264 0.13211024 -0.023721049
0.15942882 -0.14871296 -0.12209756 -0.03496896 -0.02193324 0.11823693 0.052146666 0.08355079
0.055905186 0.15197295 -0.0633466 0.1518163 0.13466857 0.044813063 -0.060501665 0.10617473
0.110306546 -0.0006803091 -0.13793543 -0.0044953437 0.16897178 0.101440266 -0.02972572 0.07538601
-0.023812274 -0.04681983 -0.0073881755 0.10360175 -0.07181821 -0.030843936 -0.081898674 -0.045965627
0.0699978 0.071968496 -0.1432921 0.02378712 0.068742715 -0.043857604 -0.025928026 -0.033086363
0.1423226 0.08984006 -0.13439253 0.027488958 -0.0020709806 0.084629074 0.11133556 -0.05993067
0.08509246 0.017108928 0.13913305 0.100121416 0.06289848 0.017123984 -0.12805153 0.02048244
0.054832578 -0.014636713 0.13496403 0.13810262 -0.09228919 0.03635438 -0.062117487 0.08556623
-0.14105645 0.030022763 0.13089679 -0.121392384 -0.07191782 0.06707878 0.030843506 0.04185757
0.11139122 0.13782397 -0.0010013395 -0.10323138 0.14675193 -0.03709212 0.06968053 0.11026245
-0.16207305 -0.13772388 -0.1327869 -0.012735795 -0.14484312 0.06476456 0.13781153 -0.15437521
0.10385809 0.031660303 -0.15570292 0.09084738 0.064892545 -0.015523041 0.025446877 0.1214154
0.013951177 0.03232961 0.046306495 0.10127798 -0.031233644 -0.0028520566 0.103608556 -0.019894028
0.05301921 0.017994264 0.13747127 0.067822516 0.0667828 -0.03977168 -0.13826875 -0.004821592
0.0009836707 -0.15652966 -0.069100484 -0.028982108 -0.056849256 -0.06717786 -0.1416302 -0.13555473
0.12196692 -0.10582288 0.1138729 0.015061727 0.045078978 0.048566334 -0.13506168 -0.14761022
-0.031202232 -0.13231044 0.15222272 -0.02117947 0.09850322 0.096328415 -0.07318531 0.091924556
0.060631413 -0.08917807 0.14801832 -0.11620283 -0.03844127 0.0670053 -0.10637508 -0.03385985
-0.06497416 0.10073267 -0.06641707 0.053245015 0.09754263 0.09292798 0.112906516 0.04378723
0.08838473 -0.0531005 0.15046118 0.020638233 0.12905762 -0.113382 0.12286755 0.042393457
0.021927854 0.13950036 0.022847164 0.020335115 0.013221591 0.065451615 -0.12935677 -0.08085965
0.07461055 -0.031615358 0.040481824 -0.11443354 -0.14180782 0.07515059 -0.02672653 -0.045271553

gcn_branch.attention_pooling.attention.0.weight f4 [64, 128]
00000000: c39b 96bd 49eb 55bd 1712 f8bd 58e6 f0bd
00000010: b39e 8cbd f299 4bbe d866 7eba 4b68 603d
00000020: fa35 b3bd 3724 45bd a3d4 8e3b 81e4 b1bd
00000030: 0ea4 00be 938b 2dbd e70a 1ebe 8a22 ebbd
00000040: 7717 413e bcd9 af3d d123 dcbb b8a1 253d
00000050: 492e 8bbd b5cf a33d 9033 ed3d 3cae 153d
00000060: 5325 febb e2ec cb3d 78e1 9fbd a23d 353e
00000070: 7ead 113e 4860 08be 4ec3 0ebe 5d6f aabc
00000080: 1d27 20bb a03a a4bd 7923 0ebd c88d 033e
00000090: 4ec6 293e 1da9 c0bd 3e94 78bd 495e 4d3d
000000a0: db3a 2bbe f2dc ee3c 51d7 4abd b048 2abe
000000b0: d071 eebd 6fde 163e bce0 af3c 57cb aa3c
000000c0: 1503 de3d 4eb8 27be 0991 c83d 1bc0 c83d
000000d0: 1404 35be a2bf 2a3e 437a 67bd f569 453d
000000e0: 348a e1bd bcc5 59bd 536d b5bd 2c1f 29be
000000f0: 93a8 333e a65c 9fbd 49f6 d6bd 824a 103e
00000100: 59fb 363d 4556 3f3e 2827 05bd 0f1c a1bc
00000110: 17cd 41be 9ddc 1cbd f87a 40be 91ce 31bd
00000120: ebec 813d 30b3 073e ecd3 473e 71dc 02bd
00000130: 2dba d1bd d442 f03d fd04 92bc 1b5b f93c
00000140: 82ad 02be a1af 9b3a 68a7 05be 5261 b7bd
00000150: 7bf3 05bd 654b ce3d 8711 fa3d 79b3 eabd
00000160: be78 44bd 4005 6c3d ff77 06be 9193 05be
00000170: 2b9b a13d 86f1 993d e238 1ebe b7d4 04be
00000180: 3419 3abe a36c 43be 52e0 e8bd 2c0d 0bbe
00000190: d1df fbbd 9dff 0a3e cbfe a43c 206f 923d
000001a0: 2de5 17bc 2c5f 23be f146 ff3d d812 e6bd
000001b0: 2b22 b83c 9e3a 533d f83c 073e 2f20 02be
000001c0: 38c9 b93d 84ff 1c3e a330 6c3d c3a4 293d
000001d0: b637 13bd 6344 67be 5f6f 5cbd d7a1 2d3c
000001e0: dafa 04be 6d95 333d e2c8 633c 273c 213d
000001f0: 01b1 d93d 25a3 763d 7c59 393d d6d8 163e
00000200: 71b5 1e3e 5288 363e e811 d1bd efd6 b8bc
00000210: 8cc5 31be 82e0 053e 0d46 b2bc 4d5d 003d
00000220: 497d 453d 99c3 343e 6bae 353e a675 2abc
00000230: f559 333d e8e5 d3bd 190e 26bd e9c9 423e
00000240: b3c0 093d 9fb1 2dbd ded7 8d3d 98d4 cbbd
00000250: 0f5f 2e3c 0ae6 07be c1e6 06be 2ab4 323d
00000260: f2da ad3b 69b8 1dbe 3309 053e a0c2 f23d
00000270: e4f3 8c3d 3afa 0c3e 029a 883d 4ba7 223e
00000280: 134d 603d ee0c 30be 3b50 6bbd a3b5 003c
00000290: bdbb 0cbe a5db a7bd 84e7 d6bd 9e57 56bd
000002a0: 241b 893d 9a5e cd3b e837 043e e37c bcbd
000002b0: acb9 eabd 3c2b 38bc 2c64 083e da3d 2fbe
000002c0: 873c c5bd 3a9b 2cbd d2c1 7f3d 7b82 c43d
000002d0: 9100 64bd 423f fd3d 3fdf f43d 8fdf 523e
000002e0: 6f6d c13d 01fe c33d e69c 123d 2a44 1ebe
000002f0: 0e1b 933d 9a8a 0e3e 9e01 8abc 81b9 e3bd
00000300: 2950 d03d 5b5e 673e eccb adbb 4b91 eabd
00000310: e441 23be 0f7e c33d e170 1f3e 90f3 893d
00000320: c6b2 f6bd 5d8d 053e b75b aebc 802a 92bd
00000330: d915 51be f636 5c3d e4cd 373e ffb1 473d
00000340: 77bf 1b3e 92f6 963d fbf4 9abc cca1 313e
00000350: e841 a5bd afce 123d 32d2 9fbd cbe8 a53d
00000360: 4f8c 493e d163 313e 2116 b7bd 79eb 08bd
00000370: 6ec5 e83c 44c3 0abe 6597 17bd bacc 843c
00000380: cd7c bfbc 3d80 5dbd 1a67 2d3c a1cc c7bc
00000390: 0976 8bbc 8a1b 08be 505f a63d 9eff 1c3e
000003a0: d7c5 cdbc 5fcb afbd 6a24 8e3c 2141 c1bc
000003b0: 1c31 ae3d 1b75 05be 7da2 34be f689 9c3d
000003c0: 56c5 c73d 8be9 8cbd 4396 04bc 33a3 08bd
000003d0: 35c9 1f3c eb45 fc3d c995 23bc e92d 6fbd
000003e0: 1621 793d c3a9 e6bd a020 e63c e638 9abd
000003f0: 8257 fbbb 0d14 b73d cfde b1bd 040b 3ebc
-0.07353928 -0.05222634 -0.12112825 -0.117626846 -0.06866207 -0.19882944 -0.0009704656 0.05478696
-0.087505296 -0.04813024 0.0043588444 -0.08686162 -0.12562582 -0.042369436 -0.15433846 -0.11481197
0.18856607 0.085864514 -0.006718137 0.04043743 -0.067959376 0.07998601 0.115821004 0.036543116
-0.0077559142 0.09957291 -0.078066766 0.17699292 0.14226338 -0.13317978 -0.1394169 -0.020805055
-0.0024437376 -0.08018994 -0.034701798 0.12847054 0.16579553 -0.09407256 -0.06068825 0.050138745
-0.1672167 0.02915809 -0.049521748 -0.1662929 -0.11642802 0.14733289 0.021469466 0.020848913
0.108404316 -0.163789 0.09793288 0.09802266 -0.17677337 0.16674665 -0.056513082 0.04819675
-0.11012688 -0.05316709 -0.088587426 -0.16515797 0.17544775 -0.07781343 -0.10496194 0.14090922
0.044673298 0.18685253 -0.032508045 -0.0196667 -0.18925892 -0.03829633 -0.18796909 -0.043409888
0.06344017 0.13251948 0.19514436 -0.03194851 -0.10240588 0.117314965 -0.017824644 0.03043895
-0.127615 0.0011877903 -0.13052142 -0.08954109 -0.032702904 0.10072974 0.12210374 -0.11460013
-0.04796671 0.057622194 -0.13131712 -0.13044573 0.07890924 0.0751677 -0.15451387 -0.1297177
-0.18173677 -0.1908441 -0.11370911 -0.13579243 -0.12298549 0.13574071 0.020141026 0.07150102
-0.009270948 -0.15954274 0.12464703 -0.11234063 0.02247723 0.051569574 0.13206851 -0.1270759
0.090715826 0.15331846 0.05766357 0.041416895 -0.035941802 -0.22584681 -0.05381715 0.010597668
-0.12986317 0.043843675 0.013902875 0.039364006 0.10629464 0.06021418 0.045251355 0.14731154
0.15498902 0.1782544 -0.102084935 -0.022563426 -0.17360514 0.13073924 -0.021761918 0.03133898
0.048215184 0.1765274 0.17742316 -0.010404026 0.04378696 -0.103465855 -0.04054079 0.19022335
0.033631038 -0.04240572 0.06925939 -0.099526584 0.010642781 -0.13271347 -0.13173963 0.04362885
0.0053056413 -0.15402378 0.1299179 0.11853528 0.06882456 0.13767329 0.0667 0.1588413
0.054761004 -0.17192432 -0.05744956 0.007855806 -0.13743491 -0.08196191 -0.10493377 -0.052329652
0.0669463 0.006267381 0.12911952 -0.09203508 -0.11461195 -0.011240777 0.13319463 -0.17113438
-0.09630685 -0.042140223 0.0624407 0.095952 -0.055664603 0.12365581 0.11956643 0.20593093
0.09444701 0.09569932 0.03579416 -0.1545569 0.07182895 0.1392006 -0.016846474 -0.111193664
0.10171539 0.22594588 -0.0053038504 -0.11453494 -0.15943104 0.09545528 0.15570404 0.06735909
-0.12045817 0.13042207 -0.021283967 -0.071370125 -0.2041849 0.053763352 0.17949635 0.048753735
0.15209757 0.07371248 -0.018915644 0.17346877 -0.08069211 0.03584164 -0.078037634 0.08101042
0.1968243 0.17323233 -0.08939768 -0.03342769 0.028414454 -0.1355105 -0.037009615 0.016210902
-0.02337494 -0.054077376 0.010583663 -0.024389567 -0.017024057 -0.13291755 0.08123648 0.15331885
-0.025118751 -0.08583712 0.017351348 -0.023590626 0.085054606 -0.13032953 -0.1764011 0.076435015
0.09754436 -0.06880482 -0.008092466 -0.033358764 0.009752561 0.12318023 -0.009984442 -0.058393393
0.06082257 -0.11262848 0.028091729 -0.07530384 -0.007670344 0.08939371 -0.086850755 -0.011599306
