semilearning/best_transductive_model.pth (torch, 137115 bytes, 23 tensors)

convs.0.lin_l.weight f4 [64, 36]
0.127842 -0.17043252 0.088422894 0.09435604 -0.01589728 -0.021321476 0.0021302933 -0.0005392093
0.107825786 -2.774673e-07 7.855698e-05 -1.2032822e-06 0.0002979092 0.022282168 0.001265804 -6.932837e-07
0.00016519206 -2.7642382e-05 4.0929567e-06 0.0034763585 -0.003051418 -0.09629497 -0.0007708692 0.08634082
0.13833317 0.0001143921 0.11677078 0.099261485 -0.049547315 0.09666325 0.111489065 0.0021681052
-0.006049796 0.018392133 -0.079572074 -0.060919244 0.15743402 -0.038426623 0.056623474 0.1444435
-7.53276e-07 7.839742e-07 -1.5533075e-08 -0.0014869692 -0.09081054 -0.0049210945 -0.002620315 3.1484277e-07
-0.00679374 2.7951093e-05 3.4606098e-06 0.021305492 -2.8452847e-05 -3.1689056e-06 -0.0029422285 -0.014217426
0.0031069182 -0.12452773 -7.483818e-07 0.11288701 0.007932451 5.2314454e-06 -0.02681112 0.05155953
-0.030945275 0.08901314 -0.16858448 -8.663247e-08 -0.0024079147 0.09120838 0.13575193 -0.032965187
0.022695733 -0.02855577 -2.5306506e-06 -0.000446695 -3.377333e-07 -9.282392e-05 0.013633865 1.56797e-05
1.8278513e-05 0.014730578 0.0016812497 6.142708e-07 0.0272918 0.009895023 -2.6995344e-06 7.393225e-06
3.4141692e-06 -9.386992e-06 9.404372e-05 8.948075e-08 -0.00033507936 -3.8287112e-07 6.423063e-07 9.33922e-07
-0.010684442 3.7655815e-07 -0.0033686482 -0.00922971 -0.0009645609 -5.9287813e-06 -0.001114145 3.4986297e-06
-7.479897e-07 -0.010316896 1.3419058e-06 0.0029305804 -0.08552427 0.09318 0.09425898 0.08081083
0.027654123 0.031029224 -0.11739832 -0.002976193 -0.098557726 -0.004009936 0.014155821 0.0064498563
-7.536147e-07 -2.78693e-05 1.3659873e-05 0.0008292425 -5.6279265e-07 2.1092222e-07 1.0023592e-06 1.2472673e-05
5.9387185e-06 0.14056556 0.000676889 -0.13959453 -0.033357497 -0.001144388 0.036535595 -8.348902e-05
-0.08527036 -0.029967414 0.117205985 -0.007725825 -1.5078463e-06 -0.10586362 0.060476203 -0.05156545
0.122107506 0.108139925 -0.17207363 -0.035860736 0.14481576 -0.08480982 0.09627813 -1.260228e-06
-0.041273456 -2.6451542e-06 0.00045235959 1.1522236e-06 -0.021149201 -2.71026e-05 -2.5409422e-06 4.2169066e-07
-0.003465714 -1.7245557e-06 -4.1963067e-06 -0.028275257 0.00686107 -0.08803713 -1.6827271e-06 -0.09577011
-0.09791966 7.008066e-07 -0.025415694 -0.05354414 -0.08568007 -0.020461835 0.14470316 7.414382e-07
-0.006310027 -0.13586563 -0.0076163923 -0.1579208 -0.079818465 0.09478628 0.003305941 -0.1472496
0.113019265 -0.107236944 0.12644075 3.5043848e-07 -0.017454142 -0.02732103 0.026621727 0.0013384608
-3.6402532e-06 -7.13139e-07 -0.027891757 2.171016e-06 0.01952807 -0.011197195 -2.1026259e-05 0.025292087
2.7120632e-07 -0.013817291 0.016735446 0.052822348 0.13578005 -0.0052219667 0.05326223 0.15280002
0.12467391 0.12945944 0.11123909 -1.3270017e-06 -1.2183873e-06 0.012890388 -0.009391901 0.090539336
0.14131993 0.026903313 -0.0030344694 -0.018415224 -3.3091674e-06 -0.018603273 -0.024694132 2.7464617e-05
1.8682067e-07 -0.014062326 0.009973949 -0.0009601435 -0.009165912 -0.00047118182 0.0010105298 1.4755622e-07
-9.013012e-06 2.7528564e-05 -2.5335376e-07 0.028088562 -0.00025986892 0.049052734 -0.008022965 -0.010869841
-0.13722226 -7.127426e-06 0.09019984 0.06781833 0.11031771 -0.028749771 -0.010985035 7.361867e-06
3.471392e-10 0.009107705 -0.060064707 -0.016944554 0.07552997 -0.04060181 -0.10103424 0.10814087
00000000: 03e9 023e dd85 2ebe 1017 b53d bd3d c13d
00000010: 033b 82bc 60aa aebc 649c 0b3b b959 0dba
00000020: c4d3 dc3d d1f6 94b4 f5be a438 7680 a1b5
00000030: b230 9c39 1889 b63c 56e9 a53a 181a 3ab5
00000040: 6837 2d39 90e1 e7b7 3b56 8936 9ed3 633b
00000050: 4dfa 47bb 4c36 c5bd 2814 4aba 75d3 b03d
00000060: 36a7 0d3e cbe5 ef38 8525 ef3d 9b49 cb3d
00000070: 20f2 4abd 62f7 c53d 6154 e43d c516 0e3b
00000080: 5e3d c6bb 19ab 963c aff6 a2bd 7586 79bd
00000090: 6236 213e 3c65 1dbd 04ee 673d ffe8 133e
000000a0: bc34 4ab5 4c72 5235 986d 85b2 68e6 c2ba
000000b0: e0fa b9bd 2241 a1bb 97b9 2bbb a907 a934
000000c0: 069e debb 8478 ea37 d33c 6836 db88 ae3c
000000d0: 06ae eeb7 62a9 54b6 67d2 40bb 35f0 68bc
000000e0: 709d 4b3b 6508 ffbd 68e4 48b5 4e31 e73d
000000f0: 1cf7 013c c689 af36 fea2 dbbc 1630 533d
00000100: f280 fdbc 854c b63d 69a1 2cbe b40a bab3
00000110: 1bce 1dbb 76cb ba3d 8e02 0b3e 8106 07bd
00000120: 67ec b93c caed e9bc 3fd4 29b6 6332 eab9
00000130: b651 b5b4 76aa c2b8 9360 5f3c e687 8337
00000140: cf54 9937 8658 713c 615d dc3a 5ee4 2435
00000150: 0e93 df3c bc1e 223c a629 35b6 5213 f836
00000160: fb1e 6536 d37c 1db7 5639 c538 9028 c033
00000170: 97ad afb9 688d cdb4 f46a 2c35 a2b2 7a35
00000180: cc0d 2fbc c229 ca34 8ac4 5cbb 3638 17bc
00000190: 96da 7cba d8ef c6b6 8108 92ba 00ca 6a36
000001a0: 76c9 48b5 3308 29bc 881b b435 fb0e 403b
000001b0: 5927 afbd 28d5 be3d da0a c13d 2680 a53d
000001c0: e68a e23c 0031 fe3c 886e f0bd 3c0c 43bb
000001d0: a2d8 c9bd c865 83bb d1ed 673c 5159 d33b
000001e0: 024c 4ab5 dec8 e9b7 b52c 6537 8661 593a
000001f0: d112 17b5 dc79 6234 cd88 8635 b941 5137
00000200: 3445 c736 6bf0 0f3e 4071 313a def1 0ebe
00000210: dfa1 08bd 4aff 95ba 59a6 153d d416 afb8
00000220: 3aa2 aebd 397e f5bc b109 f03d eb28 fdbb
00000230: 3461 cab5 07cf d8bd e5b5 773d 4b36 53bd
00000240: 8013 fa3d 7778 dd3d 1234 30be b5e2 12bd
00000250: 954a 143e c5b0 adbd 782d c53d 1b25 a9b5
00000260: 5b0e 29bd 6783 31b6 ad2a ed39 1aa6 9a35
00000270: 1741 adbc 645a e3b7 0e85 2ab6 b964 e234
00000280: 0821 63bb 4877 e7b5 00ce 8cb6 83a1 e7bc
00000290: d4d2 e03b d04c b4bd 10da e1b5 1f23 c4bd
000002a0: 1a8a c8bd 101f 3c35 9334 d0bc 1a51 5bbd
000002b0: 0879 afbd 949f a7bc 112d 143e 3f07 4735
000002c0: 58c4 cebb 5c20 0bbe ee92 f9bb fdb5 21be
000002d0: dd77 a3bd 4f1f c23d 7ca8 583b 99c8 16be
000002e0: a576 e73d 0b9f dbbd af79 013e e623 bc34
000002f0: fdfb 8ebc 5ad0 dfbc cf15 da3c 4b6f af3a
00000300: 134b 74b6 8a6e 3fb5 417d e4bc c5b1 1136
00000310: 55f9 9f3c 7174 37bc 8c61 b0b7 5a31 cf3c
00000320: 509a 9134 eb61 62bc c618 893c 3f5c 583d
00000330: ed09 0b3e 081d abbb 7f29 5a3d 9c77 1c3e
00000340: 0955 ff3d 0491 043e 52d1 e33d 6e1b b2b5
00000350: 7887 a3b5 3532 533c 7de0 19bc b06c b93d
00000360: 2cb6 103e 5664 dc3c f3dd 46bb 86db 96bc
00000370: 1013 5eb6 e465 98bc 594b cabc d163 e637
00000380: e098 4834 ac65 66bc c669 233c 24b2 7bba
00000390: 9f2c 16bc f408 f7b9 c173 843a f26f 1e34
000003a0: 9736 17b7 24ed e637 ad04 88b4 fc19 e63c
000003b0: 043f 88b9 85eb 483d c172 03bc 6b17 32bc
000003c0: fe83 0cbe 2028 efb6 b2ba b83d 56e4 8a3d
000003d0: 40ee e13d a484 ebbc 94fa 33bc f505 f736
000003e0: 80d7 be2f 7c38 153c 6906 76bd 4ecf 8abc
000003f0: 75af 9a3d 154e 26bd 0aeb cebd f678 dd3d

convs.0.lin_l.bias f4 [64]
-0.0039821384 0.03896127 -0.0008289057 0.08574052 0.12336463 0.037798166 -0.12566942 -0.022740683
0.050154388 2.3622028e-06 0.15497872 -0.099617936 -0.090070404 0.027802264 0.14072832 -0.041700903
0.15742679 -0.018935481 0.12606837 0.05972009 -0.105899714 0.003459959 -0.12989666 0.14589736
-0.0023450393 0.13659616 0.015487562 0.15471268 -3.0494974e-07 -0.060320713 0.055217315 -0.008041812
0.010007514 0.14707656 -0.10773003 -0.0014917598 0.07140648 0.0069443667 0.109879464 0.07062538
0.0024630984 0.123831004 0.1543863 -0.1627222 0.17627357 0.014215798 -0.1499967 0.11198001
-0.074609615 -0.15823358 -0.0591594 -0.19047156 -0.13318834 0.037152436 -0.0001516271 0.13815829
-0.11062115 -0.004857654 0.04520171 0.10867616 -0.03769583 -0.12913682 0.14746705 -0.1217435
00000000: 997c 82bb da95 1f3d eb4a 59ba ba98 af3d
00000010: 98a6 fc3d 40d2 1a3d 7caf 00be ab4a babc
00000020: b06e 4d3d 5686 1e36 beb2 1e3e 7d04 ccbd
00000030: d576 b8bd 93c1 e33c 161b 103e 91ce 2abd
00000040: 7d34 213e 951e 9bbc 1118 013e 0e9d 743d
00000050: f3e1 d8bd 7bc0 623b a103 05be 1e66 153e
00000060: 3baf 19bb dddf 0b3e 8bbf 7d3c 006d 1e3e
00000070: f9b7 a3b4 da12 77bd 8d2b 623d cec1 03bc
00000080: 8ef6 233c 3d9b 163e 90a1 dcbd 2787 c3ba
00000090: 903d 923d 928d e33b 7c08 e13d 0aa4 903d
000000a0: ef6b 213b 1c9b fd3d 7117 1e3e a6a0 26be
000000b0: 0f81 343e 61e9 683c bc98 19be c755 e53d
000000c0: edcc 98bd fc07 22be 2151 72bd fa0a 43be
000000d0: 8662 08be 272d 183d 17fe 1eb9 5e79 0d3e
000000e0: 578d e2bd f52c 9fbb 6e25 393d 9b91 de3d
000000f0: f166 1abd 713c 04be 9a01 173e a854 f9bd

convs.0.lin_r.weight f4 [64, 36]
-0.116810955 0.074808106 -0.13026467 0.15314434 0.062541634 -0.021165008 0.07916156 -0.00017649811
-7.6093136e-07 3.4345467e-06 0.0026919667 0.019772239 0.0006340199 7.1566337e-06 -6.0972205e-09 1.6896454e-05
-0.00017094162 6.8278155e-06 1.3472163e-05 -0.00304458 0.0067297653 -0.13681355 0.0022798192 -0.037870813
-0.051466912 0.0048288684 -0.17085993 -0.046207156 0.07067108 -0.06886804 -0.038710743 2.4378681e-07
-4.069356e-05 0.030628301 -0.13774113 -0.09985168 -0.047117088 -0.062382795 0.078304484 -0.12055244
-0.18967262 -0.045191236 -0.013874432 -0.0062119593 -0.0067675738 1.939287e-07 -0.0028083436 -6.5056526e-07
-0.0061769825 5.0541763e-05 -1.905589e-07 0.008167681 6.502995e-05 2.4544488e-05 0.02429774 -1.1043192e-06
1.8203734e-06 -0.014931553 -0.0040867417 0.06752093 0.030920975 -0.012059751 -0.12801425 0.038152765
0.0011938903 0.11652821 0.12986839 -2.2467432e-08 -2.167185e-05 0.12957418 -0.16629902 -0.06674642
-0.0011713861 -5.056577e-07 -1.8366949e-05 3.5289015e-06 -0.0002555184 0.01138654 -1.8099408e-07 -2.1764131e-07
5.456997e-07 0.015449781 0.027437707 -0.013202744 0.01911257 4.861293e-06 6.8619454e-05 0.0048683956
-7.983826e-07 2.0456316e-06 1.8209819e-06 1.0505096e-07 9.852428e-07 0.0056994567 0.02003532 6.287951e-05
-0.0009952536 0.005102642 -0.0027076 0.007981987 9.575964e-07 0.007306013 -0.0093362685 -2.223542e-06
-6.2542053e-06 0.0016161448 6.4297574e-06 -0.0041941633 -0.059578735 -0.042517625 0.1280213 -0.036318228
0.0111866575 -0.098679565 -0.09871776 -6.734519e-08 -0.046245575 1.1494598e-06 -1.795982e-07 2.45354e-07
0.00031762655 -0.019569717 -5.119819e-07 4.723489e-07 0.00205104 -5.462125e-07 0.0036934689 -0.0031606462
-1.5842267e-06 -0.085462935 2.9354178e-06 -0.11392471 0.082356684 2.5500689e-05 0.13272043 0.01090519
0.07129061 0.10865186 -0.051235333 0.0066020945 0.0061532245 -0.005608393 0.14919803 -0.11444473
0.13864477 0.010429746 0.09605651 0.088310055 -0.023905387 -0.0014668993 0.0082033705 -1.3476176e-07
0.1221147 1.8555011e-06 6.8311297e-06 0.0021953054 1.5744905e-07 1.103966e-05 5.332892e-06 1.18516e-06
-0.02844346 2.13145e-07 2.824931e-06 7.3661067e-06 -1.5800629e-06 -0.1475469 -7.341894e-07 -0.05739739
0.08274417 -1.5741585e-05 0.13288188 -0.14528804 0.005051656 0.11130892 -0.12859438 1.2562509e-08
-0.00020922167 -0.022125296 0.18295766 0.10411792 0.019071832 0.09408542 -0.02034032 -0.086340755
0.14781193 0.0051712836 -0.013450241 -0.022289755 0.007485113 0.00031608305 0.001073389 -3.4968045e-06
1.7472301e-07 -0.0020232298 -1.2131057e-06 -0.0006723708 0.018784896 1.7255392e-07 0.0077129477 0.004059082
9.927164e-06 -0.021007702 -8.2211024e-08 0.0055461973 -0.15472457 0.008772221 -0.13781287 0.06254432
0.14669053 0.07766013 0.026071738 -2.591972e-06 -0.0017589928 0.015847515 -0.051014386 -0.15199342
-0.070647284 -0.02108977 -0.021071 0.003780084 0.004457448 0.0027455157 0.0042176065 -0.004470257
0.015057565 -1.4049843e-05 0.0016658691 1.8233744e-06 -0.00025406282 3.4822617e-07 0.0065894458 -3.2054322e-06
-0.0019225556 0.0011152161 5.6161436e-08 -0.0006636342 -2.572418e-06 -0.05023583 0.0017865503 -0.012808831
-0.08832004 -0.014248578 0.047790375 -0.013863287 0.06406164 -0.025392935 -0.01136408 0.013124389
-2.687545e-05 0.043995902 -0.016509378 -0.020640481 -0.059256885 0.1100581 0.10770344 -0.016506938
00000000: 953a efbd fe34 993d 1a64 05be dfd1 1c3e
00000010: d415 803d 3d62 adbc 751f a23d 5a12 39b9
00000020: ce42 4cb5 107d 6636 b56b 303b 64f9 a13c
00000030: 5b34 263a 0423 f036 b87f d1b1 dcbc 8d37
00000040: cb3e 33b9 7d1a e536 8006 6237 9487 47bb
00000050: 5d85 dc3b da18 0cbe 0569 153b 6d1e 1bbd
00000060: f8ce 52bd 7c3b 9e3b e8f5 2ebe b743 3dbd
00000070: 00bc 903d b00a 8dbd 288f 1ebd cee1 8234
00000080: 61ae 2ab8 34e8 fa3c 030c 0dbe 0a7f ccbd
00000090: d9fd 40bd 1a85 7fbd 1a5e a03d 33e4 f6bd
000000a0: 8a39 42be 721a 39bd 9651 63bc b18d cbbb
000000b0: 86c2 ddbb b73a 5034 300c 38bb 81a2 2eb5
000000c0: 4968 cabb cefc 5338 6e9c 4cb4 bdd1 053c
000000d0: b060 8838 e3e4 cd37 0e0c c73c 1e38 94b5
000000e0: 8e53 f435 79a3 74bc 13ea 85bb 6a48 8a3d
000000f0: fc4d fd3c 4396 45bc 2b16 03be 1346 1c3d
00000100: 507c 9c3a 58a6 ee3d 38fc 043e 68fe c0b2
00000110: f2cb b5b7 18af 043e 4a4a 2abe 59b2 88bd
00000120: 3289 99ba 88bc 07b5 b912 9ab7 11d2 6c36
00000130: 19f7 85b9 9c8e 3a3c 4657 42b4 cab0 69b4
00000140: 337c 1235 1421 7d3c 0bc5 e03c 5250 58bc
00000150: f791 9c3c 301e a336 cae7 8f38 1087 9f3b
00000160: 6f50 56b5 af47 0936 7668 f435 6098 e133
00000170: af3c 8435 82c2 ba3b 1d21 a43c 2ede 8338
00000180: 2b73 82ba 1034 a73b fd71 31bb e1c6 023c
00000190: c386 8035 4767 ef3b 26f7 18bc 2938 15b6
000001a0: 37db d1b6 d2d4 d33a 32bf d736 316f 89bb
000001b0: d508 74bd f626 2ebd 0418 033e 6cc2 14bd
000001c0: 3e48 373c 8318 cabd 892c cabd 699f 90b3
000001d0: 006c 3dbd 2347 9a35 94d7 40b4 32b9 8334
000001e0: 1d87 a639 ac50 a0bc 216f 09b5 2397 fd34
000001f0: be6a 063b 709f 12b5 200e 723b d822 4fbb
00000200: 9da1 d4b5 3107 afbd 18fe 4436 5c51 e9bd
00000210: 9faa a83d 50ea d537 dde7 073e afab 323c
00000220: d000 923d de84 de3d 24dc 51bd 6256 d83b
00000230: fda0 c93b 9cc6 b7bb 5ec7 183e 0062 eabd
00000240: e5f8 0d3e 86e1 2a3c 47b9 c43d e7db b43d
00000250: 3bd5 c3bc f944 c0ba 6e67 063c 08b3 10b4
00000260: 4617 fa3d 880a f935 f536 e536 1ddf 0f3b
00000270: 440f 2934 fb36 3937 32f1 b236 ca11 9f35
00000280: 4202 e9bc dadc 6434 f293 3d36 602a f736
00000290: 8c12 d4b5 8916 17be 1d15 45b5 8719 6bbd
000002a0: c775 a93d cc0c 84b7 3012 083e 63c6 14be
000002b0: 5d88 a53b eef5 e33d 3fae 03be 80d2 5732
000002c0: 8462 5bb9 1c40 b5bc 4159 3b3e c73b d53d
000002d0: 883c 9c3c dbaf c03d bea0 a6bc 6cd3 b0bd
000002e0: 035c 173e df73 a93b 665e 5cbc 0199 b6bc
000002f0: ae45 f53b f3b7 a539 f5b0 8c3a a5aa 6ab6
00000300: 7f9b 3b34 2a98 04bb ffd1 a2b5 0a42 30ba
00000310: c8e2 993c 4347 3934 e5bc fc3b 0c02 853b
00000320: d88c 2637 5818 acbc fd8b b0b3 e0bc b53b
00000330: 1e70 1ebe 5db9 0f3c d11e 0dbe 3d17 803d
00000340: 0b36 163e 460c 9f3d 6694 d53c bdf1 2db6
00000350: 018e e6ba a6d2 813c 76f4 50bd 2aa4 1bbe
00000360: 86af 90bd 74c4 acbc 179d acbc 49bb 773b
00000370: c90f 923b 1cee 333b d933 8a3b 3c7b 92bb
00000380: 01b4 763c 9eb7 6bb7 4b59 da3a abba f435
00000390: bc33 85b9 d7f3 ba34 47ec d73b e81c 57b6
000003a0: 43fe fbba 712c 923a 2736 7133 bdf7 2dba
000003b0: cea1 2cb6 16c4 4dbd ae2a ea3a 22dc 51bc
000003c0: 23e1 b4bd de72 69bc d7bf 433d d722 63bc
000003d0: c032 833d d804 d0bc 6830 3abc ad07 573c
000003e0: 9772 e1b7 0c35 343d ad3e 87bc 3a16 a9bc
000003f0: 59b7 72bd 2466 e13d 9f93 dc3d 8f39 87bc

convs.1.lin_l.weight f4 [64, 64]
0.048809946 -0.0028842222 -0.00043635603 -0.043636527 0.1123625 0.031164218 -0.016427886 0.0809011
0.014711918 0.0043081897 0.13065349 0.036842354 0.03842165 0.004153524 -0.12872244 -0.030212862
0.02021311 0.016181016 0.028478635 -0.10577152 0.123494856 0.11807035 0.004125982 0.08445221
1.6646648e-07 -0.01342303 -0.023854548 -0.12568653 -2.8264355e-07 -0.031241825 -0.11992902 -0.083577
0.008425097 -0.098704375 -0.018451825 -0.008395845 0.05552939 -0.10271849 0.11009525 -0.047415517
-0.060723495 0.0022194677 -0.11474447 -0.08763389 0.010201227 -0.13481009 -0.012083793 -0.05279271
0.1022289 -0.058015883 -0.106882215 0.030790253 -0.0013399192 0.09679737 -2.7686572e-06 -0.013574803
0.024635382 0.0011009529 -0.03565768 -0.12356105 -0.021869514 -0.06741209 0.110575266 0.0709626
-0.114243224 0.012948559 -0.0069081825 0.086520486 0.07228935 0.053717207 -0.034715846 0.07803885
-0.03126802 -1.314366e-06 0.09400026 -0.0018950951 -0.07494184 0.02681263 -0.022109801 -0.0071414164
0.01460838 0.0036360286 -0.008833213 -0.015673349 -0.124081366 0.026820851 0.020521488 0.023097182
2.673793e-05 -0.10221808 0.011165878 0.10728265 -9.327138e-07 -0.05693819 -0.10685686 -0.10161558
0.07484787 -0.007841914 -0.0030065037 0.00056325947 -0.078290634 -0.08211599 -0.04555436 0.07527512
0.028333507 -0.004645059 -0.07476675 0.06027067 0.11827299 -0.05464371 -0.08472571 0.06480082
0.012886771 -0.01889593 0.038600676 -0.035870403 -0.0008576417 0.08492384 1.0123267e-05 -0.0022436755
-0.05500438 -1.9577965e-07 0.040592752 -0.06464586 -0.072614156 0.11621232 0.036659054 -0.123069756
0.09814404 0.008261555 0.0034721228 -0.04620246 -0.0225405 -0.040778387 -0.011493034 0.04167738
-0.014762617 0.007900993 0.05842502 -0.0960795 -0.050129056 0.015689436 0.06194993 0.06977411
-0.074861035 -0.008283742 -0.050315645 -0.07084296 -0.054239202 -0.11206413 0.0008735718 -0.09163072
-2.0768773e-06 -0.048098005 0.00554179 -0.059157114 3.2600735e-07 0.09518133 -0.10664171 0.09386034
0.03716862 -0.07837175 -0.047231056 -6.4887954e-06 0.13175523 0.03517893 0.076074354 -0.001489518
0.010716381 -0.13753226 -0.0027382805 0.047356896 0.11027148 -0.00518194 0.11252924 0.06853321
-0.0013116255 -0.0054362244 0.0046333373 0.08649365 2.666224e-05 -0.038980916 3.8957714e-05 0.010392456
0.066770546 -4.1379235e-07 -0.05094512 0.041673556 -0.03942553 0.011582235 -0.07517208 0.06899036
0.009077564 0.072180696 -7.5280504e-06 -0.035730626 0.013804465 -0.11629879 -0.06256041 -0.065346874
0.0075540314 -6.660902e-08 -0.00435317 0.10627017 0.12453223 -0.08860457 0.07305524 0.11467326
0.011469417 -0.08771052 -0.07604186 0.024504589 0.068288505 -0.06388239 0.0025578046 0.055778533
-2.5402971e-07 -0.045806702 -0.02155078 0.09509575 -3.819696e-07 -0.0442548 0.095337965 -0.08497577
0.08079796 -0.0015311248 -0.102955125 3.832447e-07 -0.08990828 0.09553904 0.0696305 -0.06452258
0.0826357 -0.073523946 -0.11733288 -0.100037806 -0.079189375 0.045556746 0.015077651 -0.036586903
0.0058400687 0.07534611 0.091669485 0.026424753 -0.008601989 -0.09264983 2.0219604e-06 -0.010504878
0.03476983 -1.03065304e-07 0.027036974 0.1051088 -0.0051944545 -0.019097243 -0.06744649 0.0015723782
00000000: f0ec 473d 3805 3dbb b7c6 e4b9 37bc 32bd
00000010: 4f1e e63d 1a4c ff3c c693 86bc 7aaf a53d
00000020: 420a 713c b72b 8d3b 07ca 053e 02e8 163d
00000030: 0560 1d3d 491a 883b d1cf 03be f780 f7bc
00000040: f795 a53c 0d8e 843c 074c e93c bd9e d8bd
00000050: dfea fc3d dece f13d 3f33 873b 48f5 ac3d
00000060: f5bd 3234 45ec 5bbc 9d6a c3bc f8b3 00be
00000070: 3cbe 97b4 dbee ffbc 599d f5bd 6b2a abbd
00000080: 6b09 0a3c 8525 cabd 4828 97bc ba8e 09bc
00000090: c972 633d 125e d2bd 9e79 e13d c636 42bd
000000a0: 33b9 78bd 7d74 113b 26ff eabd 6679 b3bd
000000b0: 0c23 273c a80b 0abe 1afb 45bc 2b3d 58bd
000000c0: 635d d13d 10a2 6dbd 10e5 dabd d73b fc3c
000000d0: 3aa0 afba b33d c63d 2bcd 39b6 da68 5ebc
000000e0: 24d0 c93c d94d 903a ca0d 12bd 930d fdbd
000000f0: b227 b3bc 5a0f 8abd 4975 e23d d754 913d
00000100: 5af8 e9bd 3126 543c 095e e2bb a731 b13d
00000110: 700c 943d 9306 5c3d 3432 0ebd d5d2 9f3d
00000120: e512 00bd 4669 b0b5 3583 c03d d764 f8ba
00000130: 1b7b 99bd 29a6 db3c 9d1f b5bc 8b02 eabb
00000140: fd57 6f3c 704a 6e3b 2eb9 10bc 6565 80bc
00000150: 5f1e febd 67b7 db3c ae1c a83c 4d36 bd3c
00000160: 444b e037 b657 d1bd 16f1 363c 02b7 db3d
00000170: 9b5f 7ab5 0538 69bd c5d7 dabd d41b d0bd
00000180: d749 993d 5f7b 00bc c308 45bb b4a7 133a
00000190: d756 a0bd 6e2c a8bd 3597 3abd d829 9a3d
000001a0: ac1b e83c 9435 98bb 4f1f 99bd 61de 763d
000001b0: 1c39 f23d 15d2 5fbd ac84 adbd 4bb6 843d
000001c0: 0923 533c a3cb 9abc be1b 1e3d d8ec 12bd
000001d0: 5cd3 60ba 8dec ad3d 1ad7 2937 a10a 13bb
000001e0: 464c 61bd 8037 52b4 9644 263d 0c65 84bd
000001f0: bbb6 94bd ba00 ee3d ce27 163d ff0b fcbd
00000200: beff c83d 795b 073c 8e8c 633b ca3e 3dbd
00000210: dba6 b8bc 3d07 27bd 474d 3cbc e7b5 2a3d
00000220: e7de 71bc 2b73 013c 134f 6f3d 54c5 c4bd
00000230: 2054 4dbd 2287 803c 36bf 7d3d bbe5 8e3d
00000240: be50 99bd 88b8 07bc c717 4ebd 1d16 91bd
00000250: ed29 5ebd e181 e5bd 6900 653a e3a8 bbbd
00000260: 7b60 0bb6 6a02 45bd e797 b53b bb4e 72bd
00000270: 1c06 af34 6eee c23d f866 dabd da39 c03d
00000280: 1f3e 183d 5e81 a0bd 5a75 41bd 54ba d9b6
00000290: d8ea 063e c817 103d dfcc 9b3d ee3b c3ba
000002a0: c293 2f3c 42d5 0cbe b974 33bb 4ef9 413d
000002b0: 04d6 e13d 43cd a9bb bb75 e63d 245b 8c3d
000002c0: d9ea abba 5b22 b2bb 40d3 973b 9523 b13d
000002d0: b9a8 df37 74aa 1fbd 8766 2338 1f45 2a3c
000002e0: ffbe 883d 3027 deb4 d5ab 50bd e4b1 2a3d
000002f0: aa7c 21bd 6ac3 3d3c d2f3 99bd d14a 8d3d
00000300: 10ba 143c 79d3 933d 7699 fcb6 475a 12bd
00000310: 1f2c 623c 0f2e eebd ac1f 80bd 95d4 85bd
00000320: cf87 f73b b20a 8fb3 09a5 8ebb 2da4 d93d
00000330: c10a ff3d 5076 b5bd fc9d 953d d0d9 ea3d
00000340: 39ea 3b3c 93a1 b3bd d6bb 9bbd d9bd c83c
00000350: d8da 8b3d c5d4 82bd d7a0 273b 0878 643d
00000360: 9461 88b4 cf9f 3bbd 438b b0bc 90c1 c23d
00000370: 8111 cdb4 8544 35bd 8d40 c33d c707 aebd
00000380: 6779 a53d 06b0 c8ba 23da d2bd c0c0 cd34
00000390: d521 b8bd f9a9 c33d 709a 8e3d 6a24 84bd
000003a0: e83c a93d b993 96bd 394c f0bd 9fe0 ccbd
000003b0: 0a2e a2bd b699 3a3d 4008 773c 26dc 15bd
000003c0: 0c5e bf3b 104f 9a3d 36bd bb3d b978 d83c
000003d0: 5bef 0cbc 32bf bdbd 04b1 0736 a71c 2cbc
000003e0: cf6a 0e3d c054 ddb3 a57c dd3c 4843 d73d
000003f0: 3e36 aabb d271 9cbc 6321 8abd 4218 ce3a

convs.1.lin_l.bias f4 [64]
0.11288071 0.03124989 -0.01735308 -0.03824962 0.029859815 0.09000379 -0.08554986 0.11868782
0.103127286 -0.036218442 -0.10266071 -0.06241816 -0.06615535 0.044615515 0.06308149 -0.10855409
0.0973305 -0.05053155 -0.05899689 0.031097233 -0.042379655 -0.07281075 0.043524176 0.07866218
-0.11185662 -0.060270466 0.112946495 0.12178915 0.122410454 0.09626553 0.059364803 -0.12273415
-0.0651395 0.06744759 -0.085221455 -0.020338664 0.037166584 0.069487184 -0.08483821 -0.044864174
0.0828775 0.0704187 0.07912311 -0.10522321 -0.069949955 0.099462435 -0.028622633 -0.037712555
0.11871919 0.047350787 0.002357051 0.094966106 -0.045276985 -0.017288355 -0.06652659 0.07101251
-0.10319651 -0.10610529 -0.049826954 -0.021346977 -0.093919456 -0.10736929 -0.10747615 0.0013332323
00000000: 002e e73d c5ff ff3c 0c28 8ebc a2ab 1cbd
00000010: 929c f43c e853 b83d c434 afbd 9a12 f33d
00000020: 6634 d33d ca59 14bd c73f d2bd 2faa 7fbd
00000030: 757c 87bd c2be 363d de30 813d 9b51 debd
00000040: 3755 c73d 2cfa 4ebd b9a6 71bd a0bf fe3c
00000050: 4a96 2dbd cd1d 95bd 6846 323d a319 a13d
00000060: 1515 e5bd 2ade 76bd 7e50 e73d 976c f93d
00000070: 55b2 fa3d dd26 c53d 8228 733d 0b5c fbbd
00000080: dc67 85bd f621 8a3d 9688 aebd 459d a6bc
00000090: fd3b 183d 4c4f 8e3d a8bf adbd 7fc3 37bd
000000a0: aebb a93d ae37 903d 4c0b a23d 447f d7bd
000000b0: ec41 8fbd f6b2 cb3d 037a eabc 7b78 1abd
000000c0: 0c23 f33d e6f2 413d c178 1a3b 977d c23d
000000d0: 5c74 39bd 4fa0 8dbc 183f 88bd 026f 913d
000000e0: b158 d3bd bb4d d9bd 5917 4cbd dbdf aebc
000000f0: d858 c0bd 6ee4 dbbd 751c dcbd dabf ae3a

convs.1.lin_r.weight f4 [64, 64]
0.13344075 0.052945886 1.3317651e-05 -0.092958294 0.07834407 0.03374484 -0.0050506294 -0.10516681
0.042338908 -0.005379981 -0.106904276 0.0756882 -0.041193683 -0.044233423 -0.08411165 0.105163835
-0.038395286 -0.07768277 0.06940443 0.05128711 -0.04352012 0.03772653 -1.03689e-05 -0.039548986
0.0004766526 0.044863846 -0.029717376 0.07892431 1.4795095e-06 -0.011701588 0.02236641 -0.006550844
0.065410584 0.050470922 -0.052126564 -0.0005230887 -0.06305431 0.07624373 0.11240668 -0.05205847
0.1071549 0.073261276 -0.09405245 -0.11644027 0.0071497476 -0.07807213 -0.06488124 0.08840013
-0.06949007 -0.07732162 -0.06308013 0.047005035 -4.004079e-08 0.07352866 1.7916075e-07 0.04620583
0.0759392 -2.9447278e-07 -0.089797184 -0.061282672 0.06254269 0.028201358 -0.008561833 0.08332055
0.08634542 0.073454596 6.8921295e-08 0.011081046 0.114813924 -0.06368774 -0.00093443797 -0.105764255
0.057314232 -0.002615816 -0.06002354 -0.0329057 0.1100989 0.013201564 -0.03074354 -0.052791018
0.033238906 0.045267966 0.042946335 0.046354096 -0.014701713 -0.069379866 -0.02217772 0.10075738
3.1944444e-07 -0.081183195 0.034901023 -0.06754919 0.000872831 -0.016109943 -0.05019539 -0.0422845
0.11979213 -0.0036245731 -0.072418384 -5.3392687e-06 0.067787655 0.010623459 0.1180409 -0.06804827
-0.04753943 0.06612831 -0.00072192313 -0.07870373 0.008935073 0.08726324 -0.036259577 0.043068253
0.052086387 0.0674061 -0.01583929 0.051478956 0.010466255 -0.0016559889 0.006362904 0.047151163
-0.084231935 1.2953844e-07 -0.019906431 -0.06305043 0.10692649 -0.0032178292 -0.0173001 -0.13102956
-0.12683165 -0.08285513 6.838057e-07 -0.14429201 0.05165056 -0.06886231 -0.04183293 -0.050222043
0.016676946 -0.00023991552 0.08838185 -0.058985025 -0.036393348 -0.034712918 -0.1355059 0.09736488
0.035135794 0.00246605 0.08630001 -0.053994413 -0.110570624 0.08833847 1.7627636e-06 -0.11317843
-5.424373e-08 0.06208397 0.006913078 -0.012166234 -5.5274194e-07 0.011754133 -0.12132478 0.04774957
0.09548928 0.016070908 -0.0037610463 3.5042383e-06 -0.045020986 -0.10940087 -0.047660068 0.009407841
-0.100170076 -0.1376799 -0.021248115 -0.015758451 0.019416293 0.056798972 -0.020080635 -0.006145992
-0.0035500927 -0.03720226 -0.066944085 0.0016640702 -1.0528408e-06 0.073042944 0.004084186 -0.0014362569
-0.03210559 -2.137097e-06 -0.035738923 -0.0038521332 -0.045058466 0.01834422 0.09990351 -0.057304733
0.0044362647 0.08847138 6.0956016e-05 -0.011276389 0.10351634 -0.014917966 -0.040961545 -0.033384524
0.056963425 1.8980437e-07 0.06411826 -0.07756775 0.09577816 -0.018168598 0.010790025 -0.075431935
-0.08323013 0.024007306 -0.052814003 0.13606264 0.048745718 0.013049476 -0.020000938 -0.113084584
-1.7169597e-05 0.04483246 -0.08922471 -0.030504327 2.7498201e-05 -0.09209563 -0.07669934 0.093842536
0.07896127 0.13286002 0.09465811 -1.6143227e-08 0.0881131 -0.0029623006 -0.04501863 -0.04992095
0.0554664 0.09248233 -0.09659617 -0.065139666 -0.033592116 0.1192693 -0.07545661 -0.098753735
0.025293188 -0.06541695 -0.055923946 -0.052630972 0.009938479 -0.052730754 -0.00670177 -0.022190198
-0.037485372 0.0045370273 -0.10862408 0.09814337 0.01770574 -0.11572492 0.094743095 0.10252945
00000000: b1a4 083e c9dd 583d e06e 5f37 eb60 bebd
00000010: db72 a03d 0838 0a3d c07f a5bb b261 d7bd
00000020: 906b 2d3d 8d4a b0bb a1f0 dabd 6a02 9b3d
00000030: b5ba 28bd 1b2e 35bd bb42 acbd 2360 d73d
00000040: 6044 1dbd 2518 9fbd e923 8e3d 6f12 523d
00000050: 2742 32bd 2287 1a3d 16f6 2db7 1efe 21bd
00000060: 3be7 f939 27c3 373d db71 f3bc 12a3 a13d
00000070: 8f93 c635 04b8 3fbc c339 b73c 76a8 d6bb
00000080: fcf5 853d 99ba 4e3d aa82 55bd e31f 09ba
00000090: 9e22 81bd ac25 9c3d 7935 e63d 433b 55bd
000000a0: 0774 db3d 020a 963d 929e c0bd 3c78 eebd
000000b0: 6e48 ea3b 48e4 9fbd 75e0 84bd 210b b53d
000000c0: cf50 8ebd cc5a 9ebd 2830 81bd 5a88 403d
000000d0: 50f9 2bb3 3296 963d 555f 4034 5342 3d3d
000000e0: 0386 9b3d 0818 9eb4 96e7 b7bd 8a03 7bbd
000000f0: 6216 803d 8906 e73c ee46 0cbc f7a3 aa3d
00000100: ded5 b03d 5d6f 963d e201 9433 478d 353c
00000110: 9023 eb3d b86e 82bd 12f5 74ba ee9a d8bd
00000120: 54c2 6a3d 1c6e 2bbb 3edb 75bd 21c8 06bd
00000130: 887b e13d 5f4b 583c e0d9 fbbc 653b 58bd
00000140: 8525 083d e76a 393d 7fe8 2f3d cbdd 3d3d
00000150: 74df 70bc 0817 8ebd 0dae b5bc e359 ce3d
00000160: 1c80 ab34 6043 a6bd 60f4 0e3d 3b57 8abd
00000170: b2ce 643a 00f9 83bc ae99 4dbd 8332 2dbd
00000180: 9455 f53d 3f8a 6dbb 1750 94bd f827 b3b6
00000190: 41d4 8a3d 040e 2e3c 6dbf f13d e45c 8bbd
000001a0: b5b8 42bd 486e 873d 713f 3dba 6c2f a1bd
000001b0: 6a64 123c 12b7 b23d ec84 14bd 5668 303d
000001c0: 8958 553d 360c 8a3d 66c1 81bc 99db 523d
000001d0: a87a 2b3c c40d d9ba e87f d03b 9421 413d
000001e0: cb81 acbd 4117 0b34 d012 a3bc 9520 81bd
000001f0: 47fc da3d 37e2 52bb f0b8 8dbc 9d2c 06be
00000200: 28e0 01be f3af a9bd c58e 3735 49c1 13be
00000210: 8a8f 533d af07 8dbd 0259 2bbd a1b5 4dbd
00000220: 179e 883c d591 7bb9 8b01 b53d 489a 71bd
00000230: 3111 15bd 222f 0ebd 0fc2 0abe 3d67 c73d
00000240: 8dea 0f3d 749d 213b 0fbe b03d 3f29 5dbd
00000250: da72 e2bd cdea b43d 1998 ec35 18ca e7bd
00000260: 9df9 68b3 c34b 7e3d 1a87 e23b e254 47bc
00000270: 2360 14b5 6894 403c 2079 f8bd 0e95 433d
00000280: e28f c33d 23a7 833c e37b 76bb 5b2a 6b36
00000290: ed67 38bd 900d e0bd 3437 43bd 5823 1a3c
000002a0: f825 cdbd f6fb 0cbe 8710 aebc de17 81bc
000002b0: eb0e 9f3c 0aa6 683d 2580 a4bc 5164 c9bb
000002c0: aca8 68bb 6661 18bd fb19 89bd ee1c da3a
000002d0: 564f 8db5 8a97 953d a3d4 853b c940 bcba
000002e0: 2781 03bd 0c6b 0fb6 fa62 12bd 1274 7cbb
000002f0: 3a8f 38bd 9e46 963c 369a cc3d 5eb8 6abd
00000300: 165e 913b 7c30 b53d 06ab 7f38 9ac0 38bc
00000310: 6000 d43d 7c6a 74bc 4bc7 27bd 36be 08bd
00000320: 7b52 693d 07cd 4b34 6f50 833d d7db 9ebd
00000330: 5727 c43d 50d6 94bc a5c8 303c 0f7c 9abd
00000340: 8f74 aabd f8aa c43c 7f53 58bd 0154 0b3e
00000350: 97a9 473d 78cd 553c 02d9 a3bc e498 e7bd
00000360: 6e07 90b7 3ea2 373d 72bb b6bd 36e4 f9bc
00000370: f0ab e637 a29c bcbd 8b14 9dbd 8430 c03d
00000380: 72b6 a13d 750c 083e 1cdc c13d 55ab 8ab2
00000390: a474 b43d 2823 42bb 7465 38bd e979 4cbd
000003a0: bc30 633d 6067 bd3d 36d4 c5bd f267 85bd
000003b0: e397 09bd 7643 f43d ff88 9abd 663f cabd
000003c0: a933 cf3c 52f9 85bd 8210 65bd 9393 57bd
000003d0: 01d5 223c 34fc 57bd 859a dbbb 38c8 b5bc
000003e0: 438a 19bd 58ab 943b 4d76 debd 64ff c83d
000003f0: a10b 913c 3001 edbd ab08 c23d f6fa d13d

convs.2.lin_l.weight f4 [64, 64]
0.030076278 -0.022888942 -0.06797274 0.09765562 0.060860217 0.049478956 0.049483497 0.08620757
-0.10186202 0.0087404065 -0.00035078637 -0.03868642 -0.012293856 0.041479107 0.093752205 0.07621545
0.030710574 0.038977552 0.10488903 0.050763525 -0.05973771 0.030295752 -0.07645612 0.005292379
0.015385479 -0.0654915 -0.120057166 -0.0068392665 0.10594119 -0.0882483 0.059282016 -0.018562779
0.05573011 0.023560893 -0.10364606 -0.092274025 0.11489483 0.07562363 -0.03743683 -0.043070987
0.09900772 -0.076755755 0.0001638356 -0.018591587 -0.07997817 -0.089765504 -0.012928515 -0.106473215
0.088595994 -0.03447464 -0.056567274 0.11161878 0.046364676 0.12361539 0.0004100065 -0.018836109
0.0062832483 -0.008110051 0.016260896 0.08263279 0.06455064 -0.046517376 0.020857353 -0.118698835
-0.059223752 0.101133905 -0.020290224 -0.108478755 -0.12523349 -0.07527775 0.06829363 -0.03579834
-0.105560035 -0.057128616 -1.1103677e-08 -0.03908479 -0.11137342 -0.09567896 0.061930288 -0.033765625
0.068744116 0.10544198 0.00823605 0.057982277 0.09372566 -0.08186374 0.07365398 0.051316343
0.01778945 0.106603354 0.046367258 -0.13000803 -0.0610016 0.038684588 -0.11306531 0.030179163
-0.02998981 -0.0686019 0.075715154 -0.043177065 -0.08329247 -0.017627569 0.12770076 0.09006588
-0.12923077 0.11364664 0.011573803 0.06357437 0.052546322 -0.080002606 -0.009635791 0.020559145
0.050790586 -0.024009481 0.06744735 0.03785538 -0.12422893 0.078925006 0.011346979 -0.1235315
0.067145035 0.019611038 0.109599 -0.11904812 -0.12336468 -0.042428233 -0.057135012 -0.08508278
0.10486641 0.11065703 -0.08262526 -0.04512597 0.09077424 -0.082799524 0.038416166 -0.0702418
-0.0005970013 0.049531147 -0.0005491517 0.039931852 0.11107086 -0.10563012 -0.0984453 -0.020259818
0.120730825 -0.05966671 -0.11359398 -0.051387843 0.09381578 0.084084794 -0.0069387113 -0.0504926
0.07249711 -0.029974192 -0.023925858 0.0009351748 -0.11832094 -0.09467142 -0.016133457 0.09866308
-0.02973589 0.085823976 -0.056812484 -0.085019425 -0.10804491 0.06727308 -0.09064689 0.07547133
0.026346598 -0.07756471 0.10014224 0.078455485 0.024354735 -0.009344401 -0.039029583 -0.011734415
0.043699373 -0.05238248 -0.013402147 0.03484279 0.10994559 -0.057354327 -0.030532839 0.018538255
0.035368007 -0.0008478912 0.064386874 0.011201292 -0.014452111 -0.0034857753 0.06165349 0.14788859
0.056361906 0.054034155 -0.030971237 0.056666486 0.017012415 -0.013988864 -0.105058454 -0.031324465
-0.099621765 -0.031006262 -5.6783633e-06 0.018344628 -0.10739135 -0.074244075 -0.05789268 0.06922152
-0.016105736 -0.057245173 -0.028559057 -0.010712157 -0.053790618 0.12113348 -0.093303144 -0.09070538
-0.063806124 0.037324574 0.052931912 0.04888567 0.08858241 0.09550009 0.012912749 0.052202854
-0.05660197 0.11304877 -0.057816934 -0.072765864 -0.038571075 -0.05507042 -0.086767495 -0.06769187
-0.0703884 0.0031731017 0.10766066 0.03978526 -0.11632148 0.06259754 -0.064273484 0.102334835
0.08078634 0.0024861465 -0.064239904 0.046303213 0.077762134 -0.0051803053 0.027759658 0.036791038
0.09636676 0.0077009965 -0.081706524 0.045259107 -0.01178919 0.06736748 0.073173776 -0.034378473
00000000: 8762 f63c 9781 bbbc 4b35 8bbd abff c73d
00000010: 9048 793d 72aa 4a3d 35af 4a3d 988d b03d
00000020: 099d d0bd ec33 0f3c c0e9 b7b9 a775 1ebd
00000030: 2b6c 49bc ffe5 293d 2801 c03d d916 9c3d
00000040: be94 fb3c eda6 1f3d 0fd0 d63d 6aed 4f3d
00000050: 87af 74bd cc2e f83c 0795 9cbd b16b ad3b
00000060: 6013 7c3c 6820 86bd 88e0 f5bd ed1b e0bb
00000070: b2f7 d83d 86bb b4bd b3d1 723d f810 98bc
00000080: 4145 643d c602 c13c 6344 d4bd 2afa bcbd
00000090: fb4d eb3d 90e0 9a3d 5d57 19bd 346b 30bd
000000a0: 8fc4 ca3d 1f32 9dbd 49cb 2b39 624d 98bc
000000b0: 98cb a3bd fad6 b7bd 1fd2 53bc a10e dabd
000000c0: d171 b53d 4835 0dbd 16b3 67bd 6398 e43d
000000d0: e3e8 3d3d 112a fd3d 24f6 d639 2f4e 9abc
000000e0: b5e3 cd3b 05e0 04bc 9235 853c 613b a93d
000000f0: 2033 843d 0189 3ebd 0add aa3c 6018 f3bd
00000100: 9b94 72bd 4b1f cf3d af37 a6bc 1c2a debd
00000110: 353d 00be 392b 9abd 88dd 8b3d 48a1 12bd
00000120: dc2f d8bd b2ff 69bd 7dc2 3eb2 5f17 20bd
00000130: bf17 e4bd 55f3 c3bd 9daa 7d3d d34d 0abd
00000140: b7c9 8c3d f7f1 d73d 7ff0 063c d37e 6d3d
00000150: 3df3 bf3d 2da8 a7bd e6d7 963d 1631 523d
00000160: 2ebb 913c dc52 da3d 98eb 3d3d d320 05be
00000170: d0dc 79bd bb73 1e3d c98e e7bd 4b3a f73c
00000180: 31ad f5bc 277f 8cbd 8c10 9b3d 6fda 30bd
00000190: 3e95 aabd b167 90bc fdc3 023e 7674 b83d
000001a0: 1255 04be 92bf e83d 0ca0 3d3c 4833 823d
000001b0: d03a 573d 68d8 a3bd 70df 1dbc a76b a83c
000001c0: ca09 503d 88af c4bc d621 8a3d 3e0e 1b3d
000001d0: bd6b febd 6fa3 a13d aee8 393c 15fe fcbd
000001e0: 5683 893d 54a7 a03c 7175 e03d 80cf f3bd
000001f0: 9fa6 fcbd 3ac9 2dbd 6706 6abd e13f aebd
00000200: 33c4 d63d 27a0 e23d 6f37 a9bd 02d6 38bd
00000210: d8e7 b93d cc92 a9bd 455a 1d3d efda 8fbd
00000220: 1480 1cba 2ce1 4a3d f2f4 0fba 958f 233d
00000230: 1e79 e33d 9b54 d8bd b09d c9bd ebf7 a5bc
00000240: b941 f73d 1565 74bd f6a3 e8bd 0f7c 52bd
00000250: 7d22 c03d a634 ac3d 215e e3bb 54d1 4ebd
00000260: 5d79 943d 708c f5bc 2900 c4bc 8526 753a
00000270: 4052 f2bd 17e3 c1bd 502a 84bc de0f ca3d
00000280: ae98 f3bc 7bc4 af3d 35b4 68bd aa1e aebd
00000290: a646 ddbd 78c6 893d 14a5 b9bd b690 9a3d
000002a0: d2d4 d73c 3fda 9ebd 6017 cd3d 45ad a03d
000002b0: 9583 c73c 4219 19bc 7cdd 1fbd b441 40bc
000002c0: 1dfe 323d 038f 56bd ae94 5bbc 50b7 0e3d
000002d0: 272b e13d 5fec 6abd 0120 fabc 8add 973c
000002e0: 0bde 103d 0445 5eba 44dd 833d a085 373c
000002f0: 8cc8 6cbc 9b71 64bb 5f88 7c3d 1b70 173e
00000300: bedb 663d eb52 5d3d 64b7 fdbc 1e1b 683d
00000310: 9f5d 8b3c 8c31 65bc e328 d7bd 154e 00bd
00000320: 7f06 ccbd d800 febc c588 beb6 7947 963c
00000330: ffef dbbd 470d 98bd e020 6dbd 03c4 8d3d
00000340: 2df0 83bc ea79 6abd aff4 e9bc 0b82 2fbc
00000350: 8d53 5cbd d414 f83d b815 bfbd bec3 b9bd
00000360: c9ac 82bd a7e1 183d 22cf 583d 573c 483d
00000370: b26a b53d 8d95 c33d ff8f 533c a9d2 553d
00000380: 78d7 67bd 1d86 e73d 73d1 6cbd 4506 95bd
00000390: b4fc 1dbd 8591 61bd 28b3 b1bd 09a2 8abd
000003a0: cb27 90bd d0f3 4f3b 317d dc3d def5 223d
000003b0: f539 eebd 2433 803d d1a1 83bd ed94 d13d
000003c0: 4f73 a53d 9eee 223b 3690 83bd 70a8 3d3d
000003d0: c141 9f3d 8dbf a9bb 3968 e33c 33b2 163d
000003e0: f05b c53d a458 fc3b c055 a7bd 9d61 393d
000003f0: 7227 41bc f6f7 893d 22dc 953d 71d0 0cbd

convs.2.lin_l.bias f4 [64]
0.06453027 -0.0034919125 -0.084874704 0.0385243 0.029183768 0.09257055 0.10099337 -0.12296586
-0.030932054 -0.05366151 0.044687014 -0.027708678 0.120256074 0.09566253 -0.0082216645 0.03466137
0.05116968 -0.029579319 -0.028562263 -0.10370868 -0.07126186 0.050616838 -0.056506034 -0.08244004
0.08421265 -0.036461085 -0.10940725 -0.08798959 0.0045543658 -0.115110286 0.08044526 0.081541054
-0.040697135 0.046010282 0.05217526 -0.06169539 0.019789286 -0.06939643 -0.0574151 0.04406642
-0.106600545 -0.073805 0.032219093 0.07201493 0.0953786 -0.04223952 0.069534644 -0.0065714237
-0.10174542 0.08514292 0.10224251 0.061317008 0.039349396 -0.07073594 0.08461579 0.03274722
0.02506194 -0.025833964 0.07489829 -0.03337412 0.06151931 0.039244656 0.041107804 -0.07672553
00000000: 7228 843d 92d8 64bb cad2 adbd a8cb 1d3d
00000010: cc12 ef3c a195 bd3d 9dd5 ce3d 86d5 fbbd
00000020: 3865 fdbc 2ccc 5bbd bb09 373d 4ffd e2bc
00000030: d148 f63d b7ea c33d 29b4 06bc 15f9 0d3d
00000040: 4c97 513d 5450 f2bc 68fb e9bc 3765 d4bd
00000050: bdf1 91bd 9a53 4f3d df72 67bd 53d6 a8bd
00000060: af77 ac3d 3858 15bd e910 e0bd e333 b4bd
00000070: ca3c 953b f1be ebbd 7cc0 a43d fffe a63d
00000080: 0ab2 26bd 4775 3c3d bab5 553d 4eb4 7cbd
00000090: 241d a23c b71f 8ebd 192c 6bbd fe7e 343d
000000a0: 6351 dabd 1327 97bd 2bf8 033d 907c 933d
000000b0: db55 c33d 5903 2dbd 2e68 8e3d 1955 d7bb
000000c0: e75f d0bd 695f ae3d 8564 d13d 8b27 7b3d
000000d0: d52c 213d 01de 90bd 0b4b ad3d f321 063d
000000e0: b34e cd3c c0a1 d3bc 4664 993d 4db3 08bd
000000f0: acfb 7b3d 01bf 203d a860 283d 4622 9dbd

convs.2.lin_r.weight f4 [64, 64]
0.08212387 0.094559155 0.12378089 -0.08390986 -0.11103811 -0.12611046 -0.1212479 0.048638873
0.0991654 0.011025178 0.012923426 -0.015554174 0.09844363 0.02179051 0.063480675 0.087291054
0.02942583 -0.098542504 -0.086052276 0.044539366 0.09343812 0.11372427 -0.08586413 -0.11169059
-0.025578083 -0.07293241 0.055843525 -0.08905907 -0.037998866 -0.09227737 0.054690987 -0.040893458
0.09534406 -0.012371178 0.0957345 0.0977788 0.1006999 6.0429957e-05 -0.03438838 -0.10308407
-0.10701471 0.13951208 0.029061386 0.12869795 0.027179332 0.0265498 -0.023652557 0.005768769
-0.117713645 0.009293797 0.07282423 -0.111603186 -0.034261294 -0.10638167 -0.020781219 0.055172097
-0.07485752 0.04729522 0.0254115 -0.045561437 -0.060024854 -0.09353507 -0.058010053 -0.11072925
0.120013155 0.053993825 -0.024166105 -0.11641948 0.040786915 0.043254245 -0.083373524 0.0030565406
0.09824411 -0.074968345 -0.0030500225 -0.029640274 -0.06136586 0.0027432304 0.11599891 -0.07054337
-0.043761265 0.031269398 -0.06321999 -0.06072912 -0.021937609 -0.09090118 -0.058963683 -0.027349895
-0.13134313 0.048301693 0.09292533 -0.007487895 -0.024101214 -0.019141756 -0.04443909 0.024107112
-0.07317604 0.09443274 0.047046725 0.11159354 -0.10527594 -0.050597113 -0.061427947 0.047751002
0.06650908 -0.0062187253 0.008960133 0.08890127 0.03481163 -0.039217405 -0.099437 0.021354606
-0.08656903 0.11488674 -0.11775711 0.030150423 0.039714836 -0.046012305 0.045567784 -0.034410905
-0.06022428 -0.048070986 -0.090835035 0.018878207 -0.06697676 -0.0456397 0.022271551 -0.08603399
0.071625404 -0.10015376 -0.06553155 0.1317159 0.0865241 0.08174161 -0.024887202 -0.10316187
0.016604533 -0.024502458 -0.0044208383 0.011568614 -0.051247958 0.042703044 -0.005964128 0.12151538
0.03988749 -0.03758259 0.07113782 0.033759978 -0.042647783 0.03529728 -0.027279567 0.022622501
0.061238226 -0.06338448 -0.054538436 -0.020722289 -0.041396666 0.08403036 0.026370674 -0.011681393
-0.038153738 0.04090217 0.07573063 0.1305354 0.087677784 0.1044811 0.1231905 0.017463846
0.10849981 -0.08862102 -0.07270583 0.009256893 0.04481961 0.07900456 0.03515611 0.03231917
0.01463169 -0.026709624 0.08088971 0.08963784 -0.036801767 -0.03555369 0.026662188 -0.010077496
-0.032409187 -0.03628126 0.0167001 0.005513907 0.11129521 -0.1297621 -0.08468226 0.008766949
-0.023162754 -0.013656762 0.005042451 0.057366963 -0.053576842 -0.09861949 0.06383719 -0.11338262
-0.035823748 -0.005460323 0.00018020834 -0.103087336 0.081133045 -0.08873514 0.03763961 0.06962783
0.033199407 0.011057605 -0.02486869 -0.01561571 -0.03604642 -0.012801742 0.07402837 0.0013167633
-0.0150461625 0.001760086 -0.05973632 0.116053246 0.088810675 -0.039792698 0.018430399 0.040088344
-0.09757445 0.09111894 -0.07695541 -0.14179048 -0.03939193 -0.076351285 -0.070366584 -0.094091736
-0.111008964 -0.0071359924 0.055654347 0.05204716 -0.052678924 -0.109649934 0.10162521 0.117139295
-0.09154109 -0.052901484 0.03810509 0.11544313 -0.013483307 -0.109777816 -0.013733367 -0.0786858
-0.042179152 -0.01942444 -0.047103945 0.05905755 0.04864317 0.020976366 -0.09447601 -0.12370388
00000000: 8f30 a83d 3ba8 c13d d680 fd3d efd8 abbd
00000010: f367 e3bd 1a23 01be d250 f8bd 8e39 473d
00000020: 3b17 cb3d f3a2 343c c7bc 533c efd6 7ebc
00000030: d09c c93d 0382 b23c 2802 823d a7c5 b23d
00000040: 700e f13c a7d0 c9bd 2d3c b0bd e96e 363d
00000050: 7c5c bf3d 45e8 e83d 88d9 afbd 09be e4bd
00000060: 2189 d1bc 965d 95bd 2ebc 643d 9a64 b6bd
00000070: b3a4 1bbd ebfb bcbd a803 603d e67f 27bd
00000080: bf43 c33d 7bb0 4abc 7310 c43d 4040 c83d
00000090: c03b ce3d 2c76 7d38 d4da 0cbd be1d d3bd
000000a0: 872a dbbd 41dc 0e3e 2512 ee3c 65c9 033e
000000b0: 31a7 de3c f77e d93c 02c3 c1bc f107 bd3b
000000c0: da13 f1bd 0345 183c df24 953d 3690 e4bd
000000d0: 9255 0cbd a2de d9bd 603d aabc 23fc 613d
000000e0: e64e 99bd a2b8 413d c72b d03c a19e 3abd
000000f0: 9fdc 75bd 518f bfbd f39b 6dbd 04c6 e2bd
00000100: 75c9 f53d a128 5d3d fff7 c5bc 566d eebd
00000110: 2e10 273d 5d2b 313d bdbf aabd 3e50 483b
00000120: 3534 c93d 0189 99bd e3e2 47bb 29d0 f2bc
00000130: c55a 7bbd c5c7 333b d690 ed3d 0b79 90bd
00000140: 033f 33bd 5714 003d 7b79 81bd 19bf 78bd
00000150: 80b6 b3bc 662a babd e783 71bd e30c e0bc
00000160: d07e 06be ffd7 453d a34f be3d 045d f5bb
00000170: e96f c5bc 2ccf 9cbc c305 36bd 477c c53c
00000180: 52dd 95bd f465 c13d 11b4 403d 278b e43d
00000190: e99a d7bd eb3e 4fbd df9b 7bbd 8e96 433d
000001a0: ea35 883d 73c6 cbbb 86cd 123c de11 b63d
000001b0: a496 0e3d 6ea2 20bd a0a5 cbbd dbef ae3c
000001c0: 1b4b b1bd bd49 eb3d a42a f1bd 05fe f63c
000001d0: 06ac 223d 6677 3cbd 49a5 3a3d 73f2 0cbd
000001e0: bcad 76bd 15e6 44bd b807 babd 78a6 9a3c
000001f0: 1d2b 89bd b2f0 3abd d472 b63c 9732 b0bd
00000200: 57b0 923d 6a1d cdbd 6835 86bd 88e0 063e
00000210: 8c33 b13d 2568 a73d 3fe0 cbbc 8846 d3bd
00000220: 3b06 883c 61b9 c8bc aedc 90bb 498a 3d3c
00000230: 61e9 51bd 63e9 2e3d bb6e c3bb 0edd f83d
00000240: 1161 233d 34f0 19bd b5b0 913d e747 0a3d
00000250: 71af 2ebd e193 103d 6679 dfbc d352 b93c
00000260: efd4 7a3d b9cf 81bd b263 5fbd cac1 a9bc
00000270: 8d8f 29bd 1c18 ac3d 5007 d83c 5063 3fbc
00000280: 1847 1cbd 0989 273d a918 9b3d 12ab 053e
00000290: 6990 b33d 30fa d53d 4d4b fc3d 5710 8f3c
000002a0: 2635 de3d f07e b5bd cbe6 94bd 39aa 173c
000002b0: c494 373d 25cd a13d daff 0f3d 1b61 043d
000002c0: c2b9 6f3c 24ce dabc 81a9 a53d 0b94 b73d
000002d0: 73bd 16bd bfa0 11bd a96a da3c 151c 25bc
000002e0: 7fbf 04bd a99b 14bd a6ce 883c 01ae b43b
000002f0: beee e33d 5be0 04be e56d adbd 40a3 0f3c
00000300: d1bf bdbc 9dc0 5fbc 253b a53b 9ff9 6a3d
00000310: 6473 5bbd 04f9 c9bd 13bd 823d 2635 e8bd
00000320: ecbb 12bd 82ec b2bb 4ff6 3c39 741f d3bd
00000330: 1529 a63d c5ba b5bd fe2b 1a3d 0999 8e3d
00000340: 1afc 073d f52a 353c 6cb9 cbbc 09d9 7fbc
00000350: 69a5 13bd 66be 51bc 309c 973d 3f97 ac3a
00000360: 2e84 76bc b0b2 e63a 12ae 74bd 53ad ed3d
00000370: 5fe2 b53d abfd 22bd 59fb 963c ad33 243d
00000380: 1dd5 c7bd 919c ba3d cc9a 9dbd 8631 11be
00000390: 6f59 21bd 105e 9cbd 5b1c 90bd 2bb3 c0bd
000003a0: ab58 e3bd 0bd5 e9bb d0f5 633d 672f 553d
000003b0: dbc5 57bd 2590 e0bd e120 d03d bae6 ef3d
000003c0: e579 bbbd 3aaf 58bd 1514 1c3d 736d ec3d
000003d0: 17e9 5cbc 31d3 e0bd eb01 61bc 0526 a1bd
000003e0: 0cc4 2cbd 0120 9fbc 11f0 40bd 54e6 713d
000003f0: 103e 473d a1d6 ab3c a37c c1bd 7658 fdbd

classifier.0.weight f4 [64, 128]
-0.025373349 -0.024246408 -0.063832074 -0.05909639 -0.03479869 -0.07303816 0.10760546 0.115210466
-0.052544657 0.028400857 0.06975901 -0.0014059818 0.03830552 -0.01810846 -0.031993855 -0.053909916
0.019798301 0.053154197 0.013869538 0.0616368 -0.0003561653 -0.05437909 -0.03709192 0.0038267307
-0.009556267 0.037502326 -0.013045631 -0.04777055 0.06431993 0.09241892 -0.066688366 -0.041229118
-0.002197934 0.016064044 -0.05054266 0.019079598 -0.03139995 -0.027896168 0.09090885 -0.049052026
-0.036889613 -0.022827273 0.09333284 0.06078359 0.014797288 0.027603941 0.019789444 -0.064929396
-0.044330712 0.0111785885 0.08335832 0.03109921 0.035781343 -0.07127021 0.08298905 0.031294115
0.017690934 -0.093944214 -0.0015352784 -0.050858427 0.017976556 0.055267647 0.03163096 0.008083806
0.05193245 0.018152488 0.07548436 -0.09154226 -0.0017804318 -0.06318535 0.03680684 0.041318074
-0.056303084 -0.09839159 0.09363407 -0.009763607 -0.017568652 0.044208486 0.018916762 -0.042875394
-0.037748363 -0.09487452 -0.023312587 -0.023432331 0.047627047 -0.0023858014 0.013820235 -0.022968542
-0.015505248 0.00817507 -0.05462359 -0.024191022 -0.028139433 -0.08018011 -0.005272664 -0.054813545
-0.05500729 0.059112716 -0.0038470626 -0.060221545 0.07911481 0.052834585 0.024814308 0.030598132
0.039752945 -0.062785044 0.051496893 0.07384311 -0.001303252 0.08107211 0.06134547 0.053368848
-0.0625795 0.046008352 -0.06294411 0.024964917 0.08194059 -0.025676018 -0.0107069295 0.10054653
-0.053315096 -0.017838148 -0.024141977 0.02852454 -0.010846943 -0.086104594 -0.07568524 -0.017376702
-0.029459888 0.06329041 -0.089340016 0.04186159 -0.04664152 -0.041597713 -0.09028628 -0.012397326
-0.012146132 0.010246766 -0.043953758 -0.04544434 -0.06573724 -0.0064241146 0.037769053 0.017216172
0.08476326 0.028634522 -0.015882473 -0.052725784 0.037626468 0.05369241 -0.021966703 -0.008966978
0.021303082 0.06482497 0.0115065 0.021967566 -0.028961556 -0.05046456 -0.045714684 0.06573619
0.026044251 -0.09062498 -0.0450204 -0.06782865 -0.044265006 -0.0964709 0.061918423 -0.065055795
0.041371368 0.044179425 0.06541036 0.030455902 0.07118857 -0.020103758 -0.032135304 -0.07754012
0.047716428 -0.03943242 0.06647184 0.056512654 -0.05019733 0.033636704 -0.08057216 0.056059934
0.012774963 0.0381862 0.051013045 0.025516981 -0.023791721 -0.04902503 0.02510536 -0.013139322
0.027114365 0.036961574 0.034164295 -0.030650413 -0.027895762 0.08377374 0.0038389121 -0.050015908
-0.07018905 0.074408494 -0.046898793 0.07526467 -0.008058896 -0.04591494 0.03753982 0.039042734
-0.07921122 0.087225296 0.0308728 0.0421475 -0.067437544 -0.055041328 0.063486256 0.075148076
0.009309101 -0.021310294 -0.0016247744 -0.030767065 0.05805673 -0.044816878 -0.060426094 0.029237354
-0.043469172 -0.012588169 -0.039112493 0.0067120143 -0.027613467 0.051461924 0.013094268 -0.016959963
0.06392386 0.03409865 -0.055563442 0.014835864 -0.040997013 -0.10443583 0.007683949 0.043862507
-0.036575425 0.022228748 0.0744135 0.043921683 -0.04646138 -0.07864394 -0.044592552 -0.031116731
-0.0209951 -0.008305509 -0.08231779 -0.044446316 0.01851216 0.030035539 -0.039788116 -0.0016316022
00000000: c5db cfbc 67a0 c6bc 64ba 82bd 0e0f 72bd
00000010: 1289 0ebd 0895 95bd 4060 dc3d 77f3 eb3d
00000020: 1139 57bd eaa8 e83c d0dd 8e3d ec48 b8ba
00000030: 40e6 1c3d 3158 94bc fd0b 03bd a5d0 5cbd
00000040: 0c30 a23c 37b8 593d 0f3d 633c df76 7c3d
00000050: b3bb bab9 9cbc 5ebd b2ed 17bd e3c9 7a3b
00000060: e491 1cbc 0a9c 193d 58bd 55bc 0dab 43bd
00000070: 2bba 833d 2146 bd3d e993 88bd dddf 28bd
00000080: 370b 10bb be98 833c d205 4fbd d14c 9c3c
00000090: 3c9d 00bd 8186 e4bc 6b2e ba3d c7ea 48bd
000000a0: 9019 17bd 4300 bbbc 4a25 bf3d 37f8 783d
000000b0: 5370 723c a921 e23c 791d a23c b4f9 84bd
000000c0: 1f94 35bd 6626 373c c4b7 aa3d c5c3 fe3c
000000d0: 758f 123d 1ef6 91bd 2af6 a93d 422e 003d
000000e0: 94ec 903c d365 c0bd 653b c9ba ed50 50bd
000000f0: 9243 933c 5460 623d 778f 013d f171 043c
00000100: 1fb7 543d 87b4 943c 8b97 9a3d 827a bbbd
00000110: 615d e9ba 5267 81bd c5c2 163d 243d 293d
00000120: 109e 66bd 8881 c9bd 38c3 bf3d 89f7 1fbc
00000130: 22ec 8fbc f513 353d 53f7 9a3c 1c9e 2fbd
00000140: 079e 1abd 934d c2bd 0afa bebc 29f5 bfbc
00000150: 9414 433d 1b5b 1cbb 446e 623c 8628 bcbc
00000160: b909 7ebc bbf0 053c fcbc 5fbd 402c c6bc
00000170: ab84 e6bc 7835 a4bd 50c6 acbb 2b84 60bd
00000180: 534f 61bd 2d20 723d 001f 7cbb deaa 76bd
00000190: f206 a23d 1469 583d 6047 cb3c efa8 fa3c
000001a0: fcd3 223d 7295 80bd 68ee 523d 0e3b 973d
000001b0: e1d1 aaba 2209 a63d 6345 7b3d 4b99 5a3d
000001c0: ae29 80bd 4173 3c3d d7e8 80bd 3a83 cc3c
000001d0: 78d0 a73d 8356 d2bc 1e6c 2fbc 57eb cd3d
000001e0: ee60 5abd 4f21 92bc 65c5 c5bc 4cac e93c
000001f0: 60b7 31bc 9b57 b0bd dd00 9bbd 9659 8ebc
00000200: dd55 f1bc 679e 813d e6f7 b6bd 0f77 2b3d
00000210: 2e0b 3fbd 5d62 2abd 03e8 b8bd 271e 4bbc
00000220: 9200 47bc 0de2 273c db08 34bd d823 3abd
00000230: 3fa1 86bd 6181 d2bb b9b3 1a3d ee08 8d3c
00000240: 5c98 ad3d f292 ea3c f61b 82bc fef6 57bd
00000250: 361e 1a3d 93ec 5b3d 84f3 b3bc 3bea 12bc
00000260: cd83 ae3c f4c2 843d c285 3c3c 53f5 b33c
00000270: c940 edbc edb3 4ebd 523f 3bbd b2a0 863d
00000280: c15a d53c 9799 b9bd 5067 38bd bfe9 8abd
00000290: 394f 35bd 8992 c5bd 2c9e 7d3d f93b 85bd
000002a0: 0675 293d 7cf5 343d def5 853d a87e f93c
000002b0: 50cb 913d a3b0 a4bc 4fa0 03bd 5bcd 9ebd
000002c0: 4d72 433d e483 21bd 6322 883d d079 673d
000002d0: b79b 4dbd a4c6 093d 0403 a5bd 1a9f 653d
000002e0: 144e 513c 2269 1c3d 0ef3 503d fd08 d13c
000002f0: dbe6 c2bc 78ce 48bd c2a9 cd3c 5046 57bc
00000300: f21e de3c 0565 173d dcef 0b3d 9316 fbbc
00000310: a785 e4bc 9191 ab3d 4296 7b3b 7bdd 4cbd
00000320: 47bf 8fbd 7b63 983d f318 40bd 5d24 9a3d
00000330: 7609 04bc 4e11 3cbd 5bc3 193d 46eb 1f3d
00000340: 7e39 a2bd 2da3 b23d f4e8 fc3c dba2 2c3d
00000350: b21c 8abd 0473 61bd 1505 823d 3ce7 993d
00000360: 3385 183c ed92 aebc 62f6 d4ba 360b fcbc
00000370: e5cc 6d3d e791 37bd 5a81 77bd 2d83 ef3c
00000380: bb0c 32bd 9c3e 4ebc 6c34 20bd 75f0 db3b
00000390: a335 e2bc bdc9 523d 5789 563c 9fef 8abc
000003a0: 83ea 823d 07ab 0b3d 7e96 63bd 2012 733c
000003b0: 7cec 27bd 74e2 d5bd a3c9 fb3b 2ca9 333d
000003c0: 1dd0 15bd 1019 b63c 1b66 983d 39e7 333d
000003d0: 4a4e 3ebd 1310 a1bd aea6 36bd 84e8 febc
000003e0: eafd abbc d413 08bc 3b96 a8bd 570d 36bd
000003f0: d0a6 973c 170d f63c ddf8 22bd 7cdb d5ba
