finalhybrid/experiments/simple_model_small_samples_abs/final_simple_model.pth (torch, 74162 bytes, 13 tensors)

gat_layers.0.att_src f4 [1, 4, 16]
-0.3171421 0.21471313 -0.21789941 0.44584575 -0.3583648 0.12420101 0.48060367 -0.28865638
0.048107445 -0.21874873 0.231287 -0.35186693 0.33863288 -0.04363323 -0.47419292 -0.49289954
-0.519707 0.1453091 -0.22158368 0.35177085 -0.042116474 -0.061919715 -0.28817767 0.3540197
-0.1993769 0.22100659 0.22202222 0.40785035 0.11683357 0.21759407 0.33641556 0.1920392
0.4581916 0.34288153 -0.07384811 0.18827245 0.32810417 0.49634084 -0.25764254 -0.4523567
-0.35917917 -0.121841505 0.32904467 -0.12029699 0.00837347 0.063144 0.42069882 0.5056539
0.263516 0.42925546 0.18099642 0.43792346 0.48881453 -0.015311505 -0.45499307 -0.1229378
-0.107058555 0.23362961 -0.3516878 -0.49055025 -0.2392868 -0.05331312 -0.44550908 0.3443926
00000000: 7360 a2be c2dd 5b3e 0621 5fbe e545 e43e
00000010: 977b b7be 195d fe3d af11 f63e c5ca 93be
00000020: 500c 453d abff 5fbe 80d6 6c3e e727 b4be
00000030: 4a61 ad3e c2b8 32bd 6ac9 f2be 545d fcbe
00000040: 850b 05bf e9cb 143e d5e6 62be 4f1b b43e
00000050: 5382 2cbd 879f 7dbd 068c 93be 1242 b53e
00000060: 7529 4cbe 8d4f 623e cb59 633e c3d1 d03e
00000070: 7046 ef3d fbd0 5e3e a93e ac3e eda5 443e
00000080: 1798 ea3e 2b8e af3e ae3d 97bd 7eca 403e
00000090: 45fd a73e 6320 fe3e b9e9 83be 4c9b e7be
000000a0: 55e6 b7be 0a88 f9bd 8b78 a83e 455e f6bd
000000b0: e130 093c a451 813d d665 d73e 8972 013f
000000c0: 92eb 863e 5fc7 db3e 2057 393e 8137 e03e
000000d0: e645 fa3e 1bdd 7abc daf4 e8be d0c6 fbbd
000000e0: 8441 dbbd 9a3c 6f3e 6c10 b4be 6729 fbbe
000000f0: 9907 75be dc5e 5abd c419 e4be 3a54 b03e

gat_layers.0.att_dst f4 [1, 4, 16]
0.050032664 -0.05000843 -0.057753365 -0.31822687 0.0010383048 0.38927558 -0.0953368 0.011308777
0.07853433 -0.069546476 -0.0109825935 -0.35847056 0.19142142 0.36702117 -0.0064917156 -0.14416099
-0.27183452 0.0014801255 -0.0003957802 0.31753594 -0.15085211 -0.05091138 -3.5835264e-08 0.1732436
0.063932255 -0.09207045 0.02399596 -0.0077469368 7.189451e-07 -0.0053965943 -0.000107954365 -0.01518868
0.14838219 0.010522359 -0.080057725 -0.10168359 -1.5197134e-07 0.0074298205 -0.20762616 -5.1391982e-08
0.26756647 -0.25534528 -1.7617803e-07 0.11958414 -3.0044782e-07 -0.33132237 4.563249e-08 -1.4681402e-07
0.001006053 -0.2682069 0.38884416 -0.14021437 0.20135564 -0.5021558 -0.22397839 0.4474844
-0.09431454 -0.08739711 -0.40145487 -0.10861069 0.3584487 -0.1952655 -0.12385966 -0.27246043
00000000: 0def 4c3d a4d5 4cbd cb8e 6cbd a2ee a2be
00000010: ba17 883a 214f c73e f13f c3bd 7348 393c
00000020: 9bd6 a03d 626e 8ebd 56f0 33bc 7489 b7be
00000030: fa03 443e 33ea bb3e 75b8 d4bb f09e 13be
00000040: e52d 8bbe c500 c23a b880 cfb9 1294 a23e
00000050: fa78 1abe 7488 50bd 4ae9 19b3 c566 313e
00000060: eaee 823d 6f8f bcbd 2d93 c43c 04da fdbb
00000070: 88fd 4035 ead5 b0bb 8f65 e2b8 f1d9 78bc
00000080: 80f1 173e f965 2c3c 4ef5 a3bd 7c3f d0bd
00000090: 902d 23b4 da75 f33b f49b 54be 15ba 5cb3
000000a0: 79fe 883e 9ebc 82be 732b 3db4 88e8 f43d
000000b0: 3c4d a1b4 16a3 a9be 74fd 4333 eea3 1db4
000000c0: 89dd 833a 6a52 89be 9516 c73e 5b94 0fbe
000000d0: 2c30 4e3e 488d 00bf 975a 65be ad1c e53e
000000e0: fb27 c1bd 42fd b2bd 7e8b cdbe 486f debd
000000f0: 9786 b73e aef3 47be 22aa fdbd ef7f 8bbe

gat_layers.0.bias f4 [64]
0.0011578485 -0.0062521757 -0.021970436 -0.019845732 -0.01627242 0.0 0.010424505 -0.005289766
-0.0013849342 -0.022998419 -0.01750934 -0.019839274 -0.0042489194 -0.018882284 -0.0061280536 -0.00853951
-0.031617068 -0.017590702 -0.0063923835 -0.010362206 -0.01412214 -0.0289107 -0.0097397 0.0
0.009169423 0.0 -0.0020790317 -0.0054133516 -0.026164856 -0.010721236 -0.036178377 -0.015546326
-0.008385723 0.0 -0.0528229 -0.042690385 0.008803606 0.0 0.014247324 0.0
-0.012973771 -0.021970525 0.0 -0.041447707 0.0 -0.017243043 0.02456014 0.0
-0.007634734 -0.011935236 -0.004040951 0.003270738 0.0 -0.026516857 -0.021893961 -0.0005261137
-0.022970391 -0.0033312927 0.0003901043 0.0 0.0 -0.024792328 0.0 -0.026000934
00000000: f3c2 973a 0ddf ccbb 58fb b3bc 8493 a2bc
00000010: bd4d 85bc 0000 0000 8bcb 2a3c c655 adbb
00000020: ae86 b5ba 2e67 bcbc bf6f 8fbc f985 a2bc
00000030: 853a 8bbb 05af 9abc d7cd c8bb 4de9 0bbc
00000040: e680 01bd 601a 90bc 3377 d1bb 3ec6 29bc
00000050: 8c60 67bc 22d6 ecbc 4393 1fbc 0000 0000
00000060: 593b 163c 0000 0000 5d40 08bb 7c62 b1bb
00000070: ae57 d6bc 1fa8 2fbc c72f 14bd 04b6 7ebc
00000080: 4664 09bc 0000 0000 d35c 58bd 1ddc 2ebd
00000090: 003d 103c 0000 0000 9c6d 693c 0000 0000
000000a0: f18f 54bc 88fb b3bc 0000 0000 12c5 29bd
000000b0: 0000 0000 4841 8dbc 5932 c93c 0000 0000
000000c0: ca2c fabb 028c 43bc f469 84bb e159 563b
000000d0: 0000 0000 e139 d9bc f75a b3bc e5ea 09ba
000000e0: 672c bcbc d151 5abb ea86 cc39 0000 0000
000000f0: 0000 0000 4819 cbbc 0000 0000 e9ff d4bc

gat_layers.0.lin.weight f4 [64, 36]
0.13354434 -0.08110121 -0.14497706 0.1924151 0.055879988 0.18340446 -0.06402294 -0.057210837
-0.08526075 -0.036134027 4.070093e-08 -0.031040795 -5.327351e-06 1.3038401e-08 2.9131635e-09 0.013905554
1.6632511e-07 6.954408e-08 0.0023462626 -0.009522087 -2.9735826e-08 0.17113209 7.156589e-07 -0.112335935
-0.1720279 -0.012981647 0.13502912 0.052662563 -0.19380602 -0.045138072 0.013344228 -0.049554255
0.0015160338 0.049656592 -0.049645223 -0.0996176 -0.13938844 0.14122085 -0.14330521 -0.10313052
0.067448325 -0.0032081748 -5.143221e-05 0.047327533 0.0023849397 0.004798 -0.030385602 -4.7147847e-08
8.168758e-05 -0.049731463 0.00011731744 -0.026676804 -7.5534945e-07 -6.061383e-08 3.7042586e-08 4.9486286e-09
-2.9580843e-08 0.20070474 -0.0057092137 0.0020683256 -0.17336482 0.053167544 -0.1036338 0.040487107
0.021911073 -0.17333454 -0.07837844 -4.299563e-06 -0.059811022 0.10394188 -0.078278996 0.10602833
-0.15125483 -0.25537616 -0.15360999 -0.09247893 0.033942595 0.13920042 -0.0015740652 0.0050822413
0.17455114 -0.0396412 -0.041776862 0.026556352 -0.0062757777 1.5399118e-07 0.045779992 0.0052778446
-0.006027067 -6.1174245e-07 -5.0232693e-06 3.5077026e-08 0.038401045 0.21281011 4.0232403e-06 0.039003283
0.17753439 0.009197102 -0.18125263 0.013813656 0.118056916 -0.024393613 -0.11457005 0.004490128
-0.00095497473 0.019291604 -0.02034347 -0.12860417 0.12776875 0.19272883 0.03464346 -0.012305959
0.18645373 0.1882366 -0.022831628 8.454966e-08 -0.006795995 -0.0003878651 -4.624259e-09 -0.010648275
1.3583771e-08 2.0561515e-08 4.883057e-06 -6.779575e-05 5.300611e-06 0.041124176 -2.0454623e-07 4.2355e-09
1.3818774e-08 -0.13758896 2.671949e-07 -0.04290956 0.16881229 2.548897e-08 -0.038150325 0.06243051
0.18346658 0.0107925935 0.1493985 -3.512373e-09 9.762036e-09 -0.092164375 0.012859013 0.004230569
-0.19449922 -0.0032782992 -0.2295524 0.07915749 0.039509572 0.11678637 -0.048325885 -0.02972532
0.043960176 0.030917056 9.113457e-09 -4.3747686e-08 -9.0235386e-05 0.035249136 4.6771813e-05 0.028414657
-6.834685e-07 -0.006822418 -0.0020793094 0.0020777108 -0.04020741 -0.12078677 -3.3162756e-08 -0.05320315
-0.18972522 -0.0025486117 0.080798194 0.01024748 -0.054743618 0.22011729 -0.052966468 -5.786068e-07
-2.1500848e-05 0.027946405 0.15822908 0.19700643 -0.10746712 0.13004297 -0.07378639 -0.02698443
0.054342162 0.0017685272 -1.0481451e-05 0.001803439 0.060482044 0.03721042 0.011803807 0.003228128
9.816531e-07 2.834048e-10 -0.0013269971 0.046023354 -0.00065698085 0.00036709278 0.0124481805 -1.56928e-08
3.8890818e-08 0.0977396 -0.015873143 0.008774558 -0.21155925 0.027542766 -0.23891819 0.082301706
0.001997839 -0.05545739 4.0619707e-06 2.7774652e-08 0.0027886229 -0.14333363 0.15376057 -0.08875746
-0.13657144 0.16416214 -0.11736963 -0.016180655 -0.033856913 0.082413726 0.00818913 1.3485073e-08
-0.046293695 0.0090503665 3.5238356e-06 0.049396638 -0.044609323 0.05202578 0.00013074443 0.021737484
0.026178986 -0.03700211 0.03463165 -0.027843926 -2.8503277e-07 -0.05611782 -1.0637149e-05 0.032575253
-0.0363613 0.058219098 0.03893477 -0.017813096 0.21653418 0.053928085 -0.123513795 -0.002511129
0.046830833 -0.010543339 -0.16978204 0.14203282 0.034120113 -0.11279846 0.07918463 -0.0017220086
00000000: d9bf 083e 6418 a6bd de74 14be 7708 453e
00000010: 6ae2 643d 61ce 3b3e 761e 83bd e955 6abd
00000020: 309d aebd 4601 14bd 25cf 2e33 4449 febc
00000030: 99c1 b2b6 7eff 5f32 ea30 4831 1fd4 633c
00000040: 1997 3234 4358 9533 c1c3 193b 8702 1cbc
00000050: c66d ffb2 403d 2f3e b51b 4035 6210 e6bd
00000060: 1528 30be f9b0 54bc 1345 0a3e b3b4 573d
00000070: 1675 46be b3e2 38bd c0a1 5a3c 67f9 4abd
00000080: a7b5 c63a b664 4b3d ca58 4bbd 5004 ccbd
00000090: d8bb 0ebe 339c 103e 9abe 12be 1836 d3bd
000000a0: 5922 8a3d 3e40 52bb eab8 57b8 84da 413d
000000b0: a64c 1c3b 8b38 9d3b 3aeb f8bc 9b7f 4ab3
000000c0: b04f ab38 38b3 4bbd 5208 f638 5089 dabc
000000d0: 38c3 4ab5 ce2a 82b3 c118 1f33 9908 aa31
000000e0: f618 feb2 8b85 4d3e 5b14 bbbb bf8c 073b
000000f0: 8c86 31be 36c6 593d f53d d4bd cfd5 253d
00000100: da7e b33c 9c7e 31be e084 a0bd f744 90b6
00000110: 67fc 74bd 7bdf d43d bd50 a0bd 6225 d93d
00000120: 8ce2 1abe aac0 82be f04b 1dbe 9865 bdbd
00000130: 6407 0b3d 8e8a 0e3e dd50 ceba ee88 a63b
00000140: 89bd 323e d05e 22bd 371e 2bbd b58c d93c
00000150: 0aa5 cdbb c658 2534 cd83 3b3d c5f1 ac3b
00000160: b47e c5bb 9f36 24b5 8e8d a8b6 99a7 1633
00000170: 6a4a 1d3d e5ea 593e 5fff 8636 e8c1 1f3d
00000180: 93cb 353e 71af 163c 4a9a 39be ac52 623c
00000190: d3c7 f13d 1dd5 c7bc b4a3 eabd ec21 933b
000001a0: 4557 7aba 6d09 9e3c 59a7 a6bc d0b0 03be
000001b0: d0d5 023e b55a 453e 4de6 0d3d ef9e 49bc
000001c0: baed 3e3e 18c1 403e 6509 bbbc ab91 b533
000001d0: f0b0 debb 5f5a cbb9 6ae3 9eb1 1a76 2ebc
000001e0: 0f5e 6932 409f b032 24d9 a336 912d 8eb8
000001f0: e7db b136 d371 283d 3da1 5bb4 da87 9131
00000200: 9c67 6d32 1fe4 0cbe fd72 8f34 efc1 2fbd
00000210: 21dd 2c3e d6f2 da32 8443 1cbd 22b7 7f3d
00000220: aade 3b3e 6bd3 303c ecfb 183e 525e 71b1
00000230: e3b5 2732 adc0 bcbd 9cae 523c 96a0 8a3b
00000240: ce2a 47be bcd8 56bb c90f 6bbe 521d a23d
00000250: cad4 213d b12d ef3d 5df1 45bd 8482 f3bc
00000260: 960f 343d c445 fd3c 6891 1c32 17e5 3bb3
00000270: c13c bdb8 6661 103d da2c 4438 dbc5 e83c
00000280: 9977 37b5 978e dfbb 0645 08bb 342a 083b
00000290: 86b0 24bd 0e5f f7bd d66e 0eb3 8ceb 59bd
000002a0: 5447 42be 9c06 27bb 8679 a53d 0ce5 273c
000002b0: d83a 60bd 6d66 613e 5ef3 58bd 8e51 1bb5
000002c0: b85c b4b7 dcef e43c ce06 223e 0ebc 493e
000002d0: b917 dcbd fc29 053e 521d 97bd 740e ddbc
000002e0: e395 5e3d edcd e73a 7dd9 2fb7 5f61 ec3a
000002f0: 05bc 773d f469 183d c164 413c 008f 533b
00000300: 58c1 8335 aecd 9b2f a2ee adba fc82 3c3d
00000310: 3d39 2cba 5c76 c039 74f3 4b3c d5cc 86b2
00000320: e808 2733 b32b c83d 6508 82bc 2ac3 0f3c
00000330: fda2 58be 5ea1 e13c f8a6 74be cc8d a83d
00000340: 2dee 023b 4a27 63bd 104c 8836 1b95 ee32
00000350: 54c1 363b 0dc6 12be 6973 1d3e 79c6 b5bd
00000360: 62d9 0bbe 1f1a 283e 7d5f f0bd 4b8d 84bc
00000370: 8cad 0abd 87c8 a83d b32b 063c faab 6732
00000380: 759e 3dbd fd47 143c 097b 6c36 2154 4a3d
00000390: 44b8 36bd fc18 553d 7118 0939 cf12 b23c
000003a0: 5075 d63c 868f 17bd ebd9 0d3d f218 e4bc
000003b0: 9b06 99b4 cddb 65bd 3576 32b7 a16d 053d
000003c0: 96ef 14bd 2677 6e3d 117a 1f3d c5ec 91bc
000003d0: 23bb 5d3e b2e3 5c3d cdf4 fcbd c191 24bb
000003e0: b0d1 3f3d f8bd 2cbc 58db 2dbe 0d71 113e
000003f0: 88c1 0b3d e102 e7bd 8d2b a23d 05b5 e1ba

gat_layers.1.att_src f4 [1, 4, 16]
0.3685627 -0.16955033 -0.21206006 -0.056915548 -0.38168398 0.10195492 0.4662713 -0.009583844
0.35934407 -0.3481192 -0.2440962 0.0320285 0.29144835 -0.29771578 0.26145223 -0.18589842
0.3273866 -0.045129724 0.11230825 0.44019607 0.059693556 0.23963417 -0.5303204 0.20295441
0.34488547 0.44737583 -0.019425727 0.12963942 -0.26298532 0.4003838 -0.13748904 0.04770989
-0.24278529 -0.29119238 -0.023547074 0.3458808 -0.13714418 -0.08115479 -0.5312287 0.28950515
0.08104147 -0.2680113 -0.09718042 -0.20201151 -0.034213755 -0.2371554 0.44130126 -0.37534675
0.058187447 -0.42681724 0.041374765 0.17359751 -0.41221547 -0.32997423 0.2946373 -0.04858791
0.39431727 -0.35536516 -0.16208702 -0.23614816 -0.43916404 -0.2480224 -0.11483221 0.44058543
00000000: 40b4 bc3e 9a9e 2dbe 4626 59be 4720 69bd
00000010: 156c c3be becd d03d 1dbb ee3e 8e05 1dbc
00000020: f2fb b73e ae3c b2be 5bf4 79be 5130 033d
00000030: b838 953e 346e 98be 11dd 853e 285c 3ebe
00000040: 379f a73e f2d9 38bd de01 e63d 6161 e13e
00000050: 3b81 743d a962 753e 14c3 07bf 48d3 4f3e
00000060: d494 b03e 720e e53e b422 9fbc 32c0 043e
00000070: 03a6 86be 1bff cc3e edc9 0cbe 726b 433d
00000080: b59c 78be 2b17 95be cbe5 c0bc 4a17 b13e
00000090: 866f 0cbe 7c34 a6bd 9bfe 07bf 053a 943e
000000a0: 12f9 a53d c738 89be 8706 c7bd 1bdc 4ebe
000000b0: b923 0cbd ddd8 72be 3df2 e13e 732d c0be
000000c0: f655 6e3d ca87 dabe 9678 293d 8cc3 313e
000000d0: e80d d3be 62f2 a8be b3da 963e 1e04 47bd
000000e0: f4e3 c93e 6cf2 b5be 24fa 25be d3d0 71be
000000f0: 1cda e0be 96f9 7dbe 262d ebbd 6a94 e13e

gat_layers.1.att_dst f4 [1, 4, 16]
-0.36476105 0.16746826 0.19346249 0.20409064 0.14806397 -0.09856854 0.012462462 0.17093778
-0.032419156 -0.016964175 -0.070951924 0.52760094 0.35046524 0.49912825 -0.37560874 -0.29251447
0.41974908 0.48474437 0.45996517 0.37019157 0.18253702 0.047760863 -0.4411427 -0.032388315
-0.13158144 0.30488893 0.36792907 -0.33632737 0.33000743 0.33984506 0.31804305 -0.28276333
0.088244736 0.33959448 -0.51788557 -0.29686934 0.30426434 -0.20838428 -0.39082646 -0.31266424
-0.31969476 0.053637467 0.2406188 -0.32503787 0.042575788 0.43594033 -0.12771077 0.47255448
0.083414465 0.3590701 0.20621951 -0.35870624 -0.14883593 0.0854191 0.1057818 -0.12298221
-0.090065345 0.47147268 0.32530233 0.13698193 0.45786852 -0.24781922 -0.14185509 0.08209686
00000000: f6c1 babe cd7c 2b3e 081b 463e 23fd 503e
00000010: 159e 173e 4dde c9bd 5b2f 4c3c 500a 2f3e
00000020: f3c9 04bd 74f8 8abc 3e4f 91bd db10 073f
00000030: 2e70 b33e bd8d ff3e ca4f c0be 75c4 95be
00000040: 5ae9 d63e 6a30 f83e 8e80 eb3e c089 bd3e
00000050: fcea 3a3e e5a0 433d 75dd e1be 9ca9 04bd
00000060: 49bd 06be 671a 9c3e 3361 bc3e 1a33 acbe
00000070: bcf6 a83e 2c00 ae3e 8ad6 a23e 5bc6 90be
00000080: a8b9 b43d 54df ad3e 2694 04bf 42ff 97be
00000090: 89c8 9b3e b062 55be 681a c8be 8715 a0be
000000a0: 08af a3be f6b2 5b3d c664 763e 5d6b a6be
000000b0: f363 2e3d 9233 df3e 9dc6 02be a9f2 f13e
000000c0: 34d5 aa3d 09d8 b73e 352b 533e 58a8 b7be
000000d0: 7268 18be 36f0 ae3d 21a4 d83d 19de fbbd
000000e0: 2e74 b8bd de64 f13e 078e a63e fe44 0c3e
000000f0: be6d ea3e 52c4 7dbe 7642 11be 6622 a83d

gat_layers.1.bias f4 [64]
0.009053636 -0.024814019 -0.023302723 0.007982811 0.016214194 0.0010566642 -0.039360568 -0.027924022
-0.01730612 -0.02693121 -0.0016044651 -0.027790416 -0.008628244 -0.01593676 -0.0030593611 -0.009527588
-0.020489128 -0.028299695 -0.009206439 -0.021635786 -0.017055565 -0.012068759 -0.029936897 0.03164011
-9.40478e-05 -0.00096131867 0.014119186 -0.020376716 -0.0055126273 -0.008783101 -0.0045094783 -0.0014727132
-0.016299011 -0.005458981 -0.01395348 -0.0071408954 -0.03123618 -0.016361684 -0.023586728 -0.018436184
-0.008001214 -0.03154059 -0.014277425 -0.01897917 -0.03139603 -0.025219109 0.003075362 -0.017656056
-0.004186058 -0.0003355283 -0.01856366 -0.009180395 -0.008423308 -0.005719992 -0.009184083 -0.026240343
-0.009205544 -0.0035944746 -0.0070320205 0.018230334 -0.015659897 0.009331755 -0.005878401 -0.02324102
00000000: b455 143c c546 cbbc 5ae5 bebc 56ca 023c
00000010: a1d3 843c c47f 8a3a 8c38 21bd ebc0 e4bc
00000020: 90c5 8dbc d79e dcbc ea4c d2ba baa8 e3bc
00000030: 7a5d 0dbc cf8d 82bc 907f 48bb 9a19 1cbc
00000040: d1d8 a7bc c3d4 e7bc 9bd6 16bc 883d b1bc
00000050: 1db8 8bbc 0bbc 45bc 393e f5bc 0f99 013d
00000060: 873b c5b8 0101 7cba 2954 673c 12ed a6bc
00000070: 45a3 b4bb ffe6 0fbc 3fc4 93bb 0e08 c1ba
00000080: 8185 85bc 40e1 b2bb 239d 64bc 2cfe e9bb
00000090: 04e3 ffbc f008 86bc f438 c1bc 7b07 97bc
000000a0: 8617 03bc b530 01bd dceb 69bc 347a 9bbc
000000b0: 2099 00bd 4e98 cebc 038c 493b 6fa3 90bc
000000c0: 332b 89bb d9e9 afb9 d112 98bc 5e69 16bc
000000d0: ea01 0abc c56e bbbb d678 16bc fdf5 d6bc
000000e0: dad2 16bc 4791 6bbb dd6c e6bb c857 953c
000000f0: 2f49 80bc 38e4 183c 9a9f c0bb f463 bebc

gat_layers.1.lin.weight f4 [64, 64]
0.009755119 0.11783721 -0.088254556 -0.17983848 0.1711716 -6.751443e-08 0.16933085 -0.0032889922
0.025164735 0.10593171 -0.08689421 -0.15879856 -0.08721212 0.13265893 -0.058995448 -0.12505485
-0.10013594 0.16521958 0.12608153 0.0499304 -0.18512937 -0.13836476 0.18666124 -7.877529e-09
-0.08816164 -7.897359e-09 0.14471664 0.029044922 -0.064890556 -0.1404407 -0.038910333 0.20395915
0.103515364 -0.00068219955 -0.016041355 0.12560378 0.04160131 -0.009792679 0.050054926 0.0011578216
-0.15554012 0.20812286 -0.0336762 -0.009251789 -0.040489234 0.080641 0.18465602 -0.019645216
-0.07613031 -0.045510925 -0.10231097 -0.07067594 -9.267538e-09 -0.15926883 -0.18442227 -0.038419988
0.21855977 0.055362795 -0.052399006 5.335066e-10 -0.01197006 0.04560111 -0.0029410957 0.01213802
-0.07834187 -0.07374852 -0.16933134 0.16085549 0.019756738 0.0072553274 0.16085838 6.354477e-09
0.03266751 0.12920067 0.14695802 0.08790018 0.07234356 0.059456352 -0.12864584 -0.20446573
-0.107181944 0.13191324 0.061889544 -0.03223039 -0.11506024 0.01865252 0.09254922 -0.00075374683
-0.046755712 3.3772302e-08 -0.1228845 0.011386485 0.05220475 -0.105853446 -0.026875166 0.08928135
-0.11507879 -3.5145542e-10 -0.042606886 -0.16718766 0.06555468 -0.04295378 -0.005213989 0.013436067
-0.18200296 0.14813901 -3.2451553e-08 0.0618087 0.042967245 0.16781028 0.13085432 5.0161952e-06
-0.09840395 -0.032788966 -0.036897555 -0.099030875 0.00090887945 0.16581601 -0.15085725 -0.009659271
-0.14139989 0.07165721 0.15153052 -7.688534e-09 -1.6278339e-08 -0.10197087 -0.011212493 0.074331984
-0.2084901 0.018512383 -0.08969255 -0.034917977 -0.16260839 -7.102331e-09 -0.13507135 0.015196039
-0.034313448 0.06625198 0.14226958 -0.027100816 -0.17553504 0.04211876 0.027875429 0.07499551
-0.06693433 -0.055623665 0.05151797 0.019356295 0.08200845 0.026275923 0.18633208 -0.00057647977
0.099817306 -1.3660932e-08 0.029792212 -0.002194283 -0.117466114 0.010216134 -0.019695528 0.15367202
0.044903602 0.032447603 0.16929702 0.19602038 0.0057279877 -0.00085332314 0.007313339 3.5832844e-08
0.086270116 -0.015538885 1.0839118e-09 0.16181374 -6.393783e-07 0.021247342 0.13494861 4.7260804e-09
0.013799098 -0.042587727 0.17220497 -0.15412448 -3.9256538e-08 0.18658663 0.15955491 -0.0149333365
0.060562532 0.03404175 -0.21034057 0.02729747 -0.0014402271 -0.08193412 -2.235732e-09 -0.19336392
-0.13378315 -0.002287319 -0.1384218 0.199142 -0.08253464 -3.3501642e-08 0.0039300215 0.012120891
-8.897729e-09 0.13728291 0.01938767 -0.11806402 0.11707719 -0.1842854 0.044119306 0.067200564
-0.05682019 -0.20283289 -0.014416602 -0.01804557 0.03634987 0.06613733 0.01990324 -0.012007046
0.09100454 0.008563427 -0.10014777 -0.0011741974 -0.10986134 -0.09402202 -0.19564466 -0.039326403
0.12078066 -0.008791251 0.21206531 0.16129938 0.029096674 0.014966593 -0.03840296 -0.026309995
-0.12730272 0.123758815 -6.2792864e-08 -0.21335597 -0.014384198 -0.10956636 -0.13219407 0.012635355
-0.16655383 -0.03666217 -0.17918016 -0.044309676 4.150903e-06 0.10485068 -0.009031368 0.13135073
0.098811746 0.0490447 0.1032492 4.963798e-07 0.017675474 0.10275533 -4.7947353e-08 -0.11150789
00000000: efd3 1f3c a354 f13d cebe b4bd 9427 38be
00000010: 9c47 2f3e 73fc 90b3 1165 2d3e 228c 57bb
00000020: 4626 ce3c b9f2 d83d 97f5 b1bd 179c 22be
00000030: 459c b2bd bed7 073e 36a5 71bd 610e 00be
00000040: 1214 cdbd 522f 293e 841b 013e d283 4c3d
00000050: 8e92 3dbe 7eaf 0dbe 2024 3f3e bd55 07b2
00000060: 178e b4bd f4ac 07b2 9930 143e 9eef ed3c
00000070: 57e5 84bd b0cf 0fbe 7160 1fbd abda 503e
00000080: ddff d33d a3d5 32ba 2969 83bc 479e 003e
00000090: 2366 2a3d 7971 20bc 6506 4d3d 0cc2 973a
000000a0: e945 1fbe 291e 553e 0ef0 09bd d194 17bc
000000b0: 0ad8 25bd 1c27 a53d 7816 3d3e 01ef a0bc
000000c0: 35ea 9bbd aa69 3abd 6a88 d1bd 8cbe 90bd
000000d0: 1037 1fb2 5e17 23be 31d9 3cbe 475e 1dbd
000000e0: 22ce 5f3e 19c4 623d 57a0 56bd 30a6 1230
000000f0: 121e 44bc 3bc8 3a3d 66bf 40bb 8cde 463c
00000100: b471 a0bd 7709 97bd 3265 2dbe 4db7 243e
00000110: e2d8 a13c 19be ed3b 0fb8 243e 9256 da31
00000120: 5ece 053d 2e4d 043e 2a7c 163e 0205 b43d
00000130: dc28 943d 8188 733d bcbb 03be 775f 51be
00000140: 3582 dbbd 4414 073e e47f 7d3d 0304 04bd
00000150: b4a4 ebbd 2bcd 983c 728a bd3d 1897 45ba
00000160: eb82 3fbd 0a0d 1133 deaa fbbd 618e 3a3c
00000170: a6d4 553d b1c9 d8bd 4f29 dcbc 24d9 b63d
00000180: 6eae ebbd f436 c1af 8f84 2ebd 3e33 2bbe
00000190: 8841 863d 4ef0 2fbd 1cda aabb f322 5c3c
000001a0: fc5e 3abe c1b1 173e dc60 0bb3 1f2b 7d3d
000001b0: 6cfe 2f3d 75d6 2b3e adfe 053e ca50 a836
000001c0: 0388 c9bd b94d 06bd e421 17bd b3d0 cabd
000001d0: de41 6e3a accb 293e 537a 1abe eb41 1ebc
000001e0: 22cb 10be 04c1 923d d12a 1b3e 8816 04b2
000001f0: 72d4 8bb2 1ad6 d0bd 9bb4 37bc 5e3b 983d
00000200: 6e7e 55be 48a7 973c bab0 b7bd 2706 0fbd
00000210: d082 26be c408 f4b1 2550 0abe cff8 783c
00000220: 428c 0cbd 1eaf 873d 1eaf 113e 8802 debc
00000230: 75bf 33be b984 2c3d 035b e43c 3f97 993d
00000240: de14 89bd a4d5 63bd 8204 533d 1891 9e3c
00000250: 0cf4 a73d 9b40 d73c d6cd 3e3e e71e 17ba
00000260: 046d cc3d 6ab1 6ab2 cc0e f43c f6cd 0fbb
00000270: 1392 f0bd 9261 273c 8458 a1bc 335c 1d3e
00000280: d7ec 373d c7e7 043d 335c 2d3e 91b9 483e
00000290: d8b1 bb3b 8cb1 5fba bca4 ef3b a1e6 1933
000002a0: 63ae b03d cf96 7ebc c2f8 9430 80b2 253e
000002b0: bea1 2bb5 e80e ae3c f82f 0a3e 0b63 a231
000002c0: 9d15 623c 7870 2ebd 8056 303e cfd2 1dbe
000002d0: 059b 28b3 9110 3f3e 5d62 233e f4aa 74bc
000002e0: 6b10 783d 5d6f 0b3d 8563 57be f29e df3c
000002f0: 01c6 bcba 13cd a7bd 6aa3 19b1 3101 46be
00000300: 73fe 08be d8e6 15bb 72be 0dbe e1eb 4b3e
00000310: ec07 a9bd 72e3 0fb3 69c7 803b b496 463c
00000320: a0dc 18b2 e493 0c3e e4d2 9e3c 8dcb f1bd
00000330: 2ac6 ef3d 50b5 3cbe 72b6 343d 73a0 893d
00000340: 4abc 68bd 6db3 4fbe 9d33 6cbc 4ed4 93bc
00000350: 9ae3 143d 0273 873d 1f0c a33c 33b9 44bc
00000360: 9760 ba3d 9e4d 0c3c 461a cdbd 87e7 99ba
00000370: fbfe e0bd 9e8e c0bd 1357 48be b914 21bd
00000380: da5b f73d 2e09 10bc a627 593e aa2b 253e
00000390: 265c ee3c 7136 753c 6c4c 1dbd 0f88 d7bc
000003a0: a55b 02be 4375 fd3d bed8 86b3 fd79 5abe
000003b0: b3ab 6bbc 5464 e0bd e25d 07be 8504 4f3c
000003c0: 168d 2abe 122b 16bd 017b 37be 107e 35bd
000003d0: fc47 8b36 f4bb d63d 4ef8 13bc ce80 063e
000003e0: d05d ca3d 18e3 483d 5174 d33d f63e 0535
000003f0: 28cc 903c 6371 d23d acee 4db3 405e e4bd

shared_embedding.0.weight f4 [64, 128]
-0.06417249 0.055952694 -0.0141701335 0.08797192 -0.1445911 -0.06271704 -0.028023459 0.022286573
-0.06198204 -0.06441749 -0.056874804 -0.042879805 -0.17906626 0.09662022 0.15633725 -0.04385873
-0.03762154 -0.076867126 0.014025272 -0.17784655 -0.14661568 0.095963754 -0.06874429 0.0025455172
-0.06745274 -0.0025556546 0.00291998 0.0044690287 0.0031697007 -0.07523379 0.019101521 -0.017248483
0.07600341 -0.02556096 0.019222165 -0.011583778 -0.07852558 -0.10288179 0.07990383 -0.14521065
-0.012819876 0.013131658 0.01185518 0.06899893 0.05869998 -0.0003324102 -0.056731123 -0.011083221
-0.11659495 0.05243429 -0.18078622 -0.113440365 0.11138255 0.10201166 0.09672611 -0.12112605
-0.008297628 -0.12387536 0.06536932 0.1021685 -0.007857968 0.11366407 -0.0028099238 0.027913798
0.1375418 -0.13989899 -0.15035944 -0.056324627 -0.09837464 -0.051394302 -0.03846105 -0.013313255
0.13767645 0.11130998 -0.07540361 0.0664356 -0.14640154 -0.062745705 -0.016845431 0.0451039
0.008396202 0.1639242 0.11084903 0.14278544 -0.025530502 -0.1406995 -0.022518693 0.10637057
0.15521477 -0.017262174 0.08142775 0.11149113 -0.09994048 0.14538862 0.0704708 -0.12644193
0.10440186 -0.0442385 0.056037873 -0.044316318 -0.072765514 -0.04955276 -0.07377065 -0.17059596
0.14636084 0.104230605 -0.02014111 -0.13621339 -0.063405104 0.0043260586 0.07307888 0.093270496
0.14130974 -0.05255023 0.027983423 0.10579298 -0.0044260556 0.16204831 -0.058453526 0.12628643
-0.15762883 -0.17116883 -0.12188155 -0.09964405 -0.07675022 -0.096323535 0.09391366 0.066309266
0.046662647 0.14026628 -0.04591801 -0.024728186 -0.17551523 0.040584415 0.05216492 -0.09145274
0.093861215 0.080480255 -0.07067729 0.10598311 0.14111944 -0.064734206 0.11938511 0.06608364
0.056098387 -0.02677589 -0.0029294896 0.11567152 0.09907692 -0.032754794 0.14134997 -0.07927531
0.14657131 -0.10331268 0.044445924 0.10822828 0.043540653 -0.0046055946 0.108538575 -0.015431376
0.01913476 0.031305674 -0.009893635 -1.4088114e-07 0.049429335 0.054022424 -0.13281366 -0.10093596
-0.12605791 -0.031792678 -0.07852146 0.15110247 0.0430735 -0.03889367 -0.111558944 0.14290553
-0.1588527 0.1178186 -0.15223946 -0.17661995 -0.001347893 -0.10648582 -0.100189894 0.11633606
0.04683303 0.089465275 -0.052883726 -0.05881959 0.008817964 -0.07497001 -0.011280517 0.11039854
-0.13668646 -0.12492412 0.07230548 0.09534397 0.07893236 -0.03610234 0.013690216 0.12074937
-0.037946906 0.023875862 -0.18036602 0.01944578 -0.030766554 0.015399304 -0.14478971 -0.12590684
-0.037430048 -0.07910272 0.029800901 -0.10721153 -0.019501073 -0.19197062 -0.11607081 0.11710938
0.09649376 -0.049473975 -0.10959061 -0.100759625 0.02269223 -0.18892829 -0.077058546 -0.020448191
0.12590227 0.13608396 -0.008668862 0.07855076 0.07293508 0.15528388 0.12974162 0.083978936
0.04129475 0.15253109 -0.1781318 -0.049032003 0.11242531 -0.051727753 0.0015308681 0.021341499
0.13588311 0.13186598 0.028283715 -0.0031688707 -0.08107409 -0.06734971 0.14366104 0.01975593
0.06155114 -0.060697354 0.06623647 -0.18684196 0.10403948 0.15077502 -0.16718435 0.08962413
00000000: de6c 83bd a72e 653d d929 68bc 9f2a b43d
00000010: b00f 14be cb71 80bd 7491 e5bc 5592 b63c
00000020: e1e0 7dbd 51ed 83bd 8ef5 68bd bca2 2fbd
00000030: 255d 37be d2e0 c53d df16 203e 36a5 33bd
00000040: 0b19 1abd 836c 9dbd 41ca 653c 681d 36be
00000050: 6c22 16be a588 c43d cec9 8cbd b1d2 263b
00000060: aa24 8abd c57c 27bb 235d 3f3b ee70 923b
00000070: c1ba 4f3b 2c14 9abd cb7a 9c3c b14c 8dbc
00000080: ada7 9b3d 3865 d1bc cd77 9d3c e3c9 3dbc
00000090: 05d2 a0bd b0b3 d2bd 9fa4 a33d 1ab2 14be
000000a0: 750a 52bc 2a26 573c 3b3c 423c 504f 8d3d
000000b0: 646f 703d 5847 aeb9 e55e 68bd 6696 35bc
000000c0: 55c9 eebd 57c5 563d 0620 39be 6c53 e8bd
000000d0: 891c e43d 7deb d03d 5718 c63d ef10 f8bd
000000e0: c6f2 07bc 5db2 fdbd 5ae0 853d b83d d13d
000000f0: b5be 00bc b5c8 e83d b326 38bb 7aab e43c
00000100: c2d7 0c3e ae41 0fbe d3f7 19be a7b4 66bd
00000110: a578 c9bd d582 52bd 5589 1dbd d71f 5abc
00000120: 0efb 0c3e 7df6 e33d 356d 9abd 630f 883d
00000130: 49ea 15be d280 80bd 6eff 89bc debe 383d
00000140: 3990 093c bfdb 273e d104 e33d 5936 123e
00000150: 5825 d1bc 8813 10be 1f79 b8bc d0d8 d93d
00000160: 9ff0 1e3e 6769 8dbc 98c3 a63d 7655 e43d
00000170: 98ad ccbd c1e0 143e ff52 903d fe79 01be
00000180: a4d0 d53d 6e33 35bd f887 653d 0785 35bd
00000190: 1606 95bd d6f7 4abd 1115 97bd b5b0 2ebe
000001a0: 9edf 153e db76 d53d f8fe a4bc 867b 0bbe
000001b0: 89da 81bd 9cc1 8d3b 61aa 953d 9a04 bf3d
000001c0: 80b3 103e e93e 57bd 7e3d e53c fda9 d83d
000001d0: 7208 91bb feef 253e f76c 6fbd 3b51 013e
000001e0: 7469 21be e246 2fbe 099d f9bd 2e12 ccbd
000001f0: 382f 9dbd 4645 c5bd ce55 c03d 27cd 873d
00000200: 5521 3f3d f7a1 0f3e 8614 3cbd c492 cabc
00000210: 44ba 33be d83b 263d e2aa 553d 934b bbbd
00000220: 4f3a c03d d5d2 a43d 41bf 90bd ac0d d93d
00000230: 9d81 103e 5e93 84bd 2e80 f43d dc56 873d
00000240: 6cc7 653d 1c59 dbbc aefc 3fbb 31e5 ec3d
00000250: d7e8 ca3d e429 06bd 0cbe 103e 185b a2bd
00000260: ca16 163e 9995 d3bd ee0c 363d caa6 dd3d
00000270: af57 323d 87ea 96bb 7949 de3d e2d3 7cbc
00000280: 80c0 9c3c 613a 003d ea18 22bc 1d45 17b4
00000290: 6a76 4a3d 9e46 5d3d 4e00 08be 83b7 cebd
000002a0: 5315 01be 0a39 02bd dccf a0bd 9bba 1a3e
000002b0: d76d 303d f84e 1fbd 0479 e4bd d455 123e
000002c0: 48aa 22be e14a f13d a9e4 1bbe dcdb 34be
000002d0: c9ab b0ba 3d15 dabd 5c30 cdbd 9a41 ee3d
000002e0: fed3 3f3d 9239 b73d 9b9c 58bd cfec 70bd
000002f0: 3979 103c e089 99bd ebd1 38bc a118 e23d
00000300: 89f7 0bbe 38d8 ffbd e514 943d b343 c33d
00000310: 4aa7 a13d 0ce0 13bd ed4c 603c 724b f73d
00000320: 376e 1bbd 5097 c33c dfb1 38be c24c 9f3c
00000330: 240a fcbc 5d4d 7c3c c143 14be b9ed 00be
00000340: 4050 19bd 9b00 a2bd 0521 f43c b891 dbbd
00000350: b7c0 9fbc f293 44be 88b6 edbd 0bd7 ef3d
00000360: 859e c53d 39a5 4abd 0b71 e0bd 105b cebd
00000370: 0ee5 b93c 6b76 41be dfd0 9dbd f782 a7bc
00000380: 86ec 003e 9859 0b3e d807 0ebc 39df a03d
00000390: fd5e 953d bd02 1f3e fdda 043e 26fd ab3d
000003a0: af24 293d 1c31 1c3e 2f68 36be c8d5 48bd
000003b0: 3e3f e63d 7be0 53bd 69a7 c83a 5ed4 ae3c
000003c0: f124 0b3e e007 073e 40b3 e73c d4ac 4fbb
000003d0: 2c0a a6bd a5ee 89bd e11b 133e 30d7 a13c
000003e0: 0c1d 7c3d ca9d 78bd fda6 873d 8053 3fbe
000003f0: a712 d53d c464 1a3e 6032 2bbe db8c b73d

shared_embedding.0.bias f4 [64]
-0.0055642063 -0.021652207 -0.012757337 -0.023815263 -0.01975549 -0.004902451 -0.0140827885 -0.0021734745
-0.002326965 -0.02019523 -0.010566191 -0.011210179 -0.012471337 0.00092184654 -0.025273085 -0.00808623
-0.0043949145 -0.015400957 -0.012716906 -0.008594638 -0.020684527 0.0 -0.03945211 -0.009939343
-0.008319318 -0.008928385 0.0036300404 -0.015108591 -0.016460458 -0.012399023 -0.022819491 0.007935931
-0.010801236 0.0 0.0 -0.02427703 0.0 -0.005434054 -0.022841427 0.0
-0.013168718 -0.0046701627 -0.0054208357 -0.0062331897 -0.015553093 -0.0037863154 -0.01712959 -0.012880976
-0.00476845 0.0 -0.007760359 0.0 -0.013040747 0.0 -0.0005959603 0.0
-0.006776477 -0.027034616 -0.005255603 -0.012460541 -0.015590848 -0.027748518 -0.013457661 -0.009894266
00000000: f253 b6bb f85f b1bc 2604 51bc 3a18 c3bc
00000010: 44d6 a1bc bda4 a0bb 7fbb 66bc da70 0ebb
00000020: ff7f 18bb 7870 a5bc d11d 2dbc e6aa 37bc
00000030: 9454 4cbc 13a8 713a 8009 cfbc 1b7c 04bc
00000040: 3703 90bb 4c54 7cbc 925a 50bc 86d0 0cbc
00000050: 9972 a9bc 0000 0000 8998 21bd a0d8 22bc
00000060: c04d 08bc 5c48 12bc f9e5 6d3b 068a 77bc
00000070: 15d8 86bc 4625 4bbc f1ef babc b505 023c
00000080: abf7 30bc 0000 0000 0000 0000 9fe0 c6bc
00000090: 0000 0000 2610 b2bb f21d bbbc 0000 0000
000000a0: 9bc1 57bc 2a08 99bb 44a1 b1bb c93f ccbb
000000b0: 66d2 7ebc d523 78bb 5b53 8cbc bb0a 53bc
000000c0: a840 9cbb 0000 0000 9c4a febb 0000 0000
000000d0: dba8 55bc 0000 0000 383a 1cba 0000 0000
000000e0: 360d debb b377 ddbc 3237 acbb 4c27 4cbc
000000f0: c270 7fbc dc50 e3bc 857d 5cbc 8f1b 22bc

task_heads.target1.0.weight f4 [32, 64]
0.014505738 0.14079386 0.15365504 -0.083937064 -0.011809328 -2.189173e-08 -0.044164073 0.00715447
-0.1130106 0.1972127 0.0011324818 -0.22191693 0.095543444 -0.06668506 -0.11095282 -0.03270553
0.14591125 0.23522243 -0.015529503 0.0043585706 -0.06700321 -0.0031106155 -0.0133451475 -0.23713517
-0.03837857 0.051023148 0.2201511 0.12041711 -0.22029598 5.048983e-07 0.1978426 0.05135983
0.18351796 -4.5870134e-08 0.04320071 -0.17244597 -0.0037970233 -0.027458707 0.15735824 -1.7038742e-07
0.047029387 0.036725044 0.019290853 -0.051608667 -0.18581675 -0.21101634 5.1876436e-06 -0.12336789
0.10891672 8.5538115e-05 -0.030649677 -0.0024791798 -0.05441712 2.478469e-08 9.446738e-08 -4.5421475e-06
-0.048872415 -0.023885353 -0.063863434 -4.0324144e-06 -0.22608763 -0.19633417 0.009419187 -0.008553663
0.13482855 0.21605371 0.16246992 0.13333014 -0.20848499 -0.04543753 0.13424307 0.048524678
-0.21454 0.109848045 -3.094615e-08 0.11566279 0.1426427 -0.17696403 -0.22435097 -0.029422749
0.061742067 0.19253826 -0.058932547 -0.014901325 0.049614858 0.0002096517 -0.0043692957 0.24959539
4.0148443e-08 -0.058135815 -0.21063766 -0.21620844 -0.12309591 0.0027528394 0.013318175 0.19506222
-0.064176336 0.03475183 -0.0146895535 -0.13818751 -4.411972e-09 -0.009427195 0.18837723 0.035707425
-0.043754216 5.2710882e-05 0.00017761927 -0.14751017 0.060959533 -0.18560529 0.0001929799 -0.12743403
0.017467437 -1.2482789e-08 0.002503111 0.024786001 -0.046726726 4.0675022e-05 -0.036712445 7.412468e-07
-0.2081899 -0.12659933 -0.22804019 -0.00048653857 -0.061316866 -0.18777782 0.13968801 0.008028624
0.07361175 0.20891374 -0.19260438 -0.022318106 -0.015383798 -0.04458189 -0.0037428935 0.19566604
-0.19094259 -0.17869733 0.0178742 0.13801593 -0.17331295 0.11489288 0.20561078 0.009125
0.2119794 -0.010258699 -0.14526907 0.05883533 -0.09959924 -0.064672485 0.11104499 0.24110143
-0.04320757 -0.11844811 -0.18666711 -0.07092544 0.22098626 0.009362244 -0.04359363 -0.06368828
-0.1389238 -0.0047912425 -0.0177782 0.14644216 -0.012030338 0.041573565 -0.013207653 0.045001917
-0.05725216 0.00020582421 -0.06283528 -0.09337521 0.19553827 -0.20276675 0.21012193 -0.065076396
0.04611602 -1.1478698e-09 0.07832051 -1.9008266e-09 -0.16919348 -0.0047863326 -0.0107677635 5.755596e-10
-0.2261117 -0.22805324 0.22418742 0.035613462 -0.002014209 -0.03003552 0.039498888 -0.0027340734
0.072678715 0.1774282 0.12519333 0.26081967 0.06459928 0.0006402736 -0.098183244 -0.13100229
0.2248698 0.1783694 0.006064071 -0.14380412 -0.17745055 0.11496978 0.20575354 0.14045838
0.14668977 0.03168572 -0.058182895 0.012363843 -0.11421741 0.012390897 0.07559148 0.14611495
0.0053748856 -0.08552966 -0.09655372 0.12077264 0.18106575 0.066047326 -0.013642229 0.17445742
0.107180096 -0.022963976 -1.8190939e-07 0.027945902 0.002516312 -0.052622344 0.06824529 0.00027787397
-0.08739384 1.90043e-07 0.01626972 0.20672859 0.23195466 0.18784097 -3.3504853e-05 -0.045660153
-0.14018056 0.026560724 0.08405367 0.063838355 -0.028200787 0.034839813 -0.013097672 0.06563535
0.023850089 0.082969084 0.12034081 -1.5092589e-09 0.22804274 0.1489204 -0.024989702 0.046351153
00000000: 7aa9 6d3c 442c 103e bf57 1d3e 32e7 abbd
00000010: e97b 41bc 6c0c bcb2 63e5 34bd 0b70 ea3b
00000020: 1a72 e7bd 20f2 493e c96f 943a 313e 63be
00000030: 48ac c33d 2d92 88bd 3b3b e3bd 3cf6 05bd
00000040: c269 153e 26de 703e 756f 7ebc 57d2 8e3b
00000050: fb38 89bd 78db 4bbb 9ba5 5abc 90d3 72be
00000060: d932 1dbd a6fd 503d 4a6f 613e 3f9d f63d
00000070: 4595 61be 5988 0735 4097 4a3e af5e 523d
00000080: 22ec 3b3e bf02 45b3 3af3 303d ad95 30be
00000090: 7bd7 78bb 15f1 e0bc 8522 213e bdf3 36b4
000000a0: e3a1 403d 006d 163d da07 9e3c 9c63 53bd
000000b0: bf46 3ebe ab14 58be 8511 ae36 4ea8 fcbd
000000c0: bb0f df3d ed62 b338 0815 fbbc bc79 22bb
000000d0: 7ce4 5ebd 1ce6 d432 fedd ca33 c068 98b6
000000e0: 712e 48bd 37ab c3bc d5ca 82bd 2d4e 87b6
000000f0: 8483 67be d30b 49be ef52 1a3c aa24 0cbc
00000100: 7f10 0a3e 2f3d 5d3e 845e 263e b287 083e
00000110: 177d 55be b41c 3abd 0477 093e d0c1 463d
00000120: 60b0 5bbe 03f8 e03d a7e9 04b3 9de0 ec3d
00000130: ee10 123e 0f36 35be 43bc 65be fa07 f1bc
00000140: 40e5 7c3d c028 453e 4163 71bd b024 74bc
00000150: f338 4b3d f3d5 5b39 4f2c 8fbb ef95 7f3e
00000160: ae6f 2c33 d21f 6ebd 66b1 57be bf65 5dbe
00000170: b519 fcbd fb68 343b 7a34 5a3c 64be 473e
00000180: e26e 83bd ef57 0e3d 74ac 70bc 0781 0dbe
00000190: 1e98 97b1 8674 1abc f6e5 403e f341 123d
000001a0: 9f37 33bd e115 5d38 4f3f 3a39 e80c 17be
000001b0: b4b0 793d 500f 3ebe a65a 4a39 117e 02be
000001c0: df17 8f3c e373 56b2 3c0b 243b 030c cb3c
000001d0: 8664 3fbd 799a 2a38 ca5f 16bd 18fa 4635
000001e0: bc2f 55be 41a3 01be 5e83 69be 1a16 ffb9
000001f0: 6527 7bbd d448 40be 600a 0f3e 7d8a 033c
00000200: c2c1 963d 7ced 553e 153a 45be 76d4 b6bc
00000210: 530c 7cbc 809b 36bd 554b 75bb ae5c 483e
00000220: 7486 43be 6ffc 36be ea6c 923c 0c54 0d3e
00000230: f378 31be f54c eb3d a28b 523e 0681 153c
00000240: 2111 593e 1a14 28bc 6ac1 14be 51fd 703d
00000250: b0fa cbbd 0273 84bd 8e6b e33d 4be3 763e
00000260: 6cfa 30bd ec94 f2bd aa25 3fbe 5b41 91bd
00000270: 394a 623e 1964 193c 3c8f 32bd 006f 82bd
00000280: 0a42 0ebe dbff 9cbb 96a3 91bc eff4 153e
00000290: e51a 45bc 0b49 2a3d e964 58bc ee53 383d
000002a0: 3e81 6abd 84d2 5739 c9af 80bd 813b bfbd
000002b0: 2f3b 483e 16a2 4fbe 342a 573e c646 85bd
000002c0: 27e4 3c3d 14c3 9db0 8166 a03d b29f 02b1
000002d0: 0e41 2dbe abd6 9cbb 466b 30bc 6835 1e30
000002e0: d389 67be ca86 69be 6391 653e 6cdf 113d
000002f0: d200 04bb 0d0d f6bc 96c9 213d 242e 33bb
00000300: 94d8 943d bdaf 353e ae32 003e 288a 853e
00000310: a14c 843d 09d8 273a 4c14 c9bd 7725 06be
00000320: 4544 663e 78a6 363e 1db5 c63b 6341 13be
00000330: 99b5 35be 4775 eb3d 0eb1 523e 52d4 0f3e
00000340: d835 163e e3c8 013d 3051 6ebd b791 4a3c
00000350: d1ea e9bd 3003 4b3c b5cf 9a3d 289f 153e
00000360: cf1f b03b 2d2a afbd f5bd c5bd a557 f73d
00000370: 4d69 393e d243 873d a883 5fbc f7a4 323e
00000380: 3d81 db3d f31e bcbc df52 43b4 ceee e43c
00000390: b6e8 243b 878a 57bd 30c4 8b3d 9daf 9139
000003a0: 8bfb b2bd 9f0e 4c34 1348 853c a9b0 533e
000003b0: 8685 6d3e 6259 403e 9087 0cb8 2406 3bbd
000003c0: 7e8b 0fbe e095 d93c 5524 ac3d afbd 823d
000003d0: 5605 e7bc 31b4 0e3d 9e97 56bc d46b 863d
000003e0: 4361 c33c b2eb a93d 3e75 f63d 546e cfb0
000003f0: 0984 693e 977e 183e 34b7 ccbc b5da 3d3d

task_heads.target1.0.bias f4 [32]
-0.00400973 0.004997276 -0.015196815 -0.00983386 -0.01446636 -0.0007282893 -0.03865518 -0.031504963
-0.015849242 -0.028545892 -0.036860585 -0.011841802 -0.02360667 -0.011618013 -0.011219293 -0.004750873
0.0056770975 -0.021591252 -0.033727992 -0.033718158 -0.0055535706 -0.03281411 0.02613403 -0.015575521
-0.02047757 -0.024159385 -0.0071761995 -0.016877655 -0.00539787 -0.0010730517 -0.0038746141 -0.03046296
00000000: 0e64 83bb 30c0 a33b 10fc 78bc 331e 21bc
00000010: 5004 6dbc abea 3eba e554 1ebd 590b 01bd
00000020: 45d6 81bc 13d9 e9bc 20fb 16bd 1e04 42bc
00000030: c662 c1bc 7a59 3ebc 20d1 37bc 36ad 9bbb
00000040: f206 ba3b 23e0 b0bc 5d26 0abd 0d1c 0abd
00000050: bafa b5bb 1768 06bd 0917 d63c 7830 7fbc
00000060: 94c0 a7bc e7e9 c5bc 5326 ebbb 0243 8abc
00000070: 9ee0 b0bb a4a5 8cba 3ded 7dbb 758d f9bc

task_heads.target1.3.weight f4 [1, 32]
0.24560352 0.06589956 -0.24271291 -0.02860261 0.39710373 -0.07547768 0.16416854 -0.30937806
-0.1852896 -0.17936248 -0.021193935 -0.1214975 0.28257033 0.3170244 -0.21568224 0.2506619
0.038996227 -0.3553802 -0.30021775 -0.25571516 0.36836272 0.19713451 0.27562687 0.33144778
-0.25133818 -0.23418456 -0.15522873 0.20575808 0.22543609 -0.1891479 0.35120547 0.2149397
00000000: 7d7f 7b3e 59f6 863d bc89 78be 0550 eabc
00000010: 2e51 cb3e 0b94 9abd cc1b 283e cd66 9ebe
00000020: 8fbc 3dbe ccaa 37be e79e adbc aed3 f8bd
00000030: 0fad 903e 0651 a23e cedb 5cbe c256 803e
00000040: 82ba 1f3d 65f4 b5be 24b6 99be 19ed 82be
00000050: 0a9a bc3e a1dd 493e f71e 8d3e 86b3 a93e
00000060: 66af 80be 14ce 6fbe 48f4 1ebe 3fb2 523e
00000070: b8d8 663e fdaf 41be 34d1 b33e 2719 5c3e
