semilearning/experiments/experiment_20251107_114957/transductive_model.pth (torch, 321762 bytes, 12 tensors)

convs.0.bias f4 [128]
0.014715654 -0.0025319278 -0.0031826203 0.0170161 0.010510075 0.01377824 0.0150672635 0.0
0.007912017 0.017667068 -0.015288282 0.0 0.016710078 0.005890817 -0.018900419 0.0
0.016112156 0.016398491 0.015309003 -0.0048082313 0.016792653 0.01709213 0.00415929 0.014596737
0.017072039 -0.018957179 -0.016292084 0.016865551 0.0087306 -0.003218228 0.0 -0.013743688
0.016118933 -0.014487675 0.017321952 -0.011511442 0.0032740482 0.0 0.01678132 0.016519679
0.012095187 0.00031657383 0.007619915 0.01378704 0.013315794 0.012124865 0.012726744 0.01648225
0.0 0.010849585 0.016373958 0.016500862 0.012250881 -0.0009829495 -0.013701596 0.0011904517
0.01782449 0.0 0.00824478 -0.010153531 0.0031976807 -0.011852098 0.0 0.0
0.0 -0.016835107 0.010279307 0.0 0.0 0.0 0.016717488 0.016948093
0.011407181 0.009913164 -0.008251174 0.011010954 0.0 0.0 0.017227197 0.017644467
0.0 0.011601396 -0.01677304 0.013110938 0.016440876 -0.013176148 0.002712384 0.0029716056
0.0 -0.005539207 -0.008538415 -0.003977814 0.016754743 0.015672326 0.015357497 0.012461399
-0.00437865 0.0172687 0.0 0.011716932 0.010603207 0.012487212 0.0004301042 0.013455585
0.016435422 -0.01784889 -0.018927163 0.012322962 -0.015762318 0.0039411867 -0.003935864 0.016950732
0.0063218796 0.007476205 0.016235808 0.0 0.017210493 -0.019064195 -0.019769963 0.005470209
-0.018333802 -0.010899061 0.0011581763 0.017338734 0.013915798 0.01268194 0.016761834 0.0
00000000: ed19 713c b3ee 25bb 8293 50bb 5965 8b3c
00000010: 7332 2c3c 21be 613c afdc 763c 0000 0000
00000020: 68a1 013c 87ba 903c b47b 7abc 0000 0000
00000030: 93e3 883c c107 c13b 0dd5 9abc 0000 0000
00000040: a4fd 833c 2156 863c 9dd2 7a3c 5e8e 9dbb
00000050: bf90 893c cb04 8c3c a74a 883b 2727 6f3c
00000060: a9da 8b3c 164c 9bbc fa76 85bc a029 8a3c
00000070: ca0a 0f3c e8e8 52bb 0000 0000 352d 61bc
00000080: da0b 843c b75d 6dbc c4e6 8d3c 7d9a 3cbc
00000090: 6a91 563b 0000 0000 fb78 893c 4754 873c
000000a0: e42a 463c d2f9 a539 7bb0 f93b 09e3 613c
000000b0: 7d2a 5a3c 5fa7 463c d583 503c c905 873c
000000c0: 0000 0000 75c2 313c ae22 863c d12c 873c
000000d0: ebb7 483c 50d6 80ba a97c 60bc ee08 9c3a
000000e0: aa04 923c 0000 0000 1d15 073c ff5a 26bc
000000f0: 2e90 513b 4d2f 42bc 0000 0000 0000 0000
00000100: 0000 0000 c7e9 89bc 8a6a 283c 0000 0000
00000110: 0000 0000 0000 0000 1df3 883c bad6 8a3c
00000120: 2fe5 3a3c d36a 223c ef2f 07bc 4a67 343c
00000130: 0000 0000 0000 0000 0d20 8d3c 218b 903c
00000140: 0000 0000 c813 3e3c 9d67 89bc 42cf 563c
00000150: 04af 863c c5e0 57bc 41c2 313b 45bf 423b
00000160: 0000 0000 3c82 b5bb b5e4 0bbc 5358 82bb
00000170: 3e41 893c 4063 803c 039e 7b3c e52a 4c3c
00000180: c77a 8fbb 1777 8d3c 0000 0000 60f8 3f3c
00000190: 13b9 2d3c 2a97 4c3c 9c7f e139 d074 5c3c
000001a0: 94a3 863c d637 92bc 230d 9bbc 40e6 493c
000001b0: fa1f 81bc 1225 813b 6cf8 80bb 43dc 8a3c
000001c0: c527 cf3b f4fa f43b f500 853c 0000 0000
000001d0: 05fd 8c3c 842c 9cbc 9ef4 a1bc 703f b33b
000001e0: c530 96bc fa91 32bc f3cd 973a f609 8e3c
000001f0: 16ff 633c e9c7 4f3c 1d50 893c 0000 0000

convs.0.lin.weight f4 [128, 36]
-0.17547302 -0.11175484 -0.0048075537 0.17587884 0.0028602206 0.17678033 -0.07030975 0.15269534
0.051215164 -0.039483402 0.0023521094 0.03969359 0.04927491 -0.060937084 -0.1039973 -0.09792929
-0.14950962 0.12146566 0.017873922 0.05919981 0.0154191125 0.039333303 -0.11934678 -0.08370979
0.09544309 -0.0594775 -0.08058642 -0.13615128 0.1691438 0.19094098 -0.056395866 -0.009047135
0.012492353 -0.008969242 0.19275275 0.13426402 -0.096020214 -0.07042972 0.122148275 -0.061294757
0.020083956 0.117999025 -0.010900331 0.109122664 -0.035414945 0.04062782 0.08071642 0.023863034
0.1543401 0.0002330059 0.12643845 -0.020909721 -0.0019864494 0.15367712 0.11936246 0.099599764
0.03802972 -0.087110475 0.016666422 -0.17625906 -0.07006407 -0.006987267 -0.14091538 -0.04487924
-0.029553149 0.0293448 -0.07379244 0.07923368 -0.1594972 0.0011296906 -0.13649172 -0.1438203
-0.014385577 -0.11344337 0.08509457 0.09711315 0.009616592 0.16140082 0.15575616 -0.015188843
-0.16870919 0.13345037 0.0009875306 0.017885298 0.06181543 -0.13164183 -0.07413761 -0.0069424524
0.07391935 0.01687124 0.14208743 0.08937485 0.07161604 -0.029045306 0.0325007 0.09724994
-0.12617946 -0.020884532 -0.16613072 0.13913621 -0.05922238 -0.14885134 -0.010837348 0.00041799454
0.13260473 -0.008478999 -0.13077453 -0.17155616 -0.12941045 0.11122358 -0.02809477 -0.048480205
0.026723985 -0.078569554 0.15131658 -0.052067075 0.07544641 -0.019894095 0.011370543 0.13986064
0.029286627 -0.06723103 0.09427371 -0.03933 -0.029039765 0.16839449 0.032208983 0.055148095
-0.063229896 0.14686301 -0.019285891 -0.19307086 0.19258524 0.15479814 0.015065369 0.10875071
0.15193145 0.16722223 0.14158364 0.014167139 0.13622612 0.039274402 0.16380376 0.013302303
0.17939971 0.0020925838 0.045471195 -0.04298062 -0.13861309 -0.05587377 0.14513218 0.0022066478
0.16159518 -0.17003886 0.08359476 -0.10523393 -0.054793593 0.01762549 0.00017487639 -0.04938597
0.0035106507 -0.04107113 0.0017407588 -0.012032283 -0.015626408 -0.16909985 -0.00046898233 -0.12373394
0.10910417 -0.11712728 0.06505517 0.038850337 0.12984125 0.019653535 -0.011912882 0.04999074
-0.09525181 0.10855058 0.075663626 -0.11614214 -0.015448465 0.10504777 -0.16978136 0.106325656
0.019445105 0.019015968 0.16634734 -0.046851892 -0.0078008394 0.09051798 0.09549532 -0.037839554
0.063371316 -0.105721675 -0.14466274 0.111206606 0.15725413 -0.12447624 0.097300485 0.05117103
0.06857298 0.12593076 0.03232112 0.115370415 -0.025472486 -0.017862158 0.15046442 -0.030677777
0.07713939 -0.07794796 -0.028169008 0.072104305 -0.162539 0.09072867 0.0064203604 0.05389455
0.103629395 0.17165561 -0.17279305 0.07500767 -0.121478185 0.19379811 -0.10847175 0.039251503
0.18035015 -0.14579135 0.07887429 0.064935386 -0.098212324 0.116258554 -0.16696219 -0.030486679
-0.10783316 -0.084177986 0.08515838 0.05251396 0.12112271 -0.06827474 -0.029237326 -0.12065498
0.014973876 0.012701388 0.14646189 0.11692477 -0.15314357 0.017939534 0.15429659 -0.1335004
-0.097877786 -0.1333679 -0.1236934 -0.13874757 -0.1261124 -0.09071599 0.11519419 -0.00879508
00000000: 33af 33be b9df e4bd af88 9dbb 9519 343e
00000010: 8a72 3b3b e705 353e 8ffe 8fbd 2b5c 1c3e
00000020: fec6 513d 59b9 21bd d925 1a3b bf95 223d
00000030: 7dd4 493d 2a99 79bd 89fc d4bd 278f c8bd
00000040: 0d19 19be fdc2 f83d 556c 923c 807b 723d
00000050: 72a0 7c3c f51b 213d 166c f4bd 0a70 abbd
00000060: ab77 c33d ae9e 73bd 7e0a a5bd 3e6b 0bbe
00000070: 0834 2d3e 0886 433e 5aff 66bd 6f3a 14bc
00000080: baac 4c3c baf3 12bc fa60 453e 827c 093e
00000090: 3fa6 c4bd 753d 90bd e028 fa3d 3610 7bbd
000000a0: 1c87 a43c 79a9 f13d 4d97 32bc b47b df3d
000000b0: 430f 11bd 5b69 263d a74e a53d 697c c33c
000000c0: 550b 1e3e 0c53 7439 1579 013e dd4a abbc
000000d0: 172f 02bb 895d 1d3e 4e74 f43d f6fa cb3d
000000e0: 0dc5 1b3d fa66 b2bd 0588 883c 417d 34be
000000f0: c07d 8fbd 72f5 e4bb 1f4c 10be 4bd3 37bd
00000100: 7219 f2bc 8264 f03c 7e20 97bd 4545 a23d
00000110: 3c53 23be 2012 943a 7cc4 0bbe a145 13be
00000120: 7cb1 6bbc ff54 e8bd 1046 ae3d 42e3 c63d
00000130: e98e 1d3c 4246 253e 8b7e 1f3e a0da 78bc
00000140: 1ac2 2cbe 37a7 083e 0770 813a 3084 923c
00000150: 2d32 7d3d 1ecd 06be 76d5 97bd 837d e3bb
00000160: 0763 973d 8e35 8a3c 5e7f 113e 290a b73d
00000170: 6eab 923d 6cf0 edbc 741f 053d fa2a c73d
00000180: 3035 01be 0a16 abbc 2c1e 2abe b979 0e3e
00000190: 2b93 72bd 7c6c 18be 228f 31bc 4726 db39
000001a0: 89c9 073e 80eb 0abc c2e9 05be 6bac 2fbe
000001b0: 2c84 04be 30c9 e33d 0127 e6bc 2e93 46bd
000001c0: 42ec da3c 13e9 a0bd bcf2 1a3e 4944 55bd
000001d0: a683 9a3d f1f8 a2bc 844b 3a3c a137 0f3e
000001e0: 82ea ef3c 6cb0 89bd 9312 c13d 7e18 21bd
000001f0: cde4 edbc 9b6f 2c3e 91ed 033d f8e2 613d
00000200: ad7e 81bd 4263 163e 72fd 9dbc 5eb4 45be
00000210: 1135 453e 6783 1e3e bdd4 763c b1b8 de3d
00000220: eb93 1b3e 4e3c 2b3e 4dfb 103e 4a1d 683c
00000230: dc7e 0b3e 32de 203d 2cbc 273e e7f1 593c
00000240: 8fb4 373e bb23 093b 0140 3a3d 720c 30bd
00000250: 97f0 0dbe e5db 64bd 889d 143e 689d 103b
00000260: 3579 253e ab1e 2ebe bb33 ab3d e384 d7bd
00000270: 3f6f 60bd 5563 903c 065f 3739 f148 4abd
00000280: f212 663b 343a 28bd 2c2a e43a 0d23 45bc
00000290: f402 80bc 8328 2dbe bee1 f5b9 3868 fdbd
000002a0: 0272 df3d 6de0 efbd a53b 853d 8821 1f3d
000002b0: 1bf5 043e 7300 a13c 402e 43bc 17c3 4c3d
000002c0: 6213 c3bd c44f de3d 88f5 9a3d eedb edbd
000002d0: 8f1b 7dbc 4923 d73d 2adb 2dbe 44c1 d93d
000002e0: 574b 9f3c 60c7 9b3c f556 2a3e c5e7 3fbd
000002f0: 2f9e ffbb 7e61 b93d 0d93 c33d a6fd 1abd
00000300: d2c8 813d 9b84 d8bd 7822 14be 4ac0 e33d
00000310: 3a07 213e 66ed febd 7a45 c73d b798 513d
00000320: fe6f 8c3d fef3 003e 2763 043d 5347 ec3d
00000330: adab d0bc a953 92bc 5813 1a3e f64f fbbc
00000340: 42fb 9d3d 2ea3 9fbd b1c2 e6bc 6cab 933d
00000350: a070 26be f4cf b93d e361 d23b 88c0 5c3d
00000360: a63b d43d 7dc6 2f3e a9f0 30be 9f9d 993d
00000370: 8ec9 f8bd 0373 463e 7026 debd 2fc6 203d
00000380: b6ad 383e 544a 15be d888 a13d d8fc 843d
00000390: 8b23 c9bd f718 ee3d 23f8 2abe 33bf f9bc
000003a0: a2d7 dcbd 8265 acbd 8467 ae3d e118 573d
000003b0: 2f0f f83d a0d3 8bbd 1e83 efbc f519 f7bd
000003c0: fd54 753c 7c19 503c 1bfa 153e 4176 ef3d
000003d0: abd1 1cbe eef5 923c edff 1d3e 54b4 08be
000003e0: 2674 c8bd 9891 08be f752 fdbd d813 0ebe
000003f0: 9c23 01be 4ec9 b9bd eeea eb3d 3d19 10bc

convs.1.bias f4 [128]
-0.0070357686 0.0086030075 0.015737189 0.0026847816 0.01743507 0.017023724 0.0018101693 0.007953517
0.011932342 0.01795842 0.016422838 0.013540629 0.016234037 0.017692262 0.008490656 0.01609189
0.003037582 0.017698856 -0.013535566 -0.011874164 0.004132362 0.0058378703 0.012697628 0.018151827
0.012268724 0.0024239747 0.018093856 0.014265571 0.013498139 0.0069104196 0.013124635 0.0075336676
0.0071139103 0.01067691 -0.004376119 0.0018842579 0.0033837853 0.01623397 0.003634453 0.016764367
-0.0059452928 -0.0020637962 0.012574417 0.017850032 0.017906114 0.01713373 0.015343223 0.008039681
0.016540963 0.0 0.015892584 -0.004475938 0.018062633 0.016820973 0.00036414724 0.011579374
0.017819535 -0.0115988115 0.017086728 0.004038318 -0.0017866928 0.013396785 -0.005467019 0.01678893
0.015833152 0.017235262 0.0042764293 -0.009316088 0.008766125 0.014950624 -0.011821782 -0.013155914
0.013779358 0.013798627 0.0 0.017241046 -0.0035948164 -0.015197169 0.014788424 0.018265802
-0.012420374 -0.0069405157 0.017059222 0.009372495 0.0 0.013209345 -0.008066783 0.006308794
0.016453262 0.007350248 0.0064930515 0.016725572 0.017213862 0.014866557 0.01666577 0.01148543
0.008510079 0.006406991 -0.005282626 0.014462918 -0.003502435 -0.005507551 0.016869059 0.016496506
0.0 0.017557975 0.015033296 0.018258821 0.0074976697 -0.0040076007 0.018074727 -0.004051034
0.016474381 0.015218808 -0.01067836 -0.00023962604 0.01713495 -0.013729333 0.014032278 0.011816267
0.015026499 0.013973232 0.014235692 0.017836925 -0.0061044097 0.000513965 -0.005358917 -0.0014572487
00000000: 4e8c e6bb a1f3 0c3c 47eb 803c 29f3 2f3b
00000010: fed3 8e3c 5675 8b3c 3443 ed3a 784f 023c
00000020: df7f 433c 891d 933c 3089 863c 84d9 5d3c
00000030: 3efd 843c 5def 903c 641c 0b3c 24d3 833c
00000040: 2b12 473b 31fd 903c 47c4 5dbc db8b 42bc
00000050: c468 873b 9b4b bf3b b609 503c 24b3 943c
00000060: c202 493c 8cdb 1e3b 9139 943c 24ba 693c
00000070: 4c27 5d3c cd70 e23b b608 573c fcdc f63b
00000080: ce1b e93b 35ee 2e3c 8c65 8fbb 34f9 f63a
00000090: 7fc2 5d3b 1afd 843c 0130 6e3b 6d55 893c
000000a0: bbd0 c2bb c140 07bb ed04 4e3c 3b3a 923c
000000b0: d8af 923c 095c 8c3c 2462 7b3c deb8 033c
000000c0: ea80 873c 0000 0000 2a31 823c e4aa 92bb
000000d0: 16f8 933c 23cc 893c 04eb be39 6ab7 3d3c
000000e0: 46fa 913c f108 3ebc 77f9 8b3c de53 843b
000000f0: 762f eaba 307e 5b3c ae24 b3bb f088 893c
00000100: 87b4 813c f730 8d3c 4a21 8c3b 81a2 18bc
00000110: cb9f 0f3c 76f3 743c 26b0 41bc e78b 57bc
00000120: d1c2 613c a313 623c 0000 0000 183d 8d3c
00000130: 0397 6bbb 8cfd 78bc 254b 723c 2aa2 953c
00000140: d37e 4bbc 446d e3bb c8bf 8b3c 188f 193c
00000150: 0000 0000 026c 583c 8a2a 04bc 00ba ce3b
00000160: fec8 863c 59da f03b aac3 d43b 1104 893c
00000170: 1604 8d3c dc92 733c a786 883c 632d 3c3c
00000180: dc6d 0b3c bcf1 d13b e119 adbb e0f5 6c3c
00000190: 1c89 65bb b078 b4bb fb30 8a3c ae23 873c
000001a0: 0000 0000 bed5 8f3c 374e 763c 8693 953c
000001b0: 03af f53b 3152 83bb 7311 943c 89be 84bb
000001c0: 48f5 863c 4f58 793c 4af4 2ebc 2044 7bb9
000001d0: 985e 8c3c fff0 60bc a4e7 653c 0499 413c
000001e0: b431 763c fcef 643c d23c 693c be1e 923c
000001f0: 8007 c8bb 9bbb 063a db99 afbb 2701 bfba

convs.1.lin.weight f4 [128, 128]
0.010584257 -0.09440973 0.08467202 -0.08574406 0.11887444 0.026107179 -0.04065858 -0.078641444
-0.00087361585 -0.10925654 -0.02373742 0.10122778 0.0911371 -0.063974544 -0.12480188 0.0022188118
-0.1467411 -0.15783873 -0.025067892 0.124761224 -0.123888806 -0.03744228 -0.07426243 0.10721598
-0.10594608 -0.14057581 -0.15739651 -0.04971112 -0.009560324 0.05066214 -0.07128863 -0.06791104
0.1400621 -0.067975335 0.012296273 -0.03630609 0.13880941 -0.0014331378 -0.12833016 0.0073571512
-0.033030882 0.10531624 0.09466834 -0.11987892 0.09860449 -0.027329635 -0.029238587 -0.14085358
0.038382307 -0.07014231 -1.3836841e-05 0.12827206 0.056688912 0.07009084 0.13030647 0.06804965
-0.14495589 0.05125785 0.038971957 -0.074212946 -0.06609992 0.12141281 -0.078979984 -0.012399866
0.0055091 0.02089935 0.059045024 -0.023815516 -0.023680162 -0.12856826 -0.065306544 -0.10019089
0.0936407 0.044892713 0.018787574 -0.018413398 -0.021947127 0.07855625 -0.027683645 0.103690945
0.10255139 0.057950366 0.09427762 -0.13225536 0.002293513 -0.088908665 0.1511771 -0.0413024
-0.04242318 -0.13424145 -0.052996114 -0.024575906 -0.041116 0.10183231 0.13839956 0.08049725
0.12143575 0.117647804 0.10602861 -0.083965145 -0.06882549 0.083017096 -0.092666395 0.04601034
0.12654507 -0.087492526 0.05802142 0.01904943 0.030483795 -0.069729954 0.11809707 0.13368383
-0.0017558298 0.017750625 -0.10803809 0.026661862 -0.14656447 -0.01729219 0.084765755 -0.12659594
-0.041053075 0.1235901 -0.047631316 0.10155779 0.06731107 0.105894655 -0.096100956 -0.019428128
0.120358855 0.007590367 -0.0018138884 -0.12135154 0.07102959 -0.07385394 0.014867375 0.04532153
-0.13739423 0.008684356 0.12314832 -0.05242716 0.10664582 -0.08744515 0.11604857 0.11524245
-0.044406027 -0.04522079 -0.083702266 0.11251811 0.002530189 -0.017503932 -0.06997322 0.07240508
-0.04211738 0.03586414 -0.056582697 -0.11977 -0.127877 -0.14924721 0.061852276 0.13768472
0.14404927 0.10829258 0.022637244 0.12220446 0.11937672 -0.092111506 0.057594072 0.060307086
-0.1443437 0.0119904615 0.061879016 -0.007945298 -0.1273156 0.10743078 -0.1467564 0.07251706
-0.053227115 0.05908948 0.16088708 -0.031944267 -0.13415873 -0.047409825 0.16179188 0.018861128
-0.02712709 -7.3028874e-05 -0.12097034 -0.03417745 -0.1202341 0.09972271 0.10362595 0.05613078
-0.0947794 0.07638456 -0.0571882 0.13013752 0.021281278 -0.061852098 -0.0149609065 -0.09170259
-0.014468402 0.1479413 0.11523202 0.06747426 0.09139413 -0.12512645 0.0928971 0.12455381
0.043250408 0.094761856 0.11222067 -0.101345405 0.055342875 -0.121311866 -0.1341787 -0.0824844
-0.11867454 -0.07879102 0.0052990974 -0.055474624 0.11571525 0.072276406 0.11976818 0.108497865
0.16129376 -0.06707992 -0.0782499 0.044722248 0.06909995 -0.0985672 -0.08674888 -0.045683563
0.053527214 0.12494951 0.1583507 0.07100576 -0.030079672 0.0017032928 -0.009628063 -0.12739024
-0.009566924 -0.07811354 -0.1047755 -0.114897095 -0.049123537 -0.0859502 -0.1343881 -0.057277676
0.016765807 0.12414255 0.038058493 0.08587711 0.020254608 -0.054786023 0.026596593 0.038426872
00000000: 9769 2d3c e359 c1bd 8668 ad3d 959a afbd
00000010: 7174 f33d b9de d53c 9c89 26bd c40e a1bd
00000020: 5e03 65ba e5c1 dfbd fa74 c2bc 8350 cf3d
00000030: 16a6 ba3d 1605 83bd 2198 ffbd 7c69 113b
00000040: 4d43 16be 7aa0 21be 2e5b cdbc d082 ff3d
00000050: 6ab9 fdbd 145d 19bd e716 98bd 0d94 db3d
00000060: 42fa d8bd 1bf3 0fbe 8d2c 21be e39d 4bbd
00000070: e8a2 1cbc 1b83 4f3d c6ff 91bd f114 8bbd
00000080: 706c 0f3e a736 8bbd 4f76 493c b2b5 14bd
00000090: 0e24 0e3e 20d8 bbba fb68 03be 4214 f13b
000000a0: 644b 07bd 0ab0 d73d 7ae1 c13d 1483 f5bd
000000b0: 27f1 c93d 66e2 dfbc c385 efbc ec3b 10be
000000c0: c436 1d3d c5a6 8fbd c824 68b7 c059 033e
000000d0: a232 683d c98b 8f3d 0f6f 053e 9d5d 8b3d
000000e0: 516f 14be c0f3 513d 0fa1 1f3d f5fc 97bd
000000f0: 655f 87bd 48a7 f83d 42c0 a1bd cf28 4bbc
00000100: ae85 b43b 1d35 ab3c 32d9 713d c218 c3bc
00000110: e6fc c1bc 66a7 03be 70bf 85bd e230 cdbd
00000120: b2c6 bf3d 6ce1 373d 66e8 993c b2d7 96bc
00000130: 76ca b3bc 19e2 a03d d0c8 e2bc eb5b d43d
00000140: 7706 d23d 5d5d 6d3d a014 c13d f36d 07be
00000150: c34e 163b bf15 b6bd 2bce 1a3e b52c 29bd
00000160: eec3 2dbd 9776 09be 7412 59bd 6953 c9bc
00000170: 4069 28bd 758d d03d 9db8 0d3e bedb a43d
00000180: 4eb3 f83d 55f1 f03d 8725 d93d ebf5 abbd
00000190: 61f4 8cbd de04 aa3d e1c7 bdbd 5775 3c3d
000001a0: 0895 013e 482f b3bd dea7 6d3d 8d0d 9c3c
000001b0: 27b9 f93c 94ce 8ebd e0dc f13d 6ae4 083e
000001c0: df23 e6ba c269 913c 1343 ddbd fa69 da3c
000001d0: ff14 16be 5aa8 8dbc ab99 ad3d 5ea2 01be
000001e0: 4527 28bd ce1c fd3d 0e19 43bd 88fd cf3d
000001f0: 63da 893d 4cdf d83d 94d0 c4bd bd27 9fbc
00000200: b47e f63d 9db8 f83b ffbf edba 2887 f8bd
00000210: f677 913d bc40 97bd 4a96 733c 12a3 393d
00000220: 13b1 0cbe d448 0e3c 3035 fc3d ddbd 56bd
00000230: 2069 da3d 7116 b3bd dfaa ed3d 3c04 ec3d
00000240: 18e3 35bd 6f39 39bd 186c abbd e56f e63d
00000250: 87d1 253b 6864 8fbc 1f4e 8fbd 1d49 943d
00000260: 4683 2cbd 47e6 123d 42c3 67bd f949 f5bd
00000270: 30f2 02be 43d4 18be d058 7d3d 39fd 0c3e
00000280: a781 133e 80c8 dd3d be71 b93c 5546 fa3d
00000290: c87b f43d f5a4 bcbd c3e7 6b3d 9004 773d
000002a0: d6ce 13be a473 443c da74 7d3d ff2c 02bc
000002b0: 055f 02be ab04 dc3d 4f47 16be d383 943d
000002c0: ad04 5abd d007 723d 95bf 243e fed7 02bd
000002d0: e860 09be ce30 42bd c5ac 253e a782 9a3c
000002e0: a239 debc 1427 99b8 4cbf f7bd a7fd 0bbd
000002f0: 4c3d f6bd 6c3b cc3d d839 d43d 64e9 653d
00000300: b41b c2bd 826f 9c3d 2d3e 6abd c542 053e
00000310: 1356 ae3c a058 7dbd 971e 75bc 91ce bbbd
00000320: e00c 6dbc ed7d 173e c4fe eb3d f22f 8a3d
00000330: d82c bb3d 2621 00be d640 be3d 1116 ff3d
00000340: 5727 313d 8112 c23d f3d3 e53d 2e8e cfbd
00000350: 36af 623d 5b72 f8bd 2466 09be 95ed a8bd
00000360: a30b f3bd 305d a1bd 0da4 ad3b 5c39 63bd
00000370: 1efc ec3d a705 943d 0549 f53d 2134 de3d
00000380: 312a 253e 3261 89bd 7c41 a0bd ad2e 373d
00000390: 4684 8d3d 9add c9bd 66a9 b1bd b01e 3bbd
000003a0: 5a3f 5b3d 87e5 ff3d b026 223e 786b 913d
000003b0: a569 f6bc 0641 df3a 06bf 1dbc 9672 02be
000003c0: 96be 1cbc fef9 9fbd 8a94 d6bd 2b4f ebbd
000003d0: c335 49bd a906 b0bd 099d 09be ff9b 6abd
000003e0: 7258 893c 733e fe3d 39e3 1b3d 57e0 af3d
000003f0: feec a53c 4f67 60bd 19e1 d93c 7f65 1d3d

convs.2.bias f4 [128]
0.018839391 -0.0114742685 0.015065311 0.018512301 0.0014492243 0.012464913 0.008570575 -0.009399851
0.01741668 0.013221511 0.017718932 0.0108342385 0.00039201725 -0.00972813 0.015992064 0.017241439
0.016792132 0.01815296 0.0015196772 0.018651253 0.01835681 -0.006033931 0.015203929 0.004317611
-0.00455532 -0.002315441 0.009059989 0.018580891 0.018314464 0.0018171687 0.014418008 0.010317005
0.010285437 0.018501543 0.003965484 0.017843854 -0.004555757 0.01824729 0.018521234 0.008792508
0.015722753 0.018548133 0.0036631715 0.013757435 -0.007901967 0.018182935 0.009977198 -0.013181501
0.006558962 0.013733514 0.015322374 0.018423837 0.018610727 -0.015245807 -0.010019578 0.00420995
0.0036905424 0.018521506 0.015174013 0.018118301 0.009208284 0.013658205 0.0034361633 -0.015094152
0.01736838 0.011138923 -0.009573861 0.018455805 0.010703479 0.015394446 0.014687859 0.0009887544
-0.0077430527 -0.008514069 0.01749302 0.012408817 0.018781105 -0.0018741752 -0.012289404 0.018633865
0.004710584 0.018263763 0.01647147 0.011008979 0.01833671 0.018576123 -0.0053637964 -0.001715797
-0.01227257 0.015230458 0.018600566 0.018136503 -0.015115443 0.018323326 0.018011494 0.016051559
-0.0022900132 -0.0005761796 -0.009556568 0.015813379 0.007226415 0.0045926766 0.018395504 -0.0021561123
0.018812371 0.0073360475 0.017586365 0.018307725 0.010520358 -0.0040986743 0.018487822 0.017550861
0.011914563 0.017883362 0.018824844 0.017846767 -0.012267738 0.009005817 0.015473241 0.018076612
0.011345685 0.0076237656 0.01810966 -0.014319297 0.016532715 0.01883615 0.01790788 -0.007846426
00000000: 1155 9a3c 92fe 3bbc 7fd4 763c 1ca7 973c
00000010: e6f3 bd3a a239 4c3c 996b 0c3c d501 1abc
00000020: 6dad 8e3c 099f 583c 4b27 913c 1782 313c
00000030: aa87 cd39 bc62 1fbc ca01 833c eb3d 8d3c
00000040: a78f 893c 84b5 943c e82f c73a 83ca 983c
00000050: 0561 963c 48b8 c5bb e619 793c bf7a 8d3b
00000060: cb44 95bb a7be 17bb 5970 143c f436 983c
00000070: 3708 963c 102e ee3a 8239 6c3c a808 293c
00000080: 4084 283c 8c90 973c e4f0 813b 462d 923c
00000090: 7648 95bb 577b 953c d8b9 973c 740e 103c
000000a0: 01cd 803c 41f2 973c d211 703b dd66 613c
000000b0: 4077 01bc 61f4 943c 6777 233c 39f7 57bc
000000c0: 90ec d63b 8802 613c b20a 7b3c 96ed 963c
000000d0: 8675 983c 8dc9 79bc 2829 24bc 9ff3 893b
000000e0: 07dd 713b 6aba 973c 6c9c 783c d56c 943c
000000f0: 58de 163c aac6 5f3c 4131 613b 764d 77bc
00000100: 2248 8e3c 0780 363c afdb 1cbc a130 973c
00000110: a55d 2f3c fd38 7c3c 59a5 703c 1899 813a
00000120: 6fb9 fdbb 987e 0bbc 864d 8f3c 5a4e 4b3c
00000130: d5da 993c e2a6 f5ba 7f59 49bc 0ca6 983c
00000140: 3e5b 9a3b e39d 953c 2def 863c 015f 343c
00000150: de36 963c f42c 983c c9c2 afbb 98e4 e0ba
00000160: e412 49bc 2c89 793c 3760 983c 0193 943c
00000170: c3a6 77bc cd1a 963c d78c 933c 8f7e 833c
00000180: 0c14 16bb c20a 17ba 2793 1cbc 0f8b 813c
00000190: 90cb ec3b 2a7e 963b 2bb2 963c 904d 0dbb
000001a0: 671c 9a3c 3a63 f03b 4811 903c 15fa 953c
000001b0: 945d 2c3c 2c4e 86bb c673 973c d3c6 8f3c
000001c0: 4d35 433c 2180 923c 8f36 9a3c 6233 923c
000001d0: 9ffe 48bc 228d 133c 7a83 7d3c 6715 943c
000001e0: 41e3 393c c8d0 f93b b65a 943c 7c9b 6abc
000001f0: 9e6f 873c 454e 9a3c 8cb3 923c 4c8e 00bc

convs.2.lin.weight f4 [128, 128]
-0.055472482 -0.03662194 0.08793469 -0.09118161 0.07707345 0.095380425 0.065051354 0.1691254
0.094834246 0.02516026 0.15856007 0.020627776 -0.04109479 0.15132202 0.0135067925 0.07602936
-0.124728635 0.16773301 -0.0063285213 0.024623495 0.08788202 -0.06606408 0.02652586 0.15650457
-0.010611535 -0.071105585 0.16457035 -0.12348435 -0.10396206 0.13138133 0.11711728 -0.008232556
0.054919716 -0.03316306 0.07730409 -0.006055866 -0.09584188 -0.06026298 0.03876384 -0.074805856
-0.036697533 -0.08977743 0.1483346 -0.1337816 0.11422288 0.009185295 0.073804624 0.029056055
0.07850291 -0.08124193 0.04680961 0.07504541 0.0977748 0.121190175 0.07002268 0.061251536
0.07697607 0.12580182 0.14568116 -0.043352462 0.036335837 0.15519324 0.065275125 -0.0851075
0.013043458 -0.090812355 0.10983559 -0.1055923 0.014434398 -0.1383263 0.07384285 0.032118045
-0.111167006 0.12337664 -0.076389216 0.12685844 -0.03451596 0.10916593 -0.1360801 -0.043154154
-0.12706132 0.057668783 0.060592897 0.093109906 -0.10231661 0.06692011 0.09190734 -0.0008317359
-0.10831407 0.03722455 -0.029143158 -0.09180325 -0.0767457 -0.056992874 0.15458511 0.008468432
-0.0752777 0.008248713 -0.08997378 0.08551494 0.03686727 0.09799267 0.123009264 0.046632875
-0.022239815 0.089455925 0.10093207 0.0477592 -0.12750822 -0.047710158 0.11371061 0.08046628
0.026164718 0.08408431 -0.08953068 0.14813416 0.12266487 -0.116120815 -0.062816285 -0.019489802
-0.053057536 0.15222909 0.14457867 0.1421577 0.06646296 -0.12727079 0.054432716 0.03158897
-0.037515756 -0.110399954 -0.032846827 0.0031138505 0.042200968 0.1222874 -0.0029575333 0.12951002
-0.0068344697 0.055530135 -0.02510598 -0.05523047 0.10383857 -0.04814613 -0.039729368 -0.12932661
0.075793326 -0.102841385 -0.05196357 0.00712433 0.065726034 0.11385991 0.02254138 -0.1124658
-0.15955088 0.09424546 -0.14364088 -0.12599748 0.08736832 -0.022144737 -0.035450753 -0.14383405
0.048788022 0.10929289 -0.024508758 0.03000265 0.112566225 0.11305079 0.09338951 0.09805807
-0.09408709 0.0802449 0.10134431 0.0037371684 -0.12245558 -0.07213522 0.13531621 0.036832865
0.012936912 -0.026876787 -0.05981296 0.075335 0.11853595 -0.025736593 -0.11509431 0.04066662
-0.019736318 0.12727466 0.015192159 -0.1074518 0.1383813 -0.08723448 0.07360273 -0.119611055
0.00014498708 -0.09776554 0.0958631 -0.06617521 -0.10927793 -0.09351504 -0.053043347 -0.006589475
0.120662816 -0.15733793 0.026982734 0.047918938 0.0433801 -0.07144375 -0.062960796 0.037139058
-0.026633384 -0.05273708 0.08352354 0.023789415 0.066534266 0.12520297 0.039737117 -0.09752817
-0.03633654 -0.09193652 0.009356735 -0.07720794 -0.14565873 -0.11809935 0.044701517 -0.0045319507
0.010942569 -0.04112656 0.0728967 -0.09956394 -0.0019236546 0.099608354 -0.028083613 -0.056533407
-0.024654549 0.122987114 -0.028038291 -0.030917676 0.031366937 -0.09522555 -0.14877012 -0.15097694
-0.08591373 0.0024059485 0.12565626 -0.1543946 0.019257411 -0.15468875 -0.08077681 -0.075772464
-0.018434014 -0.071707636 -0.02464491 0.11079973 -0.103811875 -0.11812742 0.103792936 -0.023464154
00000000: 1d37 63bd e300 16bd 1a17 b43d 6dbd babd
00000010: afd8 9d3d d056 c33d a539 853d 352f 2d3e
00000020: 7538 c23d e41c ce3c 925d 223e 95fb a83c
00000030: 0353 28bd 29f4 1a3e 984b 5d3c 48b5 9b3d
00000040: ba71 ffbd 34c2 2b3e 7c5f cfbb 36b7 c93c
00000050: 7dfb b33d 9b4c 87bd c34c d93c bc42 203e
00000060: 01dc 2dbc ce9f 91bd 2185 283e 5de5 fcbd
00000070: 0fea d4bd d488 063e 2fdb ef3d d8e1 06bc
00000080: 7ff3 603d fdd5 07bd 9b51 9e3d 4970 c6bb
00000090: bf48 c4bd 51d6 76bd d5c6 1e3d d033 99bd
000000a0: 2750 16bd 3bdd b7bd 06e5 173e 0bfe 08be
000000b0: afed e93d eb7d 163c e126 973d f706 ee3c
000000c0: 22c6 a03d 2b62 a6bd 6fbb 3f3d 68b1 993d
000000d0: 283e c83d 8e32 f83d 0d68 8f3d e4e2 7a3d
000000e0: a1a5 9d3d 31d2 003e 712d 153e 5a92 31bd
000000f0: e3d4 143d faea 1e3e f7ae 853d d74c aebd
00000100: 3ab4 553c d4fb b9bd 7bf1 e03d c740 d8bd
00000110: 417e 6c3c 69a5 0dbe ec3a 973d 368e 033d
00000120: 87ab e3bd e4ac fc3d f371 9cbd 2ee7 013e
00000130: 9b60 0dbd 6392 df3d 9558 0bbe 69c2 30bd
00000140: 5d1c 02be 1a36 6c3d 4230 783d 68b0 be3d
00000150: 5f8b d1bd 690d 893d ea39 bc3d da08 5aba
00000160: c4d3 ddbd c578 183d a2bd eebc 5803 bcbd
00000170: d92c 9dbd 5c71 69bd 8f4b 1e3e 2ebf 0a3c
00000180: 322b 9abd 9c25 073c 2c44 b8bd 7522 af3d
00000190: 2202 173d 62b0 c83d 48ec fb3d 1d02 3f3d
000001a0: 4630 b6bc ab34 b73d 79b5 ce3d 279f 433d
000001b0: 8491 02be ba6b 43bd 1ce1 e83d 81cb a43d
000001c0: 6457 d63c 6534 ac3d dc5b b7bd 7bb0 173e
000001d0: b837 fb3d c0d0 edbd d3a5 80bd 14a9 9fbc
000001e0: dc52 59bd f1e1 1b3e 6e0c 143e ca91 113e
000001f0: bb1d 883d 4653 02be d7f4 5e3d 7063 013d
00000200: 1faa 19bd 5f19 e2bd 658a 06bd be11 4c3b
00000210: ecda 2c3d d171 fa3d 2dd3 41bb 469e 043e
00000220: b0f3 dfbb 9173 633d 0eab cdbc 5839 62bd
00000230: 51a9 d43d e034 45bd 43bb 22bd 326e 04be
00000240: 8839 9b3d 819e d2bd c1d7 54bd 3673 e93b
00000250: 5f9b 863d 622f e93d b3a8 b83c 7854 e6bd
00000260: 4e61 23be c403 c13d 9816 13be 7c05 01be
00000270: 29ee b23d e168 b5bc cf34 11bd 3c49 13be
00000280: f3d5 473d f3d4 df3d 97c6 c8bc 1ec8 f53c
00000290: 1f89 e63d 2c87 e73d 0043 bf3d abd2 c83d
000002a0: bbb0 c0bd 7057 a43d 9b8d cf3d 48eb 743b
000002b0: fec9 fabd a1bb 93bd 5590 0a3e 0fde 163d
000002c0: 57f5 533c b52c dcbc 6ffe 74bd 3d49 9a3d
000002d0: fac2 f23d 8cd5 d2bc 91b6 ebbd 0b92 263d
000002e0: 0fae a1bc 4a54 023e 89e8 783c b00f dcbd
000002f0: d4b3 0d3e fea7 b2bd 07bd 963d a4f6 f4bd
00000300: ac07 1839 4d39 c8bd df53 c43d de86 87bd
00000310: 1bcd dfbd d084 bfbd fb43 59bd 86ec d7bb
00000320: 111e f73d 321d 21be e50a dd3c a646 443d
00000330: 55af 313d 1a51 92bd 97f1 80bd 201f 183d
00000340: 412e dabc d602 58bd 640e ab3d 05e2 c23c
00000350: 1e43 883d 3535 003e 63c3 223d d9bc c7bd
00000360: a0d5 14bd 3749 bcbd fe4c 193c 321f 9ebd
00000370: 9027 15be 12de f1bd f018 373d c280 94bb
00000380: 7648 333c 5374 28bd dd4a 953d 2ee8 cbbd
00000390: 2323 fcba 77ff cb3d 9b0f e6bc 938f 67bd
000003a0: 56f8 c9bc abe0 fb3d 8fb0 e5bc 1147 fdbc
000003b0: 9e7a 003d 9d05 c3bd 3257 18be b399 1abe
000003c0: 8af3 afbd 1ead 1d3b 09ac 003e 9e19 1ebe
000003d0: b8c1 9d3c ba66 1ebe 506e a5bd 982e 9bbd
000003e0: ee02 97bc 74db 92bd 1fe4 c9bc f8ea e23d
000003f0: 529b d4bd caec f1bd 6491 d43d e637 c0bc

classifier.0.weight f4 [128, 256]
0.048831545 -0.053196024 0.006029597 -0.0033917576 -0.010749847 0.029678224 -0.0502667 -0.048353355
0.049005765 0.03026777 0.015660824 0.037314713 -0.04845307 0.035041273 0.029351609 -0.059438296
-0.0016972227 0.018914271 -0.00077578536 0.05559152 0.02516111 -0.0071832146 -0.056790177 -0.058831174
0.03864938 -0.01286536 0.038028616 -0.024842562 -0.06186631 -0.052692108 -0.041159607 0.016674498
-0.03490713 0.016529517 0.034154437 0.03990517 0.050754547 0.0051075653 0.004045576 0.022404807
-0.00038327742 0.021925464 0.05283573 -0.051738273 -0.04018101 -0.014278888 0.021748366 -0.01793438
0.009182922 0.02663438 -0.058549747 0.049878605 -0.051954377 0.0502123 0.041889116 -0.028723298
0.02810485 0.0027064877 0.042461734 0.019952735 0.011840581 -0.009884874 0.0065632076 -0.009637695
-0.015721574 -0.04789126 0.046470907 -0.045466926 -0.046675354 -0.03622222 0.017957104 -0.032372776
0.018272432 -0.021740995 -0.05173832 0.0018282528 -0.05813155 -0.033550646 0.027782569 -0.036362298
-0.030168088 0.03561206 0.001451723 0.026506515 -0.06477543 0.029350888 0.01802626 0.04116368
-0.024761427 0.0026622145 -0.006784941 -0.062043093 0.038516752 0.024433814 -0.02118316 0.0045114458
0.03228609 0.02177568 0.0001309565 -0.012846129 0.05219161 0.0053931926 -0.035586998 0.015386257
0.0393625 0.046914466 -0.005070043 -0.034227226 -0.011868781 -0.0022295685 -0.046744138 0.051077697
-0.06334254 -0.004462537 0.04291484 -0.0035845335 0.037199277 0.005036618 -0.03259143 0.042619906
-0.06001829 -0.0603955 -0.059296265 -0.040989112 -0.029357279 -0.032510225 0.05556475 0.0022328119
-0.0018022173 -0.008467143 -0.050408803 -0.06552089 -0.030476606 0.01958331 -0.008301587 -0.02619414
-0.031118635 0.048690233 -0.064061195 -0.01861159 -0.008874478 0.0039956523 -0.040482044 0.026586596
0.005132552 -0.06373013 0.012729564 -0.06634952 0.020320721 0.0558458 -0.0011510011 0.016994715
0.0023363044 -0.012489794 -0.041133314 0.035500877 -0.029066764 0.046684064 0.043795295 0.026408076
0.030469818 -0.01255014 -0.061354753 -0.021222517 -0.04060296 -0.032171935 -0.04705641 -0.015727729
0.027801117 -0.0069648013 -0.030119007 0.031260327 -0.024495432 -0.021606566 0.017483933 0.021786392
0.0038786365 0.0015275101 -0.043716256 -0.0409885 0.008976776 -0.0362401 0.01513602 -0.0008494051
0.04942341 -0.025373092 -0.014423285 0.009120047 -0.03738407 0.036409244 -0.0018845869 -0.024826605
-0.014734691 -0.031380586 -0.033881515 -0.055582725 0.045712177 -0.045190513 0.03298236 0.017166296
0.012347502 0.033967983 0.026939578 0.02218645 -0.007937134 0.049904358 0.05311172 0.054765835
0.02507458 0.0031731836 0.0124664 0.007089046 -0.053381506 -0.04733823 0.00019878124 0.00011172949
-0.039648995 0.007827263 0.02063239 -0.0072555915 0.001368848 0.03614723 0.05468941 -0.020842599
0.0298634 -0.014619413 -0.05408281 0.004718168 0.0332597 -0.061542775 -0.058233585 0.0279526
0.033705838 -0.018297141 0.0012057978 0.045741897 0.04074812 0.05712718 -0.06640573 -0.05502819
-0.03502656 0.04933394 0.0047580856 -0.008001285 0.028839681 0.037105076 0.038105045 -0.0013054148
0.051979665 -0.04116052 0.025577405 0.0063017304 0.024184765 -0.047311585 0.04746868 -7.489584e-05
00000000: 9603 483d 13e4 59bd ed93 c53b 4048 5ebb
00000010: 2020 30bc bf1f f33c 75e4 4dbd 2b0e 46bd
00000020: 45ba 483d 1df4 f73c 214b 803c 50d7 183d
00000030: ba76 46bd 7087 0f3d c972 f03c 9275 73bd
00000040: 5875 deba 1af2 9a3c 135e 4bba efb3 633d
00000050: ac1e ce3c 2c61 ebbb d19c 68bd f5f8 70bd
00000060: d04e 1e3d 3bc9 52bc e5c3 1b3d a182 cbbc
00000070: 8767 7dbd aed3 57bd fa96 28bd f598 883c
00000080: c7fa 0ebd e968 873c 86e5 0b3d 9b73 233d
00000090: 00e4 4f3d 5d5d a73b c090 843b 498a b73c
000000a0: a0f2 c8b9 089d b33c 476a 583d 83eb 53bd
000000b0: d894 24bd fff1 69bc a129 b23c 1feb 92bc
000000c0: f773 163c 5830 da3c dcd1 6fbd 824d 4c3d
000000d0: 1dce 54bd 6aab 4d3d ec93 2b3d 1f4d ebbc
000000e0: 243c e63c 545f 313b 5bec 2d3d eb73 a33c
000000f0: fffe 413c 2bf4 21bc 2d10 d73b 6ce7 1dbc
00000100: 88ca 80bc a029 44bd 4758 3e3d 873b 3abd
00000110: a82e 3fbd c05d 14bd c71a 933c 5199 04bd
00000120: 11b0 953c 2c1a b2bc 90eb 53bd fca1 ef3a
00000130: 591b 6ebd 676c 09bd 4598 e33c a2f0 14bd
00000140: 1123 f7bc f4dd 113d be47 be3a 3124 d93c
00000150: fba8 84bd 4671 f03c cfab 933c 3f9b 283d
00000160: 7ad8 cabc 8c78 2e3b 3654 debb e620 7ebd
00000170: bec3 1d3d 6c29 c83c 4e88 adbc c0d4 933b
00000180: 6b3e 043d e962 b23c 5e51 0939 9278 52bc
00000190: dfc6 553d 61b9 b03b acc3 11bd a416 7c3c
000001a0: 933a 213d 6229 403d 9a22 a6bb d931 0cbd
000001b0: 4775 42bc f41d 12bb c876 3fbd d936 513d
000001c0: bcb9 81bd 793a 92bb 79c7 2f3d 7eea 6abb
000001d0: 455e 183d 370a a53b 977e 05bd 3692 2e3d
000001e0: bdd5 75bd 4661 77bd a4e0 72bd 33e4 27bd
000001f0: ad7e f0bc 7129 05bd dd97 633d 5e54 123b
00000200: 6138 ecba c6b9 0abc 7679 4ebd d12f 86bd
00000210: 13aa f9bc 2d6d a03c 6103 08bc 1895 d6bc
00000220: 82ec febc 696f 473d 8432 83bd 5577 98bc
00000230: 4266 11bc f6ed 823b 80d0 25bd 22cc d93c
00000240: f72e a83b f184 82bd a98f 503c 42e2 87bd
00000250: a477 a63c 91be 643d 30dd 96ba 8038 8b3c
00000260: af1c 193b fea1 4cbc 687b 28bd 5e69 113d
00000270: 6c1d eebc ca37 3f3d b262 333d c055 d83c
00000280: d79b f93c 1a9f 4dbc 1f4f 7bbd d8da adbc
00000290: 4a4f 26bd b8c6 03bd 39be 40bd 70d7 80bc
000002a0: 2bbf e33c fd38 e4bb 23bc f6bc d40a 003d
000002b0: a5aa c8bc 4100 b1bc 773a 8f3c 6079 b23c
000002c0: b930 7e3b bc36 c83a d10f 33bd 8fe3 27bd
000002d0: 5413 133c 8070 14bd 12fd 773c 9daa 5eba
000002e0: 3470 4a3d 3bdb cfbc a44f 6cbc 406c 153c
000002f0: 0a20 19bd dc21 153d 3e04 f7ba 2a61 cbbc
00000300: c669 71bc ee88 00bd 58c7 0abd b6aa 63bd
00000310: b13c 3b3d b019 39bd 8318 073d 55a0 8c3c
00000320: 2d4d 4a3c 0322 0b3d 64b0 dc3c 5cc0 b53c
00000330: c10a 02bc 8368 4c3d ad8b 593d 2452 603d
00000340: 3569 cd3c 30f5 4f3b df3f 4c3c 3a4b e83b
00000350: 91a6 5abd bbe5 41bd ef6f 5039 5050 ea38
00000360: fc66 22bd ec3d 003c 4205 a93c 50c0 edbb
00000370: eb6a b33a 1e0f 143d 0102 603d 19be aabc
00000380: 17a4 f43c 4386 6fbc f085 5dbd dd9a 9a3b
00000390: 533b 083d 4714 7cbd 5786 6ebd dafc e43c
000003a0: 220f 0a3d e3e3 95bc dc0b 9e3a db5b 3b3d
000003b0: 80e7 263d 31fe 693d baff 87bd 3d65 61bd
000003c0: 0378 0fbd 6312 4a3d b7e9 9b3b d217 03bc
000003d0: 3241 ec3c 7efb 173d 0914 1c3d 741a abba
000003e0: a1e8 543d ef97 28bd b587 d13c bf7e ce3b
000003f0: 211f c63c cbc9 41bd 856e 423d 6611 9db8

classifier.0.bias f4 [128]
-0.027784491 -0.026030585 0.027050203 0.07580825 0.014422968 -0.027704196 0.07542936 -0.029997617
0.06379009 0.039643485 0.018951632 0.020485247 0.07106115 0.026114767 0.032267928 -0.023646044
0.0022715507 -0.00032498816 -0.04199022 -0.016970716 0.0056425678 -0.0018427825 0.040916286 0.057314496
-0.026362548 -0.013859567 0.018935546 0.0646473 0.028779019 0.05415983 -0.036766574 0.008731309
0.03047265 0.014648591 0.04219915 -0.058626123 -0.044173922 -0.020475535 -0.042005785 0.054174572
0.0054061953 0.012711471 0.061386313 0.022608783 -0.041440785 -0.041924134 0.06704643 0.002266951
0.07532308 0.02576604 0.01190743 0.01886745 0.03398278 0.050771065 -0.013005599 0.036162026
-0.018634362 -0.043734893 -0.015298805 0.009240738 0.03303718 -0.008483279 -0.015760088 0.015724469
-0.039196085 -0.01049432 0.02785211 -0.0022363425 0.041580994 -0.033237632 0.027909055 0.014683688
0.043488864 0.017110953 0.011738848 0.036908064 -0.04733899 -0.0016121662 -0.014781348 0.0072175856
-0.0071062106 -0.014360014 0.04665805 0.021365562 -0.0520391 0.019750942 -0.043817617 -0.021102905
0.05723117 0.050406527 0.0063860975 0.03555139 0.00040166616 0.015831554 -0.047957886 -0.0026561795
-0.0067280363 -0.008845208 0.016304005 -0.0025395905 0.02669956 -0.015800549 -0.011676082 0.0637863
0.031072998 0.021308253 -0.0059092576 -0.025328532 -0.00014009082 0.05447269 -0.009212632 -0.003815575
-0.011821852 -0.00022019679 0.027908653 -0.0023502198 -0.049981803 0.048477173 -0.002906366 0.009341979
0.0023881777 0.02595622 -0.034713287 0.03725453 0.049480908 -0.03683991 0.028399024 0.032802615
00000000: 4d9c e3bc 183e d5bc 6398 dd3c 5b41 9b3d
00000010: 504e 6c3c e9f3 e2bc b57a 9a3d 90bd f5bc
00000020: 61a4 823d 3561 223d 7440 9b3c add0 a73c
00000030: 8288 913d a3ee d53c 602b 043d 59b5 c1bc
00000040: 4cde 143b 2c63 aab9 f0fd 2bbd 2c06 8bbc
00000050: 4ae5 b83b 8589 f1ba d697 273d 9bc2 6a3d
00000060: 45f6 d7bc 3d13 63bc b81e 9b3c ce65 843d
00000070: fac1 eb3c b3d6 5d3d 8c98 16bd c40d 0f3c
00000080: c7a1 f93c a500 703c 04d9 2c3d f221 70bd
00000090: b7ef 34bd 4fbc a7bc 420e 2cbd 28e6 5d3d
000000a0: 7426 b13b c643 503c 3770 7b3d 0e36 b93c
000000b0: d0bd 29bd a4b8 2bbd a44f 893d 2091 143b
000000c0: fd42 9a3d 4d13 d33c 6217 433c e98f 9a3c
000000d0: 8731 0b3d 52f5 4f3d 7015 55bc a21e 143d
000000e0: 17a7 98bc 5c23 33bd d7a7 7abc 7766 173c
000000f0: fe51 073d 73fd 0abc 4d1b 81bc 9ad0 803c
00000100: 138c 20bd 5ef0 2bbc 1c2a e43c 9a8f 12bb
00000110: d550 2a3d 2f24 08bd 88a1 e43c da93 703c
00000120: 6121 323d 452c 8c3c 4c54 403c e92c 173d
00000130: 87e6 41bd 524f d3ba 782d 72bc 7f81 ec3b
00000140: 37db e8bb 4446 6bbc 831c 3f3d d506 af3c
00000150: f426 55bd bacc a13c 1a7a 33bd 00e0 acbc
00000160: 3b6b 6a3d 1377 4e3d 7842 d13b 569e 113d
00000170: b896 d239 2db1 813c 7d6f 44bd 4c13 2ebb
00000180: dc76 dcbb 7eeb 10bc fa8f 853c 426f 26bb
00000190: 09b9 da3c 2770 81bc 0a4d 3fbc 64a2 823d
000001a0: cd8c fe3c a58e ae3c 72a2 c1bb c87d cfbc
000001b0: 58e5 12b9 c11e 5f3d 94f0 16bc ba0e 7abb
000001c0: 71b0 41bc a0e4 66b9 b0a0 e43c 2506 1abb
000001d0: b8b9 4cbd 0090 463d bb78 3ebb 1a0f 193c
000001e0: f982 1c3b 24a2 d43c 852f 0ebd 3598 183d
000001f0: 7eac 4a3d 72e5 16bd 12a5 e83c 095c 063d

classifier.3.weight f4 [64, 128]
0.06479713 0.031917065 -0.01728639 -0.04322762 0.006790898 -0.08582453 -0.07551311 0.019896049
-0.092800274 -0.09713616 -0.04859662 0.00078401103 0.048013274 0.026074119 0.028594026 0.055802837
-0.03663089 -0.058143135 0.0007193869 -0.050186887 0.00051170617 -0.0028094954 0.04821025 0.010137833
-0.028653879 0.02846727 -0.054401 0.06860817 -0.05597865 -0.06532428 -0.04379611 0.010241331
0.053085383 0.0013446474 0.07789133 -0.00025714212 0.06900085 -0.04672592 0.03010766 0.018962089
-0.0031523712 0.06954645 0.051972724 -0.00144875 0.051802807 0.04209961 0.006512617 0.054975223
-0.0002941336 0.002335094 0.06403096 0.00049198273 -0.015349979 -0.023347521 -0.090093456 -0.019325895
-0.034053363 0.07238462 0.059634812 0.00060545316 0.058643255 0.010384262 0.04748372 0.016781647
-0.0824785 -0.010381314 -0.017095258 0.004869517 -0.08196834 -0.08277865 0.0052775885 -0.033830244
-0.0564145 -0.048775285 -0.08319845 0.0016939812 -0.009791974 0.0003931366 -0.033876732 0.015655234
-0.0018416372 -0.05769029 0.011306189 -0.057766598 0.061345126 -0.079260476 -0.034315955 -0.08779501
-0.019240532 -0.071698375 -0.006032835 0.06560546 -0.039621357 -0.0050868094 0.025023269 0.032605015
-0.03178229 -0.03948692 -0.0040828325 0.00784058 0.038323328 -0.0017120653 0.046652768 -0.04635929
0.018648323 -0.04568764 -9.234573e-05 -0.030447429 0.025336443 -0.06361405 -0.008111353 -0.08079337
0.035787717 0.028102702 0.06240859 -0.06299995 -0.052640423 0.04991912 -0.042117063 0.0003459781
-0.0972892 -0.005137242 -0.08877634 -0.043842066 -0.02157762 -0.004916567 -0.094022416 -0.09174791
0.0019458178 0.034593016 0.053125706 0.054541234 -0.05500547 0.023549408 -0.012271984 0.019647844
0.026372544 0.09180725 0.08040266 0.09337707 0.102908306 -0.05606282 -0.03748782 -0.0012739763
0.04709981 0.039542034 0.0817294 -0.0016283554 -0.0011361638 0.0032737842 0.025999617 0.03034195
-0.06529779 -0.022723991 0.03391861 -0.064308956 0.028305719 0.030876225 0.086059324 0.016243411
0.028212754 0.042109463 0.043523986 -0.012718176 -0.04284662 -0.03617537 0.039919537 -0.047644563
-0.06939477 -0.008048981 0.057947118 -0.03650512 -0.030168133 -0.06623821 0.07650803 -0.051063742
0.094767526 0.026649047 -0.019730555 -0.00052531075 -0.050742935 -0.012176726 0.017000843 0.07159192
-0.020140942 -0.07606677 0.014257211 -0.01518342 -0.035109747 0.027187198 -0.03041246 -0.021457333
-0.029634422 0.015685143 -0.061689906 0.041634858 0.06063289 -0.030172454 -0.005252152 0.08420288
-0.03409561 0.059240185 0.052639928 0.06792386 -0.062902465 0.00076170923 -0.019177115 0.064700395
0.0012903028 -0.009181688 0.0616352 -0.022169655 0.0059792083 0.03684341 -0.028213078 -0.029940149
0.0010229594 0.056594003 -0.045865707 0.08819153 0.048996657 0.049477067 0.04949071 -0.01471633
0.0049364027 -0.028162507 -0.0153426705 0.007961533 0.102481514 0.013370372 -0.06442544 -0.028754855
-0.033086892 0.0022763049 0.024421323 0.0016268078 -0.008300696 0.03144901 -0.0056572394 0.06804311
0.05501582 -0.010847998 -0.014311117 0.00046571044 -0.029819895 0.04707328 -0.025976762 0.015849877
0.06801265 -0.04229129 -0.06197082 0.053595822 0.0044513103 -0.043109998 -0.055613194 -0.0005487806
00000000: 5cb4 843d 78bb 023d 309c 8dbc 720f 31bd
00000010: 2e86 de3b c5c4 afbd 9ea6 9abd 0afd a23c
00000020: 120e bebd 53ef c6bd 400d 47bd 1786 4d3a
00000030: 91a9 443d 6499 d53c 053e ea3c 8491 643d
00000040: 460a 16bd 7f27 6ebd 3d95 3c3a c490 4dbd
00000050: 0524 063a 831f 38bb 1c78 453d 2719 263c
00000060: 8abb eabc 3134 e93c 95d3 5ebd 7182 8c3d
00000070: de49 65bd bcc8 85bd 8d63 33bd 41cb 273c
00000080: 0f70 593d e13e b03a 7d85 9f3d 08d1 86b9
00000090: 5150 8d3d ae63 3fbd 57a4 f63c 6256 9b3c
000000a0: 0398 4ebb 5f6e 8e3d 5ae1 543d fce3 bdba
000000b0: 2e2f 543d a470 2c3d cb67 d53b b32d 613d
000000c0: f235 9ab9 6008 193b aa22 833d 67f8 003a
000000d0: 7a7e 7bbc 4d43 bfbc eb82 b8bd 5751 9ebc
000000e0: 8a7b 0bbd 633e 943d a243 743d 46b7 1e3a
000000f0: e933 703d c022 2a3c 4a7e 423d aa79 893c
00000100: 7dea a8bd 6316 2abc 5b0b 8cbc 7890 9f3b
00000110: 04df a7bd da87 a9bd 9fef ac3b 9591 0abd
00000120: e412 67bd 98c8 47bd f363 aabd 9408 de3a
00000130: 846e 20bc e71d ce39 54c2 0abd 683f 803c
00000140: 1763 f1ba a74c 6cbd 983d 393c ab9c 6cbd
00000150: 0745 7b3d 5153 a2bd e38e 0cbd dfcd b3bd
00000160: 529e 9dbc 99d6 92bd 17af c5bb 285c 863d
00000170: 014a 22bd 40af a6bb 99fd cc3c d68c 053d
00000180: 262e 02bd 09bd 21bd 48c9 85bb c775 003c
00000190: ecf8 1c3d 6167 e0ba f916 3f3d 3de3 3dbd
000001a0: 5ec4 983c f622 3bbd bca9 c1b8 e36c f9bc
000001b0: 5f8e cf3c 1548 82bd 7be5 04bc ff76 a5bd
000001c0: 2496 123d a337 e63c 26a0 7f3d 1e06 81bd
000001d0: 7c9d 57bd fe77 4c3d f182 2cbd 6564 b539
000001e0: 8f3f c7bd 4f56 a8bb 5fd0 b5bd bd93 33bd
000001f0: 8dc3 b0bc 271b a1bb d38e c0bd 54e6 bbbd
00000200: d00a ff3a 68b1 0d3d 579a 593d a166 5f3d
00000210: 6a4d 61bd b0ea c03c 6e10 49bc 84f4 a03c
00000220: 3c0b d83c 7105 bc3d 26aa a43d 7a3c bf3d
00000230: 97c1 d23d 21a2 65bd d48c 19bd 8dfb a6ba
00000240: bbeb 403d d4f6 213d be61 a73d 8a6e d5ba
00000250: 55eb 94ba fc8c 563b 26fd d43c ae8f f83c
00000260: d9ba 85bd aa27 babc 3eee 0a3d 6ab4 83bd
00000270: 65e1 e73c 23f0 fc3c df3f b03d e710 853c
00000280: 6f1e e73c f97a 2c3d 3546 323d e55f 50bc
00000290: f07f 2fbd a02c 14bd ab82 233d f226 43bd
000002a0: d81e 8ebd e0df 03bc f559 6d3d 6586 15bd
000002b0: 2923 f7bc e6a7 87bd 3eb0 9c3d 3728 51bd
000002c0: 7a15 c23d 1a4f da3c f9a1 a1bc 02b5 09ba
000002d0: d3d7 4fbd e480 47bc 5a45 8b3c c99e 923d
000002e0: 9efe a4bc e5c8 9bbd 1497 693c e1c3 78bc
000002f0: 3dcf 0fbd b0b7 de3c 8d23 f9bc 4ac7 afbc
00000300: e3c3 f2bc 217e 803c 8eae 7cbd 5089 2a3d
00000310: 315a 783d 392c f7bc 3f1a acbb 8f72 ac3d
00000320: d7a7 0bbd d6a5 723d f79c 573d aa1b 8b3d
00000330: 02d3 80bd 71ad 473a 5319 9dbc a481 843d
00000340: 611f a93a ca6e 16bc 3175 7c3d 239d b5bc
00000350: 3ced c33b 1ee9 163d 1d1f e7bc 0b45 f5bc
00000360: d214 863a 1dcf 673d aedd 3bbd c39d b43d
00000370: b8b0 483d 77a8 4a3d c5b6 4a3d c31c 71bc
00000380: 8cc1 a13b 0fb5 e6bc d35f 7bbc 1771 023c
00000390: d4e1 d13d 680f 5b3c 7cf1 83bd 4d8f ebbc
000003a0: 1f86 07bd 0f2e 153b 3a0f c83c 9d3a d53a
000003b0: a4ff 07bc add0 003d 5d60 b9bb 305a 8b3d
000003c0: 4558 613d cdbb 31bc 2d79 6abc 992a f439
000003d0: da48 f4bc e9cf 403d 38cd d4bc 9ad7 813c
000003e0: 374a 8b3d a239 2dbd 1dd5 7dbd 4b87 5b3d
000003f0: 4cdc 913b 1c94 30bd a9ca 63bd 0bdc 0fba

classifier.3.bias f4 [64]
-0.08291863 0.023242874 0.0060527343 0.05529823 -0.02969075 0.04872787 -0.06674582 0.011344188
-0.025070105 0.014100402 0.06298855 0.07431084 -0.06883903 -0.06812889 -0.04911054 0.06753086
0.038572405 0.0041196123 -0.073621385 0.041422162 -0.01873778 0.024028083 -0.09430981 0.069302596
0.10311601 0.05848939 0.10554859 0.017589558 -0.044279996 -0.028004292 0.027319234 0.040679432
0.097686715 -0.047613636 0.0820206 -0.043225523 -0.021268038 -0.06032215 0.03464135 0.0016293467
0.034800757 -0.034531865 -0.0067684753 0.032935612 -0.052442536 0.04985198 0.06546603 -0.056085523
0.0663724 -0.066644974 0.05724654 -0.062909484 0.07301728 -0.021963764 -0.012029555 -0.059906386
-0.022014594 0.058061253 0.008425384 0.07397938 -0.01447262 -0.05596262 0.014616945 -0.10038924
00000000: 3ed1 a9bd d767 be3c 0456 c63b 6680 623d
00000010: 043a f3bc e096 473d 08b2 88bd f9dc 393c
00000020: d25f cdbc 5f05 673c 2400 813d 4830 983d
00000030: 7afb 8cbd 2987 8bbd 2228 49bd 9f4d 8a3d
00000040: 19fe 1d3d d0fd 863b cfc6 96bd 49aa 293d
00000050: f97f 99bc 8bd6 c43c 8025 c1bd 85ee 8d3d
00000060: 7d2e d33d 9292 6f3d dc29 d83d fa17 903c
00000070: f15e 35bd 4269 e5bc 96cc df3c 7a9f 263d
00000080: f90f c83d 8406 43bd 6bfa a73d 3f0d 31bd
00000090: 4f3a aebc 5c14 77bd 17e4 0d3d ce8f d53a
000000a0: 3d8b 0e3d 4971 0dbd 16ca ddbb 7ee7 063d
000000b0: fccd 56bd 9731 4c3d 0e13 863d efb9 65bd
000000c0: 41ee 873d 297d 88bd 597b 6a3d b0d6 80bd
000000d0: 158a 953d 5aed b3bc 9c17 45bc 6660 75bd
000000e0: f357 b4bc a3d1 6d3d 9f0a 0a3c 8082 973d
000000f0: 911e 6dbc 0f39 65bd e97b 6f3c e098 cdbd
