finalhybrid/experiments/experiment_20251104_080531/final_hybrid_model.pth (torch, 828338 bytes, 21 tensors)

gcn_branch.gcn_layers.0.bias f4 [64]
-0.027018765 0.0042640385 -0.018671762 -0.01791929 0.0 -0.01566498 0.0 0.0
-0.008385798 0.0 0.0 0.0 0.0 0.0 -0.041022178 -0.0051363083
-0.0056187813 0.0 -0.033431306 0.00025069446 0.0 -0.0036030186 0.011485443 -0.030024732
0.006134814 0.0046607614 0.0 -0.02704179 -0.019221032 0.008194028 0.006834364 0.0
-0.025455583 -0.019646484 -0.008055507 -0.0012329031 0.0072085285 -0.014200574 -0.005132008 -0.010826515
0.0 0.010015521 0.0 0.0018598806 -0.026259014 0.0 -0.00012735937 -0.0025622307
0.0 0.0 0.029480446 -0.00331434 -0.027111745 0.00042683908 0.0 -0.010288316
-0.0011896929 -0.04498764 0.0 -0.0019143474 0.0 0.0 0.0 -0.029788245
00000000: 7556 ddbc 59b9 8b3b 86f5 98bc 7acb 92bc
00000010: 0000 0000 d853 80bc 0000 0000 0000 0000
00000020: 9664 09bc 0000 0000 0000 0000 0000 0000
00000030: 0000 0000 0000 0000 df06 28bd 7a4e a8bb
00000040: c11d b8bb 0000 0000 44ef 08bd a46f 8339
00000050: 0000 0000 9f20 6cbb 712d 3c3c 6df6 f5bc
00000060: 8d06 c93b 4db9 983b 0000 0000 be86 ddbc
00000070: 6d75 9dbc 3f40 063c cdf2 df3b 0000 0000
00000080: 3a88 d0bc aaf1 a0bc 3ffb 03bc 5d99 a1ba
00000090: 8535 ec3b 86a9 68bc 672a a8bb b261 31bc
000000a0: 0000 0000 2418 243c 0000 0000 3dc7 f33a
000000b0: 251d d7bc 0000 0000 c58b 05b9 19eb 27bb
000000c0: 0000 0000 0000 0000 fa80 f13c 6635 59bb
000000d0: 7319 debc 5fc9 df39 0000 0000 5390 28bc
000000e0: 78ef 9bba f644 38bd 0000 0000 d7ea faba
000000f0: 0000 0000 0000 0000 0000 0000 7a06 f4bc

gcn_branch.gcn_layers.0.lin.weight f4 [64, 36]
0.07628189 -0.0064878226 -0.20721866 0.085414134 0.098385654 -0.049280588 0.10452199 -0.003564328
-0.045908008 0.018743083 -0.13952622 0.060569152 -0.22734219 -0.24327734 -0.23357862 0.23999451
0.044526204 -0.0061859787 -0.10993108 -0.16385171 -0.15105009 0.15365024 -0.21989416 -0.19869024
0.12833413 0.21391143 -0.02626442 0.14966826 0.15818587 0.20348337 0.019653402 0.22431536
0.05097927 0.028695075 -0.2047507 -0.23977745 0.09124404 -0.06814342 0.2442741 -0.051943835
-0.16845164 -0.043864936 0.109256074 -0.20901574 0.20414464 -0.047997996 0.21275957 0.13397934
-0.041091323 -0.13814259 -0.008697569 0.24375261 0.1397414 0.14546548 -0.089640886 0.026209816
0.058365867 0.11623017 0.22376753 -0.20704229 -0.020106569 -0.17093854 -0.080042675 0.016937941
0.21513043 0.13302171 -0.24855113 -0.101309255 0.032856748 -0.19275261 -0.06459379 -0.025604581
-0.17711715 0.11068746 0.01730125 -0.03453891 -0.184822 -0.24237497 0.11257802 0.13807319
0.108891435 0.042525873 0.17563696 0.18685038 0.11769654 0.10322945 -0.24272433 0.09481166
0.10221149 0.067877665 0.11124553 -0.14675441 -0.16810912 0.18458015 0.075010255 -0.07217483
0.19725768 0.1352009 -0.109848894 -0.10085571 0.1081406 -0.04689127 0.19748151 0.20515458
-0.16773975 -0.043211065 0.18019219 -0.21229526 -0.16191298 -0.029638926 -0.068272814 -0.088655084
-0.21802653 -0.083070874 0.05138783 0.038918898 0.15085544 0.017862335 -0.14178194 0.037821963
0.07764955 -0.015139043 -0.23396064 0.047368124 0.16894539 0.012157008 -0.09771362 0.0969442
-0.048210397 0.03045937 0.019640937 -0.2481986 0.14713413 0.14623328 0.07036535 0.11372332
0.098775476 0.15339607 0.11825856 -0.24266335 -0.21551377 -0.15866084 -0.110596254 -0.00063361885
-0.24186938 0.031489804 0.163105 0.1328081 -0.14724916 0.12030138 -0.15490389 0.08495487
0.1896895 -0.1957592 -0.04851626 -0.0705709 0.15629916 0.15400444 -0.23844822 0.23588394
-0.15464933 0.015603408 -0.1137574 -0.16840208 0.24002899 -0.0060623735 -0.24381723 -0.033840418
-0.18410362 -0.20767668 -0.014698118 0.016802922 -0.09295049 -0.14346565 -0.14614838 -0.02809392
0.028162047 0.1942914 0.18477906 -0.013075873 -0.014271887 -0.19703564 -0.082135744 -0.16429219
0.041150186 -0.07922564 0.16776977 0.15064801 -0.1423685 0.050164267 -8.7976456e-05 0.060838982
0.059884533 0.162551 0.18530224 0.15206207 -0.18837439 -0.08701351 -0.23335311 -0.04256293
-0.17875949 -0.040041808 -0.11637561 -0.15148915 0.022946183 0.22391595 0.069547564 -0.07223393
-0.026452754 0.16848941 -0.16957535 -0.20125186 -0.043216437 0.1570941 -0.0901594 0.1881882
-0.10363741 -0.15338759 -0.2162452 0.073778644 -0.2196084 0.12715559 0.08958666 0.22827466
-0.19161528 0.114413396 -0.24333785 -0.04839091 -0.053231195 0.22729741 0.1902046 -0.0074081123
-0.16965413 0.2312568 0.20717631 -0.21957055 0.03747146 0.0098658055 0.10789348 0.17202415
-0.16435972 -0.03938222 -0.18086967 -0.1600135 0.04793264 0.14357291 0.23448087 -0.15704261
0.021032706 0.0076137036 0.116721705 0.016981348 -0.09226397 0.10188697 -0.10386728 0.1317444
00000000: ae39 9c3d cd97 d4bb 2131 54be 9bed ae3d
00000010: 6b7e c93d 71da 49bd a00f d63d 8097 69bb
00000020: 090a 3cbd 188b 993c f6df 0ebe 5c17 783d
00000030: 64cc 68be b21d 79be 3c2f 6fbe 1fc1 753e
00000040: 1c61 363d c0b3 cabb 8c23 e1bd bec8 27be
00000050: e0ac 1abe 7d56 1d3e ef2b 61be 7475 4bbe
00000060: 066a 033e 990b 5b3e 7b28 d7bc a342 193e
00000070: 7afb 213e f25d 503e 2c00 a13c edb2 653e
00000080: a4cf 503d ef11 eb3c 2baa 51be 3888 75be
00000090: 28de ba3d c78e 8bbd fd22 7a3e 0fc3 54bd
000000a0: 967e 2cbe b8ab 33bd a6c1 df3d 3908 56be
000000b0: 4b0b 513e 8c99 44bd a5dd 593e e131 093e
000000c0: 604f 28bd 4075 0dbe 4080 0ebc 499a 793e
000000d0: 5f18 0f3e e7f4 143e a495 b7bd f8b5 d63c
000000e0: 0c11 6f3d 150a ee3d 5123 653e e502 54be
000000f0: 88b6 a4bc 830a 2fbe 6aed a3bd 70c1 8a3c
00000100: 274b 5c3e d836 083e 3084 7ebe 3a7b cfbd
00000110: cc94 063d f160 45be c049 84bd b3c0 d1bc
00000120: 335e 35be 1bb0 e23d 5abb 8d3c ac78 0dbd
00000130: fa41 3dbe 2531 78be 4e8f e63d 0f63 0d3e
00000140: 7902 df3d 9c2f 2e3d 2dda 333e b555 3f3e
00000150: e20a f13d f669 d33d ba8c 78be 9e2c c23d
00000160: 4254 d13d 7203 8b3d b2d4 e33d ca46 16be
00000170: cc24 2cbe 9402 3d3e fa9e 993d 66d0 93bd
00000180: ebfd 493e 1b72 0a3e 75f8 e0bd 708d cebd
00000190: d278 dd3d 0f11 40bd 9838 4a3e 0b14 523e
000001a0: f8c3 2bbe 16fe 30bd 4d84 383e ee63 59be
000001b0: 84cc 25be 55cd f2bc 9ed2 8bbd cc90 b5bd
000001c0: 5942 5fbe 1021 aabd 0c7c 523d 6c69 1f3d
000001d0: d979 1a3e 0854 923c 492f 11be 34eb 1a3d
000001e0: ba06 9f3d c009 78bc 6193 6fbe 1405 423d
000001f0: 0500 2d3e 302e 473c 141e c8bd ae8a c63d
00000200: 4478 45bd ee85 f93c 08e6 a03c c627 7ebe
00000210: 54aa 163e 2dbe 153e b51b 903d c6e7 e83d
00000220: cc4a ca3d dc13 1d3e 8b31 f23d be7c 78be
00000230: a4af 5cbe fd77 22be 4a80 e2bd 7119 26ba
00000240: 9bac 77be 74fb 003d ff04 273e d9fe 073e
00000250: 7cc8 16be 9260 f63d 209f 1ebe d2fc ad3d
00000260: f73d 423e 1a75 48be fcb8 46bd 7a87 90bd
00000270: e30c 203e 57b3 1d3e c52b 74be 8f8b 713e
00000280: 655c 1ebe 70a5 7f3c a4f9 e8bd 9871 2cbe
00000290: 29ca 753e e0a6 c6bb 39ab 79be 409c 0abd
000002a0: a985 3cbe 32a9 54be 60d0 70bc 48a6 893c
000002b0: d45c bebd a9e8 12be eca7 15be 3825 e6bc
000002c0: 18b4 e63c 53f4 463e b936 3d3e 303c 56bc
000002d0: a2d4 69bc b6c3 49be c936 a8bd 363c 28be
000002e0: 198d 283d 0d41 a2bd d7cb 2b3e 7943 1a3e
000002f0: 0cc9 11be 0c79 4d3d 0080 b8b8 4c32 793d
00000300: 7c49 753d c573 263e dfbf 3d3e 29b6 1b3e
00000310: 37e5 40be 2434 b2bd 1ef4 6ebe 7856 2ebd
00000320: ba0c 37be e102 24bd 5656 eebd f91f 1bbe
00000330: a2f9 bb3c 394a 653e f46e 8e3d 62ef 93bd
00000340: 72b3 d8bc 7d88 2c3e 29a5 2dbe f814 4ebe
00000350: b803 31bd 47dd 203e 7ea5 b8bd 68b4 403e
00000360: da3f d4bd a311 1dbe 626f 5dbe 4219 973d
00000370: 06e1 60be 1335 023e 3679 b73d d5c0 693e
00000380: cc36 44be 9251 ea3d 8f2d 79be 8c35 46bd
00000390: f408 5abd a7c0 683e ffc4 423e c0bf f2bb
000003a0: d0b9 2dbe 95ce 6c3e 0726 543e 1ad7 60be
000003b0: ac7b 193d 30a4 213c 42f7 dc3d 1927 303e
000003c0: ea4d 28be 404f 21bd e635 39be 94da 23be
000003d0: 0455 443d c704 133e c11b 703e c7cf 20be
000003e0: c84c ac3c 607c f93b ca0b ef3d 781c 8b3c
000003f0: e4f4 bcbd 1eaa d03d 5eb8 d4bd 01e8 063e

gcn_branch.gcn_layers.1.bias f4 [128]
-0.017753983 -0.008676141 -0.005061661 -0.0119508775 -0.006017347 -0.020662876 -0.0071850824 -0.00976692
-0.009823296 -0.0038319556 -0.0070849257 -0.0007739774 -0.008099307 -0.022479512 -0.010338791 -0.014285487
-0.018571533 -0.006890382 -0.0124577 -0.008055572 -0.01669795 -0.012228184 -0.01868806 -0.008084754
-0.010932275 -0.009041411 -0.00791062 -0.01685166 -0.009991872 -0.0007297755 -0.008833786 -0.005475711
0.0043308386 -0.009411003 -0.017389754 -0.01336504 -0.01063846 -0.018285435 -0.016921574 -0.007786327
-0.0029360093 -0.007976343 -0.015744522 -0.0002240896 -0.010848427 -0.012204375 -0.013902044 -0.0049909553
-0.020811955 -0.014323879 -0.0046105515 -0.017382294 -0.0014635732 -0.011536408 -0.008637904 -0.010937549
-0.008151484 -0.015474993 -0.0005470185 -0.014596023 -0.023075348 -0.008340024 -0.011357887 -0.0009399891
-0.023609899 -0.013245032 -0.017237017 -0.0061910916 -0.021951573 -0.010890814 0.0 -0.019652162
-0.006454744 -0.026206039 -0.010545569 -0.006929003 -0.012456023 -0.0019399874 -0.030183518 -0.016732596
-0.011633755 -0.004329237 -0.01200118 -0.011539744 0.011668574 -0.018211432 -0.0003573334 -0.0133919045
-0.013040213 -0.013895636 -0.006509804 -0.010083801 -0.022008935 -0.004932682 -0.008997848 -0.010323109
-0.013542798 0.0029778727 -0.015584677 -0.0098422235 -0.0036898735 -0.005759743 -0.003371258 -0.008954943
-0.024885204 -0.022205766 -0.008824377 -0.009945347 -0.0130370855 -0.0032795027 -0.011085656 -0.014945827
-0.018475529 -0.008854413 -0.002393301 -0.020109141 -0.015124768 -0.019239184 -0.012466026 -0.0053274645
0.0036327117 -0.004516186 -0.012303637 -0.015483058 -0.0065977974 -0.0023218973 -0.015906185 -0.0058134063
00000000: cd70 91bc 5f26 0ebc 4adc a5bb 9dcd 43bc
00000010: 2a2d c5bb 3145 a9bc d770 ebbb 6e05 20bc
00000020: e4f1 20bc 8c21 7bbb aa28 e8bb bee4 4aba
00000030: f5b2 04bc f426 b8bc 0864 29bc ad0d 6abc
00000040: 5423 98bc b7c8 e1bb 621b 4cbc 85fb 03bc
00000050: 24ca 88bc b958 48bc b417 99bc eb75 04bc
00000060: 491d 33bc 6d22 14bc 8c9b 01bc 7e0c 8abc
00000070: f3b4 23bc 684e 3fba 95bb 10bc 986d b3bb
00000080: b5e9 8d3b 9c30 1abc f574 8ebc 0af9 5abc
00000090: ef4c 2ebc 56cb 95bc 1d9f 8abc 7224 ffbb
000000a0: 106a 40bb 35af 02bc a8fa 80bc 98f9 6ab9
000000b0: 9abd 31bc dcf4 47bc 66c5 63bc 2b8b a3bb
000000c0: d57d aabc b4ae 6abc 1c14 97bb 5065 8ebc
000000d0: 5ed5 bfba 3403 3dbc ff85 0dbc 6833 33bc
000000e0: cd8d 05bc d38a 7dbc ca65 0fba 2824 6fbc
000000f0: 8308 bdbc 99a4 08bc 6e16 3abc 9a69 76ba
00000100: 8c69 c1bc b101 59bc a534 8dbc a4de cabb
00000110: c9d3 b3bc 626f 32bc 0000 0000 92fd a0bc
00000120: 5182 d3bb 0cae d6bc 52c7 2cbc b10c e3bb
00000130: 5914 4cbc 2d47 feba 6d43 f7bc cc12 89bc
00000140: 819b 3ebc 46dc 8dbb 99a0 44bc 3211 3dbc
00000150: 8c2d 3f3c 2430 95bc 7a58 bbb9 b869 5bbc
00000160: 9ea6 55bc 86aa 63bc 3250 d5bb 8736 25bc
00000170: 154c b4bc 56a2 a1bb b66b 13bc 4222 29bc
00000180: 9de2 5dbc 6a28 433b e056 7fbc 4741 21bc
00000190: ced1 71bb 3abc bcbb 53f0 5cbb c1b7 12bc
000001a0: 0edc cbbc dee8 b5bc 1f94 10bc cff1 22bc
000001b0: 8099 55bc edec 56bb 9ca0 35bc 58df 74bc
000001c0: fe59 97bc 1a12 11bc eed8 1cbb edbb a4bc
000001d0: e0cd 77bc 7e9b 9dbc 4d3e 4cbc 0392 aebb
000001e0: ca12 6e3b 84fc 93bb 3295 49bc a7ac 7dbc
000001f0: 5632 d8bb f92a 18bb b04d 82bc 637e bebb

gcn_branch.gcn_layers.1.lin.weight f4 [128, 64]
0.042982984 0.09561776 -0.10337926 -0.06538285 -0.088784814 -0.040996857 -0.101751566 -0.060698774
-0.16338062 -0.10501322 -0.04898954 0.08130353 -0.15417838 0.14788464 -0.0946203 0.04655429
0.043008808 0.0977235 0.09392681 0.016121008 0.013064316 0.12930174 0.10881886 0.105256155
0.07557235 0.14632773 -0.14713202 0.12260336 -0.042525988 -0.021167142 0.14027016 0.11550747
0.16006252 0.12657742 -0.065323524 0.081833795 0.0059231287 -0.10281997 -0.014838166 -0.13593158
-0.087255135 0.1127439 -0.11155538 -0.01434137 0.1134935 0.041934725 -0.001684894 -0.033230145
0.0528616 -0.057160214 0.05975004 -0.11473507 -0.06695679 0.1286817 -0.017167348 0.15088606
0.114684686 -0.08318988 0.03244861 -0.18421584 0.019912526 -0.0013487339 0.08329033 0.08670319
0.13352273 -0.027859505 0.061588045 -0.019634305 -0.057939403 -0.18266048 -0.14787026 0.15177357
-0.012593578 0.09276051 -0.024995293 0.06329146 -0.038434375 0.105862506 -0.10590266 -0.026540905
0.14011104 -0.14678566 0.086463384 0.002405111 -0.053467914 -0.057713386 0.039898977 -0.068403885
0.14880033 -0.07017089 0.109796524 0.045627877 -0.011217954 -0.11262256 0.15059234 0.050183106
0.16518122 0.097890325 -0.1483699 0.006897634 -0.007955412 0.10426116 -0.09784273 0.0640105
0.036790203 0.14621353 -0.123824775 -0.069349244 0.049328603 0.03510698 0.0992998 0.076852255
0.15081047 0.15698352 0.17304754 -0.1474467 -0.022110006 0.057431962 0.036992867 -0.15660135
0.065088384 0.08928299 0.11508358 0.11564154 -0.16203058 -0.0692887 -0.14739309 0.0121423695
-0.019591477 -0.06821326 0.048398614 -0.017470485 0.11110777 0.095591694 0.16720109 0.023060465
0.058317337 -0.12339587 -0.13636671 -0.14310296 0.09135967 -0.074798346 0.0026960017 -0.17470373
-0.061263956 0.09857868 0.024776807 0.023696553 -0.16096865 0.1486431 -0.059749544 0.07242926
0.16745418 -0.13424164 0.06515492 -0.13502868 -0.17166008 0.10576171 0.1700525 -0.19430697
0.055663515 -0.14606911 0.022599204 -0.11072235 0.025360608 0.11002542 -0.09268147 -0.009389052
-0.04626325 -0.16212071 -0.008065122 -0.12761131 0.16510038 -0.07246976 0.13115905 -0.16577199
-0.16462187 0.00900509 -0.08258077 0.080924 0.019404694 0.019640908 -0.026351461 0.018527819
0.050247256 0.022728218 0.15712276 -0.03755065 0.057579096 -0.08955451 -0.15472881 0.028198915
-0.10815276 0.04641916 0.15161328 -0.1598463 -0.15005326 0.106410585 0.1620342 0.16835047
0.16196977 -0.07408054 -0.16995831 -0.035808645 0.12700781 0.07387615 -0.16219722 0.09222506
-0.06781696 0.008918871 -0.04051352 -0.07667754 0.14485615 -0.07971077 0.035408556 0.0912715
0.019109644 0.12547505 -0.111119054 0.13480684 -0.12942469 0.0065800715 0.13518956 0.043913644
0.016059503 -0.068967625 0.11172922 0.0324066 -0.096045434 0.09708936 -0.09159848 0.007299468
-0.08215054 0.12689468 0.08341945 0.1413585 0.031551585 -0.05732779 0.010383682 -0.13586244
-0.049165916 0.027537107 0.012673976 0.11667817 0.08975052 0.053294137 0.06451892 -0.03295993
0.09079102 -0.049892772 0.09708292 0.14749841 0.110314064 -0.0046639773 -0.11242854 -0.09289933
00000000: ed0e 303d 3fd3 c33d 81b8 d3bd 72e7 85bd
00000010: d0d4 b5bd 52ec 27bd 2063 d0bd 479f 78bd
00000020: 404d 27be 2c11 d7bd 42a9 48bd 7782 a63d
00000030: f0e0 1dbe 126f 173e 4ac8 c1bd b6af 3e3d
00000040: 012a 303d 4223 c83d b35c c03d 3410 843c
00000050: b60b 563c ad67 043e 6cdc de3d 8a90 d73d
00000060: adc5 9a3d f0d6 153e c7a9 16be 7817 fb3d
00000070: bb2f 2ebd b766 adbc fba2 0f3e 2e8f ec3d
00000080: 6ee7 233e 839d 013e 57c8 85bd 7a98 a73d
00000090: ce16 c23b 4793 d2bd c71b 73bc a631 0bbe
000000a0: d2b2 b2bd 46e6 e63d 2677 e4bd 11f8 6abc
000000b0: 486f e83d bfc3 2b3d a9d7 dcba 551c 08bd
000000c0: 6885 583d d420 6abd 75bc 743d 38fa eabd
000000d0: a420 89bd 23c5 033e 8aa2 8cbc e081 1a3e
000000e0: cedf ea3d 755f aabd d5e8 043d 14a3 3cbe
000000f0: 981f a33c 00c8 b0ba 1f94 aa3d 7191 b13d
00000100: 2fba 083e 9e39 e4bc bf43 7c3d 1fd8 a0bc
00000110: de51 6dbd 590b 3bbe 4d6b 17be 886a 1b3e
00000120: 4b55 4ebc 39f9 bd3d eec2 ccbc f49e 813d
00000130: 5d6d 1dbd 71ce d83d 7ee3 d8bd 506c d9bc
00000140: 4579 0f3e fb4e 16be b713 b13d 119f 1d3b
00000150: 2c01 5bbd df64 6cbd 1c6d 233d 5617 8cbd
00000160: 1d5f 183e c1b5 8fbd 00dd e03d 4ce4 3a3d
00000170: 82cb 37bc a8a6 e6bd e134 1a3e cd8c 4d3d
00000180: 4425 293e b97a c83d 47ee 17be 8c05 e23b
00000190: 6b57 02bc e086 d53d c561 c8bd f017 833d
000001a0: 53b1 163d 00b9 153e d897 fdbd fa06 8ebd
000001b0: ca0c 4a3d 56cc 0f3d b25d cb3d b764 9d3d
000001c0: 0f6e 1a3e 4ac0 203e 6033 313e 45fc 16be
000001d0: 0b20 b5bc c73d 6b3d d585 173d 1b5c 20be
000001e0: 0f4d 853d 00da b63d f1b0 eb3d 79d5 ec3d
000001f0: 58eb 25be 3ce7 8dbd 37ee 16be caf0 463c
00000200: 4e7e a0bc 65b3 8bbd a03d 463d 431e 8fbc
00000210: 788c e33d 94c5 c33d c336 2b3e 4de9 bc3c
00000220: 29de 6e3d f9b6 fcbd b7a3 0bbe 9589 12be
00000230: c71a bb3d e02f 99bd 67af 303b 89e5 32be
00000240: eaef 7abd 9ee3 c93d bbf8 ca3c 461f c23c
00000250: f7d4 24be e635 183e f0bb 74bd cb55 943d
00000260: 1c79 2b3e a476 09be f16f 853d f544 0abe
00000270: a9c7 2fbe 9899 d83d 3e22 2e3e 68f8 46be
00000280: 6dff 633d 2493 15be f721 b93c 66c2 e2bd
00000290: 0dc1 cf3c 0255 e13d c8cf bdbd 8ad4 19bc
000002a0: 897e 3dbd f902 26be 9323 04bc 8aac 02be
000002b0: 1310 293e 076b 94bd 8f4e 063e 22c0 29be
000002c0: a392 28be 168a 133c 1b20 a9bd 7bbb a53d
000002d0: 98f6 9e3c f8e5 a03c 05df d7bc a7c7 973c
000002e0: 11d0 4d3d 8730 ba3c cae4 203e b6ce 19bd
000002f0: 0fd8 6b3d 5b68 b7bd 3b71 1ebe 6901 e73c
00000300: 327f ddbd 0422 3e3d 8340 1b3e c0ae 23be
00000310: 90a7 19be cbed d93d 4bec 253e 1164 2c3e
00000320: 67db 253e 8ab7 97bd 8d09 2ebe 16ac 12bd
00000330: 560e 023e 614c 973d 0717 26be 7ee0 bc3d
00000340: 9ee3 8abd 7520 123c 81f1 25bd 1d09 9dbd
00000350: 2c55 143e 663f a3bd 9008 113d 8dec ba3d
00000360: d48b 9c3c 887c 003e 6392 e3bd ce0a 0a3e
00000370: e887 04be a49d d73b 226f 0a3e cbde 333d
00000380: 388f 833c e63e 8dbd 4ad2 e43d c8bc 043d
00000390: 78b3 c4bd c9d6 c63d fc97 bbbd 6030 ef3b
000003a0: 8b3e a8bd aef0 013e d1d7 aa3d 48c0 103e
000003b0: 3c3c 013d 8bd0 6abd 5220 2a3c 861f 0bbe
000003c0: 3362 49bd 8095 e13c 82a6 4f3c f7f4 ee3d
000003d0: 1fcf b73d f44a 5a3d 7f22 843d fe00 07bd
000003e0: a4f0 b93d 5d5c 4cbd 69d3 c63d d309 173e
000003f0: 57ec e13d 47d4 98bb ef40 e6bd 0142 bebd

gcn_branch.gat_layers.0.att_src f4 [1, 4, 16]
-0.52548045 -0.33919224 -0.23877512 0.060613703 -0.06521487 0.5725414 0.4224415 0.05929603
0.18573293 -0.23087972 -0.041864753 0.33906546 0.38009343 -0.18730772 -0.24506551 -0.14080143
-0.48816684 0.0023526116 -0.3568376 0.04541398 0.55065846 -0.086674735 0.04275584 0.29126474
0.26487002 0.5214238 -0.26704016 0.075051144 0.15837646 -0.10844101 -0.08325678 -0.35999942
0.3707533 -0.5248689 0.19324844 -0.26624155 0.33262 -0.12594014 0.18440509 0.18372917
0.49942005 0.30675015 -0.5320166 0.46880227 -0.5158361 0.11729602 0.3758593 -0.46530288
-0.03551007 0.40694568 -0.18677609 0.250384 -0.29748812 -0.53899676 -0.336238 -0.1748705
-0.101340316 -0.5876095 0.076584816 -0.1353193 -0.23363057 0.41560397 -0.442501 -0.36297277
00000000: e385 06bf 9baa adbe 7781 74be 1346 783d
00000010: 608f 85bd 1392 123f 414a d83e 65e0 723d
00000020: c630 3e3e bc6b 6cbe 607a 2bbd fd99 ad3e
00000030: 9b9b c23e 98cd 3fbe 74f2 7abe 402e 10be
00000040: 01f1 f9be 462e 1a3b 6bb3 b6be 0204 3a3d
00000050: f4f7 0c3f 8682 b1bd bf20 2f3d a720 953e
00000060: 0b9d 873e 087c 053f 7db9 88be 6ab4 993d
00000070: 702d 223e 5216 debd 8882 aabd d851 b8be
00000080: 60d3 bd3e cf5d 06bf ebe2 453e d050 88be
00000090: 2b4d aa3e 74f6 00be b0d4 3c3e 8023 3c3e
000000a0: fcb3 ff3e 5b0e 9d3e 3d32 08bf da06 f03e
000000b0: d60d 04bf e538 f03d a170 c03e 2e3c eebe
000000c0: 0273 11bd 2f5b d03e 3b42 3fbe 5532 803e
000000d0: 5d50 98be b1fb 09bf 6327 acbe 4111 33be
000000e0: 838b cfbd 946d 16bf 80d8 9c3d 2591 0abe
000000f0: da3c 6fbe 0bca d43e 7e8f e2be 91d7 b9be

gcn_branch.gat_layers.0.att_dst f4 [1, 4, 16]
-0.025740037 -0.0066215727 -0.500456 -0.2524112 -0.5221852 -0.14088628 -0.49129573 -0.19337511
0.11810797 0.41158348 -0.06250131 -0.40646392 0.20589164 -0.37000337 0.09180005 -0.100667834
-0.30274072 0.21305929 0.040595274 0.3863193 -0.5078515 -0.53487134 -0.5145372 0.37349477
-0.50049764 0.11088515 -0.2774396 0.13229033 -0.25365606 0.2248289 -0.5761173 0.3028214
0.29610345 0.36883205 -0.24854715 0.016737355 -0.34200704 0.0016370361 -0.49747685 0.15871446
0.3887611 0.3647671 0.44876483 -0.087564446 -0.5016369 -0.21418954 0.4821592 0.49762976
0.16135077 0.16577566 0.41911212 0.32191727 0.39498505 0.20260368 0.24726982 -0.4092645
-0.5189748 -0.12518816 0.40584028 -0.055674568 0.52908456 0.53252643 -0.16850713 0.19440915
00000000: c5dc d2bc c7f9 d8bb e21d 00bf 0a3c 81be
00000010: eead 05bf 7e44 10be 1d8b fbbe 2004 46be
00000020: 97e2 f13d 12bb d23e b000 80bd 0a1c d0be
00000030: 42d5 523e 1571 bdbe aa01 bc3d f02a cebd
00000040: d500 9bbe 372c 5a3e 3b47 263d a5cb c53e
00000050: 8e02 02bf 54ed 08bf b6b8 03bf b53a bf3e
00000060: 9d20 00bf c117 e33d 900c 8ebe 1e77 073e
00000070: 35df 81be 8c39 663e 6c7c 13bf 680b 9b3e
00000080: df9a 973e 8ed7 bc3e 2583 7ebe c71c 893c
00000090: 8c1b afbe d191 d63a 49b5 febe 0b86 223e
000000a0: b20b c73e c1c2 ba3e 81c4 e53e fd54 b3bd
000000b0: 476b 00bf 8154 5bbe 92dd f63e 54c9 fe3e
000000c0: 2339 253e 18c1 293e dd95 d63e 57d2 a43e
000000d0: 7b3b ca3e 5777 4f3e 4d34 7d3e 1e8b d1be
000000e0: 88db 04bf 5331 00be 4cca cf3e 040b 64bd
000000f0: 1672 073f a753 083f 228d 2cbe 3113 473e

gcn_branch.gat_layers.0.bias f4 [64]
-0.021323455 0.011491638 -0.018115014 -0.00967773 0.018932031 0.0032604232 0.01660753 0.0052681095
0.008817872 0.017795177 -0.0029048026 0.011900137 -0.013524069 -0.015668858 -0.026265997 0.011140368
-0.020831935 -0.012953323 -0.030910054 0.004709896 0.006282563 0.01515762 0.0062884493 -0.04307488
-0.0012732175 -0.001645402 -0.024159092 -0.018850878 -0.00408515 0.0075133457 0.008728783 -0.0076143015
-0.0063831895 -0.008545015 0.007908385 0.0025899115 -0.0044574016 0.0025877245 0.022717968 -0.014921186
0.007437792 0.003949049 0.025021799 -0.004340748 -0.024680115 -0.005009484 -0.011984626 0.01060605
-0.0053315843 -0.0077948626 0.031011445 -0.010903625 -0.011972188 -0.023360029 0.0014339373 -0.016138533
-0.0032464413 -0.027344463 -0.021521972 -0.0042990465 0.00795154 0.0071461736 -0.0125434995 -0.018580325
00000000: 87ae aebc 6c47 3c3c f065 94bc 578f 1ebc
00000010: 5917 9b3c d3ac 553b 840c 883c 1ba0 ac3b
00000020: d678 103c 31c7 913c 805e 3ebb cbf8 423c
00000030: 0f94 5dbc fa5b 80bc ca2b d7bc 1786 363c
00000040: bca7 aabc 2d3a 54bc 1537 fdbc 7955 9a3b
00000050: f5dd cd3b ab57 783c 560f ce3b 496f 30bd
00000060: 17e2 a6ba 88aa d7ba 4ae9 c5bc 286d 9abc
00000070: b9dc 85bb 8332 f63b 2b03 0f3c 6481 f9bb
00000080: 132a d1bb 6400 0cbc 2c92 013c 81bb 293b
00000090: 650f 92bb d096 293b 081b ba3c fd77 74bc
000000a0: b9b8 f33b 0667 813b 84fa cc3c d53c 8ebb
000000b0: f42d cabc 9926 a4bb 2a5b 44bc ffc4 2d3c
000000c0: 92b4 aebb 0c6c ffbb b70b fe3c 1ea5 32bc
000000d0: ff26 44bc 885d bfbc f4f2 bb3a f534 84bc
000000e0: 3fc2 54bb 7f01 e0bc d94e b0bc 04df 8cbb
000000f0: 2d47 023c 732a ea3b 4083 4dbc c435 98bc

gcn_branch.gat_layers.0.lin.weight f4 [64, 64]
0.0064978893 -0.009535259 -0.12147384 -0.17789538 -0.08728966 -0.09332969 0.06786834 0.017692223
0.016511656 0.09812899 -0.12993814 -0.19813146 -0.19059463 0.032603607 -0.12422427 0.063539214
0.13873577 0.19561733 -0.23285256 0.14190263 0.18012862 -0.05414498 -0.10711044 0.067829356
-0.07541615 0.18635932 -0.050534904 -0.21839152 0.079672925 -0.17399156 -0.11026378 0.14647059
-0.14839756 0.008466785 -0.1743063 0.020056317 0.027588315 -0.050334267 0.18411402 0.024654688
-0.09897579 0.050255746 0.20891564 -0.0073289266 -0.04764631 0.0005925149 0.13299073 -0.09930771
0.19771828 -0.113326766 -0.0749957 -0.10868383 -0.102561444 0.16095851 -0.14924008 0.108870335
-0.22738868 0.11528373 0.18788905 0.103290185 0.0745901 0.19018073 -0.010620564 0.06128868
0.16671859 0.20014535 -0.11107983 -0.05684471 -0.0819518 -0.09360647 0.03770344 0.0037190318
0.013557886 -0.09090462 -0.12786502 0.18411218 -0.002408117 0.2077985 -0.10492252 -0.19333886
0.08621976 -0.17347986 0.22024521 -0.19628769 -0.1431348 -0.009788076 0.17398083 -0.18258387
-0.10787132 0.12888199 -0.09291971 -0.14261429 -0.16933417 0.2136724 -0.14177735 -0.11972912
0.048610985 -0.1475318 -0.08840146 -0.049812555 0.16744326 -0.14645663 -0.11773683 0.16789497
-0.06905256 0.061495464 -0.21052064 0.08724759 -0.039315734 0.09001519 0.031575367 -0.010418902
-0.095928974 0.06930356 -0.14989024 0.17991962 -0.15619174 -0.17532222 0.03519003 -0.07317989
0.045814715 0.11622222 -0.02307342 0.17958163 0.007849202 -0.094632894 -0.05614105 -0.05673155
0.06306515 -0.091427445 0.12064533 0.029075488 0.14587466 0.12226631 -0.11499489 0.09465672
-0.107976414 0.18553428 0.12975486 -0.2164022 0.05462934 0.20134948 -0.07661011 0.19299756
-0.07021591 0.07732718 -0.22245099 -0.21701398 0.078515336 0.17827539 0.12072922 0.14147593
0.0005554589 -0.21805088 -0.053075418 0.1204416 0.12318969 0.06645566 -0.21351242 0.0892383
0.010982494 -0.13251461 -0.2184952 -0.10371882 -0.13910286 -0.15751655 -0.07579379 -0.18611123
-0.15542899 -0.14568514 -0.028024912 -0.13497415 0.0421391 -0.17676578 0.18450342 -0.025985863
0.017755479 -0.17343923 0.053810712 0.037225183 -0.12112569 -0.14634524 0.056132033 -0.004697614
-0.033069786 0.115784734 0.1454464 0.00057301106 -0.15022215 -0.07756922 -0.12603742 -0.1600655
0.09753782 -0.17037445 -0.15996043 -0.09480129 0.0059881806 0.0064090425 0.025441498 -0.17955542
-0.14730144 0.06182371 0.17191137 -0.14563939 -0.18530586 -0.14117111 -0.14653423 -0.050895475
0.018480549 0.053765252 -0.16513726 -0.06546912 0.15695567 0.16162907 0.1958678 0.11869285
0.16092063 0.12605675 0.021399096 -0.046096805 -0.11835105 0.13949718 -0.22685263 0.13049747
0.14368026 0.026774235 0.082997 0.015192914 -0.021206582 0.11111247 -0.08813656 -0.03824335
0.123828426 0.12869616 0.18482961 0.1670537 -0.059870206 0.041485265 -0.2233305 -0.00029591838
-0.060320005 0.14976047 0.19760346 -0.21848404 -0.039981313 -0.035982296 0.13812883 -0.1555516
0.091423094 -0.22297962 0.040380076 0.044701174 -0.072848946 -0.07411994 -0.02915603 0.056570332
00000000: 3fec d43b c639 1cbc 47c7 f8bd 352a 36be
00000010: ecc4 b2bd a323 bfbd 8efe 8a3d 48ef 903c
00000020: 7443 873c daf7 c83d 810e 05be f9e2 4abe
00000030: 3d2b 43be 5c8b 053d 4b69 febd d920 823d
00000040: c010 0e3e e94f 483e e770 6ebe ec4e 113e
00000050: a373 383e 20c7 5dbd b85c dbbd 1eea 8a3d
00000060: c873 9abd fad4 3e3e b0fd 4ebd 07a2 5fbe
00000070: 8f2b a33d d82a 32be fad1 e1bd 63fc 153e
00000080: 88f5 17be 45b8 0a3c 5a7d 32be 254d a43c
00000090: e400 e23c 4e2b 4ebd 6388 3c3e a1f8 c93c
000000a0: d2b3 cabd f8d8 4d3d fbed 553e 7e27 f0bb
000000b0: c728 43bd 0053 1b3a b92e 083e d761 cbbd
000000c0: a976 4a3e dd17 e8bd 5897 99bd a195 debd
000000d0: bc0b d2bd 4fd2 243e 64d2 18be 69f7 de3d
000000e0: 94d8 68be e019 ec3d fd65 403e ce89 d33d
000000f0: b2c2 983d bdbe 423e e001 2ebc d709 7b3d
00000100: 47b8 2a3e e7f2 4c3e d27d e3bd 00d6 68bd
00000110: 58d6 a7bd c0b4 bfbd ec6e 1a3d 00bb 733b
00000120: e521 5e3c 342c babd 0cef 02be e787 3c3e
00000130: 80d1 1dbb 21c9 543e 9ee1 d6bd 9ffa 45be
00000140: fc93 b03d b4a4 31be f687 613e a4ff 48be
00000150: ee91 12be 2b5e 20bc 0828 323e 44f7 3abe
00000160: a3eb dcbd a4f9 033e b04c bebd 7b09 12be
00000170: f065 2dbe f0cc 5a3e 152e 11be 8a34 f5bd
00000180: 501c 473d 9412 17be d30b b5bd 4008 4cbd
00000190: 3f76 2b3e baf8 15be 0220 f1bd a9ec 2b3e
000001a0: 6e6b 8dbd abe2 7b3d b992 57be ddae b23d
000001b0: 8909 21bd e259 b83d 2c55 013d 0bb4 2abc
000001c0: 6976 c4bd 06ef 8d3d d47c 19be d93c 383e
000001d0: baf0 1fbe ab87 33be 6c23 103d 57df 95bd
000001e0: 36a8 3b3d ea05 ee3d 7804 bdbc 3fe4 373e
000001f0: f099 003c e4ce c1bd 28f4 65bd 575f 68bd
00000200: 4d28 813d 503e bbbd e614 f73d b82f ee3c
00000210: 2b60 153e c266 fa3d 7182 ebbd 62db c13d
00000220: bd22 ddbd b3fc 3d3e 75de 043e 8a98 5dbe
00000230: 04c3 5f3d 8f2e 4e3e c3e5 9cbd 27a1 453e
00000240: 5ccd 8fbd b65d 9e3d 31ca 63be ea38 5ebe
00000250: a6cc a03d d38d 363e e240 f73d 11df 103e
00000260: 379c 113a bb48 5fbe 9c65 59bd 16aa f63d
00000270: e04a fc3d e819 883d 00a3 5abe 92c2 b63d
00000280: ebef 333c e9b1 07be 35bd 5fbe 886a d4bd
00000290: fb70 0ebe 054c 21be c639 9bbd f193 3ebe
000002a0: c728 1fbe 7c2e 15be 8094 e5bc aa36 0abe
000002b0: 0d9a 2c3d 1702 35be 77ee 3c3e 4ee0 d4bc
000002c0: f073 913c 0e9a 31be 9f68 5c3d 6f79 183d
000002d0: bf10 f8bd 87db 15be b4ea 653d 71ee 99bb
000002e0: 2f74 07bd 8c20 ed3d e7ef 143e 1f36 163a
000002f0: d6d3 19be 9cdc 9ebd f40f 01be 36e8 23be
00000300: e9c1 c73d a476 2ebe abcc 23be 2e27 c2bd
00000310: 8038 c43b f202 d23b b06a d03c 60dd 37be
00000320: 30d6 16be dc3a 7d3d 8909 303e 7e22 15be
00000330: d2c0 3dbe 298f 10be 120d 16be c677 50bd
00000340: 8564 973c f438 5c3d be19 29be ad14 86bd
00000350: fdb8 203e 1782 253e 9291 483e 3d15 f33d
00000360: 61c8 243e 0515 013e 284d af3c 01d0 3cbd
00000370: 0962 f2bd 59d8 0e3e 0e4c 68be 21a1 053e
00000380: eb20 133e a455 db3c 55fa a93d b3eb 783c
00000390: 6db9 adbc ef8e e33d f180 b4bd 0fa5 1cbd
000003a0: c299 fd3d edc8 033e f943 3d3e 2010 2b3e
000003b0: 763a 75bd 74ec 293d c0b0 64be 7e25 9bb9
000003c0: 1c12 77bd cf5a 193e 9058 4a3e 48ba 5fbe
000003d0: 72c3 23bd 2c62 13bd a571 0d3e eb48 1fbe
000003e0: 083c bb3d c554 64be 9465 253d 9418 373d
000003f0: d431 95bd 32cc 97bd a0d8 eebc 4bb6 673d

gcn_branch.gat_layers.1.att_src f4 [1, 4, 32]
-0.068170026 -0.04134406 0.040090203 -0.38308617 0.2043913 0.27713588 0.14104985 -0.14386548
0.3125665 0.39441603 -0.36244544 0.13744922 0.2226586 -0.21819554 0.25418043 -0.36907166
-0.3635445 -0.32967263 0.34419638 0.20653231 0.37102258 0.3597838 0.32165724 -0.33755633
0.366241 0.40691686 0.33670294 -0.026358796 0.2747077 -0.35580552 0.30688074 0.33017287
-0.25196943 0.20839708 -0.21870607 0.10413731 0.31357735 -0.067607075 -0.4010721 -0.34865287
0.32022 -0.19659409 0.35932252 0.2758135 -0.336544 0.17536086 0.2318729 0.24873738
0.11000416 0.17194185 -0.12422934 -0.27003568 -0.04457903 -0.24703138 0.31599054 0.31099913
-0.05239009 0.3939944 0.0187545 0.21099266 0.24355285 -0.037621595 0.14134431 0.39209563
-0.03842705 -0.24348627 -0.355308 -0.31562495 -0.10488341 -0.33167192 -0.1246728 0.34478247
0.027485633 -0.3045005 0.12546448 0.32796818 0.15958953 0.05841311 0.10251176 -0.27679807
0.22744043 -0.1394815 0.14214218 -0.070853226 0.00034355168 -0.25284564 0.046509575 0.22016476
-0.34395412 0.37335688 0.081308335 0.24180478 -0.04120279 -0.3575433 0.39300692 -0.38518655
-0.14866892 -0.37500647 0.4130468 -0.38397205 0.023781957 0.024565334 -0.31452337 0.2104997
-0.13911386 0.03863884 -0.08288847 0.0870044 0.31231543 0.3336334 0.22911476 0.21926196
-0.025589513 -0.30509147 0.31392327 -0.007902843 0.38723165 0.10279914 -0.29802412 0.047248587
-0.02946924 0.39735004 0.13999827 -0.35989413 0.16921957 -0.21362016 0.008490014 -0.01982681
00000000: ba9c 8bbd 6458 29bd a035 243d df23 c4be
00000010: f44b 513e c1e4 8d3e 5f6f 103e 7951 13be
00000020: b708 a03e e6f0 c93e 7392 b9be 7dbf 0c3e
00000030: 9e00 643e a76e 5fbe f023 823e f6f6 bcbe
00000040: 8122 babe daca a8be 823a b03e 357d 533e
00000050: acf6 bd3e 9535 b83e 42b0 a43e 2fd4 acbe
00000060: f183 bb3e 6857 d03e 5464 ac3e 67ee d7bc
00000070: 7da6 8c3e 242c b6be 791f 9d3e 6b0c a93e
00000080: 2302 81be 0b66 553e 7cf4 5fbe f145 d53d
00000090: 368d a03e 9475 8abd 5359 cdbe a182 b2be
000000a0: e0f3 a33e f64f 49be 1ff9 b73e 6d37 8d3e
000000b0: 7f4f acbe cc91 333e 1770 6d3e 03b5 7e3e
000000c0: dc49 e13d 8611 303e f46b febd 1e42 8abe
000000d0: 8098 36bd cbf5 7cbe 83c9 a13e 473b 9f3e
000000e0: fe96 56bd a2b9 c93e 0aa3 993c 760e 583e
000000f0: eb65 793e 1a19 1abd 90bc 103e c2c0 c83e
00000100: af65 1dbd 7754 79be eeea b5be 9899 a1be
00000110: 1dcd d6bd e7d0 a9be 7454 ffbd 5487 b03e
00000120: 8d29 e13c 7de7 9bbe c379 003e 72eb a73e
00000130: 706b 233e 9642 6f3d b0f1 d13d 7ab8 8dbe
00000140: 25e6 683e 3dd4 0ebe b88d 113e 7f1b 91bd
00000150: ba1e b439 fc74 81be d380 3e3d df72 613e
00000160: c11a b0be a228 bf3e fc84 a63d ac9b 773e
00000170: 42c4 28bd ea0f b7be 3438 c93e 2c37 c5be
00000180: aa3c 18be d900 c0be df7a d33e fc97 c4be
00000190: 61d2 c23c 3d3d c93c 3509 a1be 3c8d 573e
000001a0: dd73 0ebe c343 1e3d 6ec1 a9bd 5d2f b23d
000001b0: cfe7 9f3e ffd1 aa3e 0f9d 6a3e 3586 603e
000001c0: 19a1 d1bc f334 9cbe 8dba a03e ed7a 01bc
000001d0: 3a43 c63e 5b88 d23d 9e96 98be bc87 413d
000001e0: 7a69 f1bc 7771 cb3e b55b 0f3e 0b44 b8be
000001f0: e547 2d3e 3ebf 5abe b319 0b3c d66b a2bc

gcn_branch.gat_layers.1.att_dst f4 [1, 4, 32]
-0.17974158 0.31033283 0.16730036 0.011590579 -0.30318606 -0.122508176 -0.26289093 0.06374416
-0.35521683 -0.25693342 -0.41357896 0.3185055 -0.2635179 -0.40629897 0.070691526 -0.25383657
0.1860471 -0.09961771 0.3978875 0.41406608 -0.37948754 -0.14163361 -0.3424061 0.40314513
-0.27205715 0.24053505 0.0007863151 -0.0034519252 0.3045899 0.29307097 -0.2210071 0.25401738
-0.32845494 -0.32834953 0.18309492 0.2560051 0.19716763 -0.173916 0.38836762 -0.16216134
-0.13650694 0.06488142 0.40020457 -0.33221403 -0.17303404 -0.31483504 0.042408504 -0.0720655
-0.12571497 0.2744071 -0.3824592 0.42701238 0.29048207 0.41139117 0.06967392 0.17376928
-0.10021909 0.25311056 -0.061089374 0.37279555 0.32933605 0.18742378 0.056775324 -0.15452676
0.2951042 -0.078858204 -0.3433099 -0.17838648 0.30844596 0.19383363 -0.12270954 0.34376892
-0.24719717 0.36781758 0.20145759 -0.27770987 -0.040749382 0.056273233 -0.38518077 -0.10261766
-0.1548274 -0.30774143 -0.2720779 -0.29469207 0.09229617 0.115531184 0.2275959 -0.12930055
-0.12077418 -0.22855039 -0.016771445 0.13254826 0.25057334 -0.19306433 0.21054876 -0.3861848
-0.18519457 0.38697058 0.100054845 0.0774215 0.07848741 0.08214886 0.11819592 0.20418186
0.3045158 0.13549192 -0.3988444 0.04120389 -0.33319432 0.2554389 -0.19843856 0.08446728
0.12855327 -0.393021 -0.39504117 0.025775032 -0.39308906 -0.21098603 -0.39300025 0.3094382
0.1712677 0.010885386 0.0005331671 -0.2973958 -0.05749194 -0.4005488 0.017527336 0.244133
00000000: 2d0e 38be f2e3 9e3e c950 2b3e 69e6 3d3c
00000010: 343b 9bbe 91e5 fabd a499 86be 4c8c 823d
00000020: fbde b5be c78c 83be 9fc0 d3be 2713 a33e
00000030: d1eb 86be 6b06 d0be b8c6 903d def6 81be
00000040: 2283 3e3e 5f04 ccbd e9b7 cb3e 7800 d43e
00000050: 314c c2be 6708 11be da4f afbe 0a69 ce3e
00000060: 134b 8bbe d24e 763e b720 4e3a b239 62bb
00000070: 35f3 9b3e 660d 963e af4f 62be 910e 823e
00000080: 3f2b a8be 6e1d a8be 3c7d 3b3e 1a13 833e
00000090: 50e6 493e 0917 32be 1fd8 c63e 9f0d 26be
000000a0: 7ac8 0bbe 8de0 843d 9de7 cc3e f517 aabe
000000b0: d62f 31be 0f32 a1be 8ab4 2d3d 1497 93bd
000000c0: 6dbb 00be 167f 8c3e b1d1 c3be 5ea1 da3e
000000d0: 11ba 943e dda1 d23e 33b1 8e3d 93f0 313e
000000e0: ab3f cdbd b597 813e da38 7abd 0fdf be3e
000000f0: bc9e a83e 05ec 3f3e 3e8d 683d 433c 1ebe
00000100: e617 973e 6980 a1bd 51c6 afbe f2aa 36be
00000110: a1ec 9d3e 537c 463e 244f fbbd 7b02 b03e
00000120: 4121 7dbe 9652 bc3e e64a 4e3e fd2f 8ebe
00000130: d3e8 26bd c37e 663d 6a36 c5be 3529 d2bd
00000140: 138b 1ebe 4990 9dbe cb4d 8bbe e1e1 96be
00000150: c605 bd3d 9d9b ec3d e60e 693e 5d67 04be
00000160: 7458 f7bd 1d09 6abe 4564 89bc bbba 073e
00000170: 264b 803e a8b2 45be 189a 573e 04ba c5be
00000180: a5a3 3dbe 0221 c63e 8ee9 cc3d 2a8f 9e3d
00000190: 02be a03d a93d a83d b410 f23d 0d15 513e
000001a0: 7fe9 9b3e 65be 0a3e 5535 ccbe 69c5 283d
000001b0: 7298 aabe e3c8 823e 7a33 4bbe 2efd ac3d
000001c0: 78a3 033e 0c3a c9be d642 cabe 2926 d33c
000001d0: f842 c9be b90c 58be 5437 c9be af6e 9e3e
000001e0: cd60 2f3e 9e58 323c 3dc4 0b3a 4344 98be
000001f0: ab7c 6bbd bb14 cdbe 7d95 8f3c 00fe 793e

gcn_branch.gat_layers.1.bias f4 [128]
-0.0024694013 -0.0058758454 -0.009942098 -0.0007490508 0.0028510196 -0.0044420054 0.007036132 -0.018976724
-0.0059168274 -0.0184611 -0.00783401 0.0040732543 -0.005747651 -0.003961013 -0.004382456 -0.003801169
0.0015909247 -0.0010467515 -0.01239414 -0.002559062 0.002107951 -0.0030893062 -0.003020016 0.006555305
-0.0029466986 0.0052236957 0.010808513 -0.00032649204 0.0015694662 0.0122257825 0.008977767 0.018692983
0.0068659517 -0.003927863 -0.0030811166 -0.010747029 0.012645245 -0.012574703 -0.010370111 -0.004904521
0.0029550332 -0.00030716628 0.0051787687 0.0030576973 0.0067107296 -0.012503739 -0.0052293204 0.0068879337
-0.012103541 -0.0211807 0.009273753 0.001958469 0.009558862 -0.0018169036 -0.01108077 0.0025615818
0.01059506 -0.010307062 -0.0099499915 -0.013508948 -0.0038512887 -0.00917369 0.0058517004 0.006700477
-0.01259499 0.0017143326 -0.031177295 -0.004669248 0.00041753755 -0.005245679 -0.012000623 0.0014011777
-0.0049376315 -0.00810149 0.005514104 -0.019841732 0.0031956236 0.0021092778 -0.005631637 -0.015879791
0.00952195 0.006789702 -0.0021705434 -0.016921235 -0.010157872 -0.021516232 0.01584607 -0.0017967783
-0.0012969559 -0.0041828197 0.01448613 -0.0041616717 0.001815372 -0.005903385 -0.0032391683 -0.010776913
0.007551246 0.0033614365 0.0028106808 0.004018945 -0.006376319 0.00848003 -0.008370176 0.004056935
-0.017316317 -0.0076101357 -0.0032999725 0.008704094 0.0068128784 -0.007061877 -0.012398193 -0.0003473378
0.0024851817 -0.012197157 0.011575493 0.010354344 0.002028968 0.004725344 0.0011366316 0.0061348598
-0.012470828 0.0075855246 0.0028391806 -0.0022311474 -0.014158467 0.005540768 -0.013712784 -0.0031136135
00000000: aed5 21bb 2a8a c0bb 2ee4 22bc f35b 44ba
00000010: 2cd8 3a3b 3e8e 91bb 5a8f e63b 1375 9bbc
00000020: f2e1 c1bb bc3b 97bc 385a 00bc ef78 853b
00000030: cb56 bcbb 63cb 81bb b59a 8fbb 091d 79bb
00000040: 9386 d03a 2733 89ba ca10 4bbc f0b5 27bb
00000050: 8d25 0a3b f575 4abb 76eb 45bb e2cd d63b
00000060: 661d 41bb 892b ab3b 3016 313c 052d abb9
00000070: 8cb6 cd3a a64e 483c 7c17 133c 0722 993c
00000080: c7fb e03b 4eb5 80bb 8fec 49bb 4f14 30bc
00000090: 002e 4f3c 2106 4ebc 66e7 29bc 1bb6 a0bb
000000a0: 3ba9 413b 290b a1b9 a9b2 a93b a663 483b
000000b0: aee5 db3b 7cdc 4cbc b85a abbb 2db4 e13b
000000c0: ee4d 46bc 2683 adbc f0f0 173c a859 003b
000000d0: c69c 1c3c 2b25 eeba 1e8c 35bc 36e0 273b
000000e0: e796 2d3c f4de 28bc 4a05 23bc a254 5dbc
000000f0: e765 7cbb 3f4d 16bc 9fbf bf3b ad8f db3b
00000100: 385b 4ebc 75b3 e03a 8767 ffbc 7e00 99bb
00000110: f1e8 da39 f2e3 abbb 439e 44bc b9a7 b73a
00000120: dbcb a1bb 1dbc 04bc a8af b43b 218b a2bc
00000130: ab6d 513b cf3b 0a3b 9889 b8bb 5616 82bc
00000140: f401 1c3c 267c de3b ad3f 0ebb 679e 8abc
00000150: 346d 26bc cf42 b0bc 9ecf 813c e081 ebba
00000160: 9efe a9ba 0910 89bb 3c57 6d3c a25e 88bb
00000170: c7f1 ed3a 2f71 c1bb 3a48 54bb a691 30bc
00000180: 7170 f73b 8c4b 5c3b 6633 383b 5bb1 833b
00000190: 71f0 d0bb d3ef 0a3c 1023 09bc 0af0 843b
000001a0: f3da 8dbc 725e f9bb 5a44 58bb 9e9b 0e3c
000001b0: 913e df3b 5167 e7bb ca21 4bbc e41a b6b9
000001c0: 6ede 223b 96d6 47bc 23a7 3d3c 44a5 293c
000001d0: 6ff8 043b 0fd7 9a3b 07fb 943a ef06 c93b
000001e0: 7252 4cbc fe8f f83b 8c11 3a3b 7138 12bb
000001f0: eaf8 67bc 558f b53b 96ab 60bc c40d 4cbb

gcn_branch.gat_layers.1.lin.weight f4 [128, 128]
0.012683552 0.127468 0.1297691 0.056726467 -0.106792115 -0.0035001223 -0.0008509597 0.019666947
-0.08153534 0.14628929 -0.08544922 -0.042940218 -0.017224139 -0.051592313 -0.038529444 -0.037014928
-0.07770062 -0.11292153 0.06851752 0.034424417 0.07419334 -0.09140267 0.01902594 0.050379883
-0.124952115 0.085682124 -0.13846143 -0.10266068 0.058759924 -0.013221865 -0.0858189 0.13651803
-0.044981197 0.011835718 -0.031204114 0.027052913 0.022644658 -0.048397128 0.0877504 0.078157865
-0.14690422 -0.13979548 0.11753662 -0.10626241 -0.0020549004 0.073554814 -0.084134504 -0.11079723
-0.103668034 0.1478225 -0.010386939 -0.06259498 0.027643535 0.0013040294 -0.1094525 -0.037959218
0.05939318 0.041199937 0.10249079 -0.019082654 0.09993549 0.001832369 -0.11486276 0.014311331
0.03281426 -0.082565576 -0.11246414 -0.15756531 -0.12989219 0.06399648 -0.002933219 0.0442938
0.05631349 0.0489654 -0.021442013 -0.12142052 0.0855812 0.11014472 -0.17002213 -0.10368585
-0.095652804 -0.011715262 0.13304846 -0.09066044 0.13825104 -0.07258818 -0.020345293 0.035435103
0.09744486 -0.033293467 -0.054374997 0.030902358 -0.15314914 0.0037861634 -0.0743467 -0.08838745
0.057070613 -0.046786197 -0.0016466351 0.051469617 -0.11830077 0.12437322 -0.028897503 -0.13593628
0.082345776 -0.030167669 -0.08972721 -0.11208096 -0.0060609393 -0.032384284 -0.13455309 0.07769101
0.06127611 -0.096653454 -0.004263736 -0.041036747 -0.11093801 0.15342821 -0.12651552 -0.1468044
0.013586936 0.014336284 -0.14034924 0.004707386 -0.09502037 -0.03346279 0.10721585 0.12577671
-0.1340116 -0.051966384 -0.14649045 0.1257551 -0.13711989 -0.14106591 -0.057797156 -0.06273396
0.10265416 -0.10139532 -0.012072233 0.017021423 0.04500215 -0.11597091 -0.032487366 -0.058638744
0.12955128 0.067813635 -0.050067265 -0.12879346 0.14084561 0.06740521 0.026226081 -0.14109412
-0.15385912 -0.083457045 -0.030788267 0.0021804934 0.015585312 0.0719332 -0.08599705 -0.011685236
0.002060328 0.059222713 -0.097217806 -0.014379013 0.13499857 0.1156887 -0.13822456 0.07396974
0.042029463 0.052410256 -0.008414632 -0.15381578 0.14258415 -0.15392604 -0.12391075 0.14226535
-0.15639812 -0.03789955 -0.1257675 -0.12807903 -0.044840287 0.073246576 -0.13547154 -0.12178372
-0.03981529 0.08696814 0.12818727 -0.11276618 -0.018728055 0.14995442 0.09267238 -0.040783145
0.02977516 0.021662697 -0.020584563 -0.060000993 0.01992523 -0.065833196 -0.012167066 0.1375776
0.07047548 0.0006232626 0.03212414 0.0023891965 -0.12326224 0.0067149005 0.06533714 -0.05713726
-0.14435679 0.07452983 -0.11555256 0.14205302 -0.078558855 0.09112299 -0.0959524 0.009232452
0.11944573 0.011055833 -0.058375463 -0.09681574 0.0038513239 0.14329483 0.053222403 0.047578357
0.11879649 0.043874476 0.09045572 -0.01642076 0.12982018 -0.1332442 0.07674792 -0.056653522
0.007420973 -0.09422078 -0.044585697 0.05020011 0.065787226 0.09541903 -0.04573643 0.12764385
-0.11627353 0.082183905 0.05100562 0.029922536 -0.040005796 0.009960254 -0.13330504 0.0021885077
0.07124264 -0.094617546 -0.12842421 5.8539612e-05 -0.033755925 0.039876733 0.13666454 0.053576395
00000000: acce 4f3c f986 023e 31e2 043e 035a 683d
00000010: d3b5 dabd 4f62 65bb f012 5fba 941c a13c
00000020: 00fc a6bd dccc 153e 0000 afbd 15e2 2fbd
00000030: a319 8dbc 7652 53bd 0dd1 1dbd f79c 17bd
00000040: 8121 9fbd 6743 e7bd ea52 8c3d 9e00 0d3d
00000050: aef2 973d 5331 bbbd 4adc 9b3c 235b 4e3d
00000060: e5e6 ffbd 1c7a af3d d5c8 0dbe c33f d2bd
00000070: 3fae 703d 85a0 58bc d2c1 afbd 62cb 0b3e
00000080: 343e 38bd 99ea 413c c59f ffbc 129e dd3c
00000090: 4a81 b93c 113c 46bd 7bb6 b33d 3b11 a03d
000000a0: 0f6e 16be 8c26 0fbe 0ab7 f03d 1ba0 d9bd
000000b0: 82ab 06bb e8a3 963d b64e acbd a8e9 e2bd
000000c0: e84f d4bd c85e 173e fb2d 2abc cc31 80bd
000000d0: b274 e23c f7eb aa3a a228 e0bd 207b 1bbd
000000e0: 4346 733d 44c1 283d b1e6 d13d 3a53 9cbc
000000f0: faaa cc3d 1a2c f03a 2b3d ebbd 137a 6a3c
00000100: 3f68 063d 2418 a9bd 9953 e6bd cd58 21be
00000110: 7502 05be 9610 833d 403b 40bb 6a6d 353d
00000120: f9a8 663d f18f 483d 29a7 afbc 52ab f8bd
00000130: 3245 af3d 8e93 e13d 481a 2ebe 3f59 d4bd
00000140: 9ee5 c3bd 5ff1 3fbc db3d 083e 2eac b9bd
00000150: ae91 0d3e 1da9 94bd 2cab a6bc 6624 113d
00000160: 2c91 c73d bb5e 08bd 51b8 5ebd f126 fd3c
00000170: 21d3 1cbe 4821 783b 1543 98bd 7b04 b5bd
00000180: e0c2 693d e2a2 3fbd e8d3 d7ba ced1 523d
00000190: ad47 f2bd 63b7 fe3d 75ba ecbc e132 0bbe
000001a0: e7a4 a83d 3022 f7bc e6c2 b7bd b48a e5bd
000001b0: d89a c6bb 62a5 04bd 49c8 09be 771c 9f3d
000001c0: a9fc 7a3d 3ff2 c5bd cfb6 8bbb 2616 28bd
000001d0: 7833 e3bd 491c 1d3e 498d 01be e553 16be
000001e0: bd9b 5e3c bce2 6a3c b6b7 0fbe 6a40 9a3b
000001f0: 0a9a c2bd 4710 09bd fc93 db3d 9ccb 003e
00000200: 563a 09be b4da 54bd 9801 16be f2c5 003e
00000210: 2869 0cbe 9573 10be b6bc 6cbd aa7a 80bd
00000220: 583c d23d 59a8 cfbd 9dca 45bc 8370 8b3c
00000230: 2d54 383d 2882 edbd 7911 05bd 2e2f 70bd
00000240: 17a9 043e e0e1 8a3d 5513 4dbd 6fe2 03be
00000250: d539 103e be0b 8a3d 14d8 d63c fa7a 10be
00000260: 3f8d 1dbe 87eb aabd ad37 fcbc 9ce6 0e3b
00000270: 8959 7f3c b751 933d 391f b0bd 6f73 3fbc
00000280: 9106 073b 8493 723d 211a c7bd f495 6bbc
00000290: 113d 0a3e 32ee ec3d bd8a 0dbe 727d 973d
000002a0: 1627 2c3d 23ac 563d 86dd 09bc e281 1dbe
000002b0: 9401 123e ca9e 1dbe ebc4 fdbd 02ae 113e
000002c0: d426 20be 8f3c 1bbd 32c9 00be 2627 03be
000002d0: 73aa 37bd 4d02 963d 0db9 0abe be69 f9bd
000002e0: 5c15 23bd 5a1c b23d 8643 033e f4f1 e6bd
000002f0: 946b 99bc a78d 193e 04cb bd3d 3a0c 27bd
00000300: 09eb f33c f875 b13c f5a0 a8bc 9ac3 75bd
00000310: 3c3a a33c 8ed3 86bd 6058 47bc 24e1 0c3e
00000320: 7355 903d 7262 233a 9a94 033d 1194 1c3b
00000330: ea70 fcbd ab08 dc3b 7acf 853d c208 6abd
00000340: 44d2 13be 18a3 983d d2a6 ecbd 5976 113e
00000350: 77e3 a0bd b19e ba3d b182 c4bd b643 173c
00000360: f69f f43d 8623 353c 1c1b 6fbd 5547 c6bd
00000370: 7e66 7c3b e1bb 123e bcff 593d 86e1 423d
00000380: 934b f33d b9b5 333d d940 b93d d484 86bc
00000390: 95ef 043e 2b71 08be 032e 9d3d 860d 68bd
000003a0: a22b f33b d3f6 c0bd 7e9f 36bd a19e 4d3d
000003b0: 74bb 863d 0d6b c33d 1f56 3bbd 12b5 023e
000003c0: d120 eebd 0950 a83d 45eb 503d 1b20 f53c
000003d0: 1edd 23bd 5530 233c 1e81 08be 116d 0f3b
000003e0: a9e7 913d d8c6 c1bd a381 03be 6e88 7538
000003f0: a743 0abd c955 233d caf1 0b3e ec72 5b3d

gcn_branch.attention_pooling.attention.0.weight f4 [64, 128]
0.14236498 -0.06525424 -0.1762603 -0.17705533 -0.07464894 0.055096246 0.09072297 0.12466567
0.16714008 -0.006816647 0.037095364 -0.04647395 0.05259792 0.17166933 0.011870025 0.110395424
-0.017286608 -0.07741048 0.09899616 0.057213593 -0.19397026 0.0074283 0.122737594 -0.17793226
-0.12511778 -0.14111261 0.14176355 -0.13920856 -0.14953737 0.1553358 0.054116275 0.17171752
0.028685393 0.032725785 -0.0010163327 0.087764636 -0.14390595 -0.014664028 0.020254476 -0.01238603
0.16953772 -0.10061576 0.086892515 -0.08179826 0.06898403 0.104257695 -0.0016284148 0.20511088
-0.094723165 -0.014578946 -0.20081386 -0.08171749 -0.15180336 -0.08779593 -0.02392117 0.1761585
-0.07315969 0.060639367 -0.1339281 -0.05409947 -0.0527568 0.131383 -0.030871117 0.14462867
0.09115038 -0.046345558 -0.023929408 -0.084320255 0.014393446 0.08400803 0.117172055 0.10983725
0.06230819 -0.0120267775 -0.16437455 0.15780152 0.06607743 0.14455767 0.18208608 0.0804364
-0.031573143 0.10869956 -0.083490774 -0.15308645 0.17517358 0.14888309 -0.14576931 0.0011715955
-0.055054955 -0.04582834 0.04942928 0.15779436 -0.07168995 -0.17974128 0.03932124 0.017364547
0.07303948 0.0671978 -0.08793959 0.051208396 0.019291092 0.14539993 -0.030639451 0.04422881
0.13233237 0.013975718 -0.1266348 0.14168936 0.10910812 0.042049564 -0.027806344 -0.041070793
-0.058004286 0.09758757 0.14388001 0.11474316 0.131519 0.07136627 0.05992218 -0.12308851
0.17484696 0.18771747 0.00040670414 -0.11661537 -0.12215431 -0.07575234 0.04648125 0.044441786
-0.035779938 0.0515284 0.080505155 0.1611713 -0.047781378 0.17562073 -0.08544587 -0.09271217
-0.11223755 -0.03557782 -0.11260051 -0.06523863 -0.10160881 0.15967745 -0.13449444 0.059409186
0.08649823 0.14280148 0.05105437 0.12767729 0.20260069 0.03935308 0.06390611 -0.016048081
-0.16053812 -0.02926445 0.14114676 0.0008189953 0.120203234 0.13375327 0.018009843 -0.066017896
-0.08101583 0.12405714 0.09038527 -0.034906875 0.003561873 -0.003352769 -0.110929 0.031578008
0.04614679 0.06877066 -0.17291886 0.02577356 -0.059270594 0.14556491 0.1449708 -0.0034407647
0.20107393 -0.016389847 -0.0015589814 -0.07132619 0.012664148 0.20322703 -0.1482798 0.10750317
-0.042980086 0.15227708 0.030301452 0.14893523 0.03613658 -0.10768867 0.09472531 0.12701593
0.11675221 -0.050989233 0.035880316 -0.082522646 -0.026697816 -0.044517204 -0.12691756 0.13251752
-0.17785378 -0.02573173 -0.084849335 -0.06386696 0.050868522 -0.17596577 0.011195033 -0.15237074
0.09627752 0.08867963 0.13128291 0.012594851 0.031991195 -0.140901 0.16418572 -0.069670424
-0.007925154 -0.13642152 0.020899575 -0.111442454 0.059049677 0.1792746 0.16617683 0.10672717
-0.051339902 0.17010666 -0.082950115 0.1049615 0.1579649 0.033553865 -0.09308346 -0.13699047
-0.06579435 -0.06320299 -0.09354276 0.14402582 -0.009168786 -0.11456279 0.010122465 -0.13493314
0.014733599 -0.02565292 0.056070033 0.026849689 0.17518082 -0.008614273 0.12340047 -0.08663181
0.05024085 0.030542351 -0.032502808 -0.034411818 -0.1416508 -0.10290799 0.03913894 0.15949306
00000000: 20c8 113e 04a4 85bd 957d 34be fe4d 35be
00000010: 8be1 98bd 9aac 613d f7cc b93d b750 ff3d
00000020: c526 2b3e 2e5e dfbb 4ff1 173d 785b 3ebd
00000030: eb70 573d 16ca 2f3e 7e7a 423c ff16 e23d
00000040: a59c 8dbc 6389 9ebd 80be ca3d cd58 6a3d
00000050: 24a0 46be 1969 f33b d95d fb3d e033 36be
00000060: e01e 00be d37f 10be 772a 113e b08c 0ebe
00000070: 5320 19be 5910 1f3e 07a9 5d3d b8d6 2f3e
00000080: a1fd ea3c 790b 063d 7736 85ba f2bd b33d
00000090: 155c 13be 6441 70bc b7ec a53c c6ee 4abc
000000a0: 4c9b 2d3e a30f cebd b4f4 b13d d985 a7bd
000000b0: 8047 8d3d 0f85 d53d 8970 d5ba 9608 523e
000000c0: 38fe c1bd 88dc 6ebc 26a2 4dbe 805b a7bd
000000d0: 5772 1bbe 5ace b3bd 54f6 c3bc e562 343e
000000e0: bfd4 95bd fc60 783d 7324 09be 6897 5dbd
000000f0: 8417 58bd 4489 063e 6de5 fcbc 8a19 143e
00000100: 0dad ba3d d7d4 3dbd 9b07 c4bc 19b0 acbd
00000110: 7dd2 6b3c 670c ac3d e7f7 ef3d 5af2 e03d
00000120: df36 7f3d f60b 45bc cd51 28be b996 213e
00000130: 9b53 873d ed06 143e c674 3a3e d7bb a43d
00000140: d752 01bd e09d de3d 36fd aabd b2c2 1cbe
00000150: b460 333e cf74 183e 8d44 15be 3990 993a
00000160: 4e81 61bd 7fb6 3bbd 5b76 4a3d d894 213e
00000170: 2ed2 92bd 190e 38be 4f0f 213d 1840 8e3c
00000180: b995 953d 009f 893d ac19 b4bd e5bf 513d
00000190: 5a08 9e3c b8e3 143e 96ff fabc 4529 353d
000001a0: 2382 073e 69fa 643c 8eac 01be 0417 113e
000001b0: 1474 df3d 2a3c 2c3d 21ca e3bc d939 28bd
000001c0: e795 6dbd fedb c73d 4855 133e 76fe ea3d
000001d0: ebac 063e 7b28 923d f670 753d d415 fcbd
000001e0: 150b 333e 0239 403e e83a d539 0ad4 eebd
000001f0: 0a2c fabd 0b24 9bbd 2063 3e3d 9708 363d
00000200: fc8d 12bd 720f 533d e3df a43d 170a 253e
00000210: 68b6 43bd ecd5 333e 3ffe aebd e1df bdbd
00000220: cddc e5bd 0cba 11bd 199b e6bd d59b 85bd
00000230: 4818 d0bd 7c82 233e e9b8 09be 0c57 733d
00000240: fc25 b13d 8d3a 123e 631e 513d d6bd 023e
00000250: 8e76 4f3e b230 213d 35e1 823d 4477 83bc
00000260: 1b64 24be 00bc efbc c788 103e d8b1 563a
00000270: 1d2d f63d 9ef6 083e 6189 933c 6434 87bd
00000280: a1eb a5bd ab11 fe3d ea1b b93d 83fa 0ebd
00000290: 506e 693b 21ba 5bbb be2e e3bd f157 013d
000002a0: 6b04 3d3d a2d7 8c3d a411 31be 1323 d33c
000002b0: b9c5 72bd f80e 153e 3a73 143e 747e 61bb
000002c0: 53e6 4d3e 0044 86bc bc56 ccba 7713 92bd
000002d0: 497d 4f3c bf1a 503e a9d6 17be 9f2a dc3d
000002e0: e30b 30bd 86ee 1b3e c03a f83c 7a82 183e
000002f0: f303 143d e18b dcbd 58ff c13d 7710 023e
00000300: c81b ef3d 16da 50bd 3df7 123d a201 a9bd
00000310: 61b5 dabc ac57 36bd adf6 01be acb2 073e
00000320: 4d1f 36be 59cb d2bc 7dc5 adbd aecc 82bd
00000330: 835b 503d 5f30 34be 5f6b 373c 1307 1cbe
00000340: 262d c53d aa9d b53d 076f 063e a25a 4e3c
00000350: 3309 033d 5a48 10be 4d20 283e 5eaf 8ebd
00000360: 81d8 01bc 15b2 0bbe 9635 ab3c f13b e4bd
00000370: 13de 713d c393 373e 422a 2a3e c693 da3d
00000380: ca49 52bd 7130 2e3e c0e1 a9bd 0ef6 d63d
00000390: 8dc1 213e c76f 093d 8ba2 bebd 3b47 0cbe
000003a0: 30bf 86bd 9270 81bd 5993 bfbd 817b 133e
000003b0: ad38 16bc e59f eabd b2d8 253c ea2b 0abe
000003c0: 3165 713c 1326 d2bc b1a9 653d e1f3 db3c
000003d0: 9a62 333e e122 0dbc 63b9 fc3d 056c b1bd
000003e0: 59c9 4d3d f433 fa3c aa21 05bd 68f3 0cbd
000003f0: e80c 11be 6dc1 d2bd 2750 203d 2652 233e
